results/qvpo_relocate-v0/actor_25_04_22_02_42_41_0.pth (torch, 738865 bytes, 24 tensors)

betas f4 [50]
000000 4f 28 82 3b e9 92 01 3c 6a d0 41 3c 76 e6 80 3c
       0.0039720903 0.007908561 0.011829475 0.015734892
000010 59 c4 a0 3c fd 81 c0 3c 85 1f e0 3c 10 9d ff 3c
       0.019624876 0.023499483 0.02735878 0.031202823
000020 5f 7d 0f 3d 58 1c 1f 3d 84 ab 2e 3d f1 2a 3e 3d
       0.035031673 0.03884539 0.04264404 0.04642767
000030 b0 9a 4d 3d d1 fa 5c 3d 64 4b 6c 3d 78 8c 7b 3d
       0.05019635 0.053950135 0.057689086 0.06141326
000040 0e 5f 85 3d 31 f0 8c 3d ac 79 94 3d 87 fb 9b 3d
       0.06512271 0.068817504 0.072497696 0.076163344
000050 c9 75 a3 3d 7b e8 aa 3d a3 53 b2 3d 4a b7 b9 3d
       0.0798145 0.083451234 0.08707359 0.09068163
000060 77 13 c1 3d 32 68 c8 3d 82 b5 cf 3d 6e fb d6 3d
       0.09427541 0.09785499 0.10142042 0.10497175
000070 ff 39 de 3d 3b 71 e5 3d 2b a1 ec 3d d5 c9 f3 3d
       0.108509056 0.112032376 0.11554178 0.11903731
000080 41 eb fa 3d bb 02 01 3e 3d 8c 04 3e 2c 12 08 3e
       0.12251902 0.12598698 0.12944122 0.13288182
000090 8a 94 0b 3e 5b 13 0f 3e a2 8e 12 3e 64 06 16 3e
       0.13630882 0.13972227 0.14312223 0.14650875
0000a0 a4 7a 19 3e 65 eb 1c 3e ab 58 20 3e 7a c2 23 3e
       0.1498819 0.15324171 0.15658824 0.15992156
0000b0 d4 28 27 3e be 8b 2a 3e 3a eb 2d 3e 4d 47 31 3e
       0.16324168 0.1665487 0.16984263 0.17312355
0000c0 fa 9f 34 3e 44 f5 37 3e
       0.17639151 0.17964655

alphas_cumprod f4 [50]
000000 af fb 7e 3f 72 f7 7c 3f 60 f9 79 3f 72 0a 76 3f
       0.9960279 0.9881507 0.9764614 0.9610969
000010 58 36 71 3f 3e 8b 6b 3f 87 19 65 3f 80 f3 5d 3f
       0.94223547 0.9200934 0.89492077 0.86699677
000020 04 2d 56 3f 29 db 4d 3f db 13 45 3f 7e ed 3b 3f
       0.8366244 0.80412537 0.7698342 0.7340926
000030 93 7e 32 3f 58 dd 28 3f 7c 1f 1f 3f c9 59 15 3f
       0.69724387 0.65962744 0.62157416 0.58340126
000040 e5 9f 0b 3f 17 04 02 3f 24 2e f1 3e a7 cf de 3e
       0.54540855 0.5078749 0.47105515 0.435178
000050 0f 07 cd 3e f3 ea bb 3e 1b 8e ab 3e 8b ff 9b 3e
       0.40044448 0.3670269 0.33506855 0.304684
000060 9a 4a 8d 3e 42 ee 7e 3e 56 13 65 3e 71 07 4d 3e
       0.2759598 0.24895576 0.22370657 0.2002237
000070 14 c8 36 3e da 4d 22 3e 1c 8d 0f 3e 2f ed fc 3d
       0.17849761 0.1585001 0.14018673 0.12349927
000080 2e f0 dd 3d 14 fa c1 3d 47 de a8 3d c2 6d 92 3d
       0.10836826 0.09471527 0.08245521 0.07149841
000090 3e f0 7c 3d e9 98 59 3d 4d 74 3a 3d 1a 23 1f 3d
       0.06175255 0.053124342 0.04552107 0.038851835
0000a0 0c 49 07 3d a4 1b e5 3c 7c 3b c1 3c 91 54 a2 3c
       0.033028647 0.027967282 0.023587935 0.019815715
0000b0 ce d4 87 3c e0 6a 62 3c 4f f6 3b 3c e6 6b 1b 3c
       0.016580965 0.013819426 0.011472299 0.009486174
0000c0 a7 01 00 3c 64 05 d2 3b
       0.007812894 0.006409334

alphas_cumprod_prev f4 [50]
000000 00 00 80 3f af fb 7e 3f 72 f7 7c 3f 60 f9 79 3f
       1.0 0.9960279 0.9881507 0.9764614
000010 72 0a 76 3f 58 36 71 3f 3e 8b 6b 3f 87 19 65 3f
       0.9610969 0.94223547 0.9200934 0.89492077
000020 80 f3 5d 3f 04 2d 56 3f 29 db 4d 3f db 13 45 3f
       0.86699677 0.8366244 0.80412537 0.7698342
000030 7e ed 3b 3f 93 7e 32 3f 58 dd 28 3f 7c 1f 1f 3f
       0.7340926 0.69724387 0.65962744 0.62157416
000040 c9 59 15 3f e5 9f 0b 3f 17 04 02 3f 24 2e f1 3e
       0.58340126 0.54540855 0.5078749 0.47105515
000050 a7 cf de 3e 0f 07 cd 3e f3 ea bb 3e 1b 8e ab 3e
       0.435178 0.40044448 0.3670269 0.33506855
000060 8b ff 9b 3e 9a 4a 8d 3e 42 ee 7e 3e 56 13 65 3e
       0.304684 0.2759598 0.24895576 0.22370657
000070 71 07 4d 3e 14 c8 36 3e da 4d 22 3e 1c 8d 0f 3e
       0.2002237 0.17849761 0.1585001 0.14018673
000080 2f ed fc 3d 2e f0 dd 3d 14 fa c1 3d 47 de a8 3d
       0.12349927 0.10836826 0.09471527 0.08245521
000090 c2 6d 92 3d 3e f0 7c 3d e9 98 59 3d 4d 74 3a 3d
       0.07149841 0.06175255 0.053124342 0.04552107
0000a0 1a 23 1f 3d 0c 49 07 3d a4 1b e5 3c 7c 3b c1 3c
       0.038851835 0.033028647 0.027967282 0.023587935
0000b0 91 54 a2 3c ce d4 87 3c e0 6a 62 3c 4f f6 3b 3c
       0.019815715 0.016580965 0.013819426 0.011472299
0000c0 e6 6b 1b 3c a7 01 00 3c
       0.009486174 0.007812894

sqrt_alphas_cumprod f4 [50]
000000 b7 7d 7f 3f 91 7a 7e 3f 18 f8 7c 3f 94 f8 7a 3f
       0.998012 0.9940577 0.9881606 0.9803555
000010 05 7f 78 3f 1d 8f 75 3f 39 2d 72 3f 51 5e 6e 3f
       0.97068816 0.959215 0.94600254 0.93112665
000020 ed 27 6a 3f 1f 90 65 3f 6b 9d 60 3f b9 56 5b 3f
       0.9146717 0.89673036 0.877402 0.85679203
000030 4d c3 55 3f ab ea 4f 3f 91 d4 49 3f dc 88 43 3f
       0.8350113 0.8121745 0.78839976 0.76380706
000040 81 0f 3d 3f 75 70 36 3f 9f b3 2f 3f ce e0 28 3f
       0.7385178 0.71265346 0.68633455 0.65968025
000050 a1 ff 21 3f 82 17 1b 3f 95 2f 14 3f b0 4e 0d 3f
       0.63280684 0.60582745 0.57885104 0.5519819
000060 4a 7b 06 3f fd 76 ff 3e f3 29 f2 3e f4 19 e5 3e
       0.52531874 0.49895468 0.4729763 0.44746363
000070 95 50 d8 3e 7b d6 cb 3e 59 b3 bf 3e ee ed b3 3e
       0.4224898 0.39812073 0.3744152 0.35142463
000080 08 8c a8 3e 84 92 9d 3e 58 05 93 3e 96 e7 88 3e
       0.32919335 0.30775845 0.28715014 0.26739186
000090 f2 76 7e 3e d5 04 6c 3e 2c 7a 5a 3e dc d6 49 3e
       0.24850062 0.23048718 0.21335667 0.19710869
0000a0 7d 19 3a 3e 72 3f 2b 3e 08 45 1d 3e 91 25 10 3e
       0.18173786 0.16723421 0.15358365 0.1407683
0000b0 86 db 03 3e 3b c1 f0 3d de 5b db 3d 13 78 c7 3d
       0.1287671 0.11755606 0.10710882 0.09739699
0000c0 1e 06 b5 3d 9d f5 a3 3d
       0.088390574 0.080058314

sqrt_one_minus_alphas_cumprod f4 [50]
000000 18 13 81 3d 11 ef de 3d e5 1a 1d 3e f3 f8 49 3e
       0.0630247 0.10885442 0.1534229 0.19723873
000010 5a 1c 76 3e 1c bb 90 3e 34 f8 a5 3e 72 b9 ba 3e
       0.24034253 0.28267753 0.32415926 0.3646961
000020 fa f2 ce 3e 7d 99 e2 3e 93 a2 f5 3e 6e 02 04 3f
       0.4041975 0.44257727 0.47975597 0.5156621
000030 0e dc 0c 3f a8 5a 15 3f 57 7b 1d 3f dc 3b 25 3f
       0.55023277 0.58341455 0.61516327 0.64544463
000040 99 9a 2c 3f 92 96 33 3f 6a 2f 3a 3f 58 65 40 3f
       0.674234 0.7015163 0.727286 0.7515464
000050 29 39 46 3f 2f ac 4b 3f 3c c0 50 3f 97 77 55 3f
       0.7743097 0.79559606 0.81543326 0.83385605
000060 f2 d4 59 3f 57 db 5d 3f 24 8e 61 3f fc f0 64 3f
       0.85090554 0.8666281 0.88107514 0.8943021
000070 b6 07 68 3f 57 d6 6a 3f fd 60 6d 3f dd ab 6f 3f
       0.90636766 0.91733307 0.9272612 0.9362162
000080 31 bb 71 3f 2e 93 73 3f fd 37 75 3f b2 ad 76 3f
       0.94426256 0.95146453 0.95788556 0.9635879
000090 40 f8 77 3f 78 1b 79 3f fe 1a 7a 3f 4a fa 7a 3f
       0.96863174 0.9730754 0.97697437 0.9803816
0000a0 a1 bc 7b 3f 12 65 7c 3f 75 f6 7c 3f 6e 73 7d 3f
       0.983347 0.9859172 0.98813564 0.99004257
0000b0 68 de 7d 3f 97 39 7e 3f fe 86 7e 3f 6b c8 7e 3f
       0.9916749 0.99306625 0.9942473 0.99524564
0000c0 7c ff 7e 3f a4 2d 7f 3f
       0.9960859 0.9967902

log_one_minus_alphas_cumprod f4 [50]
000000 1f e9 b0 c0 84 ef 8d c0 7c f1 6f c0 9f c9 4f c0
       -5.528457 -4.4354877 -3.749114 -3.246681
000010 04 7d 36 c0 ae b8 21 c0 d1 31 10 c0 c9 1c 01 c0
       -2.8513803 -2.526897 -2.2530406 -2.017382
000020 e5 e5 e7 bf 08 ad d0 bf bb 06 bc bf ba 8c a9 bf
       -1.8117033 -1.6302805 -1.4689554 -1.3246071
000030 1d f0 98 bf 8c f2 89 bf a3 c3 78 bf 68 29 60 bf
       -1.1948277 -1.0777144 -0.9717352 -0.8756318
000040 b6 d1 49 bf 7d 82 35 bf fc 09 23 bf 18 3d 12 bf
       -0.7883562 -0.70902234 -0.6368711 -0.5712447
000050 0a f6 02 bf d1 26 ea be bb ee d0 be 1d 0e ba be
       -0.51156676 -0.4573274 -0.40807137 -0.36338893
000060 3e 54 a5 be b1 94 92 be ac a6 81 be 0d c9 64 be
       -0.32290834 -0.28629068 -0.25322473 -0.2234232
000070 de 56 49 be 05 b6 30 be 3d aa 1a be 3b fb 06 be
       -0.19662043 -0.17256935 -0.15104003 -0.13181774
000080 ef e8 ea bd a9 c9 cb bd 06 3d b0 bd 58 ed 97 bd
       -0.1147021 -0.09950573 -0.08605389 -0.074183166
000090 f0 8a 82 bd 2b 97 5f bd dd d4 3e bd a3 4f 22 bd
       -0.063741565 -0.054587524 -0.04658972 -0.03962673
0000a0 eb 91 09 bd 68 5f e8 bc 42 8c c3 bc e2 f5 a3 bc
       -0.033586424 -0.028365806 -0.023870591 -0.020014707
0000b0 42 f8 88 bc 3d ff 63 bc 64 0c 3d bc ec 29 1c bc
       -0.016719941 -0.013915834 -0.011538599 -0.009531479
0000c0 6f 82 00 bc 8a b2 d2 bb
       -0.007843598 -0.006429975

sqrt_recip_alphas_cumprod f4 [50]
000000 46 41 80 3f e1 c3 80 3f 9a 88 81 3f 9d 90 82 3f
       1.001992 1.0059777 1.0119812 1.0200382
000010 7f dd 83 3f 44 71 85 3f 63 4e 87 3f c7 77 89 3f
       1.030197 1.0425191 1.0570797 1.0739678
000020 df f0 8b 3f a4 bd 8e 3f 9f e2 91 3f fd 64 95 3f
       1.0932883 1.1151624 1.1397284 1.1671444
000030 95 4a 99 3f 02 9a 9d 3f ac 5a a2 3f e2 94 a7 3f
       1.1975886 1.2312624 1.2683921 1.309231
000040 f4 51 ad 3f 46 9c b3 3f 7a 7f ba 3f 8d 08 c2 3f
       1.3540635 1.4032066 1.4570153 1.515886
000050 ff 45 ca 3f 02 48 d3 3f b0 20 dd 3f 44 e4 e7 3f
       1.5802611 1.650635 1.72756 1.8116536
000060 5d a9 f3 3f a7 44 00 40 37 50 07 40 44 07 0f 40
       1.903606 2.0041902 2.114271 2.2348185
000070 a3 7b 17 40 59 c1 20 40 e9 ee 2a 40 a9 1d 36 40
       2.3669212 2.511801 2.670832 2.8455603
000080 24 6a 42 40 8e f4 4f 40 42 e1 5e 40 5e 59 6f 40
       3.0377283 3.2493014 3.4824986 3.7398295
000090 b7 c5 80 40 1b d6 8a 40 cd fb 95 40 d3 58 a2 40
       4.024135 4.338636 4.6869874 5.073343
0000a0 ea 13 b0 40 31 59 bf 40 04 5b d0 40 eb 52 e3 40
       5.502431 5.9796376 6.5111103 7.103872
0000b0 bd 82 f8 40 f3 1a 08 41 7b 61 15 41 b0 46 24 41
       7.7659593 8.506579 9.336299 10.267258
0000c0 c8 03 35 41 b4 da 47 41
       11.313423 12.490894

sqrt_recipm1_alphas_cumprod f4 [50]
000000 ba 54 81 3d 3f 44 e0 3d c8 fc 1e 3e 0d 05 4e 3e
       0.063149884 0.10950517 0.15526116 0.20119114
000010 eb 8a 7d 3e 7b e2 96 3e 69 71 af 3e 37 89 c8 3e
       0.24760024 0.29469666 0.34266213 0.39167187
000020 4b 41 e2 3e fe b1 fc 3e 87 fa 0b 3f fc 12 1a 3f
       0.4419044 0.49354547 0.5467915 0.6018522
000030 1c b1 28 3f e7 e4 37 3f a9 bf 47 3f 49 54 58 3f
       0.6589525 0.7183365 0.78026825 0.8450361
000040 76 b7 69 3f d3 ff 7b 3f 29 a3 87 3f 3a d3 91 3f
       0.91295564 0.9843723 1.0596668 1.1392586
000050 4d 9f 9c 3f 35 18 a8 3f 9c 50 b4 3f 41 5d c1 3f
       1.2236115 1.3132387 1.40871 1.5106584
000060 3f 55 cf 3f 54 52 de 3f 43 71 ee 3f 39 d2 ff 3f
       1.619789 1.7368875 1.8628315 1.998603
000070 9c 4c 09 40 53 77 13 40 f0 7f 1e 40 f4 7f 2a 40
       2.1453009 2.304158 2.4765587 2.6640596
000080 14 94 37 40 b1 dc 45 40 53 7e 55 40 46 a2 66 40
       2.868413 3.091595 3.3358352 3.6036544
000090 46 77 79 40 26 19 87 40 b7 87 92 40 79 29 9f 40
       3.8979049 4.22182 4.5790668 4.9738126
0000a0 44 25 ad 40 57 a7 bc 40 2e e2 cd 40 72 0f e1 40
       5.410799 5.895427 6.43386 7.0331354
0000b0 1a 71 f6 40 5c 29 07 41 7e 85 14 41 be 7e 23 41
       7.7013063 8.4475975 9.282591 10.218443
0000c0 67 4e 34 41 7b 36 47 41
       11.269141 12.450801

posterior_variance f4 [50]
000000 00 00 00 00 2a be 2d 3b a2 21 c3 3b e0 fb 1b 3c
       0.0 0.0026511052 0.005954937 0.009520501
000010 c2 8b 58 3c fd 29 8b 3c b6 6e aa 3c 90 f2 c9 3c
       0.013216915 0.016987795 0.020804744 0.024651796
000020 e4 a0 e9 3c 23 b6 04 3d 98 a5 14 3d 48 9b 24 3d
       0.028519101 0.03240026 0.036290735 0.04018715
000030 79 94 34 3d de 8e 44 3d 92 88 54 3d d3 7f 64 3d
       0.044086907 0.04798781 0.051888056 0.055785965
000040 10 73 74 3d 69 30 82 3d d3 23 8a 3d 1b 13 92 3d
       0.059680045 0.0635689 0.06745114 0.0713255
000050 92 fd 99 3d 95 e2 a1 3d 80 c1 a9 3d b3 99 b1 3d
       0.07519068 0.07904545 0.0828886 0.08671894
000060 91 6a b9 3d 89 33 c1 3d 07 f4 c8 3d 7d ab d0 3d
       0.09053529 0.09433658 0.098121695 0.10188959
000070 70 59 d8 3d 63 fd df 3d ec 96 e7 3d a1 25 ef 3d
       0.10563934 0.109370016 0.11308083 0.11677099
000080 2e a9 f6 3d 46 21 fe 3d d8 c6 02 3e 1c 77 06 3e
       0.12043987 0.1240869 0.12771165 0.13131374
000090 60 21 0a 3e 99 c5 0d 3e c4 63 11 3e e5 fb 14 3e
       0.13489294 0.13844909 0.14198214 0.14549215
0000a0 07 8e 18 3e 38 1a 1c 3e 8f a0 1f 3e 24 21 23 3e
       0.14897929 0.15244377 0.15588592 0.15930611
0000b0 11 9c 26 3e 7d 11 2a 3e 83 81 2d 3e 4e ec 30 3e
       0.16270472 0.16608234 0.16943936 0.17277643
0000c0 ff 51 34 3e bd b2 37 3e
       0.17609404 0.17939277

posterior_log_variance_clipped f4 [50]
000000 f1 34 38 c2 53 d9 bd c0 ff f3 a3 c0 17 f0 94 c0
       -46.0517 -5.932779 -5.1235347 -4.654308
000010 b4 70 8a c0 88 68 82 c0 42 d8 77 c0 68 fc 6c c0
       -4.3262577 -4.07526 -3.8725743 -3.7029057
000020 db a8 63 c0 62 7e 5b c0 81 3c 54 c0 96 b5 4d c0
       -3.5571811 -3.4295888 -3.3161929 -3.2142081
000030 2c c8 47 c0 11 5b 42 c0 cb 5a 3d c0 0a b8 38 c0
       -3.1215925 -3.0368083 -2.9586666 -2.8862329
000040 86 66 34 c0 42 5c 30 c0 07 91 2c c0 f9 fd 28 c0
       -2.8187575 -2.755631 -2.6963518 -2.6405013
000050 56 9d 25 c0 34 6a 22 c0 62 60 1f c0 3d 7c 1c c0
       -2.587728 -2.5377321 -2.4902577 -2.445083
000060 a0 ba 19 c0 c3 18 17 c0 39 94 14 c0 da 2a 12 c0
       -2.4020157 -2.3608863 -2.3215468 -2.2838655
000070 b8 da 0f c0 18 a2 0d c0 6d 7f 0b c0 4e 71 09 c0
       -2.2477245 -2.2130184 -2.1796525 -2.1475406
000080 73 76 07 c0 b1 8d 05 c0 f3 b5 03 c0 3d ee 01 c0
       -2.1166046 -2.0867732 -2.0579803 -2.030166
000090 a4 35 00 c0 9d 16 fd bf e8 dc f9 bf af bc f6 bf
       -2.003274 -1.9772526 -1.952054 -1.9276332
0000a0 91 b4 f3 bf 48 c3 f0 bf 9e e7 ed bf 72 20 eb bf
       -1.903948 -1.8809595 -1.8586309 -1.8369277
0000b0 bc 6c e8 bf 76 cb e5 bf ba 3b e3 bf a4 bc e0 bf
       -1.8158183 -1.7952716 -1.7752602 -1.7557569
0000c0 67 4d de bf 3e ed db bf
       -1.7367371 -1.7181776

posterior_mean_coef1 f4 [50]
000000 a0 ff 7f 3f b3 85 2a 3f ae c7 ff 3e 31 a2 cc 3e
       0.9999943 0.6661026 0.4995703 0.39967492
000010 86 87 aa 3e b1 28 92 3e ff bc 7f 3e b0 42 63 3e
       0.3330652 0.2854667 0.2497444 0.22193408
000020 9f 72 4c 3e bf bf 39 3e 22 21 2a 3e 31 df 1c 3e
       0.199656 0.18139552 0.16614202 0.15319516
000030 b4 76 11 3e 45 87 07 3e 12 91 fd 3d 20 06 ee 3d
       0.14205438 0.13235195 0.123811856 0.11622262
000040 5a 17 e0 3d 7f 80 d3 3d dd 0a c8 3d 2b 8a bd 3d
       0.10941954 0.10327243 0.09767697 0.09254869
000050 2c da b3 3d fe dc aa 3d c9 79 a2 3d d3 9b 9a 3d
       0.08781847 0.08342932 0.07933385 0.07549252
000060 b3 31 93 3d c6 2c 8c 3d bb 80 85 3d 55 46 7e 3d
       0.07187214 0.06844477 0.06518694 0.062078793
000070 c2 16 72 3d 1d 64 66 3d 4a 22 5b 3d 45 47 50 3d
       0.059103735 0.05624782 0.053499497 0.050849218
000080 ec ca 45 3d b8 a6 3b 3d 8d d5 31 3d 87 53 28 3d
       0.048289225 0.045813292 0.04341655 0.041095283
000090 c6 1d 1f 3d 54 32 16 3d f0 8f 0d 3d f7 35 05 3d
       0.038846754 0.03666909 0.034561098 0.032522168
0000a0 70 48 fa 3c bd b5 ea 3c a1 b4 db 3c 2d 46 cd 3c
       0.030552119 0.028651113 0.026819529 0.025057876
0000b0 84 6b bf 3c c1 25 b2 3c be 75 a5 3c 0b 5c 99 3c
       0.023366697 0.021746518 0.020197745 0.018720647
0000c0 c9 d8 8d 3c 9e eb 82 3c
       0.017315285 0.015981492

posterior_mean_coef2 f4 [50]
000000 00 00 00 00 d3 f3 aa 3e ff 1a 00 3f ca ab 19 3f
       0.0 0.33389148 0.5004119 0.60027754
000010 ca b5 2a 3f 0f e0 36 3f d2 fd 3f 3f 8a 12 47 3f
       0.6668364 0.71435636 0.74996674 0.77762663
000020 ab b9 4c 3f 3a 56 51 3f 04 2a 55 3f 8e 62 58 3f
       0.79970807 0.81772196 0.83267236 0.8452538
000030 51 20 5b 3f fe 7a 5d 3f 64 84 5f 3f fd 49 61 3f
       0.85596186 0.86515796 0.8731139 0.8800352
000040 47 d6 62 3f 85 31 64 3f 3b 62 65 3f b9 6d 66 3f
       0.8860821 0.8913806 0.8960301 0.90011173
000050 49 58 67 3f 7a 25 68 3f 3a d8 68 3f 06 73 69 3f
       0.9036909 0.90682185 0.90954936 0.91191137
000060 f5 f7 69 3f d7 68 6a 3f 3d c7 6a 3f 7c 14 6b 3f
       0.9139398 0.9156622 0.91710263 0.9182813
000070 d2 51 6b 3f 54 80 6b 3f 00 a1 6b 3f ba b4 6b 3f
       0.9192172 0.9199269 0.9204254 0.9207264
000080 5f bc 6b 3f b5 b8 6b 3f 7f aa 6b 3f 70 92 6b 3f
       0.92084306 0.92078716 0.9205703 0.9202032
000090 3b 71 6b 3f 82 47 6b 3f ea 15 6b 3f 0d dd 6a 3f
       0.9196965 0.9190599 0.91830313 0.91743547
0000a0 83 9d 6a 3f dd 57 6a 3f a6 0c 6a 3f 60 bc 69 3f
       0.91646594 0.9154032 0.9142555 0.9130306
0000b0 89 67 69 3f 9b 0e 69 3f 04 b2 68 3f 32 52 68 3f
       0.9117361 0.9103791 0.9089663 0.9075042
0000c0 81 ef 67 3f 4f 8a 67 3f
       0.9059983 0.9044542

model.time_mlp.1.weight f4 [256, 32]
000000 d9 41 6f 3e a2 92 60 bd 78 f3 36 bd c9 0f 53 3b
       0.23364963 -0.05482734 -0.044665784 0.0032205454
000010 29 34 dc 3d 12 73 91 3d c9 0a c2 bd 68 5d ce bd
       0.10752136 0.07102026 -0.09474713 -0.100764096
000020 27 cf 02 3d cd a9 48 bc d8 a0 a8 bc 73 af 40 bd
       0.031935837 -0.012247515 -0.020584509 -0.04704232
000030 1c 70 69 3d b3 8a 1e be 98 5e 0d 3e 79 8f 10 bd
       0.05699168 -0.15482597 0.13805616 -0.035293076
000040 bd 8d 49 bc be 93 1c bd 5b b5 54 be 95 1f 14 3d
       -0.012301859 -0.038226835 -0.20772307 0.03616293
000050 c9 7f 3b 3e 39 36 30 be 46 48 b3 3d ba 77 a5 3c
       0.18310465 -0.17208184 0.087540194 0.020198692
000060 3c 78 14 bd e6 34 7b 3d 12 3b 21 3e 36 3e cb 3d
       -0.036247477 0.061329745 0.1574519 0.09923975
000070 3b 9c d7 3d 0f 90 83 bb c5 f4 9c 3d c8 41 16 3e
       0.105278455 -0.004014976 0.076638736 0.14673531
000080 71 c9 35 bd 50 54 31 bd db 5c b0 3c 60 39 fc bc
       -0.044381563 -0.043293297 0.021528652 -0.030789077
000090 bc c8 91 3c ce e6 8f bd 87 6e e3 3d eb 26 c1 3d
       0.017795913 -0.070264444 0.11105066 0.09431251
0000a0 95 42 5d bd 8f 75 cd bc e5 a2 eb 3c 14 b0 b5 3d
       -0.054018576 -0.02508047 0.028764198 0.08871475
0000b0 4e 6a 16 3e 14 4c 1a 3c 03 45 9c 3c 8d 81 2e 3e
       0.1468899 0.0094175525 0.019075876 0.17041607
0000c0 06 49 3f bd 5f 3c e2 3d 6a 56 95 3d 0a 8a b7 3c
       -0.0467005 0.11046671 0.07291873 0.02240469
0000d0 a0 e3 b3 bd f2 af de bd 38 31 d5 bd 59 65 89 3c
       -0.087836504 -0.10873403 -0.10409778 0.01677196
0000e0 a8 6b a5 bd e5 c3 a5 bd df 56 07 be 39 e6 ca bd
       -0.080771744 -0.080940045 -0.13216732 -0.09907193
0000f0 1b 05 13 bc d8 c0 fb 3b 66 4c 90 3d 55 aa 0d bd
       -0.008973385 0.007682901 0.07045822 -0.03458627
000100 bc 9b 83 3d 0b da 92 3d c8 c6 da bd 26 44 85 bd
       0.06426188 0.07170495 -0.10682446 -0.06507139
000110 1f b3 52 3b b4 27 fc 3d 11 35 30 3d 79 0a 98 bd
       0.0032150222 0.1231226 0.043019358 -0.074238725
000120 69 d8 2a 3d 2b ed 03 3e c5 a5 bc bd 3a b6 a4 bc
       0.04171029 0.12883441 -0.092113055 -0.020106424
000130 9f 9a ee 3c 97 29 b4 bd e0 f5 ad bc bd 69 5a 3d
       0.029126463 -0.08796995 -0.021235406 0.053323496
000140 26 9c b0 bd 35 4a be 3c 47 6b e6 3d f6 5a 26 bc
       -0.08623533 0.023228744 0.1125093 -0.010153523
000150 df 14 d8 bd fb 68 25 be 41 84 12 3e ef 93 b3 3d
       -0.10550856 -0.16153328 0.14308263 0.087684505
000160 7d e5 c3 3d 86 91 f4 bc 48 ef 38 3c 2e 52 c5 bd
       0.09565256 -0.029854547 0.011287518 -0.09634815
000170 a1 0d 35 bd a1 fa 49 be 86 81 d1 3d 9a 5e ca 3c
       -0.04420245 -0.19724514 0.10229783 0.024703313
000180 7e 67 5f 3d 77 44 62 bd 36 03 7f bc 24 0d 85 3d
       0.054542057 -0.055241074 -0.01556473 0.06496647
000190 22 ac cf bc db e9 aa bd 8f fd 36 3d f7 a6 10 b9
       -0.025350634 -0.08345386 0.044675406 -0.0001379511
0001a0 ed fe 05 3d ba 45 b0 bd ac e5 d4 bd 09 80 0a bd
       0.03271382 -0.08607049 -0.10395369 -0.03381351
0001b0 d2 e7 64 bd f4 ab 02 bd ae 71 f4 bd 43 e4 56 3b
       -0.055885144 -0.03190227 -0.11935745 0.0032789863
0001c0 86 a4 4a bd 00 37 81 3c b2 b7 b7 bd b3 8b 24 3b
       -0.049473308 0.015773296 -0.08970584 0.0025107681
0001d0 11 d3 0a 3d 52 f5 a7 bc 96 b3 21 3e ca f9 19 be
       0.033892695 -0.02050272 0.15791163 -0.15036693
0001e0 15 c2 56 be 7b ec 29 3e 1d 7a 5f bd 69 88 95 bd
       -0.20972474 0.16594116 -0.054559816 -0.07301409
0001f0 ab f0 6d bd 18 65 84 3d 23 38 95 bd 54 1d 88 bd
       -0.058090847 0.064645946 -0.07286098 -0.06646219
000200 fa af 11 be e6 c8 ef 3d 61 ce e3 bb eb 46 ae bd
       -0.14227286 0.1170824 -0.0069520925 -0.0850962
000210 db f5 f7 3d d4 41 13 be ce 07 5c 3d 9d cc 78 3d
       0.1210744 -0.1438058 0.05371838 0.06074201
000220 8d fe 05 3d 44 7b ed 3c 9e f5 5d 3d 41 9f 76 3d
       0.03271346 0.028989442 0.054189317 0.06021047
000230 5d 5c 1b bc cd 25 e7 3d 49 f3 65 3d df 30 06 be
       -0.00948247 0.11286507 0.056140218 -0.1310458
000240 83 95 3e 3e 44 a1 b0 bd fb 5b 2f be 56 03 bc bd
       0.18611722 -0.08624509 -0.17124932 -0.09180324
000250 27 13 7c bd 58 c9 3b bd 58 03 21 bd b5 44 86 3e
       -0.061541703 -0.045846313 -0.03930983 0.26224294
000260 be cd 51 bd 58 29 34 bd ff 8f 49 bd 3d be e2 bd
       -0.0512216 -0.04398474 -0.04920959 -0.11071441
000270 85 9a df 3a c7 36 97 3d 3e b4 47 3c 4d 82 3d be
       0.00170596 0.07383495 0.012188969 -0.18506737
000280 b4 19 53 3d 3f bd 91 bd 06 43 15 3e 4c b2 95 3d
       0.051538184 -0.07116174 0.14576349 0.07309398
000290 4d 31 e0 bd f3 56 10 3e 54 de 05 bd 63 3b 00 3e
       -0.109469034 0.14095668 -0.03268273 0.12522654
0002a0 58 e4 33 3e b4 4f 03 be f7 22 95 bd 8c ee 6e 3c
       0.17567575 -0.12823373 -0.0728206 0.014583241
0002b0 60 b1 db bc 9c 61 04 3d 43 bc d5 bd 67 44 75 3d
       -0.026817977 0.03231965 -0.10436299 0.059879687
0002c0 a0 0b 07 bc c4 40 28 3e ac 2d 86 3d 2f ad 40 3e
       -0.008242518 0.16430956 0.0655168 0.18816064
0002d0 c2 91 51 be 92 a0 99 3d d8 0a ee 3d 1f 60 98 bd
       -0.20465758 0.075013295 0.11623162 -0.07440209
0002e0 8c fb fb bc 71 1b 25 3d b4 32 ce bc 8e 1d 82 bd
       -0.030759595 0.040309373 -0.025170662 -0.06353293
0002f0 50 20 12 bd fc ba 4c 3a 88 31 c5 b9 84 dd 90 3d
       -0.035675347 0.0007809845 -0.00037611672 0.07073501
000300 6d b7 4e be 09 05 b5 bd 3d 55 46 bd fc e4 87 3d
       -0.20187159 -0.08838851 -0.048421133 0.06635472
000310 54 b4 83 bd 19 05 ce bd 6b 7d a9 bb fc 95 b0 bc
       -0.06430879 -0.10059566 -0.0051724217 -0.021555893
000320 7e 80 f3 bd bc 84 33 3d 4a 6f 5b bd 6b d4 cb bd
       -0.11889742 0.043827757 -0.05357293 -0.09952625
000330 e4 eb 47 3d 8a 00 96 3c 1e c8 bf 3d 25 29 8d bd
       0.048808947 0.018310804 0.09364341 -0.06892613
000340 1a 7e 02 be 5f ca 1c be f2 e1 37 be dd 64 b6 bd
       -0.12743416 -0.15311573 -0.17957285 -0.08905957
000350 ed 28 95 3d 42 be c0 3d cb 32 02 be f1 36 c5 bd
       0.072831966 0.09411289 -0.12714688 -0.0962962
000360 6b 54 6a 3d 0c d2 25 3d b6 7a 04 3e d9 95 0f be
       0.057209413 0.04048352 0.12937436 -0.14022006
000370 3e dd e6 bc 6d ec e5 3c 6a 8e 6a bc 81 d7 a2 bd
       -0.028181668 0.028066838 -0.014316181 -0.0795126
000380 e8 a5 0e be 2d 44 ca bc 0c b8 c9 3d a5 91 c3 bd
       -0.13930476 -0.024690712 0.09849557 -0.09549264
000390 54 fe 2b bc 49 24 5e bd 85 f1 36 bd 31 1e b5 bd
       -0.010497648 -0.054233823 -0.044663925 -0.08843649
0003a0 73 17 71 3d d1 7a e7 bd 8c b5 c8 bd ad 33 10 be
       0.058860254 -0.11302722 -0.09800252 -0.14082213
0003b0 aa 3b 51 bc 23 c9 10 3e 17 75 0f 3d e3 a6 83 3b
       -0.012770573 0.14139228 0.035023775 0.004017697
0003c0 bd f5 29 bd a0 82 f8 3d 37 cc bb 3d 46 ee 8d bd
       -0.04149412 0.1213429 0.0916981 -0.06930213
0003d0 0a 1a 8d bd 29 6d 67 bd 87 38 d0 bd fc 71 77 bc
       -0.06889732 -0.056500588 -0.10167032 -0.01510286
0003e0 9a 20 82 bd c5 cf b6 3d 85 8e 83 3d 16 14 80 3c
       -0.063538745 0.08926348 0.06423668 0.015634578
0003f0 99 25 82 3d be 15 0a 3d 65 21 3b 3d 4b f0 78 3d
       0.063548274 0.03371214 0.045686144 0.060776036

model.time_mlp.1.bias f4 [256]
000000 97 27 4d 38 0d e2 51 37 20 50 3a b8 67 9e 5a 37
       4.891268e-05 1.2510002e-05 -4.4420478e-05 1.30306935e-05
000010 bd 4c 22 38 8b 1d 58 38 a9 cb 00 b8 9f 0e 00 b8
       3.8695278e-05 5.1525927e-05 -3.070725e-05 -3.0531195e-05
000020 43 95 6c b7 2f 30 ac b7 9d 15 07 38 2b dd 07 b7
       -1.4101449e-05 -2.0526435e-05 3.2206637e-05 -8.098122e-06
000030 55 04 21 b8 71 6a de 37 24 57 07 b7 b6 b8 e0 b7
       -3.8389426e-05 2.6514028e-05 -8.066916e-06 -2.6788894e-05
000040 32 ae f7 36 af 92 dc b6 5e 4a 63 37 81 2a b6 b7
       7.3814526e-06 -6.573587e-06 1.3547569e-05 -2.1715883e-05
000050 4b 38 11 38 f6 9a 81 b7 54 af 73 b7 ca 16 04 37
       3.462312e-05 -1.5450158e-05 -1.452475e-05 7.873119e-06
000060 c3 37 77 38 32 f0 8e 36 bf c0 47 37 27 e9 f7 37
       5.894132e-05 4.259892e-06 1.19062015e-05 2.9553265e-05
000070 63 b0 24 37 e8 67 c9 b7 ac d1 01 b8 9c e5 21 38
       9.81623e-06 -2.4009452e-05 -3.095127e-05 3.859923e-05
000080 13 71 19 38 55 9f 82 b7 72 e0 03 37 fa aa e1 b7
       3.658335e-05 -1.5571402e-05 7.860466e-06 -2.6901707e-05
000090 f1 c3 3f b8 df 56 8a b7 b5 0e a2 37 c1 39 98 b6
       -4.5720433e-05 -1.6491334e-05 1.9318753e-05 -4.5366764e-06
0000a0 0c f9 e4 b5 c6 1f 64 38 bc 94 06 38 a3 0e 0d b8
       -1.7059806e-06 5.4389027e-05 3.208661e-05 -3.363065e-05
0000b0 1d 18 a1 37 77 46 21 38 3f 6e 14 38 50 ce 91 36
       1.9203924e-05 3.8451017e-05 3.5388624e-05 4.3453547e-06
0000c0 0f 19 18 38 42 43 f4 b7 55 1d 3b b7 e3 0a d9 37
       3.626296e-05 -2.9118386e-05 -1.1152898e-05 2.5873485e-05
0000d0 dd 4a a0 b7 00 a4 1d b8 5b f0 0e 37 70 63 33 38
       -1.9108347e-05 -3.7584454e-05 8.519822e-06 4.2769534e-05
0000e0 0f c6 19 38 05 7e 96 37 52 7e 47 37 16 3d 52 37
       3.66625e-05 1.7940076e-05 1.1890736e-05 1.2531198e-05
0000f0 b6 29 c0 37 39 a3 1e b8 4b 77 c5 37 08 06 db 36
       2.2907607e-05 -3.782215e-05 2.353978e-05 6.5274107e-06
000100 b0 35 26 38 b8 58 57 37 a7 ca f1 b7 d0 c0 8a 37
       3.9627485e-05 1.2835655e-05 -2.8823806e-05 1.6540667e-05
000110 36 41 9a 36 e1 6a 02 b8 23 5e 9a 36 0b 84 38 38
       4.597149e-06 -3.1093954e-05 4.6005166e-06 4.3991993e-05
000120 9c 80 9e b7 b5 69 41 37 2f 8c 3b 36 dd db a6 36
       -1.8894956e-05 1.1528308e-05 2.794677e-06 4.972781e-06
000130 44 10 65 b7 7d ef eb 37 62 2a 27 38 63 f8 46 36
       -1.3653251e-05 2.8125703e-05 3.9855375e-05 2.964888e-06
000140 06 4b f2 b5 50 0f 73 b6 53 c2 a0 37 69 86 fa b6
       -1.805224e-06 -3.6218735e-06 1.9163976e-05 -7.466228e-06
000150 c6 9d 04 b8 b0 1d ec 37 d2 75 55 b7 47 f5 d1 37
       -3.161819e-05 2.8147217e-05 -1.27232215e-05 2.5028958e-05
000160 12 ca 3d b6 58 76 2f 37 7d db fc b7 ef 80 4f 38
       -2.8280815e-06 1.0458367e-05 -3.0142948e-05 4.9472725e-05
000170 25 c3 8e b5 d4 57 94 b7 8d 3f f6 36 8f e4 0c 37
       -1.0636619e-06 -1.7683873e-05 7.3387696e-06 8.397866e-06
000180 3b 0f 2b 38 66 ec c5 37 03 ad 99 b7 b8 fb 02 37
       4.078376e-05 2.3594312e-05 -1.8319586e-05 7.807212e-06
000190 86 2f c1 b7 e5 c1 58 38 8f f4 04 b8 6b be 05 38
       -2.3029523e-05 5.167899e-05 -3.1699015e-05 3.188701e-05
0001a0 16 2b bb 37 13 21 ac 37 b3 6e 26 b8 61 b4 48 38
       2.23122e-05 2.05194e-05 -3.968058e-05 4.7851707e-05
0001b0 45 a9 7f b6 9c 09 20 b8 2c 4f 78 37 a5 99 df 37
       -3.809649e-06 -3.8155922e-05 1.48003855e-05 2.6655218e-05
0001c0 16 39 0b 38 db b4 11 37 5a 7f 9a 37 12 cd 86 b7
       3.3193348e-05 8.684782e-06 1.8417533e-05 -1.6069538e-05
0001d0 ff c1 01 b8 1d 9c ec 37 0d ba e6 b7 91 11 bb 37
       -3.093667e-05 2.8206088e-05 -2.7504773e-05 2.2300317e-05
0001e0 95 51 f6 b7 f3 de 75 37 bc 65 52 b8 01 a9 c8 b7
       -2.9363475e-05 1.4655047e-05 -5.016265e-05 -2.3920556e-05
0001f0 1a 64 32 b8 72 dd 9d b7 35 9e 49 b8 ea 6e e7 b7
       -4.2531734e-05 -1.8818977e-05 -4.8069476e-05 -2.7588994e-05
000200 db 41 78 b7 10 92 9a b7 a6 4d 44 38 a1 48 db b6
       -1.4797285e-05 -1.8426246e-05 4.6802357e-05 -6.5351637e-06
000210 63 e1 64 36 71 00 54 b8 bc 7c cb 37 de ac 83 37
       3.410584e-06 -5.054515e-05 2.425757e-05 1.5696914e-05
000220 78 13 d5 b7 0e 9f 1b b8 80 59 c0 b7 3b e4 0b 37
       -2.5400645e-05 -3.710301e-05 -2.292986e-05 8.338185e-06
000230 c6 61 9c 37 73 ed b3 b6 59 54 02 38 83 aa 67 b8
       1.8642178e-05 -5.3622584e-06 3.107297e-05 -5.5233493e-05
000240 44 76 ec b6 99 28 de b7 10 46 a1 b6 cb 8f 9e b4
       -7.047116e-06 -2.6483367e-05 -4.8063303e-06 -2.9534417e-07
000250 ef 16 ce 37 29 6c 42 b8 76 85 ae b7 93 93 b7 b7
       2.4567793e-05 -4.6353936e-05 -2.0804564e-05 -2.188402e-05
000260 31 b6 bd 37 7a 28 29 38 ad bd 2f 38 02 17 11 b8
       2.2615395e-05 4.0330437e-05 4.18999e-05 -3.459212e-05
000270 4e 5a 83 b7 b4 36 b4 37 08 b4 a3 37 eb 56 e9 b7
       -1.5658468e-05 2.1483145e-05 1.9514948e-05 -2.7816239e-05
000280 0e db f2 37 44 70 ec 37 9c 63 8a 37 ce 5d f4 35
       2.8950653e-05 2.818567e-05 1.6497266e-05 1.8206717e-06
000290 51 6b dd 37 2b cf ae 36 50 1b 8f b6 ef 6a 35 37
       2.6395226e-05 5.2097216e-06 -4.2649117e-06 1.0813338e-05
0002a0 30 01 ec b7 0c 0f 52 b7 bb f7 e3 b7 64 82 02 b8
       -2.8133945e-05 -1.2520479e-05 -2.7175867e-05 -3.111585e-05
0002b0 cb d5 e3 b7 4c 67 0d b7 c3 71 bc b7 32 a3 5f b7
       -2.7160064e-05 -8.428306e-06 -2.246432e-05 -1.3329833e-05
0002c0 5e 2d 6e b8 55 fe 47 b8 f4 42 b8 b6 e7 c2 c7 b6
       -5.6785873e-05 -4.7682162e-05 -5.4914217e-06 -5.953352e-06
0002d0 ef 36 ab 37 51 2f 34 38 72 ed c2 b7 0d 75 86 37
       2.0410369e-05 4.295941e-05 -2.3237171e-05 1.602855e-05
0002e0 e2 24 c6 b7 05 6f eb 37 0f f3 8f b7 50 7d bf b7
       -2.3620614e-05 2.806588e-05 -1.7160111e-05 -2.2827327e-05
0002f0 1a b4 0f 38 37 d6 2a b7 af 8e e2 35 38 67 31 b7
       3.426159e-05 -1.0182665e-05 1.6879839e-06 -1.0574055e-05
000300 d9 64 b1 37 f4 f7 24 b8 2b 77 be b7 65 70 b2 37
       2.1147005e-05 -3.933157e-05 -2.2705257e-05 2.1271591e-05
000310 71 99 2e 37 bf b8 fd b7 0c 45 e3 b7 65 a5 64 b8
       1.0406934e-05 -3.024598e-05 -2.7092661e-05 -5.451347e-05
000320 d0 42 08 38 a4 4d df b5 56 45 1a 38 61 69 7b 36
       3.248715e-05 -1.6637391e-06 3.6781035e-05 3.7463253e-06
000330 79 17 9b b7 2f ab f2 b7 49 5d cc 36 ae f3 1e b8
       -1.848837e-05 -2.8928362e-05 6.0905336e-06 -3.789708e-05
000340 00 e3 d1 b7 44 99 98 37 e8 35 d7 37 6c 06 50 37
       -2.5020447e-05 1.8191182e-05 2.56551e-05 1.2399261e-05
000350 47 90 37 b8 07 7e 38 35 ab 3e 51 b6 bb 41 f8 36
       -4.376497e-05 6.8728735e-07 -3.1179904e-06 7.398628e-06
000360 73 cd ba 37 75 15 94 37 2b 9d 35 38 f4 77 26 37
       2.2268598e-05 1.7652967e-05 4.3300137e-05 9.9223e-06
000370 fc b3 1c b8 cb ad 59 b6 4e 12 22 b6 ca c9 25 37
       -3.7360922e-05 -3.243668e-06 -2.4150536e-06 9.881749e-06
000380 f1 80 81 37 92 05 1a 38 06 f4 9a 36 3d 8c 61 37
       1.5438041e-05 3.672165e-05 4.6179657e-06 1.3443697e-05
000390 ff f9 35 b7 2f 27 0f 38 90 99 50 b8 7c 5f 17 38
       -1.08466475e-05 3.413035e-05 -4.973408e-05 3.6090132e-05
0003a0 f1 44 7d 37 d4 37 1d 38 6e 9b af 37 a6 90 11 38
       1.5096027e-05 3.748371e-05 2.0934003e-05 3.470541e-05
0003b0 34 ce f5 37 c3 8a b1 34 74 c4 04 b8 65 e7 85 b6
       2.9302297e-05 3.3069782e-07 -3.1654214e-05 -3.9906467e-06
0003c0 ab f8 b7 b7 ef 6d fb b7 4e 22 e2 37 79 41 2d 38
       -2.1931095e-05 -2.9972723e-05 2.6957274e-05 4.130739e-05
0003d0 f7 61 d1 36 9a a4 1a 38 cd 97 05 b8 4f c3 c8 37
       6.24009e-06 3.686976e-05 -3.1851047e-05 2.3932806e-05
0003e0 33 78 58 37 1a d8 34 b8 f4 f3 a3 37 cc 59 90 37
       1.2902589e-05 -4.3116605e-05 1.9544714e-05 1.7207953e-05
0003f0 31 ff 52 b8 82 94 22 b8 02 9b ab b6 32 a6 a1 37
       -5.0305567e-05 -3.876212e-05 -5.1142424e-06 1.9270086e-05

model.time_mlp.3.weight f4 [32, 256]
000000 7e 36 7c bd b2 01 33 3d 13 d1 39 bc fb f3 72 3c
       -0.061575405 0.04370279 -0.011341351 0.014828677
000010 47 c8 07 bd 8d 53 78 3c 71 ab ca bc 00 b0 c3 3c
       -0.033149984 0.015156639 -0.024739953 0.023887634
000020 bd 31 b6 3b af f7 47 3c 72 4f 37 bc c2 99 1a 3d
       0.0055601285 0.012205048 -0.011188375 0.03774429
000030 94 32 1f bd 37 5b 9c bc 9b 38 90 3d 4c 5c 06 3d
       -0.038866594 -0.019086463 0.07042047 0.032802865
000040 ef 9f 4f bd 3b a0 c7 bb 6b a7 5d bc b1 f0 21 bc
       -0.050689634 -0.006092099 -0.013528685 -0.009884045
000050 16 ae 82 bd 51 dc 89 bc 0f 9c a4 bc b5 f7 54 bc
       -0.063808605 -0.016828688 -0.020093946 -0.012998511
000060 5c 6b 36 3c 04 90 14 bc be 17 89 3d 15 5e 42 bd
       0.011133995 -0.009067539 0.066939816 -0.047453005
000070 aa 82 82 bd b0 a1 b8 bc 0e 4c 8e 3b da c7 08 bd
       -0.063725784 -0.022538036 0.0043425625 -0.03339372
000080 30 d6 33 bd 44 e3 e7 3c 31 9b 2f 3d 95 20 aa ba
       -0.043905437 0.02830661 0.04287261 -0.0012979681
000090 68 5a 30 3d ef 3b 70 3c cb 00 a1 bc 40 d7 ad 3c
       0.043054968 0.014662727 -0.019653698 0.021220803
0000a0 4b db f1 bc 80 28 9e 3c 55 7d a6 3c e0 86 1c 3d
       -0.029523512 0.019306421 0.020323435 0.038214564
0000b0 74 30 f9 3c 00 df 6c 3c 9d 96 0b bd 3f f8 0f bd
       0.030418612 0.014457464 -0.034079183 -0.035148855
0000c0 6d c2 4a bb e7 65 a5 bc df a5 67 3d d4 79 ec b9
       -0.003093864 -0.020190192 0.05655467 -0.00045104197
0000d0 31 cd 08 bb 22 6c 8f bc 01 78 70 3d 1a f6 3c 3d
       -0.0020874257 -0.017507616 0.058708195 0.04613314
0000e0 00 e9 dd 38 69 6e ea 3c f0 f6 98 3c 33 6c f1 3b
       0.00010581501 0.0286171 0.018672436 0.0073676347
0000f0 00 45 15 bc e8 12 69 3d f2 6d ca bc b3 f5 37 3b
       -0.009110689 0.056902796 -0.02471063 0.0028070032
000100 07 07 89 bc 4e e9 47 3b e1 16 b6 bc 94 d4 ed bc
       -0.016726984 0.003050405 -0.022227706 -0.02903203
000110 8c 32 c8 3c bc 98 f7 bc 98 1c 2a bd 6d f2 2f 3d
       0.024438165 -0.030224197 -0.041531175 0.042955805
000120 46 cf 8b bc 6b b8 bd 3c 06 5a 8e 3c 28 b8 53 3c
       -0.01706661 0.023159226 0.01737691 0.012922324
000130 c0 25 24 bc 75 e3 10 3d ec 19 22 bd 47 df b5 3a
       -0.010018766 0.03537317 -0.039575502 0.0013875746
000140 c3 c8 27 bd 21 1d 69 bc 14 c8 98 3c cf 10 37 3c
       -0.040962946 -0.014228136 0.018650092 0.011173441
000150 4f 04 b1 3b 35 34 bc bc 8b 6e 7b b9 da 77 1f 3d
       0.005402125 -0.022974113 -0.00023978406 0.03893266
000160 21 0e 98 3a c2 4d 02 bc 14 c6 49 3b ee c2 3a bd
       0.001160089 -0.007953109 0.003078823 -0.045596056
000170 46 c6 10 3d ec 29 23 3d 8d ab da 3c d8 60 00 3c
       0.03534534 0.0398349 0.02669313 0.007835589
000180 c4 33 ad bb af e3 b0 bc b6 df 03 bd e8 d2 19 3d
       -0.005285712 -0.021592943 -0.03219577 0.03755465
000190 d0 68 14 3d 3b a6 ed bb ad 67 5a bd c9 f0 61 3d
       0.03623277 -0.007252482 -0.05332153 0.05516127
0001a0 47 14 51 bd 63 18 3f 3c d6 84 35 bd 0d 08 8d bd
       -0.05104473 0.011663529 -0.044316135 -0.06886301
0001b0 0d 92 bd bb fe 8c 2d bc fa 39 64 3b 86 af 4b 3c
       -0.005785233 -0.010592697 0.0034824596 0.012431985
0001c0 02 38 cc 3c 82 d8 aa 3c 8b bc b0 3c de 94 1b 3d
       0.02492905 0.020855192 0.02157428 0.037983768
0001d0 40 3f b9 3c 4f 44 95 bc ef 86 6f 3c d3 01 b8 3c
       0.022613168 -0.018221049 0.014619573 0.022461807
0001e0 e4 d6 f5 3b 58 38 3a 3b b4 27 4e 3d 64 0c 00 bd
       0.0075024236 0.002841493 0.050330833 -0.031261817
0001f0 71 f8 af 3c 5e d0 16 bd c3 85 47 3c 06 ad bf ba
       0.02148077 -0.03681981 0.012177887 -0.0014623709
000200 1d d2 8d 3a e5 8a 20 ba 93 63 92 bd cd 83 ac bc
       0.0010820065 -0.00061242125 -0.071478985 -0.021058941
000210 2c 84 e6 bb 85 c6 01 bd 46 c4 52 3c fd 8c 08 bd
       -0.007034799 -0.031683464 0.012864178 -0.033337582
000220 d9 4e 35 3c 90 4f ae bc f5 ba a2 3c de fa c9 3c
       0.011066162 -0.021278173 0.019864539 0.024655756
000230 7d 85 8e bd 56 fa 36 bd fe 7a a0 bc 91 53 2c bc
       -0.069590546 -0.044672333 -0.019589897 -0.010517971
000240 29 57 5a bd 05 d1 6b 3c a2 2e 86 bb 97 ef 35 3d
       -0.05330578 0.014393096 -0.0040949145 0.044417944
000250 f8 58 81 bc 7b 7a 2d 3d 54 64 60 b9 0d 46 7d bc
       -0.015789494 0.042353135 -0.0002139968 -0.015458596
000260 37 a7 b3 3c 05 29 3b bb ef 18 7b bd fe b7 34 bd
       0.02193032 -0.0028558385 -0.061303075 -0.04412078
000270 c6 06 a9 bc b1 17 88 bc 09 b7 04 3c 0a b9 36 bb
       -0.020633113 -0.01661286 0.00810028 -0.0027881288
000280 80 fa ca ba fe ce 7d 39 8b 05 78 3b 83 7a c7 bc
       -0.0015486032 0.00024205071 0.00378451 -0.02435041
000290 3e c7 19 bd d1 7a cb bb 2e 6e a8 bc 76 16 cd 3c
       -0.037543528 -0.006209709 -0.02056035 0.025035124
0002a0 fd 3e d8 3c 23 90 24 bd 62 f0 c1 bc 1b eb 45 3d
       0.026397223 -0.040176522 -0.023674194 0.048319917
0002b0 e6 87 a8 3c f0 5c 2b bd 26 fa da bb 43 87 2a bd
       0.020572614 -0.04183668 -0.006682652 -0.041632902
0002c0 2b c9 74 3c de 63 0d 3d 67 84 54 bc 8b 5b 57 bb
       0.01494054 0.03451907 -0.01297102 -0.003286096
0002d0 a7 fc 72 3c ec 87 41 3d ac 50 df bb e9 41 26 bb
       0.014830745 0.047248766 -0.0068150368 -0.0025368875
0002e0 2f 6f 94 3c 3c 50 f5 3b 4b 13 cd 3c e8 19 05 bb
       0.018119423 0.0074863713 0.025033614 -0.002030963
0002f0 6c b2 a5 3c 1c 4e 2a 3b 20 59 0c bd cf c5 76 3c
       0.02022668 0.0025986498 -0.034264684 0.01506181
000300 04 56 9d 3d 8a f8 fc bc b4 b5 e8 bc c1 3a 19 bc
       0.07682422 -0.030880231 -0.028406955 -0.009352387
000310 f1 c5 84 bc 1c cd 8c 3d d2 37 94 bc 8c 4a 5c bd
       -0.016207667 0.06875059 -0.018093023 -0.05378203
000320 96 f5 fe 3b df af 49 3c 63 57 54 bd 70 6d e7 3a
       0.007780741 0.012309997 -0.05184115 0.0017656516
000330 58 71 1e 3d e5 44 86 3d 02 38 6e bc 15 60 eb 3c
       0.03868231 0.06556109 -0.0145397205 0.028732339
000340 41 93 df 3c 86 7f f4 bb 62 95 0b 3b 81 51 02 bc
       0.027291896 -0.007461491 0.0021298756 -0.007954002
000350 ba 06 4f bd c1 dc a0 3c 32 f6 a3 3d b9 91 02 3c
       -0.050543524 0.019636514 0.080059424 0.007969313
000360 b3 b7 51 bc 93 d1 73 bb 1d 5d 4f 3c 23 21 31 bd
       -0.012800145 -0.0037203773 0.012656477 -0.043244492
000370 4e dd bf 3b 6f 2d 0f 3d 92 3a cc 3b 0c ba 4b 3d
       0.005855239 0.03495544 0.006232568 0.049737975
000380 77 8d 1b bc 8b 57 38 bd cb 8c d5 bc b6 d8 2f bb
       -0.009494177 -0.045005362 -0.026068112 -0.002683205
000390 51 b0 8e 3c 91 78 27 bd d2 dc fe 3c b5 51 89 3c
       0.017418059 -0.040886465 0.031111155 0.016762594
0003a0 c6 a1 b7 3c 76 90 89 3c 3a e7 03 bd 57 2a 11 bb
       0.022416007 0.016792517 -0.032202937 -0.002215048
0003b0 23 36 06 3d 96 c9 75 3c 15 d9 93 bd 22 03 af 3a
       0.032766473 0.015001675 -0.072191395 0.0013352374
0003c0 cb 76 1a bd cf 55 10 3d cf 6c e5 bb b1 d2 3b bd
       -0.037710946 0.035238083 -0.0070014964 -0.045855228
0003d0 06 3b ac bb 65 9f 2b 3d 66 40 ba 3c 49 22 43 3d
       -0.0052560596 0.041900057 0.022735786 0.04764012
0003e0 d8 12 08 bd 84 90 26 3b 1c 90 65 bd 64 c5 6e 3c
       -0.033221096 0.0025415728 -0.056045637 0.014573429
0003f0 97 46 65 3d 89 9f 2b 3c 32 de be bc 22 f2 af 3c
       0.055975523 0.010475048 -0.02329931 0.021477763

model.time_mlp.3.bias f4 [32]
000000 2a 2f 8c b8 17 ef a4 b8 b1 e2 ae 38 40 28 a7 b6
       -6.684505e-05 -7.864663e-05 8.339191e-05 -4.9816736e-06
000010 70 61 9f b8 5b 8a b7 b8 e4 ba a1 38 48 09 bd b8
       -7.59986e-05 -8.751891e-05 7.711889e-05 -9.013951e-05
000020 80 d1 b4 b8 40 0f b0 b8 41 17 65 38 18 2f 0c 38
       -8.622091e-05 -8.3951745e-05 5.461951e-05 3.342246e-05
000030 33 ee 8e b8 64 1f ba b8 19 68 b4 b8 5b 1f 17 38
       -6.815456e-05 -8.875018e-05 -8.6024585e-05 3.6030408e-05
000040 f8 58 bb 37 4b a9 a7 b8 9b cb 65 38 69 e1 5f b8
       2.2333566e-05 -7.994714e-05 5.4787477e-05 -5.3377273e-05
000050 ca 5d 96 38 b4 95 50 37 1c b2 a7 b8 96 96 83 38
       7.170027e-05 1.2432622e-05 -7.996356e-05 6.2746156e-05
000060 65 e2 b2 38 51 a0 a6 38 79 23 93 b8 48 00 90 38
       8.529871e-05 7.945358e-05 -7.0161135e-05 6.8665075e-05
000070 ec bd 2e b7 d8 4d 9a 38 bf 28 3c b8 11 36 87 38
       -1.0415428e-05 7.357792e-05 -4.486064e-05 6.447372e-05

model.layer.0.weight f4 [256, 101]
000000 3f 0c a3 bc 25 b9 78 bc 1f 88 6d bd 5e 12 aa 3d
       -0.0199033 -0.015180861 -0.057991143 0.083042845
000010 68 c5 88 bd c0 4f 40 3c d4 0a 2d 3d 04 6b 22 3e
       -0.06678277 0.011737764 0.042246655 0.15861136
000020 68 81 31 3d 49 34 55 3d 90 35 cf 3d 28 cc 99 3d
       0.043336302 0.052051816 0.10117638 0.07509643
000030 4b 60 dd bd fe cd 9b bd 67 97 9a 3b b0 e2 11 3c
       -0.10809382 -0.07607649 0.0047177556 0.008904144
000040 1f 00 d2 3d a4 2e 31 3d e3 be 15 3c 02 a0 1d 3d
       0.10253929 0.04325737 0.009139749 0.038482673
000050 1d 62 d4 3c eb 91 41 bd 5a c9 f3 3d 2f 42 ae 3b
       0.02592569 -0.0472583 0.11903639 0.0053179483
000060 55 c2 9b 3d c9 6d b2 3d b3 d1 b6 bb 71 32 25 3d
       0.07605425 0.08712346 -0.0055791973 0.040331308
000070 65 4b cd bb 08 19 d7 bc cc 23 98 bc 4f 49 a4 bd
       -0.0062650912 -0.026257053 -0.018571757 -0.08021795
000080 7c 15 39 3c fe 92 98 bc 39 b4 53 bd f1 ef 04 ba
       0.011296626 -0.018624779 -0.051685546 -0.00050711544
000090 84 28 5e 3c 82 ea 51 bd 2b 68 e9 bd 01 d4 51 3d
       0.013559464 -0.051249035 -0.113968216 0.051227573
0000a0 c6 79 74 3b f9 0e e0 3c 08 bc 4b 3d 81 a4 49 3c
       0.0037304028 0.02735089 0.049739867 0.012307287
0000b0 87 a1 00 bd 62 48 d6 bc 85 23 82 3d b7 9f 81 bc
       -0.031404044 -0.026157562 0.06354431 -0.015823228
0000c0 8c fd cc bc 1b e9 7a bc b7 c3 a4 bd e3 09 84 bd
       -0.025023244 -0.015314366 -0.08045142 -0.06447198
0000d0 a9 23 9a bb 1f c6 ed bc 78 d7 8e bb 50 ad d4 bd
       -0.004703958 -0.029025136 -0.004359182 -0.10384619
0000e0 cd 25 32 3c 98 10 43 3c c1 09 8a bc 1f 81 9a bd
       0.01087327 0.011905812 -0.016850354 -0.07544159
0000f0 48 28 33 bb 75 8f 38 3d 39 fb 38 3d ef be 32 3d
       -0.0027337242 0.045058686 0.04516146 0.04363912
000100 fc 95 07 bd 6c 5e 61 3d ec 80 44 3c 29 2f 1f bd
       -0.03310202 0.05502169 0.011993628 -0.038863335
000110 6b ed a6 bc 0b df c4 bc 02 4b 4e bc b4 1b 56 3c
       -0.020376882 -0.024032136 -0.012591125 0.013068128
000120 e7 a3 33 3c c9 41 7a bd cb 69 df 3b 95 30 98 3d
       0.01096437 -0.061097894 0.0068180314 0.07431141
000130 9d 8d af bd 43 fe 23 bc 72 31 ce 39 66 ce b3 bc
       -0.085719325 -0.010009351 0.00039328221 -0.021949004
000140 e1 8e 24 3d 92 40 f1 3c 46 2e 65 bc b5 d0 9a bc
       0.040175322 0.029449735 -0.013988083 -0.018898347
000150 23 a0 2a 3d 08 5a c4 bd 59 c7 30 3c b1 c5 53 3b
       0.041656625 -0.095874846 0.010789716 0.0032313878
000160 3d 35 2f 3c b6 be 0d 3d d1 fe 90 bd ab 21 b6 bc
       0.010693845 0.034605704 -0.07079852 -0.022232851
000170 f0 50 ac bd e6 ce 2d bc b9 cd 1e bd 36 64 7a 3d
       -0.08413875 -0.01060841 -0.03877041 0.061130725
000180 0a 6e 54 b9 38 a5 51 3d 6d 90 89 3d 02 61 d4 3c
       -0.00020258888 0.051182956 0.06717 0.025925163
000190 67 2c 62 bb 95 df 80 3d 63 ec 5e 3c ef 31 15 3d
       -0.003451133 0.06292645 0.013606164 0.036424574
0001a0 05 58 81 3c 14 87 8e bd 88 c0 2e 3d 11 a6 90 3a
       0.015789041 -0.06959358 0.04266408 0.001103582
0001b0 83 3f 13 bd b1 13 16 bd a7 a6 6d 3d df d7 8b bc
       -0.03594924 -0.036639873 0.05802026 -0.017070709
0001c0 36 91 23 bd 45 79 7b bd 7b 05 35 bc 18 93 7e 3c
       -0.039933406 -0.06139495 -0.01104867 0.015538
0001d0 4e 6f 77 bc 77 99 05 bd 89 e3 a2 bd e2 5d 9a 3d
       -0.015102221 -0.03261706 -0.07953555 0.07537438
0001e0 23 cc 20 3d 48 e8 12 bd cf aa 8a bc 90 56 81 bd
       0.03925718 -0.035866052 -0.016927151 -0.063153386
0001f0 3b 95 cb bc 78 26 0b bc 4a cc 05 bd 4d 37 3b 3d
       -0.024851432 -0.008493058 -0.03266553 0.045707036
000200 e5 62 59 bd cb 18 be 3d 58 4e 85 3d 2f e7 82 3c
       -0.05307283 0.09282073 0.065090835 0.015979378
000210 00 b7 11 bd d3 5f c1 bc 60 be c1 bc 79 ce 82 bc
       -0.035574913 -0.023605263 -0.023650348 -0.015967594
000220 e7 6a 17 bd 0e 6c f1 bc 79 19 0d bb 79 39 99 3d
       -0.036967184 -0.02947047 -0.0021530075 0.07481665
000230 99 02 76 3c af 89 e0 bc 92 4c 5d 3c 06 41 9a 3c
       0.015015268 -0.027409403 0.013507025 0.018829834
000240 f9 58 d0 3c db 1a 21 3c 01 32 21 bd 97 be da bd
       0.02543305 0.009833063 -0.039354328 -0.106808834
000250 a9 38 99 3d ac 5c d7 3d 45 bc c4 3c 44 99 22 bd
       0.0748151 0.10515723 0.024015555 -0.039696947
000260 ac 66 42 3c 77 b2 67 bd df a5 60 3d 64 29 9c 3d
       0.011865299 -0.05656668 0.054845687 0.07625082
000270 c0 84 96 bd 87 23 3a 3d 95 65 5e 3d 60 46 ce 3c
       -0.07349539 0.045444038 0.054296095 0.025180042
000280 12 ae 7a 3d db 6b 69 3c 00 45 9f 3c ce f6 59 3c
       0.061201163 0.014246906 0.019442081 0.013303472
000290 40 e5 86 bd 32 d4 04 3d 04 e1 25 bd 53 94 bd 3d
       -0.06586695 0.032428928 -0.040497795 0.09256806
0002a0 70 7b 40 bd 60 65 8f 3c 99 81 aa 3c 3c 54 94 bc
       -0.04699272 0.017504394 0.02081375 -0.018106572
0002b0 53 34 27 bc 4d 8c 02 3c bb ee 16 bd 61 d7 8a 3d
       -0.010205346 0.007968021 -0.036848765 0.067793615
0002c0 9b b8 c0 bd aa 0b ad 3d f9 51 08 bc 0a 98 d4 3a
       -0.09410211 0.0844949 -0.008320325 0.0016219628
0002d0 8a 6c 18 bd e9 14 82 bc 5b fb 60 3b 2e 2a 66 bc
       -0.037212886 -0.015879111 0.0034329507 -0.014048142
0002e0 b6 bd 4d bc 2b d5 2d 3c 52 48 29 bd 0b 62 90 3d
       -0.012557438 0.010609905 -0.041328736 0.0704995
0002f0 a9 bd a7 bc 7f 1e cb 3c 4c 44 6c 3c 31 0a ed bb
       -0.02047618 0.024794815 0.01442058 -0.007233881
000300 58 69 2b 3d 44 dc 41 3d 71 f7 97 3c 97 c2 5f 39
       0.04184851 0.047329202 0.018550606 0.00021339428
000310 39 cb 0b 3d 11 b9 4a bd f2 bd af 3c 4c b2 fa bb
       0.034129355 -0.0494929 0.021452878 -0.007650649
000320 42 d2 3f 3d 20 07 78 3d 6c 74 26 3d 2a eb 19 ba
       0.046831377 0.06055367 0.040638372 -0.0005871529
000330 84 b7 72 bc 77 e5 b7 3d 20 c1 78 3d 7c 8d 05 3d
       -0.014814261 0.08979314 0.060731053 0.032605633
000340 23 24 4b bd 5e a0 10 3c f0 ba b0 bc 92 ae 04 3d
       -0.04959501 0.008827297 -0.021573514 0.032393046
000350 3b a2 86 bd 78 94 c4 bd 71 55 bc bc ea 1d a9 3d
       -0.06573912 -0.09598631 -0.02298996 0.08257659
000360 df 52 ac 3d e5 88 70 3d 32 af bd 3d ca 2d 39 bd
       0.08414244 0.058724303 0.092619315 -0.045209683
000370 1d 27 9e bc b7 f5 6c bd 15 be f9 bc c5 bf 43 bd
       -0.01930576 -0.05785152 -0.030486146 -0.047790308
000380 30 1d 22 3d 0c 8c 9e 3b 9c 84 6d bd eb 5f d7 bc
       0.039578617 0.004838472 -0.057987794 -0.026290854
000390 bd 32 0a 3d 42 d2 c7 bc c1 c6 d4 bc 34 22 50 3d
       0.033739794 -0.02439225 -0.02597368 0.05081387
0003a0 e9 ad 8a 3d e6 3b e5 bd dc fe 7a bc ab ee 54 bd
       0.06771452 -0.11193065 -0.015319552 -0.051985424
0003b0 2e 3d 93 3c 9e 48 72 bd 14 a3 c2 3a 3f 7a 65 3c
       0.017973509 -0.059151284 0.0014849626 0.0140061965
0003c0 99 4a d5 3c 00 98 02 bb 31 f6 02 bd dd a9 f5 ba
       0.026036547 -0.0019927025 -0.031973068 -0.001874264
0003d0 77 98 d7 bd 51 bf 25 3d 6c c3 5e bd 72 de 27 ba
       -0.10527127 0.040465657 -0.054385588 -0.00064036914
0003e0 94 64 35 bd db 07 52 3d 56 dd 05 3d e3 61 c7 3c
       -0.044285372 0.051277023 0.032681786 0.024338668
0003f0 b7 17 2e bd b7 24 0b bd f8 33 15 3d af f4 ca 3c
       -0.042503085 -0.03397056 0.036426514 0.024774877
