results/qvpo_Hopper-v3/actor_25_04_02_22_08_50_0.pth (torch, 653233 bytes, 24 tensors)

betas f4 [20]
000000 e7 f3 02 3c 51 74 a4 3c 9e 1c 04 3d 56 03 37 3d
       0.007992721 0.020074995 0.032253854 0.044680916
000010 52 9a 6b 3d 08 52 91 3d cf 82 ae 3d 70 eb cd 3d
       0.05752022 0.07095724 0.085210435 0.10054672
000020 e1 3c f0 3d 27 2f 0b 3e d8 c3 20 3e 3c b6 39 3e
       0.11730362 0.13592206 0.15699708 0.18135923
000030 b1 41 57 3e ad 42 7b 3e d6 56 94 3e 0b 3f b2 3e
       0.21021153 0.24537154 0.289725 0.34813723
000040 c4 de db 3e e4 0f 0d 3f 21 9c 3f 3f 77 be 7f 3f
       0.42943394 0.5510237 0.7484761 0.999

alphas_cumprod f4 [20]
000000 30 f4 7d 3f 11 db 78 3f 44 d4 70 3f 97 11 66 3f
       0.99200726 0.9720927 0.9407389 0.8987059
000010 ca d5 58 3f f7 72 49 3f 95 48 38 3f 21 c1 25 3f
       0.84701216 0.7869105 0.7198575 0.64747816
000020 92 4f 12 3f 11 d9 fc 3e ca 26 d5 3e 99 7e ae 3e
       0.57152665 0.4938436 0.41631156 0.3408096
000030 53 d0 89 3e 13 ff 4f 3e 11 bc 13 3e fc 9a c0 3d
       0.2691675 0.20312147 0.1442721 0.09404561
000040 c8 c9 5b 3d 01 5c c5 3c fb 8f c6 3b 47 53 cb 36
       0.05365923 0.024091722 0.0060596443 6.059566e-06

alphas_cumprod_prev f4 [20]
000000 00 00 80 3f 30 f4 7d 3f 11 db 78 3f 44 d4 70 3f
       1.0 0.99200726 0.9720927 0.9407389
000010 97 11 66 3f ca d5 58 3f f7 72 49 3f 95 48 38 3f
       0.8987059 0.84701216 0.7869105 0.7198575
000020 21 c1 25 3f 92 4f 12 3f 11 d9 fc 3e ca 26 d5 3e
       0.64747816 0.57152665 0.4938436 0.41631156
000030 99 7e ae 3e 53 d0 89 3e 13 ff 4f 3e 11 bc 13 3e
       0.3408096 0.2691675 0.20312147 0.1442721
000040 fc 9a c0 3d c8 c9 5b 3d 01 5c c5 3c fb 8f c6 3b
       0.09404561 0.05365923 0.024091722 0.0060596443

sqrt_alphas_cumprod f4 [20]
000000 92 f9 7e 3f 10 67 7c 3f 7b 4c 78 3f 32 b0 72 3f
       0.99599564 0.9859476 0.969917 0.948001
000010 ec 9a 6b 3f a8 17 63 3f a3 33 59 3f 37 fe 4d 3f
       0.9203327 0.8870797 0.84844416 0.80466026
000020 d0 88 41 3f c6 e6 33 3f 47 2d 25 3f 33 73 15 3f
       0.75599384 0.7027401 0.6452221 0.58378905
000030 f7 d0 04 3f d6 c0 e6 3e 4c 79 c2 3e a9 03 9d 3e
       0.51881355 0.45068997 0.37983167 0.30666855
000040 40 34 6d 3e b4 f0 1e 3e 87 6c 9f 3d 1b 53 21 3b
       0.23164463 0.15521508 0.07784372 0.0024616185

sqrt_one_minus_alphas_cumprod f4 [20]
000000 7a 18 b7 3d 6b 10 2b 3e 49 47 79 3e f0 f3 a2 3e
       0.089402154 0.16705482 0.243436 0.31826735
000010 0f 43 c8 3e f6 58 ec 3e 37 7f 07 3f 0c ff 17 3f
       0.39113662 0.46161622 0.5292849 0.59373546
000020 79 92 27 3f 60 21 36 3f 2e 95 43 3f 08 d9 4f 3f
       0.65457875 0.71144676 0.76399505 0.8119054
000030 e7 d9 5a 3f b6 86 64 3f 72 d0 6c 3f 3d aa 73 3f
       0.8548874 0.8926805 0.9250556 0.9518164
000040 74 09 79 3f c0 e5 7c 3f 23 39 7f 3f cd ff 7f 3f
       0.9728005 0.9878807 0.9969656 0.99999696

log_one_minus_alphas_cumprod f4 [20]
000000 fb 88 9a c0 26 0c 65 c0 f3 d9 34 c0 e4 8a 12 c0
       -4.8292212 -3.5788665 -2.8258026 -2.2897272
000010 8a 4e f0 bf bc e4 c5 bf de df a2 bf 51 75 85 bf
       -1.8773968 -1.5460429 -1.2724569 -1.0426427
000020 83 f7 58 bf 15 50 2e bf cb d3 09 bf 51 5f d5 be
       -0.8475267 -0.68090945 -0.53838795 -0.41674283
000030 62 8c a0 be 97 80 68 be c6 8a 1f be 03 46 ca bd
       -0.31357104 -0.22705303 -0.15580282 -0.09876635
000040 9c e7 61 bd 8f c6 c7 bc a3 2a c7 bb 29 00 cc b6
       -0.05515252 -0.024386672 -0.0060780807 -6.0796924e-06

sqrt_recip_alphas_cumprod f4 [20]
000000 be 83 80 3f 08 d3 81 3f 56 f8 83 3f 5d 05 87 3f
       1.0040205 1.0142527 1.0310161 1.0548512
000010 84 14 8b 3f 2e 4b 90 3f 48 dd 96 3f c7 12 9f 3f
       1.0865636 1.1272943 1.178628 1.2427605
000020 45 50 a9 3f e8 24 b6 3f 9d 61 c6 3f de 41 db 3f
       1.3227621 1.4230013 1.5498539 1.7129476
000030 7d b7 f6 3f 26 01 0e 40 e5 7e 28 40 c2 b1 50 40
       1.9274746 2.21882 2.632745 3.2608495
000040 84 24 8a 40 60 2a ce 40 3f 8a 4d 41 4f 1e cb 43
       4.3169575 6.4426727 12.8462515 406.2368

sqrt_recipm1_alphas_cumprod f4 [20]
000000 d9 d4 b7 3d 8e 80 2d 3e 4f 81 80 3e 1b e4 ab 3e
       0.08976144 0.16943571 0.25098655 0.33572468
000010 ea 98 d9 3e 74 37 05 3f 52 b3 1f 3f 1d e5 3c 3f
       0.42499477 0.5203774 0.62382996 0.737871
000020 7a a8 5d 3f fb 95 81 3f f5 8f 97 3f 25 04 b2 3f
       0.865852 1.0123895 1.1840807 1.3907515
000030 41 ea d2 3f 7f 87 fd 3f 2e de 1b 40 82 a3 46 40
       1.6477739 1.9806975 2.4354358 3.1037297
000040 9e 62 86 40 bd aa cb 40 95 ea 4c 41 26 1e cb 43
       4.199538 6.364592 12.807271 406.23553

posterior_variance f4 [20]
000000 00 00 00 00 ab 66 bc 3b 69 db 78 3c cc 23 d6 3c
       0.0 0.0057495437 0.01518903 0.026140116
000010 73 fe 1b 3d 79 aa 50 3d c1 bd 84 3d f8 a3 a3 3d
       0.03808446 0.050943825 0.06481505 0.07990259
000020 2f a7 c5 3d 38 a5 eb 3d 11 69 0b 3e de 70 24 3e
       0.09651028 0.11506122 0.13614298 0.1605868
000030 cb 27 42 3e 8c 6f 66 3e 43 23 8a 3e 3e 5d a8 3e
       0.18960492 0.2250349 0.26980028 0.32883638
000040 a6 7c d2 3e cc c9 08 3f 3a 22 3c 3f 22 32 7e 3f
       0.41110724 0.5343292 0.73489726 0.99295247

posterior_log_variance_clipped f4 [20]
000000 f1 34 38 c2 89 13 a5 c0 65 fd 85 c0 f3 3b 69 c0
       -46.0517 -5.1586347 -4.187182 -3.644284
000010 14 26 51 c0 b0 87 3e c0 30 1e 2f c0 80 b9 21 c0
       -3.267949 -2.9770317 -2.7362175 -2.526947
000020 86 a3 15 c0 f9 62 0a c0 04 3d ff bf 12 1a ea bf
       -2.3381057 -2.1622908 -1.9940495 -1.8289206
000030 0c d7 d4 bf 77 e9 be bf 7b b0 a7 bf 68 5c 8e bf
       -1.6628127 -1.4914998 -1.3100733 -1.112195
000040 07 8f 63 bf 3e 72 20 bf 66 b5 9d be 4e c0 e7 bb
       -0.8889012 -0.6267432 -0.3080246 -0.007072485

posterior_mean_coef1 f4 [20]
000000 cf ff 7f 3f 3d 6a 37 3f d9 5f 09 3f b2 0c db 3e
       0.9999971 0.7164648 0.53661877 0.42783123
000010 cc 7d b6 3e d9 e8 9c 3e 09 26 8a 3e 5b cd 77 3e
       0.3564285 0.306464 0.26982144 0.2419943
000020 6a 94 61 3e 97 e2 4f 3e 2c 8e 41 3e cf c6 35 3e
       0.22029272 0.20301281 0.1890189 0.1775162
000030 6d f2 2b 3e bf 95 23 3e c0 40 1c 3e ab 76 15 3e
       0.16791697 0.15975092 0.15259075 0.1459605
000040 45 80 0e 3e 85 ee 05 3e 61 60 ef 3d f6 43 9f 3d
       0.13916118 0.13079269 0.11688305 0.077766344

posterior_mean_coef2 f4 [20]
000000 00 00 00 00 bc 28 91 3e 06 31 ed 3e d3 62 12 3f
       0.0 0.2835139 0.46326464 0.57182044
000010 52 8d 24 3f 99 27 31 3f 9d 3e 3a 3f a3 f0 40 3f
       0.6427814 0.69201046 0.7275179 0.7536718
000020 f9 e1 45 3f cd 71 49 3f 4a d3 4b 3f 8a 18 4d 3f
       0.7729793 0.7868927 0.79619277 0.8011557
000030 8a 34 4d 3f 3b f4 4b 3f ec e9 48 3f fb 3a 43 3f
       0.80158293 0.7966954 0.78481936 0.7626187
000040 8a 1e 39 3f 68 56 26 3f dd 1e fc 3e f1 bd 00 3d
       0.72312224 0.64975595 0.49242297 0.031431142

model.time_mlp.1.weight f4 [256, 32]
000000 f9 d0 da 3c 76 ec 39 be 7a f3 c8 ba 26 51 d5 bd
       0.026710974 -0.18156609 -0.0015331351 -0.104158685
000010 ea 4b a1 bd 3f 82 21 be 78 83 98 3d 8c af e1 3b
       -0.078758076 -0.15772341 0.07446951 0.006887382
000020 f1 0b a3 bc ce 65 9d bd 59 29 df bd c4 78 e0 bd
       -0.019903155 -0.07685433 -0.10896558 -0.10960534
000030 6a 5e e2 bc f5 1e 8b bd ed b6 42 be a6 a0 f2 3c
       -0.02763291 -0.06793014 -0.19015093 0.029617619
000040 53 32 9f 3b fe 15 35 be bf 41 c6 bd 02 f8 28 be
       0.004858294 -0.1768417 -0.09680509 -0.16500857
000050 a8 04 cf bd ce d2 b5 bd 94 75 c4 bb ab 2d 4d bd
       -0.1010831 -0.088780984 -0.0059954617 -0.05009238
000060 41 c7 59 bd 7e 32 15 be be 0d db bc c2 3e 4a 3d
       -0.05316854 -0.14570042 -0.026739951 0.049376257
000070 01 1a 21 be 7e 8c 45 bd f6 a1 b3 ba 8e e1 16 3e
       -0.15732576 -0.048229687 -0.0013704884 0.1473448
000080 17 79 38 be da 7b b3 3d 0a 5f f1 3c 81 87 33 3c
       -0.18014942 0.08763857 0.029464263 0.0109576
000090 ef 60 f4 3c c2 1c 77 3d 92 96 13 3d 63 38 81 3d
       0.029831378 0.06033016 0.036032267 0.06309583
0000a0 a3 4e f6 bd 58 d2 66 3d 56 12 90 bd 89 f3 b5 3c
       -0.120267175 0.056352943 -0.07034747 0.022210853
0000b0 5d b9 c4 bd 46 74 9d bc 81 d6 08 bd ce 4e 7e bd
       -0.09605668 -0.019220483 -0.033407692 -0.062086873
0000c0 ae 1c 01 be 60 63 00 be d7 83 86 bc e3 42 4e 3c
       -0.12608597 -0.12537909 -0.016420288 0.012589189
0000d0 92 3c 7a bd 6d 1b 0d be b4 63 17 3e c0 e2 28 bb
       -0.06109292 -0.13779993 0.14784127 -0.002576992
0000e0 37 7f e4 3d 26 bf 17 be 1e 3f e3 3d b8 71 94 3d
       0.11157077 -0.14819011 0.11096023 0.07248253
0000f0 64 2d 82 3b b2 81 e7 bc 90 62 a0 3d 71 b3 6a 3b
       0.003972696 -0.028260086 0.07831299 0.0035812522
000100 45 9e 33 be 2f d2 a3 3c d2 65 bd bb 8d f6 a0 3d
       -0.17540844 0.019997684 -0.00577996 0.07859526
000110 cd e4 91 bd 82 ed c7 3d 97 75 0c bd b8 da 36 3e
       -0.071237184 0.09762098 -0.03429183 0.17856872
000120 c6 f8 b3 3d 98 fc d9 3d 99 83 89 bd 36 5c e2 3d
       0.08787684 0.106438816 -0.067145534 0.11052744
000130 cc 68 e1 3d f1 9e f2 bd d4 0b a9 bd f6 e7 d9 b9
       0.110063165 -0.11846722 -0.08254209 -0.0004156229
000140 dd 5a 01 3e 96 56 95 bd f3 f1 ad bb e9 a6 27 be
       0.12632318 -0.072919056 -0.0053083836 -0.16372265
000150 cf c4 06 3d 62 2c aa bd be 3a 2e 3e cf 15 e0 3d
       0.032902535 -0.083092466 0.17014596 0.1094166
000160 42 4b f8 bd 80 15 69 be de 5a 86 3d 07 20 33 bc
       -0.12123729 -0.22762108 0.065603 -0.010932929
000170 8f c7 7d 3d 5f e0 04 3c 31 07 b1 3d 1e b2 2f 3e
       0.061957892 0.008110135 0.0864395 0.1715779
000180 6b 34 a6 bd c6 f3 1f 3d 5c e4 8f bc aa ef 53 3d
       -0.08115467 0.03905084 -0.017564945 0.051742233
000190 c7 9d 04 3e b4 60 9c 3c c4 df f3 3d 4b 81 5b bd
       0.12950812 0.01908908 0.11907914 -0.0535901
0001a0 66 07 fa 3c b2 b8 15 3d 04 0f c4 3c f4 e5 b6 bd
       0.030521106 0.036553092 0.023932941 -0.08930579
0001b0 76 bf db bc 4b 4f b6 bb d6 b9 d1 bb 44 ac 0a 3d
       -0.026824694 -0.0055636517 -0.006400327 0.03385569
0001c0 9c 3a d8 bd 5a 0b ef 3c 6c 60 a3 3d 64 89 72 3c
       -0.10558054 0.029180218 0.079773754 0.014803264
0001d0 7d e7 72 3c 35 5b 6e bd 5c 17 b2 3b 72 e0 e3 3d
       0.014825699 -0.05819245 0.0054349136 0.11126794
0001e0 bb 44 1f bd 2d 5f 71 be 7a 68 80 bd d9 ee 05 3e
       -0.038883906 -0.23571463 -0.06269927 0.13079394
0001f0 ca ac 79 3c f1 0d 92 3d 12 c2 ed 3c 53 e7 d5 3b
       0.01523895 0.07131565 0.029023204 0.00652782
000200 b0 1f 18 3d 45 69 7a 3d 3e f0 61 3d 93 d3 1c 3d
       0.037139595 0.06113555 0.055160753 0.03828771
000210 e2 85 da bd 81 63 a6 3b c5 3b 51 be 15 18 f5 3d
       -0.10670067 0.0050777798 -0.20432957 0.11967484
000220 7f f5 97 bd 22 df 26 be 57 06 ac 3d 00 f6 ec 3d
       -0.074198715 -0.16296056 0.08399647 0.11570358
000230 74 b6 8e bc c8 68 41 3e 5f 3e 20 be 81 55 1b bd
       -0.017420985 0.18887627 -0.15648793 -0.03792334
000240 a5 30 b5 3d 91 05 c6 bd d0 cb e0 bc 17 82 bc bd
       0.08847169 -0.096690305 -0.027440935 -0.092045
000250 68 31 46 3c 34 c3 01 3e 65 e9 ad bd 86 1c 9c 3c
       0.01209674 0.1267212 -0.08491782 0.01905657
000260 1f d8 fe bd 76 d2 b3 3d 75 0c 89 bd ae ab 93 3d
       -0.124435656 0.087803766 -0.06691829 0.0721048
000270 a0 6a dd 3d 81 6b 54 bd 9a cc 71 3c f1 d4 18 bc
       0.10811353 -0.051860336 0.0147582535 -0.009328113
000280 a1 09 a8 3d a2 63 28 bd f9 c6 45 3d 10 5d 5b be
       0.082049616 -0.041110642 0.04828546 -0.2142222
000290 60 f5 0c 3e e9 0a 4a 3d 7d a4 41 3e 7a bd 71 bd
       0.13765478 0.04932681 0.18910404 -0.05901859
0002a0 c2 84 34 be 27 6b 1d 3d c4 a7 b0 3d 0f 80 c0 3c
       -0.17628768 0.038432267 0.08625749 0.023498563
0002b0 35 4e ff bd 90 12 48 bc 15 34 33 3d f9 78 b3 bc
       -0.12466089 -0.012211457 0.04375084 -0.02190827
0002c0 71 ec c1 bd 81 0d 3e 3d a4 39 8a bd 1b 13 87 3d
       -0.09468926 0.046399597 -0.06749275 0.06595441
0002d0 f2 e9 de 3c 94 c4 bc bd 58 9d e9 3d 87 fa 66 bc
       0.027211163 -0.09217182 0.11406964 -0.014097816
0002e0 d3 2d d4 bd e3 5a 15 3e a0 7a 14 3d ed 63 df bd
       -0.10360303 0.14585452 0.036249757 -0.10907731
0002f0 75 3b f6 bd 9e 92 ea 3c ff de 12 be 81 83 9a 3d
       -0.12023059 0.028634366 -0.14342879 0.07544614
000300 8f fe 53 bd 1f 06 bd bc 74 bc ea 3c 73 6f 33 be
       -0.051756438 -0.023074208 0.028654315 -0.17522983
000310 d8 11 af 3d 61 a3 80 bd 0d 07 05 3e 50 60 b6 3d
       0.08548325 -0.06281162 0.12990971 0.08905089
000320 b3 a8 86 be ea f7 a8 3d 29 b1 2b bd ea 03 54 3d
       -0.26300582 0.08250411 -0.041917 0.051761545
000330 a5 7c 05 38 fb 16 7d 3d 53 b9 65 bb 88 4c c6 3d
       3.1825755e-05 0.061789494 -0.0035053089 0.09682566
000340 2a 10 9a 3d 2a f8 26 3e c0 27 13 3e e5 e4 af 3b
       0.07522614 0.16305605 0.14370632 0.0053678625
000350 d5 a0 d1 bd 7d d9 f0 3b 57 73 22 3e 56 63 b7 3d
       -0.102357544 0.0073501454 0.15864311 0.08954494
000360 dc 9d 52 be 31 7d 80 3c 89 fe bb bc 35 fb d7 3c
       -0.20568031 0.015684696 -0.02294852 0.026364902
000370 77 5a c0 3d b2 5a 1f be 11 30 13 3d d1 01 07 3c
       0.09392255 -0.15561941 0.03593451 0.008240179
000380 8e fb 0a 3e 97 12 f5 3c 05 ad 24 3d f4 f0 24 bc
       0.13572523 0.02991609 0.040204067 -0.010067213
000390 29 7f 98 bc d3 8c cc 3d a0 d4 f9 bd 23 8c 35 be
       -0.018615322 0.099877976 -0.12198758 -0.17729239
0003a0 7a 19 01 be e7 2a a2 bd 8a 3f 09 3c 29 a0 8f 3d
       -0.12607375 -0.07918339 0.008376965 0.0701297
0003b0 ea cf ca 3d 62 ee a3 bd 1b 08 71 bd 03 f6 7d bd
       0.09902938 -0.08004452 -0.05884562 -0.062002193
0003c0 14 59 d8 3c 6b 58 9f 3d 3d ba 28 3e 2a ad f8 bb
       0.026409663 0.07780536 0.16477294 -0.007589002
0003d0 fc 2e 30 3e d1 48 82 3c b0 64 45 3c 54 c3 e2 3c
       0.17205423 0.015903862 0.012047932 0.02768103
0003e0 74 68 dd bd 28 ee f6 3d e2 c9 31 3e a7 81 af bd
       -0.108109385 0.120571434 0.17362168 -0.08569651
0003f0 b8 84 ea 3d 5e 9b ad bd 5b 30 42 bd f0 a3 d8 3d
       0.11451095 -0.084768996 -0.047409397 0.105781436

model.time_mlp.1.bias f4 [256]
000000 88 92 3c b8 11 26 2a 38 40 d2 2e 37 da 81 b0 b8
       -4.495916e-05 4.056661e-05 1.0420161e-05 -8.416521e-05
000010 ba 7a 91 b8 87 bf 8c b8 ab 2d 4d 38 14 39 9a 36
       -6.9369984e-05 -6.711395e-05 4.891834e-05 4.5962024e-06
000020 3b 41 13 b8 81 5d 26 b8 f8 52 b1 b7 3f 81 68 b8
       -3.510828e-05 -3.9664566e-05 -2.113868e-05 -5.543348e-05
000030 5e 2b 63 38 31 f0 77 b8 e4 aa 12 38 02 10 19 38
       5.4161406e-05 -5.9113085e-05 3.4968267e-05 3.649295e-05
000040 7e c0 87 37 9f 74 89 b8 9b d4 91 b8 8c 52 9b 38
       1.618289e-05 -6.5543914e-05 -6.95374e-05 7.4063515e-05
000050 6d d3 50 38 a8 f0 31 b8 27 e7 9a 37 7d de 35 38
       4.978797e-05 -4.2424217e-05 1.846587e-05 4.336097e-05
000060 be 66 63 b8 37 3f 1c b8 47 78 56 38 01 86 3e b8
       -5.4216704e-05 -3.725217e-05 5.1133593e-05 -4.542433e-05
000070 8b 43 3a 38 58 ad 85 38 83 27 35 38 ef d3 97 b8
       4.440876e-05 6.374222e-05 4.319056e-05 -7.239717e-05
000080 d5 5d 49 b8 0b 0b 99 b8 99 ee 84 b8 c9 fa 92 38
       -4.8009522e-05 -7.2976654e-05 -6.338693e-05 7.008535e-05
000090 f3 16 36 38 1d cf e9 37 c0 1c 52 38 20 06 97 b8
       4.3413555e-05 2.787221e-05 5.0094677e-05 -7.201382e-05
0000a0 95 0d 06 38 6e 9f 1d 38 f3 33 47 b8 6a 34 77 b8
       3.196074e-05 3.7580197e-05 -4.749368e-05 -5.8938203e-05
0000b0 3e 6c 0a b8 8f c3 ae b8 15 62 a8 b6 3e 73 31 38
       -3.3002572e-05 -8.333392e-05 -5.0182084e-06 4.2307416e-05
0000c0 07 4d a2 b8 b0 df 9d 38 a6 88 9d 38 14 a8 42 37
       -7.7391094e-05 7.5280084e-05 7.511796e-05 1.1602435e-05
0000d0 46 53 17 b8 d4 38 8a b8 c9 3a 13 38 d8 a7 75 38
       -3.607876e-05 -6.590938e-05 3.510228e-05 5.856887e-05
0000e0 70 43 9c b8 0e 7e 10 b8 5d 83 89 b8 8a 0c af b8
       -7.451221e-05 -3.4449673e-05 -6.5571374e-05 -8.346986e-05
0000f0 0a 00 a5 38 c8 47 87 b8 43 fc a0 38 b7 32 81 38
       7.8678204e-05 -6.450672e-05 7.676382e-05 6.160646e-05
000100 50 52 ae 38 14 4d 3e b8 8d d5 eb 37 b8 d3 02 b8
       8.3122985e-05 -4.5371315e-05 2.8113625e-05 -3.1191594e-05
000110 9d 1a 28 37 f1 9b 19 b8 a8 79 8b 38 75 64 a1 38
       1.0019777e-05 -3.6623274e-05 6.650697e-05 7.69579e-05
000120 c5 41 39 b8 d3 42 a0 b8 b6 06 4f 38 c0 40 9b b8
       -4.416869e-05 -7.6418415e-05 4.9358896e-05 -7.4030366e-05
000130 65 e0 95 b8 7c 8b 96 b8 57 1d 36 38 67 bd 92 b8
       -7.1466704e-05 -7.178538e-05 4.3419506e-05 -6.9971014e-05
000140 be 82 b2 38 62 0d 9e b8 e6 07 39 38 b7 c9 24 38
       8.512054e-05 -7.53652e-05 4.4114793e-05 3.928851e-05
000150 03 31 92 38 d6 b0 78 38 55 c5 99 38 85 06 4e b8
       6.970952e-05 5.92925e-05 7.3323645e-05 -4.91203e-05
000160 95 7a 8c b8 77 7f 46 38 76 34 89 b8 8c 11 ab 38
       -6.698553e-05 4.732559e-05 -6.542441e-05 8.157184e-05
000170 54 23 bc 38 83 e7 26 38 4a 22 44 38 d7 5d 7d 38
       8.971119e-05 3.9793096e-05 4.6761976e-05 6.0407296e-05
000180 02 28 35 b8 61 5d a8 37 ab c4 ef b7 6b 8c 54 38
       -4.3191023e-05 2.0070644e-05 -2.85826e-05 5.0675513e-05
000190 65 4e 7e 38 b8 2e 2f 38 b9 d8 71 38 5d 55 3b 38
       6.063133e-05 4.176676e-05 5.7660716e-05 4.4663775e-05
0001a0 28 e7 92 b8 25 90 38 38 73 ae a1 b8 47 cb 85 38
       -7.004879e-05 4.4003264e-05 -7.709572e-05 6.3797976e-05
0001b0 1d 7b a8 b8 42 5e 06 38 2d 8f 16 b8 a6 34 9d b8
       -8.033796e-05 3.2035874e-05 -3.589613e-05 -7.49615e-05
0001c0 5d ee a9 b8 5d 87 86 b8 47 a0 78 38 8e e4 c4 37
       -8.1029466e-05 -6.414831e-05 5.9277078e-05 2.347145e-05
0001d0 c7 ac 8f b8 c3 25 9c b8 3c 30 0d b8 0f 55 47 38
       -6.850954e-05 -7.445693e-05 -3.366194e-05 4.7524514e-05
0001e0 eb fc 59 b8 08 9e 95 b8 27 52 2a b7 a3 9e ee b7
       -5.197238e-05 -7.134309e-05 -1.0151917e-05 -2.8445682e-05
0001f0 8f 2a 05 38 a0 81 08 b8 86 07 28 b8 ff de 48 b8
       3.1749307e-05 -3.254565e-05 -4.0061328e-05 -4.7891397e-05
000200 84 01 72 b8 01 70 57 b6 7a 3a a3 38 c8 0b 20 b8
       -5.7698708e-05 -3.2102691e-06 7.783338e-05 -3.8157945e-05
000210 dc 3a 9e 38 97 a6 30 b8 eb eb c7 b7 22 eb 83 38
       7.5449905e-05 -4.211682e-05 -2.3832506e-05 6.290364e-05
000220 2a 7b 7b b8 ed 65 93 b8 91 82 ac 38 6e 50 8e b8
       -5.995777e-05 -7.0284914e-05 8.225919e-05 -6.786069e-05
000230 61 9e f4 36 2a 2c d5 37 4e 28 95 b8 4e 65 73 37
       7.2902044e-06 2.5412144e-05 -7.112381e-05 1.45075155e-05
000240 f8 eb 2d b8 5f d2 43 38 61 19 8b 37 8c 84 4d b8
       -4.1466177e-05 4.6687546e-05 1.658191e-05 -4.8999253e-05
000250 88 1b 00 b8 05 db 5e 38 78 3f 04 38 92 33 96 38
       -3.054322e-05 5.3132902e-05 3.1530362e-05 7.162163e-05
000260 c7 83 a3 38 7e 50 cd 37 6a 5f 0c b8 ee 94 e8 37
       7.796991e-05 2.4475386e-05 -3.3467462e-05 2.7725906e-05
000270 4e a0 9b 38 b8 d9 8e b8 a9 67 8c b8 5e e6 80 b8
       7.420835e-05 -6.811641e-05 -6.6950284e-05 -6.146425e-05
000280 05 80 a2 b8 1a 1f 89 38 8a a8 ad b8 d6 ae 67 38
       -7.7486075e-05 6.538462e-05 -8.280676e-05 5.523752e-05
000290 00 fe 97 b8 83 40 80 38 2c 88 85 38 91 ce 86 b8
       -7.247552e-05 6.115532e-05 6.367298e-05 -6.428094e-05
0002a0 56 80 25 38 b8 e0 99 37 eb 24 02 38 10 0a ab b8
       3.9458588e-05 1.8343664e-05 3.1028798e-05 -8.15579e-05
0002b0 6a ab 04 38 cb 7d 1b 38 2d 0f 26 38 64 dd e4 32
       3.1630894e-05 3.7072034e-05 3.9591618e-05 2.664337e-08
0002c0 61 4a 10 38 f3 11 98 b8 f6 f1 81 b8 73 72 83 38
       3.4401546e-05 -7.251268e-05 -6.196268e-05 6.2678846e-05
0002d0 98 1c 36 37 12 98 ae b8 39 e2 98 38 08 97 9d b8
       1.0854703e-05 -8.325292e-05 7.290062e-05 -7.514475e-05
0002e0 41 40 96 b8 82 9b f1 b7 6e 16 5d b8 96 09 84 b8
       -7.1645256e-05 -2.8801853e-05 -5.2711395e-05 -6.296036e-05
0002f0 ff f6 92 38 fd 58 a3 38 b7 e0 a3 b8 b7 39 9b 38
       7.007829e-05 7.789021e-05 -7.814302e-05 7.401726e-05
000300 09 d2 22 b8 75 9d 92 b8 24 7a 85 38 1b 8e 51 b8
       -3.881942e-05 -6.991151e-05 6.364685e-05 -4.996183e-05
000310 9f d1 4e 38 a8 09 6b 38 72 81 a9 b8 e5 3d 25 b8
       4.9309452e-05 5.603736e-05 -8.082659e-05 -3.939671e-05
000320 60 06 a6 38 e1 4c a6 b8 6a 95 a0 b8 8b 0b f3 37
       7.916684e-05 -7.929817e-05 -7.657225e-05 2.8973232e-05
000330 50 9d 3a 38 cd 01 84 38 f1 61 b9 b7 c1 bc 17 b8
       4.4492364e-05 6.294586e-05 -2.2099326e-05 -3.6176996e-05
000340 23 f3 1a 38 f0 5d 98 b6 96 7c 7a b8 bf 05 35 b4
       3.69429e-05 -4.5408888e-06 -5.9720674e-05 -1.6859029e-07
000350 6e e7 a7 b8 9d 63 0a 38 92 e7 36 b8 67 65 13 b8
       -8.006288e-05 3.2994536e-05 -4.3607848e-05 -3.514197e-05
000360 67 4b 96 38 d6 33 eb 37 da d6 a4 b7 2e 2b 65 b8
       7.166602e-05 2.8038321e-05 -1.9650372e-05 -5.463807e-05
000370 8e ad 47 b8 ce af ac b8 62 de 8b b8 f3 3e 23 38
       -4.7606933e-05 -8.234345e-05 -6.6694585e-05 3.8920854e-05
000380 5b 9a bb 37 3a 7f 9c 38 88 5e 1b 38 36 9a 53 38
       2.2364015e-05 7.4623575e-05 3.704292e-05 5.044994e-05
000390 a1 cd 37 b8 a0 de aa 38 99 b4 2d 38 fa 6b 90 38
       -4.3822107e-05 8.147699e-05 4.141461e-05 6.886567e-05
0003a0 42 b3 73 38 e5 40 25 38 61 bb 8e b8 bd c4 8b 38
       5.810266e-05 3.9399503e-05 -6.80599e-05 6.664682e-05
0003b0 1e 8c 3a 38 43 57 a2 b8 39 f3 8e 38 67 69 9d b8
       4.447635e-05 -7.741016e-05 6.8163914e-05 -7.505976e-05
0003c0 4d 06 a6 38 be 86 88 b8 8c db a4 b8 95 01 10 38
       7.9166704e-05 -6.510083e-05 -7.861023e-05 3.433375e-05
0003d0 bb fe 9f 38 fd 17 a7 b8 3d e1 89 38 96 95 2b b8
       7.629158e-05 -7.967649e-05 6.574623e-05 -4.090889e-05
0003e0 78 51 95 b8 35 82 72 b8 f2 1b 83 38 60 48 98 38
       -7.1200484e-05 -5.781856e-05 6.251772e-05 7.261406e-05
0003f0 37 05 86 37 d8 df 40 b8 b5 3c 78 38 e7 0a 6a b8
       1.5976473e-05 -4.5984838e-05 5.9184345e-05 -5.58001e-05

model.time_mlp.3.weight f4 [32, 256]
000000 64 d7 1b bc 2c 35 13 bd 0c d4 bc bb 14 99 46 3c
       -0.009511802 -0.03593938 -0.0057625826 0.012121458
000010 7f 53 59 bb 06 04 14 3d f7 b5 d7 bb 88 42 79 bc
       -0.003316134 0.03613665 -0.006582971 -0.015213616
000020 09 dd 98 bc 93 1d 4d 3c 8c fc ed ba f6 f8 b4 3c
       -0.018660085 0.012519258 -0.001815693 0.02209137
000030 70 cb 78 3b f4 b4 36 3d aa 8f 8a bb 58 81 ee bb
       0.0037963055 0.044606164 -0.004228552 -0.0072786026
000040 b9 56 9d 3b 0e 48 bd 3a ca 55 cb 3c ac c2 5c bc
       0.004801598 0.001444103 0.02482118 -0.013474148
000050 b0 b9 3e 3c f7 e3 ef 3c ce 1f 3a bc e9 02 7c 3d
       0.011640951 0.029283507 -0.011360122 0.061526213
000060 7a 25 eb 3b 27 ae 7a bb 9a e2 29 bd c8 61 b2 bc
       0.0071760984 -0.0038250776 -0.04147587 -0.021775141
000070 36 c5 05 bd 38 4c 20 3c 5f 21 28 3d af 52 3a bd
       -0.032658778 0.009783797 0.04104745 -0.04548901
000080 97 d0 6c bd eb 32 3a bd ba 41 b3 3c 6e e7 29 3c
       -0.057816114 -0.045458715 0.021881927 0.010370119
000090 94 9b 23 bd 4c 58 84 3b 33 69 27 3d 96 80 90 3b
       -0.039943293 0.004038846 0.04087181 0.00440986
0000a0 a9 c5 8c bc 05 d8 76 3c 43 4d 3f 3c 53 d9 8d bc
       -0.017184095 0.0150661515 0.0116761355 -0.017315542
0000b0 c9 cc 82 39 68 7a 14 bd 93 e7 67 3c e2 a0 a5 bc
       0.0002494811 -0.03624955 0.014154333 -0.020218316
0000c0 1c df 22 bd 23 8f 42 bd d7 2c 8d bc d7 6b 51 3c
       -0.039763555 -0.047499787 -0.017233295 0.012782059
0000d0 11 21 89 bc ed 72 38 3c fb c1 b4 b8 00 10 bc bc
       -0.0167394 0.011257869 -8.6192005e-05 -0.022956848
0000e0 74 5f 55 3b 73 8f c4 3b a1 a5 eb 3c cc 83 4c 3d
       0.0032558115 0.005998546 0.028765501 0.04993038
0000f0 67 27 6e bc c1 ee d7 bb 26 f0 4e bc 74 d2 89 3c
       -0.014535761 -0.006589741 -0.012630498 0.016823985
000100 a9 c6 80 bd b6 d8 38 bc 79 11 c7 bc 78 44 2e bc
       -0.062878914 -0.011282137 -0.024300324 -0.010636441
000110 2f 27 38 3d 84 b2 c6 3c ba 21 2b bc 55 cd c4 3b
       0.044959243 0.024255045 -0.010445053 0.006005923
000120 0e 26 15 bd 5c 9c f2 bc 19 84 43 3d 07 76 1e bc
       -0.036413245 -0.029615574 0.0477334 -0.009671695
000130 db 9b d9 3b 6a 9a 24 bd 2c bb 2e bd b8 2d 05 3d
       0.006640894 -0.040186323 -0.04265897 0.032514304
000140 c3 ac 85 bd 13 9a 9f 3d 02 3b 9e bb e5 8b c1 bc
       -0.06527092 0.07793059 -0.0048288116 -0.023626277
000150 09 3b 88 bd 98 01 b0 bc 54 61 88 bd b4 16 07 3c
       -0.06651885 -0.021485135 -0.06659189 0.008245159
000160 47 11 98 bc 8a 81 90 bd 75 ac 3e 3c 42 35 77 3c
       -0.018562926 -0.070559576 0.011637797 0.015088381
000170 33 18 20 bd fd 7b ea 3c 48 b8 bc bc 93 86 81 ba
       -0.03908558 0.028623575 -0.02303709 -0.0009882025
000180 6d 22 fe bb 16 eb a9 ba ef f5 7a 3d 43 98 e6 3c
       -0.0077555687 -0.0012963738 0.061269697 0.028148776
000190 62 cf 81 3c 6e ee 22 bd 65 fe 96 bc 98 7c aa 3b
       0.015845958 -0.039778166 -0.018431852 0.005202841
0001a0 84 1d 98 bc 82 b1 11 3c 54 48 77 3d b3 e9 9e bb
       -0.018568762 0.008892419 0.06037171 -0.0048496365
0001b0 c8 3f 83 3d 8c 2a c6 3c b8 dd 83 bb 3c c2 ac bc
       0.0640865 0.02419021 -0.0040242337 -0.021088712
0001c0 c7 b0 f7 bc 2a c0 01 3d d1 da 83 bc 0c d0 1d bc
       -0.030235661 0.031677403 -0.01609555 -0.009632122
0001d0 5f 66 c4 3c bd d1 e0 3c eb e4 22 bd 05 77 22 bd
       0.023974596 0.027443761 -0.039769094 -0.039664287
0001e0 40 1f 00 3d 5f b5 ba bc 54 59 83 3d 03 0c 33 3b
       0.031279802 -0.022791563 0.06413522 0.0027320392
0001f0 15 85 92 bc 8c d8 90 ba 41 b0 3b 3c 83 00 c7 3d
       -0.017885724 -0.0011050864 0.011455596 0.097168945
000200 28 0b 06 3d 1d 20 fc bb e5 ab 1f 3d 9a 2b 0f 3c
       0.032725483 -0.007694258 0.03898229 0.008738423
000210 a9 ee 41 bc ef 15 51 3c 66 37 22 bc c4 b6 5b bd
       -0.011836686 0.012761577 -0.009900903 -0.053641096
000220 e1 be 39 bb 0b 6f ae 3d b1 ed 7f bd 48 1e 07 3d
       -0.0028342532 0.085172735 -0.06248254 0.032987863
000230 96 14 ad 3b 5d 26 e6 bc 1e 5f c8 3c 78 04 a5 3c
       0.005281995 -0.028094465 0.024459418 0.020143732
000240 3d 5d 8f 3a 1f bc 8e 3d c2 ff b2 bb 58 ef ac 3b
       0.0010937821 0.06969475 -0.0054626176 0.0052775554
000250 04 52 d3 bc a1 9d 0c 3d d3 ab 98 3c 8d 72 22 bd
       -0.025795944 0.034330014 0.01863662 -0.039660025
000260 86 4c b2 3a c8 50 6f 3b 6b 50 af 3c b1 09 90 3c
       0.0013603128 0.0036516655 0.021400651 0.017582746
000270 b6 5b ae bc 90 55 a7 bc fb 43 2d 3d 8b d5 c0 bc
       -0.021283966 -0.020426542 0.04230116 -0.023539325
000280 d2 3d f4 3a 9e 01 ad 3c 7d 5d 07 3a 28 2f 2c 3c
       0.0018634147 0.021118935 0.0005163772 0.01050929
000290 2c 63 59 bc 12 ff 21 bd 5a 42 fa bc 12 f8 26 3c
       -0.013268273 -0.039549895 -0.030549217 0.0101909805
0002a0 fc 76 6f bc b5 0a f9 b9 27 33 89 bc a1 ae 0d 3c
       -0.01461577 -0.00047500958 -0.016748024 0.008647592
0002b0 02 40 f7 3c f0 cc 25 bb d3 b1 98 3c 26 e8 85 bc
       0.030181888 -0.0025299154 0.01863948 -0.016346049
0002c0 8e e2 45 bd da 59 27 3c 2a a6 d4 bb b5 eb ad b9
       -0.048311763 0.010214293 -0.006489535 -0.00033172747
0002d0 07 92 ec 3c a7 b8 89 3c ef 90 f7 bb 44 f0 a5 bb
       0.028878225 0.016811682 -0.007555119 -0.0050640423
0002e0 00 db ba bc 72 8c 42 3d b9 77 bb 3c f7 81 48 3c
       -0.022809505 0.04749722 0.022884237 0.012238017
0002f0 db 7d 2a bc fb 20 9c ba f5 23 08 3d 66 8a d7 bc
       -0.010405983 -0.0011911684 0.033237416 -0.02631111
000300 ae 09 71 bd 40 a2 28 3c 65 4f 61 39 bd 90 ad bb
       -0.058847122 0.01029259 0.00021487249 -0.005296795
000310 a3 14 66 3c 72 49 b6 bc c8 6c 98 bc af 64 56 3c
       0.014043006 -0.022251818 -0.018606558 0.013085528
000320 09 7d bb bb ec 88 8c bb 10 d9 07 bd 99 72 66 bc
       -0.0057216925 -0.0042887833 -0.03316599 -0.014065408
000330 c6 ab 4a bc d8 29 98 3c 9b 3f 71 bc f4 3d 99 bc
       -0.012370056 0.01857464 -0.014724637 -0.0187063
000340 30 61 25 bd 4e 94 10 bc 88 f3 27 3c 34 f6 ff 3c
       -0.04037589 -0.008824421 0.0102509335 0.031245328
000350 35 2b aa 3b 00 17 19 3d d0 2b 72 bc f0 c4 47 3d
       0.005193139 0.03737545 -0.0147809535 0.0487718
000360 5a c0 60 bc e0 e0 30 3c f8 16 7d bb 78 41 ce bd
       -0.013717735 0.010795802 -0.0038618427 -0.10071081
000370 bc c3 24 bd c3 24 1b bd 4d e8 33 3c 82 ba d9 3c
       -0.04022573 -0.037876856 0.010980678 0.026578192
000380 6b ee 64 3d 51 d2 9f bb f8 d0 af 3c 6a a6 1e 3d
       0.055891436 -0.0048773666 0.021461949 0.038732924
000390 9d 34 57 3c e8 7c 13 bb ea d9 41 ba 79 81 59 ba
       0.013135103 -0.002250487 -0.00073948374 -0.0008297186
0003a0 aa 6f 08 bd 74 71 7a 3c 55 99 cf 3c 03 c2 7e bd
       -0.033309616 0.015285838 0.02534167 -0.062196743
0003b0 4e 89 a8 bd a6 5b a1 3c a2 ea 01 3d 8b e5 b4 3d
       -0.08229314 0.019697022 0.031717904 0.08832844
0003c0 0b 95 bc 3a 09 20 c1 bc 0d 27 a3 bc 2a 24 47 bc
       0.001438768 -0.023574846 -0.019916082 -0.012154618
0003d0 a0 b9 af 3c 0a b6 94 3c 2c 80 ab 3c ef 6a 20 bd
       0.021450818 0.01815321 0.02093514 -0.03916448
0003e0 44 a8 fd 3c 2c 4e fa bb 06 64 19 bc 11 ca 29 3d
       0.030964024 -0.0076387133 -0.009362226 0.04145247
0003f0 73 d2 74 3c 09 95 ce bc 2c cb 12 bd 2d ba 83 bc
       0.014942753 -0.02521755 -0.03583829 -0.016079986

model.time_mlp.3.bias f4 [32]
000000 4e fc c8 b8 0c e4 b8 b8 b0 9a c5 b8 0c 9a 59 b8
       -9.5837386e-05 -8.816281e-05 -9.422505e-05 -5.18803e-05
000010 a5 7a c9 38 f6 26 bf 38 2c 01 c9 38 d7 f4 ab 38
       9.607271e-05 9.114847e-05 9.584645e-05 8.1995204e-05
000020 f1 2f c6 38 b2 84 c9 b8 76 4f c5 b8 fc d5 c8 38
       9.4503055e-05 -9.609143e-05 -9.408493e-05 9.576601e-05
000030 af 4d c4 b8 44 a1 ca b8 15 32 c9 b8 0f eb cb 38
       -9.360478e-05 -9.662149e-05 -9.5937554e-05 9.7235774e-05
000040 e8 9b 95 b8 1f 31 4e 38 ba 6c cb 38 72 ed c2 38
       -7.1339135e-05 4.9159975e-05 9.700046e-05 9.2948685e-05
000050 4a ae c7 38 ce 22 a8 38 c5 1e c4 b8 ba 48 ca 38
       9.521523e-05 8.017347e-05 -9.3517396e-05 9.645657e-05
000060 b7 ab c7 b8 3e 5b c6 38 39 71 ca 38 d0 dd b8 38
       -9.521044e-05 9.458371e-05 9.6532e-05 8.8151195e-05
000070 7f 7c c8 b8 f1 77 b4 b8 c4 a4 c0 38 d6 00 af 38
       -9.5599324e-05 -8.60541e-05 9.1859634e-05 8.344806e-05

model.layer.0.weight f4 [256, 46]
000000 dd 7f 03 be 88 e6 a2 bb e2 af af 3c 87 20 12 3e
       -0.12841745 -0.004971329 0.021446172 0.1427022
000010 b7 48 95 bd a5 8f 3d 3c 51 5c 45 bd db ac 85 bd
       -0.0728926 0.011569892 -0.048183743 -0.0652711
000020 30 89 cb 3b 89 53 71 3b 9b 1e 74 3c 5e 62 b2 bd
       0.0062114224 0.0036823472 0.014899875 -0.08710168
000030 b9 dd 4b 3c 7a 5e 3a bd a2 8a d3 bc 14 b9 b6 3d
       0.0124429995 -0.045500256 -0.025822941 0.089220196
000040 a1 1a c4 3d 6c 56 b8 bc bb 7d 8c bd 14 98 08 3d
       0.095753916 -0.022502147 -0.06859919 0.033348158
000050 eb 20 5f bd cb 2c 43 bc af 31 a8 3d 86 48 ff 3d
       -0.054474752 -0.011912535 0.082126014 0.124650046
000060 f5 0a 85 3c 08 e7 8f 3d 90 8a 37 3c b2 25 30 3d
       0.016240576 0.070264876 0.0112024695 0.0430047
000070 7f 99 eb ba ec a1 2d bd 89 ce ee 3c 43 85 41 3d
       -0.0017974823 -0.04239075 0.029151218 0.04724623
000080 24 91 80 3d 73 dc 16 3e 7b b5 90 3d b7 04 30 bd
       0.062776834 0.14732532 0.07065865 -0.042973246
000090 45 15 af 3c 46 fa e6 bd 60 2b 14 3e f2 45 3f 3e
       0.021372447 -0.112782046 0.14469671 0.18679026
0000a0 a6 79 06 3c 89 03 f4 3c 69 df 24 bd ae ac 95 bd
       0.008207714 0.029786842 -0.040252123 -0.07308327
0000b0 20 3a 13 3c 16 2e ca bd ad 22 c2 3d e1 ba 00 be
       0.008986026 -0.098720714 0.0947927 -0.12571289
0000c0 07 74 8c bd 55 64 3e bd 83 da 04 3e d6 71 3b 3c
       -0.06858068 -0.046482403 0.1297398 0.011440715
0000d0 30 65 43 3d b1 3a 22 be 48 b5 50 3d a3 34 62 3d
       0.04770392 -0.15842701 0.050954133 0.05522598
0000e0 64 05 ce bc fc a8 ba bd 1d 20 96 3d 38 7f ba 3d
       -0.025149055 -0.091142625 0.07330344 0.09106296
0000f0 e6 40 7d 3d ec 4a cb bd 82 e7 5b 3b cb b3 3b bd
       0.06182947 -0.099263996 0.0033554737 -0.04582576
000100 2a 79 90 3c 11 bd 18 bd ae 4e 24 3d b1 db cb 3d
       0.0176359 -0.037289683 0.040114097 0.09954012
000110 fc 4b 9c bd 82 20 89 3c 49 7b 1a bd 80 be 2d bd
       -0.0763168 0.016739134 -0.03771523 -0.042418003
000120 92 18 11 be 34 03 1d 3c 6a 7f 95 3d 3c 89 75 3d
       -0.14169529 0.009583283 0.07299693 0.05994533
000130 33 6e 60 3e b8 98 cc 3d 08 4c bc bc d8 ba 32 bd
       0.21917038 0.09990066 -0.022985473 -0.04363522
000140 7a 15 6a bd eb a5 c4 3c 21 e5 22 bd 1f 78 0c bd
       -0.057149388 0.024004897 -0.039769296 -0.034294244
000150 2a 5a 41 bd 15 cd 11 bc 33 ad 64 bd 40 18 ad 3c
       -0.047205128 -0.008898993 -0.05582924 0.021129727
000160 41 38 fe bd 2d 9e 9a bd 76 f7 3a bd 69 b3 6b 3d
       -0.12413073 -0.07549701 -0.045646153 0.057544146
000170 bc 19 79 bd 88 ea 98 3c 6c a1 35 bd 8e 30 ba bd
       -0.060815558 0.01866652 -0.044343397 -0.09091292
000180 b2 56 86 bc a8 9e 30 3c 42 c0 31 3c 99 d4 b1 39
       -0.016398761 0.010780014 0.0108490605 0.00033918468
000190 33 06 03 3e 7d 9c e8 3c 05 8c 14 bd ab 45 db bc
       0.12795334 0.028394932 -0.036266346 -0.026766619
0001a0 af 1f 15 be 99 43 0a 3c ef 25 61 bc 35 36 57 3d
       -0.14562868 0.008438968 -0.013741954 0.05254193
0001b0 40 e4 24 be 4b 33 ec bc fa bc a6 3d b2 5a dd bd
       -0.16102695 -0.028833052 0.08141513 -0.108083144
0001c0 a0 06 9e bd 02 f2 40 3d ee 62 8d bc 37 19 aa bd
       -0.07716107 0.047105797 -0.017259087 -0.083055906
0001d0 58 2c a4 bc 8c 65 cf 3d 68 c6 c0 bc ed c7 0a bd
       -0.020040676 0.101267904 -0.023532107 -0.03388207
0001e0 dd 27 4c 3d e5 6f f9 bb e7 b1 eb 3d d3 ed d1 3d
       0.049842704 -0.007612216 0.115085416 0.102504395
0001f0 4c b1 1c be 0d 81 2d 3e 18 49 1d bd 76 72 69 bc
       -0.15302008 0.1694376 -0.038399786 -0.014248481
000200 f7 c9 f3 bd 19 03 85 bd 46 6e c4 bd 9d ba 50 3e
       -0.11903756 -0.064947315 -0.095913455 0.20383687
000210 8d db ab bc ad cd b2 3d 54 0e b9 3d 6c 91 28 3d
       -0.020978713 0.08730636 0.09035936 0.04115431
000220 fc b3 f7 bd 74 14 17 be 34 bd c8 3d e8 58 6c bd
       -0.12094876 -0.14753896 0.09801713 -0.057701975
000230 bc 40 12 3e 87 0a 59 bd 2d 40 8c 3d 79 26 10 bc
       0.14282507 -0.052988555 0.06848178 -0.008798235
000240 48 08 39 bd e9 48 56 bb fe 0c bf 3d 48 df b1 bc
       -0.045173913 -0.0032697266 0.0932865 -0.021712914
000250 30 9f dc bd 04 0d a8 bb 93 da 19 3d 9b d4 dd bc
       -0.1077255 -0.0051285047 0.037561964 -0.027078917
000260 e0 20 77 3c 97 ca f7 ba d1 1e 83 bd 78 e9 b0 bd
       0.015083522 -0.0018904981 -0.06402362 -0.08638281
000270 9f 1c 0c bd c4 0a 20 bd 16 c9 c2 3c ed 85 6c 3d
       -0.034206983 -0.039072767 0.023777526 0.05774491
000280 67 4a 91 3d cb 2d e3 bc 8a a7 4f 3b 7e d6 4e bd
       0.07094269 -0.027731797 0.0031685554 -0.050497524
000290 50 7f bb bd ed ed 75 3d b4 26 dc bd 98 3a 83 bd
       -0.09155142 0.060041357 -0.107495695 -0.0640766
0002a0 42 1d 04 3e ab a5 8c bb c9 3a 65 bd 98 ba fe 3c
       0.12901786 -0.00429221 -0.055964265 0.031094834
0002b0 ac 06 d2 bd 1b 55 5f 3c 8b fa 65 3d 14 17 c8 bc
       -0.10255179 0.013631131 0.05614714 -0.024425067
0002c0 19 e1 af 3d 14 f7 0a 3e ad c2 6e 3d 2c fe 5f bd
       0.08587856 0.13570815 0.058291126 -0.054685757
0002d0 56 f3 2a bd be a2 6a bd dd c2 b6 3d 95 b0 91 3d
       -0.04173597 -0.05728411 0.08923886 0.071137585
0002e0 73 96 4b bd 0e bd b9 bc 0b a9 29 bc 00 50 9d bd
       -0.049704026 -0.022673156 -0.010355244 -0.076812744
0002f0 64 cf e8 bd 97 98 9a bc d9 40 d7 bc 1c 84 1e be
       -0.113676816 -0.018871589 -0.026276039 -0.15480083
000300 a1 57 9f 3d 75 6b f4 bc 1e 6f 17 bd 93 55 c8 3c
       0.07780386 -0.029836396 -0.036971204 0.024454867
000310 fc 93 1e be f9 51 40 3d a7 9e 32 bc 38 2d 37 bd
       -0.15486139 0.046953175 -0.0109020835 -0.04472086
000320 86 d0 2a 3c 1a b2 34 bd 07 a5 89 3d f7 b5 8a 3c
       0.010425692 -0.044115163 0.067209296 0.01693247
000330 6f 15 43 3d 4b e8 9a 3b df cc 09 3e 74 8e 87 bd
       0.047627863 0.0047273985 0.13457058 -0.06618968
000340 4d eb d8 bd c0 52 9b bd ee 84 c1 3d fa 09 30 be
       -0.10591755 -0.07584143 0.094491825 -0.17191306
000350 69 49 2b be 58 8f 19 be ac 09 be bc c7 8c ce bd
       -0.16727223 -0.14996088 -0.023197971 -0.10085445
000360 39 c6 3a bc 6d de e0 3c 0c e2 1a 3e 52 00 25 3d
       -0.011399799 0.02744981 0.15125293 0.04028351
000370 6d 41 17 3d 5f 57 f3 bd 0c ec c5 3d a4 fc 26 3d
       0.03692763 -0.11881899 0.09664163 0.04076828
000380 df 1d 6d bc 47 f8 55 bd da fa eb bc 54 a1 57 bb
       -0.014472454 -0.05223873 -0.028806139 -0.0032902556
000390 3a e0 db 3a d8 88 53 bd b3 c2 6c bd 9c 84 a6 bd
       0.0016775199 -0.051644176 -0.057802867 -0.08130762
0003a0 c7 a0 35 bd 3d 56 a7 bd f2 4d a3 3b 5e da 8f bd
       -0.044342782 -0.081707455 0.004983657 -0.07024072
0003b0 ce 19 bf 3d da c7 04 3b ae af fc bd a9 9f 7b bd
       0.09331094 0.0020260722 -0.12338196 -0.06143156
0003c0 18 3d 79 bd e0 f1 21 be f7 d8 fb bd af ac a4 3d
       -0.06084928 -0.15814924 -0.12297242 0.08040749
0003d0 6b 4d 7f 3c 23 fa 6f 3d 8f 2c 17 bb 98 97 61 3b
       0.015582423 0.05858816 -0.002306733 0.0034422632
0003e0 b7 7b 89 3d 28 ba a2 3c 8a a5 ab bc d0 cd 02 bc
       0.0671305 0.019864157 -0.020952959 -0.00798364
0003f0 96 3c e4 3c d2 9a a1 bd ad 49 9c 3d 53 29 91 bd
       0.02786092 -0.07890858 0.0763124 -0.0708796

model.layer.0.bias f4 [256]
000000 5f 37 c8 b8 08 d5 ca b8 59 42 72 b8 25 b7 ca 38
       -9.547057e-05 -9.671791e-05 -5.7759087e-05 9.666224e-05
000010 4a bf b5 b8 2f ab bb b8 2f b0 ca 38 e6 da cd 38
       -8.666383e-05 -8.94874e-05 9.664927e-05 9.815935e-05
000020 5a db c9 b8 98 38 ba b8 5f 31 c5 38 49 7a c6 38
       -9.625284e-05 -8.8797125e-05 9.402888e-05 9.464153e-05
000030 ac fd b6 38 16 73 c6 b8 99 a6 42 38 f9 26 a9 38
       8.725686e-05 -9.462812e-05 4.640836e-05 8.065807e-05
000040 3e 6a b7 b8 19 a0 c0 b8 ce 21 2c b8 22 bd a3 38
       -8.745909e-05 -9.185094e-05 -4.103948e-05 7.8076744e-05
000050 95 42 c1 b8 b3 24 bc 38 7c 35 ca 38 b7 7d b3 b8
       -9.215359e-05 8.971374e-05 9.642073e-05 -8.558801e-05
000060 5a ff b0 38 9d 52 70 b8 ac 25 c3 b8 96 b1 cb b8
       8.439897e-05 -5.72974e-05 -9.3053415e-05 -9.712872e-05
000070 99 09 be 38 7b f6 af 38 89 1e cb b8 45 cc 88 b8
       9.061694e-05 8.390561e-05 -9.685482e-05 -6.5230335e-05
000080 7a 21 c0 b8 24 5b be 38 4a 94 a4 b8 f1 bf 18 b8
       -9.161509e-05 9.076882e-05 -7.8477504e-05 -3.6418383e-05
000090 51 55 bd b8 30 45 c6 38 9b 74 c9 b8 7e f0 bc b8
       -9.028114e-05 9.454263e-05 -9.606146e-05 -9.009334e-05
0000a0 a3 4f a1 b8 8c fa c1 b8 44 2d bb b8 6b ab c6 b8
       -7.691912e-05 -9.249625e-05 -8.925286e-05 -9.473305e-05
0000b0 24 30 c7 b8 8b eb c8 b8 83 85 c2 b8 65 b6 c8 38
       -9.498026e-05 -9.5806165e-05 -9.2755094e-05 9.570717e-05
0000c0 ac 97 b1 38 b1 d2 98 b8 6c 67 bb 38 c8 d1 c6 38
       8.468269e-05 -7.287169e-05 8.936119e-05 9.4804505e-05
0000d0 c6 df bc b8 b0 1d 9b b8 86 2b 9c b8 c8 c0 89 b8
       -9.0062196e-05 -7.396506e-05 -7.4467665e-05 -6.5685774e-05
0000e0 ee 1e ca b8 c6 55 92 38 fc 31 77 b8 58 2b cb b8
       -9.637872e-05 6.977799e-05 -5.893594e-05 -9.687868e-05
0000f0 23 39 b4 38 d4 43 b6 b8 bf fd 49 38 5c 1d c2 b8
       8.5937114e-05 -8.69107e-05 4.8158454e-05 -9.2561095e-05
000100 3f 1e 0a 36 c9 3e bb b8 2f 7d c1 38 4b 44 ba 38
       2.0581208e-06 -8.9285495e-05 9.2262744e-05 8.881892e-05
000110 6f 00 c5 b8 e6 cd c0 38 c6 35 b2 b8 db 09 b6 b8
       -9.393773e-05 9.193625e-05 -8.4977175e-05 -8.680272e-05
000120 6c 0d 8b 38 cb 95 c4 b8 10 45 c0 b8 48 72 ba 38
       6.6305365e-05 -9.3739094e-05 -9.168137e-05 8.890458e-05
000130 cc 68 bf 38 82 58 ba 38 b6 e6 cc 38 16 2a c7 38
       9.12711e-05 8.885657e-05 9.770451e-05 9.4968986e-05
000140 4c c9 ba b8 e4 d1 b8 b8 96 7c c3 38 bf 18 88 b7
       -8.9066656e-05 -8.812899e-05 9.3215305e-05 -1.6223987e-05
000150 f9 6d c3 b8 4d 28 b2 b8 24 0e b8 38 0f 55 c5 38
       -9.3188086e-05 -8.495208e-05 8.7764376e-05 9.4095354e-05
000160 f0 8f c2 b8 f1 2a c1 b8 b4 85 96 b8 b8 93 b7 38
       -9.277451e-05 -9.2109556e-05 -7.1774615e-05 8.753635e-05
000170 97 0b c0 38 60 3b 63 38 12 7e c0 38 9b ec c6 b8
       9.157432e-05 5.4176315e-05 9.178756e-05 -9.485447e-05
000180 65 7e c9 b8 b0 66 b2 38 51 19 b5 b8 17 c6 c4 38
       -9.60797e-05 8.5068285e-05 -8.635468e-05 9.3829054e-05
000190 fa 46 89 38 5f b5 7f b8 11 d5 c9 b8 be d3 c8 38
       6.5458895e-05 -6.0965653e-05 -9.6241136e-05 9.576183e-05
0001a0 f8 d7 c3 38 f7 e6 be 38 3f 85 cb b8 78 9a 97 b8
       9.338552e-05 9.1029266e-05 -9.704613e-05 -7.229013e-05
0001b0 13 a6 b6 b8 42 41 c9 b8 79 55 b4 b8 2a c9 c4 38
       -8.70937e-05 -9.596582e-05 -8.5989894e-05 9.383478e-05
0001c0 30 bc c5 b8 9d 52 bb 38 6c f4 9b b8 05 f1 c9 38
       -9.428745e-05 8.932243e-05 -7.436503e-05 9.62932e-05
0001d0 6b e4 c2 b8 ec 0a c6 38 17 fc a4 b8 90 87 b6 b8
       -9.293187e-05 9.44341e-05 -7.867085e-05 -8.703687e-05
0001e0 34 61 98 b8 4e 12 c2 b8 0f ec c0 b8 af 11 cc 38
       -7.26603e-05 -9.2540504e-05 -9.199243e-05 9.730772e-05
0001f0 30 57 84 b8 c4 8e ed b7 4f 84 ca 38 ab 4d c3 b8
       -6.3104904e-05 -2.8319082e-05 9.656755e-05 -9.3127914e-05
000200 97 5d b8 38 8a f2 c3 38 d2 c8 83 b8 cd 12 ac 38
       8.791236e-05 9.343501e-05 -6.2839725e-05 8.205101e-05
000210 ed aa c6 b8 34 7b ad b8 6f 35 c9 38 f4 5c c0 38
       -9.473213e-05 -8.272231e-05 9.59438e-05 9.172587e-05
000220 4f e9 b2 b8 60 30 c6 38 89 02 02 38 77 1c ca b8
       -8.5311585e-05 9.450386e-05 3.0996776e-05 -9.6374126e-05
000230 a9 5e b7 38 9a 0d cb 38 84 c6 c6 38 48 c6 c1 b8
       8.743752e-05 9.682328e-05 9.478352e-05 -9.23989e-05
000240 fe eb c6 b8 26 b6 92 38 78 18 76 b8 f5 1d c8 38
       -9.485333e-05 6.99575e-05 -5.867376e-05 9.542323e-05
000250 e5 8d ba 38 01 c4 64 38 2d 9e b9 38 79 18 b0 b8
       8.895601e-05 5.454198e-05 8.85095e-05 -8.3968924e-05
000260 48 1c c7 b8 5e ba a0 b8 be e6 af 38 5e dd 9f 38
       -9.494327e-05 -7.664108e-05 8.387629e-05 7.622944e-05
000270 83 55 b8 b8 d7 10 c9 b8 98 54 ca 38 c2 93 40 b8
       -8.7897315e-05 -9.5875635e-05 9.6478674e-05 -4.5913977e-05
000280 1e 26 cd 38 7d 13 c5 b8 af 83 a2 b8 4e 3e 54 b8
       9.7822616e-05 -9.397322e-05 -7.74929e-05 -5.0602765e-05
000290 77 aa bd b8 68 b1 bb 38 93 43 ca 38 c0 d0 d2 37
       -9.043974e-05 8.949899e-05 9.644697e-05 2.5131158e-05
0002a0 6b 63 ca b8 6a 63 b7 38 dd ec c9 38 27 88 cb b8
       -9.6506286e-05 8.744637e-05 9.628546e-05 -9.705155e-05
0002b0 98 0c c6 b8 1b 16 c2 38 32 65 b7 b8 2f 37 a6 38
       -9.4437215e-05 9.254758e-05 -8.744969e-05 7.9257756e-05
0002c0 d7 ac c9 38 24 3c c7 b8 92 25 ac b8 82 34 b6 b8
       9.616621e-05 -9.5002615e-05 -8.208597e-05 -8.6882166e-05
0002d0 01 ad a4 38 7f 2a 8a b8 c9 aa ca b8 13 d9 b0 b8
       7.852354e-05 -6.588268e-05 -9.663922e-05 -8.432767e-05
0002e0 5b 13 cb 38 07 10 b1 38 c4 5c b9 b8 70 13 5f 38
       9.6833995e-05 8.443003e-05 -8.8387664e-05 5.3185446e-05
0002f0 b3 97 a2 38 96 b2 cb b8 d8 88 6b b8 06 de b7 b8
       7.753018e-05 -9.7130585e-05 -5.615581e-05 -8.767475e-05
000300 ed 62 af b8 46 83 b8 b8 ba 78 56 b8 30 18 92 38
       -8.3630766e-05 -8.798255e-05 -5.113401e-05 6.966328e-05
000310 d6 02 c9 38 16 0f ce b8 8d 18 cc 38 04 b5 cb 38
       9.584955e-05 -9.8256554e-05 9.732051e-05 9.713511e-05
000320 ed 0d c1 b8 95 eb bc b8 50 90 c7 38 17 20 c6 38
       -9.205551e-05 -9.008419e-05 9.51594e-05 9.447353e-05
000330 ad 83 cb b8 32 bc c3 b8 7f 44 b2 b8 fe 2e c0 38
       -9.704321e-05 -9.333379e-05 -8.50046e-05 9.1640264e-05
000340 a0 eb cb 38 11 29 bb 38 ac 01 ca 38 a9 37 47 b8
       9.723683e-05 8.924504e-05 9.632422e-05 -4.7497135e-05
000350 cc c3 b8 38 f9 1a c6 b8 8b 30 c3 38 a4 fa c7 38
       8.810274e-05 -9.4464e-05 9.3073664e-05 9.535745e-05
000360 30 df c4 38 d2 8f c7 b8 2c 33 c6 b8 e2 71 9a 38
       9.38758e-05 -9.515848e-05 -9.450907e-05 7.3645046e-05
000370 0b f5 c4 b8 84 44 bd b8 08 5a 91 b8 b8 06 b8 b8
       -9.391651e-05 -9.024984e-05 -6.9309084e-05 -8.775055e-05
000380 23 1c c9 38 16 f8 c1 b8 b0 2e b9 38 19 ea ca b8
       9.589668e-05 -9.249167e-05 8.830184e-05 -9.675715e-05
000390 84 73 af b8 4d 3f c7 38 6f 00 c6 b8 75 74 c6 38
       -8.366167e-05 9.50085e-05 -9.4414565e-05 9.4630675e-05
0003a0 9a 3e be 38 7f a4 bf b8 a0 f4 cc 38 bc 56 c8 38
       9.0715665e-05 -9.1382295e-05 9.773043e-05 9.552899e-05
0003b0 0d d9 c4 b8 09 21 80 38 f0 e2 c9 b8 99 f2 c1 b8
       -9.386437e-05 6.109669e-05 -9.626697e-05 -9.2481445e-05
0003c0 e7 dd 86 b8 11 34 bd 38 e3 b9 a6 b8 e6 81 ca b8
       -6.4309505e-05 9.0219204e-05 -7.950121e-05 -9.656306e-05
0003d0 f9 99 ca 38 16 07 04 38 ba 73 ca 38 92 81 c2 38
       9.66079e-05 3.147785e-05 9.653666e-05 9.274775e-05
0003e0 69 06 c2 38 c4 e0 c3 b8 26 b3 c0 b8 00 9a ad 38
       9.251835e-05 -9.3401904e-05 -9.1886424e-05 8.2779676e-05
0003f0 fa fd 96 38 ef e8 b1 b8 5d f5 c2 38 dc 70 b9 38
       7.199864e-05 -8.483405e-05 9.296343e-05 8.842509e-05
