results/qvpo_Hopper-v3/actor_25_04_16_03_31_10_0.pth (torch, 653233 bytes, 24 tensors)

betas f4 [20]
0.007992721 0.020074995 0.032253854 0.044680916 0.05752022 0.07095724 0.085210435 0.10054672
0.11730362 0.13592206 0.15699708 0.18135923 0.21021153 0.24537154 0.289725 0.34813723
0.42943394 0.5510237 0.7484761 0.999
00000000: e7f3 023c 5174 a43c 9e1c 043d 5603 373d
00000010: 529a 6b3d 0852 913d cf82 ae3d 70eb cd3d
00000020: e13c f03d 272f 0b3e d8c3 203e 3cb6 393e
00000030: b141 573e ad42 7b3e d656 943e 0b3f b23e
00000040: c4de db3e e40f 0d3f 219c 3f3f 77be 7f3f

alphas_cumprod f4 [20]
0.99200726 0.9720927 0.9407389 0.8987059 0.84701216 0.7869105 0.7198575 0.64747816
0.57152665 0.4938436 0.41631156 0.3408096 0.2691675 0.20312147 0.1442721 0.09404561
0.05365923 0.024091722 0.0060596443 6.059566e-06
00000000: 30f4 7d3f 11db 783f 44d4 703f 9711 663f
00000010: cad5 583f f772 493f 9548 383f 21c1 253f
00000020: 924f 123f 11d9 fc3e ca26 d53e 997e ae3e
00000030: 53d0 893e 13ff 4f3e 11bc 133e fc9a c03d
00000040: c8c9 5b3d 015c c53c fb8f c63b 4753 cb36

alphas_cumprod_prev f4 [20]
1.0 0.99200726 0.9720927 0.9407389 0.8987059 0.84701216 0.7869105 0.7198575
0.64747816 0.57152665 0.4938436 0.41631156 0.3408096 0.2691675 0.20312147 0.1442721
0.09404561 0.05365923 0.024091722 0.0060596443
00000000: 0000 803f 30f4 7d3f 11db 783f 44d4 703f
00000010: 9711 663f cad5 583f f772 493f 9548 383f
00000020: 21c1 253f 924f 123f 11d9 fc3e ca26 d53e
00000030: 997e ae3e 53d0 893e 13ff 4f3e 11bc 133e
00000040: fc9a c03d c8c9 5b3d 015c c53c fb8f c63b

sqrt_alphas_cumprod f4 [20]
0.99599564 0.9859476 0.969917 0.948001 0.9203327 0.8870797 0.84844416 0.80466026
0.75599384 0.7027401 0.6452221 0.58378905 0.51881355 0.45068997 0.37983167 0.30666855
0.23164463 0.15521508 0.07784372 0.0024616185
00000000: 92f9 7e3f 1067 7c3f 7b4c 783f 32b0 723f
00000010: ec9a 6b3f a817 633f a333 593f 37fe 4d3f
00000020: d088 413f c6e6 333f 472d 253f 3373 153f
00000030: f7d0 043f d6c0 e63e 4c79 c23e a903 9d3e
00000040: 4034 6d3e b4f0 1e3e 876c 9f3d 1b53 213b

sqrt_one_minus_alphas_cumprod f4 [20]
0.089402154 0.16705482 0.243436 0.31826735 0.39113662 0.46161622 0.5292849 0.59373546
0.65457875 0.71144676 0.76399505 0.8119054 0.8548874 0.8926805 0.9250556 0.9518164
0.9728005 0.9878807 0.9969656 0.99999696
00000000: 7a18 b73d 6b10 2b3e 4947 793e f0f3 a23e
00000010: 0f43 c83e f658 ec3e 377f 073f 0cff 173f
00000020: 7992 273f 6021 363f 2e95 433f 08d9 4f3f
00000030: e7d9 5a3f b686 643f 72d0 6c3f 3daa 733f
00000040: 7409 793f c0e5 7c3f 2339 7f3f cdff 7f3f

log_one_minus_alphas_cumprod f4 [20]
-4.8292212 -3.5788665 -2.8258026 -2.2897272 -1.8773968 -1.5460429 -1.2724569 -1.0426427
-0.8475267 -0.68090945 -0.53838795 -0.41674283 -0.31357104 -0.22705303 -0.15580282 -0.09876635
-0.05515252 -0.024386672 -0.0060780807 -6.0796924e-06
00000000: fb88 9ac0 260c 65c0 f3d9 34c0 e48a 12c0
00000010: 8a4e f0bf bce4 c5bf dedf a2bf 5175 85bf
00000020: 83f7 58bf 1550 2ebf cbd3 09bf 515f d5be
00000030: 628c a0be 9780 68be c68a 1fbe 0346 cabd
00000040: 9ce7 61bd 8fc6 c7bc a32a c7bb 2900 ccb6

sqrt_recip_alphas_cumprod f4 [20]
1.0040205 1.0142527 1.0310161 1.0548512 1.0865636 1.1272943 1.178628 1.2427605
1.3227621 1.4230013 1.5498539 1.7129476 1.9274746 2.21882 2.632745 3.2608495
4.3169575 6.4426727 12.8462515 406.2368
00000000: be83 803f 08d3 813f 56f8 833f 5d05 873f
00000010: 8414 8b3f 2e4b 903f 48dd 963f c712 9f3f
00000020: 4550 a93f e824 b63f 9d61 c63f de41 db3f
00000030: 7db7 f63f 2601 0e40 e57e 2840 c2b1 5040
00000040: 8424 8a40 602a ce40 3f8a 4d41 4f1e cb43

sqrt_recipm1_alphas_cumprod f4 [20]
0.08976144 0.16943571 0.25098655 0.33572468 0.42499477 0.5203774 0.62382996 0.737871
0.865852 1.0123895 1.1840807 1.3907515 1.6477739 1.9806975 2.4354358 3.1037297
4.199538 6.364592 12.807271 406.23553
00000000: d9d4 b73d 8e80 2d3e 4f81 803e 1be4 ab3e
00000010: ea98 d93e 7437 053f 52b3 1f3f 1de5 3c3f
00000020: 7aa8 5d3f fb95 813f f58f 973f 2504 b23f
00000030: 41ea d23f 7f87 fd3f 2ede 1b40 82a3 4640
00000040: 9e62 8640 bdaa cb40 95ea 4c41 261e cb43

posterior_variance f4 [20]
0.0 0.0057495437 0.01518903 0.026140116 0.03808446 0.050943825 0.06481505 0.07990259
0.09651028 0.11506122 0.13614298 0.1605868 0.18960492 0.2250349 0.26980028 0.32883638
0.41110724 0.5343292 0.73489726 0.99295247
00000000: 0000 0000 ab66 bc3b 69db 783c cc23 d63c
00000010: 73fe 1b3d 79aa 503d c1bd 843d f8a3 a33d
00000020: 2fa7 c53d 38a5 eb3d 1169 0b3e de70 243e
00000030: cb27 423e 8c6f 663e 4323 8a3e 3e5d a83e
00000040: a67c d23e ccc9 083f 3a22 3c3f 2232 7e3f

posterior_log_variance_clipped f4 [20]
-46.0517 -5.1586347 -4.187182 -3.644284 -3.267949 -2.9770317 -2.7362175 -2.526947
-2.3381057 -2.1622908 -1.9940495 -1.8289206 -1.6628127 -1.4914998 -1.3100733 -1.112195
-0.8889012 -0.6267432 -0.3080246 -0.007072485
00000000: f134 38c2 8913 a5c0 65fd 85c0 f33b 69c0
00000010: 1426 51c0 b087 3ec0 301e 2fc0 80b9 21c0
00000020: 86a3 15c0 f962 0ac0 043d ffbf 121a eabf
00000030: 0cd7 d4bf 77e9 bebf 7bb0 a7bf 685c 8ebf
00000040: 078f 63bf 3e72 20bf 66b5 9dbe 4ec0 e7bb

posterior_mean_coef1 f4 [20]
0.9999971 0.7164648 0.53661877 0.42783123 0.3564285 0.306464 0.26982144 0.2419943
0.22029272 0.20301281 0.1890189 0.1775162 0.16791697 0.15975092 0.15259075 0.1459605
0.13916118 0.13079269 0.11688305 0.077766344
00000000: cfff 7f3f 3d6a 373f d95f 093f b20c db3e
00000010: cc7d b63e d9e8 9c3e 0926 8a3e 5bcd 773e
00000020: 6a94 613e 97e2 4f3e 2c8e 413e cfc6 353e
00000030: 6df2 2b3e bf95 233e c040 1c3e ab76 153e
00000040: 4580 0e3e 85ee 053e 6160 ef3d f643 9f3d

posterior_mean_coef2 f4 [20]
0.0 0.2835139 0.46326464 0.57182044 0.6427814 0.69201046 0.7275179 0.7536718
0.7729793 0.7868927 0.79619277 0.8011557 0.80158293 0.7966954 0.78481936 0.7626187
0.72312224 0.64975595 0.49242297 0.031431142
00000000: 0000 0000 bc28 913e 0631 ed3e d362 123f
00000010: 528d 243f 9927 313f 9d3e 3a3f a3f0 403f
00000020: f9e1 453f cd71 493f 4ad3 4b3f 8a18 4d3f
00000030: 8a34 4d3f 3bf4 4b3f ece9 483f fb3a 433f
00000040: 8a1e 393f 6856 263f dd1e fc3e f1bd 003d

model.time_mlp.1.weight f4 [256, 32]
0.026703568 -0.18156205 -0.0015291092 -0.10416862 -0.078766756 -0.15773128 0.07446316 0.0068829167
-0.019905983 -0.076856 -0.10896654 -0.10960587 -0.027633201 -0.0679303 -0.19015102 0.029617572
0.0048622396 -0.17683028 -0.096799314 -0.16500318 -0.10109234 -0.08879067 -0.0060049426 -0.050101783
-0.05317792 -0.1457098 -0.026749324 0.049366888 -0.15733513 -0.048239056 -0.0013798596 0.14733543
-0.18016672 0.087591894 0.029436836 0.010885143 0.029814482 0.060320243 0.036025204 0.063091025
-0.1202702 0.05635115 -0.070348494 0.022210285 -0.09605699 -0.019220654 -0.033407785 -0.06208692
-0.12598412 -0.12537098 -0.01643339 0.012570101 -0.061147213 -0.137888 0.1477486 -0.0026705232
0.111477025 -0.14828391 0.11086641 0.0723887 0.0038788707 -0.028353913 0.07821917 0.003487426
-0.17549872 0.019966954 -0.005788296 0.07854743 -0.071274474 0.09759496 -0.034309942 0.17855711
0.0878699 0.106434844 -0.067147754 0.11052622 0.110062495 -0.118467584 -0.082542285 -0.0004157297
0.12635355 -0.0728583 -0.005313251 -0.16371925 0.03286391 -0.08314806 0.17008935 0.10936012
-0.121293694 -0.22767745 0.06554665 -0.010989287 0.061901532 0.008053778 0.086383134 0.17152154
-0.08117109 0.03909958 -0.01757932 0.051734257 0.1295049 0.019085864 0.11907544 -0.053593975
0.030517666 0.036550496 0.023931213 -0.089306846 -0.026825307 -0.0055639967 -0.0064005177 0.033855587
-0.10543826 0.029069506 0.07985695 0.014787719 0.014816578 -0.058196783 0.005431358 0.11126458
-0.03888721 -0.23571792 -0.06270256 0.13079067 0.015235667 0.07131237 0.029019922 0.0065245377
0.037125822 0.06111248 0.055106223 0.03828752 -0.10670037 0.005078005 -0.20432939 0.11967497
-0.074198626 -0.1629605 0.0839965 0.1157036 -0.017420974 0.18887627 -0.15648793 -0.037923336
0.08849571 -0.096669905 -0.027519483 -0.09211359 0.012083299 0.12671362 -0.084924296 0.01905039
-0.12444175 0.08779769 -0.066924356 0.072098725 0.10810746 -0.051866405 0.014752188 -0.009334179
0.08206895 -0.041052878 0.048289046 -0.21424323 0.1376423 0.049315013 0.18909311 -0.05902739
-0.17629386 0.038428355 0.08625517 0.023497242 -0.124661624 -0.01221186 0.04375062 -0.021908391
-0.09460385 0.046323463 -0.06740796 0.065975115 0.027200986 -0.092180565 0.11406143 -0.014105863
-0.10361103 0.14584653 0.036241777 -0.10908529 -0.12023857 0.028626384 -0.14343676 0.07543816
-0.05166711 -0.023067953 0.02868775 -0.1751948 0.0854896 -0.062808216 0.12991206 0.0890525
-0.26300478 0.08250472 -0.041916654 0.051761743 3.193326e-05 0.061789554 -0.003505277 0.096825674
0.075190224 0.16301918 0.14367604 0.005380418 -0.10233036 0.0073620137 0.15865229 0.08955343
-0.205672 0.01569295 -0.022940284 0.026373133 0.09393078 -0.15561119 0.035942744 0.008248409
0.13573192 0.029864967 0.040191416 -0.01000883 -0.018584726 0.09989813 -0.12197386 -0.17728369
-0.12606856 -0.079180434 0.008378618 0.07013061 0.09902988 -0.080044255 -0.058845475 -0.06200211
0.026338212 0.07782918 0.16468233 -0.0076116086 0.17205419 0.015921943 0.0120681515 0.027701378
-0.108089015 0.12059181 0.17364205 -0.08567613 0.11453133 -0.08474862 -0.04738902 0.10580181
00000000: 71c1 da3c 67eb 39be 646c c8ba 5c56 d5bd
00000010: 7750 a1bd 4f84 21be 2480 983d 178a e13b
00000020: df11 a3bc ae66 9dbd d929 dfbd 0b79 e0bd
00000030: 065f e2bc 0b1f 8bbd f3b6 42be 8da0 f23c
00000040: 6c53 9f3b ff12 35be b83e c6bd 98f6 28be
00000050: 8009 cfbd e2d7 b5bd 1cc5 c4bb 8737 4dbd
00000060: 17d1 59bd f334 15be 6621 dbbc ef34 4a3d
00000070: 761c 21be 5196 45bd 68dc b4ba 19df 163e
00000080: a07d 38be 6163 b33d 8525 f13c 9957 323c
00000090: 803d f43c 5c12 773d 2a8f 133d de35 813d
000000a0: 3950 f6bd 77d0 663d df12 90bd 58f2 b53c
000000b0: 87b9 c4bd a274 9dbc 9ad6 08bd db4e 7ebd
000000c0: fb01 01be 4061 00be 519f 86bc d3f2 4d3c
000000d0: 8075 7abd 8332 0dbe 694b 173e f203 2fbb
000000e0: 114e e43d bdd7 17be ee0d e33d 8740 943d
000000f0: a734 7e3b 7746 e8bc 5f31 a03d 4d8d 643b
00000100: f0b5 33be bd91 a33c bfab bdbb 7add a03d
00000110: 5af8 91bd dedf c73d 9588 0cbd add7 363e
00000120: 22f5 b33d 83fa d93d c384 89bd 925b e23d
00000130: 7268 e13d 229f f2bd ee0b a9bd 4cf6 d9b9
00000140: d362 013e bb36 95bd c81a aebb 05a6 27be
00000150: 4f9c 063d 8849 aabd e72b 2e3e 33f8 df3d
00000160: d468 f8bd 4724 69be 523d 863d 690c 34bc
00000170: 768c 7d3d fef3 033c a4e9 b03d 58a3 2f3e
00000180: 073d a6bd e226 203d 8202 90bc 4de7 533d
00000190: ef9c 043e f559 9c3c d3dd f33d 5b85 5bbd
000001a0: 2f00 fa3c f9b5 153d 640b c43c 82e6 b6bd
000001b0: bfc0 dbbc 3052 b6bb 6fbb d1bb 28ac 0a3d
000001c0: 04f0 d7bd 2c23 ee3c 0a8c a33d 3048 723c
000001d0: 3bc1 723c c05f 6ebd 88f9 b13b afde e33d
000001e0: 3248 1fbd 0a60 71be 336a 80bd fded 053e
000001f0: 059f 793c 380c 923d 30bb ed3c cacb d53b
00000200: 3f11 183d 1451 7a3d 10b7 613d 60d3 1c3d
00000210: b985 dabd 6565 a63b b93b 51be 2718 f53d
00000220: 73f5 97bd 1edf 26be 5b06 ac3d 02f6 ec3d
00000230: 6eb6 8ebc c868 413e 5f3e 20be 8055 1bbd
00000240: 3d3d b53d dffa c5bd 8a70 e1bc 0da6 bcbd
00000250: 08f9 453c 37c1 013e caec adbd 900f 9c3c
00000260: 51db febd 46cf b33d a30f 89bd 7fa8 933d
00000270: 7267 dd3d de71 54bd 29b3 713c 62ee 18bc
00000280: c413 a83d 1027 28bd bcca 453d 9462 5bbe
00000290: 1af2 0c3e 8afe 493d a0a1 413e b4c6 71bd
000002a0: 6186 34be 0d67 1d3d 8da6 b03d 4a7d c03c
000002b0: 984e ffbd 4114 48bc da33 333d 3a79 b3bc
000002c0: aabf c1bd acbd 3d3d 2f0d 8abd f61d 873d
000002d0: 9ad4 de3c 2ac9 bcbd 0a99 e93d 471c 67bc
000002e0: 0532 d4bd cb58 153e 4272 143d 1c68 dfbd
000002f0: a43f f6bd e181 ea3c 16e1 12be 527f 9a3d
00000300: e4a0 53bd 01f9 bcbc 9302 eb3c 4466 33be
00000310: 2c15 af3d 98a1 80bd ab07 053e 2861 b63d
00000320: 90a8 86be 3cf8 a83d ccb0 2bbd 1f04 543d
00000330: 14f0 0538 0b17 7d3d cab8 65bb 8a4c c63d
00000340: 55fd 993d 80ee 263e d01f 133e 384e b03b
00000350: 9492 d1bd 0c3d f13b bf75 223e ca67 b73d
00000360: ae9b 52be 808e 803c 43ed bbbc 780c d83c
00000370: c85e c03d 8a58 1fbe b338 133d 5624 073c
00000380: 4ffd 0a3e 60a7 f43c c19f 243d 13fc 23bc
00000390: ff3e 98bc 6497 cc3d 6ecd f9bd db89 35be
000003a0: 1e18 01be 5a29 a2bd 7946 093c a3a0 8f3d
000003b0: 2dd0 ca3d 3eee a3bd f407 71bd edf5 7dbd
000003c0: 3cc3 d73c e864 9f3d 7ca2 283e cd6a f9bb
000003d0: f92e 303e bc6e 823c 7fb9 453c 00ee e23c
000003e0: c65d ddbd d7f8 f63d 39cf 313e f876 afbd
000003f0: 678f ea3d af90 adbd fd1a 42bd 9fae d83d

model.time_mlp.1.bias f4 [256]
-5.4330314e-05 -5.325946e-05 -4.5937297e-05 -8.744759e-05 -7.543557e-05 -7.5094336e-05 5.7148412e-05 2.4973975e-05
1.2223732e-05 -4.0456187e-05 -3.2362932e-05 4.7864818e-05 5.085678e-05 -7.9159574e-05 -6.1877586e-06 5.7899488e-05
4.0892588e-05 -6.6969136e-05 -6.4123844e-05 7.826847e-05 5.9041642e-05 -6.134862e-05 -8.603028e-06 5.6010722e-05
-8.10705e-05 -3.7992682e-05 5.5752556e-05 -3.9308146e-05 4.010171e-05 5.621097e-05 5.4648845e-05 -7.593593e-05
-5.425936e-05 -7.906521e-05 3.7769983e-05 5.2477713e-05 5.7701316e-05 5.725028e-05 7.20239e-05 -6.140338e-05
5.182037e-05 3.14679e-05 -3.833271e-05 -6.940223e-05 1.6038017e-05 -8.306395e-05 -3.86644e-05 6.724387e-05
-7.753936e-05 8.0111975e-05 7.726683e-05 3.4560948e-05 -5.4170432e-05 -6.132118e-05 6.890359e-05 -4.420783e-05
-8.0705875e-05 -4.7835823e-05 -7.5714386e-05 -8.08745e-05 8.442775e-05 3.3540226e-05 7.691804e-05 6.5466345e-05
7.92552e-05 -5.5865443e-05 3.2111564e-06 -6.858061e-05 4.4835815e-05 3.0955376e-05 7.441099e-05 7.988112e-05
-6.926895e-05 -8.6477376e-05 7.6264354e-05 -1.3407865e-06 -6.9981514e-05 -3.3321e-05 -1.0971655e-05 -7.2405404e-05
8.647391e-05 -7.0424336e-05 -1.019982e-05 -4.828934e-05 7.262516e-05 6.7309e-05 8.028044e-05 2.4210389e-05
-4.183049e-05 -4.4033342e-05 -6.108252e-05 8.756335e-05 9.0569025e-05 7.652197e-05 4.5023025e-05 6.77858e-05
4.838557e-05 -3.5882385e-05 5.9690738e-05 6.404372e-05 7.280248e-05 7.298501e-05 6.727902e-05 4.3830267e-05
-8.400041e-05 2.5999687e-05 -8.2597006e-05 5.1399526e-05 -8.403942e-05 3.4906083e-05 -7.515347e-05 -8.1122875e-05
-8.4816864e-05 -6.4921296e-05 7.4165655e-05 7.405162e-06 -6.248526e-05 -6.861626e-05 -5.5229095e-05 4.464883e-05
5.382988e-05 -7.872263e-05 -4.7509813e-05 -4.6287507e-05 -2.0621375e-05 -5.8129128e-05 -3.5707453e-05 4.4696946e-05
-1.2321682e-05 -6.0503633e-05 7.652249e-05 -5.9131933e-05 7.133158e-05 -2.9178222e-05 -2.7343829e-05 4.9887367e-05
-7.420192e-05 -7.619659e-05 8.407613e-05 -6.409083e-05 5.633325e-05 5.313814e-05 -5.8651985e-05 2.1999593e-05
4.8764865e-05 7.120451e-05 -6.696125e-05 -3.0321136e-05 -6.936574e-05 3.5104727e-05 6.538931e-05 6.700944e-05
8.4135994e-05 -6.9222115e-05 6.110323e-05 1.561457e-05 7.10738e-05 -7.0490445e-05 -6.116983e-05 -6.090092e-05
-7.9668425e-05 3.7918042e-05 -8.451334e-05 6.938711e-05 -5.991257e-05 6.4308115e-05 3.595751e-05 -5.6280223e-05
-4.6480767e-05 -6.8521776e-06 7.000811e-05 -8.07985e-05 6.190407e-05 7.60552e-05 -1.9667876e-05 -4.981283e-05
5.7069632e-05 -7.708871e-05 -7.14563e-05 4.9752154e-05 -5.658452e-05 -8.595822e-05 8.011073e-05 -8.2984334e-05
-7.633993e-05 2.3300989e-05 -6.331303e-05 -7.1244256e-05 7.106757e-05 7.606653e-05 -8.419775e-05 5.948465e-05
-2.9262534e-05 -6.4944725e-05 7.627848e-05 -5.6007324e-05 2.1034775e-05 7.2368115e-05 -7.376674e-05 -5.060557e-05
8.1319886e-05 -8.688313e-05 -7.934405e-05 5.860188e-05 4.1571122e-05 1.4326562e-06 5.307046e-05 2.955522e-05
5.7099787e-05 -2.7683272e-05 -5.870596e-05 -3.02709e-05 -8.7286564e-05 4.7522517e-05 6.005679e-05 -5.015321e-05
7.674106e-05 1.4228762e-05 2.1120524e-05 -7.7123565e-05 -6.209368e-05 -7.8744866e-05 -5.8832138e-05 5.988287e-05
6.466659e-05 7.419924e-05 5.296784e-05 5.7043253e-05 2.6529675e-05 8.070969e-05 5.6033896e-05 7.183548e-05
6.8420486e-05 5.604632e-05 -6.3069616e-05 7.079527e-05 5.689332e-05 -8.262327e-05 7.1848546e-05 -5.0910086e-05
8.602074e-05 -6.855921e-05 -7.0588256e-05 -4.927482e-05 7.944331e-05 -8.48167e-05 7.599812e-05 -1.2957816e-05
-7.505736e-05 -6.7799156e-05 6.744675e-05 -4.9123475e-05 2.6940123e-05 -2.43206e-05 4.8409027e-05 -6.884511e-05
00000000: bbe0 63b8 e962 5fb8 ccac 40b8 1164 b7b8
00000010: 2a33 9eb8 f77b 9db8 a4b2 6f38 347f d137
00000020: 8714 4d37 80af 29b8 6fbd 07b8 75c2 4838
00000030: 0d4f 5538 7902 a6b8 71a0 cfb6 1ad9 7238
00000040: 1584 2b38 c871 8cb8 3a7a 86b8 1124 a438
00000050: 7ba3 7738 4aa8 80b8 b955 10b7 0eed 6a38
00000060: 6504 aab8 555a 1fb8 dad7 6938 cdde 24b8
00000070: e232 2838 12c4 6b38 c036 6538 cb3f 9fb8
00000080: 8b94 63b8 d0cf a5b8 366b 1e38 841b 5c38
00000090: 5104 7238 0520 7038 890b 9738 b0c5 80b8
000000a0: b359 5938 66fc 0338 6fc7 20b8 0a8c 91b8
000000b0: 6189 8637 9e32 aeb8 952b 22b8 4705 8d38
000000c0: a09c a2b8 ca01 a838 500a a238 89f5 1038
000000d0: 0f35 63b8 8f99 80b8 5580 9038 cc6b 39b8
000000e0: a340 a9b8 53a3 48b8 dac8 9eb8 2b9b a9b8
000000f0: ce0e b138 8bad 0c38 0f4f a138 fa4a 8938
00000100: d035 a638 1051 6ab8 3f7f 5736 efd2 8fb8
00000110: 170e 3c38 15d6 0138 190d 9c38 da85 a738
00000120: 7c44 91b8 305b b5b8 1df0 9f38 13f5 b3b5
00000130: 0ac3 92b8 27c2 0bb8 e612 38b7 5bd8 97b8
00000140: 5459 b538 c7b0 93b8 e51f 2bb7 498a 4ab8
00000150: 564e 9838 3f28 8d38 3c5c a838 6a17 cb37
00000160: 2673 2fb8 71b0 38b8 6e19 80b8 37a2 b738
00000170: e0ef bd38 6b7a a038 1bd7 3c38 3928 8e38
00000180: 9cf1 4a38 6b80 16b8 715c 7a38 364f 8638
00000190: 89ad 9838 870f 9938 2618 8d38 64d6 3738
000001a0: 6029 b0b8 e719 da37 ee37 adb8 d295 5738
000001b0: 523e b0b8 1f68 1238 b69b 9db8 8320 aab8
000001c0: b5df b1b8 5b26 88b8 6289 9b38 db79 f836
000001d0: 850a 83b8 13e6 8fb8 caa5 67b8 5145 3b38
000001e0: 65c7 6138 e417 a5b8 4645 47b8 d524 42b8
000001f0: 11fc acb7 adcf 73b8 96c4 15b8 fb78 3b38
00000200: 39b9 4eb7 48c5 7db8 b37a a038 6e04 78b8
00000210: da97 9538 c1c3 f4b7 6d60 e5b7 273e 5138
00000220: da9c 9bb8 bccb 9fb8 0752 b038 8168 86b8
00000230: 5e47 6c38 a5e0 5e38 1701 76b8 c48b b837
00000240: e088 4c38 a153 9538 8c6d 8cb8 255a feb7
00000250: 7378 91b8 6a3d 1338 9e21 8938 6b87 8c38
00000260: 2b72 b038 572b 91b8 8c24 8038 09fc 8237
00000270: 750d 9538 45d4 93b8 4d48 80b8 dd6f 7fb8
00000280: a913 a7b8 300a 1f38 c13c b1b8 ec83 9138
00000290: a24a 7bb8 28dd 8638 15d1 1638 6e0e 6cb8
000002a0: 58f4 42b8 c2eb e5b6 51d1 9238 5d72 a9b8
000002b0: 7fd2 8138 d37f 9f38 71fc a4b7 1eee 50b8
000002c0: 0d5e 6f38 b0aa a1b8 cfda 95b8 f8ac 5038
000002d0: 2a55 6db8 7844 b4b8 1f01 a838 e007 aeb8
000002e0: b018 a0b8 7e76 c337 edc6 84b8 f868 95b8
000002f0: 1c0a 9538 e885 9f38 5393 b0b8 287f 7938
00000300: d078 f5b7 ef32 88b8 b2f7 9f38 68e9 6ab8
00000310: d673 b037 56c4 9738 38b3 9ab8 5141 54b8
00000320: 488a aa38 0635 b6b8 8365 a6b8 4acb 7538
00000330: a75c 2e38 b149 c035 f997 5e38 5aed f737
00000340: 6e7e 6f38 6039 e8b7 0b3b 76b8 43ee fdb7
00000350: 9e0d b7b8 ea52 4738 7de5 7b38 995b 52b8
00000360: 0bf0 a038 11b8 6e37 fb2b b137 66bd a1b8
00000370: 4a38 82b8 d423 a5b8 87c2 76b8 be2a 7b38
00000380: 9c9d 8738 6a9b 9b38 c929 5e38 ba41 6f38
00000390: 0b8c de37 af42 a938 f005 6b38 61a6 9638
000003a0: f87c 8f38 4713 6b38 3e44 84b8 ec77 9438
000003b0: bda0 6e38 0846 adb8 65ad 9638 4a88 55b8
000003c0: 0866 b438 72c7 8fb8 c808 94b8 6fac 4eb8
000003d0: cd9a a638 9edf b1b8 2e61 9f38 6565 59b7
000003e0: 1d68 9db8 652f 8eb8 3372 8d38 ee09 4eb8
000003f0: 79fd e137 1704 ccb7 cc0a 4b38 f060 90b8

model.time_mlp.3.weight f4 [32, 256]
-0.009519044 -0.0359242 -0.00574177 0.012128414 -0.0032476864 0.036105387 -0.0066041443 -0.015205775
-0.018645763 0.012509784 -0.0018238128 0.022067856 0.0037692573 0.04461407 -0.004218674 -0.0072118216
0.0048222123 0.001448683 0.024831103 -0.013505363 0.011633039 0.029278724 -0.011380363 0.061540496
0.0071753142 -0.0038038166 -0.041484777 -0.021804467 -0.032642756 0.009787213 0.041039534 -0.045500334
-0.05781011 -0.045466557 0.021932963 0.010365617 -0.039942652 0.0040077255 0.040873308 0.004415276
-0.017150529 0.015051301 0.011662712 -0.017323285 0.0002687638 -0.03617803 0.014146214 -0.02022727
-0.03975354 -0.04750672 -0.017244194 0.0127749 -0.016734893 0.011264677 -7.9570535e-05 -0.022955483
0.0032556073 0.005996697 0.028746 0.049935024 -0.014529365 -0.0065942993 -0.012624596 0.0168591
-0.06288311 -0.011297365 -0.024309868 -0.010617813 0.044962794 0.02426039 -0.010478197 0.005986682
-0.036443558 -0.02961006 0.047757067 -0.009667107 0.006660372 -0.04017226 -0.042671647 0.032540936
-0.06526494 0.07791065 -0.0049108467 -0.023616549 -0.06652785 -0.021475583 -0.06658374 0.008261042
-0.018538462 -0.07053498 0.011619149 0.015091004 -0.039002173 0.028554808 -0.023045504 -0.0009695238
-0.0077822036 -0.0013090016 0.061284583 0.028163545 0.015816 -0.03973139 -0.018458093 0.0052020787
-0.018547876 0.00888048 0.06038128 -0.0048658117 0.06408361 0.024216508 -0.00400869 -0.02108548
-0.030227773 0.03167719 -0.016116155 -0.009651869 0.023976741 0.027482165 -0.039758395 -0.039678663
0.03126103 -0.022746257 0.06415059 0.0027264517 -0.017936781 -0.0010865349 0.01146663 0.09717498
0.032728814 -0.0076517602 0.038965993 0.008743707 -0.011837861 0.012767095 -0.009912704 -0.05363263
-0.0028498885 0.08516563 -0.062420856 0.032998398 0.0052713393 -0.028100112 0.02446993 0.020121906
0.0011626675 0.06968622 -0.005480231 0.005262553 -0.02578586 0.034325745 0.018662235 -0.039604407
0.0013559683 0.003654869 0.021427525 0.017576672 -0.021292223 -0.020401552 0.042302296 -0.02353428
0.0019374191 0.021133428 0.0005344546 0.010517925 -0.013263404 -0.039613392 -0.030534493 0.010186519
-0.0145841045 -0.0004726385 -0.016743561 0.008661211 0.03014933 -0.002440522 0.018631957 -0.01636005
-0.048304606 0.010225176 -0.006482682 -0.00032392095 0.028816672 0.016816745 -0.007544275 -0.0050570783
-0.02279615 0.04749323 0.02288385 0.012248337 -0.010413492 -0.0011854958 0.033232883 -0.026309425
-0.0588634 0.01027807 0.00022571928 -0.005307238 0.01404672 -0.022256194 -0.018606398 0.013112905
-0.005763724 -0.0043222364 -0.033165727 -0.014071724 -0.012380734 0.018581277 -0.014731448 -0.01870415
-0.04034626 -0.008835356 0.010239525 0.031256024 0.0051984945 0.037367813 -0.014776003 0.048762713
-0.0137309665 0.01078942 -0.0038359642 -0.10070429 -0.040221836 -0.037872296 0.010991839 0.026570559
0.055824332 -0.0048660245 0.021452183 0.038725432 0.01323215 -0.0021974437 -0.00080636743 -0.00075887935
-0.03332772 0.015286676 0.025404338 -0.062210638 -0.08232206 0.019697161 0.031723652 0.08833551
0.0014392253 -0.023582913 -0.01990613 -0.012137499 0.021443386 0.018180165 0.020946907 -0.039151736
0.030969122 -0.0076291272 -0.009369311 0.04146202 0.014980217 -0.02521106 -0.03587194 -0.016083825
00000000: c4f5 1bbc 4125 13bd 7525 bcbb 41b6 463c
00000010: 23d7 54bb 3ee3 133d 9467 d8bb a521 79bc
00000020: 00bf 98bc d6f5 4c3c 010d efba a6c7 b43c
00000030: a505 773b 3ebd 363d cd3c 8abb 2551 ecbb
00000040: a603 9e3b bce1 bd3a 996a cb3c 9945 5dbc
00000050: 8198 3e3c efd9 ef3c b474 3abc e311 7c3d
00000060: e61e eb3b 7449 79bb f1eb 29bd 489f b2bc
00000070: 69b4 05bd 8c5a 203c 1219 283d 8f5e 3abd
00000080: 4bca 6cbd 243b 3abd c2ac b33c 8dd4 293c
00000090: e89a 23bd 3d53 833b c56a 273d 05ae 903b
000000a0: 447f 8cbc bb99 763c f614 3f3c 90e9 8dbc
000000b0: dee8 8c39 6a2f 14bd 86c5 673c a9b3 a5bc
000000c0: 9cd4 22bd 6896 42bd b243 8dbc d04d 513c
000000d0: 9d17 89bc 7b8f 383c 1bdf a6b8 230d bcbc
000000e0: 075c 553b f17f c43b bb7c eb3c ab88 4c3d
000000f0: 930c 6ebc fe14 d8bb 65d7 4ebc 181c 8a3c
00000100: dcc8 80bd 9518 39bc 7d25 c7bc 56f6 2dbc
00000110: e82a 383d babd c63c beac 2bbc ee2b c43b
00000120: d745 15bd cc90 f2bc ea9c 433d c962 1ebc
00000130: 403f da3b ab8b 24bd 77c8 2ebd a549 053d
00000140: a0a9 85bd 9e8f 9f3d 2beb a0bb 7e77 c1bc
00000150: c13f 88bd 90ed afbc 0e5d 88bd 5259 073c
00000160: f9dd 97bc a574 90bd 3e5e 3e3c 4240 773c
00000170: bec0 1fbd c6eb e93c edc9 bcbc a427 7eba
00000180: db01 ffbb ce92 abba 8b05 7b3d 3cb7 e63c
00000190: 8e90 813c 62bd 22bd 6d35 97bc 3376 aa3b
000001a0: b7f1 97bc 6f7f 113c 5c52 773d 6371 9fbb
000001b0: 453e 833d b361 c63c 545b 83bb 75bb acbc
000001c0: 3ca0 f7bc f1bf 013d 0706 84bc df22 1ebc
000001d0: df6a c43c 4722 e13c b3d9 22bd 1886 22bd
000001e0: 910b 003d 5c56 babc 6261 833d 45ae 323b
000001f0: 28f0 92bc 106a 8eba 88de 3b3c ad03 c73d
00000200: a60e 063d 9ebb fabb ce9a 1f3d c441 0f3c
00000210: 96f3 41bc 142d 513c e568 22bc e3ad 5bbd
00000220: 32c5 3abb 516b ae3d 03ad 7fbd 5429 073d
00000230: 33bb ac3b 3532 e6bc 2a75 c83c b2d6 a43c
00000240: a664 983a a6b7 8e3d 8293 b3bb 7f71 ac3b
00000250: de3c d3bc 2799 0c3d 8be1 983c 3b38 22bd
00000260: bfba b13a 8786 6f3b c788 af3c f4fc 8f3c
00000270: 076d aebc 2821 a7bc 2c45 2d3d f6ca c0bc
00000280: fff0 fd3a 0320 ad3c a41a 0c3a 6053 2c3c
00000290: c04e 59bc a741 22bd 7923 fabc 5be5 263c
000002a0: 2bf2 6ebc 77cc f7b9 cb29 89bc c0e7 0d3c
000002b0: bafb f63c 2af1 1fbb 0ca2 983c 8305 86bc
000002c0: 0ddb 45bd 7f87 273c ae6c d4bb efd3 a9b9
000002d0: f110 ec3c 45c3 893c f735 f7bb d9b5 a5bb
000002e0: febe babc 4388 423d e976 bb3c 40ad 483c
000002f0: 5a9d 2abc a362 9bba 341f 083d dd86 d7bc
00000300: c01a 71bd 5a65 283c 0faf 6c39 57e8 adbb
00000310: 3724 663c 9f52 b6bc 726c 98bc 83d7 563c
00000320: 9fdd bcbb 8ca1 8dbb c9d8 07bd 178d 66bc
00000330: 90d8 4abc c337 983c 2c5c 71bc 7239 99bc
00000340: 1f42 25bd 2bc2 10bc aec3 273c 5106 003d
00000350: 2258 aa3b fe0e 193d 0c17 72bc 69bb 473d
00000360: d9f7 60bc 1cc6 303c cd64 7bbb 0d3e cebd
00000370: a7bf 24bd fb1f 1bbd 1d17 343c 80aa d93c
00000380: 0ea8 643d 2c73 9fbb 7dbc af3c 8f9e 1e3d
00000390: a9cb 583c fd02 10bb 6762 53ba 88ef 46ba
000003a0: a682 08bd f774 7a3c c21c d03c 95d0 7ebd
000003b0: 7898 a8bd f15b a13c a9f0 013d 3fe9 b43d
000003c0: 63a4 bc3a f430 c1bc 2e12 a3bc 5cdc 46bc
000003d0: 0aaa af3c 92ee 943c d998 ab3c 925d 20bd
000003e0: f5b2 fd3c c2fd f9bb bd81 19bc 14d4 293d
000003f0: 966f 753c 6d87 cebc 75ee 12bd 3ac2 83bc

model.time_mlp.3.bias f4 [32]
-9.345619e-05 -9.360021e-05 -9.737368e-05 9.1305716e-05 9.668178e-05 -5.1167903e-05 9.6683514e-05 9.4884e-05
9.439882e-05 -9.728963e-05 -3.8628164e-05 8.976366e-05 -9.744368e-05 -9.747526e-05 -9.698043e-05 9.811299e-05
9.232172e-05 8.434622e-05 9.753872e-05 9.373005e-05 6.350981e-05 -8.454931e-05 -9.719431e-05 9.636581e-05
-9.492631e-05 8.917371e-05 9.682544e-05 5.4701788e-05 -9.6129086e-05 -9.196663e-05 9.0167494e-05 -8.455705e-05
00000000: e9fd c3b8 3b4b c4b8 1935 ccb8 627b bf38
00000010: a3c1 ca38 1e9d 56b8 91c2 ca38 76fc c638
00000020: fbf7 c538 f907 ccb8 ad04 22b8 7f3f bc38
00000030: ad5a ccb8 a26b ccb8 f961 cbb8 03c2 cd38
00000040: d99c c138 08e3 b038 b48d cc38 f090 c438
00000050: 9230 8538 1150 b1b8 ccd4 cbb8 0018 ca38
00000060: 2d13 c7b8 c502 bb38 c30e cb38 996f 6538
00000070: e998 c9b8 35de c0b8 4e18 bd38 3854 b1b8

model.layer.0.weight f4 [256, 46]
-0.12839209 -0.0049715172 0.021446452 0.14271228 -0.0728887 0.011566011 -0.048193604 -0.065274686
0.0062240204 0.0036604 0.014894211 -0.08708573 0.01244626 -0.045512185 -0.025826516 0.08922525
0.09575203 -0.022479028 -0.06860832 0.033377454 -0.054479897 -0.011956438 0.082114816 0.12463743
0.016243285 0.07025924 0.011181817 0.043018818 -0.001801705 -0.04239133 0.029162476 0.047232963
0.062764496 0.14731827 0.07066232 -0.04297194 0.021342276 -0.11278257 0.14463314 0.18671326
0.0080642495 0.029785967 -0.0402618 -0.07308861 0.008848078 -0.09890114 0.0949861 -0.12571234
-0.06858069 -0.046459273 0.12976123 0.011374277 0.047670994 -0.1584445 0.051063463 0.055094358
-0.02519137 -0.09112066 0.0733202 0.090997405 0.061799526 -0.099245705 0.0033321201 -0.045747515
0.017562922 -0.03719641 0.040136326 0.099433765 -0.07641679 0.016647559 -0.037709028 -0.042442948
-0.14171007 0.009618167 0.07296147 0.05993796 0.21921432 0.099924 -0.02301571 -0.043656185
-0.057146914 0.024025615 -0.039821904 -0.034164228 -0.04733836 -0.008907216 -0.056015562 0.021125428
-0.124326155 -0.07567537 -0.04584193 0.057734393 -0.06081651 0.018666271 -0.044342678 -0.090926625
-0.01648395 0.010765267 0.010759618 0.00028879286 0.12796216 0.028304301 -0.03622923 -0.0268116
-0.14558294 0.008423173 -0.013822919 0.05254658 -0.16091983 -0.028911326 0.08138602 -0.10814212
-0.07721909 0.047128916 -0.017292554 -0.08308864 -0.019985372 0.10126219 -0.023523431 -0.03391567
0.049775615 -0.0076579726 0.11508002 0.102513686 -0.15298735 0.1694526 -0.03842158 -0.014095224
-0.11910872 -0.065061614 -0.0958813 0.20388228 -0.020816397 0.087277554 0.09036988 0.041147336
-0.12075784 -0.14773108 0.098017804 -0.057701945 0.14282435 -0.05297967 0.06848599 -0.008795392
-0.04515222 -0.0032628367 0.09326762 -0.021671645 -0.10773563 -0.0051221 0.03755666 -0.02707725
0.0150860455 -0.0018892053 -0.064027466 -0.08638964 -0.034181304 -0.03903989 0.023797574 0.0578084
0.0709473 -0.027720748 0.0031628022 -0.050504 -0.09153103 0.060058966 -0.10749486 -0.064072765
0.12901488 -0.0042651715 -0.055985466 0.031047745 -0.10252533 0.013630199 0.056188542 -0.02439344
0.0859433 0.13571467 0.058315255 -0.05467838 -0.04173235 -0.05727923 0.089058 0.07132943
-0.049703978 -0.022673214 -0.010355842 -0.076727346 -0.1137327 -0.018879421 -0.026365176 -0.15492137
0.07787279 -0.029924002 -0.036998615 0.02444105 -0.15471801 0.046926692 -0.011014789 -0.044605922
0.010510341 -0.044122297 0.06716555 0.016959378 0.04757926 0.004732728 0.13449982 -0.06629317
-0.105868235 -0.075930625 0.09454322 -0.17187658 -0.16734864 -0.15003555 -0.023128053 -0.100848414
-0.01141567 0.027470794 0.1511735 0.04046485 0.036830768 -0.118881516 0.096571796 0.04074362
-0.01462769 -0.052255943 -0.028992824 -0.0034772586 0.0016781386 -0.05165219 -0.057793606 -0.08113778
-0.04434293 -0.08167957 0.0050342064 -0.07023001 0.093327425 0.0020238177 -0.123354346 -0.061407503
-0.060916167 -0.15813151 -0.12297213 0.08043427 0.015589053 0.058594678 -0.0023595204 0.0035010476
0.06714327 0.019928519 -0.02091833 -0.0080018975 0.027849201 -0.078918725 0.0762589 -0.07089536
00000000: 3779 03be 1ce8 a2bb 78b0 af3c 2b23 123e
00000010: ac46 95bd 5e7f 3d3c a866 45bd bcae 85bd
00000020: def2 cb3b 52e3 6f3b d906 743c 015a b2bd
00000030: 66eb 4b3c fc6a 3abd 2192 d3bc babb b63d
00000040: a419 c43d f025 b8bc 8582 8cbd ccb6 083d
00000050: 5026 5fbd f0e4 43bc d02b a83d e941 ff3d
00000060: a310 853c 14e4 8f3d f133 373c 8034 303d
00000070: 3027 ecba 88a2 2dbd 25e6 ee3c 5a77 413d
00000080: ac8a 803d 9ada 163e 68b7 903d 5803 30bd
00000090: ffd5 ae3c 8cfa e6bd b61a 143e c331 3f3e
000000a0: ea1f 043c b301 f43c 8fe9 24bd 7baf 95bd
000000b0: 87f7 103c ae8c cabd 1388 c23d bcba 00be
000000c0: 0874 8cbd 144c 3ebd 21e0 043e 2d5b 3a3c
000000d0: a942 433d 463f 22be ec27 513d 9faa 613d
000000e0: 225e cebc 789d babd e728 963d d95c ba3d
000000f0: 8021 7d3d 5541 cbbd b35f 5a3b bf61 3bbd
00000100: 1ee0 8f3c 435b 18bd fd65 243d eea3 cb3d
00000110: 6880 9cbd 7660 883c c874 1abd a8d8 2dbd
00000120: 721c 11be 8495 1d3c d36c 953d 8281 753d
00000130: b879 603e f4a4 cc3d 718b bcbc d4d0 32bd
00000140: e212 6abd 5ed1 c43c 4b1c 23bd caef 0bbd
00000150: dee5 41bd 92ef 11bc 9370 65bd 3c0f ad3c
00000160: b69e febd b0fb 9abd bfc4 3bbd e67a 6c3d
00000170: bc1a 79bd 02ea 983c aba0 35bd bd37 babd
00000180: 5909 87bc cd60 303c 1c49 303c 1f69 9739
00000190: 8308 033e 6cde e73c 1a65 14bd 00a4 dbbc
000001a0: b213 15be 5901 0a3c 8679 62bc 153b 573d
000001b0: 2bc8 24be 72d7 ecbc b7ad a63d 9e79 ddbd
000001c0: 0b25 9ebd 400a 413d 1da9 8dbc 602a aabd
000001d0: 5db8 a3bc 8d62 cf3d 36b4 c0bc 28eb 0abd
000001e0: 84e1 4b3d bbef fabb 13af eb3d b2f2 d13d
000001f0: b7a8 1cbe fb84 2d3e f25f 1dbd a8ef 66bc
00000200: 46ef f3bd 063f 85bd 6a5d c4bd 84c6 503e
00000210: 2687 aabc 93be b23d d813 b93d 1c8a 283d
00000220: e34f f7bd d146 17be 8fbd c83d e058 6cbd
00000230: 8c40 123e 3601 59bd 6242 8c3d 8c1a 10bc
00000240: 89f1 38bd 51d5 55bb 1803 bf3d bc88 b1bc
00000250: 7fa4 dcbd 4ad7 a7bb 03d5 193d 1cd1 ddbc
00000260: 762b 773c 369f f7ba d520 83bd 0ded b0bd
00000270: b201 0cbd 4be8 1fbd 21f3 c23c 80c8 6c3d
00000280: d14c 913d 9f16 e3bc 0447 4f3b 48dd 4ebd
00000290: 9f74 bbbd 6400 763d 4426 dcbd 9538 83bd
000002a0: 7a1c 043e dac2 8bbb 0451 65bd d757 fe3c
000002b0: cdf8 d1bd 3351 5f3c f525 663d c0d4 c7bc
000002c0: 0a03 b03d c9f8 0a3e fadb 6e3d 70f6 5fbd
000002d0: 8aef 2abd a09d 6abd 0a64 b63d 2a15 923d
000002e0: 6696 4bbd 2dbd b9bc 8dab 29bc 3a23 9dbd
000002f0: b1ec e8bd 04a9 9abc c8fb d7bc b5a3 1ebe
00000300: c57b 9f3d 2e23 f5bc dc8b 17bd 9938 c83c
00000310: 666e 1ebe 3436 403d 6077 34bc b3b4 36bd
00000320: 9133 2c3c 95b9 34bd 188e 893d 65ee 8a3c
00000330: 78e2 423d 0015 9b3b 52ba 093e b7c4 87bd
00000340: 72d1 d8bd 8481 9bbd e09f c13d 6a00 30be
00000350: 715d 2bbe eba2 19be 0b77 bdbc 9d89 cebd
00000360: ca08 3bbc 6e0a e13c 3acd 1a3e 78be 253d
00000370: dcdb 163d 2778 f3bd 6fc7 c53d c8e2 263d
00000380: fba8 6fbc 540a 56bd 5c82 edbc b8e2 63bb
00000390: fdf4 db3a 3f91 53bd fdb8 6cbd 902b a6bd
000003a0: efa0 35bd 9e47 a7bd fcf5 a43b c0d4 8fbd
000003b0: 7322 bf3d 07a2 043b 34a1 fcbd 6f86 7bbd
000003c0: 3b83 79bd 3aed 21be d0d8 fbbd b9ba a43d
000003d0: 3a69 7f3c f900 703d 2fa2 1abb d571 653b
000003e0: 6982 893d 2241 a33c eb5c abbc 641a 03bc
000003f0: 0224 e43c 24a0 a1bd a02d 9c3d 9631 91bd

model.layer.0.bias f4 [256]
-9.390276e-05 -7.5089556e-05 8.76127e-05 9.553853e-05 9.142528e-05 -9.0408976e-05 9.6562115e-05 9.707575e-05
-9.845663e-05 -9.023781e-05 9.734328e-05 9.058237e-05 9.401563e-05 -9.696251e-05 9.6571675e-05 -8.875936e-05
-9.5315474e-05 -9.559875e-05 9.064993e-05 9.411923e-05 -8.762405e-05 9.217323e-05 9.793307e-05 -6.326325e-05
5.512876e-05 9.033664e-05 -9.460588e-05 -9.7306e-05 8.535343e-05 9.554227e-05 -9.566644e-05 -9.355616e-05
3.2598018e-05 9.560096e-05 8.4894906e-05 -9.13599e-05 -9.482121e-05 9.6434356e-05 -9.755772e-05 -9.535209e-05
8.905564e-05 -8.4754916e-05 -9.6076175e-05 -9.3740964e-05 -9.612068e-05 -9.6651565e-05 -8.213112e-05 9.594019e-05
-7.914307e-05 -8.907949e-05 9.539432e-05 9.205638e-05 -7.337462e-05 9.111787e-05 -1.1872236e-05 8.876932e-05
-9.749263e-05 5.6315468e-05 8.687587e-05 -9.7660886e-05 9.701559e-05 -8.210986e-05 -8.237303e-05 -9.5514e-05
-9.3927825e-05 -9.60686e-05 9.501072e-05 9.662805e-05 -9.624552e-05 9.0208414e-05 8.558742e-05 7.410991e-05
-4.6604557e-05 -9.527401e-05 -8.7116474e-05 9.4363844e-05 9.61296e-05 9.5074676e-05 9.666049e-05 9.334397e-05
-8.767019e-05 -9.260913e-05 8.551716e-05 -9.5348725e-05 -9.3112816e-05 9.2428745e-05 9.1606424e-05 8.798698e-05
-9.698491e-05 -9.4293835e-05 8.594284e-05 9.015045e-05 -8.96352e-05 9.127451e-05 9.526515e-05 -9.6221964e-05
-9.80459e-05 7.9974234e-05 -7.343182e-05 -5.7304358e-05 -9.2515365e-05 -8.905223e-06 -9.411149e-05 4.7307723e-05
-7.335223e-05 6.0669922e-06 -9.454983e-05 -6.342579e-05 -7.029008e-05 -9.721977e-05 -8.831691e-05 9.115508e-05
-9.730545e-05 8.873469e-05 -8.951577e-05 9.4368566e-05 -9.395747e-05 9.1746166e-05 9.4905176e-05 -9.39156e-05
-9.51297e-05 -5.4002146e-05 -8.928678e-05 9.79288e-05 -9.175812e-05 -9.055149e-05 9.125656e-05 -9.596551e-05
9.3296054e-05 9.515431e-05 9.28293e-05 8.338925e-05 -9.3314695e-05 -8.2442275e-05 9.6793214e-05 9.109893e-05
-9.5455915e-05 9.2666385e-05 -9.033779e-05 -9.671861e-05 -9.6129246e-05 9.705933e-05 8.1616905e-05 8.042911e-05
-9.449297e-05 8.82377e-05 6.8397e-05 9.4750605e-05 9.551328e-05 7.0611946e-05 9.211767e-05 -9.3922936e-05
-9.728652e-05 -8.574646e-05 -9.3537696e-05 8.75661e-05 9.344841e-05 -9.4942116e-05 9.179329e-05 -6.0755192e-05
9.676419e-05 -9.771174e-05 7.751461e-05 -9.3692295e-05 9.209351e-05 9.5530806e-05 9.730766e-05 7.855292e-05
-9.704849e-05 9.552127e-05 9.254059e-05 -9.763039e-05 -9.423023e-05 9.3833674e-05 -9.617915e-05 -9.000024e-05
9.4749754e-05 -9.7401906e-05 -7.778092e-05 4.393825e-05 -8.7401735e-05 8.788164e-05 -9.666126e-05 5.1206083e-05
9.7595905e-05 9.445291e-05 8.898273e-05 9.011705e-05 -8.265778e-05 -9.462869e-05 -9.270918e-05 -8.163598e-05
-8.4962005e-05 4.131545e-05 -4.4353063e-05 -9.233675e-05 9.581349e-05 -9.8465556e-05 9.7581644e-05 9.819757e-05
-9.454297e-05 -9.436462e-05 8.448976e-05 9.206203e-05 -9.819839e-05 -9.559328e-05 -8.625392e-05 9.463313e-05
9.44801e-05 8.157274e-05 9.846094e-05 -8.6093874e-05 8.9655085e-05 -9.643915e-05 9.272269e-05 9.752004e-05
9.416126e-05 -9.4763986e-05 -9.741346e-05 4.19292e-05 -9.536283e-05 -9.5645395e-05 -6.0607785e-05 -9.519092e-05
9.641062e-05 -9.0975314e-05 9.4288735e-05 -9.3161194e-05 9.074138e-05 9.680591e-05 -9.6661475e-05 8.977894e-05
-9.517824e-05 -9.257363e-05 9.719389e-05 9.689829e-05 -7.943016e-05 -9.6910066e-05 -9.81778e-05 -9.3442555e-05
-9.1627604e-05 9.13938e-05 8.210092e-05 -9.747163e-05 9.7113996e-05 9.575994e-05 9.67374e-05 9.466218e-05
9.596369e-05 -9.230139e-05 -5.034345e-06 9.6544354e-05 4.7014873e-05 -9.514689e-05 9.628487e-05 7.8583966e-05
00000000: a9ed c4b8 6679 9db8 b6bc b738 dc5b c838
00000010: 93bb bf38 f399 bdb8 6481 ca38 2595 cb38
00000020: 807a ceb8 0e3e bdb8 c724 cc38 0af7 bd38
00000030: 422a c538 5a58 cbb8 8686 ca38 5224 bab8
00000040: 1be4 c7b8 307c c8b8 501b be38 e061 c538
00000050: cec2 b7b8 204d c138 6b61 cd38 33ac 84b8
00000060: 0e3a 6738 1d73 bd38 2567 c6b8 c310 ccb8
00000070: c6ff b238 de5d c838 87a0 c8b8 9533 c4b8
00000080: dbb9 0838 607d c838 9b09 b238 7998 bfb8
00000090: c0da c6b8 cd3c ca38 e797 ccb8 c3f7 c7b8
000000a0: 62c3 ba38 73be b1b8 817c c9b8 cc96 c4b8
000000b0: 6694 c9b8 6ab1 cab8 cf3d acb8 7f33 c938
000000c0: 9df9 a5b8 30d0 bab8 700e c838 650e c138
000000d0: b3e0 99b8 8916 bf38 de2e 47b7 aa29 ba38
000000e0: f574 ccb8 4634 6c38 2131 b638 4acf ccb8
000000f0: d974 cb38 6532 acb8 afbf acb8 b04e c8b8
00000100: 1efb c4b8 7078 c9b8 7e40 c738 caa4 ca38
00000110: 6cd7 c9b8 462e bd38 657d b338 746b 9b38
00000120: 4379 43b8 d8cd c7b8 4db2 b6b8 34e5 c538
00000130: 3099 c938 d462 c738 35b6 ca38 aac1 c338
00000140: 93db b7b8 2637 c2b8 ad57 b338 f5f5 c7b8
00000150: 9045 c3b8 4ed6 c138 d31c c038 a685 b838
00000160: 6164 cbb8 9ebf c5b8 363c b438 280f bd38
00000170: 88fa bbb8 a16a bf38 17c9 c738 c6ca c9b8
00000180: fe9d cdb8 d7b7 a738 68ff 99b8 165a 70b8
00000190: cf04 c2b8 a467 15b7 b95d c5b8 486c 4638
000001a0: aed4 99b8 1193 cb36 0e49 c6b8 7603 85b8
000001b0: b368 93b8 77e2 cbb8 c836 b9b8 832a bf38
000001c0: 7710 ccb8 1317 ba38 6aba bbb8 bde7 c538
000001d0: 080b c5b8 d967 c038 d407 c738 8ef4 c4b8
000001e0: 5e80 c7b8 5d80 62b8 7a3f bbb8 205f cd38
000001f0: 446e c0b8 76e6 bdb8 fe60 bf38 1741 c9b8
00000200: f0a7 c338 958d c738 5aad c238 43e1 ae38
00000210: f2b1 c3b8 dce4 acb8 76fd ca38 5e0c bf38
00000220: 812f c8b8 e355 c238 bb73 bdb8 69d5 cab8
00000230: ff98 c9b8 558c cb38 be29 ab38 0dac a838
00000240: 872a c6b8 410c b938 5c70 8f38 d8b4 c638
00000250: 4d4e c838 8015 9438 4c2f c138 7ef8 c4b8
00000260: 4d06 ccb8 c8d2 b3b8 ab29 c4b8 b1a3 b738
00000270: bcf9 c338 a91b c7b8 2681 c038 64d3 7eb8
00000280: e1ed ca38 97ea ccb8 578f a238 ab7c c4b8
00000290: 5422 c138 b657 c838 a711 cc38 c7bc a438
000002a0: 8386 cbb8 9752 c838 5a12 c238 ebbe ccb8
000002b0: 789d c5b8 92c8 c438 cab3 c9b8 83be bcb8
000002c0: 63b4 c638 4044 ccb8 501e a3b8 564a 3838
000002d0: 734b b7b8 194d b838 9eb6 cab8 1dc6 5638
000002e0: 67ac cc38 0515 c638 3d9c ba38 39fd bc38
000002f0: 8f58 adb8 6473 c6b8 dd6c c2b8 fc33 abb8
00000300: a12d b2b8 204a 2d38 bd07 3ab8 eaa4 c1b8
00000310: 7aef c838 4b7f ceb8 bfa4 cc38 6bef cd38
00000320: 5f45 c6b8 9fe5 c5b8 1830 b138 6d11 c138
00000330: dcef cdb8 4079 c8b8 38e3 b4b8 c675 c638
00000340: 9e23 c638 0812 ab38 d17c ce38 4c8d b4b8
00000350: 3505 bc38 603f cab8 1d74 c238 ac83 cc38
00000360: 7178 c538 07bc c6b8 744a ccb8 23dd 2f38
00000370: 88fd c7b8 3b95 c8b8 1d35 7eb8 3ca1 c7b8
00000380: 0f30 ca38 00ca beb8 e1bc c538 895f c3b8
00000390: 684c be38 4704 cb38 bcb6 cab8 b447 bc38
000003a0: 6e9a c7b8 1724 c2b8 93d4 cb38 e035 cb38
000003b0: be93 a6b8 323c cbb8 cee4 cdb8 97f6 c3b8
000003c0: 3228 c0b8 acaa bf38 992d ac38 af69 ccb8
000003d0: aea9 cb38 bad2 c838 7fdf ca38 5f85 c638
000003e0: 1d40 c938 ee91 c1b8 b2ec a8b6 db77 ca38
000003f0: d631 4538 9989 c7b8 8cec c938 72cd a438

model.layer.2.weight f4 [256, 256]
-0.014015709 0.0080705695 -0.029041007 -0.0055071167 0.060263436 0.020884072 -0.030384999 0.098052524
-0.041848704 0.010309966 0.011031967 -0.01903153 -0.01607558 0.019266162 -0.037539706 -0.00987001
-0.04748445 -0.005681285 -0.015226369 0.013331077 -0.047676023 0.029936254 0.02734525 0.040119484
-0.021503553 0.04317873 0.005757552 0.03147062 -0.016524404 0.017466722 0.028208649 0.01992192
-0.021122562 0.005124867 -0.017450586 -0.02339368 -0.02273746 -0.012969203 -0.010577952 0.012302986
0.012626647 -0.015941916 0.042932652 0.024600442 0.024612956 -0.051889602 -0.064025946 0.017202135
-0.03983858 0.012789767 -0.007968502 0.0065922886 -0.04217555 -0.014637803 0.016109372 0.0073422045
-0.029860597 -0.00071306486 0.026131947 -0.0074997446 0.0016201253 -0.015933383 0.025231482 0.019781945
0.051588237 -0.02571207 0.016625937 0.037797865 -0.037995018 -0.0008170217 -0.016706849 0.028858926
-0.034107696 -0.059349637 0.016944364 0.034671925 0.0066448585 0.048130915 -0.025132893 -0.015772441
-0.026719932 -0.055905472 0.008361812 0.029950472 -0.03569811 0.025289461 -0.06090313 -0.07210243
-0.005676201 -0.04596909 0.017020607 -0.001840143 -0.056448475 -0.08313522 0.014518128 -0.02381588
0.01914444 -0.017666481 -0.019942738 0.06699916 -0.010234928 -0.021428702 0.001302271 -0.03144894
0.015962815 0.034021296 -0.036859013 -0.034846526 0.015344673 -0.018566703 0.045887712 0.033468522
0.01818044 -0.08509158 -0.009366836 -0.02958439 0.03522866 -0.05820775 -0.03184053 -0.008585576
0.01849409 0.018749427 0.009113368 0.03580177 0.0035564292 -0.019051833 -0.027552089 0.020982983
-0.036127176 -0.009117598 0.005133555 -0.044288155 -0.014891472 -0.024429964 0.04906818 -0.00843305
-0.011866782 -0.011351956 -0.00816426 -0.006710567 -0.022536147 0.006868854 -0.03026361 0.017372105
-0.023286456 -0.011207095 0.03259467 0.013444505 0.020923672 0.028865231 -0.0040129414 -0.056365725
-0.026593532 -0.0011609046 -0.046851803 0.048597746 -0.011562838 -0.041064568 -0.014473773 -0.0035935047
-0.031926583 0.027124707 -0.012807307 0.009604575 -0.026956465 0.018704867 -0.003614146 0.015579614
0.027500486 0.030415125 0.03195138 0.037344605 0.0014536057 -0.03923746 -0.004483515 0.034430098
-0.018467693 0.031454135 0.0002897554 -0.028513456 0.0041072913 -0.040570576 0.0014672804 0.014411136
-0.025390346 -0.0020947682 0.016719105 -0.051412787 -0.005480072 -0.0050468217 -0.004991544 0.030587623
0.041447908 -0.0057291794 0.0060175695 0.017970705 -0.010903755 0.0077785524 0.010729419 0.04320983
0.0016626987 0.0008113742 -0.004970369 -0.019019615 0.029556394 -0.02319489 -0.045715854 -0.026805133
-0.009579814 0.062408607 -0.02285632 0.0100739915 0.013775766 -0.01865586 0.048402097 0.0035819414
-0.030923855 0.01258833 0.022596024 -0.031174047 -0.02134891 0.020985877 -0.018838197 -0.02006425
-0.0057706414 0.0015373412 -0.008674635 -0.0091580115 0.003947533 0.024148716 0.026840437 0.060412996
0.0077560386 -0.011914896 -0.015823811 -0.04990903 0.0063707065 0.018367663 0.0025046682 -0.008973279
-0.015699692 -0.033217084 0.016297964 0.03109608 -0.00148255 -0.041654065 -0.001958832 0.018582849
-0.041081186 -0.05335401 0.033994418 0.019909661 -0.01501602 -0.007907179 -0.02654491 -0.007113433
00000000: 25a2 65bc 6c3a 043c 68e7 edbc 0b75 b4bb
00000010: cbd6 763d 1315 ab3c f6e9 f8bc c3cf c83d
00000020: 8c69 2bbd 22eb 283c 6cbf 343c 03e8 9bbc
00000030: efb0 83bc 12d4 9d3c 3cc3 19bd d3b5 21bc
00000040: 0e7f 42bd 132a babb 0578 79bc 976a 5a3c
00000050: ef47 43bd e03c f53c 2503 e03c 5454 243d
00000060: 3828 b0bc 2edc 303d d9a9 bc3b 56e7 003d
00000070: 305e 87bc 5f16 8f3c d315 e73c 4b33 a33c
00000080: 3909 adbc 80ee a73b 88f4 8ebc 1aa4 bfbc
00000090: e943 babc c87c 54bc 254f 2dbc 7792 493c
000000a0: ffdf 4e3c 9f98 82bc 26da 2f3d de86 c93c
000000b0: 1ca1 c93c 318a 54bd 0920 83bd 7eeb 8c3c
000000c0: c72d 23bd 2c8c 513c 528e 02bc 2004 d83b
000000d0: 45c0 2cbd 65d3 6fbc cdf7 833c e096 f03b
000000e0: 369e f4bc f9ec 3aba aa12 d63c 6bc0 f5bb
000000f0: 625a d43a ba86 82bc 41b2 ce3c bf0d a23c
00000100: 304e 533d 1ea2 d2bc 1e33 883c efd1 1a3d
00000110: aaa0 1bbd 662d 56ba cddc 88bc 8e69 ec3c
00000120: 83b4 0bbd 9b18 73bd e8ce 8a3c 2604 0e3d
00000130: 1dbd d93b ec24 453d 7fe3 cdbc 3535 81bc
00000140: c2e3 dabc 23fd 64bd fbff 083c b15a f53c
00000150: 2e38 12bd d82b cf3c 8f75 79bd 70aa 93bd
00000160: 6dff b9bb 164a 3cbd cd6e 8b3c f430 f1ba
00000170: 8436 67bd cc42 aabd 71dd 6d3c 8519 c3bc
00000180: cdd4 9c3c 4cb9 90bc f45e a3bc db36 893d
00000190: 66b0 27bc 3f8b afbc f7b0 aa3a 9bd0 00bd
000001a0: 73c4 823c ea59 0b3d 7af9 16bd 3bbb 0ebd
000001b0: 3968 7b3c 3319 98bc c1f4 3b3d 4a16 093d
000001c0: 25ef 943c 7f44 aebd 5c77 19bc f65a f2bc
000001d0: ed4b 103d 406b 6ebd 376b 02bd 84aa 0cbc
000001e0: eb80 973c 6698 993c 3c50 153c e0a4 123d
000001f0: fb12 693b 9712 9cbc ebb4 e1bc 81e4 ab3c
00000200: 17fa 13bd fa61 15bc 6137 a83b 7f67 35bd
00000210: 5cfb 73bc 5921 c8bc b7fb 483d c62a 0abc
00000220: e46c 42bc 8efd 39bc 63c3 05bc 51e4 dbbb
00000230: ba9d b8bc 2014 e13b 64eb f7bc f24f 8e3c
00000240: 3dc3 bebc f79d 37bc fd81 053d 5746 5c3c
00000250: 1f68 ab3c c776 ec3c fe7e 83bb bfdf 66bd
00000260: aeda d9bc 7f29 98ba ade7 3fbd 6e0e 473d
00000270: 0f72 3dbc 5233 28bd 6723 6dbc 0181 6bbb
00000280: 73c5 02bd a234 de3c bdd5 51bc 825c 1d3c
00000290: ced3 dcbc f33a 993c 4fdb 6cbb a341 7f3c
000002a0: b348 e13c 2429 f93c 73df 023d a8f6 183d
000002b0: ea86 be3a 75b7 20bd 73ea 92bb 9306 0d3d
000002c0: 8f49 97bc 0dd6 003d 50ea 9739 0d95 e9bc
000002d0: 7596 863b 552d 26bd c351 c03a af1c 6c3c
000002e0: 6aff cfbc 6148 09bb 81f6 883c 3796 52bd
000002f0: 2d92 b3bb cf5f a5bb 1b90 a3bb e592 fa3c
00000300: 48c5 293d d7bb bbbb 082f c53b 4d37 933c
00000310: aaa5 32bc 3ae3 fe3b 72ca 2f3c cafc 303d
00000320: e9ee d93a 67b2 543a 7ade a2bb 06cf 9bbc
00000330: 4020 f23c 3603 bebc 8c40 3bbd 7096 dbbc
00000340: a7f4 1cbc 2ba0 7f3d 2d3d bbbc 620d 253c
00000350: c0b3 613c 2dd4 98bc 4741 463d 01bf 6a3b
00000360: 0654 fdbc 483f 4e3c 4c1b b93c b760 ffbc
00000370: e9e3 aebc 93ea ab3c 9052 9abc c85d a4bc
00000380: a617 bdbb 9c80 c93a 0e20 0ebc 7c0b 16bc
00000390: 4f5a 813b 87d3 c53c 7ae0 db3c 9e73 773d
000003a0: 5e26 fe3b b236 43bc f0a0 81bc 696d 4cbd
000003b0: 5cc1 d03b c877 963c 5c25 243b a904 13bc
000003c0: a49c 80bc a30e 08bd 4f83 853c 35bd fe3c
000003d0: 2052 c2ba 749d 2abd bf5f 00bb 0f3b 983c
000003e0: bf44 28bd bc89 5abd bb3d 0b3d 9619 a33c
000003f0: c105 76bc 1d8d 01bc b674 d9bc cd17 e9bb
