results/qvpo_HalfCheetah-v3/actor_25_04_21_23_35_08_0.pth (torch, 667057 bytes, 24 tensors)

betas f4 [50]
0	0x3b82284f	0.0039720903
1	0x3c0192e9	0.007908561
2	0x3c41d06a	0.011829475
3	0x3c80e676	0.015734892
4	0x3ca0c459	0.019624876
5	0x3cc081fd	0.023499483
6	0x3ce01f85	0.02735878
7	0x3cff9d10	0.031202823
8	0x3d0f7d5f	0.035031673
9	0x3d1f1c58	0.03884539
10	0x3d2eab84	0.04264404
11	0x3d3e2af1	0.04642767
12	0x3d4d9ab0	0.05019635
13	0x3d5cfad1	0.053950135
14	0x3d6c4b64	0.057689086
15	0x3d7b8c78	0.06141326
16	0x3d855f0e	0.06512271
17	0x3d8cf031	0.068817504
18	0x3d9479ac	0.072497696
19	0x3d9bfb87	0.076163344
20	0x3da375c9	0.0798145
21	0x3daae87b	0.083451234
22	0x3db253a3	0.08707359
23	0x3db9b74a	0.09068163
24	0x3dc11377	0.09427541
25	0x3dc86832	0.09785499
26	0x3dcfb582	0.10142042
27	0x3dd6fb6e	0.10497175
28	0x3dde39ff	0.108509056
29	0x3de5713b	0.112032376
30	0x3deca12b	0.11554178
31	0x3df3c9d5	0.11903731
32	0x3dfaeb41	0.12251902
33	0x3e0102bb	0.12598698
34	0x3e048c3d	0.12944122
35	0x3e08122c	0.13288182
36	0x3e0b948a	0.13630882
37	0x3e0f135b	0.13972227
38	0x3e128ea2	0.14312223
39	0x3e160664	0.14650875
40	0x3e197aa4	0.1498819
41	0x3e1ceb65	0.15324171
42	0x3e2058ab	0.15658824
43	0x3e23c27a	0.15992156
44	0x3e2728d4	0.16324168
45	0x3e2a8bbe	0.1665487
46	0x3e2deb3a	0.16984263
47	0x3e31474d	0.17312355
48	0x3e349ffa	0.17639151
49	0x3e37f544	0.17964655

alphas_cumprod f4 [50]
0	0x3f7efbaf	0.9960279
1	0x3f7cf772	0.9881507
2	0x3f79f960	0.9764614
3	0x3f760a72	0.9610969
4	0x3f713658	0.94223547
5	0x3f6b8b3e	0.9200934
6	0x3f651987	0.89492077
7	0x3f5df380	0.86699677
8	0x3f562d04	0.8366244
9	0x3f4ddb29	0.80412537
10	0x3f4513db	0.7698342
11	0x3f3bed7e	0.7340926
12	0x3f327e93	0.69724387
13	0x3f28dd58	0.65962744
14	0x3f1f1f7c	0.62157416
15	0x3f1559c9	0.58340126
16	0x3f0b9fe5	0.54540855
17	0x3f020417	0.5078749
18	0x3ef12e24	0.47105515
19	0x3edecfa7	0.435178
20	0x3ecd070f	0.40044448
21	0x3ebbeaf3	0.3670269
22	0x3eab8e1b	0.33506855
23	0x3e9bff8b	0.304684
24	0x3e8d4a9a	0.2759598
25	0x3e7eee42	0.24895576
26	0x3e651356	0.22370657
27	0x3e4d0771	0.2002237
28	0x3e36c814	0.17849761
29	0x3e224dda	0.1585001
30	0x3e0f8d1c	0.14018673
31	0x3dfced2f	0.12349927
32	0x3dddf02e	0.10836826
33	0x3dc1fa14	0.09471527
34	0x3da8de47	0.08245521
35	0x3d926dc2	0.07149841
36	0x3d7cf03e	0.06175255
37	0x3d5998e9	0.053124342
38	0x3d3a744d	0.04552107
39	0x3d1f231a	0.038851835
40	0x3d07490c	0.033028647
41	0x3ce51ba4	0.027967282
42	0x3cc13b7c	0.023587935
43	0x3ca25491	0.019815715
44	0x3c87d4ce	0.016580965
45	0x3c626ae0	0.013819426
46	0x3c3bf64f	0.011472299
47	0x3c1b6be6	0.009486174
48	0x3c0001a7	0.007812894
49	0x3bd20564	0.006409334

alphas_cumprod_prev f4 [50]
0	0x3f800000	1.0
1	0x3f7efbaf	0.9960279
2	0x3f7cf772	0.9881507
3	0x3f79f960	0.9764614
4	0x3f760a72	0.9610969
5	0x3f713658	0.94223547
6	0x3f6b8b3e	0.9200934
7	0x3f651987	0.89492077
8	0x3f5df380	0.86699677
9	0x3f562d04	0.8366244
10	0x3f4ddb29	0.80412537
11	0x3f4513db	0.7698342
12	0x3f3bed7e	0.7340926
13	0x3f327e93	0.69724387
14	0x3f28dd58	0.65962744
15	0x3f1f1f7c	0.62157416
16	0x3f1559c9	0.58340126
17	0x3f0b9fe5	0.54540855
18	0x3f020417	0.5078749
19	0x3ef12e24	0.47105515
20	0x3edecfa7	0.435178
21	0x3ecd070f	0.40044448
22	0x3ebbeaf3	0.3670269
23	0x3eab8e1b	0.33506855
24	0x3e9bff8b	0.304684
25	0x3e8d4a9a	0.2759598
26	0x3e7eee42	0.24895576
27	0x3e651356	0.22370657
28	0x3e4d0771	0.2002237
29	0x3e36c814	0.17849761
30	0x3e224dda	0.1585001
31	0x3e0f8d1c	0.14018673
32	0x3dfced2f	0.12349927
33	0x3dddf02e	0.10836826
34	0x3dc1fa14	0.09471527
35	0x3da8de47	0.08245521
36	0x3d926dc2	0.07149841
37	0x3d7cf03e	0.06175255
38	0x3d5998e9	0.053124342
39	0x3d3a744d	0.04552107
40	0x3d1f231a	0.038851835
41	0x3d07490c	0.033028647
42	0x3ce51ba4	0.027967282
43	0x3cc13b7c	0.023587935
44	0x3ca25491	0.019815715
45	0x3c87d4ce	0.016580965
46	0x3c626ae0	0.013819426
47	0x3c3bf64f	0.011472299
48	0x3c1b6be6	0.009486174
49	0x3c0001a7	0.007812894

sqrt_alphas_cumprod f4 [50]
0	0x3f7f7db7	0.998012
1	0x3f7e7a91	0.9940577
2	0x3f7cf818	0.9881606
3	0x3f7af894	0.9803555
4	0x3f787f05	0.97068816
5	0x3f758f1d	0.959215
6	0x3f722d39	0.94600254
7	0x3f6e5e51	0.93112665
8	0x3f6a27ed	0.9146717
9	0x3f65901f	0.89673036
10	0x3f609d6b	0.877402
11	0x3f5b56b9	0.85679203
12	0x3f55c34d	0.8350113
13	0x3f4feaab	0.8121745
14	0x3f49d491	0.78839976
15	0x3f4388dc	0.76380706
16	0x3f3d0f81	0.7385178
17	0x3f367075	0.71265346
18	0x3f2fb39f	0.68633455
19	0x3f28e0ce	0.65968025
20	0x3f21ffa1	0.63280684
21	0x3f1b1782	0.60582745
22	0x3f142f95	0.57885104
23	0x3f0d4eb0	0.5519819
24	0x3f067b4a	0.52531874
25	0x3eff76fd	0.49895468
26	0x3ef229f3	0.4729763
27	0x3ee519f4	0.44746363
28	0x3ed85095	0.4224898
29	0x3ecbd67b	0.39812073
30	0x3ebfb359	0.3744152
31	0x3eb3edee	0.35142463
32	0x3ea88c08	0.32919335
33	0x3e9d9284	0.30775845
34	0x3e930558	0.28715014
35	0x3e88e796	0.26739186
36	0x3e7e76f2	0.24850062
37	0x3e6c04d5	0.23048718
38	0x3e5a7a2c	0.21335667
39	0x3e49d6dc	0.19710869
40	0x3e3a197d	0.18173786
41	0x3e2b3f72	0.16723421
42	0x3e1d4508	0.15358365
43	0x3e102591	0.1407683
44	0x3e03db86	0.1287671
45	0x3df0c13b	0.11755606
46	0x3ddb5bde	0.10710882
47	0x3dc77813	0.09739699
48	0x3db5061e	0.088390574
49	0x3da3f59d	0.080058314

sqrt_one_minus_alphas_cumprod f4 [50]
0	0x3d811318	0.0630247
1	0x3ddeef11	0.10885442
2	0x3e1d1ae5	0.1534229
3	0x3e49f8f3	0.19723873
4	0x3e761c5a	0.24034253
5	0x3e90bb1c	0.28267753
6	0x3ea5f834	0.32415926
7	0x3ebab972	0.3646961
8	0x3ecef2fa	0.4041975
9	0x3ee2997d	0.44257727
10	0x3ef5a293	0.47975597
11	0x3f04026e	0.5156621
12	0x3f0cdc0e	0.55023277
13	0x3f155aa8	0.58341455
14	0x3f1d7b57	0.61516327
15	0x3f253bdc	0.64544463
16	0x3f2c9a99	0.674234
17	0x3f339692	0.7015163
18	0x3f3a2f6a	0.727286
19	0x3f406558	0.7515464
20	0x3f463929	0.7743097
21	0x3f4bac2f	0.79559606
22	0x3f50c03c	0.81543326
23	0x3f557797	0.83385605
24	0x3f59d4f2	0.85090554
25	0x3f5ddb57	0.8666281
26	0x3f618e24	0.88107514
27	0x3f64f0fc	0.8943021
28	0x3f6807b6	0.90636766
29	0x3f6ad657	0.91733307
30	0x3f6d60fd	0.9272612
31	0x3f6fabdd	0.9362162
32	0x3f71bb31	0.94426256
33	0x3f73932e	0.95146453
34	0x3f7537fd	0.95788556
35	0x3f76adb2	0.9635879
36	0x3f77f840	0.96863174
37	0x3f791b78	0.9730754
38	0x3f7a1afe	0.97697437
39	0x3f7afa4a	0.9803816
40	0x3f7bbca1	0.983347
41	0x3f7c6512	0.9859172
42	0x3f7cf675	0.98813564
43	0x3f7d736e	0.99004257
44	0x3f7dde68	0.9916749
45	0x3f7e3997	0.99306625
46	0x3f7e86fe	0.9942473
47	0x3f7ec86b	0.99524564
48	0x3f7eff7c	0.9960859
49	0x3f7f2da4	0.9967902

log_one_minus_alphas_cumprod f4 [50]
0	0xc0b0e91f	-5.528457
1	0xc08def84	-4.4354877
2	0xc06ff17c	-3.749114
3	0xc04fc99f	-3.246681
4	0xc0367d04	-2.8513803
5	0xc021b8ae	-2.526897
6	0xc01031d1	-2.2530406
7	0xc0011cc9	-2.017382
8	0xbfe7e5e5	-1.8117033
9	0xbfd0ad08	-1.6302805
10	0xbfbc06bb	-1.4689554
11	0xbfa98cba	-1.3246071
12	0xbf98f01d	-1.1948277
13	0xbf89f28c	-1.0777144
14	0xbf78c3a3	-0.9717352
15	0xbf602968	-0.8756318
16	0xbf49d1b6	-0.7883562
17	0xbf35827d	-0.70902234
18	0xbf2309fc	-0.6368711
19	0xbf123d18	-0.5712447
20	0xbf02f60a	-0.51156676
21	0xbeea26d1	-0.4573274
22	0xbed0eebb	-0.40807137
23	0xbeba0e1d	-0.36338893
24	0xbea5543e	-0.32290834
25	0xbe9294b1	-0.28629068
26	0xbe81a6ac	-0.25322473
27	0xbe64c90d	-0.2234232
28	0xbe4956de	-0.19662043
29	0xbe30b605	-0.17256935
30	0xbe1aaa3d	-0.15104003
31	0xbe06fb3b	-0.13181774
32	0xbdeae8ef	-0.1147021
33	0xbdcbc9a9	-0.09950573
34	0xbdb03d06	-0.08605389
35	0xbd97ed58	-0.074183166
36	0xbd828af0	-0.063741565
37	0xbd5f972b	-0.054587524
38	0xbd3ed4dd	-0.04658972
39	0xbd224fa3	-0.03962673
40	0xbd0991eb	-0.033586424
41	0xbce85f68	-0.028365806
42	0xbcc38c42	-0.023870591
43	0xbca3f5e2	-0.020014707
44	0xbc88f842	-0.016719941
45	0xbc63ff3d	-0.013915834
46	0xbc3d0c64	-0.011538599
47	0xbc1c29ec	-0.009531479
48	0xbc00826f	-0.007843598
49	0xbbd2b28a	-0.006429975

sqrt_recip_alphas_cumprod f4 [50]
0	0x3f804146	1.001992
1	0x3f80c3e1	1.0059777
2	0x3f81889a	1.0119812
3	0x3f82909d	1.0200382
4	0x3f83dd7f	1.030197
5	0x3f857144	1.0425191
6	0x3f874e63	1.0570797
7	0x3f8977c7	1.0739678
8	0x3f8bf0df	1.0932883
9	0x3f8ebda4	1.1151624
10	0x3f91e29f	1.1397284
11	0x3f9564fd	1.1671444
12	0x3f994a95	1.1975886
13	0x3f9d9a02	1.2312624
14	0x3fa25aac	1.2683921
15	0x3fa794e2	1.309231
16	0x3fad51f4	1.3540635
17	0x3fb39c46	1.4032066
18	0x3fba7f7a	1.4570153
19	0x3fc2088d	1.515886
20	0x3fca45ff	1.5802611
21	0x3fd34802	1.650635
22	0x3fdd20b0	1.72756
23	0x3fe7e444	1.8116536
24	0x3ff3a95d	1.903606
25	0x400044a7	2.0041902
26	0x40075037	2.114271
27	0x400f0744	2.2348185
28	0x40177ba3	2.3669212
29	0x4020c159	2.511801
30	0x402aeee9	2.670832
31	0x40361da9	2.8455603
32	0x40426a24	3.0377283
33	0x404ff48e	3.2493014
34	0x405ee142	3.4824986
35	0x406f595e	3.7398295
36	0x4080c5b7	4.024135
37	0x408ad61b	4.338636
38	0x4095fbcd	4.6869874
39	0x40a258d3	5.073343
40	0x40b013ea	5.502431
41	0x40bf5931	5.9796376
42	0x40d05b04	6.5111103
43	0x40e352eb	7.103872
44	0x40f882bd	7.7659593
45	0x41081af3	8.506579
46	0x4115617b	9.336299
47	0x412446b0	10.267258
48	0x413503c8	11.313423
49	0x4147dab4	12.490894

sqrt_recipm1_alphas_cumprod f4 [50]
0	0x3d8154ba	0.063149884
1	0x3de0443f	0.10950517
2	0x3e1efcc8	0.15526116
3	0x3e4e050d	0.20119114
4	0x3e7d8aeb	0.24760024
5	0x3e96e27b	0.29469666
6	0x3eaf7169	0.34266213
7	0x3ec88937	0.39167187
8	0x3ee2414b	0.4419044
9	0x3efcb1fe	0.49354547
10	0x3f0bfa87	0.5467915
11	0x3f1a12fc	0.6018522
12	0x3f28b11c	0.6589525
13	0x3f37e4e7	0.7183365
14	0x3f47bfa9	0.78026825
15	0x3f585449	0.8450361
16	0x3f69b776	0.91295564
17	0x3f7bffd3	0.9843723
18	0x3f87a329	1.0596668
19	0x3f91d33a	1.1392586
20	0x3f9c9f4d	1.2236115
21	0x3fa81835	1.3132387
22	0x3fb4509c	1.40871
23	0x3fc15d41	1.5106584
24	0x3fcf553f	1.619789
25	0x3fde5254	1.7368875
26	0x3fee7143	1.8628315
27	0x3fffd239	1.998603
28	0x40094c9c	2.1453009
29	0x40137753	2.304158
30	0x401e7ff0	2.4765587
31	0x402a7ff4	2.6640596
32	0x40379414	2.868413
33	0x4045dcb1	3.091595
34	0x40557e53	3.3358352
35	0x4066a246	3.6036544
36	0x40797746	3.8979049
37	0x40871926	4.22182
38	0x409287b7	4.5790668
39	0x409f2979	4.9738126
40	0x40ad2544	5.410799
41	0x40bca757	5.895427
42	0x40cde22e	6.43386
43	0x40e10f72	7.0331354
44	0x40f6711a	7.7013063
45	0x4107295c	8.4475975
46	0x4114857e	9.282591
47	0x41237ebe	10.218443
48	0x41344e67	11.269141
49	0x4147367b	12.450801

posterior_variance f4 [50]
0	0x00000000	0.0
1	0x3b2dbe2a	0.0026511052
2	0x3bc321a2	0.005954937
3	0x3c1bfbe0	0.009520501
4	0x3c588bc2	0.013216915
5	0x3c8b29fd	0.016987795
6	0x3caa6eb6	0.020804744
7	0x3cc9f290	0.024651796
8	0x3ce9a0e4	0.028519101
9	0x3d04b623	0.03240026
10	0x3d14a598	0.036290735
11	0x3d249b48	0.04018715
12	0x3d349479	0.044086907
13	0x3d448ede	0.04798781
14	0x3d548892	0.051888056
15	0x3d647fd3	0.055785965
16	0x3d747310	0.059680045
17	0x3d823069	0.0635689
18	0x3d8a23d3	0.06745114
19	0x3d92131b	0.0713255
20	0x3d99fd92	0.07519068
21	0x3da1e295	0.07904545
22	0x3da9c180	0.0828886
23	0x3db199b3	0.08671894
24	0x3db96a91	0.09053529
25	0x3dc13389	0.09433658
26	0x3dc8f407	0.098121695
27	0x3dd0ab7d	0.10188959
28	0x3dd85970	0.10563934
29	0x3ddffd63	0.109370016
30	0x3de796ec	0.11308083
31	0x3def25a1	0.11677099
32	0x3df6a92e	0.12043987
33	0x3dfe2146	0.1240869
34	0x3e02c6d8	0.12771165
35	0x3e06771c	0.13131374
36	0x3e0a2160	0.13489294
37	0x3e0dc599	0.13844909
38	0x3e1163c4	0.14198214
39	0x3e14fbe5	0.14549215
40	0x3e188e07	0.14897929
41	0x3e1c1a38	0.15244377
42	0x3e1fa08f	0.15588592
43	0x3e232124	0.15930611
44	0x3e269c11	0.16270472
45	0x3e2a117d	0.16608234
46	0x3e2d8183	0.16943936
47	0x3e30ec4e	0.17277643
48	0x3e3451ff	0.17609404
49	0x3e37b2bd	0.17939277

posterior_log_variance_clipped f4 [50]
0	0xc23834f1	-46.0517
1	0xc0bdd953	-5.932779
2	0xc0a3f3ff	-5.1235347
3	0xc094f017	-4.654308
4	0xc08a70b4	-4.3262577
5	0xc0826888	-4.07526
6	0xc077d842	-3.8725743
7	0xc06cfc68	-3.7029057
8	0xc063a8db	-3.5571811
9	0xc05b7e62	-3.4295888
10	0xc0543c81	-3.3161929
11	0xc04db596	-3.2142081
12	0xc047c82c	-3.1215925
13	0xc0425b11	-3.0368083
14	0xc03d5acb	-2.9586666
15	0xc038b80a	-2.8862329
16	0xc0346686	-2.8187575
17	0xc0305c42	-2.755631
18	0xc02c9107	-2.6963518
19	0xc028fdf9	-2.6405013
20	0xc0259d56	-2.587728
21	0xc0226a34	-2.5377321
22	0xc01f6062	-2.4902577
23	0xc01c7c3d	-2.445083
24	0xc019baa0	-2.4020157
25	0xc01718c3	-2.3608863
26	0xc0149439	-2.3215468
27	0xc0122ada	-2.2838655
28	0xc00fdab8	-2.2477245
29	0xc00da218	-2.2130184
30	0xc00b7f6d	-2.1796525
31	0xc009714e	-2.1475406
32	0xc0077673	-2.1166046
33	0xc0058db1	-2.0867732
34	0xc003b5f3	-2.0579803
35	0xc001ee3d	-2.030166
36	0xc00035a4	-2.003274
37	0xbffd169d	-1.9772526
38	0xbff9dce8	-1.952054
39	0xbff6bcaf	-1.9276332
40	0xbff3b491	-1.903948
41	0xbff0c348	-1.8809595
42	0xbfede79e	-1.8586309
43	0xbfeb2072	-1.8369277
44	0xbfe86cbc	-1.8158183
45	0xbfe5cb76	-1.7952716
46	0xbfe33bba	-1.7752602
47	0xbfe0bca4	-1.7557569
48	0xbfde4d67	-1.7367371
49	0xbfdbed3e	-1.7181776

posterior_mean_coef1 f4 [50]
0	0x3f7fffa0	0.9999943
1	0x3f2a85b3	0.6661026
2	0x3effc7ae	0.4995703
3	0x3ecca231	0.39967492
4	0x3eaa8786	0.3330652
5	0x3e9228b1	0.2854667
6	0x3e7fbcff	0.2497444
7	0x3e6342b0	0.22193408
8	0x3e4c729f	0.199656
9	0x3e39bfbf	0.18139552
10	0x3e2a2122	0.16614202
11	0x3e1cdf31	0.15319516
12	0x3e1176b4	0.14205438
13	0x3e078745	0.13235195
14	0x3dfd9112	0.123811856
15	0x3dee0620	0.11622262
16	0x3de0175a	0.10941954
17	0x3dd3807f	0.10327243
18	0x3dc80add	0.09767697
19	0x3dbd8a2b	0.09254869
20	0x3db3da2c	0.08781847
21	0x3daadcfe	0.08342932
22	0x3da279c9	0.07933385
23	0x3d9a9bd3	0.07549252
24	0x3d9331b3	0.07187214
25	0x3d8c2cc6	0.06844477
26	0x3d8580bb	0.06518694
27	0x3d7e4655	0.062078793
28	0x3d7216c2	0.059103735
29	0x3d66641d	0.05624782
30	0x3d5b224a	0.053499497
31	0x3d504745	0.050849218
32	0x3d45caec	0.048289225
33	0x3d3ba6b8	0.045813292
34	0x3d31d58d	0.04341655
35	0x3d285387	0.041095283
36	0x3d1f1dc6	0.038846754
37	0x3d163254	0.03666909
38	0x3d0d8ff0	0.034561098
39	0x3d0535f7	0.032522168
40	0x3cfa4870	0.030552119
41	0x3ceab5bd	0.028651113
42	0x3cdbb4a1	0.026819529
43	0x3ccd462d	0.025057876
44	0x3cbf6b84	0.023366697
45	0x3cb225c1	0.021746518
46	0x3ca575be	0.020197745
47	0x3c995c0b	0.018720647
48	0x3c8dd8c9	0.017315285
49	0x3c82eb9e	0.015981492

posterior_mean_coef2 f4 [50]
0	0x00000000	0.0
1	0x3eaaf3d3	0.33389148
2	0x3f001aff	0.5004119
3	0x3f19abca	0.60027754
4	0x3f2ab5ca	0.6668364
5	0x3f36e00f	0.71435636
6	0x3f3ffdd2	0.74996674
7	0x3f47128a	0.77762663
8	0x3f4cb9ab	0.79970807
9	0x3f51563a	0.81772196
10	0x3f552a04	0.83267236
11	0x3f58628e	0.8452538
12	0x3f5b2051	0.85596186
13	0x3f5d7afe	0.86515796
14	0x3f5f8464	0.8731139
15	0x3f6149fd	0.8800352
16	0x3f62d647	0.8860821
17	0x3f643185	0.8913806
18	0x3f65623b	0.8960301
19	0x3f666db9	0.90011173
20	0x3f675849	0.9036909
21	0x3f68257a	0.90682185
22	0x3f68d83a	0.90954936
23	0x3f697306	0.91191137
24	0x3f69f7f5	0.9139398
25	0x3f6a68d7	0.9156622
26	0x3f6ac73d	0.91710263
27	0x3f6b147c	0.9182813
28	0x3f6b51d2	0.9192172
29	0x3f6b8054	0.9199269
30	0x3f6ba100	0.9204254
31	0x3f6bb4ba	0.9207264
32	0x3f6bbc5f	0.92084306
33	0x3f6bb8b5	0.92078716
34	0x3f6baa7f	0.9205703
35	0x3f6b9270	0.9202032
36	0x3f6b713b	0.9196965
37	0x3f6b4782	0.9190599
38	0x3f6b15ea	0.91830313
39	0x3f6add0d	0.91743547
40	0x3f6a9d83	0.91646594
41	0x3f6a57dd	0.9154032
42	0x3f6a0ca6	0.9142555
43	0x3f69bc60	0.9130306
44	0x3f696789	0.9117361
45	0x3f690e9b	0.9103791
46	0x3f68b204	0.9089663
47	0x3f685232	0.9075042
48	0x3f67ef81	0.9059983
49	0x3f678a4f	0.9044542

model.time_mlp.1.weight f4 [256, 32]
0	0xbd6d9836	-0.058006488
1	0x3e27c9bf	0.16385554
2	0xbbf457be	-0.0074567487
3	0xbd7a5fe1	-0.061126594
4	0x3cea379b	0.028590968
5	0xbd86fdcb	-0.06591376
6	0xbd93449b	-0.0719082
7	0xbde98344	-0.1140199
8	0x3e5b2245	0.21399792
9	0x3e5bcca1	0.21464778
10	0x3d093cb0	0.03350514
11	0xbc05ba78	-0.008162133
12	0x3d2ce7d8	0.04221329
13	0x3dc610f4	0.09671202
14	0xbd21e25f	-0.039522525
15	0xbda66970	-0.08125579
16	0xbdcfac20	-0.10140252
17	0x3d808f4f	0.06277334
18	0xbc23018c	-0.009949099
19	0x3d4b5da0	0.049649835
20	0xbe3cca02	-0.18436435
21	0x3d263edc	0.04058729
22	0xbe492374	-0.1964243
23	0xbe03ff45	-0.12890346
24	0x3d9decee	0.077112064
25	0xbc51e5d0	-0.012811139
26	0xbe73d80b	-0.23812883
27	0x3c8cb068	0.01717396
28	0xbda14c1b	-0.07875844
29	0xbd94748b	-0.07248791
30	0xbcaf2538	-0.021380052
31	0x3dfa40d3	0.122193955
32	0xbd80eb6d	-0.06294904
33	0xbd51c44a	-0.051212586
34	0x3d62c679	0.05536506
35	0x3e0c2260	0.13684988
36	0xbdca0285	-0.09863762
37	0x3c36f33c	0.01116639
38	0x3caedbc1	0.021345021
39	0x3d87e42d	0.06635318
40	0x3dfe714f	0.12423956
41	0xbe2ada33	-0.16684799
42	0xbd6e82d4	-0.058230236
43	0x3c8f4bb8	0.01749216
44	0x3e064fd8	0.13116395
45	0xbd983147	-0.07431274
46	0xbd85e014	-0.0653688
47	0xbde4809a	-0.11157341
48	0x3da83946	0.08214049
49	0x3e006c2b	0.12541263
50	0xbc281569	-0.010259011
51	0xbe24f942	-0.1611071
52	0xbe0eec20	-0.13957262
53	0xbc221908	-0.009893663
54	0xbc1cc1d1	-0.009567694
55	0x3d8882c1	0.06665564
56	0xbd5099cf	-0.050927933
57	0x3db49aa4	0.08818558
58	0x3d8c32a6	0.06845598
59	0xbc9f6906	-0.019459259
60	0x3cc18348	0.02362217
61	0xbcf638f8	-0.030056462
62	0xbe413cfc	-0.1887092
63	0xbd4d0136	-0.050049983
64	0x3d1083f1	0.03528208
65	0x3cf1216f	0.029434888
66	0x3d8ccd1b	0.06875058
67	0xbe8472d2	-0.2586885
68	0xbc5af74a	-0.013364622
69	0xba42f86a	-0.0007437529
70	0x3b928e6b	0.004472544
71	0xbc89322a	-0.016747553
72	0x3b7e3bad	0.0038792894
73	0x3d4256c6	0.047446035
74	0xbe16d2fc	-0.14728922
75	0xbe35b15e	-0.17743441
76	0xbd3ca60c	-0.046056792
77	0x3e03b6f6	0.12862763
78	0x3dc0d07c	0.09414765
79	0xbc28c8ab	-0.010301749
80	0xbca81707	-0.020518793
81	0x3cb041d7	0.02151577
82	0x3e012684	0.12612349
83	0xbd2c0d0b	-0.042004626
84	0xbdb54d4e	-0.08852635
85	0x3e2bdf24	0.1678434
86	0xbb974d48	-0.004617367
87	0xbd8c3e76	-0.06847851
88	0xbdf1de6a	-0.1181
89	0x3bfd381d	0.0077276365
90	0xbe0a6829	-0.13516296
91	0xbdb6ee6c	-0.08932194
92	0xbe6ffbf9	-0.23435964
93	0xbe014eec	-0.12627763
94	0xbe2cb3d4	-0.16865474
95	0xbcef2d20	-0.029196322
96	0x3d285a1f	0.04110157
97	0x3e01cb2d	0.12675162
98	0xbe0ada6b	-0.13559882
99	0xbcabf9e1	-0.020993175
100	0xb9c935c9	-0.0003837778
101	0xbd7f2284	-0.062288776
102	0x3d6ebf4c	0.058287904
103	0x3e20818d	0.1567442
104	0xbd37ca83	-0.044870865
105	0xbd4f05db	-0.050542694
106	0x3d9b698f	0.07588493
107	0xbe347168	-0.17621386
108	0xbd04a6c0	-0.032385588
109	0xbd3e113c	-0.046403155
110	0x3cf66ee9	0.030082183
111	0x3da03e4a	0.07824381
112	0x3cd8dcd8	0.026472494
113	0xbe0f813f	-0.14014147
114	0xbbe49624	-0.006975906
115	0xbe205e5b	-0.15660994
116	0xbdd2f97f	-0.10301494
117	0xbc7ec07c	-0.015548822
118	0x3d9835fa	0.0743217
119	0x3df1bf2c	0.11804041
120	0xbe465e67	-0.19371949
121	0x3d563883	0.052299988
122	0xbe119194	-0.1421569
123	0xbe412d53	-0.18864946
124	0x3d838a02	0.06422807
125	0xbd86d529	-0.06583626
126	0x3c3fbf07	0.011703259
127	0x3d30b7ae	0.04314392
128	0x3de1bac4	0.11021951
129	0xbd9742ef	-0.073858134
130	0x3d6a7efb	0.057250004
131	0xbe0431c0	-0.12909603
132	0x3c5032d3	0.01270743
133	0xbdc8faf0	-0.098134875
134	0xbdbecc89	-0.09316356
135	0xbda2ea7f	-0.07954883
136	0xbd682f58	-0.056685776
137	0xbd286258	-0.041109413
138	0xbdaf5b75	-0.08562366
139	0x3d74b7dd	0.05974566
140	0x3da16200	0.0788002
141	0x3bb6dbb4	0.00558039
142	0xbd504e88	-0.050856143
143	0xbdc974db	-0.098367415
144	0x3d8909cb	0.06691321
145	0x3d923d8b	0.07140645
146	0xbd00e248	-0.0314658
147	0x3e157595	0.14595635
148	0xbd835a87	-0.06413751
149	0x3c027c20	0.007964164
150	0x3cf81454	0.03028313
151	0x3da7a529	0.08185799
152	0x3d93038f	0.07178413
153	0xbdcf472c	-0.10120997
154	0x3e2905d5	0.16506131
155	0xbe059428	-0.13044798
156	0x3d344e1b	0.0440198
157	0x3db1609f	0.08661007
158	0xbb283e8d	-0.0025672049
159	0x3d499387	0.04921296
160	0xbcee03c1	-0.029054524
161	0xbc64965c	-0.013951864
162	0xbbc6a4ae	-0.006062112
163	0xbdc7d148	-0.09756714
164	0xbc958237	-0.018250568
165	0xbd8178c3	-0.063218616
166	0xbd805be1	-0.062675245
167	0x3e3f410b	0.18677156
168	0xbd2a4530	-0.04156989
169	0xbd5926c0	-0.05301547
170	0x3d9c3213	0.076267384
171	0xbd8b52a1	-0.068028696
172	0xbded480d	-0.11586008
173	0xbb9b20d6	-0.004734139
174	0x3b1661d9	0.0022946505
175	0xba0b0fe5	-0.00053047977
176	0x3d8745a8	0.06605083
177	0x3d9e3b88	0.077261984
178	0xbc5831af	-0.013195439
179	0x3c0b0434	0.008484889
180	0xbd0be7ed	-0.03415673
181	0x3c5b8560	0.013398498
182	0xbd536a4b	-0.05161504
183	0x3dab87bd	0.083754994
184	0x3d50b595	0.05095442
185	0x3d8aa505	0.06769756
186	0x3dd8d0f3	0.10586729
187	0xbd1bb7ef	-0.03801721
188	0x3d3ffa4b	0.046869557
189	0x3de68818	0.112564266
190	0x3dc1200a	0.09429939
191	0x3d2f658f	0.042821463
192	0x3db2c09e	0.08728145
193	0x3d56b8f8	0.052422494
194	0xbe3d4a82	-0.18485454
195	0x3c50822a	0.012726346
196	0x3dc3bafd	0.095571496
197	0x3d88c2c4	0.066777736
198	0x3d1d1d27	0.03835788
199	0xbe5187db	-0.20461981
200	0x3cca1fef	0.02467343
201	0xbcb8cc41	-0.022558333
202	0xbcf591f2	-0.029976819
203	0x3caa129b	0.020760825
204	0x3dfc9f0b	0.123350225
205	0x3e02bb53	0.12766771
206	0xbd2c622e	-0.04208582
207	0x3e24194c	0.16025275
208	0xbbc74fbd	-0.0060825036
209	0xbdbf6cd1	-0.09346927
210	0xbc2e8150	-0.010650948
211	0xbd5e31bd	-0.054246653
212	0xbb5ff7b8	-0.0034174751
213	0x3dd3f6f9	0.10349841
214	0xbb88e626	-0.0041778265
215	0xbdb5334c	-0.08847675
216	0xbdd4dd04	-0.10393718
217	0x3dbc4293	0.091923855
218	0xbdbb4264	-0.091435224
219	0xbcb6ed66	-0.022329997
220	0xbd297126	-0.041367672
221	0x3cfd5cfc	0.030928127
222	0x3d81c805	0.06336979
223	0xbe38dc26	-0.1805273
224	0xbd3376ef	-0.043814596
225	0x3b387710	0.0028147139
226	0xbc3cbe32	-0.0115199555
227	0x3d441524	0.047871724
228	0xbd38c5d4	-0.04511054
229	0xbe0359f0	-0.12827277
230	0xbd8ca049	-0.068665095
231	0xbe041ee0	-0.12902403
232	0xbc9eca15	-0.01938347
233	0xbd079513	-0.033101153
234	0xbd203c2c	-0.039119884
235	0xbd24431d	-0.040103067
236	0xbd7957b3	-0.060874652
237	0x3dafaff4	0.08578482
238	0xbdc680f1	-0.09692562
239	0x3e21b432	0.15791395
240	0xbd759ae6	-0.059962176
241	0x3b905c5a	0.0044055404
242	0x3e1683e6	0.14698753
243	0x3c71b4a0	0.014752537
244	0xbcd8fe87	-0.026488556
245	0xbe1add94	-0.15123588
246	0x3dc2f170	0.09518707
247	0xbd223b4e	-0.03960734
248	0xbd451c44	-0.04812266
249	0x3d28b71a	0.041190244
250	0xbd4914f8	-0.049092263
251	0x3de83134	0.1133751
252	0x3d00f393	0.03148229
253	0x3db6afd4	0.08920255
254	0x3d9582b5	0.07300321
255	0xbd9d1877	-0.07670682

model.time_mlp.1.bias f4 [256]
0	0x384cd605	4.883671e-05
1	0xb8266ef1	-3.9680806e-05
2	0x381736be	3.6052188e-05
3	0x3764b919	1.3632955e-05
4	0xb7d9da1c	-2.5969981e-05
5	0xb83b0b78	-4.4594955e-05
6	0x382c42d0	4.107022e-05
7	0x3836690b	4.349001e-05
8	0x384b658b	4.849354e-05
9	0x385cb6ec	5.2622447e-05
10	0x37adb7fb	2.070888e-05
11	0x3890f278	6.9116184e-05
12	0x378bd807	1.6670687e-05
13	0x38956dbc	7.125313e-05
14	0x3897d2da	7.239515e-05
15	0x389cc03f	7.474468e-05
16	0x385608f4	5.1029914e-05
17	0xb848180c	-4.770611e-05
18	0x38886aaf	6.504857e-05
19	0x3834698e	4.301365e-05
20	0x381fb6e9	3.8078902e-05
21	0x37fafa5e	2.9918909e-05
22	0xb7e8da43	-2.7758191e-05
23	0xb87f912f	-6.093195e-05
24	0xb79c732f	-1.8650286e-05
25	0x375b8600	1.30846165e-05
26	0xb835dca1	-4.335924e-05
27	0xb7cb18d2	-2.4211044e-05
28	0xb77fa908	-1.523854e-05
29	0xb776e53f	-1.4716118e-05
30	0xb7933669	-1.7549102e-05
31	0xb8a4471f	-7.833377e-05
32	0x3754ba59	1.2679572e-05
33	0x3838a00e	4.401808e-05
34	0xb8276a46	-3.9914878e-05
35	0x3858083d	5.1506086e-05
36	0x382da8e2	4.14037e-05
37	0x381ddc53	3.763691e-05
38	0x38889cee	6.514216e-05
39	0x389a48e3	7.3568684e-05
40	0x3812e34c	3.50208e-05
41	0x372b0403	1.0193328e-05
42	0x38b0a74b	8.423495e-05
43	0x3834bc84	4.3090913e-05
44	0x38455da1	4.705566e-05
45	0xb874682d	-5.8271155e-05
46	0xb822a9cc	-3.8781945e-05
47	0xb887421d	-6.449616e-05
48	0x389292f1	6.9891925e-05
49	0x388fee56	6.863165e-05
50	0x38056e30	3.181229e-05
51	0xb70c1b89	-8.351061e-06
52	0x387fcba7	6.0986404e-05
53	0x3795fea8	1.7880768e-05
54	0xb880bf1d	-6.139113e-05
55	0x3807355c	3.2236203e-05
56	0xb807477f	-3.2253094e-05
57	0x37b44e87	2.149424e-05
58	0x3860dc02	5.361066e-05
59	0x3883c788	6.2837324e-05
60	0x38076808	3.2283395e-05
61	0xb7fab018	-2.9884322e-05
62	0x373f0cb0	1.1387441e-05
63	0xb81e9910	-3.7812686e-05
64	0x384a252d	4.8195176e-05
65	0x38983f6d	7.259739e-05
66	0x3841e8dc	4.6231653e-05
67	0xb898c92d	-7.285397e-05
68	0xb87faac3	-6.0955772e-05
69	0x380a0363	3.2904918e-05
70	0xb76ee0d3	-1.4238251e-05
71	0xb724745c	-9.802254e-06
72	0xb87def3e	-6.0542712e-05
73	0xb838fe76	-4.4106004e-05
74	0xb84422e0	-4.676252e-05
75	0xb81eeac5	-3.788878e-05
76	0x38a71634	7.967316e-05
77	0xb89a91b5	-7.370432e-05
78	0xb71e07b5	-9.419328e-06
79	0x38a425ce	7.827171e-05
80	0xb88cb0b2	-6.708632e-05
81	0xb88340dc	-6.258648e-05
82	0xb7b69e29	-2.176974e-05
83	0xb701e126	-7.741421e-06
84	0xb82131e3	-3.8431852e-05
85	0xb84ad3a1	-4.8357648e-05
86	0xb712db0b	-8.753278e-06
87	0xb8a1c4b4	-7.713717e-05
88	0x383b6cae	4.468549e-05
89	0xb8724204	-5.7758778e-05
90	0xb8918325	-6.9385664e-05
91	0xb89aa289	-7.373567e-05
92	0x37e37d27	2.7118787e-05
93	0x3866967a	5.4976415e-05
94	0xb7071e97	-8.053749e-06
95	0x38210286	3.838774e-05
96	0x38961576	7.156555e-05
97	0x352d644c	6.4593473e-07
98	0x36ba4912	5.5517385e-06
99	0xb8458c90	-4.709937e-05
100	0xb7c0cfc1	-2.2984927e-05
101	0xb85a7f92	-5.209406e-05
102	0xb7e01f70	-2.671752e-05
103	0x38704d8a	5.7292673e-05
104	0x384246a4	4.6318994e-05
105	0xb7cbe493	-2.4305924e-05
106	0xb86da77f	-5.6661196e-05
107	0xb884b02e	-6.3270665e-05
108	0x386da4a0	5.6658522e-05
109	0xb882e4db	-6.241511e-05
110	0xb7cf245e	-2.4693258e-05
111	0xb855c38e	-5.0965282e-05
112	0xb82e123e	-4.1501822e-05
113	0xb839ce73	-4.4299708e-05
114	0xb7722a87	-1.4434226e-05
115	0xb8745fb8	-5.826328e-05
116	0xb89398bc	-7.037955e-05
117	0x37a94a01	2.018083e-05
118	0x3817c34f	3.61831e-05
119	0x385ea3c9	5.308146e-05
120	0x383fa32a	4.5689907e-05
121	0xb8a9f937	-8.104968e-05
122	0x3794f7bd	1.7758337e-05
123	0x381caa85	3.7352107e-05
124	0xb8808460	-6.1281724e-05
125	0x3892e02b	7.003577e-05
126	0xb8202e24	-3.8189944e-05
127	0xb7b3e12d	-2.1443318e-05
128	0x36f8485b	7.3993992e-06
129	0xb84a1d84	-4.818804e-05
130	0xb823997b	-3.900517e-05
131	0xb840cf25	-4.5969286e-05
132	0x37ae2247	2.0758378e-05
133	0x38a76e98	7.98378e-05
134	0xb8996a7a	-7.315441e-05
135	0x380687f6	3.2074713e-05
136	0xb88824f3	-6.491868e-05
137	0x380cf98d	3.3611013e-05
138	0xb893ea56	-7.053155e-05
139	0xb8a3a18e	-7.8025376e-05
140	0xb837c75d	-4.381627e-05
141	0xb82521d1	-3.937056e-05
142	0x385da509	5.2844207e-05
143	0x38962a45	7.160431e-05
144	0x3888f8ab	6.5313034e-05
145	0x37f83dcd	2.9592682e-05
146	0x38a43ff9	7.832045e-05
147	0x387abc2f	5.9779904e-05
148	0x38251517	3.9358707e-05
149	0x386de737	5.672054e-05
150	0xb7edcc16	-2.8347637e-05
151	0x38058106	3.1829833e-05
152	0x3883837b	6.271057e-05
153	0xb8822a67	-6.206781e-05
154	0x386b883c	5.6155244e-05
155	0x388a848b	6.605041e-05
156	0xb868c4bb	-5.549633e-05
157	0xb8873d6e	-6.448744e-05
158	0x37f7ca08	2.9538773e-05
159	0x381fa107	3.8058522e-05
160	0xb822e109	-3.883339e-05
161	0x387a6d94	5.9706697e-05
162	0x3880a719	6.13464e-05
163	0x3811a938	3.472829e-05
164	0xb8aa383d	-8.116707e-05
165	0xb8953351	-7.114432e-05
166	0x383401bb	4.2916956e-05
167	0xb88119ca	-6.156003e-05
168	0x38812178	6.1574334e-05
169	0xb88be70b	-6.6710716e-05
170	0x388ff2ef	6.864021e-05
171	0x37b918b0	2.2065215e-05
172	0x35d7cf04	1.6078998e-06
173	0xb802a78d	-3.115046e-05
174	0xb836941e	-4.3530126e-05
175	0x385e4c8e	5.300022e-05
176	0x37ecedf0	2.824419e-05
177	0x37800bf8	1.5264362e-05
178	0xb816c09b	-3.5942165e-05
179	0x388be3dd	6.670479e-05
180	0xb877dda4	-5.9095808e-05
181	0x387ff429	6.102413e-05
182	0x384669ba	4.7305344e-05
183	0x37c6a0b4	2.3678273e-05
184	0xb85086d2	-4.9716626e-05
185	0xb8ae30c4	-8.30605e-05
186	0x38833cdb	6.257902e-05
187	0x37992b47	1.8259174e-05
188	0x387c6850	6.017863e-05
189	0xb85083b3	-4.971372e-05
190	0x3897d4c8	7.239875e-05
191	0xb8a1cac7	-7.7148485e-05
192	0x388b1492	6.631868e-05
193	0xb85ec5b8	-5.3113064e-05
194	0xb7a6c20c	-1.9879102e-05
195	0x386d300a	5.6549943e-05
196	0xb864ceec	-5.4552147e-05
197	0xb8836249	-6.264874e-05
198	0x387fcdc7	6.0988383e-05
199	0x3802481c	3.1061572e-05
200	0x3861f4e4	5.3872252e-05
201	0xb82f02f1	-4.172599e-05
202	0xb82be802	-4.098565e-05
203	0xb8405d62	-4.5863337e-05
204	0xb8a44af2	-7.834089e-05
205	0x382948dd	4.03606e-05
206	0x37f0e9f5	2.8719174e-05
207	0xb891ddc3	-6.955445e-05
208	0x38507f2e	4.970951e-05
209	0xb8340a5b	-4.292499e-05
210	0x37f61382	2.933457e-05
211	0x3842c923	4.6440528e-05
212	0x36eff601	7.1513937e-06
213	0x38298bc5	4.042291e-05
214	0xb872b687	-5.7867288e-05
215	0xb858afad	-5.1662024e-05
216	0xb80b632b	-3.323254e-05
217	0xb88da9f9	-6.755064e-05
218	0x3801c439	3.0938743e-05
219	0xb897c7a9	-7.237431e-05
220	0xb8897ab7	-6.5555265e-05
221	0xb83d9b8d	-4.520598e-05
222	0xb7505487	-1.2417447e-05
223	0x38061210	3.196491e-05
224	0x3880dcf3	6.1446706e-05
225	0x382d8944	4.1374253e-05
226	0x386b1cdb	5.605524e-05
227	0x38260c10	3.958872e-05
228	0xb80a1a82	-3.292645e-05
229	0xb7eff9d1	-2.860735e-05
230	0x38771bc1	5.8915237e-05
231	0xb8905610	-6.8824855e-05
232	0xb6923ad9	-4.35799e-06
233	0x38906033	6.8843736e-05
234	0x387ff0ab	6.1020877e-05
235	0x37585cdf	1.28962265e-05
236	0xb832d46f	-4.263635e-05
237	0x3846990e	4.7349422e-05
238	0xb718fca5	-9.118729e-06
239	0x38820212	6.199269e-05
240	0x384fcf81	4.95459e-05
241	0xb6c1106d	-5.7537604e-06
242	0x387be18d	6.0053124e-05
243	0x38709c01	5.736575e-05
244	0x3767aec9	1.3809368e-05
245	0xb884bab5	-6.3290274e-05
246	0x3847c814	4.7631635e-05
247	0xb83b2d91	-4.462671e-05
248	0x386fc2d2	5.716348e-05
249	0xb80acf26	-3.3094686e-05
250	0xb88aa20e	-6.610538e-05
251	0x381d6a67	3.7530812e-05
252	0x389deb0d	7.530125e-05
253	0x37ebd26e	2.8112172e-05
254	0xb8998600	-7.320568e-05
255	0xb851e3b7	-5.004156e-05

model.time_mlp.3.weight f4 [32, 256]
0	0x3aaa9f61	0.0013017469
1	0x3cda5f88	0.026656881
2	0xbb71e463	-0.003690981
3	0x3d42735c	0.047473297
4	0x3bcc3938	0.006232407
5	0xbc53a6c0	-0.012918174
6	0xbcbf2084	-0.023330934
7	0x3ce8ff0e	0.028441932
8	0x3d91a28b	0.07111081
9	0x3d182f76	0.037154637
10	0xbcb99ac0	-0.022656798
11	0x3cef8cd6	0.02924196
12	0x3b28297a	0.0025659488
13	0xbd004268	-0.03131333
14	0x3d5e579a	0.054282762
15	0x3b973de2	0.0046155313
16	0xbce46a95	-0.027882854
17	0xbc692945	-0.014231031
18	0xbce2867a	-0.027652014
19	0x3c85d022	0.016334597
20	0x3cdbbb5f	0.026822744
21	0xbd8bc095	-0.068238415
22	0xbd2b9da2	-0.041898377
23	0xbcfc19df	-0.030774055
24	0xbd642b9f	-0.055705663
25	0xbd1db8e6	-0.03850641
26	0x3d4236aa	0.047415413
27	0x3c9d090d	0.019169355
28	0xbd1c424d	-0.038149167
29	0x38f3e47a	0.000116297
30	0xbbb75a58	-0.0055954866
31	0xbd8740be	-0.066041455
32	0xbaf99634	-0.0019041956
33	0x3c9e2e47	0.019309176
34	0xbd1a859d	-0.03772508
35	0x3d1c6f26	0.038191937
36	0x3a281b49	0.0006412757
37	0x3d4c52d8	0.049883693
38	0x3c828e0a	0.01593687
39	0x3cb360c5	0.02189673
40	0xbcf3369a	-0.029689122
41	0xbd9fa10d	-0.0779439
42	0x3ca4f6fc	0.020137303
43	0x3c2f3392	0.010693448
44	0xbd131038	-0.03590414
45	0x3bd9e88a	0.0066500353
46	0xbbd44fa3	-0.00647922
47	0x3d339405	0.043842334
48	0xbd2dd3c2	-0.042438276
49	0x3c6dbac8	0.014509864
50	0xbcb11b15	-0.021619359
51	0x3dbd7341	0.092504986
52	0x3d3ab600	0.045583725
53	0xbcbe8cfe	-0.02326059
54	0xbcff6740	-0.031177163
55	0xbc8baa43	-0.01704896
56	0x3d2a2da0	0.041547418
57	0x3c4dcea4	0.012561474
58	0x3cef4cb9	0.029211389
59	0xbd310cfb	-0.04322527
60	0x3b0941b9	0.0020943715
61	0x3d17784d	0.036979962
62	0x3bb06a4f	0.0053837667
63	0x3d09c05c	0.033630714
64	0x3cc345fe	0.023837086
65	0xbc2a0e08	-0.010379322
66	0xbcd3931e	-0.025826987
67	0xbcaaf624	-0.020869322
68	0xbcc30f71	-0.023811074
69	0xbd207e29	-0.039182816
70	0x3c940ec2	0.018073443
71	0xbbc7093e	-0.0060741
72	0xbcb231df	-0.021752296
73	0x3c3b9138	0.011448197
74	0x3c4f0e41	0.012637676
75	0x3cd904f3	0.026491618
76	0xbcb43ec4	-0.022002585
77	0x3cfb41ed	0.030671084
78	0x3d3442a2	0.04400886
79	0xbca22be0	-0.019796312
80	0x3cf00af9	0.029302107
81	0xbdcb68f4	-0.099321276
82	0x3cee6eae	0.02910551
83	0xbd230999	-0.039804075
84	0x3a940b4d	0.0011294872
85	0xbb6ada5e	-0.0035835723
86	0x3aa9526e	0.0012918243
87	0x3bba2486	0.0056806235
88	0xbd5273d0	-0.05137998
89	0xbc94e12e	-0.01817378
90	0x3c3321d3	0.010933357
91	0xb99e5bd6	-0.00030204532
92	0xbd2b193d	-0.041772116
93	0x3c6624b3	0.014046836
94	0x3ce0d985	0.027447471
95	0xbd402bb7	-0.04691669
96	0x3c2e5b0f	0.010641827
97	0xbc243386	-0.01002205
98	0xbb1e62d1	-0.0024167786
99	0x3cb798a8	0.02241166
100	0xba434b6b	-0.0007449898
101	0x3d549cba	0.05190728
102	0x3cce70f7	0.02520035
103	0xbda4f983	-0.08055403
104	0x3d07a45d	0.033115733
105	0x3c53a407	0.012917525
106	0x3bc631de	0.006048425
107	0x3be6bc85	0.0070415162
108	0x3ce5f7d5	0.028072277
109	0xbc965c28	-0.01835449
110	0x3d072a9b	0.032999616
111	0xbd2c291e	-0.0420314
112	0x3c9585b2	0.018252227
113	0xbc5fd2be	-0.013661085
114	0xbd08eee9	-0.033430967
115	0xbcd38f77	-0.025825245
116	0x3bde54e5	0.0067850226
117	0xbd1310cb	-0.035904687
118	0x3cc446f1	0.023959609
119	0xbcd2cd84	-0.025732763
120	0xbb5329c3	-0.0032220937
121	0xbc992c19	-0.018697785
122	0xbc8d16f7	-0.017222865
123	0xbc227b9d	-0.009917167
124	0x3d0212d2	0.03175623
125	0x3d02661b	0.031835657
126	0x3c9c2cf9	0.019064413
127	0x3c98f943	0.018673545
128	0x3d63bc17	0.0555993
129	0x3cf883e4	0.030336328
130	0xbcfb5867	-0.030681802
131	0xbcb720da	-0.022354532
132	0xbba7c2b2	-0.005119645
133	0xbc986d9f	-0.018606959
134	0xbc1f5fdd	-0.009727445
135	0xbcae5717	-0.021281762
136	0x3cdca88a	0.026935834
137	0xbd1a9f81	-0.03774977
138	0x3d19b217	0.037523355
139	0xbd1d446d	-0.038395334
140	0xbcb8d55b	-0.022562673
141	0x3d17e1ad	0.037080456
142	0x3d31c91b	0.04340468
143	0x3d50bc36	0.050960742
144	0xbc3308b2	-0.010927366
145	0x3c3dcabb	0.011583979
146	0xbc6195ec	-0.013768654
147	0xbd045260	-0.03230512
148	0xbba20b0b	-0.004945164
149	0xbbe320ef	-0.006931416
150	0xbaa05f9b	-0.0012235524
151	0x3ccd84d8	0.025087759
152	0xbc8e1be7	-0.01734729
153	0xbc32bad2	-0.010908799
154	0x3d16ffd1	0.03686506
155	0xbd2f464b	-0.042791646
156	0x3cf8d644	0.030375607
157	0x3d08d4da	0.033406116
158	0xbc619554	-0.013768513
159	0xbc222979	-0.009897583
160	0x3c487fce	0.012237502
161	0xbc449c6e	-0.012000186
162	0xbca276fe	-0.01983213
163	0xbc022c18	-0.007945083
164	0x3d0d31ff	0.034471508
165	0x3b3f3646	0.0029176637
166	0xbc5a5d7d	-0.013327953
167	0xbc14bed0	-0.009078696
168	0xbcf5aec1	-0.029990556
169	0xbbaf36b3	-0.005347097
170	0x3d266c2e	0.040630512
171	0x3d14f1fb	0.036363583
172	0xbb10241c	-0.002199418
173	0xbbe57147	-0.007002029
174	0x3cb77b9c	0.022397809
175	0xbc60cc47	-0.0137205785
176	0xbd71868e	-0.058966212
177	0xbd140f4e	-0.03614741
178	0x3ccde457	0.025133295
179	0xbcda2a75	-0.026631573
180	0xbc060594	-0.008180041
181	0x3c7490b3	0.014927077
182	0x3c9964fc	0.01872491
183	0x3c426c83	0.0118666915
184	0xbc4bb38b	-0.012432943
185	0xbc9c8987	-0.019108547
186	0x3b6adf0d	0.0035838515
187	0x3c51dd86	0.012809163
188	0xbbcef5f6	-0.006315942
189	0x3b2bc8f2	0.0026212302
190	0x3d719fc4	0.058990255
191	0x3d1e8ded	0.03870957
192	0xbd90b733	-0.070661925
193	0xbc988771	-0.018619271
194	0xbd4ef2d9	-0.050524566
195	0xbcf45db0	-0.02982983
196	0xbc5f07c1	-0.0136126885
197	0xbb32c1e8	-0.0027276222
198	0x3d3136ec	0.04326527
199	0x3d338208	0.04382518
200	0x3ce1a9ac	0.027546726
201	0x3a957e6e	0.0011405477
202	0xbc49453e	-0.012284575
203	0x3bd5ac89	0.006520812
204	0x3d5fc030	0.054626644
205	0xbc871b71	-0.016492577
206	0x3c28532c	0.010273736
207	0x3c02700a	0.0079612825
208	0xbd95be11	-0.07311643
209	0xba5f5ebd	-0.0008520892
210	0xbca0cfc0	-0.019630313
211	0xbd6e6bb2	-0.058208175
212	0xbd3f708e	-0.0467382
213	0x3c08a9f6	0.008341303
214	0x3d8c45ac	0.06849226
215	0xbd51ecc2	-0.05125118
216	0x3b34c889	0.0027585349
217	0x3c5c3c3e	0.013442097
218	0x3d2007a5	0.03906979
219	0xbbde4a6a	-0.006783773
220	0xbc82bb4e	-0.015958454
221	0x3cb9a826	0.022663187
222	0x3c0b769a	0.008512164
223	0x3cb897d2	0.022533331
224	0xbc1381cc	-0.009003114
225	0x3a540101	0.0008087308
226	0x3cbd0df6	0.023077946
227	0x3d3dc554	0.046330765
228	0x3b99f9e2	0.004698978
229	0xbbfd07c6	-0.007721874
230	0xbc4c3a32	-0.012465047
231	0x3d075767	0.033042338
232	0x3b8cb9da	0.004294616
233	0xbd0fc642	-0.035101183
234	0xbbcc1567	-0.0062281373
235	0x3cb86c94	0.022512712
236	0x3bc61348	0.006044779
237	0xbcd418fd	-0.025890822
238	0x3d27bb75	0.040950257
239	0xbd2e57ee	-0.042564325
240	0xbc4be294	-0.012444157
241	0x3c20b65c	0.009809103
242	0xbc122472	-0.008919822
243	0xbd428701	-0.04749203
244	0xbb7d44a2	-0.0038645645
245	0x3c2c04bb	0.010499175
246	0x3cb81215	0.02246956
247	0x3d0f53f6	0.03499218
248	0x3c917c74	0.01775954
249	0x3d180db2	0.037122436
250	0xbc825e65	-0.015914151
251	0x3c752a25	0.014963661
252	0xbba52649	-0.0050399643
253	0x3cbc2356	0.022966068
254	0xbc6676d2	-0.014066415
255	0x3ccb7564	0.02483625

model.time_mlp.3.bias f4 [32]
0	0xb807e8e9	-3.2403423e-05
1	0xb8caaa69	-9.663852e-05
2	0xb8addd2b	-8.2904786e-05
3	0x381dfa0c	3.766459e-05
4	0xb81b760d	-3.7064823e-05
5	0x386b94de	5.616701e-05
6	0x38a3c9d1	7.810037e-05
7	0xb8cc48ef	-9.741063e-05
8	0xb8bafeaf	-8.91661e-05
9	0xb8a9ba43	-8.093242e-05
10	0xb8b6ed79	-8.722669e-05
11	0xb8183101	-3.6285262e-05
12	0xb8a2f861	-7.771026e-05
13	0xb8bdb719	-9.046327e-05
14	0xb8c41c10	-9.351235e-05
15	0xb8c9e2ff	-9.626708e-05
16	0xb8a90518	-8.059497e-05
17	0xb8c732aa	-9.4984964e-05
18	0xb883c388	-6.282987e-05
19	0xb8c80701	-9.538048e-05
20	0x38bfadd4	9.139968e-05
21	0xb8c95fb0	-9.60225e-05
22	0xb8203bfa	-3.820283e-05
23	0xb8c20a97	-9.2526134e-05
24	0xb7f59ebf	-2.9280198e-05
25	0xb866db1a	-5.5040327e-05
26	0x38867c92	6.412821e-05
27	0x3880341d	6.1132225e-05
28	0xb8a0aed2	-7.661957e-05
29	0xb8c5f1b1	-9.4387105e-05
30	0xb8a175f4	-7.699049e-05
31	0xb8c515b9	-9.397738e-05

model.layer.0.weight f4 [256, 55]
0	0x3def4d31	0.11684645
1	0xbcd089c9	-0.025456326
2	0x3dfcb6f1	0.12339581
3	0xbde22bac	-0.11043486
4	0xbd3e1f79	-0.046416733
5	0xbdbd7b79	-0.09252066
6	0xbb627633	-0.0034555316
7	0xbdb268d9	-0.08711404
8	0x3d5833b4	0.052783683
9	0x3dede730	0.11616361
10	0xbda3ac00	-0.07991791
11	0xbc247990	-0.010038748
12	0x3c1b2b18	0.009470724
13	0xbd37771f	-0.044791337
14	0xbda0b59d	-0.0784714
15	0x3c5c976c	0.013463836
16	0xbd5ed37e	-0.054400913
17	0xbd130a40	-0.035898447
18	0x3d710065	0.058838267
19	0x3d69fce6	0.05712595
20	0xbc38db50	-0.011282757
21	0xbe30d961	-0.17270423
22	0x3e2b216f	0.16711973
23	0xbc3280e9	-0.010894992
24	0xbd68a840	-0.05680108
25	0xbc924c44	-0.017858632
26	0xbdff9986	-0.12480454
27	0xbc274b1f	-0.010210781
28	0xbd2f938b	-0.042865317
29	0xbd10d795	-0.035361845
30	0x3cf33787	0.029689563
31	0xbca141f5	-0.019684771
32	0x3dbf8000	0.09350586
33	0xbd3acc9a	-0.04560528
34	0x3db85537	0.090006284
35	0xbd5c081a	-0.053718664
36	0xbd4ca6ea	-0.04996387
37	0xbd1a2902	-0.037636764
38	0xbd83c58e	-0.06434165
39	0xbcacb758	-0.021083519
40	0x3c69067d	0.014222738
41	0x3d5408e3	0.051766288
42	0x3dccb7dd	0.09996007
43	0xbd85688d	-0.06514082
44	0x3c1bc580	0.009507537
45	0x3d66e419	0.056369875
46	0x3b8e9f18	0.0043524615
47	0x3d748630	0.059698284
48	0x3c41cdde	0.011828868
49	0xbd596c7e	-0.05308198
50	0xbcaa73c2	-0.02080715
51	0x3cf7e17c	0.030258887
52	0xbd4ae709	-0.04953674
53	0x3c0c00f9	0.008545154
54	0x3acda5a2	0.0015689621
55	0x3d821c47	0.0635305
56	0x3d2f41f0	0.042787492
57	0x3cd94c80	0.026525736
58	0x3d63cb46	0.05561378
59	0x3ca7826c	0.020447932
60	0x3deec8b0	0.11659372
61	0x3c9d5499	0.019205378
62	0xbdff7092	-0.12472643
63	0xbb6f403d	-0.0036506795
64	0x3ce15cb8	0.027510032
65	0xbafb0765	-0.0019151984
66	0x3ce54749	0.027988093
67	0xbd5676d3	-0.052359413
68	0xbd7749a3	-0.06037296
69	0xbdee0676	-0.11622326
70	0x3c8ba539	0.017046558
71	0x3daaeaaa	0.0834554
72	0xbd114553	-0.035466503
73	0xbc05c507	-0.008164651
74	0x3d136036	0.035980426
75	0xbe09f4ee	-0.1347234
76	0x3d35f252	0.044420548
77	0x3a310361	0.00067525177
78	0x3cf91b17	0.030408425
79	0xbdf20925	-0.118181504
80	0xbdb44525	-0.08802251
81	0x3d7ebc94	0.06219156
82	0xbbeabf94	-0.007163951
83	0xbcdc6063	-0.02690143
84	0x3d5dada1	0.054120664
85	0x3d66efbc	0.056380972
86	0xbdb7e12b	-0.08978494
87	0x3d88117c	0.0664396
88	0xbc591a2d	-0.01325087
89	0xbd29b37d	-0.04143094
90	0xbd952b47	-0.07283645
91	0x3df1d276	0.1180772
92	0xbdbca1dd	-0.092105605
93	0x3b0a1a21	0.0021072703
94	0xbd884f44	-0.06655744
95	0xbde095ce	-0.10966073
96	0xbd0fb37d	-0.035083283
97	0xbbd585d8	-0.0065161996
98	0xbd883daf	-0.0665239
99	0xbd1cfe15	-0.03832825
100	0xbc9d44cd	-0.019197846
101	0xbdd2db75	-0.10295764
102	0x3d083485	0.03325321
103	0xbd43db77	-0.04781672
104	0xbdc808c3	-0.09767296
105	0xbd8f72d7	-0.07004326
106	0xbd39be5a	-0.04534755
107	0xbcbab5c7	-0.022791756
108	0x3c9d2a45	0.019185195
109	0x3d61514a	0.055009164
110	0xbd8f1bc6	-0.06987719
111	0xbd05fd66	-0.032712363
112	0x3d885703	0.06657221
113	0xbce5c3f1	-0.028047534
114	0xbd9891cd	-0.07449684
115	0x3e08c014	0.13354522
116	0x3d2cb9b1	0.042169277
117	0x3d8f7883	0.07005408
118	0x3d1fa153	0.03897221
119	0xbd1aa543	-0.037755262
120	0x3d3ce81d	0.046119798
121	0x3d84f9b4	0.064929396
122	0x3e286386	0.16444215
123	0xbd54b2ee	-0.051928453
124	0xbd84ce18	-0.06484622
125	0xbd1bc9b7	-0.038034167
126	0xbdd654fd	-0.10465429
127	0x3d8f66d8	0.07002038
128	0xbd1dd119	-0.03852949
129	0x3a3c8a7e	0.0007192268
130	0xbcba755c	-0.02276104
131	0xbd0e7c70	-0.03478664
132	0xbb9faff9	-0.0048732725
133	0x3cfad62e	0.030619707
134	0x3d36e4bc	0.04465173
135	0xbdb1f401	-0.08689118
136	0x3c8d3dd0	0.017241389
137	0xbda79e06	-0.081844375
138	0x3e27d93c	0.16391462
139	0xbda61fbd	-0.08111522
140	0xbdd700a0	-0.10498166
141	0x3c9e133f	0.019296287
142	0xbd807bf4	-0.06273642
143	0xbcd4acb0	-0.02596125
144	0xbc12055c	-0.008912411
145	0x3def0265	0.116703786
146	0x3d2d9f05	0.04238798
147	0xbd288ef9	-0.041151974
148	0x3d175339	0.0369446
149	0x3d3f2aaf	0.046671566
150	0xbd2f1e52	-0.042753525
151	0xbcf41b0e	-0.029798057
152	0x3d9bbfb3	0.07604923
153	0x3b809364	0.0039238203
154	0xbdfac596	-0.12244718
155	0x3d4cf1ab	0.05003516
156	0x3d6cb6d3	0.057791542
157	0xbc81e5bb	-0.015856614
158	0xbd463982	-0.048394687
159	0xbdf01788	-0.11723238
160	0xbd68187a	-0.056663968
161	0x3d2a790e	0.041619353
162	0x3d3566a4	0.04428734
163	0x3d9bc7ec	0.076064914
164	0x3e0b2a55	0.13590367
165	0xbdb42783	-0.08796599
166	0x3cca2bf6	0.024679165
167	0x3da2d929	0.07951576
168	0x3d83ece2	0.06441666
169	0xbc0bfa95	-0.00854363
170	0xbc5f2925	-0.013620649
171	0x3d8f7ac7	0.0700584
172	0xbd83893a	-0.06422658
173	0x3d441570	0.047872007
174	0x3d966628	0.073437035
175	0xbd6622f3	-0.056185674
176	0x3d935751	0.07194389
177	0x3b3e5af5	0.0029045914
178	0xbd707224	-0.058702603
179	0x3dcb155c	0.09916183
180	0xbd8e5217	-0.06949251
181	0x3dc3ddbb	0.09563776
182	0xba98c8b0	-0.0011656489
183	0x3d97a79f	0.07405018
184	0x3daf5fbd	0.085631825
185	0x3d22a793	0.039710592
186	0xbd2435d8	-0.040090412
187	0x3d0db012	0.03459174
188	0xbde2a305	-0.1106625
189	0x3e37c351	0.17945601
190	0x3e02c360	0.12769842
191	0x3ce12476	0.027483206
192	0x3e5e3a75	0.21701987
193	0xbd4d082d	-0.050056625
194	0x3c2d4ebd	0.010577855
195	0xbcbb55a6	-0.022867989
196	0x3b6a1d9d	0.0035723217
197	0x3db882c4	0.090093166
198	0x3de771c8	0.11300999
199	0xbdd6a129	-0.104799576
200	0x3d3f846d	0.04675715
201	0xbdb30845	-0.08741812
202	0x3d434aac	0.047678635
203	0x3db64353	0.0889956
204	0xbd174416	-0.036930166
205	0x3d05b198	0.03264007
206	0x3b33e20d	0.002744797
207	0x3d59c5c7	0.05316713
208	0x3cf1ddf8	0.029524788
209	0x3d6d9a8d	0.05800872
210	0xbdc0f1cb	-0.09421118
211	0xbd88ec75	-0.066857256
212	0xbc0e41ac	-0.00868265
213	0xbcb97e7f	-0.022643326
214	0xbb58f858	-0.0033107009
215	0x3dc2b255	0.095066704
216	0xbd1c3af5	-0.038142163
217	0x3bea6587	0.0071532163
218	0xbd62ea0b	-0.055398982
219	0x3b6dc50e	0.0036280784
220	0x3db3937f	0.08768367
221	0xbd9fe40c	-0.07807168
222	0x3daa7ea7	0.08324938
223	0xbd5219a8	-0.051294
224	0x3dccd57f	0.10001659
225	0xbdcc76c7	-0.099835925
226	0x3da7fa44	0.08202031
227	0xbcbe880a	-0.023258228
228	0x3db6baa9	0.08922321
229	0x3d4b1009	0.04957584
230	0x3dc4fed0	0.09618914
231	0x3d1dc778	0.038520306
232	0x3bd8c74e	0.006615556
233	0xbc92dbed	-0.017927134
234	0x3cdbc6b9	0.026828157
235	0x3c862911	0.016377004
236	0x3dfc5b51	0.12322105
237	0x3d773703	0.060355198
238	0x3d8fea25	0.070270814
239	0x3d0ad89c	0.03389798
240	0x3dc20b95	0.09474865
241	0xbdad5f48	-0.08465439
242	0xbdbf3dcf	-0.09337961
243	0xbd31e1fb	-0.043428402
244	0xbe351fdf	-0.17687939
245	0xbb0903df	-0.0020906848
246	0xbca1772d	-0.019710148
247	0x3d85cfbb	0.06533762
248	0xbd593bc3	-0.05303551
249	0x3afdbd54	0.0019358792
250	0x3e28e85b	0.16494887
251	0xbdc4e993	-0.09614863
252	0x3cc802ba	0.024415363
253	0xbd9f89b0	-0.07789934
254	0xbcaac6f5	-0.020846823
255	0x3bd9908c	0.006639546
