results/qvpo_HalfCheetah-v3/actor_25_04_22_17_03_31_0.pth (torch, 667057 bytes, 24 tensors)

betas f4 [50]
0.0039720903 0.007908561 0.011829475 0.015734892 0.019624876 0.023499483 0.02735878 0.031202823
0.035031673 0.03884539 0.04264404 0.04642767 0.05019635 0.053950135 0.057689086 0.06141326
0.06512271 0.068817504 0.072497696 0.076163344 0.0798145 0.083451234 0.08707359 0.09068163
0.09427541 0.09785499 0.10142042 0.10497175 0.108509056 0.112032376 0.11554178 0.11903731
0.12251902 0.12598698 0.12944122 0.13288182 0.13630882 0.13972227 0.14312223 0.14650875
0.1498819 0.15324171 0.15658824 0.15992156 0.16324168 0.1665487 0.16984263 0.17312355
0.17639151 0.17964655
00000000: 4f28 823b e992 013c 6ad0 413c 76e6 803c
00000010: 59c4 a03c fd81 c03c 851f e03c 109d ff3c
00000020: 5f7d 0f3d 581c 1f3d 84ab 2e3d f12a 3e3d
00000030: b09a 4d3d d1fa 5c3d 644b 6c3d 788c 7b3d
00000040: 0e5f 853d 31f0 8c3d ac79 943d 87fb 9b3d
00000050: c975 a33d 7be8 aa3d a353 b23d 4ab7 b93d
00000060: 7713 c13d 3268 c83d 82b5 cf3d 6efb d63d
00000070: ff39 de3d 3b71 e53d 2ba1 ec3d d5c9 f33d
00000080: 41eb fa3d bb02 013e 3d8c 043e 2c12 083e
00000090: 8a94 0b3e 5b13 0f3e a28e 123e 6406 163e
000000a0: a47a 193e 65eb 1c3e ab58 203e 7ac2 233e
000000b0: d428 273e be8b 2a3e 3aeb 2d3e 4d47 313e
000000c0: fa9f 343e 44f5 373e

alphas_cumprod f4 [50]
0.9960279 0.9881507 0.9764614 0.9610969 0.94223547 0.9200934 0.89492077 0.86699677
0.8366244 0.80412537 0.7698342 0.7340926 0.69724387 0.65962744 0.62157416 0.58340126
0.54540855 0.5078749 0.47105515 0.435178 0.40044448 0.3670269 0.33506855 0.304684
0.2759598 0.24895576 0.22370657 0.2002237 0.17849761 0.1585001 0.14018673 0.12349927
0.10836826 0.09471527 0.08245521 0.07149841 0.06175255 0.053124342 0.04552107 0.038851835
0.033028647 0.027967282 0.023587935 0.019815715 0.016580965 0.013819426 0.011472299 0.009486174
0.007812894 0.006409334
00000000: affb 7e3f 72f7 7c3f 60f9 793f 720a 763f
00000010: 5836 713f 3e8b 6b3f 8719 653f 80f3 5d3f
00000020: 042d 563f 29db 4d3f db13 453f 7eed 3b3f
00000030: 937e 323f 58dd 283f 7c1f 1f3f c959 153f
00000040: e59f 0b3f 1704 023f 242e f13e a7cf de3e
00000050: 0f07 cd3e f3ea bb3e 1b8e ab3e 8bff 9b3e
00000060: 9a4a 8d3e 42ee 7e3e 5613 653e 7107 4d3e
00000070: 14c8 363e da4d 223e 1c8d 0f3e 2fed fc3d
00000080: 2ef0 dd3d 14fa c13d 47de a83d c26d 923d
00000090: 3ef0 7c3d e998 593d 4d74 3a3d 1a23 1f3d
000000a0: 0c49 073d a41b e53c 7c3b c13c 9154 a23c
000000b0: ced4 873c e06a 623c 4ff6 3b3c e66b 1b3c
000000c0: a701 003c 6405 d23b

alphas_cumprod_prev f4 [50]
1.0 0.9960279 0.9881507 0.9764614 0.9610969 0.94223547 0.9200934 0.89492077
0.86699677 0.8366244 0.80412537 0.7698342 0.7340926 0.69724387 0.65962744 0.62157416
0.58340126 0.54540855 0.5078749 0.47105515 0.435178 0.40044448 0.3670269 0.33506855
0.304684 0.2759598 0.24895576 0.22370657 0.2002237 0.17849761 0.1585001 0.14018673
0.12349927 0.10836826 0.09471527 0.08245521 0.07149841 0.06175255 0.053124342 0.04552107
0.038851835 0.033028647 0.027967282 0.023587935 0.019815715 0.016580965 0.013819426 0.011472299
0.009486174 0.007812894
00000000: 0000 803f affb 7e3f 72f7 7c3f 60f9 793f
00000010: 720a 763f 5836 713f 3e8b 6b3f 8719 653f
00000020: 80f3 5d3f 042d 563f 29db 4d3f db13 453f
00000030: 7eed 3b3f 937e 323f 58dd 283f 7c1f 1f3f
00000040: c959 153f e59f 0b3f 1704 023f 242e f13e
00000050: a7cf de3e 0f07 cd3e f3ea bb3e 1b8e ab3e
00000060: 8bff 9b3e 9a4a 8d3e 42ee 7e3e 5613 653e
00000070: 7107 4d3e 14c8 363e da4d 223e 1c8d 0f3e
00000080: 2fed fc3d 2ef0 dd3d 14fa c13d 47de a83d
00000090: c26d 923d 3ef0 7c3d e998 593d 4d74 3a3d
000000a0: 1a23 1f3d 0c49 073d a41b e53c 7c3b c13c
000000b0: 9154 a23c ced4 873c e06a 623c 4ff6 3b3c
000000c0: e66b 1b3c a701 003c

sqrt_alphas_cumprod f4 [50]
0.998012 0.9940577 0.9881606 0.9803555 0.97068816 0.959215 0.94600254 0.93112665
0.9146717 0.89673036 0.877402 0.85679203 0.8350113 0.8121745 0.78839976 0.76380706
0.7385178 0.71265346 0.68633455 0.65968025 0.63280684 0.60582745 0.57885104 0.5519819
0.52531874 0.49895468 0.4729763 0.44746363 0.4224898 0.39812073 0.3744152 0.35142463
0.32919335 0.30775845 0.28715014 0.26739186 0.24850062 0.23048718 0.21335667 0.19710869
0.18173786 0.16723421 0.15358365 0.1407683 0.1287671 0.11755606 0.10710882 0.09739699
0.088390574 0.080058314
00000000: b77d 7f3f 917a 7e3f 18f8 7c3f 94f8 7a3f
00000010: 057f 783f 1d8f 753f 392d 723f 515e 6e3f
00000020: ed27 6a3f 1f90 653f 6b9d 603f b956 5b3f
00000030: 4dc3 553f abea 4f3f 91d4 493f dc88 433f
00000040: 810f 3d3f 7570 363f 9fb3 2f3f cee0 283f
00000050: a1ff 213f 8217 1b3f 952f 143f b04e 0d3f
00000060: 4a7b 063f fd76 ff3e f329 f23e f419 e53e
00000070: 9550 d83e 7bd6 cb3e 59b3 bf3e eeed b33e
00000080: 088c a83e 8492 9d3e 5805 933e 96e7 883e
00000090: f276 7e3e d504 6c3e 2c7a 5a3e dcd6 493e
000000a0: 7d19 3a3e 723f 2b3e 0845 1d3e 9125 103e
000000b0: 86db 033e 3bc1 f03d de5b db3d 1378 c73d
000000c0: 1e06 b53d 9df5 a33d

sqrt_one_minus_alphas_cumprod f4 [50]
0.0630247 0.10885442 0.1534229 0.19723873 0.24034253 0.28267753 0.32415926 0.3646961
0.4041975 0.44257727 0.47975597 0.5156621 0.55023277 0.58341455 0.61516327 0.64544463
0.674234 0.7015163 0.727286 0.7515464 0.7743097 0.79559606 0.81543326 0.83385605
0.85090554 0.8666281 0.88107514 0.8943021 0.90636766 0.91733307 0.9272612 0.9362162
0.94426256 0.95146453 0.95788556 0.9635879 0.96863174 0.9730754 0.97697437 0.9803816
0.983347 0.9859172 0.98813564 0.99004257 0.9916749 0.99306625 0.9942473 0.99524564
0.9960859 0.9967902
00000000: 1813 813d 11ef de3d e51a 1d3e f3f8 493e
00000010: 5a1c 763e 1cbb 903e 34f8 a53e 72b9 ba3e
00000020: faf2 ce3e 7d99 e23e 93a2 f53e 6e02 043f
00000030: 0edc 0c3f a85a 153f 577b 1d3f dc3b 253f
00000040: 999a 2c3f 9296 333f 6a2f 3a3f 5865 403f
00000050: 2939 463f 2fac 4b3f 3cc0 503f 9777 553f
00000060: f2d4 593f 57db 5d3f 248e 613f fcf0 643f
00000070: b607 683f 57d6 6a3f fd60 6d3f ddab 6f3f
00000080: 31bb 713f 2e93 733f fd37 753f b2ad 763f
00000090: 40f8 773f 781b 793f fe1a 7a3f 4afa 7a3f
000000a0: a1bc 7b3f 1265 7c3f 75f6 7c3f 6e73 7d3f
000000b0: 68de 7d3f 9739 7e3f fe86 7e3f 6bc8 7e3f
000000c0: 7cff 7e3f a42d 7f3f

log_one_minus_alphas_cumprod f4 [50]
-5.528457 -4.4354877 -3.749114 -3.246681 -2.8513803 -2.526897 -2.2530406 -2.017382
-1.8117033 -1.6302805 -1.4689554 -1.3246071 -1.1948277 -1.0777144 -0.9717352 -0.8756318
-0.7883562 -0.70902234 -0.6368711 -0.5712447 -0.51156676 -0.4573274 -0.40807137 -0.36338893
-0.32290834 -0.28629068 -0.25322473 -0.2234232 -0.19662043 -0.17256935 -0.15104003 -0.13181774
-0.1147021 -0.09950573 -0.08605389 -0.074183166 -0.063741565 -0.054587524 -0.04658972 -0.03962673
-0.033586424 -0.028365806 -0.023870591 -0.020014707 -0.016719941 -0.013915834 -0.011538599 -0.009531479
-0.007843598 -0.006429975
00000000: 1fe9 b0c0 84ef 8dc0 7cf1 6fc0 9fc9 4fc0
00000010: 047d 36c0 aeb8 21c0 d131 10c0 c91c 01c0
00000020: e5e5 e7bf 08ad d0bf bb06 bcbf ba8c a9bf
00000030: 1df0 98bf 8cf2 89bf a3c3 78bf 6829 60bf
00000040: b6d1 49bf 7d82 35bf fc09 23bf 183d 12bf
00000050: 0af6 02bf d126 eabe bbee d0be 1d0e babe
00000060: 3e54 a5be b194 92be aca6 81be 0dc9 64be
00000070: de56 49be 05b6 30be 3daa 1abe 3bfb 06be
00000080: efe8 eabd a9c9 cbbd 063d b0bd 58ed 97bd
00000090: f08a 82bd 2b97 5fbd ddd4 3ebd a34f 22bd
000000a0: eb91 09bd 685f e8bc 428c c3bc e2f5 a3bc
000000b0: 42f8 88bc 3dff 63bc 640c 3dbc ec29 1cbc
000000c0: 6f82 00bc 8ab2 d2bb

sqrt_recip_alphas_cumprod f4 [50]
1.001992 1.0059777 1.0119812 1.0200382 1.030197 1.0425191 1.0570797 1.0739678
1.0932883 1.1151624 1.1397284 1.1671444 1.1975886 1.2312624 1.2683921 1.309231
1.3540635 1.4032066 1.4570153 1.515886 1.5802611 1.650635 1.72756 1.8116536
1.903606 2.0041902 2.114271 2.2348185 2.3669212 2.511801 2.670832 2.8455603
3.0377283 3.2493014 3.4824986 3.7398295 4.024135 4.338636 4.6869874 5.073343
5.502431 5.9796376 6.5111103 7.103872 7.7659593 8.506579 9.336299 10.267258
11.313423 12.490894
00000000: 4641 803f e1c3 803f 9a88 813f 9d90 823f
00000010: 7fdd 833f 4471 853f 634e 873f c777 893f
00000020: dff0 8b3f a4bd 8e3f 9fe2 913f fd64 953f
00000030: 954a 993f 029a 9d3f ac5a a23f e294 a73f
00000040: f451 ad3f 469c b33f 7a7f ba3f 8d08 c23f
00000050: ff45 ca3f 0248 d33f b020 dd3f 44e4 e73f
00000060: 5da9 f33f a744 0040 3750 0740 4407 0f40
00000070: a37b 1740 59c1 2040 e9ee 2a40 a91d 3640
00000080: 246a 4240 8ef4 4f40 42e1 5e40 5e59 6f40
00000090: b7c5 8040 1bd6 8a40 cdfb 9540 d358 a240
000000a0: ea13 b040 3159 bf40 045b d040 eb52 e340
000000b0: bd82 f840 f31a 0841 7b61 1541 b046 2441
000000c0: c803 3541 b4da 4741

sqrt_recipm1_alphas_cumprod f4 [50]
0.063149884 0.10950517 0.15526116 0.20119114 0.24760024 0.29469666 0.34266213 0.39167187
0.4419044 0.49354547 0.5467915 0.6018522 0.6589525 0.7183365 0.78026825 0.8450361
0.91295564 0.9843723 1.0596668 1.1392586 1.2236115 1.3132387 1.40871 1.5106584
1.619789 1.7368875 1.8628315 1.998603 2.1453009 2.304158 2.4765587 2.6640596
2.868413 3.091595 3.3358352 3.6036544 3.8979049 4.22182 4.5790668 4.9738126
5.410799 5.895427 6.43386 7.0331354 7.7013063 8.4475975 9.282591 10.218443
11.269141 12.450801
00000000: ba54 813d 3f44 e03d c8fc 1e3e 0d05 4e3e
00000010: eb8a 7d3e 7be2 963e 6971 af3e 3789 c83e
00000020: 4b41 e23e feb1 fc3e 87fa 0b3f fc12 1a3f
00000030: 1cb1 283f e7e4 373f a9bf 473f 4954 583f
00000040: 76b7 693f d3ff 7b3f 29a3 873f 3ad3 913f
00000050: 4d9f 9c3f 3518 a83f 9c50 b43f 415d c13f
00000060: 3f55 cf3f 5452 de3f 4371 ee3f 39d2 ff3f
00000070: 9c4c 0940 5377 1340 f07f 1e40 f47f 2a40
00000080: 1494 3740 b1dc 4540 537e 5540 46a2 6640
00000090: 4677 7940 2619 8740 b787 9240 7929 9f40
000000a0: 4425 ad40 57a7 bc40 2ee2 cd40 720f e140
000000b0: 1a71 f640 5c29 0741 7e85 1441 be7e 2341
000000c0: 674e 3441 7b36 4741

posterior_variance f4 [50]
0.0 0.0026511052 0.005954937 0.009520501 0.013216915 0.016987795 0.020804744 0.024651796
0.028519101 0.03240026 0.036290735 0.04018715 0.044086907 0.04798781 0.051888056 0.055785965
0.059680045 0.0635689 0.06745114 0.0713255 0.07519068 0.07904545 0.0828886 0.08671894
0.09053529 0.09433658 0.098121695 0.10188959 0.10563934 0.109370016 0.11308083 0.11677099
0.12043987 0.1240869 0.12771165 0.13131374 0.13489294 0.13844909 0.14198214 0.14549215
0.14897929 0.15244377 0.15588592 0.15930611 0.16270472 0.16608234 0.16943936 0.17277643
0.17609404 0.17939277
00000000: 0000 0000 2abe 2d3b a221 c33b e0fb 1b3c
00000010: c28b 583c fd29 8b3c b66e aa3c 90f2 c93c
00000020: e4a0 e93c 23b6 043d 98a5 143d 489b 243d
00000030: 7994 343d de8e 443d 9288 543d d37f 643d
00000040: 1073 743d 6930 823d d323 8a3d 1b13 923d
00000050: 92fd 993d 95e2 a13d 80c1 a93d b399 b13d
00000060: 916a b93d 8933 c13d 07f4 c83d 7dab d03d
00000070: 7059 d83d 63fd df3d ec96 e73d a125 ef3d
00000080: 2ea9 f63d 4621 fe3d d8c6 023e 1c77 063e
00000090: 6021 0a3e 99c5 0d3e c463 113e e5fb 143e
000000a0: 078e 183e 381a 1c3e 8fa0 1f3e 2421 233e
000000b0: 119c 263e 7d11 2a3e 8381 2d3e 4eec 303e
000000c0: ff51 343e bdb2 373e

posterior_log_variance_clipped f4 [50]
-46.0517 -5.932779 -5.1235347 -4.654308 -4.3262577 -4.07526 -3.8725743 -3.7029057
-3.5571811 -3.4295888 -3.3161929 -3.2142081 -3.1215925 -3.0368083 -2.9586666 -2.8862329
-2.8187575 -2.755631 -2.6963518 -2.6405013 -2.587728 -2.5377321 -2.4902577 -2.445083
-2.4020157 -2.3608863 -2.3215468 -2.2838655 -2.2477245 -2.2130184 -2.1796525 -2.1475406
-2.1166046 -2.0867732 -2.0579803 -2.030166 -2.003274 -1.9772526 -1.952054 -1.9276332
-1.903948 -1.8809595 -1.8586309 -1.8369277 -1.8158183 -1.7952716 -1.7752602 -1.7557569
-1.7367371 -1.7181776
00000000: f134 38c2 53d9 bdc0 fff3 a3c0 17f0 94c0
00000010: b470 8ac0 8868 82c0 42d8 77c0 68fc 6cc0
00000020: dba8 63c0 627e 5bc0 813c 54c0 96b5 4dc0
00000030: 2cc8 47c0 115b 42c0 cb5a 3dc0 0ab8 38c0
00000040: 8666 34c0 425c 30c0 0791 2cc0 f9fd 28c0
00000050: 569d 25c0 346a 22c0 6260 1fc0 3d7c 1cc0
00000060: a0ba 19c0 c318 17c0 3994 14c0 da2a 12c0
00000070: b8da 0fc0 18a2 0dc0 6d7f 0bc0 4e71 09c0
00000080: 7376 07c0 b18d 05c0 f3b5 03c0 3dee 01c0
00000090: a435 00c0 9d16 fdbf e8dc f9bf afbc f6bf
000000a0: 91b4 f3bf 48c3 f0bf 9ee7 edbf 7220 ebbf
000000b0: bc6c e8bf 76cb e5bf ba3b e3bf a4bc e0bf
000000c0: 674d debf 3eed dbbf

posterior_mean_coef1 f4 [50]
0.9999943 0.6661026 0.4995703 0.39967492 0.3330652 0.2854667 0.2497444 0.22193408
0.199656 0.18139552 0.16614202 0.15319516 0.14205438 0.13235195 0.123811856 0.11622262
0.10941954 0.10327243 0.09767697 0.09254869 0.08781847 0.08342932 0.07933385 0.07549252
0.07187214 0.06844477 0.06518694 0.062078793 0.059103735 0.05624782 0.053499497 0.050849218
0.048289225 0.045813292 0.04341655 0.041095283 0.038846754 0.03666909 0.034561098 0.032522168
0.030552119 0.028651113 0.026819529 0.025057876 0.023366697 0.021746518 0.020197745 0.018720647
0.017315285 0.015981492
00000000: a0ff 7f3f b385 2a3f aec7 ff3e 31a2 cc3e
00000010: 8687 aa3e b128 923e ffbc 7f3e b042 633e
00000020: 9f72 4c3e bfbf 393e 2221 2a3e 31df 1c3e
00000030: b476 113e 4587 073e 1291 fd3d 2006 ee3d
00000040: 5a17 e03d 7f80 d33d dd0a c83d 2b8a bd3d
00000050: 2cda b33d fedc aa3d c979 a23d d39b 9a3d
00000060: b331 933d c62c 8c3d bb80 853d 5546 7e3d
00000070: c216 723d 1d64 663d 4a22 5b3d 4547 503d
00000080: ecca 453d b8a6 3b3d 8dd5 313d 8753 283d
00000090: c61d 1f3d 5432 163d f08f 0d3d f735 053d
000000a0: 7048 fa3c bdb5 ea3c a1b4 db3c 2d46 cd3c
000000b0: 846b bf3c c125 b23c be75 a53c 0b5c 993c
000000c0: c9d8 8d3c 9eeb 823c

posterior_mean_coef2 f4 [50]
0.0 0.33389148 0.5004119 0.60027754 0.6668364 0.71435636 0.74996674 0.77762663
0.79970807 0.81772196 0.83267236 0.8452538 0.85596186 0.86515796 0.8731139 0.8800352
0.8860821 0.8913806 0.8960301 0.90011173 0.9036909 0.90682185 0.90954936 0.91191137
0.9139398 0.9156622 0.91710263 0.9182813 0.9192172 0.9199269 0.9204254 0.9207264
0.92084306 0.92078716 0.9205703 0.9202032 0.9196965 0.9190599 0.91830313 0.91743547
0.91646594 0.9154032 0.9142555 0.9130306 0.9117361 0.9103791 0.9089663 0.9075042
0.9059983 0.9044542
00000000: 0000 0000 d3f3 aa3e ff1a 003f caab 193f
00000010: cab5 2a3f 0fe0 363f d2fd 3f3f 8a12 473f
00000020: abb9 4c3f 3a56 513f 042a 553f 8e62 583f
00000030: 5120 5b3f fe7a 5d3f 6484 5f3f fd49 613f
00000040: 47d6 623f 8531 643f 3b62 653f b96d 663f
00000050: 4958 673f 7a25 683f 3ad8 683f 0673 693f
00000060: f5f7 693f d768 6a3f 3dc7 6a3f 7c14 6b3f
00000070: d251 6b3f 5480 6b3f 00a1 6b3f bab4 6b3f
00000080: 5fbc 6b3f b5b8 6b3f 7faa 6b3f 7092 6b3f
00000090: 3b71 6b3f 8247 6b3f ea15 6b3f 0ddd 6a3f
000000a0: 839d 6a3f dd57 6a3f a60c 6a3f 60bc 693f
000000b0: 8967 693f 9b0e 693f 04b2 683f 3252 683f
000000c0: 81ef 673f 4f8a 673f

model.time_mlp.1.weight f4 [256, 32]
-0.090256214 -0.027537016 -0.1560545 0.0042683915 0.045545135 -0.092808105 -0.030593356 -0.05524154
-0.09096583 0.11446082 -0.08554494 -0.013954298 0.15715843 -0.0019460284 -0.1335996 -0.025952829
-0.0010031399 -0.0024272904 -0.08506736 0.18633671 -0.11389232 -0.01638057 0.21625856 0.06543782
0.09954187 0.06958284 -0.0010853517 -0.13544044 -0.102590315 0.018478742 0.010832594 -0.047113374
0.07977213 -0.03029759 -0.058761343 0.025292182 0.005249819 0.017445097 -0.01076973 0.11411511
-0.08714829 0.11888474 0.17138901 0.20072068 0.037209608 0.089391805 0.19294018 0.018489072
-0.11286697 0.009110099 -0.07827606 -0.09483419 -0.11760123 0.012158737 -0.028506188 0.054079592
0.1574063 -0.21604517 -0.008510942 -0.0011198501 0.15400979 -0.07280461 -0.04444867 -0.011677081
-0.089266844 -0.007203739 0.06465936 0.014325733 -0.09883928 -0.1897 -0.04946549 -0.071538396
-0.095316 -0.09128406 -0.03984425 0.014263059 0.1004956 -0.0068510813 0.12855648 -0.10414514
-0.027018376 0.10629955 0.079336226 0.10391811 -0.04660957 0.02102253 -0.013613995 0.004121898
0.0077767135 -0.05877978 0.055866234 -0.1127716 -0.092578426 -0.16267172 0.04469389 -0.050070103
0.006482557 -0.026598461 0.018210938 0.11708516 -0.10372681 -0.0285719 -0.117511265 -0.07517652
-0.12885487 0.10494489 0.02568693 0.08841956 0.08291486 0.048462838 0.13273813 -0.10716094
0.058822013 0.06174265 0.023052942 -0.027957806 0.10614755 0.0023392253 0.02786387 -0.015576467
-0.03293386 -0.019839194 -0.05811447 -0.06007496 0.00029441796 -0.021429263 -0.2334961 0.057523765
-0.033560727 -0.027218828 0.000936704 0.055536047 0.11103099 -0.055772483 -0.17619674 -0.040949367
0.017196558 -0.027474556 -0.09188267 -0.16604628 0.03136294 -0.13149437 -0.017292606 0.05165146
-0.05431566 0.030681118 0.087388605 0.10371616 0.03689439 -0.050868757 -0.0044468315 -0.037618577
-0.012406718 -0.10343553 -0.1210095 -0.008337885 0.03367809 0.12209437 -0.022075145 0.102572024
0.01919807 -0.017923847 -0.108389385 0.07393993 -0.046636414 0.02323556 0.017443078 -0.095797434
0.046117637 -0.032223288 0.06866084 -0.004135145 -0.021168068 0.12632519 0.042076148 0.11546403
-0.09008251 -0.0640042 0.19293122 -0.048115257 -0.007460215 -0.18331334 0.008543009 0.03933238
0.05304064 0.031264417 -0.20726968 -0.056027565 0.064761646 -0.049148634 0.053769916 0.046001427
0.14439765 -0.08728499 0.12932923 0.031722642 -0.05448878 0.059954572 0.025778128 0.11835137
-0.029574858 -0.033932928 -0.010327744 -0.020350553 0.091685735 -0.0067199813 0.090955354 0.07579701
-0.0011808695 0.026647748 0.028600918 -0.16188401 -0.037316985 0.015834006 0.112153456 0.05737182
-0.048459157 -0.15391949 -0.09477856 0.011685784 0.028346233 0.07242543 0.009823485 -0.077833
-0.058339816 -0.053161316 -0.061043475 -0.05636543 0.09020924 0.047211815 -0.025924597 0.12846237
0.07242266 -0.04653805 -0.004283936 0.07828712 -0.08125797 0.11531237 -0.07915553 -0.03296102
-0.119825 0.13883838 0.045468513 0.05674099 0.024894977 0.06056498 -0.10745105 0.013030329
0.06778224 -0.09353925 -0.04898965 -0.12649255 0.12128106 0.060757305 -0.031910367 0.16890517
00000000: 40d8 b8bd 4f95 e1bc c0cc 1fbe dddd 8b3b
00000010: 898d 3a3d 2d12 bebd eb9e fabc f444 62bd
00000020: 4b4c babd 6f6a ea3d 2f32 afbd 91a0 64bc
00000030: 24ee 203e e111 ffba 55ce 08be 079b d4bc
00000040: ca7b 83ba 2d13 1fbb cc37 aebd 0dcf 3e3e
00000050: 6040 e9bd 8c30 86bc e272 5d3e 4404 863d
00000060: 9cdc cb3d 7381 8e3d 5c42 8eba e6b0 0abe
00000070: df1a d2bd bb60 973c 317b 313c f4f9 40bd
00000080: 925f a33d a732 f8bc bcaf 70bd 8d31 cf3c
00000090: ac06 ac3b 05e9 8e3c 8673 30bc 2fb5 e93d
000000a0: cd7a b2bd d879 f33d 9a80 2f3e b989 4d3e
000000b0: 1a69 183d 0d13 b73d 1c92 453e 6576 973c
000000c0: cc26 e7bd 8642 153c 334f a0bd 6e38 c2bd
000000d0: ead8 f0bd 7035 473c cf85 e9bc 9082 5d3d
000000e0: 1e2f 213e f23a 5dbe 7a71 0bbc efc7 92ba
000000f0: beb4 1d3e 951a 95bd cf0f 36bd 3a51 3fbc
00000100: 89d1 b6bd 580d ecbb 206c 843d 7bb6 6a3c
00000110: 406c cabd b840 42be 539c 4abd b982 92bd
00000120: 0935 c3bd 23f3 babd b933 23bd 9baf 693c
00000130: a3d0 cd3d 097f e0bb 4fa4 033e 0c4a d5bd
00000140: a455 ddbc 94b3 d93d 087b a23d 05d3 d43d
00000150: ade9 3ebd 7137 ac3c 3c0d 5fbc fd10 873b
00000160: cdd3 fe3b 11c3 70bd fed3 643d ccf4 e6bd
00000170: c299 bdbd 6a93 26be f110 373d 4f16 4dbd
00000180: a16b d43b 04e5 d9bc 1b2f 953c 58ca ef3d
00000190: b96e d4bd 9e0f eabc bfa9 f0bd 26f6 99bd
000001a0: 88f2 03be 59ed d63d 666d d23c 5015 b53d
000001b0: 44cf a93d f880 463d 81ec 073e 3277 dbbd
000001c0: 5aef 703d dce5 7c3d 86d9 bc3c c507 e5bc
000001d0: e363 d93d b04d 193b c542 e43c 7034 7fbc
000001e0: a8e5 06bd ce85 a2bc 7009 6ebd 2911 76bd
000001f0: 1c5c 9a39 6c8c afbc 9a19 6fbe 0a9e 6b3d
00000200: f976 09bd 05fa debc 248d 753a c479 633d
00000210: 3764 e33d b071 64bd eb6c 34be 86ba 27bd
00000220: ccdf 8c3c 5212 e1bc fb2c bcbd 0908 2abe
00000230: 6d76 003d 76a6 06be 39a9 8dbc 7b90 533d
00000240: 197a 5ebd f856 fb3c ccf8 b23d 2369 d43d
00000250: 921e 173d c25b 50bd bab6 91bb f015 1abd
00000260: 8c45 4bbc 02d6 d3bd d4d3 f7bd a09b 08bc
00000270: 09f2 093d 9d0c fa3d efd6 b4bc 4811 d23d
00000280: 4545 9d3c 08d5 92bc 41fb ddbd d16d 973d
00000290: d305 3fbd 8058 be3c c9e4 8e3c 7231 c4bd
000002a0: d9e5 3c3d 91fc 03bd 0e9e 8c3d 1c80 87bb
000002b0: a868 adbc 645b 013e 0a58 2c3d 6878 ec3d
000002c0: 2e7d b8bd a214 83bd c38f 453e 8114 45bd
000002d0: d274 f4bb 7eb6 3bbe faf7 0b3c fd1a 213d
000002e0: 2441 593d 1e0f 003d 813e 54be 297d 65bd
000002f0: c1a1 843d 1450 49bd d83d 5c3d fe6b 3c3d
00000300: fadc 133e 79c2 b2bd e26e 043e 9aef 013d
00000310: a12f 5fbd ed92 753d a72c d33c 3462 f23d
00000320: f946 f2bc 41fd 0abd b335 29bc 34b6 a6bc
00000330: bbc5 bb3d 4a33 dcbb cd46 ba3d 763b 9b3d
00000340: 68c7 9aba 614c da3c 794c ea3c ecc4 25be
00000350: b2d9 18bd 51b6 813c b6b0 e53d b7fe 6a3d
00000360: 1c7d 46bd 129d 1dbe 431b c2bd bb75 3f3c
00000370: 5c36 e83c c953 943d aff2 203c e866 9fbd
00000380: bbf5 6ebd aebf 59bd b908 7abd 70df 66bd
00000390: 9fbf b83d 2d61 413d d25f d4bc a48b 033e
000003a0: 5552 943d af9e 3ebd 4360 8cbb ff54 a03d
000003b0: 946a a6bd e428 ec3d 4b1c a2bd 2202 07bd
000003c0: cf66 f5bd a62b 0e3e 313d 3a3d 3e69 683d
000003d0: 8df0 cb3c fc12 783d 4c0f dcbd 297d 553c
000003e0: 6ad1 8a3d 8291 bfbd 5fa9 48bd 4387 01be
000003f0: 3462 f83d a7dc 783d 72b4 02bd 7af5 2c3e

model.time_mlp.1.bias f4 [256]
6.6379616e-05 2.056027e-05 -4.23107e-05 3.36587e-05 4.1370215e-05 4.980795e-06 -9.069064e-06 4.043186e-05
-2.1531905e-05 -5.4735247e-05 5.5815777e-05 -6.2874125e-05 -1.5711868e-05 -6.869439e-05 -4.074143e-05 5.6921373e-05
-6.082024e-05 2.7981469e-05 6.4482574e-06 -3.4465833e-05 -1.9375195e-05 -3.528295e-05 -5.781078e-05 1.1510807e-05
-4.0727107e-05 -6.04202e-05 -4.3218235e-05 3.9365706e-05 -7.650277e-05 -4.9040566e-05 -2.509961e-05 6.0918363e-05
5.573091e-05 -3.841905e-05 4.0131228e-05 -5.2118103e-05 2.0296986e-05 -4.029388e-05 1.9868776e-05 4.831707e-06
6.2128594e-05 -5.0260547e-05 1.01912565e-05 8.768265e-06 1.254164e-05 -5.2779073e-05 1.1577696e-05 2.1198299e-05
-1.9435334e-05 5.880826e-05 8.684473e-06 -1.7272807e-05 2.692303e-05 4.9607825e-05 -3.0394827e-05 -5.341321e-05
-2.3554836e-05 -7.608517e-05 -1.4773038e-05 -3.7648202e-05 -1.8761866e-05 -5.2183055e-05 5.384572e-05 -3.4283712e-05
-3.3888096e-05 6.158743e-05 -6.578596e-05 -3.186691e-05 -6.085754e-05 -5.9004644e-05 -6.2380495e-05 -2.8478878e-05
4.532705e-05 -6.645854e-05 -5.314614e-05 -3.531717e-05 -2.7636299e-05 -1.8042887e-05 6.969978e-06 -4.4993587e-05
-1.1430539e-05 -3.991667e-05 5.7432204e-05 4.8431262e-05 -5.169724e-05 5.9079357e-05 -6.595972e-05 -3.3313474e-05
-6.0915445e-05 -4.131608e-05 -2.9885146e-05 -6.390297e-05 5.9882193e-05 -9.191098e-06 -3.097441e-05 -4.0903054e-05
4.882701e-05 2.5599851e-05 -1.4983974e-05 -5.309366e-05 1.8995053e-05 3.6716494e-05 -3.776386e-05 -4.535575e-05
-2.705853e-05 7.5462294e-06 5.131935e-05 1.0354558e-05 -2.624136e-05 -5.0987196e-06 -5.513844e-05 1.9685527e-05
-3.4368943e-05 4.7947207e-05 -3.0657957e-05 -1.8917497e-05 -7.1449875e-05 -4.929919e-05 2.2751572e-05 6.269236e-05
4.4555538e-05 -2.5206398e-05 -3.0292535e-05 6.040318e-05 -1.8536006e-05 4.6221794e-05 -5.282905e-05 -4.055869e-05
-3.7558642e-05 -5.090287e-05 -3.3054896e-06 1.8360313e-05 -2.2027345e-05 5.4674034e-05 -2.2256874e-05 4.563523e-05
4.729206e-05 -5.9221594e-07 5.2928357e-05 -4.1690317e-05 -6.0175338e-05 5.71221e-05 -9.137504e-06 -7.468722e-05
-5.57708e-05 4.9695565e-05 5.1787265e-05 -4.179411e-05 4.5894587e-05 8.481031e-06 -3.1620886e-05 1.3831177e-05
-6.540373e-05 -3.523448e-05 -2.923139e-05 7.9029065e-05 5.3455664e-05 -1.0428179e-06 -1.6146192e-05 4.370808e-05
1.3182572e-05 4.752929e-05 -1.2754674e-05 4.499649e-05 -5.758623e-05 -3.2415865e-05 6.37367e-05 5.165866e-06
-4.257718e-05 -4.5405613e-05 -2.9692636e-05 5.1709714e-05 -5.367013e-05 3.460366e-05 -4.338497e-05 2.6195166e-05
-4.767944e-05 5.322351e-05 -2.9740453e-05 2.0260599e-05 4.3134838e-05 -3.290126e-05 2.4033365e-05 1.1232798e-05
-4.5599336e-05 -5.7824902e-05 -2.6819947e-05 1.5087323e-05 4.070497e-05 -3.869957e-05 -7.1901277e-06 -4.9253635e-05
-3.0070703e-05 1.1697466e-05 1.784304e-05 -5.4675307e-05 7.042715e-05 2.3666458e-05 -6.057249e-05 -4.7057376e-05
6.0930644e-05 -6.828508e-05 -6.47002e-05 1.645661e-05 6.398967e-05 4.1616684e-05 4.7996415e-05 -6.739759e-05
5.093529e-05 -2.0556847e-05 -5.4775745e-05 6.228804e-05 2.09432e-05 6.0023052e-05 1.6975753e-05 -4.931116e-05
4.7040023e-05 5.430045e-05 6.416594e-05 4.138146e-06 -2.2913844e-05 -8.819289e-06 -9.841093e-06 9.585749e-06
-4.6329988e-05 6.5803215e-05 -4.3840973e-05 1.1472227e-05 6.279277e-05 4.337777e-06 -4.2790718e-05 -6.803243e-05
2.3284274e-05 3.0304434e-05 3.578424e-05 -5.5715598e-05 -6.358373e-05 3.327118e-05 -3.2576823e-05 4.9903145e-05
-6.663308e-05 6.259519e-05 2.5319026e-05 -1.6829748e-05 -2.3402426e-05 -6.12642e-05 -3.5113724e-05 -3.312256e-05
3.7769366e-06 4.9393842e-05 2.0390858e-05 -1.19552515e-05 9.165883e-06 -2.8296517e-05 -3.804511e-05 -3.6905778e-05
00000000: 4935 8b38 d878 ac37 c576 31b8 c12c 0d38
00000010: ee84 2d38 b420 a736 5527 18b7 6195 2938
00000020: 6a9f b4b7 8693 65b8 bc1b 6a38 4adb 83b8
00000030: fbcc 83b7 0510 90b8 c7e1 2ab8 dcbe 6e38
00000040: 3c19 7fb8 bfb9 ea37 1c5e d836 688f 10b8
00000050: ea87 a2b7 c7fc 13b8 da79 72b8 8a1e 4137
00000060: 66d2 2ab8 b26b 7db8 3a45 35b8 9b1c 2538
00000070: 1d70 a0b8 e8b0 4db8 018d d2b7 9882 7f38
00000080: 9cc0 6938 2424 21b8 9452 2838 6399 5ab8
00000090: 7243 aa37 3901 29b8 dfab a637 0c20 a236
000000a0: 094b 8238 dace 52b8 1dfb 2a37 691b 1337
000000b0: ef69 5237 195f 5db8 d33d 4237 00d3 b137
000000c0: 1009 a3b7 e3a8 7638 87b3 1137 12e5 90b7
000000d0: c4d8 e137 ff11 5038 65f8 feb7 ff07 60b8
000000e0: a097 c5b7 ea8f 9fb8 b7d9 77b7 73e8 1db8
000000f0: cd62 9db7 21df 5ab8 67d8 6138 dbcb 0fb8
00000100: 1123 0eb8 8028 8138 91f6 89b8 d6a8 05b8
00000110: 4941 7fb8 c17b 77b8 46d2 82b8 ede5 eeb7
00000120: 8d1d 3e38 a85f 8bb8 3ce9 5eb8 8621 14b8
00000130: 80d4 e7b7 ce5a 97b7 a8df e936 7fb7 3cb8
00000140: cbc5 3fb7 336c 27b8 5ce3 7038 ac22 4b38
00000150: 7dd5 58b8 facb 7738 db53 8ab8 12ba 0bb8
00000160: 767f 7fb8 ce4a 2db8 ddb1 fab7 a503 86b8
00000170: 042a 7b38 7733 1ab7 85ea 01b8 528f 2bb8
00000180: 9acb 4c38 43bf d637 ae63 7bb7 e2b0 5eb8
00000190: 9157 9f37 0900 1a38 a364 1eb8 5e3c 3eb8
000001a0: c0fb e2b7 9e35 fd36 bc3f 5738 7db8 2d37
000001b0: e420 dcb7 ab15 abb6 7344 67b8 5922 a537
000001c0: 5f27 10b8 ec1a 4938 bb96 00b8 04b1 9eb7
000001d0: 5cd7 95b8 9ac6 4eb8 a1da be37 b479 8338
000001e0: 25e1 3a38 5472 d3b7 b91c feb7 6c59 7d38
000001f0: c57d 9bb7 46de 4138 c394 5db8 901d 2ab8
00000200: 4988 1db8 8a80 55b8 e1d3 5db6 7904 9a37
00000210: 5dc7 b8b7 cc51 6538 46b4 bab7 7568 3f38
00000220: 765b 4638 c5f8 1eb5 64ff 5d38 a3dc 2eb8
00000230: c764 7cb8 6396 6f38 484d 19b7 65a1 9cb8
00000240: 71eb 69b8 3570 5038 2736 5938 154c 2fb8
00000250: f07e 4038 c049 0e37 aba0 04b8 740c 6837
00000260: 5c29 89b8 bcc8 13b8 ef35 f5b7 68bc a538
00000270: 9535 6038 f3f6 8bb5 af71 87b7 3253 3738
00000280: b72a 5d37 305a 4738 e8fc 55b7 9dba 3c38
00000290: be88 71b8 45f6 07b8 61aa 8538 7356 ad36
000002a0: e694 32b8 e871 3eb8 7314 f9b7 e2e2 5838
000002b0: dd1b 61b8 6623 1138 42f8 35b8 b1bd db37
000002c0: 69fb 47b8 4f3c 5f38 237b f9b7 4ef5 a937
000002d0: aeeb 3438 75ff 09b8 429b c937 8074 3c37
000002e0: ea41 3fb8 0489 72b8 66fb e0b7 8f1f 7d37
000002f0: a1ba 2a38 5951 22b8 ba42 f1b6 b095 4eb8
00000300: 5840 fcb7 3c40 4437 a3ad 9537 2a53 65b8
00000310: 4ab2 9338 5587 c637 370f 7eb8 795f 45b8
00000320: c88f 7f38 4634 8fb8 a8af 87b8 4d0c 8a37
00000330: 3132 8638 938d 2e38 c24f 4938 ce57 8db8
00000340: 5aa3 5538 7e71 acb7 02bf 65b8 a3a0 8238
00000350: 2eaf af37 43c1 7b38 2767 8e37 74d3 4eb8
00000360: d74c 4538 aac0 6338 d490 8638 67da 8a36
00000370: 1b37 c0b7 8ff6 13b7 2c1b 25b7 7ad2 2037
00000380: 7252 42b8 d5ff 8938 e3e1 37b8 d778 4037
00000390: 9daf 8338 398d 9136 2f7a 33b8 a2ac 8eb8
000003a0: 9952 c337 4736 fe37 0917 1638 2bb0 69b8
000003b0: 4158 85b8 a88c 0b38 19a3 08b8 184f 5138
000003c0: 5dbd 8bb8 8945 8338 3264 d437 9c2d 8db7
000003d0: 5450 c4b7 f87a 80b8 1347 13b8 14ed 0ab8
000003e0: 4777 7d36 3c2c 4f38 090d ab37 6a93 48b7
000003f0: 2bc7 1937 4f5e edb7 a092 1fb8 47cb 1ab8

model.time_mlp.3.weight f4 [32, 256]
0.0686056 0.0036292055 -0.026037645 -0.043076664 -0.008967782 -0.017976351 -0.011117375 -0.02209142
0.002206323 -0.014487703 0.009815105 -0.010932551 0.009899869 -0.016704991 -0.033151954 -0.010754527
-0.0032758645 -0.075200506 0.031387594 -0.006427511 -0.017754937 0.016751207 -0.010623412 0.080062106
-0.0032175165 0.008043998 -0.034095462 -0.06624009 0.023642803 0.011700631 0.005849153 -0.01434493
0.0547259 -0.104684874 -0.03075036 0.0029037397 0.0036644759 0.009158443 -0.034337588 0.0045294855
-0.019558562 0.0029746704 0.000657717 0.018489864 -0.0016384121 0.044318244 -0.07903204 -0.0365054
-0.016405499 -0.008554427 -0.0055449195 -0.029919602 0.021367833 -0.00460264 0.0055932533 -0.012492161
0.008912927 -0.025177112 -0.019699164 -0.0061444803 -0.02001651 -0.03625645 0.03521885 0.022865258
0.015779272 0.019377144 0.004330693 0.026327943 -0.029286887 -0.009307005 -0.013803499 0.063033596
-0.026460383 0.02033542 -0.09948105 0.006802166 -0.01725137 -0.01650436 -0.04395846 0.019346047
-0.009938576 -0.061318558 -0.030825516 -0.036507912 -0.010650556 -0.045523915 -0.021223933 -0.0011395104
-0.030354155 -0.044944637 0.021784648 -0.03858432 -0.040376425 0.013262376 -0.021843586 -0.032084905
-0.017298834 -0.04234649 -0.045080736 0.0218387 -0.01716446 0.008992945 -0.024076238 -0.0099001825
0.013688805 0.0009187352 0.0053807627 -0.01208341 0.048724897 0.031819128 -0.017000057 0.028367689
0.0027521236 0.041581187 0.012279479 0.012562435 -0.0053345165 -0.042370874 -0.00064454455 0.00716105
0.017916663 0.023185717 0.01816772 0.032266762 -0.02453874 -0.036590442 -0.04257277 0.038056128
-0.003924124 0.022017697 -0.013137896 -0.005445597 -0.023480596 0.0040295557 -0.034532476 0.007973861
-0.050356735 -0.022258252 -0.034809124 0.036710054 -0.0013135006 -0.016011082 -0.0017935154 -0.0030446162
-0.014483035 0.001047118 0.048610147 0.0030368008 -0.030522965 -0.056863476 0.032802764 -0.04614922
-0.013442064 -0.0010389917 0.023853106 0.010101428 0.057740945 -0.0069844853 0.040527564 -0.025908673
-0.039563563 0.056371275 -0.02623472 0.06399362 0.003512193 -0.007690183 -0.0033102399 0.043418255
0.0081433 -0.055616774 -0.07227343 0.00052400335 -0.0019085439 0.024708698 0.018697761 -0.030753376
0.009311136 0.007388902 0.030553995 0.0057612197 -0.0009624855 -0.004374581 0.01917225 0.008392556
0.0075234924 0.014752422 0.05929303 0.0113886995 0.029719368 0.0880943 -0.01906808 0.011522825
0.02249076 -0.011358738 -0.0133606335 -0.011873155 -0.0106011825 -0.0076187686 0.009609903 0.014011695
-0.042546123 -0.011702959 0.013130156 -0.01294284 0.007543806 0.048834916 0.006494864 -0.0054255095
0.010146237 0.013361922 -0.03508743 -0.006179035 -0.05758126 -0.011569389 0.04340674 -0.013523413
0.031785097 0.006323898 0.043912027 -0.009659372 0.005692243 0.053063884 0.0119984215 -0.050806724
0.028782893 -0.024405327 0.03722419 -0.007233634 -0.0067430204 -0.026985114 -0.013495407 -0.048938118
-0.02738431 0.013537083 0.029474366 0.00777255 -0.0036941846 -0.039565064 0.024874732 -0.017721493
0.033968583 0.062407237 0.011501883 0.001502147 0.028247403 0.04703243 -0.0034909067 0.014971226
-0.013685592 0.035573717 0.000959144 0.020663561 0.0014014891 0.0018200593 0.012343424 -0.045654748
00000000: 1881 8c3d f7d7 6d3b e64c d5bc 2871 30bd
00000010: 9bed 12bc 2443 93bc a725 36bc 11f9 b4bc
00000020: f597 103b d55d 6dbc 89cf 203c 711e 33bc
00000030: 0f33 223c e8d8 88bc 58ca 07bd c133 30bc
00000040: e3af 56bb b902 9abd 4790 003d df9d d2bb
00000050: cd72 91bc d439 893c d20d 2ebc 9af7 a33d
00000060: f8dc 52bb f9ca 033c afa7 0bbd e2a8 87bd
00000070: 8dae c13c 01b4 3f3c 40aa bf3b ff06 6bbc
00000080: 4428 603d 0665 d6bd 2ee8 fbbc ab4c 3e3b
00000090: b427 703b 4b0d 163c 92a5 0cbd 146c 943b
000000a0: 4739 a0bc b0f2 423b a46a 2c3a 0e78 973c
000000b0: fdbf d6ba 0c87 353d 8ddb a1bd b086 15bd
000000c0: d364 86bc de27 0cbc 28b2 b5bb f419 f5bc
000000d0: 980b af3c bed1 96bb 9c47 b73b ecab 4cbc
000000e0: 8607 123c 3b40 cebc 2460 a1bc a357 c9bb
000000f0: aaf9 a3bc a581 14bd a441 103d ec4f bb3c
00000100: 8843 813c d1bc 9e3c 7ce8 8d3b b3ad d73c
00000110: 0eeb efbc 697c 18bc 1228 62bc c217 813d
00000120: 72c3 d8bc 7796 a63c b9bc cbbd b4e4 de3b
00000130: bf52 8dbc 2734 87bc c90d 34bd 9a7b 9e3c
00000140: 69d5 22bc 2b29 7bbd cb85 fcbc 5289 15bd
00000150: ab7f 2ebc 4977 3abd d0dd adbc a05b 95ba
00000160: 47a9 f8bc de17 38bd b875 b23c 980a 1ebd
00000170: c061 25bd 704a 593c 52f1 b2bc 766b 03bd
00000180: 49b6 8dbc 8373 2dbd 94a6 38bd 13e7 b23c
00000190: 7b9c 8cbc 2557 133c 883b c5bc 6034 22bc
000001a0: 0247 603c 47d7 703a 1c51 b03b 7ff9 45bc
000001b0: c293 473d c654 023d b443 8bbc 5b63 e83c
000001c0: f95c 343b 0951 2a3d de2f 493c acd2 4d3c
000001d0: 2bcd aebb 158d 2dbd a7f6 28ba 3ea7 ea3b
000001e0: f7c5 923c f9ef bd3c 78d4 943c 272a 043d
000001f0: 7805 c9bc dcdf 15bd c960 2ebd bee0 1b3d
00000200: f095 80bb 755e b43c 5440 57bc fb70 b2bb
00000210: 615a c0bc 5d0a 843b ed71 0dbd cca4 023c
00000220: dd42 4ebd f056 b6bc 0394 0ebd 485d 163d
00000230: c429 acba ac29 83bc 6414 ebba 2f88 47bb
00000240: 404a 6dbc 733f 893a 6f1b 473d 1005 473b
00000250: 4c0b fabc ade9 68bd 315c 063d f706 3dbd
00000260: 1a3c 5cbc c72e 88ba 9767 c33c 7680 253c
00000270: c581 6c3d 1cde e4bb 3b00 263d 6d3e d4bc
00000280: 670d 22bd 91e5 663d 32ea d6bc 160f 833d
00000290: d22c 663b eefd fbbb 9cf0 58bb 57d7 313d
000002a0: 7a6b 053c 6ace 63bd 1804 94bd 455d 093a
000002b0: 1b28 faba e569 ca3c 0c2c 993c 81ee fbbc
000002c0: bc8d 183c 9a1e f23b 5f4c fa3c 9dc8 bc3b
000002d0: 4f4f 7cba a558 8fbb 1f0f 9d3c ee80 093c
000002e0: a187 f63b 25b4 713c 40dd 723d ab97 3a3c
000002f0: 0876 f33c c96a b43d a934 9cbc 3bca 3c3c
00000300: 8b3e b83c 001a 3abc 8fe6 5abc 9f87 42bc
00000310: 95b0 2dbc dda6 f9bb db72 1d3c 4f91 653c
00000320: d844 2ebd c5bd 3fbc de1f 573c 350e 54bc
00000330: 0832 f73b 1f07 483d ded2 d43b 79c8 b1bb
00000340: 673c 263c f7eb 5a3c d6b7 0fbd 8179 cabb
00000350: 54da 6bbd 898d 3dbc 44cb 313d 4e91 5dbc
00000360: 1731 023d b438 cf3b 19dd 333d 5842 1ebc
00000370: ff85 ba3b 8459 593d 0795 443c b61a 50bd
00000380: 1aca eb3c aeed c7bc 6478 183d 1f08 edbb
00000390: 8ef4 dcbb e30f ddbc d71b 5dbc 5673 48bd
000003a0: 0f55 e0bc a4ca 5d3c 3a74 f13c e0b0 fe3b
000003b0: 221a 72bb fa0e 22bd 18c6 cb3c aa2c 91bc
000003c0: a422 0b3d bb9e 7f3d 6572 3c3c b0e3 c43a
000003d0: 1967 e73c 14a5 403d b2c7 64bb e049 753c
000003e0: 8939 60bc bfb5 113d 106f 7b3a a146 a93c
000003f0: 2cb2 b73a 0e8f ee3a 133c 4a3c 7900 3bbd

model.time_mlp.3.bias f4 [32]
8.328029e-05 -3.8443035e-05 -6.20232e-05 -9.401483e-05 7.896921e-05 9.45997e-05 5.696056e-05 7.9180965e-05
8.662284e-05 -8.550836e-05 9.107321e-05 -4.0542942e-05 -8.367666e-05 -8.6159576e-05 -6.783208e-05 -9.577419e-05
-7.899455e-05 -8.989421e-05 1.5162478e-05 -8.154763e-05 2.2809638e-05 -5.586038e-05 -3.479322e-05 9.583515e-05
8.461893e-05 -7.2230774e-05 9.2144706e-05 7.832835e-05 9.125182e-05 7.963123e-05 -7.114683e-05 8.405638e-05
00000000: c4a6 ae38 e53d 21b8 7412 82b8 d429 c5b8
00000010: 469c a538 d463 c638 f0e8 6e38 f50d a638
00000020: 48a9 b538 f452 b3b8 8ffe be38 a70c 2ab8
00000030: 917b afb8 92b0 b4b8 1241 8eb8 60da c8b8
00000040: e0a9 a5b8 9685 bcb8 5962 7e37 8d04 abb8
00000050: 5357 bf37 a04b 6ab8 efee 11b8 1bfb c838
00000060: 7175 b138 9a7a 97b8 d03d c138 3644 a438
00000070: 735e bf38 b1ff a638 aa34 95b8 6d47 b038

model.layer.0.weight f4 [256, 55]
-0.009008319 -0.08807961 -0.14095011 0.10095558 -0.13063858 0.012036186 0.0073280595 -0.029055644
-0.0060356623 -0.10213929 0.104687735 -0.06533864 -0.071974695 0.035852134 0.019706719 0.14158577
0.034583237 -0.14420012 0.060097292 -0.06472285 0.047314543 0.10637361 0.008304224 0.0050386474
0.015408821 -0.0053557316 -0.037841365 0.11233195 0.02936515 -0.018642984 -0.0007823835 0.08303832
-0.025693048 -0.006821277 0.047778234 0.045130823 0.089780934 0.105960585 -0.036498185 0.013343327
-0.043409966 -0.0053741033 0.13972647 -0.08637572 0.060985003 -0.019475318 0.04497281 -0.057801045
-0.0897291 -0.075278044 0.064144604 0.12711596 0.100382544 0.034678455 -0.05152332 0.026848752
0.06469427 -0.020800868 0.030132474 0.08231862 0.0003157947 0.0018501931 -0.09417918 -0.088730656
0.010380469 -0.013154734 -0.10902217 0.0016743906 -0.033444077 -0.08545305 -0.03624383 -0.0132575855
0.038502026 0.044445176 0.11262371 0.08877638 -0.025415244 0.01665286 0.054893002 -0.10153662
-0.05241947 -0.03264925 0.07317246 -0.088306375 0.05728763 0.03794394 -0.07910177 0.01568529
-0.027384695 0.01758959 0.015967654 -0.024537582 0.0022869646 -0.023019373 0.098535396 0.09495987
0.06749049 0.06048638 0.12018346 0.03575342 -0.08370858 -0.0041324855 0.054335266 -0.083858795
0.015673928 -0.047422294 0.0483107 -0.018677663 -0.0048955576 -0.075203136 -0.01673265 0.053356398
0.040975086 0.032804128 0.014078697 0.023359733 -0.03682177 -0.069967195 -0.006922585 -0.08642271
-0.017584179 -0.03787459 -0.0013216432 -0.03881014 0.033195853 -0.1023485 -0.107109874 0.0013428167
0.009210262 -0.11515495 0.09221027 -0.04914932 -0.101972595 -0.054681644 -0.13714992 0.16124623
-0.09747428 -0.052857686 -0.0009493432 -0.0425853 0.12269122 -0.034970827 -0.016762711 0.083082125
0.0410549 -0.10665753 -0.022319281 -0.051260848 0.041427646 -0.04838433 0.08077929 0.002769615
-0.042192064 -0.0636645 -0.017199505 -0.09288888 0.1189816 -0.05457211 -0.032699205 -0.0005554189
0.04619521 -0.042812802 -0.14530715 -0.036891475 0.024271622 0.066858284 -0.0863454 -0.023236763
-0.14570934 0.10215497 -0.0132657755 -0.00220237 -0.08942417 -0.017828306 0.09973165 -0.043680966
0.015964033 0.001786989 0.083784185 -0.07512889 0.051643435 0.07747657 -0.004049363 -0.01759602
0.12196146 0.033143725 -0.033965074 -0.020680953 0.0052009877 0.04389031 -0.05708027 -0.031957667
0.03205706 0.025808414 0.015623709 0.019877885 -0.009148788 -0.0809453 -0.028753104 0.018690348
-0.081805795 -0.025061404 -0.047365203 0.047709487 0.05056916 -0.045313284 -0.022044817 -0.044787407
0.09505886 0.010592405 0.036509525 0.11338004 0.0836422 -0.08629031 0.052589856 0.11835649
-0.009610343 -0.03129653 0.010426954 -0.05935652 -0.072367124 -0.01671293 -0.033026274 -0.017409436
-0.006179879 0.10309474 -0.14811382 0.029811269 0.027537284 0.14421731 -0.04129922 0.06899935
0.020221956 -0.07672036 0.053058702 0.016131336 -0.059993137 0.047839187 0.068652436 -0.067185536
-0.015298919 -0.032609127 -0.03916697 0.035596576 -0.13541916 -0.016199991 -0.012883223 0.09445311
-0.07882283 -0.07954165 0.029628452 -0.09448213 -0.1641882 0.092430465 -0.0008608339 -0.009269259
00000000: a197 13bc 1563 b4bd 3a55 10be cdc1 ce3d
00000010: 1fc6 05be 6c33 453c 3820 f03b 1a06 eebc
00000020: cec6 c5bb 672e d1bd 8666 d63d 44d0 85bd
00000030: 7867 93bd b0d9 123d fc6f a13c dcfb 103e
00000040: 27a7 0d3d 32a9 13be 9428 763d 6a8d 84bd
00000050: e5cc 413d 68da d93d 710e 083c 3d1b a53b
00000060: 4875 7c3c 227f afbb 8cff 1abd 4b0e e63d
00000070: 2f8f f03c 2cb9 98bc de18 4dba ff0f aa3d
00000080: 3a7a d2bc 0585 dfbb 1cb3 433d 19db 383d
00000090: 11df b73d dd01 d93d 1f7f 15bd f89d 5a3c
000000a0: a6ce 31bd 3f19 b0bb 7514 0f3e c1e5 b0bd
000000b0: 69cb 793d b48a 9fbc 6935 383d cac0 6cbd
000000c0: e4c3 b7bd 602b 9abd 3f5e 833d b02a 023e
000000d0: 5d95 cd3d ff0a 0e3d 1e0a 53bd eaf1 db3c
000000e0: 6e7e 843d 9566 aabc 61d8 f63c aa96 a83d
000000f0: 3f91 a539 2e82 f23a 04e1 c0bd 6bb8 b5bd
00000100: d812 2a3c f486 57bc 0447 dfbd 3a77 db3a
00000110: a8fc 08bd 0202 afbd 6974 14bd 5836 59bc
00000120: 4db4 1d3d 250c 363d 42a7 e63d 64d0 b53d
00000130: a133 d0bc 946b 883c 7cd7 603d 6ef2 cfbd
00000140: ccb5 56bd 38bb 05bd 71db 953d f9d9 b4bd
00000150: 6fa6 6a3d 1b6b 1b3d 1c00 a2bd 707e 803c
00000160: de55 e0bc 0b18 903c 99ce 823c 0a03 c9bc
00000170: e6e0 153b 2093 bcbc edcc c93d 527a c23d
00000180: 7438 8a3d 91c0 773d bf22 f63d 2e72 123d
00000190: 676f abbd cd69 87bb a88e 5e3d 29be abbd
000001a0: 9c66 803c e13d 42bd 71e1 453d e601 99bc
000001b0: ea6a a0bb 1a04 9abd e912 89bc 3d8c 5a3d
000001c0: 7ed5 273d 9f5d 063d 56aa 663c e95c bf3c
000001d0: 6dd2 16bd f64a 8fbd dad6 e2bb 64fe b0bd
000001e0: b20c 90bc 6322 1bbd fd3a adba 62f7 1ebd
000001f0: 60f8 073d 179c d1bd 6c5c dbbd 7401 b03a
00000200: a4e6 163c 5cd6 ebbd bdd8 bc3d cc50 49bd
00000210: 02d7 d0bd dcf9 5fbd 0771 0cbe bb1d 253e
00000220: 98a0 c7bd 4d81 58bd 58dd 78ba ec6d 2ebd
00000230: 8945 fb3d 923d 0fbd f451 89bc f626 aa3d
00000240: 2f29 283d 436f dabd edd6 b6bc e5f6 51bd
00000250: 09b0 293d a62e 46bd 9d6f a53d 6e82 353b
00000260: 96d1 2cbd 8962 82bd fae5 8cbc 863c bebd
00000270: a0ac f33d 0187 5fbd 9aef 05bd 8899 11ba
00000280: 3037 3d3d 7a5c 2fbd 66cb 14be 841b 17bd
00000290: 48d5 c63c ffec 883d dbd5 b0bd 065b bebc
000002a0: d434 15be a036 d13d b258 59bc a355 10bb
000002b0: 0524 b7bd ab0c 92bc 1b40 cc3d d0ea 32bd
000002c0: 01c7 823c 6739 ea3a 0b97 ab3d 2ddd 99bd
000002d0: 1188 533d 09ac 9e3d 85b0 84bb 8725 90bc
000002e0: eec6 f93d b7c1 073d f61e 0bbd 1a6b a9bc
000002f0: 0c6d aa3b 53c6 333d 00cd 69bd 0be6 02bd
00000300: 444e 033d 2b6c d33c 96fa 7f3c f2d6 a23c
00000310: cce4 15bc a6c6 a5bd a18b ebbc 801c 993c
00000320: cc89 a7bd 934d cdbc 0402 42bd 066b 433d
00000330: 9c21 4f3d 6c9a 39bd 5597 b4bc 0073 37bd
00000340: 38ae c23d c48b 2d3c 038b 153d cb33 e83d
00000350: 9a4c ab3d f9b8 b0bd 7668 573d e364 f23d
00000360: b374 1dbc ca30 00bd d1d5 2a3c d31f 73bd
00000370: 3735 94bd 8ee9 88bc 8f46 07bd 3c9e 8ebc
00000380: 9580 cabb 5623 d33d 26ab 17be c336 f43c
00000390: df95 e13c b4ad 133e 5f29 29bd 884f 8d3d
000003a0: 84a8 a53c 901f 9dbd 1554 593d dd25 843c
000003b0: 5dbb 75bd 06f3 433d a699 8c3d 9298 89bd
000003c0: 51a8 7abc 2691 05bd 8b6d 20bd b7cd 113d
000003d0: 52ab 0abe d8b5 84bc 2714 53bc a270 c13d
000003e0: dd6d a1bd bce6 a2bd 5eb7 f23c d97f c1bd
000003f0: f420 28be 2f4c bd3d 96a9 61ba 17de 17bc

model.layer.0.bias f4 [256]
9.1557624e-05 8.783453e-05 8.292644e-05 -8.77214e-05 -9.484749e-05 -7.8346326e-05 -9.280693e-05 -8.1444625e-05
7.975067e-05 -8.122037e-05 8.037634e-05 -8.741944e-05 -7.3275405e-05 9.283166e-05 -9.288326e-05 -9.0948335e-05
9.1930066e-05 -4.8921454e-05 -6.438713e-08 8.893657e-05 -9.33746e-05 -9.16866e-05 -8.9440495e-05 8.413537e-05
-9.519907e-05 -4.0247134e-05 -9.514238e-05 8.8270135e-05 -8.9624446e-05 -8.588765e-05 -8.860631e-05 8.163469e-05
-9.1392205e-05 9.027867e-05 9.415955e-05 6.6383785e-05 8.637094e-05 -9.121415e-05 9.674035e-05 8.7505e-05
9.4901196e-05 7.666727e-05 -8.434727e-05 7.94381e-05 -6.95134e-05 7.430418e-05 4.187707e-06 -8.66369e-05
9.390506e-05 7.973034e-05 8.8112596e-05 8.937382e-05 7.6990655e-05 -9.552447e-05 9.239158e-05 -7.818762e-05
-9.439775e-05 -9.064823e-05 8.3189225e-05 4.7978032e-05 -1.8354884e-05 6.5684726e-05 -7.809101e-05 -9.346632e-05
7.198852e-05 8.398726e-05 8.83894e-05 -9.349243e-05 8.24065e-05 9.2956936e-05 4.110588e-05 -9.459972e-05
9.136459e-05 -9.4757284e-05 -8.951992e-05 8.879635e-05 8.535529e-05 -9.016358e-05 9.553342e-05 6.972988e-05
-6.454063e-05 -7.381399e-05 -8.2291735e-05 -8.392158e-05 9.1639246e-05 -9.229986e-05 9.086695e-05 -7.4511314e-05
9.290005e-05 -9.126743e-05 -8.914334e-05 -9.259228e-05 -9.4857794e-05 8.718503e-05 -9.649588e-05 -9.330818e-05
-7.7159486e-05 7.977522e-05 9.5875854e-05 -8.998476e-05 8.10548e-05 -8.591745e-05 -3.1608684e-05 6.5617336e-05
-9.6813805e-05 -8.4940286e-05 5.8629914e-05 -8.827443e-05 -6.523574e-05 -9.439741e-05 -9.123232e-05 -9.401496e-05
4.696124e-05 3.2576423e-05 7.793992e-05 -7.724977e-05 7.8714904e-05 9.474073e-05 6.806448e-05 9.2589755e-05
-4.1337382e-05 7.0275324e-05 -5.611991e-05 9.6907155e-05 9.411556e-05 9.58953e-05 9.2874514e-05 -9.799321e-05
-7.7393364e-05 -8.5196385e-05 -9.299048e-05 9.147194e-05 -9.527989e-05 -9.405257e-05 9.197791e-05 8.182059e-05
8.105028e-05 9.33838e-05 -9.069665e-05 -8.43536e-05 9.086263e-05 -8.210536e-05 9.133585e-05 -9.479445e-05
-8.943278e-05 -8.736469e-05 9.186499e-05 8.43075e-05 3.2337626e-05 5.0156617e-05 -9.4092655e-05 -9.1577975e-05
-8.519603e-05 -8.9244066e-05 9.659798e-05 -8.7785214e-05 -7.993551e-05 8.770716e-05 8.9748544e-05 -9.19537e-05
9.650717e-05 8.429432e-05 -8.0564474e-05 -5.1759256e-05 -8.7863045e-05 -9.1894224e-05 9.335579e-05 6.213461e-05
-7.0382775e-05 -8.970237e-05 9.198139e-05 9.09832e-05 6.7758825e-05 9.116274e-05 -1.3300898e-05 8.6780594e-05
-8.237376e-05 -9.16353e-05 -9.161126e-05 8.1008955e-05 3.3440658e-05 -9.089393e-05 -8.975671e-05 9.537863e-05
-6.075863e-05 7.2861425e-05 6.795766e-05 -8.40586e-05 4.47478e-05 -8.160538e-05 8.231089e-05 9.4483024e-05
-8.261411e-05 -2.7516859e-05 -9.45508e-05 -9.361342e-05 9.121163e-05 -9.575688e-05 -6.0861374e-05 9.627221e-05
7.490403e-05 -8.898684e-05 -8.761035e-05 9.173025e-05 -9.49044e-05 -9.196209e-05 9.4225885e-05 9.479283e-05
-8.285442e-05 9.381515e-05 8.944853e-05 -9.505317e-05 -2.054025e-05 -9.262967e-05 -9.278582e-05 -9.486839e-05
4.7238485e-05 9.368008e-05 -9.3193215e-05 -9.3730494e-05 -9.3449395e-05 9.0528956e-05 7.171851e-05 -7.356086e-05
3.621016e-05 6.170197e-05 8.507836e-05 -6.834743e-05 -9.430861e-05 -7.856505e-05 -6.5719774e-05 8.7394445e-05
9.274332e-05 -9.1689624e-05 8.900462e-05 8.353785e-05 -9.388622e-05 8.943224e-05 -9.52543e-05 -9.621795e-05
9.107252e-05 8.396623e-05 -8.961386e-05 -9.4543044e-05 -7.413902e-05 -2.8141458e-05 -9.686727e-05 -8.22841e-05
1.6370188e-05 6.299458e-05 -8.699941e-05 9.1362024e-05 -8.8162844e-05 9.485148e-05 8.196748e-05 -9.053206e-05
00000000: a002 c038 ce33 b838 cbe8 ad38 11f7 b7b8
00000010: dce8 c6b8 dd4d a4b8 57a1 c2b8 40cd aab8
00000020: d13f a738 db54 aab8 b88f a838 f454 b7b8
00000030: 6fab 99b8 9eae c238 52ca c2b8 84bb beb8
00000040: 94ca c038 0331 4db8 3345 8ab3 7583 ba38
00000050: 1bd2 c3b8 de47 c0b8 0092 bbb8 d571 b038
00000060: 9da5 c7b8 08cf 28b8 2d87 c7b8 ab1d b938
00000070: c2f4 bbb8 951e b4b8 27d2 b9b8 4a33 ab38
00000080: d1a9 bfb8 fe53 bd38 8677 c538 8637 8b38
00000090: 0c22 b538 394a bfb8 14e1 ca38 e482 b738
000000a0: b105 c738 6dc8 a038 99e3 b0b8 0198 a638
000000b0: b9c7 91b8 c1d3 9b38 2184 8c36 d5b0 b5b8
000000c0: e5ee c438 e634 a738 17c9 b838 346e bb38
000000d0: 0b76 a138 4f54 c8b8 5ac2 c138 a9f8 a3b8
000000e0: 68f7 c5b8 661a beb8 e075 ae38 053c 4938
000000f0: d0f8 99b7 38c0 8938 cbc4 a3b8 5903 c4b8
00000100: 8bf8 9638 5122 b038 b35d b938 5e11 c4b8
00000110: a7d1 ac38 e0f1 c238 1a69 2c38 d763 c6b8
00000120: fe9a bf38 6eb8 c6b8 a4bc bbb8 2d38 ba38
00000130: c600 b338 3416 bdb8 1d59 c838 f23b 9238
00000140: fd59 87b8 96cc 9ab8 0a94 acb8 0eff afb8
00000150: 722e c038 1c91 c1b8 d38f be38 f542 9cb8
00000160: 56d3 c238 d466 bfb8 77f2 bab8 1a2e c2b8
00000170: 64ee c6b8 1bd7 b638 d55d cab8 73ae c3b8
00000180: afd0 a1b8 ff4c a738 f510 c938 33b6 bcb8
00000190: f7fb a938 942e b4b8 9193 04b8 0a9c 8938
000001a0: 8408 cbb8 f821 b2b8 64e9 7538 f91f b9b8
000001b0: 2ccf 88b8 39f7 c5b8 fb53 bfb8 e629 c5b8
000001c0: 3ff8 4438 aba2 0838 ad73 a338 2801 a2b8
000001d0: be13 a538 8baf c638 d7bd 8e38 bf2c c238
000001e0: ad61 2db8 c760 9338 4b62 6bb8 a23a cb38
000001f0: e85f c538 661b c938 a0c5 c238 b481 cdb8
00000200: 3f4e a2b8 76ab b2b8 e203 c3b8 a0d4 bf38
00000210: 00d1 c7b8 173e c5b8 44e4 c038 1897 ab38
00000220: 8af9 a938 0cd7 c338 6534 beb8 ffe6 b0b8
00000230: 818d be38 fb2f acb8 908b bf38 62cc c6b8
00000240: dc8d bbb8 9037 b7b8 a4a7 c038 3fce b038
00000250: 43a2 0738 425f 5238 9c53 c5b8 8d0d c0b8
00000260: 45ab b2b8 8b28 bbb8 a594 ca38 5419 b8b8
00000270: 0da3 a7b8 6cef b738 6237 bc38 44d7 c0b8
00000280: e463 ca38 2bc7 b038 b9f4 a8b8 1418 59b8
00000290: 1d43 b8b8 56b7 c0b8 02c8 c338 444e 8238
000002a0: 779a 93b8 981e bcb8 22e6 c038 3cce be38
000002b0: be19 8e38 a02e bf38 ec26 5fb7 fafd b538
000002c0: 13c0 acb8 542c c0b8 6c1f c0b8 5ae3 a938
000002d0: a242 0c38 4f9e beb8 c43b bcb8 0306 c838
000002e0: 15d7 7eb8 2ecd 9838 7e84 8e38 9e48 b0b8
000002f0: 96af 3b38 8e23 abb8 539e ac38 3025 c638
00000300: 1d41 adb8 01d4 e6b7 9349 c6b8 5252 c4b8
00000310: df48 bf38 15d1 c8b8 6745 7fb8 c0e5 c938
00000320: cb15 9d38 729e bab8 73bb b7b8 4e5f c038
00000330: 6907 c7b8 c5db c0b8 239b c538 83cb c638
00000340: 21c2 adb8 a0be c438 5096 bb38 4857 c7b8
00000350: da4d acb7 2d42 c2b8 0296 c2b8 14f4 c6b8
00000360: f021 4638 1c76 c438 ba70 c3b8 2d91 c4b8
00000370: 43fa c3b8 5dda bd38 9567 9638 b044 9ab8
00000380: 5de0 1738 fe65 8138 196c b238 bf55 8fb8
00000390: 8dc7 c5b8 4ac3 a4b8 09d3 89b8 8947 b738
000003a0: 317f c238 7e49 c0b8 fea7 ba38 0b31 af38
000003b0: c8e4 c4b8 918d bb38 43c3 c7b8 9ec8 c9b8
000003c0: 30fe be38 0717 b038 13ef bbb8 6945 c6b8
000003d0: 157b 9bb8 5211 ecb7 3825 cbb8 f18f acb8
000003e0: b652 8937 f51b 8438 7473 b6b8 9d99 bf38
000003f0: 11e4 b8b8 00eb c638 f5e5 ab38 08dc bdb8
