results/qvpo_HalfCheetah-v3/actor_25_04_22_04_17_35_0.pth (torch, 667057 bytes, 24 tensors)

betas f4 [50]
00000000: 4f28 823b e992 013c 6ad0 413c 76e6 803c
00000010: 59c4 a03c fd81 c03c 851f e03c 109d ff3c
00000020: 5f7d 0f3d 581c 1f3d 84ab 2e3d f12a 3e3d
00000030: b09a 4d3d d1fa 5c3d 644b 6c3d 788c 7b3d
00000040: 0e5f 853d 31f0 8c3d ac79 943d 87fb 9b3d
00000050: c975 a33d 7be8 aa3d a353 b23d 4ab7 b93d
00000060: 7713 c13d 3268 c83d 82b5 cf3d 6efb d63d
00000070: ff39 de3d 3b71 e53d 2ba1 ec3d d5c9 f33d
00000080: 41eb fa3d bb02 013e 3d8c 043e 2c12 083e
00000090: 8a94 0b3e 5b13 0f3e a28e 123e 6406 163e
000000a0: a47a 193e 65eb 1c3e ab58 203e 7ac2 233e
000000b0: d428 273e be8b 2a3e 3aeb 2d3e 4d47 313e
000000c0: fa9f 343e 44f5 373e
0.0039720903 0.007908561 0.011829475 0.015734892 0.019624876 0.023499483 0.02735878 0.031202823
0.035031673 0.03884539 0.04264404 0.04642767 0.05019635 0.053950135 0.057689086 0.06141326
0.06512271 0.068817504 0.072497696 0.076163344 0.0798145 0.083451234 0.08707359 0.09068163
0.09427541 0.09785499 0.10142042 0.10497175 0.108509056 0.112032376 0.11554178 0.11903731
0.12251902 0.12598698 0.12944122 0.13288182 0.13630882 0.13972227 0.14312223 0.14650875
0.1498819 0.15324171 0.15658824 0.15992156 0.16324168 0.1665487 0.16984263 0.17312355
0.17639151 0.17964655

alphas_cumprod f4 [50]
00000000: affb 7e3f 72f7 7c3f 60f9 793f 720a 763f
00000010: 5836 713f 3e8b 6b3f 8719 653f 80f3 5d3f
00000020: 042d 563f 29db 4d3f db13 453f 7eed 3b3f
00000030: 937e 323f 58dd 283f 7c1f 1f3f c959 153f
00000040: e59f 0b3f 1704 023f 242e f13e a7cf de3e
00000050: 0f07 cd3e f3ea bb3e 1b8e ab3e 8bff 9b3e
00000060: 9a4a 8d3e 42ee 7e3e 5613 653e 7107 4d3e
00000070: 14c8 363e da4d 223e 1c8d 0f3e 2fed fc3d
00000080: 2ef0 dd3d 14fa c13d 47de a83d c26d 923d
00000090: 3ef0 7c3d e998 593d 4d74 3a3d 1a23 1f3d
000000a0: 0c49 073d a41b e53c 7c3b c13c 9154 a23c
000000b0: ced4 873c e06a 623c 4ff6 3b3c e66b 1b3c
000000c0: a701 003c 6405 d23b
0.9960279 0.9881507 0.9764614 0.9610969 0.94223547 0.9200934 0.89492077 0.86699677
0.8366244 0.80412537 0.7698342 0.7340926 0.69724387 0.65962744 0.62157416 0.58340126
0.54540855 0.5078749 0.47105515 0.435178 0.40044448 0.3670269 0.33506855 0.304684
0.2759598 0.24895576 0.22370657 0.2002237 0.17849761 0.1585001 0.14018673 0.12349927
0.10836826 0.09471527 0.08245521 0.07149841 0.06175255 0.053124342 0.04552107 0.038851835
0.033028647 0.027967282 0.023587935 0.019815715 0.016580965 0.013819426 0.011472299 0.009486174
0.007812894 0.006409334

alphas_cumprod_prev f4 [50]
00000000: 0000 803f affb 7e3f 72f7 7c3f 60f9 793f
00000010: 720a 763f 5836 713f 3e8b 6b3f 8719 653f
00000020: 80f3 5d3f 042d 563f 29db 4d3f db13 453f
00000030: 7eed 3b3f 937e 323f 58dd 283f 7c1f 1f3f
00000040: c959 153f e59f 0b3f 1704 023f 242e f13e
00000050: a7cf de3e 0f07 cd3e f3ea bb3e 1b8e ab3e
00000060: 8bff 9b3e 9a4a 8d3e 42ee 7e3e 5613 653e
00000070: 7107 4d3e 14c8 363e da4d 223e 1c8d 0f3e
00000080: 2fed fc3d 2ef0 dd3d 14fa c13d 47de a83d
00000090: c26d 923d 3ef0 7c3d e998 593d 4d74 3a3d
000000a0: 1a23 1f3d 0c49 073d a41b e53c 7c3b c13c
000000b0: 9154 a23c ced4 873c e06a 623c 4ff6 3b3c
000000c0: e66b 1b3c a701 003c
1.0 0.9960279 0.9881507 0.9764614 0.9610969 0.94223547 0.9200934 0.89492077
0.86699677 0.8366244 0.80412537 0.7698342 0.7340926 0.69724387 0.65962744 0.62157416
0.58340126 0.54540855 0.5078749 0.47105515 0.435178 0.40044448 0.3670269 0.33506855
0.304684 0.2759598 0.24895576 0.22370657 0.2002237 0.17849761 0.1585001 0.14018673
0.12349927 0.10836826 0.09471527 0.08245521 0.07149841 0.06175255 0.053124342 0.04552107
0.038851835 0.033028647 0.027967282 0.023587935 0.019815715 0.016580965 0.013819426 0.011472299
0.009486174 0.007812894

sqrt_alphas_cumprod f4 [50]
00000000: b77d 7f3f 917a 7e3f 18f8 7c3f 94f8 7a3f
00000010: 057f 783f 1d8f 753f 392d 723f 515e 6e3f
00000020: ed27 6a3f 1f90 653f 6b9d 603f b956 5b3f
00000030: 4dc3 553f abea 4f3f 91d4 493f dc88 433f
00000040: 810f 3d3f 7570 363f 9fb3 2f3f cee0 283f
00000050: a1ff 213f 8217 1b3f 952f 143f b04e 0d3f
00000060: 4a7b 063f fd76 ff3e f329 f23e f419 e53e
00000070: 9550 d83e 7bd6 cb3e 59b3 bf3e eeed b33e
00000080: 088c a83e 8492 9d3e 5805 933e 96e7 883e
00000090: f276 7e3e d504 6c3e 2c7a 5a3e dcd6 493e
000000a0: 7d19 3a3e 723f 2b3e 0845 1d3e 9125 103e
000000b0: 86db 033e 3bc1 f03d de5b db3d 1378 c73d
000000c0: 1e06 b53d 9df5 a33d
0.998012 0.9940577 0.9881606 0.9803555 0.97068816 0.959215 0.94600254 0.93112665
0.9146717 0.89673036 0.877402 0.85679203 0.8350113 0.8121745 0.78839976 0.76380706
0.7385178 0.71265346 0.68633455 0.65968025 0.63280684 0.60582745 0.57885104 0.5519819
0.52531874 0.49895468 0.4729763 0.44746363 0.4224898 0.39812073 0.3744152 0.35142463
0.32919335 0.30775845 0.28715014 0.26739186 0.24850062 0.23048718 0.21335667 0.19710869
0.18173786 0.16723421 0.15358365 0.1407683 0.1287671 0.11755606 0.10710882 0.09739699
0.088390574 0.080058314

sqrt_one_minus_alphas_cumprod f4 [50]
00000000: 1813 813d 11ef de3d e51a 1d3e f3f8 493e
00000010: 5a1c 763e 1cbb 903e 34f8 a53e 72b9 ba3e
00000020: faf2 ce3e 7d99 e23e 93a2 f53e 6e02 043f
00000030: 0edc 0c3f a85a 153f 577b 1d3f dc3b 253f
00000040: 999a 2c3f 9296 333f 6a2f 3a3f 5865 403f
00000050: 2939 463f 2fac 4b3f 3cc0 503f 9777 553f
00000060: f2d4 593f 57db 5d3f 248e 613f fcf0 643f
00000070: b607 683f 57d6 6a3f fd60 6d3f ddab 6f3f
00000080: 31bb 713f 2e93 733f fd37 753f b2ad 763f
00000090: 40f8 773f 781b 793f fe1a 7a3f 4afa 7a3f
000000a0: a1bc 7b3f 1265 7c3f 75f6 7c3f 6e73 7d3f
000000b0: 68de 7d3f 9739 7e3f fe86 7e3f 6bc8 7e3f
000000c0: 7cff 7e3f a42d 7f3f
0.0630247 0.10885442 0.1534229 0.19723873 0.24034253 0.28267753 0.32415926 0.3646961
0.4041975 0.44257727 0.47975597 0.5156621 0.55023277 0.58341455 0.61516327 0.64544463
0.674234 0.7015163 0.727286 0.7515464 0.7743097 0.79559606 0.81543326 0.83385605
0.85090554 0.8666281 0.88107514 0.8943021 0.90636766 0.91733307 0.9272612 0.9362162
0.94426256 0.95146453 0.95788556 0.9635879 0.96863174 0.9730754 0.97697437 0.9803816
0.983347 0.9859172 0.98813564 0.99004257 0.9916749 0.99306625 0.9942473 0.99524564
0.9960859 0.9967902

log_one_minus_alphas_cumprod f4 [50]
00000000: 1fe9 b0c0 84ef 8dc0 7cf1 6fc0 9fc9 4fc0
00000010: 047d 36c0 aeb8 21c0 d131 10c0 c91c 01c0
00000020: e5e5 e7bf 08ad d0bf bb06 bcbf ba8c a9bf
00000030: 1df0 98bf 8cf2 89bf a3c3 78bf 6829 60bf
00000040: b6d1 49bf 7d82 35bf fc09 23bf 183d 12bf
00000050: 0af6 02bf d126 eabe bbee d0be 1d0e babe
00000060: 3e54 a5be b194 92be aca6 81be 0dc9 64be
00000070: de56 49be 05b6 30be 3daa 1abe 3bfb 06be
00000080: efe8 eabd a9c9 cbbd 063d b0bd 58ed 97bd
00000090: f08a 82bd 2b97 5fbd ddd4 3ebd a34f 22bd
000000a0: eb91 09bd 685f e8bc 428c c3bc e2f5 a3bc
000000b0: 42f8 88bc 3dff 63bc 640c 3dbc ec29 1cbc
000000c0: 6f82 00bc 8ab2 d2bb
-5.528457 -4.4354877 -3.749114 -3.246681 -2.8513803 -2.526897 -2.2530406 -2.017382
-1.8117033 -1.6302805 -1.4689554 -1.3246071 -1.1948277 -1.0777144 -0.9717352 -0.8756318
-0.7883562 -0.70902234 -0.6368711 -0.5712447 -0.51156676 -0.4573274 -0.40807137 -0.36338893
-0.32290834 -0.28629068 -0.25322473 -0.2234232 -0.19662043 -0.17256935 -0.15104003 -0.13181774
-0.1147021 -0.09950573 -0.08605389 -0.074183166 -0.063741565 -0.054587524 -0.04658972 -0.03962673
-0.033586424 -0.028365806 -0.023870591 -0.020014707 -0.016719941 -0.013915834 -0.011538599 -0.009531479
-0.007843598 -0.006429975

sqrt_recip_alphas_cumprod f4 [50]
00000000: 4641 803f e1c3 803f 9a88 813f 9d90 823f
00000010: 7fdd 833f 4471 853f 634e 873f c777 893f
00000020: dff0 8b3f a4bd 8e3f 9fe2 913f fd64 953f
00000030: 954a 993f 029a 9d3f ac5a a23f e294 a73f
00000040: f451 ad3f 469c b33f 7a7f ba3f 8d08 c23f
00000050: ff45 ca3f 0248 d33f b020 dd3f 44e4 e73f
00000060: 5da9 f33f a744 0040 3750 0740 4407 0f40
00000070: a37b 1740 59c1 2040 e9ee 2a40 a91d 3640
00000080: 246a 4240 8ef4 4f40 42e1 5e40 5e59 6f40
00000090: b7c5 8040 1bd6 8a40 cdfb 9540 d358 a240
000000a0: ea13 b040 3159 bf40 045b d040 eb52 e340
000000b0: bd82 f840 f31a 0841 7b61 1541 b046 2441
000000c0: c803 3541 b4da 4741
1.001992 1.0059777 1.0119812 1.0200382 1.030197 1.0425191 1.0570797 1.0739678
1.0932883 1.1151624 1.1397284 1.1671444 1.1975886 1.2312624 1.2683921 1.309231
1.3540635 1.4032066 1.4570153 1.515886 1.5802611 1.650635 1.72756 1.8116536
1.903606 2.0041902 2.114271 2.2348185 2.3669212 2.511801 2.670832 2.8455603
3.0377283 3.2493014 3.4824986 3.7398295 4.024135 4.338636 4.6869874 5.073343
5.502431 5.9796376 6.5111103 7.103872 7.7659593 8.506579 9.336299 10.267258
11.313423 12.490894

sqrt_recipm1_alphas_cumprod f4 [50]
00000000: ba54 813d 3f44 e03d c8fc 1e3e 0d05 4e3e
00000010: eb8a 7d3e 7be2 963e 6971 af3e 3789 c83e
00000020: 4b41 e23e feb1 fc3e 87fa 0b3f fc12 1a3f
00000030: 1cb1 283f e7e4 373f a9bf 473f 4954 583f
00000040: 76b7 693f d3ff 7b3f 29a3 873f 3ad3 913f
00000050: 4d9f 9c3f 3518 a83f 9c50 b43f 415d c13f
00000060: 3f55 cf3f 5452 de3f 4371 ee3f 39d2 ff3f
00000070: 9c4c 0940 5377 1340 f07f 1e40 f47f 2a40
00000080: 1494 3740 b1dc 4540 537e 5540 46a2 6640
00000090: 4677 7940 2619 8740 b787 9240 7929 9f40
000000a0: 4425 ad40 57a7 bc40 2ee2 cd40 720f e140
000000b0: 1a71 f640 5c29 0741 7e85 1441 be7e 2341
000000c0: 674e 3441 7b36 4741
0.063149884 0.10950517 0.15526116 0.20119114 0.24760024 0.29469666 0.34266213 0.39167187
0.4419044 0.49354547 0.5467915 0.6018522 0.6589525 0.7183365 0.78026825 0.8450361
0.91295564 0.9843723 1.0596668 1.1392586 1.2236115 1.3132387 1.40871 1.5106584
1.619789 1.7368875 1.8628315 1.998603 2.1453009 2.304158 2.4765587 2.6640596
2.868413 3.091595 3.3358352 3.6036544 3.8979049 4.22182 4.5790668 4.9738126
5.410799 5.895427 6.43386 7.0331354 7.7013063 8.4475975 9.282591 10.218443
11.269141 12.450801

posterior_variance f4 [50]
00000000: 0000 0000 2abe 2d3b a221 c33b e0fb 1b3c
00000010: c28b 583c fd29 8b3c b66e aa3c 90f2 c93c
00000020: e4a0 e93c 23b6 043d 98a5 143d 489b 243d
00000030: 7994 343d de8e 443d 9288 543d d37f 643d
00000040: 1073 743d 6930 823d d323 8a3d 1b13 923d
00000050: 92fd 993d 95e2 a13d 80c1 a93d b399 b13d
00000060: 916a b93d 8933 c13d 07f4 c83d 7dab d03d
00000070: 7059 d83d 63fd df3d ec96 e73d a125 ef3d
00000080: 2ea9 f63d 4621 fe3d d8c6 023e 1c77 063e
00000090: 6021 0a3e 99c5 0d3e c463 113e e5fb 143e
000000a0: 078e 183e 381a 1c3e 8fa0 1f3e 2421 233e
000000b0: 119c 263e 7d11 2a3e 8381 2d3e 4eec 303e
000000c0: ff51 343e bdb2 373e
0.0 0.0026511052 0.005954937 0.009520501 0.013216915 0.016987795 0.020804744 0.024651796
0.028519101 0.03240026 0.036290735 0.04018715 0.044086907 0.04798781 0.051888056 0.055785965
0.059680045 0.0635689 0.06745114 0.0713255 0.07519068 0.07904545 0.0828886 0.08671894
0.09053529 0.09433658 0.098121695 0.10188959 0.10563934 0.109370016 0.11308083 0.11677099
0.12043987 0.1240869 0.12771165 0.13131374 0.13489294 0.13844909 0.14198214 0.14549215
0.14897929 0.15244377 0.15588592 0.15930611 0.16270472 0.16608234 0.16943936 0.17277643
0.17609404 0.17939277

posterior_log_variance_clipped f4 [50]
00000000: f134 38c2 53d9 bdc0 fff3 a3c0 17f0 94c0
00000010: b470 8ac0 8868 82c0 42d8 77c0 68fc 6cc0
00000020: dba8 63c0 627e 5bc0 813c 54c0 96b5 4dc0
00000030: 2cc8 47c0 115b 42c0 cb5a 3dc0 0ab8 38c0
00000040: 8666 34c0 425c 30c0 0791 2cc0 f9fd 28c0
00000050: 569d 25c0 346a 22c0 6260 1fc0 3d7c 1cc0
00000060: a0ba 19c0 c318 17c0 3994 14c0 da2a 12c0
00000070: b8da 0fc0 18a2 0dc0 6d7f 0bc0 4e71 09c0
00000080: 7376 07c0 b18d 05c0 f3b5 03c0 3dee 01c0
00000090: a435 00c0 9d16 fdbf e8dc f9bf afbc f6bf
000000a0: 91b4 f3bf 48c3 f0bf 9ee7 edbf 7220 ebbf
000000b0: bc6c e8bf 76cb e5bf ba3b e3bf a4bc e0bf
000000c0: 674d debf 3eed dbbf
-46.0517 -5.932779 -5.1235347 -4.654308 -4.3262577 -4.07526 -3.8725743 -3.7029057
-3.5571811 -3.4295888 -3.3161929 -3.2142081 -3.1215925 -3.0368083 -2.9586666 -2.8862329
-2.8187575 -2.755631 -2.6963518 -2.6405013 -2.587728 -2.5377321 -2.4902577 -2.445083
-2.4020157 -2.3608863 -2.3215468 -2.2838655 -2.2477245 -2.2130184 -2.1796525 -2.1475406
-2.1166046 -2.0867732 -2.0579803 -2.030166 -2.003274 -1.9772526 -1.952054 -1.9276332
-1.903948 -1.8809595 -1.8586309 -1.8369277 -1.8158183 -1.7952716 -1.7752602 -1.7557569
-1.7367371 -1.7181776

posterior_mean_coef1 f4 [50]
00000000: a0ff 7f3f b385 2a3f aec7 ff3e 31a2 cc3e
00000010: 8687 aa3e b128 923e ffbc 7f3e b042 633e
00000020: 9f72 4c3e bfbf 393e 2221 2a3e 31df 1c3e
00000030: b476 113e 4587 073e 1291 fd3d 2006 ee3d
00000040: 5a17 e03d 7f80 d33d dd0a c83d 2b8a bd3d
00000050: 2cda b33d fedc aa3d c979 a23d d39b 9a3d
00000060: b331 933d c62c 8c3d bb80 853d 5546 7e3d
00000070: c216 723d 1d64 663d 4a22 5b3d 4547 503d
00000080: ecca 453d b8a6 3b3d 8dd5 313d 8753 283d
00000090: c61d 1f3d 5432 163d f08f 0d3d f735 053d
000000a0: 7048 fa3c bdb5 ea3c a1b4 db3c 2d46 cd3c
000000b0: 846b bf3c c125 b23c be75 a53c 0b5c 993c
000000c0: c9d8 8d3c 9eeb 823c
0.9999943 0.6661026 0.4995703 0.39967492 0.3330652 0.2854667 0.2497444 0.22193408
0.199656 0.18139552 0.16614202 0.15319516 0.14205438 0.13235195 0.123811856 0.11622262
0.10941954 0.10327243 0.09767697 0.09254869 0.08781847 0.08342932 0.07933385 0.07549252
0.07187214 0.06844477 0.06518694 0.062078793 0.059103735 0.05624782 0.053499497 0.050849218
0.048289225 0.045813292 0.04341655 0.041095283 0.038846754 0.03666909 0.034561098 0.032522168
0.030552119 0.028651113 0.026819529 0.025057876 0.023366697 0.021746518 0.020197745 0.018720647
0.017315285 0.015981492

posterior_mean_coef2 f4 [50]
00000000: 0000 0000 d3f3 aa3e ff1a 003f caab 193f
00000010: cab5 2a3f 0fe0 363f d2fd 3f3f 8a12 473f
00000020: abb9 4c3f 3a56 513f 042a 553f 8e62 583f
00000030: 5120 5b3f fe7a 5d3f 6484 5f3f fd49 613f
00000040: 47d6 623f 8531 643f 3b62 653f b96d 663f
00000050: 4958 673f 7a25 683f 3ad8 683f 0673 693f
00000060: f5f7 693f d768 6a3f 3dc7 6a3f 7c14 6b3f
00000070: d251 6b3f 5480 6b3f 00a1 6b3f bab4 6b3f
00000080: 5fbc 6b3f b5b8 6b3f 7faa 6b3f 7092 6b3f
00000090: 3b71 6b3f 8247 6b3f ea15 6b3f 0ddd 6a3f
000000a0: 839d 6a3f dd57 6a3f a60c 6a3f 60bc 693f
000000b0: 8967 693f 9b0e 693f 04b2 683f 3252 683f
000000c0: 81ef 673f 4f8a 673f
0.0 0.33389148 0.5004119 0.60027754 0.6668364 0.71435636 0.74996674 0.77762663
0.79970807 0.81772196 0.83267236 0.8452538 0.85596186 0.86515796 0.8731139 0.8800352
0.8860821 0.8913806 0.8960301 0.90011173 0.9036909 0.90682185 0.90954936 0.91191137
0.9139398 0.9156622 0.91710263 0.9182813 0.9192172 0.9199269 0.9204254 0.9207264
0.92084306 0.92078716 0.9205703 0.9202032 0.9196965 0.9190599 0.91830313 0.91743547
0.91646594 0.9154032 0.9142555 0.9130306 0.9117361 0.9103791 0.9089663 0.9075042
0.9059983 0.9044542

model.time_mlp.1.weight f4 [256, 32]
00000000: e2e3 b8bd 3f4e e1bc 0cbb 1fbe 9e95 8c3b
00000010: fbb3 3a3d 0137 bebd 9f2b fbbc 627e 62bd
00000020: 4961 babd 7d5c ea3d c73a afbd c4c8 64bc
00000030: b8ec 203e cf76 ffba c4ce 08be ea9c d4bc
00000040: 21e7 88ba 1c91 21bb b326 aebd 83be 3e3e
00000050: 231a e9bd dbcb 85bc f665 5d3e c4e2 853d
00000060: 72b9 cb3d d65d 8e3d e231 97ba cac2 0abe
00000070: a93e d2bd 8ed1 963c d45c 303c 8c41 41bd
00000080: 5c49 a33d 60c4 f7bc 42d6 70bd d2cd ce3c
00000090: 4b63 ad3b 07b5 8e3c 4bf9 30bc cba8 e93d
000000a0: ac82 b2bd 3675 f33d 4a7f 2f3e ff88 4d3e
000000b0: 8267 183d 9e12 b73d fe91 453e e275 973c
000000c0: 5339 e7bd 7db1 143c 6b5a a0bd d046 c2bd
000000d0: cdc8 f0bd 4fd2 473c 3476 e9bc f073 5d3d
000000e0: fb29 213e 7e40 5dbe 1ecc 0bbc 78a1 95ba
000000f0: 08af 1d3e 0226 95bd aa26 36bd a5ac 3fbc
00000100: e0df b6bd abc3 ebbb 9380 843d 4916 6b3c
00000110: b367 cabd 583e 42be 5c94 4abd 3380 92bd
00000120: 9633 c3bd 56f2 babd d832 23bd 84b1 693c
00000130: c5d0 cd3d ea7d e0bb 54a4 033e 074a d5bd
00000140: bc68 ddbc 39b6 d93d 7082 a23d d9e5 d43d
00000150: 3abf 3ebd 318a ac3c e560 5ebc 5b70 883b
00000160: b11a 003c c996 70bd 4c00 653d a4de e6bd
00000170: 9983 bdbd 5688 26be 423d 373d fee9 4cbd
00000180: 5552 d53b 3fed d9bc d0ce 943c 51b3 ef3d
00000190: 9373 d4bd 3736 eabc aeb2 f0bd 1dfc 99bd
000001a0: 4df4 03be 58eb d63d f968 d23c b514 b53d
000001b0: efce a93d 9c80 463d 75ec 073e 3f77 dbbd
000001c0: 602b 713d d9e2 7c3d 39db bc3c e510 e5bc
000001d0: 7d57 d93d 6ef7 173b 3506 e43c e5bb 7fbc
000001e0: a208 07bd 6ccc a2bc d82c 6ebd 9834 76bd
000001f0: 82a3 8839 50d3 afbc 7722 6fbe 987a 6b3d
00000200: b76d 09bd 9ac9 debc 37e1 7f3a bf52 633d
00000210: 9054 e33d 559f 64bd 6e76 34be dfd4 27bd
00000220: e3be 8c3c a225 e1bc b72f bcbd cb08 2abe
00000230: c374 003d b0a6 06be 35aa 8dbc 3790 533d
00000240: 5581 5ebd d2b5 fb3c 4602 b33d fd6e d43d
00000250: 7c43 173d 5f5e 50bd fdb7 92bb 213d 1abd
00000260: 10ea 4bbc daea d3bd c0e8 f7bd 3543 09bc
00000270: 20c8 093d a8f7 f93d c32a b5bc 52fc d13d
00000280: 5e49 9d3c 500c 93bc 100a debd ee5d 973d
00000290: e1f0 3ebd ab7d be3c 26f7 8e3c 252f c4bd
000002a0: 46e8 3c3d 43fb 03bd 689e 8c3d 0b7d 87bb
000002b0: 3e68 adbc 6b5b 013e 1a58 2c3d 6c78 ec3d
000002c0: 6d77 b8bd 1030 83bd 698a 453e 051d 45bd
000002d0: c37d f5bb dbb8 3bbe 42e6 0b3c cc16 213d
000002e0: e13c 593d d30a 003d 953f 54be 7881 65bd
000002f0: 9a9f 843d 6454 49bd 8839 5c3d ae67 3c3d
00000300: 26db 133e 81c4 b2bd f55d 043e 3acf 013d
00000310: ed2c 5fbd 6db2 753d 315f d33c 7d6a f23d
00000320: 2433 f2bc 98f7 0abd 1629 29bc bdb2 a6bc
00000330: 34c6 bb3d 2d2f dcbb f146 ba3d 893b 9b3d
00000340: 82e3 96ba b61a da3c 6cdf e93c 68be 25be
00000350: 5d0a 19bd 837d 813c 72ad e53d 5602 6b3d
00000360: aa76 46bd 429b 1dbe 8617 c2bd eb93 3f3c
00000370: 7e45 e83c 9257 943d fa10 213c 1f63 9fbd
00000380: 5cdd 6ebd 4afc 59bd 80d8 79bd 2a0b 67bd
00000390: 3bb9 b83d 7f3c 413d 539f d4bc 3686 033e
000003a0: ac4b 943d 65a6 3ebd e282 8cbb cd53 a03d
000003b0: 3b6b a6bd 8928 ec3d 7c1c a2bd 5702 07bd
000003c0: 9760 f5bd 5027 0e3e 0407 3a3d 9561 683d
000003d0: 7b0e cc3c 7c07 783d 8420 dcbd 2dda 543c
000003e0: 25bc 8a3d 09a7 bfbd 93d4 48bd 1392 01be
000003f0: 934c f83d 63b1 783d b6df 02bd a9ea 2c3e
-0.0902784 -0.027503131 -0.15598696 0.0042902967 0.0455818 -0.09287835 -0.030660449 -0.05529631
-0.09100587 0.11443422 -0.08556133 -0.013963882 0.15715301 -0.0019490364 -0.13360125 -0.025953729
-0.0010444858 -0.0024653142 -0.08503475 0.18627362 -0.11381938 -0.016332557 0.21620926 0.06537393
0.0994748 0.069514915 -0.0011535252 -0.13550869 -0.10265858 0.01841047 0.010764319 -0.04718165
0.079729766 -0.030245006 -0.058798082 0.025244627 0.0052913777 0.017420305 -0.010801624 0.11409148
-0.0871633 0.118875906 0.171384 0.20071791 0.037208088 0.08939098 0.19293973 0.018488828
-0.112902306 0.00907552 -0.07829746 -0.09486163 -0.1175705 0.012196138 -0.028498746 0.054065645
0.1573867 -0.21606633 -0.008532552 -0.0011415919 0.153988 -0.0728264 -0.044470467 -0.0116988765
-0.089294195 -0.0071949563 0.06469836 0.014348575 -0.0988306 -0.18969095 -0.049457893 -0.07153358
-0.095313236 -0.09128253 -0.03984341 0.014263514 0.10049585 -0.0068509476 0.12855655 -0.1041451
-0.02702748 0.10630459 0.07935035 0.103954025 -0.046569087 0.021061989 -0.013572906 0.0041637844
0.007818864 -0.05873755 0.055908486 -0.11272934 -0.09253616 -0.16262946 0.044736154 -0.05002784
0.006510059 -0.026602386 0.018165022 0.11704124 -0.103736065 -0.028590305 -0.117528304 -0.0751879
-0.12886162 0.10494107 0.02568482 0.0884184 0.082914226 0.048462495 0.13273795 -0.10716104
0.058879256 0.061739776 0.023053752 -0.027962158 0.1061239 0.002318825 0.027834991 -0.015608762
-0.032967217 -0.019872867 -0.058148235 -0.06010875 0.00026061764 -0.021463066 -0.23352991 0.05748996
-0.033551898 -0.02719574 0.00097610377 0.055498835 0.111001134 -0.055816013 -0.17623302 -0.040974494
0.017180866 -0.027483765 -0.091887884 -0.16604917 0.031361353 -0.13149524 -0.017293075 0.051651206
-0.05432256 0.030726347 0.08740668 0.10372732 0.036929592 -0.05087125 -0.0044774995 -0.037655953
-0.012445942 -0.10347529 -0.121049404 -0.00837784 0.03363812 0.1220544 -0.022115117 0.102532044
0.019200023 -0.017950207 -0.10841763 0.073909625 -0.04661644 0.023253283 0.017451834 -0.095793046
0.04611995 -0.032222044 0.06866151 -0.0041347793 -0.02116787 0.1263253 0.042076208 0.11546406
-0.09007154 -0.064056516 0.1929108 -0.04812338 -0.0074917986 -0.18332236 0.008538784 0.03932838
0.053036574 0.031260323 -0.2072738 -0.056031674 0.06475754 -0.049152747 0.053765804 0.045997314
0.14439067 -0.087288864 0.12926467 0.031691767 -0.054486204 0.059984613 0.025802227 0.11836717
-0.029565401 -0.03392753 -0.010324737 -0.0203489 0.091686636 -0.006719491 0.09095562 0.07579715
-0.0011511894 0.026624065 0.028548919 -0.16185915 -0.0373634 0.015806919 0.11214723 0.057375275
-0.04845301 -0.15391257 -0.09477143 0.011692981 0.028353449 0.07243265 0.009830708 -0.07782578
-0.058316574 -0.053219117 -0.060997486 -0.05640713 0.09019705 0.047176834 -0.025954878 0.12844166
0.07240996 -0.046545405 -0.0042880634 0.07828484 -0.08125921 0.11531169 -0.07915589 -0.032961216
-0.11981314 0.13882184 0.045416847 0.056733686 0.024909249 0.060554013 -0.10748389 0.01299147
0.06774167 -0.09358031 -0.04903085 -0.12653379 0.121239804 0.060716044 -0.03195163 0.16886391

model.time_mlp.1.bias f4 [256]
00000000: c15e feb5 27ea a5b5 9bea 4ab3 599c 1bb4
00000010: 9674 bb35 024d 6935 2cb5 f7b5 dfc4 5eb5
00000020: 54c9 5eb4 2a41 3433 074f 9136 18f5 01b5
00000030: cce6 57b6 94e4 56b4 05cc 8c34 bddf 6d35
00000040: 2351 c534 e843 dbb5 614c 23b5 e9d3 b034
00000050: 35bb 8e36 bd84 e134 12dd 34b6 8e11 43b5
00000060: 084c 9535 ab9a 7f35 e6e0 3736 f0e9 9a35
00000070: a642 6836 6931 0fb6 07f6 b835 6b9f 6cb5
00000080: a7b0 f6b5 6e88 0136 f259 0cb6 fdcb d7b4
00000090: c2b0 99b4 b16f 20b6 711c 0cb6 35c7 82b5
000000a0: 3f4a 8536 c53f 50b5 0b79 9835 0f09 8ab6
000000b0: e3c2 23b6 c228 65b5 abd9 d435 6983 d9b5
000000c0: 835f 09b6 6763 b434 ac1e a235 bbf6 3fb5
000000d0: 192d 85b6 d8e0 0ab6 b856 8236 4b48 db33
000000e0: 7ff7 f234 1eb7 1535 e74a 9cb4 1d3c dc34
000000f0: ca00 9a35 8d13 30b5 29ba 8034 e6fa 9eb5
00000100: 5a16 6335 d8e5 1eb6 0778 71b6 20cf b7b4
00000110: 04e6 bc35 5ad0 7f35 d545 bd35 b495 3ab6
00000120: a3a1 27b6 9576 8fb5 0d6b 1f36 ef15 0d35
00000130: 05d3 2035 9bad 5436 c932 aa36 98db 2bb6
00000140: 74ae eb35 a040 71b5 bba5 90b5 409d e635
00000150: d94d 66b5 7301 f435 9ff1 3f35 b2e4 3d36
00000160: c3e5 20b6 b84f 0d35 4589 09b4 2d0b 8535
00000170: 6615 2bb5 73ca 25b5 8f18 0eb3 1ff5 0c36
00000180: 1dc2 4335 b570 1ab6 ee86 3a36 e450 3835
00000190: 6702 96b6 e413 6b35 6b3b 5736 ceb1 c0b5
000001a0: 42c2 0136 b998 2a36 2ee6 2b36 8380 a034
000001b0: bac5 93b5 cb06 c8b4 0707 3636 8987 dcb5
000001c0: 9f12 d335 ee06 9633 02a8 fbb4 c407 a7b5
000001d0: eedd 3136 c388 2035 7738 9cb6 f6aa f833
000001e0: 0e4e 5034 67c5 4bb5 d6bb 93b4 3695 5d36
000001f0: 41ca 85b3 7b21 3836 a037 e233 6de5 13b6
00000200: 98c2 6735 de77 f4b5 0565 7a35 5a8c acb3
00000210: 759c 37b6 b0cb e634 c8bc 94b5 10fd ceb5
00000220: 1043 02b6 6f01 d4b5 13e3 52b4 83be b8b5
00000230: 4f15 3036 4466 41b6 91ad 1eb6 273f 7636
00000240: 6723 3336 6361 2d35 758a 7eb6 3e79 5235
00000250: e771 0235 3c94 89b5 470d aab4 a9a4 4f35
00000260: bc62 9634 72af 5eb5 5a58 5435 58c3 a3b6
00000270: aad5 46b6 2299 8f35 2235 0eb5 7157 3635
00000280: 81dd 1734 4759 bab4 e8c0 5733 842f 9eb5
00000290: e6df 8d35 3ed0 1d35 ffb3 db35 e1b3 3935
000002a0: 8418 cf36 7a4d ec35 a404 a6b4 910a 9eb5
000002b0: d5df c035 aac9 45b6 7e61 aeb5 8b9f dcb5
000002c0: 4f41 0eb6 6816 d6b4 6323 4d36 fb4e 9eb4
000002d0: 9faa 86b3 5e75 ecb4 5e1c 5434 f07a 9f34
000002e0: 8f0f 9ab5 f2a0 0ab5 c842 beb5 99dd 01b6
000002f0: c911 5d34 4453 32b5 0e35 aeb6 ebb6 48b6
00000300: a0c1 d835 5f6b 92b5 fd2e b2b6 4407 a835
00000310: 2ced a9b5 c826 a734 29fe 1cb5 b32e 6035
00000320: 85bc f2b5 93e9 4934 7690 6a34 c562 c2b4
00000330: d599 54b4 4fb4 6f35 a295 5f36 3061 d7b3
00000340: 814a 9635 63b8 03b6 207a 0f36 27c3 e3b4
00000350: 17a8 eb34 9d1d e9b5 144b b435 4d39 d933
00000360: a828 2836 9361 d336 e5b8 6d32 b98e d6b5
00000370: dedf 5bb5 9a0c 2133 ac21 29b5 e532 37b3
00000380: 9727 aa35 84a2 0ab6 3465 f135 1338 cbb5
00000390: da50 07b5 6e43 6036 f66f bcb5 4699 31b6
000003a0: c9c7 d0b5 d044 00b6 7e8a d035 f021 55b5
000003b0: b5af d835 ab43 68b5 ea40 c3b5 d89f 27b5
000003c0: b438 d736 ec89 22b6 737c adb4 6208 9a34
000003d0: a118 2eb6 1fa1 7035 80b5 c335 f5f0 3435
000003e0: f4a2 2ab3 b164 3c35 2529 64b4 c199 f934
000003f0: 6211 11b6 ef01 abb4 c8f3 a734 120f f835
-1.8952052e-06 -1.2361605e-06 -4.7245162e-08 -1.4492379e-07 1.3966517e-06 8.6911325e-07 -1.8455662e-06 -8.298793e-07
-2.0748604e-07 4.1968782e-08 4.3305367e-06 -4.8412903e-07 -3.2171838e-06 -2.001346e-07 2.6225476e-07 8.861496e-07
3.6753144e-07 -1.6336535e-06 -6.083338e-07 3.293674e-07 4.2537235e-06 4.2006096e-07 -2.695077e-06 -7.2668706e-07
1.1123493e-06 9.5219974e-07 2.7400033e-06 1.1541979e-06 3.4609488e-06 -2.133742e-06 1.3780672e-06 -8.8148835e-07
-1.8379841e-06 1.930191e-06 -2.091398e-06 -4.0195292e-07 -2.862708e-07 -2.390687e-06 -2.087818e-06 -9.743732e-07
3.9723523e-06 -7.7578835e-07 1.1360111e-06 -4.113775e-06 -2.4402332e-06 -8.536846e-07 1.5858581e-06 -1.6206005e-06
-2.0470186e-06 3.3599937e-07 1.2078867e-06 -7.1512085e-07 -3.968959e-06 -2.0694479e-06 3.8843973e-06 1.0211132e-07
4.525609e-07 5.5773296e-07 -2.9111763e-07 4.1021931e-07 1.1474124e-06 -6.559356e-07 2.3977307e-07 -1.1844938e-06
8.4596616e-07 -2.3677621e-06 -3.5981664e-06 -3.423711e-07 1.4074035e-06 9.5298094e-07 1.4101921e-06 -2.7803299e-06
-2.4979024e-06 -1.0688842e-06 2.3755158e-06 5.255851e-07 5.991172e-07 3.1691513e-06 5.072307e-06 -2.5608806e-06
1.7559637e-06 -8.987354e-07 -1.077707e-06 1.7182101e-06 -8.579496e-07 1.8179838e-06 7.150465e-07 2.8296313e-06
-2.3975597e-06 5.26426e-07 -1.2809058e-07 9.912525e-07 -6.3733603e-07 -6.176189e-07 -3.3084287e-08 2.1004305e-06
7.292563e-07 -2.3013392e-06 2.77947e-06 6.8663053e-07 -4.470628e-06 8.7573267e-07 3.2072082e-06 -1.4356863e-06
1.933557e-06 2.542087e-06 2.5614968e-06 2.9895827e-07 -1.10099e-06 -3.7257846e-07 2.7124204e-06 -1.6430723e-06
1.5726145e-06 6.98618e-08 -4.6874635e-07 -1.244473e-06 2.6504235e-06 5.980366e-07 -4.6557357e-06 1.15794975e-07
1.9399906e-07 -7.591065e-07 -2.7517552e-07 3.3018418e-06 -6.230085e-08 2.7437625e-06 1.0534063e-07 -2.203825e-06
8.6337377e-07 -1.8214303e-06 9.327926e-07 -8.034904e-08 -2.7360195e-06 4.298904e-07 -1.1081802e-06 -1.5421847e-06
-1.9410545e-06 -1.5795648e-06 -1.9640383e-07 -1.3764515e-06 2.6238447e-06 -2.8818768e-06 -2.3644864e-06 3.6693616e-06
2.6693685e-06 6.458924e-07 -3.7929542e-06 7.8407527e-07 4.8594524e-07 -1.0250437e-06 -3.1674628e-07 7.735312e-07
2.8011516e-07 -8.295675e-07 7.910472e-07 -4.8805196e-06 -2.9628668e-06 1.0698898e-06 -5.297644e-07 6.792753e-07
1.4143554e-07 -3.4710158e-07 5.0234036e-08 -1.1785746e-06 1.0570482e-06 5.879009e-07 1.6369157e-06 6.917963e-07
6.1719347e-06 1.7605919e-06 -3.0923286e-07 -1.1774993e-06 1.4370258e-06 -2.9472671e-06 -1.2992384e-06 -1.643771e-06
-2.1197664e-06 -3.987691e-07 3.0567978e-06 -2.948726e-07 -6.270897e-08 -4.404382e-07 1.9754359e-07 2.9705507e-07
-1.1478422e-06 -5.164321e-07 -1.4175539e-06 -1.9351485e-06 2.0588699e-07 -6.6431335e-07 -5.1917805e-06 -2.9908795e-06
1.6149606e-06 -1.0909097e-06 -5.3102835e-06 1.251909e-06 -1.2660507e-06 3.113439e-07 -5.848438e-07 8.351446e-07
-1.8085271e-06 1.8804558e-07 2.1845503e-07 -3.620718e-07 -1.9800002e-07 8.929682e-07 3.3316687e-06 -1.0029396e-07
1.1197554e-06 -1.9627848e-06 2.1379747e-06 -4.2424037e-07 4.3894462e-07 -1.7368471e-06 1.3432896e-06 1.0115273e-07
2.5057616e-06 6.299649e-06 1.3837256e-08 -1.598578e-06 -8.190963e-07 3.7497195e-08 -6.3006405e-07 -4.2654296e-08
1.2677509e-06 -2.06582e-06 1.7985353e-06 -1.5140998e-06 -5.0409074e-07 3.341785e-06 -1.4039676e-06 -2.6464272e-06
-1.5555353e-06 -1.911354e-06 1.5537514e-06 -7.939807e-07 1.6144392e-06 -8.6525205e-07 -1.4547525e-06 -6.244495e-07
6.4141004e-06 -2.4220162e-06 -3.231431e-07 2.8690835e-07 -2.5942356e-06 8.964143e-07 1.4581456e-06 6.7405864e-07
-3.9729414e-08 7.0181983e-07 -2.1249123e-07 4.6491735e-07 -2.1616802e-06 -3.185264e-07 3.1283548e-07 1.8481826e-06

model.time_mlp.3.weight f4 [32, 256]
00000000: 0b97 8c3d eea3 723b 367a d5bc 5176 30bd
00000010: 7266 13bc 1bba 92bc 85ef 35bc 40d4 b4bc
00000020: 4d18 123b 6b60 6cbc 6067 1f3c 37f7 31bc
00000030: b45d 233c eda8 88bc 31b5 07bd 08e4 30bc
00000040: d06b 57bb 182d 9abd 62d3 003d f1aa d4bb
00000050: cd21 92bc 5db7 893c 671f 2fbc 3fd5 a33d
00000060: ed48 4ebb 7ca9 023c 0ee3 0bbd 5b8f 87bd
00000070: 5907 c13c e87b 3e3c 2544 c13b 9e11 6cbc
00000080: ebf7 5f3d 1387 d6bd e795 fbbc f01f 3c3b
00000090: 0686 733b 7d9e 153c c9ea 0cbd e524 953b
000000a0: c874 a0bc 44c9 463b b230 313a 5044 973c
000000b0: ce1f ddba ddd2 353d 8fcb a1bd c2aa 15bd
000000c0: 7cc0 85bc 093e 0dbc 2387 b4bb bd86 f4bc
000000d0: ee74 af3c d12f 99bb 7426 b93b 8d54 4cbc
000000e0: 356a 123c 46fc cebc 1fc8 a0bc 2bd4 c7bb
000000f0: 3098 a3bc 52c4 14bd e853 103d c0cf bb3c
00000100: 0297 803c 4984 9e3c 64e6 8c3b 2014 d83c
00000110: 236f f0bc d8d9 17bc a783 61bc af11 813d
00000120: 8240 d9bc 3ddf a53c b1e1 cbbd 36b4 e03b
00000130: 6dc2 8cbc e1a9 87bc 281f 34bd 1541 9e3c
00000140: 7ef5 21bc e302 7bbd 1528 fdbc ad3e 15bd
00000150: 16f4 2ebc 543d 3abd a7ac adbc c23c 9cba
00000160: 8d32 f9bc 0619 38bd c2ed b23c bf09 1ebd
00000170: 827c 25bd 6d18 593c 5bca b2bc 2030 03bd
00000180: 7037 8dbc 0a6e 2dbd edc1 38bd f16d b33c
00000190: 5760 8cbc 273f 143c 92a6 c4bc f3cf 22bc
000001a0: c688 613c ae7e 6a3a 4d7f ae3b f1ed 44bc
000001b0: 6fcf 473d bd98 023d 2fc8 8abc bae5 e83c
000001c0: 3e74 383b 0a86 2a3d 5d0c 483c 926e 4e3c
000001d0: ee63 b0bb 776d 2dbd d58c 17ba d041 e83b
000001e0: 863f 923c ff5a be3c 76a6 943c 12d4 033d
000001f0: 8a87 c8bc 2e15 16bd ac89 2ebd a512 1c3d
00000200: f7e5 7dbb d357 b43c 8c65 56bc 63c5 b0bb
00000210: 98da c0bc b465 853b f58c 0dbd 14c9 033c
00000220: 5489 4ebd 95b3 b6bc 5479 0ebd ef60 163d
00000230: afbe a1ba 73e7 82bc 8707 eaba cdc4 4cbb
00000240: a56e 6cbc 9825 8e3a 85cd 463d 0eef 473b
00000250: 1cbf fabc 6913 69bd ba7d 063d dee8 3cbd
00000260: 8146 5bbc 6381 89ba 70e4 c33c 1462 253c
00000270: b999 6c3d 1d25 e3bb 5039 263d 6eaf d4bc
00000280: ef1d 22bd 07d3 663d 3d77 d6bc 36ec 823d
00000290: aa46 613b 3f65 fbbb 73b2 5abb e8fd 313d
000002a0: 7e38 043c 7a1b 64bd 4f1c 94bd 8483 ed39
000002b0: 4433 03bb 7df5 c93c 38ea 983c 0258 fbbc
000002c0: c796 193c 9f1c f23b 9c5e fa3c b8f3 be3b
000002d0: 60c9 82ba 1de9 8dbb f501 9d3c 4a7d 083c
000002e0: 449d f53b 2a3e 723c 14b2 723d 826b 393c
000002f0: 82d5 f33c 858f b43d cffc 9bbc 6dce 3d3c
00000300: 247d b83c f2f6 38bc fd01 5cbc 1f9c 41bc
00000310: e50f 2ebc 48f9 f7bb ec2a 1e3c f9d7 653c
00000320: 6f38 2ebd 7e8e 3fbc 4701 583c bc2a 53bc
00000330: 023b f53b bf36 483d 81a2 d63b f074 b0bb
00000340: ad28 273c a446 5b3c f6ae 0fbd eea8 c8bb
00000350: d99a 6bbd 32f6 3dbc 5d00 323d 030a 5dbc
00000360: 3e7b 023d acd6 cd3b 9394 333d 1cac 1ebc
00000370: 6b00 bb3b ab08 593d 727a 433c 21ea 4fbd
00000380: 187c eb3c fba9 c7bc b49d 183d 9bb7 ecbb
00000390: 503c ddbb c578 ddbc 745d 5cbc e5c8 48bd
000003a0: 71af e0bc 0eb9 5d3c 329c f13c d7a7 fc3b
000003b0: 9f04 77bb c8d9 21bd 7f56 cc3c eceb 90bc
000003c0: b5cf 0a3d b95d 7f3d 6d65 3d3c caaa cc3a
000003d0: e3ca e63c 37d2 403d a361 69bb f282 763c
000003e0: 6d3d 61bc 099a 113d d5de 863a f6c8 a83c
000003f0: 3770 c03a 4a4a f53a ef32 493c c120 3bbd
0.06864747 0.003702398 -0.026059251 -0.043081585 -0.008996593 -0.017911008 -0.011104469 -0.022073865
0.0022292316 -0.014427285 0.009729236 -0.010862163 0.009971071 -0.016682113 -0.033131782 -0.010796554
-0.0032870658 -0.07528132 0.03145159 -0.0064901044 -0.017838383 0.016811067 -0.010688639 0.07999658
-0.0031476573 0.007974979 -0.034152083 -0.0661914 0.023563074 0.011626221 0.005898016 -0.014408497
0.054679792 -0.10474982 -0.030711127 0.002870556 0.0037158742 0.009132025 -0.034403596 0.0045515173
-0.019586936 0.0030332366 0.00067592703 0.018465191 -0.001687044 0.044390548 -0.07900154 -0.0365398
-0.016327135 -0.008620747 -0.0055092736 -0.029849404 0.021418061 -0.0046748896 0.005650336 -0.01247133
0.008936455 -0.025266778 -0.019626675 -0.0060982904 -0.01997003 -0.03632004 0.03523627 0.022926211
0.015697006 0.019350188 0.0042999256 0.026376784 -0.02934987 -0.009268247 -0.0137642985 0.06302201
-0.026520018 0.02024805 -0.099551566 0.0068574203 -0.017182553 -0.016560497 -0.043975025 0.019318143
-0.00988519 -0.06128205 -0.030902902 -0.036436725 -0.010678312 -0.045468643 -0.021200491 -0.0011919963
-0.030419612 -0.04494574 0.021841887 -0.038583513 -0.040401943 0.0132504525 -0.021825006 -0.032028317
-0.017238349 -0.04234127 -0.045106817 0.02190301 -0.017135782 0.00904826 -0.024005208 -0.009937274
0.0137655195 0.00089452683 0.005325234 -0.01201962 0.04878181 0.031883944 -0.016941158 0.028429855
0.0028145458 0.041631736 0.012209979 0.012599604 -0.0053830063 -0.042340722 -0.00057811785 0.0070879236
0.017852556 0.02323675 0.018145781 0.032184668 -0.024478693 -0.036641292 -0.042611763 0.03810372
-0.0038741806 0.022014534 -0.013085734 -0.005394624 -0.023541734 0.004070962 -0.034558255 0.008043546
-0.050423935 -0.022302428 -0.034783676 0.036713537 -0.0012340153 -0.015979504 -0.0017855027 -0.0031245232
-0.014430677 0.0010844944 0.048535842 0.0030507478 -0.030608706 -0.056903277 0.032834746 -0.046120517
-0.013383509 -0.0010490831 0.023912638 0.010094184 0.05776379 -0.0069319145 0.040582 -0.025962558
-0.03957933 0.056353595 -0.026179904 0.0639271 0.0034374394 -0.0076719816 -0.0033370524 0.043455034
0.008070109 -0.055690266 -0.07231962 0.0004530215 -0.002001957 0.02465319 0.018666372 -0.030681614
0.009374327 0.007388666 0.030562691 0.0058273934 -0.0009978227 -0.004330768 0.019165972 0.0083306525
0.007495554 0.014785329 0.05925186 0.011317136 0.029764894 0.08816437 -0.019041447 0.01158486
0.02252061 -0.011289345 -0.013428208 -0.011817007 -0.010623907 -0.0075675584 0.009653788 0.014028543
-0.042534288 -0.011691688 0.013183898 -0.012888607 0.007483841 0.048880335 0.0065501337 -0.005385034
0.010202569 0.013383541 -0.035078965 -0.0061236536 -0.05752072 -0.011594342 0.043457378 -0.0134911565
0.031855814 0.0062816944 0.043842863 -0.009684589 0.005706837 0.052986782 0.011931049 -0.050760392
0.028745696 -0.024373045 0.037259772 -0.007224036 -0.0067515746 -0.027035126 -0.013450015 -0.049019713
-0.027427407 0.01353289 0.029493425 0.0077104378 -0.0037691963 -0.039514333 0.024943588 -0.017690621
0.03388949 0.06234524 0.011559826 0.0015614864 0.028172916 0.047075476 -0.0035611175 0.015045868
-0.013747555 0.03554729 0.0010289798 0.020603638 0.001468188 0.0018714156 0.01228021 -0.045685533

model.time_mlp.3.bias f4 [32]
00000000: ab39 49b7 77c3 c937 79de 37b7 daa6 3637
00000010: 53e2 a2b7 a9a0 87b4 cfa4 bab7 1ab8 6636
00000020: c334 7336 f6e8 c237 fc00 a4b5 0f5c f5b4
00000030: 725b a236 c92f 45b7 ca40 4037 1104 c4b4
00000040: ac41 9137 597e b437 24d9 45b7 fe33 60b7
00000050: 0460 79b7 d12a d0b7 b17a 8eb5 0f40 e036
00000060: e6f7 1f37 66e3 03b8 ac7b ebb6 ff0b 6ab7
00000070: db96 b7b7 0c77 ddb6 e381 80b7 dd67 1fb7
-1.19939605e-05 2.4052088e-05 -1.0959448e-05 1.08868935e-05 -1.9417295e-05 -2.5262605e-07 -2.2249673e-05 3.4379832e-06
3.6240533e-06 2.3235083e-05 -1.2219239e-06 -4.5701788e-07 4.838622e-06 -1.1753241e-05 1.1459177e-05 -3.6510804e-07
1.7315928e-05 2.1516507e-05 -1.1792672e-05 -1.3363546e-05 -1.4863912e-05 -2.481547e-05 -1.0615532e-06 6.6831776e-06
9.534857e-06 -3.1444615e-05 -7.017943e-06 -1.395028e-05 -2.1885548e-05 -6.600172e-06 -1.5319272e-05 -9.501321e-06

model.layer.0.weight f4 [256, 55]
00000000: 357d 12bc 093e b4bd e166 10be 60a3 ce3d
00000010: 8eb6 05be 70f7 433c f399 f03b 6a79 eebc
00000020: 9c12 c4bb 6d19 d1bd 1e86 d63d f9ed 85bd
00000030: f769 93bd b4ad 123d 667b a13c 72ea 103e
00000040: dec5 0d3d 82b7 13be d35f 763d 7e6e 84bd
00000050: 7e00 423d ecc2 d93d 006b 073c 83fb a53b
00000060: 466c 7d3c 4582 b0bb e9c6 1abd 3722 e63d
00000070: 30e9 f03c c56f 98bc 8132 5cba 6802 aa3d
00000080: 510e d2bc f450 e1bb 4b76 433d 6002 393d
00000090: 97c4 b73d 2aed d83d 496a 15bd d4f8 583c
000000a0: 4f0e 32bd a38d adbb 6fff 0e3e e20e b1bd
000000b0: aa97 793d ae55 9fbc 6d87 383d 105f 6cbd
000000c0: d288 b7bd d54a 9abd b819 833d 8d1b 023e
000000d0: 0564 cd3d a396 0d3d 8190 53bd 9a72 dc3c
000000e0: 8765 843d e7eb a9bc 5206 f73c be6e a83d
000000f0: 7139 7e39 72dc f43a aec8 c0bd 12a9 b5bd
00000100: 7ad8 293c b8c6 56bc 3a60 dfbd 762f df3a
00000110: 0b1f 09bd 1cf7 aebd d693 14bd fd99 58bc
00000120: 63a0 1d3d b11f 363d 1bbc e63d 59e9 b53d
00000130: 5599 d0bc 6f76 883c 4edb 603d 9dea cfbd
00000140: 7cd1 56bd f58b 05bd b3e6 953d b7ea b4bd
00000150: c1c8 6a3d 0983 1b3d af14 a2bd 54be 803c
00000160: beb4 e0bc 17b0 8f3c 2404 833c bc59 c9bc
00000170: c58b 123b 47c5 bcbc e4a7 c93d 3874 c23d
00000180: ea58 8a3d 2798 773d 30fc f53d 991b 123d
00000190: 2554 abbd de97 8abb f7ea 5e3d 2393 abbd
000001a0: 2fbf 7e3c 3a12 42bd feaa 453d c547 99bc
000001b0: 0609 a5bb fb3f 9abd 5469 88bc 3946 5a3d
000001c0: f4a1 273d c5a0 063d 1bf5 673c 0bc4 be3c
000001d0: 26f0 16bd dd64 8fbd 3c54 e2bb 77f2 b0bd
000001e0: fab9 8fbc aa30 1bbd a837 aeba 2116 1fbd
000001f0: fa11 083d 77ad d1bd ef6d dbbd f90a b23a
00000200: 0d85 173c 03be ebbd b6e9 bc3d cb67 49bd
00000210: 24c5 d0bd fb39 60bd 546b 0cbe d129 253e
00000220: c890 c7bd f97a 58bd 4cf3 6cba 7c57 2ebd
00000230: ef52 fb3d 970c 0fbd 5266 89bc bc1c aa3d
00000240: e1ed 273d 635b dabd c76e b6bc 2e1d 52bd
00000250: 59d0 293d 89a2 46bd cd49 a53d 1c47 363b
00000260: b713 2dbd f284 82bd 0c38 8dbc bf61 bebd
00000270: 9c7b f33d 2e1a 5fbd f897 05bd 3d37 01ba
00000280: e390 3c3d b69b 2fbd 6ceb 14be 0140 17bd
00000290: 1918 c63c 980b 893d 62f2 b0bd 4cac bdbc
000002a0: a026 15be 9e58 d13d ab84 5abc 600c 11bb
000002b0: cd14 b7bd bb7a 92bc 8934 cc3d 6b29 33bd
000002c0: fb24 833c 6a46 e53a 6a99 ab3d 5cdb 99bd
000002d0: 13bf 533d c7b4 9e3d 0a2d 83bb f25e 90bc
000002e0: 83b5 f93d 2c9b 073d e514 0bbd 1d59 a9bc
000002f0: b5f6 a93b e894 333d 519c 69bd fff2 02bd
00000300: 2026 033d ab27 d33c 9f82 7f3c 9239 a33c
00000310: 5163 15bc 98da a5bd a74b ebbc e18f 993c
00000320: 4590 a7bd 97ee ccbc 6ec7 41bd c480 433d
00000330: 3ccd 4e3d 1f4a 39bd 470f b4bc ccba 37bd
00000340: 87ca c23d aa83 2e3c 49b0 153d 8bfb e73d
00000350: ca68 ab3d e995 b0bd e6a6 573d 9653 f23d
00000360: 4536 1ebc ccc0 00bd 8344 2d3c 6c4f 73bd
00000370: 5b61 94bd f06e 89bc 21f6 06bd b1f8 8dbc
00000380: dbd3 ccbb 8c44 d33d beba 17be 207f f43c
00000390: c001 e13c c9b4 133e 3c75 29bd db70 8d3d
000003a0: a15d a53c 03fd 9cbd 6d65 593d 70b9 843c
000003b0: c17e 75bd fc27 443d ba77 8c3d 64b4 89bd
000003c0: c1b4 7bbc 6d63 05bd 8688 20bd 3af5 113d
000003d0: aeba 0abe b339 84bc 51b1 53bc 7259 c13d
000003e0: 2188 a1bd d305 a3bd a547 f33c 9a6e c1bd
000003f0: 9130 28be 755d bd3d 6043 4eba 04aa 18bc
-0.0089409845 -0.08800895 -0.14101745 0.10089755 -0.1305792 0.011960849 0.007342571 -0.02911063
-0.0059836637 -0.10209928 0.104747996 -0.0653953 -0.071979456 0.035810187 0.019712161 0.14151934
0.03461253 -0.14425471 0.06014998 -0.06466387 0.04736375 0.106328815 0.008265257 0.005065383
0.015467709 -0.005386623 -0.03778735 0.11236995 0.029408067 -0.018607983 -0.00083998597 0.0830124
-0.025641592 -0.0068761054 0.047720235 0.04516828 0.089730434 0.105921105 -0.036478315 0.013242919
-0.043470677 -0.0052964254 0.13964628 -0.08645417 0.060935654 -0.019450035 0.045051027 -0.057707846
-0.08961643 -0.07533804 0.0640139 0.12705822 0.10028843 0.034567486 -0.05165148 0.026910115
0.06464677 -0.02074237 0.030154381 0.082242474 0.00024244726 0.001868142 -0.094132766 -0.08870138
0.010366553 -0.013108902 -0.10907026 0.0017027694 -0.03347687 -0.08543226 -0.0362738 -0.013220307
0.038483035 0.044463817 0.11266347 0.08882398 -0.02546374 0.016658036 0.054896645 -0.10152171
-0.052445874 -0.032604177 0.07319393 -0.08833831 0.05732036 0.03796676 -0.07914101 0.015715756
-0.027429935 0.01754002 0.015993185 -0.024578921 0.002236114 -0.023043288 0.09846476 0.09494823
0.0675524 0.06044784 0.120109916 0.03567085 -0.08365659 -0.0042295298 0.0544233 -0.083776735
0.015548511 -0.047380663 0.048258774 -0.01871098 -0.005036476 -0.075317346 -0.016651787 0.053289626
0.040925935 0.032868166 0.014157559 0.02328684 -0.036850117 -0.0700166 -0.006907014 -0.086399965
-0.017544735 -0.037888207 -0.0013291733 -0.038839463 0.03322027 -0.10238164 -0.107143275 0.0013583592
0.00924803 -0.11510851 0.09224264 -0.04917125 -0.101938516 -0.054742794 -0.13712817 0.16129233
-0.09744412 -0.05285165 -0.00090389396 -0.0425639 0.12271678 -0.034924116 -0.016772423 0.08306262
0.040998343 -0.10661962 -0.02226962 -0.05129736 0.04145846 -0.04849485 0.08070717 0.002781338
-0.04225513 -0.063730136 -0.01723864 -0.09295987 0.11888811 -0.054468326 -0.03261563 -0.00049291906
0.046036612 -0.042873107 -0.14542931 -0.036926273 0.024181413 0.066916645 -0.08639981 -0.023153447
-0.14565516 0.102219805 -0.013337295 -0.002213262 -0.08939514 -0.017880788 0.09970958 -0.04374067
0.016008845 0.0017492299 0.08378871 -0.075125426 0.051695894 0.07749324 -0.004003172 -0.017623398
0.12192824 0.033106968 -0.033955473 -0.020672375 0.0051868805 0.04384318 -0.05703384 -0.03197002
0.03201878 0.025775751 0.015595107 0.019924913 -0.009117917 -0.08098334 -0.028722597 0.018745365
-0.08181814 -0.025016112 -0.04730933 0.047730222 0.050488696 -0.045236703 -0.021979941 -0.044855878
0.09511285 0.010651508 0.03654507 0.11327275 0.08369596 -0.08622343 0.0526494 0.11832349
-0.009656494 -0.031433865 0.0105754165 -0.059401914 -0.072451316 -0.016776532 -0.03294957 -0.0173305
-0.006250841 0.10315809 -0.1481733 0.029845774 0.027466655 0.14424433 -0.04137157 0.06906291
0.020186247 -0.07665446 0.053075243 0.016201705 -0.059935335 0.047889695 0.068587735 -0.0672386
-0.015362919 -0.032565523 -0.0391927 0.035634257 -0.13547775 -0.016140794 -0.0129206935 0.094408885
-0.07887293 -0.07960095 0.029697249 -0.09444924 -0.16424777 0.09246341 -0.0007868316 -0.009317879

model.layer.0.bias f4 [256]
00000000: 79aa 2db5 8c13 bb37 a68f 29b7 5026 9e35
00000010: 147f 1eb7 4375 f1b6 0c07 00b7 01cb 96b7
00000020: 49d5 ce36 8999 bb37 db2a 30b6 fbbf 2937
00000030: 7cad 21b7 11a3 c833 f97d cdb7 0031 3537
00000040: 32fd 4a36 e547 30b7 68bf b137 226c 5a37
00000050: 2028 e2b6 6863 02b7 d351 bc37 f44e 43b7
00000060: 7383 d037 c320 b0b7 944c 35b7 2f08 0737
00000070: 75a0 f235 02d3 be36 4708 8337 14b7 1237
00000080: bcf0 4436 274b 0ab7 bfed 5436 3aa0 0a38
00000090: ea15 0e37 9ea4 3436 ff66 dd37 e2fe 2038
000000a0: b81a 2837 23af 5837 1a86 c9b7 3f26 54b5
000000b0: 6d2b 7d37 df9e 5c37 0b40 acb7 a14a 3cb7
000000c0: f5de c037 eae9 02b6 8808 1837 dd2c 0037
000000d0: 29d8 a7b7 ce67 cab7 4c7f 57b7 d6a7 26b7
000000e0: b5e5 6935 7750 8bb7 e5af 32b7 700c 9d37
000000f0: 9c9a 19b7 bf39 a0b7 05fc 27b7 858d 59b7
00000100: 4299 ba36 f2eb d9b6 2f24 d936 5829 a0b7
00000110: fd5d ed36 2003 9e37 fda7 04b7 7f4e 01b7
00000120: 0b2e 0f37 2716 3cb6 9dcd 8237 b884 f035
00000130: c060 9736 dc53 aeb7 8667 a5b7 bdb2 8e37
00000140: 06db 8536 b42e 3537 2486 82b7 19a4 d8b5
00000150: 6f07 ff37 04e1 6ab7 21b1 afb7 af35 7137
00000160: 2315 a437 95dc 7ab6 495b 9c37 dc71 47b7
00000170: 6c9b e2b6 8c6d 1f37 5fb0 33b7 6268 62b7
00000180: 4b3e 8bb5 306c 1335 ca5e 9137 fd4d a0b7
00000190: ba1a ecb6 7f51 2535 5d44 09b8 d4aa 1c36
000001a0: c42d a8b7 c52a 9835 61da 3937 d6cb 94b6
000001b0: e580 b736 8227 4e37 d8ce 5bb7 4491 4033
000001c0: ed3c ba36 e894 3137 79c4 85b7 2ff3 c537
000001d0: 0cfe 6a36 c38f c5b6 4923 d0b6 f3e2 0237
000001e0: 2f18 2ab7 1cd5 67b7 aace 71b5 f294 8db7
000001f0: ef49 ab37 21d0 95b6 481c c3b7 e412 00b8
00000200: 6314 ddb6 b1c2 1037 0358 d0b6 b802 54b7
00000210: 1d55 e635 3882 8b35 267d 8b37 b435 6f37
00000220: 6f06 82b7 a147 8a37 2bce 1cb6 9760 a9b7
00000230: db17 0038 2203 57b7 58bd 7537 85d6 50b7
00000240: 06b4 08b6 7a93 81b7 7750 1eb7 26e7 b337
00000250: 44a6 a937 9077 7437 6233 c936 0fd1 85b6
00000260: d4b5 28b7 3561 2c37 f0ad b0b6 92d1 55b6
00000270: 4e48 3a37 e9fc 6eb7 5cf1 de36 8b8d 9bb7
00000280: cf9e 9d37 e04a bab6 46f0 00b7 cdc0 8fb6
00000290: b6ff d7b6 0e70 29b7 5e4d 02b6 ccc3 29b7
000002a0: b219 b3b7 bdc7 86b7 37db 6e37 bd8d 9935
000002b0: 24b3 4fb6 21fb 9437 33a0 51b7 8298 2337
000002c0: babf 23b7 7b40 afb6 5b6c e536 942e 8736
000002d0: 11d5 9eb7 9581 86b6 50bc 9ab7 d6a5 2bb7
000002e0: 7176 9eb6 5f69 78b6 c08d 88b7 f407 3637
000002f0: 9dd2 08b7 de56 4ab7 3dfe 0fb7 d09f 76b7
00000300: 31e6 1a37 c8bf cf36 b208 36b7 c1ef b2b4
00000310: c3cc b737 059e e936 10f3 0937 fc73 4a36
00000320: edd3 c437 7f7a 6537 f293 a836 da4c 89b6
00000330: 52c6 6337 5ad9 bfb7 8086 8f37 4eed bf37
00000340: e96a 4eb7 f756 8b37 0e4b 8fb7 59d8 dfb6
00000350: 4f55 7eb7 eb18 e337 3abf 0337 43b5 53b7
00000360: 6552 0eb5 f07c 7637 7343 59b7 97a7 26b7
00000370: 2b83 07b8 2c15 d336 9a1a 92b6 1a31 9d36
00000380: 2d00 ffb6 6d34 8737 ec2f c834 5b5c 8c35
00000390: 92c4 31b6 c632 0637 9be0 f4b6 5ddc 59b7
000003a0: 421e 6e37 d9e9 6cb7 c514 6937 15df 1a37
000003b0: 4074 b235 c10f 1236 e064 aab7 97a1 ecb6
000003c0: f9a5 a1b6 06fe 9e37 f9ae 6836 d708 3436
000003d0: f698 c5b6 f95e a5b7 500e 86b7 5943 a137
000003e0: 22d5 7cb7 5f0c 1e37 c1e9 64b7 7b53 c137
000003f0: b82b 2337 21e1 a637 6850 f837 7110 8c35
-6.469559e-07 2.230124e-05 -1.0106631e-05 1.1783068e-06 -9.447122e-06 -7.1960108e-06 -7.631035e-06 -1.7975924e-05
6.164108e-06 2.2363633e-05 -2.625099e-06 1.0117884e-05 -9.63674e-06 9.342887e-08 -2.4496565e-05 1.0799849e-05
3.0247725e-06 -1.0507157e-05 2.1189175e-05 1.3018989e-05 -6.739996e-06 -7.771749e-06 2.2449449e-05 -1.1641288e-05
2.4856743e-05 -2.099609e-05 -1.080627e-05 8.048532e-06 1.8077104e-06 5.687006e-06 1.5620271e-05 8.744904e-06
2.9346402e-06 -8.242939e-06 3.1728848e-06 3.3050987e-05 8.468962e-06 2.691791e-06 2.6393214e-05 3.838435e-05
1.0019801e-05 1.29153805e-05 -2.4023513e-05 -7.903181e-07 1.5090086e-05 1.3150012e-05 -2.053382e-05 -1.1223049e-05
2.2992006e-05 -1.9507665e-06 9.061892e-06 7.63984e-06 -2.0008609e-05 -2.4128614e-05 -1.2844637e-05 -9.933448e-06
8.713353e-07 -1.660756e-05 -1.065058e-05 1.872165e-05 -9.155508e-06 -1.9100376e-05 -1.0012654e-05 -1.2967158e-05
5.5610735e-06 -6.4945716e-06 6.4713163e-06 -1.9092739e-05 7.074092e-06 1.8836523e-05 -7.906926e-06 -7.7072755e-06
8.534184e-06 -2.8027077e-06 1.5592954e-05 1.792002e-06 4.511414e-06 -2.0781466e-05 -1.971774e-05 1.701095e-05
3.9892066e-06 1.0799315e-05 -1.5559672e-05 -1.6141013e-06 3.040183e-05 -1.3999877e-05 -2.0944108e-05 1.4377219e-05
1.9560166e-05 -3.7381299e-06 1.8639157e-05 -1.1887834e-05 -6.7534183e-06 9.502644e-06 -1.0710296e-05 -1.3494953e-05
-1.0374437e-06 5.49192e-07 1.7329487e-05 -1.9109802e-05 -7.0364595e-06 6.158588e-07 -3.2727014e-05 2.3345247e-06
-2.0048472e-05 1.133733e-06 1.1077705e-05 -4.4344733e-06 5.4688303e-06 1.2287755e-05 -1.3101577e-05 4.4835602e-08
5.5503247e-06 1.0584692e-05 -1.5946325e-05 2.3597471e-05 3.5016592e-06 -5.8877936e-06 -6.202991e-06 7.801445e-06
-1.013842e-05 -1.3818291e-05 -9.008023e-07 -1.6877868e-05 2.0419217e-05 -4.4647754e-06 -2.3258981e-05 -3.053517e-05
-6.5886866e-06 8.628399e-06 -6.209129e-06 -1.2636818e-05 1.7161107e-06 1.0394206e-06 1.6628368e-05 1.4258014e-05
-1.5500204e-05 1.6484237e-05 -2.3365817e-06 -2.0191348e-05 3.0539795e-05 -1.2815728e-05 1.4647223e-05 -1.2447713e-05
-2.0370367e-06 -1.5446672e-05 -9.436269e-06 2.14461e-05 2.0223793e-05 1.4571371e-05 5.9962485e-06 -3.9880465e-06
-1.00559155e-05 1.0274632e-05 -5.2654577e-06 -3.186146e-06 1.1103299e-05 -1.4244791e-05 6.6442135e-06 -1.8543351e-05
1.878981e-05 -5.5519486e-06 -7.685338e-06 -4.284177e-06 -6.437268e-06 -1.0099275e-05 -1.9416543e-06 -1.01187725e-05
-2.1350428e-05 -1.6067055e-05 1.4236945e-05 1.144064e-06 -3.0949677e-06 1.7759916e-05 -1.249467e-05 9.751066e-06
-9.760197e-06 -5.222913e-06 6.837346e-06 4.028736e-06 -1.8934285e-05 -4.0085965e-06 -1.844592e-05 -1.0231006e-05
-4.7225553e-06 -3.7016214e-06 -1.627847e-05 1.0849897e-05 -8.155269e-06 -1.2060364e-05 -8.582659e-06 -1.4699952e-05
9.232711e-06 6.191407e-06 -1.085007e-05 -3.3329528e-07 2.191065e-05 6.962337e-06 8.222429e-06 3.0167857e-06
2.3463706e-05 1.36779845e-05 5.0240133e-06 -4.091865e-06 1.3576429e-05 -2.2870187e-05 1.710956e-05 2.2879478e-05
-1.2303449e-05 1.6610587e-05 -1.7081878e-05 -6.671104e-06 -1.5159442e-05 2.7072112e-05 7.852732e-06 -1.2618783e-05
-5.301902e-07 1.4691832e-05 -1.2949912e-05 -9.933391e-06 -3.2308668e-05 6.2907548e-06 -4.354236e-06 4.684681e-06
-7.5996127e-06 1.6117667e-05 3.728777e-07 1.0457692e-06 -2.6489474e-06 7.998844e-06 -7.297914e-06 -1.2985515e-05
1.419295e-05 -1.4121143e-05 1.3892718e-05 9.231056e-06 1.3295867e-06 2.1764865e-06 -2.0312553e-05 -7.0521596e-06
-4.8174957e-06 1.8953357e-05 3.4672541e-06 2.6827236e-06 -5.8888645e-06 -1.9713758e-05 -1.598071e-05 1.9224057e-05
-1.5069994e-05 9.420414e-06 -1.3644284e-05 2.3046267e-05 9.725736e-06 1.9893576e-05 2.9601346e-05 1.0435598e-06
