results/qvpo_HalfCheetah-v3/actor_25_04_16_01_48_39_0.pth (torch, 665521 bytes, 24 tensors)

betas f4 [20]
0.007992721 0.020074995 0.032253854 0.044680916 0.05752022 0.07095724 0.085210435 0.10054672
0.11730362 0.13592206 0.15699708 0.18135923 0.21021153 0.24537154 0.289725 0.34813723
0.42943394 0.5510237 0.7484761 0.999
00000000: e7f3 023c 5174 a43c 9e1c 043d 5603 373d
00000010: 529a 6b3d 0852 913d cf82 ae3d 70eb cd3d
00000020: e13c f03d 272f 0b3e d8c3 203e 3cb6 393e
00000030: b141 573e ad42 7b3e d656 943e 0b3f b23e
00000040: c4de db3e e40f 0d3f 219c 3f3f 77be 7f3f

alphas_cumprod f4 [20]
0.99200726 0.9720927 0.9407389 0.8987059 0.84701216 0.7869105 0.7198575 0.64747816
0.57152665 0.4938436 0.41631156 0.3408096 0.2691675 0.20312147 0.1442721 0.09404561
0.05365923 0.024091722 0.0060596443 6.059566e-06
00000000: 30f4 7d3f 11db 783f 44d4 703f 9711 663f
00000010: cad5 583f f772 493f 9548 383f 21c1 253f
00000020: 924f 123f 11d9 fc3e ca26 d53e 997e ae3e
00000030: 53d0 893e 13ff 4f3e 11bc 133e fc9a c03d
00000040: c8c9 5b3d 015c c53c fb8f c63b 4753 cb36

alphas_cumprod_prev f4 [20]
1.0 0.99200726 0.9720927 0.9407389 0.8987059 0.84701216 0.7869105 0.7198575
0.64747816 0.57152665 0.4938436 0.41631156 0.3408096 0.2691675 0.20312147 0.1442721
0.09404561 0.05365923 0.024091722 0.0060596443
00000000: 0000 803f 30f4 7d3f 11db 783f 44d4 703f
00000010: 9711 663f cad5 583f f772 493f 9548 383f
00000020: 21c1 253f 924f 123f 11d9 fc3e ca26 d53e
00000030: 997e ae3e 53d0 893e 13ff 4f3e 11bc 133e
00000040: fc9a c03d c8c9 5b3d 015c c53c fb8f c63b

sqrt_alphas_cumprod f4 [20]
0.99599564 0.9859476 0.969917 0.948001 0.9203327 0.8870797 0.84844416 0.80466026
0.75599384 0.7027401 0.6452221 0.58378905 0.51881355 0.45068997 0.37983167 0.30666855
0.23164463 0.15521508 0.07784372 0.0024616185
00000000: 92f9 7e3f 1067 7c3f 7b4c 783f 32b0 723f
00000010: ec9a 6b3f a817 633f a333 593f 37fe 4d3f
00000020: d088 413f c6e6 333f 472d 253f 3373 153f
00000030: f7d0 043f d6c0 e63e 4c79 c23e a903 9d3e
00000040: 4034 6d3e b4f0 1e3e 876c 9f3d 1b53 213b

sqrt_one_minus_alphas_cumprod f4 [20]
0.089402154 0.16705482 0.243436 0.31826735 0.39113662 0.46161622 0.5292849 0.59373546
0.65457875 0.71144676 0.76399505 0.8119054 0.8548874 0.8926805 0.9250556 0.9518164
0.9728005 0.9878807 0.9969656 0.99999696
00000000: 7a18 b73d 6b10 2b3e 4947 793e f0f3 a23e
00000010: 0f43 c83e f658 ec3e 377f 073f 0cff 173f
00000020: 7992 273f 6021 363f 2e95 433f 08d9 4f3f
00000030: e7d9 5a3f b686 643f 72d0 6c3f 3daa 733f
00000040: 7409 793f c0e5 7c3f 2339 7f3f cdff 7f3f

log_one_minus_alphas_cumprod f4 [20]
-4.8292212 -3.5788665 -2.8258026 -2.2897272 -1.8773968 -1.5460429 -1.2724569 -1.0426427
-0.8475267 -0.68090945 -0.53838795 -0.41674283 -0.31357104 -0.22705303 -0.15580282 -0.09876635
-0.05515252 -0.024386672 -0.0060780807 -6.0796924e-06
00000000: fb88 9ac0 260c 65c0 f3d9 34c0 e48a 12c0
00000010: 8a4e f0bf bce4 c5bf dedf a2bf 5175 85bf
00000020: 83f7 58bf 1550 2ebf cbd3 09bf 515f d5be
00000030: 628c a0be 9780 68be c68a 1fbe 0346 cabd
00000040: 9ce7 61bd 8fc6 c7bc a32a c7bb 2900 ccb6

sqrt_recip_alphas_cumprod f4 [20]
1.0040205 1.0142527 1.0310161 1.0548512 1.0865636 1.1272943 1.178628 1.2427605
1.3227621 1.4230013 1.5498539 1.7129476 1.9274746 2.21882 2.632745 3.2608495
4.3169575 6.4426727 12.8462515 406.2368
00000000: be83 803f 08d3 813f 56f8 833f 5d05 873f
00000010: 8414 8b3f 2e4b 903f 48dd 963f c712 9f3f
00000020: 4550 a93f e824 b63f 9d61 c63f de41 db3f
00000030: 7db7 f63f 2601 0e40 e57e 2840 c2b1 5040
00000040: 8424 8a40 602a ce40 3f8a 4d41 4f1e cb43

sqrt_recipm1_alphas_cumprod f4 [20]
0.08976144 0.16943571 0.25098655 0.33572468 0.42499477 0.5203774 0.62382996 0.737871
0.865852 1.0123895 1.1840807 1.3907515 1.6477739 1.9806975 2.4354358 3.1037297
4.199538 6.364592 12.807271 406.23553
00000000: d9d4 b73d 8e80 2d3e 4f81 803e 1be4 ab3e
00000010: ea98 d93e 7437 053f 52b3 1f3f 1de5 3c3f
00000020: 7aa8 5d3f fb95 813f f58f 973f 2504 b23f
00000030: 41ea d23f 7f87 fd3f 2ede 1b40 82a3 4640
00000040: 9e62 8640 bdaa cb40 95ea 4c41 261e cb43

posterior_variance f4 [20]
0.0 0.0057495437 0.01518903 0.026140116 0.03808446 0.050943825 0.06481505 0.07990259
0.09651028 0.11506122 0.13614298 0.1605868 0.18960492 0.2250349 0.26980028 0.32883638
0.41110724 0.5343292 0.73489726 0.99295247
00000000: 0000 0000 ab66 bc3b 69db 783c cc23 d63c
00000010: 73fe 1b3d 79aa 503d c1bd 843d f8a3 a33d
00000020: 2fa7 c53d 38a5 eb3d 1169 0b3e de70 243e
00000030: cb27 423e 8c6f 663e 4323 8a3e 3e5d a83e
00000040: a67c d23e ccc9 083f 3a22 3c3f 2232 7e3f

posterior_log_variance_clipped f4 [20]
-46.0517 -5.1586347 -4.187182 -3.644284 -3.267949 -2.9770317 -2.7362175 -2.526947
-2.3381057 -2.1622908 -1.9940495 -1.8289206 -1.6628127 -1.4914998 -1.3100733 -1.112195
-0.8889012 -0.6267432 -0.3080246 -0.007072485
00000000: f134 38c2 8913 a5c0 65fd 85c0 f33b 69c0
00000010: 1426 51c0 b087 3ec0 301e 2fc0 80b9 21c0
00000020: 86a3 15c0 f962 0ac0 043d ffbf 121a eabf
00000030: 0cd7 d4bf 77e9 bebf 7bb0 a7bf 685c 8ebf
00000040: 078f 63bf 3e72 20bf 66b5 9dbe 4ec0 e7bb

posterior_mean_coef1 f4 [20]
0.9999971 0.7164648 0.53661877 0.42783123 0.3564285 0.306464 0.26982144 0.2419943
0.22029272 0.20301281 0.1890189 0.1775162 0.16791697 0.15975092 0.15259075 0.1459605
0.13916118 0.13079269 0.11688305 0.077766344
00000000: cfff 7f3f 3d6a 373f d95f 093f b20c db3e
00000010: cc7d b63e d9e8 9c3e 0926 8a3e 5bcd 773e
00000020: 6a94 613e 97e2 4f3e 2c8e 413e cfc6 353e
00000030: 6df2 2b3e bf95 233e c040 1c3e ab76 153e
00000040: 4580 0e3e 85ee 053e 6160 ef3d f643 9f3d

posterior_mean_coef2 f4 [20]
0.0 0.2835139 0.46326464 0.57182044 0.6427814 0.69201046 0.7275179 0.7536718
0.7729793 0.7868927 0.79619277 0.8011557 0.80158293 0.7966954 0.78481936 0.7626187
0.72312224 0.64975595 0.49242297 0.031431142
00000000: 0000 0000 bc28 913e 0631 ed3e d362 123f
00000010: 528d 243f 9927 313f 9d3e 3a3f a3f0 403f
00000020: f9e1 453f cd71 493f 4ad3 4b3f 8a18 4d3f
00000030: 8a34 4d3f 3bf4 4b3f ece9 483f fb3a 433f
00000040: 8a1e 393f 6856 263f dd1e fc3e f1bd 003d

model.time_mlp.1.weight f4 [256, 32]
-0.090277016 -0.027504241 -0.15598859 0.0042901663 0.0455816 -0.09287662 -0.03065892 -0.055295363
-0.09100534 0.11443451 -0.08556116 -0.013963795 0.15715306 -0.001949011 -0.13360123 -0.025953721
-0.0010446949 -0.0024617566 -0.0850306 0.18627325 -0.1138211 -0.016333133 0.21621014 0.06537538
0.099476434 0.0695166 -0.0011518204 -0.13550697 -0.10265687 0.01841218 0.010766031 -0.047179937
0.079731666 -0.030247314 -0.058798563 0.025244467 0.0052914526 0.017420962 -0.010801166 0.11409174
-0.08716315 0.11887598 0.17138405 0.20071794 0.0372081 0.089390986 0.19293973 0.01848883
-0.11290187 0.00907461 -0.07829867 -0.094859675 -0.11757085 0.012196521 -0.028497964 0.054066554
0.15738764 -0.21606538 -0.008531594 -0.0011406332 0.15398896 -0.07282544 -0.044469506 -0.011697917
-0.089294866 -0.007195563 0.06469868 0.014348393 -0.09883025 -0.18969065 -0.049457733 -0.07153349
-0.09531319 -0.0912825 -0.039843395 0.014263522 0.10049585 -0.0068509453 0.12855655 -0.1041451
-0.027027424 0.10630478 0.079350576 0.10395359 -0.046569437 0.021061976 -0.013572823 0.00416389
0.0078189755 -0.058737434 0.0559086 -0.11272923 -0.09253605 -0.16262934 0.04473627 -0.050027724
0.006510483 -0.02660165 0.018164048 0.117041335 -0.103735805 -0.028590383 -0.117528416 -0.07518798
-0.12886167 0.10494105 0.025684807 0.088418394 0.082914226 0.048462495 0.13273795 -0.10716104
0.058879808 0.06173953 0.023052307 -0.027962198 0.10612422 0.0023191336 0.027835147 -0.015608671
-0.032967146 -0.019872803 -0.058148175 -0.06010869 0.00026067847 -0.021463005 -0.23352985 0.05749002
-0.033552688 -0.027195774 0.00097569294 0.055498518 0.110999145 -0.0558167 -0.17623316 -0.040974524
0.01718086 -0.027483769 -0.091887884 -0.16604917 0.031361353 -0.13149524 -0.017293075 0.051651206
-0.054322686 0.030726807 0.08740729 0.10372796 0.036928654 -0.050873067 -0.0044790977 -0.03765741
-0.012447347 -0.10347667 -0.12105079 -0.008379224 0.033636738 0.12205302 -0.0221165 0.102530666
0.019200966 -0.017949525 -0.10841782 0.07390889 -0.046616357 0.02325259 0.017451188 -0.095793456
0.04611972 -0.032222167 0.068661444 -0.004134816 -0.021167891 0.12632528 0.0420762 0.11546406
-0.09007157 -0.064056344 0.19291006 -0.048123185 -0.0074914484 -0.18332224 0.008538312 0.03932766
0.05303577 0.031259492 -0.20727463 -0.056032512 0.0647567 -0.049153585 0.053764965 0.045996476
0.1443901 -0.08728816 0.12926558 0.031691927 -0.054485947 0.05998598 0.025803344 0.11836785
-0.029565021 -0.03392732 -0.010324623 -0.02034884 0.091686666 -0.006719473 0.09095563 0.075797155
-0.001149948 0.026621561 0.028548216 -0.1618582 -0.037363786 0.015807446 0.11214872 0.05737713
-0.048451036 -0.15391056 -0.09476941 0.011695003 0.028355472 0.07243468 0.009832731 -0.07782375
-0.0583169 -0.053219058 -0.060996976 -0.05640732 0.09019708 0.04717741 -0.025954407 0.12844194
0.07241012 -0.04654532 -0.004288016 0.07828487 -0.081259206 0.1153117 -0.07915589 -0.032961216
-0.11981341 0.13882306 0.045417804 0.056734655 0.024909373 0.06055457 -0.10748291 0.012992611
0.06774286 -0.093579106 -0.04902964 -0.12653257 0.12124101 0.06071726 -0.031950414 0.16886513
00000000: 28e3 b8bd 9350 e1bc 79bb 1fbe 8694 8c3b
00000010: c6b3 3a3d 1936 bebd 6a28 fbbc 647d 62bd
00000020: 0261 babd a45c ea3d b13a afbd 67c8 64bc
00000030: bbec 203e f575 ffba c3ce 08be e69c d4bc
00000040: 25ee 88ba 6c55 21bb 8624 aebd 6abe 3e3e
00000050: 091b e9bd 10cd 85bc 3166 5d3e 87e3 853d
00000060: 4dba cb3d b85e 8e3d aef8 96ba 57c2 0abe
00000070: c43d d2bd 24d5 963c 0264 303c c03f 41bd
00000080: 5b4a a33d 37c9 f7bc c3d6 70bd 7ccd ce3c
00000090: ec63 ad3b 68b6 8e3c 60f7 30bc eea8 e93d
000000a0: 9882 b2bd 4075 f33d 4d7f 2f3e 0189 4d3e
000000b0: 8567 183d 9f12 b73d fe91 453e e375 973c
000000c0: 1839 e7bd acad 143c 0e5b a0bd ca45 c2bd
000000d0: fcc8 f0bd ebd3 473c 9074 e9bc e474 5d3d
000000e0: 3a2a 213e 3e40 5dbe 19c8 0bbc 4d81 95ba
000000f0: 48af 1d3e 8125 95bd a825 36bd 9fa8 3fbc
00000100: 3ae0 b6bd c2c8 ebbb be80 843d 8615 6b3c
00000110: 8467 cabd 443e 42be 3194 4abd 2780 92bd
00000120: 9033 c3bd 52f2 babd d432 23bd 8cb1 693c
00000130: c5d0 cd3d e57d e0bb 54a4 033e 074a d5bd
00000140: 9e68 ddbc 52b6 d93d 8e82 a23d 9fe5 d43d
00000150: 98bf 3ebd 2a8a ac3c 8c60 5ebc 3e71 883b
00000160: 291b 003c aa96 70bd 6b00 653d 95de e6bd
00000170: 8a83 bdbd 4e88 26be 613d 373d dfe9 4cbd
00000180: e455 d53b b4eb d9bc c5cc 943c 5eb3 ef3d
00000190: 7073 d4bd 6136 eabc bdb2 f0bd 28fc 99bd
000001a0: 50f4 03be 55eb d63d f268 d23c b414 b53d
000001b0: efce a93d 9c80 463d 75ec 073e 3f77 dbbd
000001c0: f42b 713d 97e2 7c3d 31d8 bc3c fb10 e5bc
000001d0: a857 d93d 9bfc 173b 8906 e43c 83bb 7fbc
000001e0: 8f08 07bd 4acc a2bc c82c 6ebd 8834 76bd
000001f0: acab 8839 2fd3 afbc 7322 6fbe a87a 6b3d
00000200: 8b6e 09bd acc9 debc a5c5 7f3a 6a52 633d
00000210: 8553 e33d 0da0 64bd 7776 34be e7d4 27bd
00000220: e0be 8c3c a425 e1bc b72f bcbd cb08 2abe
00000230: c374 003d b0a6 06be 35aa 8dbc 3790 533d
00000240: 7781 5ebd c9b6 fb3c 9802 b33d 536f d43d
00000250: 8042 173d 4760 50bd 65c5 92bb a83e 1abd
00000260: f5ef 4bbc 94eb d3bd 7ae9 f7bd 0349 09bc
00000270: adc6 093d eff6 f93d aa2d b5bc 99fb d13d
00000280: 584b 9d3c e20a 93bc 290a debd 8b5d 973d
00000290: cbf0 3ebd 377c be3c cbf5 8e3c 5c2f c4bd
000002a0: 08e8 3c3d 64fb 03bd 5f9e 8c3d 5a7d 87bb
000002b0: 4968 adbc 6a5b 013e 1858 2c3d 6c78 ec3d
000002c0: 7177 b8bd f92f 83bd 378a 453e d11c 45bd
000002d0: d37a f5bb d3b8 3bbe 47e4 0b3c 0a16 213d
000002e0: 093c 593d f409 003d cd3f 54be 5982 65bd
000002f0: 299f 843d 4555 49bd a738 5c3d cd66 3c3d
00000300: 00db 133e 23c4 b2bd 325e 043e 65cf 013d
00000310: a82c 5fbd dcb3 753d 8961 d33c d86a f23d
00000320: 5832 f2bc 60f7 0abd 9c28 29bc 9cb2 a6bc
00000330: 38c6 bb3d 062f dcbb f246 ba3d 8a3b 9b3d
00000340: dab9 96ba 7615 da3c f3dd e93c 28be 25be
00000350: c50a 19bd 9e7e 813c 3aae e53d 4804 6b3d
00000360: 9874 46bd bb9a 1dbe 7716 c2bd 669c 3f3c
00000370: bc49 e83c a258 943d 7719 213c 0f62 9fbd
00000380: b4dd 6ebd 3afc 59bd f7d7 79bd 5d0b 67bd
00000390: 3fb9 b83d 1a3d 413d 569e d4bc 4986 033e
000003a0: c24b 943d 4ea6 3ebd 7c82 8cbb d153 a03d
000003b0: 3a6b a6bd 8a28 ec3d 7c1c a2bd 5702 07bd
000003c0: bc60 f5bd a227 0e3e 0508 3a3d 9962 683d
000003d0: be0e cc3c 1208 783d 0020 dcbd f6de 543c
000003e0: c5bc 8a3d 67a6 bfbd 4ed3 48bd c191 01be
000003f0: 354d f83d a9b2 783d 70de 02bd fbea 2c3e

model.time_mlp.1.bias f4 [256]
-1.8375934e-07 -2.7705923e-07 6.7472754e-08 -8.417007e-08 1.3266289e-08 3.0947387e-08 1.7786623e-07 3.826569e-07
-1.1090367e-07 1.7149977e-08 -9.4605525e-08 -3.5214818e-08 -2.457955e-07 1.0247685e-07 3.537707e-07 1.4310612e-07
2.2607994e-08 9.9212386e-08 -7.134747e-08 -4.1033683e-08 2.9524526e-07 2.752488e-07 -2.9093454e-07 1.7286452e-07
-2.0662706e-07 8.983161e-08 4.3976886e-08 -1.7651648e-07 -5.1769486e-08 -3.1119794e-07 -3.5136107e-08 -8.8665885e-08
-3.223556e-07 3.6564543e-07 2.1670189e-07 -6.293924e-08 4.3512582e-08 -1.5350344e-07 2.8075112e-07 2.0163817e-07
2.5540263e-07 -3.4493902e-07 -4.2831175e-08 -2.0990844e-07 6.1428366e-08 -1.5580305e-07 1.4385854e-07 -1.5686906e-07
8.485788e-08 -5.7126666e-08 1.0039544e-08 -6.082552e-08 2.8404583e-07 4.826867e-07 1.36751e-07 -1.638635e-07
-6.6431106e-08 -1.7402957e-07 -2.2439355e-07 -2.3793591e-08 1.1683315e-07 -1.270123e-08 -1.03865055e-07 -1.4166208e-07
-1.0115594e-07 -1.2479245e-07 1.756254e-07 -3.5256792e-07 -2.7037538e-07 1.9292091e-07 -9.363283e-08 1.8564037e-07
-8.863137e-09 -1.4294682e-07 2.3684593e-07 6.1172955e-08 1.0812144e-08 4.2063956e-08 2.4327713e-07 1.000836e-07
1.6387168e-07 -1.0553272e-08 1.0485694e-07 1.4061183e-07 -3.105401e-07 2.810742e-07 5.5511127e-11 1.9010464e-07
-1.6634586e-07 -1.889783e-07 -3.5433888e-07 5.319835e-09 -8.1903785e-08 5.46962e-08 -3.5588545e-07 1.2473221e-07
2.4765427e-07 2.5005008e-07 1.8575733e-07 1.9699119e-08 -2.1579562e-07 -1.100243e-07 3.9196366e-09 1.02476584e-07
-8.9326335e-08 4.52229e-07 8.828097e-09 2.1603402e-07 -4.498273e-08 -2.583609e-07 7.223948e-10 3.5900257e-07
-7.4165555e-08 -6.5360425e-08 -4.65677e-08 -2.2239064e-07 1.6251339e-07 -4.1417817e-08 -2.7644825e-07 -1.04813594e-07
9.353993e-08 2.5355126e-08 -1.690818e-08 1.8391885e-08 9.78413e-08 4.548241e-07 2.5156254e-08 2.6712462e-07
-4.700442e-07 -4.0048894e-07 1.0187117e-07 1.3404576e-07 2.5376679e-07 1.9024601e-07 -1.8112345e-07 -1.0825483e-07
-4.871797e-07 2.3140974e-07 5.718247e-08 6.2029227e-07 1.3237991e-07 2.075214e-08 1.1922069e-07 -7.2894345e-08
1.1509283e-07 5.8957898e-08 -3.6348888e-07 -8.72974e-08 4.896002e-07 4.4290812e-07 8.22832e-08 3.97219e-07
8.0714244e-08 4.136662e-07 -7.51628e-08 -4.4391896e-08 2.1499827e-07 -2.1454372e-07 7.6958365e-08 1.4400341e-07
8.806242e-08 8.074003e-08 1.2048426e-07 -1.3747047e-07 -1.2266688e-07 4.0920447e-08 2.9242867e-07 -7.592924e-08
-2.8618956e-07 1.5410673e-07 3.6197127e-07 8.505369e-08 -2.0545936e-07 3.455907e-07 -1.4882603e-07 8.6410196e-08
-2.3949048e-07 1.9479657e-07 1.17560845e-07 -3.4463825e-09 -3.5637324e-08 1.4632636e-07 6.965064e-08 2.134376e-08
7.863949e-08 1.9725204e-07 1.9835947e-07 -8.739088e-08 -1.837056e-08 1.5007707e-08 -1.7643544e-07 -1.9272213e-07
-3.405753e-08 1.04098405e-07 -2.3835649e-07 -2.0629498e-08 3.945462e-07 -1.16014625e-07 1.8355485e-07 -2.4699204e-07
1.1313774e-07 -1.4873757e-07 4.3197954e-07 3.3788144e-08 -5.64688e-08 2.3197474e-07 1.00631304e-07 -2.2163793e-07
9.485612e-08 -1.755563e-07 1.0110591e-07 -6.338219e-08 -9.741163e-09 -1.0824238e-07 -1.0121121e-07 3.1682038e-07
-1.336492e-07 -3.7386692e-07 -6.5436234e-07 1.03248865e-07 -5.7726275e-08 2.512876e-07 -4.696195e-07 -4.2181416e-08
-1.5167758e-07 3.8906438e-07 -2.2237268e-07 -2.1714736e-07 1.226819e-07 -4.429092e-07 -2.0331824e-07 -2.8338073e-07
3.7131932e-07 -7.61624e-08 1.516688e-07 -2.1275606e-07 3.036147e-07 1.4987631e-07 9.865674e-08 -1.8169189e-07
-1.3328369e-07 -1.5343339e-07 3.8689814e-07 -2.6807814e-07 -3.417643e-07 -5.214955e-07 -1.8654133e-07 5.04176e-08
-2.2939017e-07 -6.639986e-08 1.3263026e-07 -1.9087273e-07 -1.2235873e-07 -2.08186e-08 -1.2206975e-08 1.4999522e-08
00000000: 624f 45b4 bbbe 94b4 8ae5 9033 fcc0 b4b3
00000010: c2e9 6332 03eb 0433 7ffb 3e34 f76f cd34
00000020: f029 eeb3 3351 9332 f029 cbb3 1a3f 17b3
00000030: e0f5 83b4 3e11 dc33 e0ed bd34 b6a8 1934
00000040: 8133 c232 960e d533 b037 99b3 033d 30b3
00000050: 3382 9e34 e8c5 9334 bd31 9cb4 a39c 3934
00000060: 37dd 5db4 73e9 c033 19e1 3c33 7b88 3db4
00000070: 2759 5eb3 b812 a7b4 8fe8 16b3 9668 beb3
00000080: 3710 adb4 ed4d c434 90ae 6834 3729 87b3
00000090: 97e2 3a33 b4d2 24b4 24ba 9634 e181 5834
000000a0: 451e 8934 0f30 b9b4 60f5 37b3 3163 61b4
000000b0: 9aea 8333 d14a 27b4 8977 1a34 d76f 28b4
000000c0: 1d3b b633 6f5b 75b3 627a 2c32 2f9f 82b3
000000d0: f67e 9834 fa91 0135 d4d5 1234 75f2 2fb4
000000e0: e3a8 8eb3 e2dc 3ab4 d4f0 70b4 a962 ccb2
000000f0: b4e5 fa33 9a34 5ab2 6b0c dfb3 c71b 18b4
00000100: 113b d9b3 b0fe 05b4 8b93 3c34 9148 bdb4
00000110: 1c28 91b4 b225 4f34 3113 c9b3 7054 4734
00000120: 7d44 18b2 ec7c 19b4 b74f 7e34 305e 8333
00000130: 50c0 3932 cfa9 3433 c19b 8234 8aed d633
00000140: b4f4 2f34 c84d 35b2 b62d e133 16fb 1634
00000150: 4eb8 a6b4 8be6 9634 f923 742e 911f 4c34
00000160: cd9c 32b4 f6e9 4ab4 f73b beb4 c3c9 b631
00000170: 15e3 afb3 1ceb 6a33 8610 bfb4 21ee 0534
00000180: 58f5 8434 9f3e 8634 9674 4734 d236 a932
00000190: 73b5 67b4 8046 ecb3 7dad 8631 1911 dc33
000001a0: acd3 bfb3 e1c9 f234 62aa 1732 fbf6 6734
000001b0: 0933 41b3 dab4 8ab4 0492 4630 f0bc c034
000001c0: f244 9fb3 465c 8cb3 ba01 48b3 46ca 6eb4
000001d0: 577f 2e34 5fe3 31b3 c26a 94b4 e215 e1b3
000001e0: 1fe0 c833 83cc d932 7b3d 91b2 2ffc 9d32
000001f0: d31c d233 8c2e f434 3017 d832 5469 8f34
00000200: 625a fcb4 c802 d7b4 45c4 da33 38ee 0f34
00000210: 713d 8834 6d46 4c34 d67a 42b4 b979 e8b3
00000220: bcc6 02b5 6d79 7834 ca98 7533 2982 2635
00000230: 5024 0e34 7042 b232 2203 0034 178a 9cb3
00000240: f428 f733 e538 7d33 8825 c3b4 4178 bbb3
00000250: 126d 0335 d4c8 ed34 abb3 b033 5d41 d534
00000260: 2055 ad33 da15 de34 3069 a1b3 68a9 3eb3
00000270: 46da 6634 545d 66b4 4f44 a533 5b9f 1a34
00000280: d41c bd33 4d63 ad33 765e 0134 989b 13b4
00000290: 6ab6 03b4 82c0 2f33 17ff 9c34 8b0e a3b3
000002a0: 98a5 99b4 8978 2534 f454 c234 c3a6 b633
000002b0: 3d9c 5cb4 a089 b934 fdcc 1fb4 8290 b933
000002c0: 5293 80b4 4629 5134 c275 fc33 67d5 6cb1
000002d0: a70f 19b3 e21d 1d34 d892 9533 6d57 b732
000002e0: 84e0 a833 3acc 5334 a3fc 5434 a5ab bbb3
000002f0: 4acd 9db2 4cea 8032 3472 3db4 0eef 4eb4
00000300: a646 12b3 b48c df33 efee 7fb4 bf34 b1b2
00000310: 04d2 d334 b723 f9b3 2c17 4534 549a 84b4
00000320: 21f6 f233 acb4 1fb4 d1ea e734 751e 1133
00000330: 1a88 72b3 bb14 7934 a51a d833 5ffb 6db4
00000340: b4b3 cb33 8c80 3cb4 901f d933 ba1c 88b3
00000350: 175a 27b2 e172 e8b3 7359 d9b3 7617 aa34
00000360: 3681 0fb4 e1b7 c8b4 70a7 2fb5 aab9 dd33
00000370: b6ee 77b3 b4e8 8634 0320 fcb4 f52a 35b3
00000380: d1dc 22b4 9ae0 d034 56c5 6eb4 0329 69b4
00000390: 8bba 0334 fac8 edb4 b14f 5ab4 8d23 98b4
000003a0: bd59 c734 b98e a3b3 67da 2234 f171 64b4
000003b0: 7d00 a334 b0ed 2034 1edd d333 1617 43b4
000003c0: be1c 0fb4 73bf 24b4 e0b6 cf34 61ec 8fb4
000003d0: ba7b b7b4 e6fc 0bb5 174c 48b4 bd8a 5833
000003e0: 4a4e 76b4 b697 8eb3 2169 0e34 b2f2 4cb4
000003f0: b661 03b4 96d4 b2b2 d8b6 51b2 4cd8 8032

model.time_mlp.3.weight f4 [32, 256]
0.06864636 0.0037031595 -0.02606369 -0.043083448 -0.008998712 -0.0179129 -0.011102162 -0.022075176
0.0022269792 -0.014429478 0.009729766 -0.010862673 0.009975873 -0.01668343 -0.03312985 -0.010796997
-0.0032829677 -0.07527954 0.03145229 -0.0064921943 -0.017834553 0.016809247 -0.0106854085 0.07999673
-0.0031482382 0.007977488 -0.034153484 -0.06619438 0.023567343 0.011631962 0.005903371 -0.014408847
0.05467886 -0.10474402 -0.030705467 0.0028678977 0.0037135987 0.0091323 -0.034400806 0.0045494335
-0.019585792 0.003031044 0.0006726181 0.018463653 -0.001688347 0.04438815 -0.079000466 -0.03654233
-0.016330067 -0.008622834 -0.0055127596 -0.029850181 0.021416325 -0.0046714996 0.005648355 -0.012471523
0.008933767 -0.025261246 -0.019626724 -0.006100817 -0.019968431 -0.03632445 0.03523288 0.02292711
0.015697885 0.019349081 0.004304615 0.026377 -0.029347936 -0.00926885 -0.013767433 0.06302288
-0.026516981 0.020257533 -0.09954666 0.006854246 -0.01718268 -0.01655756 -0.043972507 0.019319175
-0.009882141 -0.06128413 -0.03089573 -0.036435824 -0.010680501 -0.045468718 -0.021195702 -0.001191601
-0.03042036 -0.044946402 0.02184509 -0.038580913 -0.040402167 0.013251405 -0.021827238 -0.03203039
-0.01723866 -0.04233501 -0.04510686 0.021899723 -0.017134283 0.009046304 -0.024007639 -0.009940593
0.013762502 0.00089363876 0.0053236187 -0.012019866 0.048778784 0.031884953 -0.016941203 0.028435811
0.002811896 0.0416307 0.012209972 0.012600423 -0.005387007 -0.04234269 -0.0005753745 0.0070942817
0.01784917 0.02323324 0.018143961 0.03218121 -0.024480548 -0.036636837 -0.04261396 0.038104244
-0.0038655335 0.022012185 -0.013088333 -0.0053966846 -0.023538012 0.004069999 -0.034558315 0.008039893
-0.05042727 -0.022302927 -0.03477761 0.036715496 -0.0012328337 -0.015979068 -0.00178158 -0.0031180293
-0.014427908 0.0010811777 0.048539173 0.0030475145 -0.030605385 -0.056901295 0.0328322 -0.04611748
-0.013380419 -0.0010461073 0.023909256 0.010091591 0.05776352 -0.0069322637 0.040586516 -0.025962614
-0.03957813 0.056353047 -0.026183642 0.06392593 0.0034399163 -0.0076752654 -0.0033340305 0.043451924
0.00807691 -0.055692133 -0.07232181 0.00044973588 -0.0019943374 0.024653528 0.018664407 -0.03068335
0.0093732355 0.007386355 0.030563194 0.0058243982 -0.0009958616 -0.004332802 0.019165654 0.008328234
0.0074952953 0.014782517 0.059252836 0.011314398 0.02976118 0.08816425 -0.019036092 0.011585988
0.022518866 -0.011292066 -0.013424077 -0.0118191745 -0.010622956 -0.0075664395 0.009654199 0.014032846
-0.04253417 -0.011690688 0.013185272 -0.012891081 0.007488668 0.04887893 0.0065567265 -0.005386494
0.010201001 0.0133810695 -0.035074074 -0.0061248774 -0.057523698 -0.011592964 0.043456458 -0.013491416
0.03185969 0.0062856195 0.043848112 -0.0096854055 0.005704967 0.052991148 0.01193353 -0.05075878
0.028743705 -0.024374595 0.03725825 -0.00721543 -0.006751069 -0.027030298 -0.013451565 -0.049014613
-0.027427718 0.013532135 0.029494442 0.0077126846 -0.0037634394 -0.03951675 0.024940941 -0.017688787
0.03389493 0.062348835 0.01156167 0.0015614759 0.028176015 0.04707971 -0.0035565335 0.015042887
-0.013746576 0.03554449 0.0010282331 0.020600718 0.0014667873 0.0018721998 0.012279874 -0.045688435
00000000: 7696 8c3d b5b0 723b 8583 d5bc 4578 30bd
00000010: 556f 13bc 13be 92bc d8e5 35bc 00d7 b4bc
00000020: 83f2 113b 9e69 6cbc 9969 1f3c 5af9 31bc
00000030: d871 233c b0ab 88bc 2ab3 07bd e3e5 30bc
00000040: 0f27 57bb 292c 9abd 1ed4 003d 79bc d4bb
00000050: c519 92bc 8cb3 893c da11 2fbc 53d5 a33d
00000060: ac52 4ebb 03b4 023c 86e4 0bbd eb90 87bd
00000070: 4d10 c13c fc93 3e3c 1171 c13b 1613 6cbc
00000080: f1f6 5f3d 0884 d6bd 088a fbbc 57f3 3b3b
00000090: d95f 733b a49f 153c dce7 0cbd 6a13 953b
000000a0: 6272 a0bc 7ba4 463b a352 303a 1641 973c
000000b0: 864b ddba 59d0 353d ffca a1bd 69ad 15bd
000000c0: a2c6 85bc ca46 0dbc 61a4 b4bb 5e88 f4bc
000000d0: 4a71 af3c 6113 99bb d615 b93b 5c55 4cbc
000000e0: ef5e 123c acf0 cebc 39c8 a0bc 5de9 c7bb
000000f0: d694 a3bc f2c8 14bd 5a50 103d a2d1 bb3c
00000100: da98 803c f781 9e3c ba0d 8d3b 9414 d83c
00000110: 156b f0bc 60dc 17bc cd90 61bc 2412 813d
00000120: 243a d9bc 20f3 a53c 1fdf cbbd 9599 e03b
00000130: b1c2 8cbc b8a3 87bc 841c 34bd 3f43 9e3c
00000140: b4e8 21bc 1105 7bbd 0b19 fdbc bb3d 15bd
00000150: 45fd 2ebc 683d 3abd 9ca2 adbc 7f2f 9cba
00000160: 1e34 f9bc b819 38bd 79f4 b23c 0507 1ebd
00000170: be7c 25bd 6c1c 593c 09cf b2bc 4c32 03bd
00000180: 1738 8dbc 7a67 2dbd f9c1 38bd 0c67 b33c
00000190: 325d 8cbc f336 143c abab c4bc dedd 22bc
000001a0: 1e7c 613c 1543 6a3a c071 ae3b f9ee 44bc
000001b0: 43cc 473d cc99 023d 47c8 8abc 38f2 e83c
000001c0: c947 383b f484 2a3d 560c 483c 0172 4e3c
000001d0: 7d85 b0bb 876f 2dbd bbd4 16ba 2677 e83b
000001e0: 6c38 923c a353 be3c a5a2 943c 72d0 033d
000001f0: 6e8b c8bc 8210 16bd fa8b 2ebd 3213 1c3d
00000200: e454 7dbb e652 b43c 7370 56bc acd6 b0bb
00000210: cad2 c0bc a05d 853b 058d 0dbd c1b9 033c
00000220: d38c 4ebd a1b4 b6bc f872 0ebd fd62 163d
00000230: 0997 a1ba 89e6 82bc e883 e9ba da57 4cbb
00000240: 0863 6cbc 4eb6 8d3a 03d1 463d cfb8 473b
00000250: 25b8 fabc 5511 69bd 0f7b 063d afe5 3cbd
00000260: 8c39 5bbc 891d 89ba 58dd c33c 3357 253c
00000270: 7199 6c3d 0b28 e3bb 0c3e 263d 8caf d4bc
00000280: ad1c 22bd 74d2 663d 147f d6bc 99eb 823d
00000290: 3870 613b cb80 fbbb c07f 5abb a5fa 313d
000002a0: 0455 043c 6f1d 64bd 751d 94bd 87ca eb39
000002b0: 6eb3 02bb 32f6 c93c 19e6 983c a65b fbbc
000002c0: 3392 193c 3d09 f23b aa5f fa3c 98da be3b
000002d0: 9287 82ba 2dfa 8dbb 4a01 9d3c 2573 083c
000002e0: 189b f53b 5f32 723c 1ab3 723d 0660 393c
000002f0: b8cd f33c 758f b43d 94f1 9bbc 28d3 3d3c
00000300: 7c79 b83c 5c02 39bc a9f0 5bbc 36a5 41bc
00000310: e80b 2ebc e5ef f7bb a52c 1e3c 06ea 653c
00000320: 4f38 2ebd 4d8a 3fbc 0a07 583c 1d35 53bc
00000330: 8063 f53b 4635 483d cfd9 d63b 3081 b0bb
00000340: 1922 273c 463c 5b3c d5a9 0fbd 32b3 c8bb
00000350: f89d 6bbd 6af0 3dbc 66ff 313d 1a0b 5dbc
00000360: 4e7f 023d 99f7 cd3b 149a 333d 89af 1ebc
00000370: bbf0 ba3b 3f0d 593d da84 433c 70e8 4fbd
00000380: eb77 eb3c 3bad c7bc 1b9c 183d 6a6f ecbb
00000390: 1238 ddbb a56e ddbc f463 5cbc 8cc3 48bd
000003a0: 18b0 e0bc e3b5 5d3c 549e f13c b0ba fc3b
000003b0: 09a4 76bb 51dc 21bd f250 cc3c 13e8 90bc
000003c0: 69d5 0a3d 7e61 7f3d 296d 3d3c 70aa cc3a
000003d0: 63d1 e63c a7d6 403d bb14 69bb 7176 763c
000003e0: 5239 61bc 1997 113d c7c5 863a d6c2 a83c
000003f0: 3741 c03a 9a64 f53a 8631 493c cc23 3bbd

model.time_mlp.3.bias f4 [32]
-7.061658e-07 2.5653756e-07 -1.2821754e-07 -1.913856e-06 -2.017437e-06 1.9556542e-06 1.2181454e-06 -2.742587e-06
1.3549788e-06 2.5442453e-06 9.570251e-07 -3.201999e-06 1.4357364e-06 -1.8036424e-06 -8.587312e-07 -1.8481583e-06
-2.888987e-06 1.0967339e-06 1.0579153e-07 1.0221506e-06 -1.6477266e-07 1.517047e-06 3.5085116e-06 -8.757184e-07
-8.78183e-07 -4.1556703e-07 2.9791106e-06 2.6413054e-06 -9.413829e-07 -2.5930844e-06 3.0930921e-06 -2.5263898e-06
00000000: 588f 3db5 41ba 8934 2bac 09b4 cc6f 00b6
00000010: 4e63 07b6 e23d 0336 287f a335 490d 38b6
00000020: b8dc b535 cdbd 2a36 2273 8035 ede1 56b6
00000030: 87b3 c035 ae14 f2b5 8f83 66b5 3c0e f8b5
00000040: 6be0 41b6 7d33 9335 822f e333 d430 8935
00000050: 5dec 30b4 579d cb35 c573 6b36 e912 6bb5
00000060: 47bc 6bb5 191b dfb4 bbec 4736 4841 3136
00000070: 57b3 7cb5 da04 2eb6 eb92 4f36 0c8b 29b6

model.layer.0.weight f4 [256, 55]
-0.008913238 -0.08798958 -0.14103957 0.10086166 -0.13054565 0.011943704 0.0073427586 -0.029110083
-0.0059832167 -0.10209955 0.10474811 -0.065396115 -0.07197968 0.035809945 0.019713143 0.14151959
0.034613714 -0.14425546 0.06015073 -0.06466332 0.047364585 0.106327616 0.008265904 0.0050650644
0.015467601 -0.0053884448 -0.037787586 0.11236971 0.029407106 -0.018607823 -0.0008396347 0.08301191
-0.0256409 -0.0068758703 0.04772007 0.04516845 0.089730084 0.10592165 -0.036481753 0.013266861
-0.04346961 -0.005298115 0.13964647 -0.08645207 0.06093997 -0.019446641 0.04505823 -0.05772053
-0.08963344 -0.07532721 0.06404013 0.12700905 0.10028523 0.03457949 -0.051619127 0.026938787
0.064604424 -0.020708067 0.030172717 0.08223996 0.00022240482 0.0018709039 -0.09413157 -0.08869849
0.010365655 -0.013104918 -0.109073065 0.0017036854 -0.03348033 -0.08543271 -0.03627751 -0.013220618
0.03848043 0.04446643 0.11266589 0.088827215 -0.025467679 0.016657587 0.0548978 -0.1015189
-0.05244886 -0.032601062 0.07319542 -0.08833822 0.057322815 0.037964106 -0.079142734 0.015718633
-0.027430957 0.017536204 0.015995238 -0.024582233 0.0022320074 -0.023039633 0.09844852 0.09494867
0.067549944 0.06044651 0.120107226 0.035673946 -0.08365882 -0.004216955 0.054417208 -0.08378363
0.0155698005 -0.047324892 0.048218068 -0.018759761 -0.0050104153 -0.07529955 -0.016650688 0.053271204
0.040884286 0.032894887 0.014171647 0.023267595 -0.036850527 -0.070016466 -0.0069079013 -0.08639978
-0.01754588 -0.037887514 -0.0013299702 -0.038837906 0.03322135 -0.10238046 -0.10714255 0.0013578538
0.009247106 -0.11510868 0.09224174 -0.049171206 -0.10193795 -0.054743227 -0.13712776 0.1612926
-0.097443156 -0.05285293 -0.00090338883 -0.042563483 0.122717045 -0.034925245 -0.016774302 0.08306116
0.040999323 -0.10662053 -0.022269825 -0.05129626 0.041452054 -0.048461784 0.08071133 0.0027823322
-0.042261537 -0.06373741 -0.017239073 -0.09296452 0.11891437 -0.054483555 -0.03260745 -0.00045831467
0.046093185 -0.042907283 -0.14539367 -0.037000775 0.024179814 0.06694864 -0.08643317 -0.023150783
-0.14561848 0.10223914 -0.013318587 -0.0022115048 -0.08939542 -0.017880311 0.09970817 -0.043740846
0.016009396 0.0017488109 0.08378687 -0.07512651 0.051695287 0.07749041 -0.0040024165 -0.017622573
0.12192742 0.033106506 -0.033954397 -0.020672385 0.0051872553 0.043843295 -0.057033256 -0.031970523
0.032018714 0.025776187 0.015595691 0.019923063 -0.009118202 -0.08098357 -0.028721344 0.018744927
-0.08181803 -0.025016392 -0.0473105 0.0477303 0.050481107 -0.045235544 -0.02197788 -0.04486275
0.09511063 0.010651485 0.036541484 0.113295 0.083686024 -0.08619718 0.05267636 0.118274845
-0.009718347 -0.031404678 0.010519361 -0.059459563 -0.072460644 -0.016804835 -0.032930728 -0.017329229
-0.0062726983 0.1031878 -0.14817418 0.029845845 0.027463295 0.14424427 -0.04137455 0.06906437
0.020186005 -0.07665387 0.05307403 0.016202576 -0.05993528 0.04789047 0.06858698 -0.067239165
-0.015365918 -0.032564968 -0.039194223 0.035636358 -0.1354784 -0.01613798 -0.0129215 0.09440977
-0.07887524 -0.07960239 0.029698636 -0.09444839 -0.1642491 0.092464946 -0.0007840321 -0.009317886
00000000: d408 12bc e233 b4bd ad6c 10be 8f90 ce3d
00000010: c2ad 05be 87af 433c 869b f03b 4578 eebc
00000020: dc0e c4bb 9219 d1bd 2d86 d63d 66ee 85bd
00000030: 156a 93bd 73ad 123d 757d a13c 83ea 103e
00000040: 1cc7 0d3d b4b7 13be 9d60 763d 346e 84bd
00000050: 5e01 423d 4bc2 d93d b76d 073c d7f8 a53b
00000060: d26b 7d3c 8d91 b0bb 28c7 1abd 1722 e63d
00000070: 2ce7 f03c 6f6f 98bc ee1a 5cba 2602 aa3d
00000080: dd0c d2bc fb4e e1bb 1f76 433d 8d02 393d
00000090: 68c4 b73d 73ed d83d e46d 15bd 405d 593c
000000a0: 310d 32bd cf9b adbb 7cff 0e3e c80d b1bd
000000b0: 319c 793d 904e 9fbc fb8e 383d 5d6c 6cbd
000000c0: bd91 b7bd 2745 9abd 7927 833d a90e 023e
000000d0: 5862 cd3d 39a3 0d3d 946e 53bd bbae dc3c
000000e0: 534f 843d f7a3 a9bc c62c f73c 6d6d a83d
000000f0: 5735 6939 1e39 f53a 0dc8 c0bd 8ea7 b5bd
00000100: b5d4 293c 03b6 56bc b361 dfbd 324e df3a
00000110: ac22 09bd 58f7 aebd ba97 14bd 4a9b 58bc
00000120: a89d 1d3d 6e22 363d 60bd e63d 0beb b53d
00000130: 98a1 d0bc 7e75 883c 84dc 603d 24e9 cfbd
00000140: 9ed4 56bd b188 05bd 7be7 953d abea b4bd
00000150: 54cb 6a3d 4080 1b3d 9615 a2bd 5dc4 803c
00000160: e3b6 e0bc 16a8 8f3c 7208 833c ae60 c9bc
00000170: df46 123b 9dbd bcbc 619f c93d 7374 c23d
00000180: a057 8a3d c296 773d c7fa f53d d81e 123d
00000190: 5155 abbd 622e 8abb 94e4 5e3d c096 abbd
000001a0: 7a18 7f3c bfd7 41bd 4f80 453d 12ae 99bc
000001b0: 692e a4bb a736 9abd 0667 88bc e832 5a3d
000001c0: 4876 273d cabc 063d 3230 683c af9b be3c
000001d0: 94f0 16bd cb64 8fbd ad5b e2bb 5ef2 b0bd
000001e0: 61bc 8fbc f02f 1bbd 6552 aeba 7f14 1fbd
000001f0: 1c13 083d d9ac d1bd 8e6d dbbd 03fa b13a
00000200: 2c81 173c 1abe ebbd 3de9 bc3d bf67 49bd
00000210: d8c4 d0bd 6f3a 60bd 386b 0cbe e329 253e
00000220: 4790 c7bd 507c 58bd 66d1 6cba 0c57 2ebd
00000230: 1353 fb3d c60d 0fbd 436a 89bc f81b aa3d
00000240: e8ee 273d dd5b dabd 356f b6bc 071c 52bd
00000250: a1c9 293d dd7f 46bd fb4b a53d ca57 363b
00000260: 6f1a 2dbd c288 82bd f538 8dbc 2f64 bebd
00000270: 6189 f33d 262a 5fbd 648f 05bd f449 f0b9
00000280: 35cc 3c3d 8cbf 2fbd 14e2 14be 208e 17bd
00000290: bf14 c63c 5e1c 893d e003 b1bd b6a6 bdbc
000002a0: 031d 15be c162 d13d 3436 5abc e5ee 10bb
000002b0: f214 b7bd bb79 92bc cc33 cc3d 9a29 33bd
000002c0: 2326 833c 5b38 e53a 7398 ab3d eddb 99bd
000002d0: 70be 533d 4bb3 9e3d b426 83bb 375d 90bc
000002e0: 15b5 f93d b09a 073d c413 0bbd 2259 a9bc
000002f0: daf9 a93b 0795 333d b49b 69bd 86f3 02bd
00000300: 0e26 033d 9528 d33c 1285 7f3c b135 a33c
00000310: 8364 15bc b7da a5bd 0649 ebbc f68e 993c
00000320: 3690 a7bd 2def ccbc a8c8 41bd d980 433d
00000330: 47c5 4e3d e848 39bd f40a b4bc 01c2 37bd
00000340: 5dc9 c23d 9183 2e3c 86ac 153d 3507 e83d
00000350: 9463 ab3d 2688 b0bd 2bc3 573d 153a f23d
00000360: b439 1fbc 31a2 00bd 6659 2c3c df8b 73bd
00000370: 3f66 94bd 4baa 89bc 5fe2 06bd 07f6 8dbc
00000380: 358b cdbb 2054 d33d f9ba 17be 467f f43c
00000390: b4fa e03c c5b4 133e 5c78 29bd 9f71 8d3d
000003a0: 1f5d a53c b4fc 9cbd 2764 593d 44bb 843c
000003b0: b27e 75bd cc28 443d 5577 8c3d b0b4 89bd
000003c0: 55c1 7bbc d862 05bd 1f8a 20bd 6ef7 113d
000003d0: daba 0abe cc33 84bc b3b4 53bc e959 c13d
000003e0: 5889 a1bd 9406 a3bd 8e4a f33c 286e c1bd
000003f0: eb30 28be 435e bd3d 8187 4dba 0caa 18bc

model.layer.0.bias f4 [256]
-1.4563866e-06 -8.862775e-07 -2.7187752e-06 -1.8257384e-07 1.7287579e-06 -3.449837e-08 -3.016373e-07 1.9723125e-06
-2.2736854e-06 3.016205e-06 -1.2698328e-06 -1.9445674e-06 2.764708e-06 -4.909286e-07 2.3887299e-06 2.0389616e-06
7.413189e-07 -1.2547956e-06 -2.0075795e-06 5.6098037e-07 1.8377016e-06 1.4535414e-06 -3.3002482e-06 -2.4955136e-06
1.1287525e-07 1.2962125e-06 2.2351285e-06 6.4521583e-07 -4.969945e-07 -1.8699188e-06 -4.3531477e-07 -1.2843564e-06
3.0085667e-07 -9.17448e-07 -2.1114677e-06 -2.333701e-06 5.1330034e-07 2.9117452e-08 3.4573855e-08 2.9663926e-07
-2.0788327e-06 -2.3042699e-06 -2.3769298e-06 -2.6466216e-06 -7.8175356e-07 5.2440106e-07 -1.6381058e-06 1.2809982e-06
3.251508e-07 -8.0150315e-08 1.0976895e-06 1.3694293e-07 -1.6747263e-06 7.7431633e-07 4.1256662e-06 5.192941e-07
2.1469552e-06 -1.9300505e-06 4.8830543e-07 -9.729371e-07 -2.4861822e-06 1.3344691e-06 -3.6666478e-07 4.5811848e-07
2.948721e-07 -1.809318e-06 -2.4654605e-07 2.789516e-06 -1.6762025e-06 -2.2517083e-06 2.4302208e-06 2.76585e-06
2.282618e-06 -2.326104e-06 -2.1442283e-08 -5.0130484e-07 1.8409177e-06 -7.039395e-07 7.6501954e-07 -8.841227e-08
2.6238608e-06 5.8624283e-07 8.0205785e-07 -5.5545297e-07 -1.0530268e-06 1.975554e-06 1.814142e-06 -5.7460585e-07
-7.4432273e-07 -1.8483516e-06 8.906943e-07 -2.5897123e-07 1.9867137e-07 1.1313001e-06 -4.0499825e-07 1.1804104e-06
1.1240268e-06 -2.9911757e-07 -3.941174e-06 -1.5645062e-06 -9.380747e-07 3.908725e-06 -1.550377e-08 1.4005117e-06
-6.914941e-07 -2.1992587e-06 -2.8349064e-07 -2.665602e-06 2.0064458e-06 1.5858191e-06 -2.1912813e-06 -2.4396195e-06
3.0734034e-06 2.812319e-06 -2.987157e-06 -1.1416596e-06 -7.116284e-08 -2.8085985e-06 7.350486e-07 1.455605e-06
-1.259447e-07 7.247141e-07 5.1078206e-07 9.1543785e-07 1.1194862e-07 1.1875022e-06 3.2913343e-07 6.071409e-08
-1.7281344e-06 -3.4749494e-06 1.1168214e-06 -1.8785676e-06 -1.2984655e-06 -2.1011182e-07 -2.3236348e-06 -1.574279e-07
-2.0707737e-06 -1.5689764e-06 -9.017556e-07 6.4892134e-07 1.1203222e-07 1.498679e-06 -1.1197427e-06 -7.0309363e-07
6.044921e-08 1.8593216e-06 -1.6643473e-06 7.307797e-08 7.059571e-07 -3.2358917e-06 2.9767568e-07 -9.3154284e-08
-1.3601588e-06 1.9687502e-06 -6.241058e-07 2.116125e-06 -2.1907347e-06 1.3100126e-06 -1.3817373e-06 -1.2899596e-06
2.3206528e-06 3.7754273e-07 -2.0874309e-06 -1.1148816e-06 -2.1523736e-06 1.2233232e-06 -1.544923e-06 -6.837804e-07
-1.0079024e-06 -3.0472444e-07 2.0960847e-06 -1.960083e-06 -2.2754023e-06 -1.6915213e-06 -9.993355e-07 -6.3626015e-07
-1.1967992e-06 -2.3651832e-07 -3.519818e-06 1.444304e-06 1.2827821e-06 -3.3525924e-07 1.1054445e-06 -2.6900432e-06
1.0979937e-06 -1.4814408e-06 4.2426103e-07 -4.689761e-07 8.89274e-07 9.906174e-07 4.8130937e-07 5.854755e-07
-8.573527e-09 -3.0617887e-06 -1.8695253e-07 -8.610694e-07 1.3845993e-06 2.6405046e-06 -1.1498815e-06 5.765691e-06
2.4403409e-08 -1.5248571e-06 -2.6074542e-06 -2.2500224e-06 -2.147281e-06 3.4226522e-07 6.0844656e-07 -1.4625705e-06
4.364831e-08 1.7978837e-06 -5.880273e-07 1.6946155e-06 1.4885527e-06 7.66229e-07 -2.0118246e-07 4.0724692e-07
1.3446177e-06 -2.8452027e-07 -4.118652e-06 1.6796218e-07 -7.530281e-07 -8.7094566e-07 -2.9819726e-06 -7.716533e-07
-1.2321842e-06 -5.3115957e-07 2.1115475e-06 -1.2374176e-06 2.8121576e-07 8.5805755e-07 1.2322469e-06 -3.7005852e-06
3.013107e-06 -3.980936e-07 1.5571942e-06 9.81331e-07 -4.2139786e-06 -2.3435678e-06 1.9023039e-06 -1.1925027e-07
3.4490915e-07 3.7520738e-06 -6.338108e-07 -2.8208135e-06 -1.6430295e-06 -2.6943526e-06 -2.5160844e-07 -1.4186436e-06
1.1899409e-06 -2.5552313e-06 -2.687246e-06 1.5986178e-06 2.7574825e-07 -2.8766817e-06 -2.6290932e-06 5.8206894e-07
00000000: 1079 c3b5 87e8 6db5 3474 36b6 8409 44b4
00000010: ab07 e835 5c2b 14b3 b7f0 a1b4 125c 0436
00000020: 9e95 18b6 026a 4a36 1f6f aab5 6a7f 02b6
00000030: 5289 3936 5bc8 03b5 114e 2036 18d5 0836
00000040: 0cff 4635 736a a8b5 f4b9 06b6 4796 1635
00000050: f2a6 f635 4d17 c335 d579 5db6 9978 27b6
00000060: d365 f233 86f9 ad35 37ff 1536 e532 2d35
00000070: 3469 05b5 ecf9 fab5 35b5 e9b4 2662 acb5
00000080: 6d85 a134 8c46 76b5 bdb2 0db6 ae9c 1cb6
00000090: bbc9 0935 f41d fa32 5b7e 1433 ca41 9f34
000000a0: 1382 0bb6 0ea3 1ab6 5883 1fb6 9d9c 31b6
000000b0: b2d9 51b5 91c4 0c35 e3dc dbb5 c3ee ab35
000000c0: 6390 ae34 1a1f acb3 5354 9335 960a 1334
000000d0: 28c7 e0b5 9dda 4f35 346f 8a36 9e65 0b35
000000e0: 6914 1036 0486 01b6 1814 0335 dd95 82b5
000000f0: 49d8 26b6 021c b335 06da c4b4 53f3 f534
00000100: ea4e 9e34 b1d7 f2b5 085d 84b4 8533 3b36
00000110: e1f9 e0b5 0e1c 17b6 e016 2336 f19c 3936
00000120: 142f 1936 2a1a 1cb6 1430 b8b2 6891 06b5
00000130: 7315 f735 5bf6 3cb5 be5b 4d35 29dd bdb3
00000140: 9615 3036 4d5e 1d35 ff4c 5735 701a 15b5
00000150: ba55 8db5 c293 0436 727d f335 9d3e 1ab5
00000160: 78cd 47b5 e114 f8b5 0c18 6f35 bc08 8bb4
00000170: 5f52 5534 2dd7 9735 896e d9b4 986e 9e35
00000180: 44dd 9635 6896 a0b4 6d3e 84b6 06fc d1b5
00000190: 01d0 7bb5 b127 8336 272d 85b2 37f9 bb35
000001a0: 1d9f 39b5 fa96 13b6 a832 98b4 b2e2 32b6
000001b0: 7aa6 0636 54d8 d435 ed0d 13b6 58b8 23b6
000001c0: ab40 4e36 46bb 3c36 f776 48b6 203b 99b5
000001d0: 2fd2 98b3 5b7b 3cb6 2850 4535 355e c335
000001e0: 6a3b 07b4 f989 4235 ad1c 0935 69bc 7535
000001f0: 6868 f033 4462 9f35 c1b3 b034 ed61 8233
00000200: 3ff2 e7b5 2d33 69b6 b1e5 9535 1723 fcb5
00000210: ef46 aeb5 199b 61b4 beef 1bb6 7409 29b4
00000220: 9ff7 0ab6 9e95 d2b5 2c10 72b5 8931 2e35
00000230: 5d96 f033 3826 c935 114a 96b5 3abc 3cb5
00000240: 4ed0 8133 ce8d f935 8a62 dfb5 0aef 9c33
00000250: 0181 3d35 3228 59b6 3cd0 9f34 1c0c c8b3
00000260: b38e b6b5 df1e 0436 3988 27b5 c002 0e36
00000270: 8904 13b6 b1d3 af35 2274 b9b5 ad22 adb5
00000280: 83bc 1b36 14b1 ca34 ca15 0cb6 0aa3 95b5
00000290: 7f71 10b6 1131 a435 265b cfb5 088d 37b5
000002a0: 4347 87b5 0299 a3b4 76aa 0c36 f889 03b6
000002b0: 1db3 18b6 3b08 e3b5 e820 86b5 77cb 2ab5
000002c0: b5a1 a0b5 a9f5 7db4 0336 6cb6 e8d9 c135
000002d0: 0f2c ac35 aefd b3b4 c95e 9435 9786 34b6
000002e0: c75e 9335 ebd5 c6b5 fec5 e334 96c7 fbb4
000002f0: 72b6 6e35 5bf5 8435 5433 0135 9229 1d35
00000300: c54a 13b2 2179 4db6 1fbd 48b4 3d24 67b5
00000310: 78d6 b935 8633 3136 a155 9ab5 e976 c136
00000320: aa9f d132 b1a9 ccb5 b9fb 2eb6 17ff 16b6
00000330: 021a 10b6 93c0 b734 2154 2335 8a4d c4b5
00000340: d377 3b33 d04e f135 eed8 1db5 8c72 e335
00000350: 48ca c735 dbae 4d35 9d04 58b4 97a3 da34
00000360: b678 b435 2bc0 98b4 f432 8ab6 1859 3434
00000370: b223 4ab5 eeca 69b5 e61d 48b6 9c23 4fb5
00000380: 8761 a5b5 0295 0eb5 1cb4 0d36 5815 a6b5
00000390: 00fa 9634 4455 6635 ae63 a535 9257 78b6
000003a0: c934 4a36 91b9 d5b4 c900 d135 47b6 8335
000003b0: cd65 8db6 3046 1db6 aa52 ff35 440b 00b4
000003c0: f42b b934 23cc 7b36 2623 2ab5 354d 3db6
000003d0: 1086 dcb5 a0d0 34b6 cd14 87b4 3968 beb5
000003e0: 0fb6 9f35 8a7a 2bb6 8956 34b6 1790 d635
000003f0: 8d0a 9434 040d 41b6 7a6f 30b6 793f 1c35

model.layer.2.weight f4 [256, 256]
0.034522466 0.019411365 0.028115347 -2.1757307e-05 -0.012910254 -0.01966442 0.04552899 0.0693229
-0.01853699 -0.05569377 -0.010593954 0.010966663 -0.059054878 -0.024145622 0.026447171 0.005923847
-0.015710223 -0.05447051 -0.069490924 0.0035672795 0.01768089 -0.042434104 0.0075225458 -0.03324017
0.0025144205 -0.0011804777 0.015862111 -0.059770655 0.046391174 -0.052303668 0.0048707477 0.0041984585
0.0010101203 0.018757608 0.026377479 -0.014675288 0.06363492 -0.01564673 -0.027266521 0.04264264
-0.045340605 0.004505732 0.03396604 -0.0059772977 0.0051759076 0.015105052 -0.035098378 -0.003781122
0.0006103663 -0.043970007 -0.083863035 0.017811002 -0.0061689215 -0.0133689465 -0.010884375 -0.0018944779
-0.04747533 0.018029414 0.023524584 -0.023233918 0.016755363 0.053118315 -0.003865085 0.01928997
0.029799417 -0.06775765 -0.008675367 0.039441865 -0.024292227 -0.00793271 0.0040226486 0.012096464
0.033289418 0.013192367 -0.0015539954 -0.03431452 -0.03398866 -0.035647456 -0.019793345 0.0034205883
0.008889531 -0.06334168 0.016405012 -0.007647617 0.023422416 0.01624247 0.031299494 -0.065759234
0.039665043 0.0032802087 -0.017576465 0.004800354 0.03726505 -0.019819375 0.033461176 0.014725029
0.015667897 -0.0010544528 0.029172666 0.038654014 -0.033897936 0.022276124 -0.020271389 0.04324056
-0.018179001 0.038546942 0.03811494 -0.041158333 0.053385314 -0.034193102 0.002346094 -0.064151034
0.010123511 -0.0376936 0.038846068 -0.021716408 -0.05632238 0.019069111 0.045823507 -0.04433398
-0.0015582308 -0.008798379 -0.013612702 -0.044766724 -0.00072849693 -0.005268991 0.06884084 -0.004164792
-0.016325343 -0.030378098 -0.017441705 0.018270288 -0.017813817 0.009889415 0.05765385 -0.032537065
-0.05002738 -0.027706336 0.015375911 -0.009602683 0.022678813 0.04499816 0.009377002 0.028837943
0.010989443 -0.025896676 0.013093844 -0.00636709 -0.019634446 -0.014885717 -0.016466562 -0.0070819636
0.0066500134 0.0066161617 -0.0038016974 0.006253413 0.016113775 -0.034604874 0.013138981 -0.04367609
-0.040739834 0.00932479 -0.006279797 0.035958987 -0.020275598 0.0053533483 0.01413558 0.014246473
-0.01004144 -0.044978585 -0.0075461343 -0.043983836 -0.053381797 0.025505625 -0.027084097 -0.025703274
0.011151128 -0.04636501 0.011156038 -0.002206231 0.023691623 -0.027757378 0.040624466 -0.012533111
-0.034210403 0.010175636 -0.0067615504 -0.014742501 -0.036894515 -0.019884558 0.0077026347 0.041886054
-0.00016726571 -0.0119540095 -0.10055345 -0.050400726 0.04341345 0.08446562 -0.009275414 -0.032452453
0.0087281335 -0.04101206 -0.0062149717 -0.015954787 -0.0025870458 0.03590902 0.007925385 0.025294263
-0.006850623 0.020317797 -0.033035576 -0.030511282 0.014531855 0.027749231 -0.048967235 0.042436086
0.09924623 -0.016509973 -0.029615574 0.05019864 -0.038240243 0.027568754 -0.029402297 0.0027685463
-0.01943288 0.01138186 0.00505556 -0.005139562 0.017191099 -0.0048726136 0.00052085053 -0.05020888
0.060683403 -0.01011784 -0.008120509 -0.02461297 -0.006911602 0.002002624 0.093670875 -0.0040894225
-0.023194322 0.013765479 -0.0032882402 -0.04993721 -0.0031520296 0.053961772 -0.022961525 -0.020210894
0.03122008 -0.0069619063 0.014893638 0.024520664 -0.037217513 -0.027252696 -0.016909514 -0.042402234
00000000: 6e67 0d3d 9504 9f3c 2852 e63c 7683 b6b7
00000010: 8885 53bc 4717 a1bc 9b7c 3a3d 2af9 8d3d
00000020: e3da 97bc 271f 64bd 4392 2dbc 85ad 333c
00000030: 87e3 71bd 0acd c5bc bda7 d83c d51c c23b
00000040: bab2 80bc 781c 5fbd 4251 8ebd 05c9 693b
00000050: 84d7 903c 62cf 2dbd b07f f63b d826 08bd
00000060: fac8 243b 42ba 9aba 42f1 813c 13d2 74bd
00000070: ac04 3e3d 5f3c 56bd cb9a 9f3b 3993 893b
00000080: 0366 843a 8ea9 993c 9515 d83c 9f70 70bc
00000090: 0653 823d 922d 80bc 0a5e dfbc 0daa 2e3d
000000a0: 12b7 39bd d2a4 933b f91f 0b3d 35dd c3bb
000000b0: a99a a93b 2e7b 773c 51c3 0fbd b3cc 77bb
000000c0: fd00 203a e519 34bd 62c0 abbd 61e8 913c
000000d0: aa24 cabb 6d09 5bbc 6154 32bc 2150 f8ba
000000e0: 7e75 42bd 6cb2 933c a1b6 c03c 0f55 bebc
000000f0: 8b42 893c 9792 593d 5e4d 7dbb 0006 9e3c
00000100: e81d f43c 86c4 8abd 2023 0ebc cb8d 213d
00000110: 7e00 c7bc 33f8 01bc 6cd0 833b 3f30 463c
00000120: 7c5a 083d cc24 583c 6faf cbba 628d 0cbd
00000130: b137 0bbd 1103 12bd a725 a2bc f32b 603b
00000140: 65a5 113c 48b9 81bd ce63 863c dc98 fabb
00000150: 5ee0 bf3c ee0e 853c e633 003d c7ac 86bd
00000160: d077 223d c5f8 563b 85fc 8fbc 4a4c 9d3b
00000170: 3da3 183d 3e5c a2bc 960e 093d 3f41 713c
00000180: f659 803c 9135 8aba 84fb ee3c ac53 1e3d
00000190: 90d8 0abd 6b7c b63c 2f10 a6bc 031d 313d
000001a0: 21ec 94bc 66e3 1d3d 691e 1c3d a495 28bd
000001b0: 8faa 5a3d 110e 0cbd edc0 193b 9e61 83bd
000001c0: 15dd 253c 9b64 1abd 0e1d 1f3d 9ce6 b1bc
000001d0: 4cb2 66bd d336 9c3c 6eb1 3b3d 8c97 35bd
000001e0: 8d3d ccba 1427 10bc cf07 5fbc 505d 37bd
000001f0: 9af8 3eba 80a7 acbb 6dfc 8c3d cf78 88bb
00000200: babc 85bc 7ddb f8bc e8e1 8ebc 92ab 953c
00000210: 48ee 91bc 3707 223c 7226 6c3d 9645 05bd
00000220: 83e9 4cbd 66f8 e2bc 3feb 7b3c 9254 1dbc
00000230: ebc8 b93c fe4f 383d ffa1 193c 8d3d ec3c
00000240: 110d 343c 4425 d4bc 9087 563c 06a3 d0bb
00000250: 6bd8 a0bc 39e3 73bc e2e4 86bc d10f e8bb
00000260: 5be8 d93b 63cc d83b e625 79bb 6ee9 cc3b
00000270: 0901 843c d7bd 0dbd e144 573c b3e5 32bd
00000280: d0de 26bd 01c7 183c c1c6 cdbb bb49 133d
00000290: 0319 a6bc 246b af3b eb98 673c 0a6a 693c
000002a0: da84 24bc 773b 38bd 9045 f7bb 6528 34bd
000002b0: dfa6 5abd 2cf1 d03c 78df ddbc ac8f d2bc
000002c0: 39b3 363c 3de9 3dbd d1c7 363c 6a96 10bb
000002d0: ef14 c23c 7163 e3bc d765 263d ad57 4dbc
000002e0: 3520 0cbd b6b7 263c ff8f ddbb 888a 71bc
000002f0: b41e 17bd f1e4 a2bc 6266 fc3b b690 2b3d
00000300: 0c64 2fb9 c0da 43bc f8ee cdbd fe70 4ebd
00000310: 4dd2 313d 50fc ac3d e8f7 17bc ddec 04bd
00000320: 7200 0f3c 43fc 27bd f6a6 cbbb 9db3 82bc
00000330: 6d8b 29bb 5615 133d 79d9 013c ea35 cf3c
00000340: 317b e0bb 8271 a63c 5050 07bd ccf2 f9bc
00000350: 0417 6e3c 5b52 e33c de91 48bd 76d1 2d3d
00000360: 9c41 cb3d ec3f 87bc 5c9c f2bc 179d 4d3d
00000370: cda1 1cbd ded7 e13c 16dd f0bc 8070 353b
00000380: b431 9fbc fb7a 3a3c 1ca9 a53b c569 a8bb
00000390: 59d4 8c3c 72aa 9fbb b089 083a d4a7 4dbd
000003a0: 298f 783d 4cc5 25bc e20b 05bc 24a1 c9bc
000003b0: b87a e2bb 753e 033b 84d6 bf3d 9000 86bb
000003c0: 0502 bebc 9b88 613c 847f 57bb f68a 4cbd
000003d0: 4892 4ebb 0507 5d3d cf19 bcbc 5191 a5bc
000003e0: 41c1 ff3c b420 e4bb 7204 743c 8fdf c83c
000003f0: 6471 18bd 0c41 dfbc d285 8abc f7ad 2dbd
