results/qvpo_HalfCheetah-v3/actor_25_04_20_06_11_43_0.pth (torch, 665521 bytes, 24 tensors)

betas f4 [20]
0	0x3c02f3e7	0.007992721
1	0x3ca47451	0.020074995
2	0x3d041c9e	0.032253854
3	0x3d370356	0.044680916
4	0x3d6b9a52	0.05752022
5	0x3d915208	0.07095724
6	0x3dae82cf	0.085210435
7	0x3dcdeb70	0.10054672
8	0x3df03ce1	0.11730362
9	0x3e0b2f27	0.13592206
10	0x3e20c3d8	0.15699708
11	0x3e39b63c	0.18135923
12	0x3e5741b1	0.21021153
13	0x3e7b42ad	0.24537154
14	0x3e9456d6	0.289725
15	0x3eb23f0b	0.34813723
16	0x3edbdec4	0.42943394
17	0x3f0d0fe4	0.5510237
18	0x3f3f9c21	0.7484761
19	0x3f7fbe77	0.999

alphas_cumprod f4 [20]
0	0x3f7df430	0.99200726
1	0x3f78db11	0.9720927
2	0x3f70d444	0.9407389
3	0x3f661197	0.8987059
4	0x3f58d5ca	0.84701216
5	0x3f4972f7	0.7869105
6	0x3f384895	0.7198575
7	0x3f25c121	0.64747816
8	0x3f124f92	0.57152665
9	0x3efcd911	0.4938436
10	0x3ed526ca	0.41631156
11	0x3eae7e99	0.3408096
12	0x3e89d053	0.2691675
13	0x3e4fff13	0.20312147
14	0x3e13bc11	0.1442721
15	0x3dc09afc	0.09404561
16	0x3d5bc9c8	0.05365923
17	0x3cc55c01	0.024091722
18	0x3bc68ffb	0.0060596443
19	0x36cb5347	6.059566e-06

alphas_cumprod_prev f4 [20]
0	0x3f800000	1.0
1	0x3f7df430	0.99200726
2	0x3f78db11	0.9720927
3	0x3f70d444	0.9407389
4	0x3f661197	0.8987059
5	0x3f58d5ca	0.84701216
6	0x3f4972f7	0.7869105
7	0x3f384895	0.7198575
8	0x3f25c121	0.64747816
9	0x3f124f92	0.57152665
10	0x3efcd911	0.4938436
11	0x3ed526ca	0.41631156
12	0x3eae7e99	0.3408096
13	0x3e89d053	0.2691675
14	0x3e4fff13	0.20312147
15	0x3e13bc11	0.1442721
16	0x3dc09afc	0.09404561
17	0x3d5bc9c8	0.05365923
18	0x3cc55c01	0.024091722
19	0x3bc68ffb	0.0060596443

sqrt_alphas_cumprod f4 [20]
0	0x3f7ef992	0.99599564
1	0x3f7c6710	0.9859476
2	0x3f784c7b	0.969917
3	0x3f72b032	0.948001
4	0x3f6b9aec	0.9203327
5	0x3f6317a8	0.8870797
6	0x3f5933a3	0.84844416
7	0x3f4dfe37	0.80466026
8	0x3f4188d0	0.75599384
9	0x3f33e6c6	0.7027401
10	0x3f252d47	0.6452221
11	0x3f157333	0.58378905
12	0x3f04d0f7	0.51881355
13	0x3ee6c0d6	0.45068997
14	0x3ec2794c	0.37983167
15	0x3e9d03a9	0.30666855
16	0x3e6d3440	0.23164463
17	0x3e1ef0b4	0.15521508
18	0x3d9f6c87	0.07784372
19	0x3b21531b	0.0024616185

sqrt_one_minus_alphas_cumprod f4 [20]
0	0x3db7187a	0.089402154
1	0x3e2b106b	0.16705482
2	0x3e794749	0.243436
3	0x3ea2f3f0	0.31826735
4	0x3ec8430f	0.39113662
5	0x3eec58f6	0.46161622
6	0x3f077f37	0.5292849
7	0x3f17ff0c	0.59373546
8	0x3f279279	0.65457875
9	0x3f362160	0.71144676
10	0x3f43952e	0.76399505
11	0x3f4fd908	0.8119054
12	0x3f5ad9e7	0.8548874
13	0x3f6486b6	0.8926805
14	0x3f6cd072	0.9250556
15	0x3f73aa3d	0.9518164
16	0x3f790974	0.9728005
17	0x3f7ce5c0	0.9878807
18	0x3f7f3923	0.9969656
19	0x3f7fffcd	0.99999696

log_one_minus_alphas_cumprod f4 [20]
0	0xc09a88fb	-4.8292212
1	0xc0650c26	-3.5788665
2	0xc034d9f3	-2.8258026
3	0xc0128ae4	-2.2897272
4	0xbff04e8a	-1.8773968
5	0xbfc5e4bc	-1.5460429
6	0xbfa2dfde	-1.2724569
7	0xbf857551	-1.0426427
8	0xbf58f783	-0.8475267
9	0xbf2e5015	-0.68090945
10	0xbf09d3cb	-0.53838795
11	0xbed55f51	-0.41674283
12	0xbea08c62	-0.31357104
13	0xbe688097	-0.22705303
14	0xbe1f8ac6	-0.15580282
15	0xbdca4603	-0.09876635
16	0xbd61e79c	-0.05515252
17	0xbcc7c68f	-0.024386672
18	0xbbc72aa3	-0.0060780807
19	0xb6cc0029	-6.0796924e-06

sqrt_recip_alphas_cumprod f4 [20]
0	0x3f8083be	1.0040205
1	0x3f81d308	1.0142527
2	0x3f83f856	1.0310161
3	0x3f87055d	1.0548512
4	0x3f8b1484	1.0865636
5	0x3f904b2e	1.1272943
6	0x3f96dd48	1.178628
7	0x3f9f12c7	1.2427605
8	0x3fa95045	1.3227621
9	0x3fb624e8	1.4230013
10	0x3fc6619d	1.5498539
11	0x3fdb41de	1.7129476
12	0x3ff6b77d	1.9274746
13	0x400e0126	2.21882
14	0x40287ee5	2.632745
15	0x4050b1c2	3.2608495
16	0x408a2484	4.3169575
17	0x40ce2a60	6.4426727
18	0x414d8a3f	12.8462515
19	0x43cb1e4f	406.2368

sqrt_recipm1_alphas_cumprod f4 [20]
0	0x3db7d4d9	0.08976144
1	0x3e2d808e	0.16943571
2	0x3e80814f	0.25098655
3	0x3eabe41b	0.33572468
4	0x3ed998ea	0.42499477
5	0x3f053774	0.5203774
6	0x3f1fb352	0.62382996
7	0x3f3ce51d	0.737871
8	0x3f5da87a	0.865852
9	0x3f8195fb	1.0123895
10	0x3f978ff5	1.1840807
11	0x3fb20425	1.3907515
12	0x3fd2ea41	1.6477739
13	0x3ffd877f	1.9806975
14	0x401bde2e	2.4354358
15	0x4046a382	3.1037297
16	0x4086629e	4.199538
17	0x40cbaabd	6.364592
18	0x414cea95	12.807271
19	0x43cb1e26	406.23553

posterior_variance f4 [20]
0	0x00000000	0.0
1	0x3bbc66ab	0.0057495437
2	0x3c78db69	0.01518903
3	0x3cd623cc	0.026140116
4	0x3d1bfe73	0.03808446
5	0x3d50aa79	0.050943825
6	0x3d84bdc1	0.06481505
7	0x3da3a3f8	0.07990259
8	0x3dc5a72f	0.09651028
9	0x3deba538	0.11506122
10	0x3e0b6911	0.13614298
11	0x3e2470de	0.1605868
12	0x3e4227cb	0.18960492
13	0x3e666f8c	0.2250349
14	0x3e8a2343	0.26980028
15	0x3ea85d3e	0.32883638
16	0x3ed27ca6	0.41110724
17	0x3f08c9cc	0.5343292
18	0x3f3c223a	0.73489726
19	0x3f7e3222	0.99295247

posterior_log_variance_clipped f4 [20]
0	0xc23834f1	-46.0517
1	0xc0a51389	-5.1586347
2	0xc085fd65	-4.187182
3	0xc0693bf3	-3.644284
4	0xc0512614	-3.267949
5	0xc03e87b0	-2.9770317
6	0xc02f1e30	-2.7362175
7	0xc021b980	-2.526947
8	0xc015a386	-2.3381057
9	0xc00a62f9	-2.1622908
10	0xbfff3d04	-1.9940495
11	0xbfea1a12	-1.8289206
12	0xbfd4d70c	-1.6628127
13	0xbfbee977	-1.4914998
14	0xbfa7b07b	-1.3100733
15	0xbf8e5c68	-1.112195
16	0xbf638f07	-0.8889012
17	0xbf20723e	-0.6267432
18	0xbe9db566	-0.3080246
19	0xbbe7c04e	-0.007072485

posterior_mean_coef1 f4 [20]
0	0x3f7fffcf	0.9999971
1	0x3f376a3d	0.7164648
2	0x3f095fd9	0.53661877
3	0x3edb0cb2	0.42783123
4	0x3eb67dcc	0.3564285
5	0x3e9ce8d9	0.306464
6	0x3e8a2609	0.26982144
7	0x3e77cd5b	0.2419943
8	0x3e61946a	0.22029272
9	0x3e4fe297	0.20301281
10	0x3e418e2c	0.1890189
11	0x3e35c6cf	0.1775162
12	0x3e2bf26d	0.16791697
13	0x3e2395bf	0.15975092
14	0x3e1c40c0	0.15259075
15	0x3e1576ab	0.1459605
16	0x3e0e8045	0.13916118
17	0x3e05ee85	0.13079269
18	0x3def6061	0.11688305
19	0x3d9f43f6	0.077766344

posterior_mean_coef2 f4 [20]
0	0x00000000	0.0
1	0x3e9128bc	0.2835139
2	0x3eed3106	0.46326464
3	0x3f1262d3	0.57182044
4	0x3f248d52	0.6427814
5	0x3f312799	0.69201046
6	0x3f3a3e9d	0.7275179
7	0x3f40f0a3	0.7536718
8	0x3f45e1f9	0.7729793
9	0x3f4971cd	0.7868927
10	0x3f4bd34a	0.79619277
11	0x3f4d188a	0.8011557
12	0x3f4d348a	0.80158293
13	0x3f4bf43b	0.7966954
14	0x3f48e9ec	0.78481936
15	0x3f433afb	0.7626187
16	0x3f391e8a	0.72312224
17	0x3f265668	0.64975595
18	0x3efc1edd	0.49242297
19	0x3d00bdf1	0.031431142

model.time_mlp.1.weight f4 [256, 32]
0	0xbdb904c4	-0.09034112
1	0xbce1a93b	-0.027546516
2	0xbe1fc35a	-0.15601864
3	0x3b8e5ce8	0.0043445714
4	0x3d3af008	0.045639068
5	0xbdbe1d8e	-0.09282981
6	0xbcfae25c	-0.030625515
7	0xbd6266bd	-0.05527376
8	0xbdba5a2e	-0.09099232
9	0x3dea6093	0.11444201
10	0xbdaf387d	-0.08555696
11	0xbc64beaa	-0.0139614735
12	0x3e20ed10	0.15715432
13	0xbaff5ec3	-0.0019483197
14	0xbe08ceaa	-0.13360086
15	0xbcd49c79	-0.025953518
16	0xba834096	-0.0010013755
17	0xbb21529f	-0.0024615896
18	0xbdae2e03	-0.0850487
19	0x3e3ebbac	0.18626279
20	0xbde8feb9	-0.113767095
21	0xbc854663	-0.016268915
22	0x3e5d77ad	0.21627684
23	0x3d8606dc	0.06544277
24	0x3dcbddbd	0.099544026
25	0x3d8e8230	0.06958425
26	0xba8e1a33	-0.0010841548
27	0xbe0ab09a	-0.1354393
28	0xbdd21a49	-0.1025892
29	0x3c976310	0.018479854
30	0x3c317fd9	0.010833704
31	0xbd40f8cb	-0.047112267
32	0x3da331ab	0.07968458
33	0xbcf7565a	-0.030192543
34	0xbd7115dd	-0.05885874
35	0x3ccee859	0.025257276
36	0x3baf1daf	0.0053441147
37	0x3c8f1617	0.017466588
38	0xbc306c7c	-0.010768052
39	0x3de9b438	0.11411327
40	0xbdb27bc6	-0.08715014
41	0x3df3792f	0.11888348
42	0x3e2f8067	0.17138825
43	0x3e4d899d	0.20072027
44	0x3d1868da	0.03720937
45	0x3db712fc	0.08939168
46	0x3e459217	0.1929401
47	0x3c977650	0.018489033
48	0xbde74fbd	-0.11294506
49	0x3c138abb	0.009005244
50	0xbda04462	-0.07825543
51	0xbdc2654f	-0.09491979
52	0xbdf0d60c	-0.11759576
53	0x3c48524c	0.012226652
54	0xbce91df9	-0.028456675
55	0x3d5da316	0.05411061
56	0x3e2135fb	0.15743248
57	0xbe5d346e	-0.21602032
58	0xbc0b0ade	-0.008486478
59	0xba8f96cd	-0.0010954976
60	0x3e1dbb1e	0.15403411
61	0xbd950dd6	-0.072780296
62	0xbd35f652	-0.044424362
63	0xbc3eeb47	-0.011652774
64	0xbdb6c581	-0.0892439
65	0xbbed3ffb	-0.007240293
66	0x3d84743d	0.06467483
67	0x3c6a99be	0.014318882
68	0xbdca7743	-0.098860286
69	0xbe4243f8	-0.1897124
70	0xbd4aa288	-0.049471408
71	0xbd92845a	-0.0715415
72	0xbdc335ee	-0.09531771
73	0xbdbaf3a2	-0.091285005
74	0xbd233444	-0.039844766
75	0x3c69ae6c	0.014262777
76	0x3dcdd08f	0.10049545
77	0xbbe07fbc	-0.0068511646
78	0x3e03a44c	0.12855643
79	0xbdd54a10	-0.10414517
80	0xbcdcfe40	-0.026976705
81	0x3dd9d4f0	0.10636318
82	0x3da28713	0.079359196
83	0x3dd4ef9e	0.10397266
84	0xbd3ec748	-0.04657677
85	0x3cac603b	0.02104198
86	0xbc5ec377	-0.013596407
87	0x3b87a2b7	0.00413927
88	0x3bff6542	0.0077940533
89	0xbd70b0e4	-0.058762446
90	0x3d64e62a	0.055883564
91	0xbde6ebb6	-0.11275427
92	0xbdbd90ac	-0.092561096
93	0xbe268edf	-0.16265438
94	0x3d37231e	0.044711225
95	0xbd4d0422	-0.05005277
96	0x3bd3cd20	0.006463662
97	0xbcd9873f	-0.026553748
98	0x3c94c52d	0.018160427
99	0x3defc4eb	0.11707481
100	0xbdd45eff	-0.103696816
101	0xbce9f7b0	-0.02856049
102	0xbdf0a86f	-0.11750876
103	0xbd99f5ef	-0.07517611
104	0xbe03f286	-0.12885484
105	0x3dd6ed55	0.10494486
106	0x3cd26d5a	0.025686909
107	0x3db5154e	0.08841954
108	0x3da9cf43	0.08291485
109	0x3d4680f7	0.048462834
110	0x3e07ec81	0.13273813
111	0xbddb7732	-0.10716094
112	0x3d70e8be	0.05881571
113	0x3d7c9d64	0.061673537
114	0x3cbc8b7e	0.023015734
115	0xbce57743	-0.02801097
116	0x3dd948d8	0.10609597
117	0x3b176b1d	0.0023104616
118	0x3ce40806	0.027835857
119	0xbc7fabf8	-0.015604965
120	0xbd0703c7	-0.032962587
121	0xbca2c234	-0.019867994
122	0xbd6e27a9	-0.05814329
123	0xbd762f63	-0.060103785
124	0x398b3e96	0.00026558776
125	0xbcafc8e3	-0.021458095
126	0xbe6f2129	-0.23352493
127	0x3d6b7fcf	0.057494935
128	0xbd099227	-0.033586647
129	0xbcdec270	-0.027192324
130	0x3a83d065	0.0010056613
131	0x3d634df5	0.055494267
132	0x3de34b0e	0.110983
133	0xbd64ad1d	-0.055829156
134	0xbe34787d	-0.17624088
135	0xbd27d98c	-0.040978953
136	0x3c8cb9b5	0.017178396
137	0xbce12879	-0.02748512
138	0xbdbc301a	-0.09188862
139	0xbe2a08e6	-0.16604957
140	0x3d007489	0.031361137
141	0xbe06a6b8	-0.13149536
142	0xbc8daa57	-0.017293138
143	0x3d53902e	0.051651172
144	0xbd5e646f	-0.054295
145	0x3cfba65d	0.030718977
146	0x3db31526	0.08744268
147	0x3dd4854e	0.10376988
148	0x3d17648e	0.03696113
149	0xbd504548	-0.05084732
150	0xbb9203b0	-0.004456006
151	0xbd1a2756	-0.03763517
152	0xbc4b93c2	-0.012425365
153	0xbdd3e018	-0.10345477
154	0xbdf7de01	-0.12102891
155	0xbc08ed40	-0.008357346
156	0x3d09dd9d	0.033658613
157	0x3dfa0267	0.122074895
158	0xbcb4ffca	-0.022094626
159	0x3dd20711	0.10255254
160	0x3c9d0efb	0.019172182
161	0xbc9334c0	-0.01796949
162	0xbdddf93d	-0.10838554
163	0x3d9750ce	0.07388459
164	0xbd3f099e	-0.04664003
165	0x3cbe5abf	0.02323663
166	0x3c8ee1a7	0.017441584
167	0xbdc4323c	-0.09579894
168	0x3d3ce4d5	0.04611667
169	0xbd03fd26	-0.032223843
170	0x3d8c9de4	0.06866053
171	0xbb878186	-0.0041353134
172	0xbcad68da	-0.021168161
173	0x3e015b60	0.12632513
174	0x3d2c5803	0.042076122
175	0x3dec7866	0.11546402
176	0xbdb884e2	-0.090097204
177	0xbd833dd9	-0.06408281
178	0x3e45945b	0.19294874
179	0xbd44ff53	-0.04809506
180	0xbbf56966	-0.007489371
181	0xbe3bbb73	-0.18333225
182	0x3c0bacf5	0.008525123
183	0x3d210745	0.039313573
184	0x3d592cfe	0.053021424
185	0x3cfff5a9	0.03124507
186	0xbe544396	-0.20728907
187	0xbd659180	-0.056046963
188	0x3d849795	0.064742245
189	0xbd49646d	-0.04916804
190	0x3d5c297f	0.05375051
191	0x3d3c57a5	0.04598202
192	0x3e13e423	0.14442496
193	0xbdb2e46b	-0.087349735
194	0x3e046b43	0.12931542
195	0x3d0198b3	0.031639766
196	0xbd5f6b13	-0.054545473
197	0x3d757fe1	0.059936408
198	0x3cd315ed	0.025767291
199	0x3df25e6e	0.11834417
200	0xbcf2509c	-0.029579453
201	0xbd0b0028	-0.033935696
202	0xbc293c62	-0.010329338
203	0xbca6b814	-0.020351447
204	0x3dbbc578	0.091685236
205	0xbbdc358e	-0.0067202514
206	0x3dba46b9	0.090955205
207	0x3d9b3b6b	0.075796925
208	0xba99410f	-0.0011692363
209	0x3cda3886	0.02663828
210	0x3ce9fd1e	0.028563078
211	0xbe25b298	-0.1618141
212	0xbd193429	-0.03740326
213	0x3c8104dc	0.015749387
214	0x3de58db6	0.1120867
215	0x3d6ac223	0.05731405
216	0xbd46b70f	-0.048514422
217	0xbe1dab5f	-0.15397404
218	0xbdc237c2	-0.09483291
219	0x3c3e9209	0.011631497
220	0x3ce7c48d	0.028291965
221	0x3d943756	0.07237117
222	0x3c200f17	0.009769223
223	0xbd9f835b	-0.07788726
224	0xbd6eb9fc	-0.058282837
225	0xbd5a455b	-0.0532888
226	0xbd79a84b	-0.060951512
227	0xbd673d50	-0.056454957
228	0x3db89bd1	0.090140946
229	0x3d410cb4	0.047131255
230	0xbcd4e36b	-0.025987348
231	0x3e0380b6	0.12842068
232	0x3d94450c	0.07239732
233	0xbd3eae07	-0.046552684
234	0xbb8ca51a	-0.0042921426
235	0x3da0529f	0.07828259
236	0xbda66be1	-0.08126045
237	0x3dec282f	0.11531102
238	0xbda21cad	-0.07915626
239	0xbd07028c	-0.032961413
240	0xbdf575dd	-0.11985371
241	0x3e0e3666	0.13887939
242	0x3d3a1459	0.04542956
243	0x3d6894d1	0.056782547
244	0x3ccbdc50	0.024885327
245	0x3d77d4c6	0.06050565
246	0xbddc3c5a	-0.10753699
247	0x3c53f661	0.012937159
248	0x3d8a9f7e	0.06768702
249	0xbdbfc3bd	-0.09363506
250	0xbd490e05	-0.049085636
251	0xbe01a070	-0.12658858
252	0x3df82fd9	0.12118501
253	0x3d7877ef	0.060661253
254	0xbd03192a	-0.03200642
255	0x3e2cdc4c	0.16880912

model.time_mlp.1.bias f4 [256]
0	0x388d88d1	6.748888e-05
1	0x383c2ee9	4.486638e-05
2	0xb7d18bba	-2.4979807e-05
3	0x36a1fdbb	4.827712e-06
4	0x37b79d0b	2.1888429e-05
5	0xb771fd3f	-1.4423683e-05
6	0xb884d0c6	-6.3331376e-05
7	0xb8694cc7	-5.5623033e-05
8	0x384f27a3	4.938956e-05
9	0x38477187	4.7551028e-05
10	0xb7795757	-1.4861892e-05
11	0xb8787eb5	-5.9245813e-05
12	0xb7f4a06b	-2.9161767e-05
13	0xb81414bb	-3.5305256e-05
14	0xb841a3c6	-4.616731e-05
15	0x378c784f	1.6745324e-05
16	0xb760df9a	-1.3403502e-05
17	0xb88086fe	-6.12866e-05
18	0x373ffe38	1.1443677e-05
19	0x382229a1	3.866258e-05
20	0xb8817bdb	-6.174269e-05
21	0x3868638b	5.5405817e-05
22	0x3836acb0	4.355301e-05
23	0x386a9ce8	5.5936078e-05
24	0x379cf8d5	1.871252e-05
25	0xb709fad0	-8.224233e-06
26	0x37efdca5	2.8593766e-05
27	0xb7e69784	-2.7488692e-05
28	0x381960d6	3.6568228e-05
29	0x382f5ac4	4.1807783e-05
30	0xb7dfa2f4	-2.6659553e-05
31	0xb7d08bc9	-2.4860625e-05
32	0xb7984286	-1.815079e-05
33	0xb7b93754	-2.2079483e-05
34	0xb8566f6f	-5.1125357e-05
35	0x37ccc8b2	2.4412151e-05
36	0xb8011768	-3.0777795e-05
37	0x377f495d	1.5216266e-05
38	0x3831163c	4.2220796e-05
39	0x3846f875	4.7438272e-05
40	0x384043af	4.5839402e-05
41	0x37b7a1a5	2.1890572e-05
42	0x36baa7c5	5.562763e-06
43	0xb686ba7c	-4.015221e-06
44	0x381f59b0	3.7992082e-05
45	0x377b9115	1.4994545e-05
46	0xb810d7ab	-3.4533132e-05
47	0xb8878ecd	-6.4639e-05
48	0xb8689658	-5.545313e-05
49	0x3731b0c0	1.0591175e-05
50	0x37de9853	2.6535394e-05
51	0xb73b884f	-1.1177805e-05
52	0x37c8eae2	2.3951234e-05
53	0xb8181461	-3.6258603e-05
54	0x36277c83	2.4957415e-06
55	0xb80bef20	-3.3362885e-05
56	0xb782038f	-1.5498865e-05
57	0x387c4e94	6.0154664e-05
58	0x38126f3e	3.4912715e-05
59	0x37d71653	2.5640393e-05
60	0xb8631dba	-5.4148702e-05
61	0xb84d9c49	-4.902136e-05
62	0xb70cf5c7	-8.401875e-06
63	0x38199fe5	3.6626956e-05
64	0x37a0a78b	1.9151505e-05
65	0xb855000f	-5.0783212e-05
66	0x37f8386f	2.9590183e-05
67	0xb754a466	-1.2674462e-05
68	0x368ad7c8	4.1378407e-06
69	0x3792853e	1.7466602e-05
70	0xb7b32d45	-2.1359543e-05
71	0xb8340b41	-4.2925825e-05
72	0x38741644	5.819487e-05
73	0x38911aff	6.919167e-05
74	0xb6955e91	-4.451555e-06
75	0xb875292f	-5.8450907e-05
76	0x38242979	3.913927e-05
77	0x386f217f	5.7013236e-05
78	0xb5750de8	-9.128985e-07
79	0x37bea5e3	2.2727012e-05
80	0x381e60ba	3.776022e-05
81	0xb82ecb37	-4.167409e-05
82	0x382cc7b2	4.1193976e-05
83	0x3793ff11	1.764254e-05
84	0x376a35b8	1.3959994e-05
85	0x381b5fab	3.7043977e-05
86	0x379a3354	1.8382132e-05
87	0xb8463b4e	-4.726211e-05
88	0x37e28727	2.7004235e-05
89	0x38124eaa	3.4882374e-05
90	0x381f494b	3.7976813e-05
91	0xb883cc09	-6.284571e-05
92	0xb87450b7	-5.8249305e-05
93	0xb78a0902	-1.6455077e-05
94	0xb7553111	-1.27072135e-05
95	0xb7745ab6	-1.4564654e-05
96	0xb841c63c	-4.6199406e-05
97	0xb87e1db8	-6.0585997e-05
98	0xb82204f2	-3.8628415e-05
99	0x35b1ce5b	1.3247585e-06
100	0x385d8608	5.2815332e-05
101	0xb7f6bb4d	-2.9412704e-05
102	0xb80a7fc1	-3.3020744e-05
103	0x36d1fa8d	6.2578533e-06
104	0xb816685a	-3.5859972e-05
105	0xb81863a8	-3.6332436e-05
106	0x37f05b83	2.8652843e-05
107	0xb7fa5f42	-2.984668e-05
108	0xb78ed813	-1.7028337e-05
109	0x36bd7f38	5.647449e-06
110	0xb8136268	-3.513918e-05
111	0xb8345e1b	-4.3002987e-05
112	0x37bedcae	2.2752527e-05
113	0x384f1c79	4.9379163e-05
114	0x388ea559	6.801886e-05
115	0x384b8068	4.851856e-05
116	0x380b2b89	3.3180728e-05
117	0x375a4930	1.3010853e-05
118	0x38909be7	6.895494e-05
119	0x366056ec	3.3429196e-06
120	0x385f247f	5.3201333e-05
121	0xb7ad659a	-2.0670519e-05
122	0xb7c84944	-2.3875975e-05
123	0x3820a505	3.830066e-05
124	0xb8481924	-4.770713e-05
125	0x388a6b53	6.6003435e-05
126	0xb784edd4	-1.5846374e-05
127	0xb7de4627	-2.649713e-05
128	0x38429d74	4.6399844e-05
129	0xb809797c	-3.2776486e-05
130	0xb63a28f6	-2.7740002e-06
131	0x38633c66	5.4177268e-05
132	0xb83dcce5	-4.5251934e-05
133	0xb843a935	-4.664921e-05
134	0x3795bd4d	1.7850334e-05
135	0xb83b1c3b	-4.4610566e-05
136	0x3860556e	5.3485324e-05
137	0xb8347081	-4.302012e-05
138	0xb841124c	-4.6031826e-05
139	0xb7eea90b	-2.8450528e-05
140	0x37945b3c	1.768546e-05
141	0x3888d7d1	6.525184e-05
142	0x37ce7fce	2.4616627e-05
143	0xb8653e26	-5.4655735e-05
144	0xb6f6761f	-7.3451224e-06
145	0xb79bc323	-1.8568307e-05
146	0x3898173d	7.252253e-05
147	0x36b79f44	5.472366e-06
148	0xb8429ada	-4.639742e-05
149	0xb88c5ba6	-6.692791e-05
150	0x380e84cc	3.3979115e-05
151	0xb8805e2a	-6.121055e-05
152	0xb7af1594	-2.0871674e-05
153	0xb7393098	-1.1038173e-05
154	0x37c04888	2.2921959e-05
155	0x38615801	5.372614e-05
156	0xb8201546	-3.8166785e-05
157	0xb684aa3b	-3.953724e-06
158	0xb858fa7f	-5.1731706e-05
159	0xb87282ec	-5.7819227e-05
160	0xb76533b0	-1.3661498e-05
161	0x38444d92	4.6802284e-05
162	0x37aea366	2.0818505e-05
163	0xb6fe6414	-7.5814405e-06
164	0x378a942f	1.6519885e-05
165	0x37d499fc	2.5344074e-05
166	0xb72f7cde	-1.0459886e-05
167	0x37308f2f	1.0523755e-05
168	0x387cc3cd	6.0263836e-05
169	0xb654d24e	-3.1712875e-06
170	0x37b2b8d1	2.1305315e-05
171	0xb83f2c24	-4.5579058e-05
172	0x37fb7d54	2.9979892e-05
173	0xb850cd6f	-4.978239e-05
174	0x37189d7a	9.096571e-06
175	0xb828620e	-4.0145642e-05
176	0x36e0714a	6.688909e-06
177	0xb805c491	-3.1892738e-05
178	0xb5b774ca	-1.3668553e-06
179	0xb85cc5d0	-5.2636315e-05
180	0x3826ef77	3.9800503e-05
181	0xb75324cb	-1.2585147e-05
182	0x379d4420	1.8747582e-05
183	0x382de8e7	4.146332e-05
184	0xb7ef5803	-2.8532004e-05
185	0xb7d21d83	-2.5047693e-05
186	0x37c558b3	2.3525534e-05
187	0x37ce004c	2.4557252e-05
188	0xb80513a2	-3.1727956e-05
189	0x37d58499	2.5453324e-05
190	0x37e9ac52	2.7856007e-05
191	0x384efe69	4.9351165e-05
192	0xb7806136	-1.5304056e-05
193	0xb808aeed	-3.258784e-05
194	0xb800fe65	-3.07545e-05
195	0xb8310869	-4.220792e-05
196	0x37afc32b	2.0952508e-05
197	0x38287b68	4.0169252e-05
198	0xb826c18b	-3.9757735e-05
199	0xb7f7ce12	-2.9540653e-05
200	0xb7f0e7a9	-2.8718105e-05
201	0xb737aa37	-1.0947281e-05
202	0xb87968ff	-5.946401e-05
203	0x37256dcc	9.8603305e-06
204	0xb84d0be8	-4.8886897e-05
205	0x37d66b56	2.556077e-05
206	0xb80e8781	-3.3981636e-05
207	0x37841e35	1.5749692e-05
208	0x382f40b2	4.1783504e-05
209	0x37b0b361	2.1064365e-05
210	0xb85d4d6f	-5.276262e-05
211	0x3614312c	2.208234e-06
212	0xb87a38b6	-5.965746e-05
213	0x37f24648	2.8881375e-05
214	0xb80717d2	-3.2208693e-05
215	0xb773d7ec	-1.4534202e-05
216	0xb7f98ec6	-2.9749597e-05
217	0xb7bcb5ab	-2.2495942e-05
218	0x388c3612	6.6857916e-05
219	0xb80371ee	-3.133894e-05
220	0x37dddd86	2.6448408e-05
221	0x387139f8	5.7512865e-05
222	0x3807de0c	3.2393305e-05
223	0xb818944a	-3.637773e-05
224	0xb86eb4c8	-5.6911987e-05
225	0x381f8d03	3.803988e-05
226	0xb862bbff	-5.4057684e-05
227	0x3807f8b9	3.241815e-05
228	0xb84195af	-4.615419e-05
229	0x386e7fd3	5.6862667e-05
230	0x3831ffa2	4.2438165e-05
231	0x33f8bc2b	1.15826275e-07
232	0x37346442	1.0752179e-05
233	0x38863597	6.3996e-05
234	0x373d0582	1.126656e-05
235	0x3740911f	1.147788e-05
236	0xb882c9a2	-6.23644e-05
237	0x384834f2	4.7733025e-05
238	0x37eb75c2	2.8069018e-05
239	0xb8150cb7	-3.553621e-05
240	0x37ec737c	2.8187169e-05
241	0x3836e94d	4.360946e-05
242	0x384f14ab	4.9371894e-05
243	0xb7ef76be	-2.8546314e-05
244	0x387f90c6	6.093157e-05
245	0xb6c3ed40	-5.8390724e-06
246	0xb8302c0d	-4.2002695e-05
247	0x37ef9a1f	2.8562788e-05
248	0x38080363	3.242808e-05
249	0xb851136e	-4.984758e-05
250	0x38615927	5.372721e-05
251	0x377c797c	1.5048656e-05
252	0x384fb82e	4.9524177e-05
253	0xb836b552	-4.356105e-05
254	0x38897234	6.553941e-05
255	0x382b11e4	4.078624e-05

model.time_mlp.3.weight f4 [32, 256]
0	0x3d8c94f7	0.0686435
1	0x3b73717b	0.0037146497
2	0xbcd61360	-0.026132286
3	0xbd30bb1d	-0.043147195
4	0xbc13fda0	-0.009032637
5	0xbc92f9d3	-0.017941391
6	0xbc3620b9	-0.0111162
7	0xbcb4f186	-0.022087824
8	0x3b0ea8e6	0.0021768152
9	0xbc6bd4ac	-0.014393967
10	0x3c204505	0.009782081
11	0xbc30fd6f	-0.010802611
12	0x3c24ae3b	0.010051305
13	0xbc8909de	-0.016728338
14	0xbd077964	-0.03307475
15	0xbc31e09c	-0.010856774
16	0xbb522f21	-0.0032071548
17	0xbd9a11aa	-0.075229004
18	0x3d00c741	0.031440023
19	0xbbd6af1a	-0.0065516355
20	0xbc918c5b	-0.017767122
21	0x3c894b2f	0.016759483
22	0xbc2ef937	-0.010679535
23	0x3da3dbfc	0.08000943
24	0xbb4a58e4	-0.0030875737
25	0x3c0332cf	0.008007719
26	0xbd0c1aac	-0.034205124
27	0xbd87b0fb	-0.06625553
28	0x3cc1a549	0.023638384
29	0x3c3fb6b3	0.011701274
30	0x3bc3e6be	0.0059784343
31	0xbc6bcc86	-0.014392024
32	0x3d601eb4	0.05471678
33	0xbdd664a3	-0.10468414
34	0xbcfaf786	-0.030635606
35	0x3b3dcc12	0.0028960747
36	0x3b6f9b2e	0.0036561
37	0x3c14fb8f	0.009093179
38	0xbd0c9de1	-0.034330253
39	0x3b933195	0.0044919946
40	0xbca06845	-0.01958097
41	0x3b4379de	0.0029827277
42	0x3a201c2a	0.00061077124
43	0x3c978eef	0.018500773
44	0xbae36b31	-0.0017350671
45	0x3d35a146	0.044343255
46	0xbda1b26c	-0.078953594
47	0xbd15d751	-0.036582295
48	0xbc860879	-0.016361462
49	0xbc0dc84f	-0.008653714
50	0xbbb6c6cd	-0.005577898
51	0xbcf4c102	-0.02987719
52	0x3cafa454	0.021440662
53	0xbb975a24	-0.0046189
54	0x3bb6df37	0.0055808085
55	0xbc4c77fc	-0.012479778
56	0x3c114ee1	0.008868904
57	0xbcce4008	-0.025177017
58	0xbca0f181	-0.019646408
59	0xbbc9c9f3	-0.0061581074
60	0xbca34c75	-0.019933918
61	0xbd14bf6e	-0.036315374
62	0x3d101a9d	0.03518163
63	0x3cbc41fe	0.022980686
64	0x3c8045fb	0.01565837
65	0x3c9e293b	0.01930677
66	0x3b8f7843	0.00437835
67	0x3cd85d6c	0.026411735
68	0xbcf079d7	-0.029354973
69	0xbc1811f0	-0.00928162
70	0xbc622013	-0.013801592
71	0x3d810ee7	0.063016705
72	0xbcd8bd1a	-0.026457358
73	0x3ca69efe	0.020339485
74	0xbdcbba72	-0.09947671
75	0x3bdfa09d	0.0068245665
76	0xbc8d1507	-0.01722194
77	0xbc872971	-0.016499253
78	0xbd33f670	-0.043936193
79	0x3c9df325	0.01928098
80	0xbc22038d	-0.009888542
81	0xbd7b3e28	-0.061338574
82	0xbcfc68e3	-0.030811733
83	0xbd1501d9	-0.036378715
84	0xbc2fb48f	-0.010724201
85	0xbd3a3ea9	-0.045469914
86	0xbcad0c13	-0.021123921
87	0xba99bcea	-0.0011729274
88	0xbcf8b543	-0.03035987
89	0xbd385349	-0.045001302
90	0x3cb34163	0.021881765
91	0xbd1dd5bc	-0.03853391
92	0xbd25903d	-0.04042076
93	0x3c583a1b	0.013197447
94	0xbcb31aba	-0.02186333
95	0xbd0366f7	-0.032080617
96	0xbc8d5408	-0.017251983
97	0xbd2d1a33	-0.042261314
98	0xbd38edc2	-0.04514862
99	0x3cb2e26f	0.021836488
100	0xbc8c7181	-0.017143967
101	0x3c132f90	0.008983508
102	0xbcc525df	-0.02406591
103	0xbc23b52f	-0.009991928
104	0x3c608496	0.013703486
105	0x3a68eb80	0.000888519
106	0x3bacb486	0.0052705435
107	0xbc45a188	-0.012062438
108	0x3d4794f8	0.048726052
109	0x3d02896b	0.031869333
110	0xbc8ae5e8	-0.016955331
111	0x3ce996bb	0.028514257
112	0x3b341335	0.0027477269
113	0x3d2a5c95	0.0415922
114	0x3c48baf8	0.012251608
115	0x3c4ed97c	0.0126250945
116	0xbbae4c55	-0.005319158
117	0xbd2da1d9	-0.042390678
118	0xba029e29	-0.0004982674
119	0x3beb20ce	0.0071755415
120	0x3c91c98e	0.017796304
121	0x3cbdd273	0.02317164
122	0x3c943a2c	0.018094145
123	0x3d0398fa	0.03212831
124	0xbcc8eb71	-0.02452633
125	0xbd15d917	-0.036583986
126	0xbd2e9fac	-0.042632744
127	0x3d1c207e	0.038116924
128	0xbb7857cf	-0.0037894135
129	0x3cb408f3	0.021976924
130	0xbc57751a	-0.013150478
131	0xbbb2bfe4	-0.005455004
132	0xbcc026f2	-0.02345607
133	0x3b83e535	0.0040251263
134	0xbd0d8271	-0.034548227
135	0x3c031c89	0.008002409
136	0xbd4e9bbf	-0.0504415
137	0xbcb7047a	-0.022341002
138	0xbd0e3be7	-0.034725096
139	0x3d16b1ae	0.036790542
140	0xba9b6bbd	-0.001185767
141	0xbc82f6c9	-0.015986817
142	0xbae134ee	-0.0017181912
143	0xbb471c70	-0.003038194
144	0xbc6b8d7c	-0.014376994
145	0x3a86f81a	0.0010297329
146	0x3d471103	0.048600208
147	0x3b42e762	0.0029739966
148	0xbcfa4ea6	-0.03055508
149	0xbd68c71c	-0.05683051
150	0x3d0636ce	0.03276711
151	0xbd3ca1d6	-0.046052776
152	0xbc5a11a0	-0.013309866
153	0xba84834e	-0.0010109933
154	0x3cc35b00	0.023847103
155	0x3c261d1c	0.010138776
156	0x3d6c9c91	0.0577665
157	0xbbe41af5	-0.0069612213
158	0x3d268be9	0.040660772
159	0xbcd4f76a	-0.025996882
160	0xbd21f017	-0.03953561
161	0x3d6716df	0.056418296
162	0xbcd70826	-0.026249003
163	0x3d82ec09	0.063926764
164	0x3b6525ba	0.0034965114
165	0xbbfdb592	-0.007742592
166	0xbb568bf4	-0.0032737227
167	0x3d31be4e	0.04339438
168	0x3c059f3e	0.008155642
169	0xbd6426e0	-0.055701137
170	0xbd9429de	-0.07234548
171	0x39cae41f	0.00038698406
172	0xbafbc284	-0.001920775
173	0x3cc99e7b	0.024611702
174	0x3c995c7f	0.018720863
175	0xbcfbce7b	-0.030738106
176	0x3c191476	0.009343257
177	0x3beff9a0	0.007323459
178	0x3cfaa36b	0.030595502
179	0x3bbcda33	0.005763316
180	0xba71adc0	-0.0009219311
181	0xbb8fef07	-0.004392508
182	0x3c9c8c53	0.01910988
183	0x3c078698	0.008271836
184	0x3bf5652a	0.0074888663
185	0x3c7152d1	0.014729218
186	0x3d727e6a	0.05920259
187	0x3c38afc1	0.011272372
188	0x3cf3454a	0.029696126
189	0x3db48dc9	0.08816106
190	0xbc9b53b3	-0.01896081
191	0x3c3d279a	0.011545086
192	0x3cb7f291	0.022454532
193	0xbc39f513	-0.011349934
194	0xbc5ae982	-0.013361337
195	0xbc425cc4	-0.011862937
196	0xbc2ce2e5	-0.010552143
197	0xbbf877d6	-0.007582645
198	0x3c1e9123	0.009678158
199	0x3c651e4f	0.013984277
200	0xbd2e6922	-0.04258073
201	0xbc3ebea8	-0.011642136
202	0x3c58ff70	0.013244495
203	0xbc543f22	-0.012954505
204	0x3bf4b4db	0.0074678487
205	0x3d48050b	0.048832934
206	0x3bd964b2	0.0066343183
207	0xbbb05050	-0.0053806677
208	0x3c2644d1	0.010148243
209	0x3c5a638b	0.013329397
210	0xbd0f6b9f	-0.035014745
211	0xbbca07cd	-0.0061654807
212	0xbd6ba75c	-0.057532653
213	0xbc3de8b5	-0.011591126
214	0x3d31e160	0.043427825
215	0xbc5ddb65	-0.013541077
216	0x3d02b766	0.031913184
217	0x3bcfd33d	0.0063423202
218	0x3d33cf3e	0.043898813
219	0xbc1fab07	-0.009745366
220	0x3bb8e268	0.005642224
221	0x3d5949fe	0.05304908
222	0x3c44777f	0.011991381
223	0xbd4ff8b3	-0.050774287
224	0x3ceb135e	0.028695758
225	0xbcc72cc7	-0.024313344
226	0x3d18c861	0.03730047
227	0xbbea097b	-0.0071422434
228	0xbbde1210	-0.0067770556
229	0xbcdcd20c	-0.026955627
230	0xbc5d322c	-0.013500731
231	0xbd487fa2	-0.048949845
232	0xbce029ee	-0.027363744
233	0x3c5cba97	0.013472221
234	0x3cf1a2cd	0.029496575
235	0x3bfd0fb0	0.0077228174
236	0xbb714b0c	-0.0036818413
237	0xbd22150d	-0.039570857
238	0x3ccbcc23	0.024877613
239	0xbc90879a	-0.017642785
240	0x3d0b059d	0.0339409
241	0x3d7fae0c	0.062421843
242	0x3c3df00d	0.011592877
243	0x3acd3f20	0.0015659072
244	0x3ce73945	0.02822555
245	0x3d411715	0.047141153
246	0xbb662ad6	-0.0035120747
247	0x3c759ecd	0.014991474
248	0xbc6098e5	-0.013708328
249	0x3d1157e1	0.0354842
250	0x3a807458	0.0009800298
251	0x3ca8c693	0.0206025
252	0x3abba021	0.001431469
253	0x3af0825e	0.0018349399
254	0x3c4861e8	0.012230374
255	0xbd3b4135	-0.045716483

model.time_mlp.3.bias f4 [32]
0	0x38b9a467	8.85211e-05
1	0xb87b3f17	-5.990182e-05
2	0x3854e37c	5.07566e-05
3	0xb8bfbbaa	-9.142545e-05
4	0x38c6e780	9.484496e-05
5	0xb8948307	-7.081596e-05
6	0x3868383a	5.5365475e-05
7	0x38b6c179	8.7144734e-05
8	0xb8c4fed6	-9.393475e-05
9	0x38c065ad	9.174212e-05
10	0xb85abff2	-5.2154013e-05
11	0x38a3ec0c	7.816413e-05
12	0xb87ac12d	-5.9784554e-05
13	0x3867d53a	5.5273274e-05
14	0x38bbfe57	8.964229e-05
15	0xb83d47d5	-4.512801e-05
16	0x38b72d14	8.7345165e-05
17	0xb89b4302	-7.403457e-05
18	0xb8c392da	-9.325678e-05
19	0xb85734e8	-5.1309267e-05
20	0x38c7069d	9.490291e-05
21	0xb8b8a9d8	-8.8054396e-05
22	0xb8a378a8	-7.79492e-05
23	0xb89bf9cc	-7.437504e-05
24	0x38bf9720	9.135739e-05
25	0x38a2bf46	7.7603894e-05
26	0xb8b02b7a	-8.400432e-05
27	0x38b3afa6	8.568102e-05
28	0x38b9f35a	8.866815e-05
29	0xb8c5aad4	-9.425511e-05
30	0x38aacfdb	8.144948e-05
31	0x377b1a97	1.4966957e-05

model.layer.0.weight f4 [256, 55]
0	0xbc137ea8	-0.009002365
1	0xbdb46147	-0.08807617
2	0xbe105461	-0.14094688
3	0x3dcec19a	0.1009552
4	0xbe05c634	-0.1306389
5	0x3c44d492	0.012013571
6	0x3beea626	0.00728299
7	0xbcef06fe	-0.029178139
8	0xbbc6111e	-0.006044521
9	0xbdd102b2	-0.10205592
10	0x3dd6616c	0.104678005
11	0xbd85cee5	-0.065336026
12	0xbd937d28	-0.07201606
13	0x3d12f418	0.035877317
14	0x3ca1346c	0.019678317
15	0x3e10f966	0.14157638
16	0x3d0dab58	0.034587234
17	0xbe13ac1f	-0.14421128
18	0x3d763b78	0.060115308
19	0xbd848b03	-0.06471827
20	0x3d41b7ca	0.047294416
21	0x3dd9e7cd	0.106399156
22	0x3c0755aa	0.00826017
23	0x3ba4a983	0.00502509
24	0x3c7c916f	0.015415533
25	0xbbaeba7c	-0.0053322893
26	0xbd1b13a9	-0.037860546
27	0x3de61629	0.112346955
28	0x3cf10382	0.029420618
29	0xbc98ebd1	-0.018667134
30	0xba4f992a	-0.00079192466
31	0x3daa246c	0.08307728
32	0xbcd26d68	-0.025686935
33	0xbbdf4176	-0.0068132235
34	0x3d43c2ce	0.047793202
35	0x3d38cee1	0.04511917
36	0x3db7e7fe	0.08979796
37	0x3dd91594	0.10599819
38	0xbd15a5d5	-0.036535103
39	0x3c5a0486	0.0133067425
40	0xbd31f962	-0.04345072
41	0xbbab50a0	-0.005228117
42	0x3e0ef99e	0.13962409
43	0xbdb13261	-0.08652187
44	0x3d79e071	0.06100506
45	0xbc9ee311	-0.019395383
46	0x3d38afa0	0.045089364
47	0xbd6cb999	-0.057794187
48	0xbdb7bf39	-0.0897202
49	0xbd9a7f53	-0.075438164
50	0x3d836005	0.06414799
51	0x3e022a28	0.12711394
52	0x3dcd9552	0.10038246
53	0x3d0d523c	0.034502253
54	0xbd53c7b3	-0.05170412
55	0x3cdbfc53	0.026853716
56	0x3d847e2f	0.0646938
57	0xbcaa6681	-0.02080083
58	0x3cf6a117	0.03010611
59	0x3da847c8	0.08216816
60	0x39a57024	0.00031554804
61	0x3af27757	0.0018498701
62	0xbdc0ddec	-0.09417328
63	0xbdb5b3e7	-0.08872204
64	0x3c298d30	0.010348603
65	0xbc57908a	-0.013157019
66	0xbddf5b27	-0.10906058
67	0x3ad97128	0.0016589509
68	0xbd08ff82	-0.033446796
69	0xbdaefa2f	-0.085438125
70	0xbd146f88	-0.036239177
71	0xbc588a82	-0.013216617
72	0x3d1dbcfe	0.038510315
73	0x3d36273e	0.044471018
74	0x3de6ade7	0.11263638
75	0x3db5d823	0.088791154
76	0xbcd03a64	-0.025418468
77	0x3c8871fa	0.01665591
78	0x3d60c672	0.054876752
79	0xbdcffd82	-0.10155775
80	0xbd56b9d8	-0.05242333
81	0xbd05b86f	-0.032646593
82	0x3d95d2ee	0.07315622
83	0xbdb4ef77	-0.08834737
84	0x3d6ab580	0.057302
85	0x3d1b8780	0.03797102
86	0xbda20ea5	-0.079129495
87	0x3c8081d0	0.0156869
88	0xbce08da5	-0.027411291
89	0x3c9015d3	0.017588532
90	0x3c82b29b	0.015954306
91	0xbcc92019	-0.024551438
92	0x3b15d4fb	0.0022862542
93	0xbcbcc894	-0.023044862
94	0x3dc9c9fe	0.0985298
95	0x3dc29b13	0.09502234
96	0x3d8a3295	0.06747929
97	0x3d775ad9	0.060389373
98	0x3df61a5e	0.12016748
99	0x3d124751	0.035712544
100	0xbdab29c3	-0.08357575
101	0xbb8d0404	-0.004303457
102	0x3d5e8f9f	0.054336186
103	0xbdabc212	-0.08386625
104	0x3c805d91	0.015669616
105	0xbd4173af	-0.047229465
106	0x3d45df74	0.048308805
107	0xbc9a8d79	-0.018866288
108	0xbba06850	-0.0048952475
109	0xbd9a04db	-0.07520457
110	0xbc890a40	-0.01672852
111	0x3d5a95a1	0.053365353
112	0x3d27d553	0.040974926
113	0x3d065d65	0.03280391
114	0x3c66c5de	0.014085261
115	0x3cbf5928	0.023357943
116	0xbd170b7e	-0.036876194
117	0xbd8f72ab	-0.07004293
118	0xbbe37c7c	-0.00694233
119	0xbdb0e227	-0.08636885
120	0xbc900a58	-0.017583057
121	0xbd1b1476	-0.03786131
122	0xbaaca87c	-0.0013172771
123	0xbd1ef877	-0.038811173
124	0x3d082e12	0.03324706
125	0xbdd19bc2	-0.102347866
126	0xbddb59a7	-0.10710459
127	0x3ab4a584	0.0013782238
128	0x3c16f32d	0.009213251
129	0xbdebd5f4	-0.11515418
130	0x3dbcdb07	0.09221464
131	0xbd493a11	-0.049127642
132	0xbdd0c350	-0.10193503
133	0xbd601d0d	-0.054715205
134	0xbe0c73f0	-0.13716102
135	0x3e252723	0.1612821
136	0xbdc7af26	-0.09750204
137	0xbd587092	-0.05284173
138	0xba6f291b	-0.00091232517
139	0xbd2e8d84	-0.04261543
140	0x3dfb5734	0.12272492
141	0xbd0ef08f	-0.034897383
142	0xbc89357f	-0.016749142
143	0x3daa31f9	0.08310313
144	0x3d281b56	0.041041695
145	0xbdda6474	-0.10663691
146	0xbcb625c8	-0.022234812
147	0xbd51e93e	-0.051247828
148	0x3d299377	0.0414004
149	0xbd462522	-0.048375256
150	0x3da56480	0.080758095
151	0x3b39d538	0.0028355848
152	0xbd2d5cbf	-0.042324778
153	0xbd82ae4c	-0.06380901
154	0xbc8cdefd	-0.017196173
155	0xbdbe44fa	-0.092905
156	0x3df3b76a	0.11900218
157	0xbd5f71ad	-0.05455177
158	0xbd057a83	-0.03258754
159	0xb9bf9470	-0.00036540953
160	0x3d3c693b	0.045998793
161	0xbd2f5acb	-0.042811196
162	0xbe14cd3f	-0.1453142
163	0xbd172171	-0.036897127
164	0x3cc6d1f7	0.02427004
165	0x3d88ecc4	0.066857845
166	0xbdb0d55c	-0.08634445
167	0xbcbcee0f	-0.023062734
168	0xbe1534c9	-0.14570917
169	0x3dd132a7	0.10214739
170	0xbc5b1cc4	-0.0133735575
171	0xbb0fd874	-0.0021949084
172	0xbdb6ff37	-0.08935397
173	0xbc926ed8	-0.01787512
174	0x3dcc3e90	0.0997287
175	0xbd33083b	-0.04370902
176	0x3c82f993	0.015988147
177	0x3ae8e1fd	0.0017767545
178	0x3dab8b85	0.083762206
179	0xbd99dc00	-0.07512665
180	0x3d539db0	0.051664054
181	0x3d9eca32	0.077534094
182	0xbb842874	-0.0040331427
183	0xbc9082e6	-0.017640542
184	0x3df9c160	0.121950865
185	0x3d07becc	0.033140942
186	0xbd0b46aa	-0.034002937
187	0xbca99d3b	-0.020704856
188	0x3babb967	0.0052406075
189	0x3d33b625	0.04387488
190	0xbd69b89d	-0.057060827
191	0xbd02bc11	-0.031917635
192	0x3d0344b8	0.032047957
193	0x3cd31406	0.025766384
194	0x3c7f6900	0.015588999
195	0x3ca31eb4	0.019912101
196	0xbc15ad47	-0.009135551
197	0xbda5c4a9	-0.080941506
198	0xbceb8e9c	-0.028754525
199	0x3c996cb8	0.018728599
200	0xbda782e0	-0.08179259
201	0xbccd4974	-0.02505944
202	0xbd41de79	-0.047331307
203	0x3d438125	0.047730584
204	0x3d4f23fb	0.050571423
205	0xbd392a40	-0.04520631
206	0xbcb46e67	-0.0220253
207	0xbd377740	-0.04479146
208	0x3dc2cf78	0.09512228
209	0x3c2ee5b2	0.010674881
210	0x3d15fcd5	0.036618073
211	0x3de80fea	0.1133116
212	0x3dab3fa6	0.08361749
213	0xbdb056b1	-0.08610285
214	0x3d576d93	0.052594732
215	0x3df26ab5	0.11836759
216	0xbc1d706f	-0.009609326
217	0xbd0100a5	-0.031494755
218	0x3c2e0798	0.010621928
219	0xbd73e7a5	-0.059547085
220	0xbd943a4f	-0.07237684
221	0xbc88ea08	-0.016713157
222	0xbd074559	-0.03302512
223	0xbc8eadaf	-0.017416803
224	0xbbcaa96b	-0.006184747
225	0x3dd32592	0.103099
226	0xbe17b015	-0.14813264
227	0x3cf4bb96	0.029874604
228	0x3ce1505e	0.027504142
229	0x3e13b13a	0.14423075
230	0xbd294ba0	-0.041331887
231	0x3d8d589b	0.06901666
232	0x3ca55736	0.020183187
233	0xbd9d0f84	-0.07668975
234	0x3d597216	0.053087316
235	0x3c8461d7	0.016159935
236	0xbd755589	-0.059896026
237	0x3d43fac5	0.047846574
238	0x3d8c84bf	0.06861257
239	0xbd89a64b	-0.06721171
240	0xbc7b0113	-0.01532008
241	0xbd059404	-0.03261186
242	0xbd20a0f9	-0.039216015
243	0x3d1227c0	0.03568244
244	0xbe0ab0da	-0.13544026
245	0xbc849d81	-0.016188385
246	0xbc52f0ea	-0.012874821
247	0x3dc15d0a	0.09441574
248	0xbda189b8	-0.07887596
249	0xbda2f631	-0.079571135
250	0x3cf2e2cf	0.029649166
251	0xbdc18690	-0.09449494
252	0xbe2825bd	-0.16420646
253	0x3dbd4841	0.09242297
254	0xba569208	-0.00081852125
255	0xbc1871d7	-0.009304485

model.layer.0.bias f4 [256]
0	0x38c4cf75	9.38465e-05
1	0x38b219e2	8.4925225e-05
2	0x38b3976d	8.5635904e-05
3	0xb89a92d5	-7.370642e-05
4	0xb8abd957	-8.194398e-05
5	0x3897df94	7.241886e-05
6	0x38a7c72f	8.0002814e-05
7	0xb8bbc042	-8.952666e-05
8	0xb8911b11	-6.91918e-05
9	0x3827b68d	3.9985916e-05
10	0x387f3b92	6.0852217e-05
11	0xb8c247ea	-9.264036e-05
12	0x38c7b237	9.5222545e-05
13	0x3878b2d5	5.9294358e-05
14	0x38962b46	7.160618e-05
15	0xb8cbd0ef	-9.718711e-05
16	0x38c0de97	9.196734e-05
17	0xb8b89bc0	-8.8028144e-05
18	0x3821804a	3.850487e-05
19	0x37cf653f	2.472347e-05
20	0xb8bd6c77	-9.0324254e-05
21	0xb8c27abd	-9.273503e-05
22	0xb8852f18	-6.350706e-05
23	0x38b9496d	8.835164e-05
24	0x38adb4d0	8.282962e-05
25	0xb8adf965	-8.295736e-05
26	0x388f6235	6.837064e-05
27	0xb8b1bc47	-8.475087e-05
28	0xb8c1ac8d	-9.235097e-05
29	0xb8af5260	-8.359994e-05
30	0xb8bccadc	-9.002324e-05
31	0xb8c2d27b	-9.289846e-05
32	0xb8869d90	-6.418966e-05
33	0x38a1f025	7.721809e-05
34	0xb8bf262e	-9.114701e-05
35	0x38c6ad0d	9.473609e-05
36	0x38bd2a83	9.020141e-05
37	0xb8b07948	-8.4149244e-05
38	0x38b9d1b8	8.8605506e-05
39	0x38c50c3a	9.3959694e-05
40	0x38bee77c	9.103023e-05
41	0xb8bac516	-8.905881e-05
42	0xb8756514	-5.850669e-05
43	0x389c2921	7.4463205e-05
44	0xb8765f6a	-5.873983e-05
45	0xb851d79a	-5.0030278e-05
46	0x38b984ce	8.846224e-05
47	0x38b70929	8.727826e-05
48	0x38c40590	9.3470444e-05
49	0x389bc591	7.4277756e-05
50	0x3899994e	7.324164e-05
51	0xb8bd1358	-9.015825e-05
52	0xb8c5ae16	-9.426118e-05
53	0xb8be1255	-9.0633206e-05
54	0x389adaf7	7.3840776e-05
55	0xb8c19d3a	-9.232243e-05
56	0xb8b6f124	-8.723352e-05
57	0x38bf64d1	9.126368e-05
58	0x388d2cf8	6.73178e-05
59	0x3850dcb1	4.97966e-05
60	0x38b38de4	8.561814e-05
61	0xb898b369	-7.2813426e-05
62	0xb8993529	-7.3055104e-05
63	0xb8275071	-3.989082e-05
64	0xb8b459c4	-8.599789e-05
65	0xb8b8b0a4	-8.8067056e-05
66	0x38bf92c5	9.134928e-05
67	0x38b80c08	8.776045e-05
68	0x38c4ca5f	9.383703e-05
69	0x38c7d49a	9.5286596e-05
70	0xb8c1d329	-9.242289e-05
71	0xb8a21e0a	-7.730357e-05
72	0x38c7af21	9.52168e-05
73	0xb8b2e7c3	-8.5308704e-05
74	0x38a2cec0	7.763272e-05
75	0xb8aabee1	-8.141786e-05
76	0x38267ace	3.9691855e-05
77	0xb8a5f009	-7.912523e-05
78	0xb8b23fe2	-8.4996005e-05
79	0xb8aeac4e	-8.329061e-05
80	0xb8c97e47	-9.607948e-05
81	0x38b3cfda	8.5741005e-05
82	0xb8657951	-5.471084e-05
83	0x389f5b28	7.59869e-05
84	0x38c13f61	9.2147624e-05
85	0xb8c16f3f	-9.223678e-05
86	0x38bb867f	8.941907e-05
87	0x368000cd	3.8147905e-06
88	0xb8bebbce	-9.094887e-05
89	0x38bab3b8	8.9026464e-05
90	0xb8b06f3d	-8.413054e-05
91	0xb8b0fc56	-8.439335e-05
92	0xb7615408	-1.343061e-05
93	0x38c106b8	9.2042086e-05
94	0xb8c37c72	-9.321504e-05
95	0x38b79321	8.753525e-05
96	0xb896f924	-7.1989634e-05
97	0x38bfe495	9.1501664e-05
98	0x38c48ebb	9.372594e-05
99	0xb8baa0b9	-8.899108e-05
100	0xb8b81397	-8.7774526e-05
101	0xb8a5ea89	-7.911499e-05
102	0xb8c3b336	-9.331705e-05
103	0xb8b91495	-8.825321e-05
104	0x38c57bbd	9.41674e-05
105	0xb8b62ebe	-8.687143e-05
106	0x389a7d1d	7.3665964e-05
107	0xb8b7fb34	-8.77291e-05
108	0xb8b829bc	-8.781577e-05
109	0xb8c51a52	-9.3985946e-05
110	0xb8bc063a	-8.965698e-05
111	0xb8b86276	-8.7921435e-05
112	0xb88dfb93	-6.770263e-05
113	0x38c0eb31	9.199081e-05
114	0xb8a1b97b	-7.711627e-05
115	0x3784ee6f	1.5846656e-05
116	0x38b71fb1	8.732023e-05
117	0xb8c1687a	-9.2224174e-05
118	0xb8c6955d	-9.469197e-05
119	0x38bd7166	9.0333444e-05
120	0x387893d4	5.9265483e-05
121	0x38a80212	8.01125e-05
122	0xb8348790	-4.3041597e-05
123	0x38ca2d34	9.64053e-05
124	0x38b2c46d	8.5242886e-05
125	0x38ba4a5e	8.883023e-05
126	0x38708d92	5.7352307e-05
127	0xb8c45b13	-9.362972e-05
128	0x38769d4f	5.8797476e-05
129	0xb8c36a61	-9.318139e-05
130	0xb8c1950b	-9.2307186e-05
131	0x38adafc8	8.282025e-05
132	0xb8b3adb4	-8.56774e-05
133	0xb88d9106	-6.750417e-05
134	0x38a79ff4	7.992974e-05
135	0x38bc0b68	8.966663e-05
136	0x38b8546e	8.78953e-05
137	0x38bc5e3c	8.982091e-05
138	0xb8c40df3	-9.3486065e-05
139	0xb898c03b	-7.2837305e-05
140	0xb8a5fa4f	-7.914437e-05
141	0xb88d4d02	-6.737748e-05
142	0xb85f3a28	-5.3221505e-05
143	0xb8b4ad38	-8.615333e-05
144	0xb8b21d0e	-8.493113e-05
145	0xb8c28f28	-9.277306e-05
146	0xb86de63d	-5.671963e-05
147	0x385f00f4	5.316823e-05
148	0x38b3a06b	8.565265e-05
149	0xb8898c28	-6.558775e-05
150	0xb876dc71	-5.8856273e-05
151	0xb8b4249f	-8.58989e-05
152	0x38876126	6.455397e-05
153	0x38c2e968	9.294116e-05
154	0x38c0efcf	9.199941e-05
155	0x385af7a0	5.220587e-05
156	0xb89276e7	-6.98397e-05
157	0x38c7b07c	9.521932e-05
158	0xb8b5043b	-8.6315405e-05
159	0x38ae6b78	8.316984e-05
160	0x38caa70a	9.663224e-05
161	0xb8b31647	-8.5395346e-05
162	0x37d09a6a	2.4867437e-05
163	0xb8a80940	-8.012587e-05
164	0xb8c37403	-9.3199335e-05
165	0xb8c8e2cb	-9.578987e-05
166	0xb8c5c4af	-9.430327e-05
167	0x379b1be6	1.8490431e-05
168	0xb818596d	-3.632291e-05
169	0xb7210688	-9.5978685e-06
170	0x38c1c107	9.238911e-05
171	0xb88a2377	-6.5869586e-05
172	0x38b63eed	8.690157e-05
173	0x38acfe96	8.2490194e-05
174	0x372b38a7	1.0205585e-05
175	0xb8858fdd	-6.368731e-05
176	0x3897f945	7.246671e-05
177	0xb8a30360	-7.773074e-05
178	0xb8937a87	-7.032329e-05
179	0x38c59fd3	9.4234616e-05
180	0xb8c045db	-9.168285e-05
181	0xb8c0d6eb	-9.195305e-05
182	0xb8bea44c	-9.090509e-05
183	0x38c39767	9.3265255e-05
184	0x386e9eae	5.6891404e-05
185	0x38834be4	6.2607025e-05
186	0xb8b1be4e	-8.475465e-05
187	0xb8866848	-6.409042e-05
188	0xb8a9579e	-8.074868e-05
189	0x3881b1c1	6.1843086e-05
190	0x38adb092	8.2821716e-05
191	0x389312f7	7.013039e-05
192	0xb8b15ae9	-8.456951e-05
193	0x388f3cd7	6.830104e-05
194	0xb8b92cc3	-8.829825e-05
195	0x38ac7b9d	8.224624e-05
196	0x38a71790	7.9675694e-05
197	0xb8c1bbb2	-9.237918e-05
198	0x38a5a2df	7.89815e-05
199	0x38786133	5.921833e-05
200	0x38be502a	9.074838e-05
201	0x36324e48	2.6569633e-06
202	0xb8c1f4ef	-9.2485796e-05
203	0xb8abc105	-8.189868e-05
204	0x38bd1208	9.015581e-05
205	0x389dcab1	7.5240976e-05
206	0x38c77973	9.511681e-05
207	0xb7d9c933	-2.5962107e-05
208	0xb8afc378	-8.381059e-05
209	0x38a6747f	7.937196e-05
210	0xb8b31141	-8.538599e-05
211	0xb8bfed1e	-9.151756e-05
212	0xb8b15f06	-8.457717e-05
213	0x38c23353	9.260201e-05
214	0xb897bb14	-7.235087e-05
215	0x3877852f	5.9013426e-05
216	0x388995fc	6.560606e-05
217	0x38c2c263	9.286848e-05
218	0x38c304f4	9.299247e-05
219	0xb8a9ee4d	-8.102935e-05
220	0x38888921	6.5105276e-05
221	0x37f05bff	2.8653069e-05
222	0xb8bd87f5	-9.037546e-05
223	0xb7c6cda7	-2.3699204e-05
224	0xb89b25de	-7.398029e-05
225	0xb85902b3	-5.1739346e-05
226	0xb8942325	-7.063736e-05
227	0x38a72222	7.969538e-05
228	0xb8c45330	-9.361503e-05
229	0x3889bf5a	6.568311e-05
230	0xb8b9974a	-8.849667e-05
231	0x38c01666	9.1594455e-05
232	0xb8bcfbbf	-9.01143e-05
233	0x389ad802	7.383527e-05
234	0xb8959dd5	-7.134272e-05
235	0xb8593c27	-5.1792853e-05
236	0xb8b3479a	-8.548722e-05
237	0xb83cc641	-4.500733e-05
238	0xb89f7f1f	-7.605389e-05
239	0xb8c4b82c	-9.380313e-05
240	0x38c0ec37	9.199272e-05
241	0x38b9662d	8.840519e-05
242	0xb87a7be3	-5.9720023e-05
243	0x38add394	8.288692e-05
244	0xb8c103b6	-9.2036484e-05
245	0xb8912b5e	-6.9222166e-05
246	0xb8c0db9c	-9.196179e-05
247	0x35f3db4a	1.8168732e-06
248	0xb8a5750b	-7.889614e-05
249	0x38bc5cc3	8.981817e-05
250	0x389f7699	7.603801e-05
251	0x389fbf29	7.617317e-05
252	0xb8c7e621	-9.531924e-05
253	0x389c7c2b	7.461788e-05
254	0xb88e047a	-6.7719215e-05
255	0x38ad05f9	8.250395e-05

model.layer.2.weight f4 [256, 256]
0	0x3d0d0a4a	0.03443364
1	0x3c9e388a	0.01931407
2	0x3ce6f7da	0.028194357
3	0xb8f04c88	-0.00011458347
4	0xbc55026d	-0.013001067
5	0xbca063a4	-0.019578762
6	0x3d3a1b95	0.04543646
7	0x3d8dc712	0.06922735
8	0xbc971e0d	-0.018446947
9	0xbd63eee9	-0.055647764
10	0xbc2c3ccd	-0.010512543
11	0x3c32195f	0.010870307
12	0xbd718d6c	-0.05897276
13	0xbcc50a89	-0.024052875
14	0x3cd7d0e5	0.026344726
15	0x3bc511d1	0.006014087
16	0xbc81522a	-0.01578625
17	0xbd5ec53c	-0.054387316
18	0xbd8e67b0	-0.069533706
19	0x3b6fd602	0.0036596064
20	0x3c901bae	0.017591324
21	0xbd2d6deb	-0.042341154
22	0x3bf9390d	0.007605678
23	0xbd085a9b	-0.033289533
24	0x3b1e8237	0.00241865
25	0xbaa836cf	-0.0012833717
26	0x3c822676	0.01588748
27	0xbd751c5f	-0.05984151
28	0x3d3e0b7b	0.046397667
29	0xbd55d817	-0.052208032
30	0x3b9c9c1c	0.004779352
31	0x3b86aa3b	0.0041096485
32	0x3a8e68d9	0.0010864987
33	0x3c98f185	0.018669853
34	0x3cd73cb1	0.026274057
35	0xbc6ef5ac	-0.01458494
36	0x3d82224f	0.063542
37	0xbc80f7e8	-0.01574321
38	0xbcded60d	-0.027201677
39	0x3d2efd63	0.042722117
40	0xbd39556f	-0.04524749
41	0x3b9588c4	0.004563423
42	0x3d0ab7a0	0.033866525
43	0xbbc0d51a	-0.0058847787
44	0x3bac91fd	0.0052664266
45	0x3c78f973	0.015196192
46	0xbd0f6fcd	-0.03501873
47	0xbb7e86f9	-0.0038837774
48	0x3a07c6f3	0.0005179487
49	0xbd347927	-0.044060852
50	0xbdabf0f5	-0.08395568
51	0x3c92a69d	0.017901713
52	0xbbcd5b73	-0.006267005
53	0xbc5c981f	-0.013464003
54	0xbc30d603	-0.010793212
55	0xbaec7cab	-0.0018042525
56	0xbd42d957	-0.047570553
57	0x3c946e4f	0.018119005
58	0x3cc17cdb	0.023619106
59	0xbcbf1517	-0.023325486
60	0x3c888ce0	0.016668737
61	0x3d592ef6	0.0530233
62	0xbb81a4e7	-0.0039564255
63	0x3c9d4614	0.019198455
64	0x3cf3637f	0.02971053
65	0xbd8af186	-0.06784348
66	0xbc0f99fd	-0.008764741
67	0x3d212a5f	0.03934705
68	0xbcc78d04	-0.024359234
69	0xbc0365d9	-0.008019888
70	0x3b86e073	0.004116112
71	0x3c448f05	0.011996989
72	0x3d07f5df	0.033193465
73	0x3c569efa	0.013099426
74	0xbad84809	-0.001650096
75	0xbd0cec5f	-0.03440511
76	0xbd0b9b35	-0.034083564
77	0xbd1262bb	-0.035738688
78	0xbca16a0a	-0.019703884
79	0x3b660359	0.003509721
80	0x3c10294b	0.0087989075
81	0xbd81e8d1	-0.06343234
82	0x3c85c3af	0.01632866
83	0xbbfd5b54	-0.0077318344
84	0x3cbf171d	0.023326451
85	0x3c844364	0.016145416
86	0x3cffa63d	0.031207198
87	0xbd868052	-0.06567444
88	0x3d2213e1	0.03956974
89	0x3b5147b8	0.0031933617
90	0xbc90befb	-0.017669192
91	0x3b9a171a	0.004702461
92	0x3d19000c	0.03735356
93	0xbca31a05	-0.019909868
94	0x3d09647c	0.033543095
95	0x3c6fd749	0.01463873
96	0x3c7fa1aa	0.015602509
97	0xba9668b4	-0.0011475296
98	0x3cefafef	0.029258696
99	0x3d1e148e	0.03859382
100	0xbd0a786d	-0.033806253
101	0x3cb739fa	0.022366513
102	0xbca54ea0	-0.020179093
103	0x3d30bad8	0.043146938
104	0xbc95b01d	-0.018272454
105	0x3d1e1e68	0.038603216
106	0x3d1c045d	0.0380901
107	0xbd290151	-0.04126102
108	0x3d5a6f23	0.053328644
109	0xbd0bb93c	-0.0341122
110	0x3b1436b1	0.0022615606
111	0xbd8332f0	-0.064062
112	0x3c2452c6	0.0100295
113	0xbd1ac84c	-0.037788674
114	0x3d1ebbb9	0.038753245
115	0xbcb2a9cb	-0.02180948
116	0xbd670dbf	-0.056409594
117	0x3c9c57b3	0.019084787
118	0x3d3b4ec4	0.045729414
119	0xbd35dbb6	-0.044398986
120	0xbac18eb2	-0.0014767258
121	0xbc11aba6	-0.008891022
122	0xbc6094fc	-0.013707396
123	0xbd37be97	-0.044859495
124	0xba577dd4	-0.0008220349
125	0xbba9aaf4	-0.00517785
126	0x3d8d2ac1	0.0689292
127	0xbb89bf1f	-0.0042036916
128	0xbc8680ea	-0.016418893
129	0xbcf8242d	-0.030290687
130	0xbc8e2f77	-0.017356617
131	0x3c94ee45	0.018180022
132	0xbc9130aa	-0.0177234
133	0x3c208940	0.009798348
134	0x3d6bc7ad	0.057563473
135	0xbd04e935	-0.032448966
136	0xbd4d47ea	-0.05011741
137	0xbce3c037	-0.027801616
138	0x3c7d3a71	0.015455828
139	0xbc1eea4c	-0.009699415
140	0x3cba83a2	0.022767846
141	0x3d381df3	0.044950437
142	0x3c1b2ed1	0.009471611
143	0x3ceb7245	0.028741011
144	0x3c3295b8	0.010899954
145	0xbcd4db16	-0.025983375
146	0x3c55016a	0.013000825
147	0xbbcdc9af	-0.006280146
148	0xbca1957f	-0.019724606
149	0xbc756e6c	-0.01497994
150	0xbc8650af	-0.016395895
151	0xbbeaf5b0	-0.0071704015
152	0x3bdcce73	0.006738478
153	0x3bdb4f97	0.0066928375
154	0xbb7f5ef1	-0.0038966502
155	0x3bc9a9af	0.006154261
156	0x3c84ba6d	0.016202176
157	0xbd0d653b	-0.03452037
158	0x3c55a0cf	0.013038828
159	0xbd334c9c	-0.043774232
160	0xbd27444d	-0.04083662
161	0x3c1a5721	0.009420187
162	0xbbd0d54f	-0.0063730846
163	0x3d12e88b	0.0358663
164	0xbca6eb9a	-0.020376015
165	0x3bac5423	0.0052590533
166	0x3c6600fb	0.01403832
167	0x3c67d6da	0.014150346
168	0xbc260167	-0.01013217
169	0xbd389ad3	-0.045069527
170	0xbbfa7172	-0.0076429183
171	0xbd346c56	-0.04404863
172	0xbd5a481b	-0.05329142
173	0x3cd1ae61	0.025595846
174	0xbcde5b3c	-0.027143113
175	0xbcd34c2b	-0.025793156
176	0x3c3521f8	0.011055462
177	0xbd3d8ce2	-0.046276934
178	0x3c382d93	0.0112413345
179	0xbb1691d6	-0.0022975109
180	0x3cc2cfc6	0.023780715
181	0xbce40138	-0.027832612
182	0x3d268ef8	0.04066369
183	0xbc4c1c50	-0.012457922
184	0xbd0c8000	-0.034301758
185	0x3c2533d3	0.010083157
186	0xbbe0814d	-0.0068513514
187	0xbc731302	-0.014836075
188	0xbd178651	-0.03699333
189	0xbca39ca9	-0.019972162
190	0x3bfd7d94	0.0077359173
191	0x3d2b2b2d	0.041789223
192	0xb8a3a607	-7.803371e-05
193	0xbc457c76	-0.0120536
194	0xbdce1f48	-0.1006456
195	0xbd4ed7dc	-0.05049883
196	0x3d3172a5	0.043322224
197	0x3dad2abc	0.084554166
198	0xbc198ffe	-0.009372709
199	0xbd054bc8	-0.032542974
200	0x3c1011fe	0.008793352
201	0xbd27a0be	-0.04092478
202	0xbbced610	-0.0063121393
203	0xbc83739b	-0.016046336
204	0xbb301c0b	-0.0026872184
205	0x3d12acf5	0.035809476
206	0x3c004924	0.007829938
207	0x3cce6f91	0.025199683
208	0xbbde1a72	-0.006778055
209	0x3ca5b9fc	0.020230286
210	0xbd07b21c	-0.033128843
211	0xbcfab5bc	-0.030604236
212	0x3c6f9b2d	0.014624399
213	0x3ce412f2	0.027841065
214	0xbd48ce9d	-0.049025167
215	0x3d2d7163	0.042344462
216	0x3dcb638d	0.09931097
217	0xbc880211	-0.016602548
218	0xbcf3558a	-0.029703874
219	0x3d4d3e9e	0.050108545
220	0xbd1d048a	-0.038334407
221	0x3ce10162	0.02746648
222	0xbcf18b77	-0.029485447
223	0x3b2f402c	0.002674113
224	0xbc9e81df	-0.019349037
225	0x3c38f865	0.011289691
226	0x3ba2ef01	0.004972339
227	0xbba56743	-0.00504771
228	0x3c8d84f8	0.017275319
229	0xbb9ca3e4	-0.0047802795
230	0x39dfe712	0.00042706035
231	0xbd4dfd3f	-0.050290342
232	0x3d783af8	0.060603112
233	0xbc2466b1	-0.010034249
234	0xbc06affd	-0.00822067
235	0xbcc8df95	-0.024520675
236	0xbbdf7f98	-0.0068206303
237	0x3b080805	0.0020756733
238	0x3dbfa548	0.09357697
239	0xbb82fb22	-0.0039972225
240	0xbcbec323	-0.023286408
241	0x3c600c13	0.013674754
242	0xbb59b531	-0.003321957
243	0xbd4c363e	-0.049856417
244	0xbb498332	-0.0030748365
245	0x3d5d4fc1	0.054031137
246	0xbcbcd49e	-0.023050603
247	0xbca66a17	-0.02031426
248	0x3cff0129	0.031128483
249	0xbbe707dc	-0.0070504975
250	0x3c7586b1	0.014985726
251	0x3cc9a284	0.024613626
252	0xbd18a736	-0.03726884
253	0xbcdffaa4	-0.027341194
254	0xbc8a028a	-0.016846914
255	0xbd2e135a	-0.042498924
