results/qvpo_HalfCheetah-v3/actor_25_04_20_05_54_38_0.pth (torch, 665521 bytes, 24 tensors)

betas f4 [20]
00000000: e7f3 023c 5174 a43c 9e1c 043d 5603 373d
00000010: 529a 6b3d 0852 913d cf82 ae3d 70eb cd3d
00000020: e13c f03d 272f 0b3e d8c3 203e 3cb6 393e
00000030: b141 573e ad42 7b3e d656 943e 0b3f b23e
00000040: c4de db3e e40f 0d3f 219c 3f3f 77be 7f3f
0.007992721 0.020074995 0.032253854 0.044680916 0.05752022 0.07095724 0.085210435 0.10054672
0.11730362 0.13592206 0.15699708 0.18135923 0.21021153 0.24537154 0.289725 0.34813723
0.42943394 0.5510237 0.7484761 0.999

alphas_cumprod f4 [20]
00000000: 30f4 7d3f 11db 783f 44d4 703f 9711 663f
00000010: cad5 583f f772 493f 9548 383f 21c1 253f
00000020: 924f 123f 11d9 fc3e ca26 d53e 997e ae3e
00000030: 53d0 893e 13ff 4f3e 11bc 133e fc9a c03d
00000040: c8c9 5b3d 015c c53c fb8f c63b 4753 cb36
0.99200726 0.9720927 0.9407389 0.8987059 0.84701216 0.7869105 0.7198575 0.64747816
0.57152665 0.4938436 0.41631156 0.3408096 0.2691675 0.20312147 0.1442721 0.09404561
0.05365923 0.024091722 0.0060596443 6.059566e-06

alphas_cumprod_prev f4 [20]
00000000: 0000 803f 30f4 7d3f 11db 783f 44d4 703f
00000010: 9711 663f cad5 583f f772 493f 9548 383f
00000020: 21c1 253f 924f 123f 11d9 fc3e ca26 d53e
00000030: 997e ae3e 53d0 893e 13ff 4f3e 11bc 133e
00000040: fc9a c03d c8c9 5b3d 015c c53c fb8f c63b
1.0 0.99200726 0.9720927 0.9407389 0.8987059 0.84701216 0.7869105 0.7198575
0.64747816 0.57152665 0.4938436 0.41631156 0.3408096 0.2691675 0.20312147 0.1442721
0.09404561 0.05365923 0.024091722 0.0060596443

sqrt_alphas_cumprod f4 [20]
00000000: 92f9 7e3f 1067 7c3f 7b4c 783f 32b0 723f
00000010: ec9a 6b3f a817 633f a333 593f 37fe 4d3f
00000020: d088 413f c6e6 333f 472d 253f 3373 153f
00000030: f7d0 043f d6c0 e63e 4c79 c23e a903 9d3e
00000040: 4034 6d3e b4f0 1e3e 876c 9f3d 1b53 213b
0.99599564 0.9859476 0.969917 0.948001 0.9203327 0.8870797 0.84844416 0.80466026
0.75599384 0.7027401 0.6452221 0.58378905 0.51881355 0.45068997 0.37983167 0.30666855
0.23164463 0.15521508 0.07784372 0.0024616185

sqrt_one_minus_alphas_cumprod f4 [20]
00000000: 7a18 b73d 6b10 2b3e 4947 793e f0f3 a23e
00000010: 0f43 c83e f658 ec3e 377f 073f 0cff 173f
00000020: 7992 273f 6021 363f 2e95 433f 08d9 4f3f
00000030: e7d9 5a3f b686 643f 72d0 6c3f 3daa 733f
00000040: 7409 793f c0e5 7c3f 2339 7f3f cdff 7f3f
0.089402154 0.16705482 0.243436 0.31826735 0.39113662 0.46161622 0.5292849 0.59373546
0.65457875 0.71144676 0.76399505 0.8119054 0.8548874 0.8926805 0.9250556 0.9518164
0.9728005 0.9878807 0.9969656 0.99999696

log_one_minus_alphas_cumprod f4 [20]
00000000: fb88 9ac0 260c 65c0 f3d9 34c0 e48a 12c0
00000010: 8a4e f0bf bce4 c5bf dedf a2bf 5175 85bf
00000020: 83f7 58bf 1550 2ebf cbd3 09bf 515f d5be
00000030: 628c a0be 9780 68be c68a 1fbe 0346 cabd
00000040: 9ce7 61bd 8fc6 c7bc a32a c7bb 2900 ccb6
-4.8292212 -3.5788665 -2.8258026 -2.2897272 -1.8773968 -1.5460429 -1.2724569 -1.0426427
-0.8475267 -0.68090945 -0.53838795 -0.41674283 -0.31357104 -0.22705303 -0.15580282 -0.09876635
-0.05515252 -0.024386672 -0.0060780807 -6.0796924e-06

sqrt_recip_alphas_cumprod f4 [20]
00000000: be83 803f 08d3 813f 56f8 833f 5d05 873f
00000010: 8414 8b3f 2e4b 903f 48dd 963f c712 9f3f
00000020: 4550 a93f e824 b63f 9d61 c63f de41 db3f
00000030: 7db7 f63f 2601 0e40 e57e 2840 c2b1 5040
00000040: 8424 8a40 602a ce40 3f8a 4d41 4f1e cb43
1.0040205 1.0142527 1.0310161 1.0548512 1.0865636 1.1272943 1.178628 1.2427605
1.3227621 1.4230013 1.5498539 1.7129476 1.9274746 2.21882 2.632745 3.2608495
4.3169575 6.4426727 12.8462515 406.2368

sqrt_recipm1_alphas_cumprod f4 [20]
00000000: d9d4 b73d 8e80 2d3e 4f81 803e 1be4 ab3e
00000010: ea98 d93e 7437 053f 52b3 1f3f 1de5 3c3f
00000020: 7aa8 5d3f fb95 813f f58f 973f 2504 b23f
00000030: 41ea d23f 7f87 fd3f 2ede 1b40 82a3 4640
00000040: 9e62 8640 bdaa cb40 95ea 4c41 261e cb43
0.08976144 0.16943571 0.25098655 0.33572468 0.42499477 0.5203774 0.62382996 0.737871
0.865852 1.0123895 1.1840807 1.3907515 1.6477739 1.9806975 2.4354358 3.1037297
4.199538 6.364592 12.807271 406.23553

posterior_variance f4 [20]
00000000: 0000 0000 ab66 bc3b 69db 783c cc23 d63c
00000010: 73fe 1b3d 79aa 503d c1bd 843d f8a3 a33d
00000020: 2fa7 c53d 38a5 eb3d 1169 0b3e de70 243e
00000030: cb27 423e 8c6f 663e 4323 8a3e 3e5d a83e
00000040: a67c d23e ccc9 083f 3a22 3c3f 2232 7e3f
0.0 0.0057495437 0.01518903 0.026140116 0.03808446 0.050943825 0.06481505 0.07990259
0.09651028 0.11506122 0.13614298 0.1605868 0.18960492 0.2250349 0.26980028 0.32883638
0.41110724 0.5343292 0.73489726 0.99295247

posterior_log_variance_clipped f4 [20]
00000000: f134 38c2 8913 a5c0 65fd 85c0 f33b 69c0
00000010: 1426 51c0 b087 3ec0 301e 2fc0 80b9 21c0
00000020: 86a3 15c0 f962 0ac0 043d ffbf 121a eabf
00000030: 0cd7 d4bf 77e9 bebf 7bb0 a7bf 685c 8ebf
00000040: 078f 63bf 3e72 20bf 66b5 9dbe 4ec0 e7bb
-46.0517 -5.1586347 -4.187182 -3.644284 -3.267949 -2.9770317 -2.7362175 -2.526947
-2.3381057 -2.1622908 -1.9940495 -1.8289206 -1.6628127 -1.4914998 -1.3100733 -1.112195
-0.8889012 -0.6267432 -0.3080246 -0.007072485

posterior_mean_coef1 f4 [20]
00000000: cfff 7f3f 3d6a 373f d95f 093f b20c db3e
00000010: cc7d b63e d9e8 9c3e 0926 8a3e 5bcd 773e
00000020: 6a94 613e 97e2 4f3e 2c8e 413e cfc6 353e
00000030: 6df2 2b3e bf95 233e c040 1c3e ab76 153e
00000040: 4580 0e3e 85ee 053e 6160 ef3d f643 9f3d
0.9999971 0.7164648 0.53661877 0.42783123 0.3564285 0.306464 0.26982144 0.2419943
0.22029272 0.20301281 0.1890189 0.1775162 0.16791697 0.15975092 0.15259075 0.1459605
0.13916118 0.13079269 0.11688305 0.077766344

posterior_mean_coef2 f4 [20]
00000000: 0000 0000 bc28 913e 0631 ed3e d362 123f
00000010: 528d 243f 9927 313f 9d3e 3a3f a3f0 403f
00000020: f9e1 453f cd71 493f 4ad3 4b3f 8a18 4d3f
00000030: 8a34 4d3f 3bf4 4b3f ece9 483f fb3a 433f
00000040: 8a1e 393f 6856 263f dd1e fc3e f1bd 003d
0.0 0.2835139 0.46326464 0.57182044 0.6427814 0.69201046 0.7275179 0.7536718
0.7729793 0.7868927 0.79619277 0.8011557 0.80158293 0.7966954 0.78481936 0.7626187
0.72312224 0.64975595 0.49242297 0.031431142

model.time_mlp.1.weight f4 [256, 32]
00000000: 1fe2 b8bd 724d e1bc c3bb 1fbe 8989 8c3b
00000010: bdb2 3a3d 6936 bebd 1e29 fbbc 957d 62bd
00000020: 0f61 babd 9d5c ea3d b53a afbd 78c8 64bc
00000030: baec 203e 1d76 ffba c3ce 08be e79c d4bc
00000040: 1bd6 88ba eb5f 21bb 8124 aebd 26be 3e3e
00000050: ef1b e9bd 43d1 85bc a565 5d3e 6ae2 853d
00000060: 2fb9 cb3d 9a5d 8e3d 4740 97ba e7c2 0abe
00000070: e23e d2bd abd0 963c 0e5b 303c fd41 41bd
00000080: 2e4a a33d 0ec7 f7bc bdd7 70bd 57cc ce3c
00000090: cc64 ad3b beb6 8e3c eff6 30bc f6a8 e93d
000000a0: 9482 b2bd 4375 f33d 4d7f 2f3e 0189 4d3e
000000b0: 8667 183d 9f12 b73d fe91 453e e375 973c
000000c0: 5c38 e7bd 35aa 143c 8a5a a0bd 2446 c2bd
000000d0: 3bc9 f0bd fcd2 473c d474 e9bc ca74 5d3d
000000e0: 352a 213e 4340 5dbe 74c8 0bbc 1d84 95ba
000000f0: 43af 1d3e 8c25 95bd bf25 36bd f9a8 3fbc
00000100: 3ee0 b6bd 79c6 ebbb 8780 843d bd15 6b3c
00000110: 6667 cabd 393e 42be 1694 4abd 2080 92bd
00000120: 8c33 c3bd 50f2 babd d232 23bd 91b1 693c
00000130: c5d0 cd3d e27d e0bb 54a4 033e 074a d5bd
00000140: dd68 ddbc 1fb6 d93d 4f82 a23d 34e5 d43d
00000150: 29c0 3ebd 5a89 ac3c f361 5ebc 926e 883b
00000160: d819 003c fe96 70bd 1700 653d bfde e6bd
00000170: b483 bdbd 6388 26be 0d3d 373d 33ea 4cbd
00000180: 9851 d53b 99eb d9bc 02cd 943c a0b3 ef3d
00000190: 1373 d4bd 6335 eabc 99b2 f0bd 13fc 99bd
000001a0: 4af4 03be 5beb d63d ff68 d23c b514 b53d
000001b0: f0ce a93d 9d80 463d 75ec 073e 3f77 dbbd
000001c0: 572c 713d 40e2 7c3d 87d9 bc3c 9410 e5bc
000001d0: 0e58 d93d ee0e 183b 1209 e43c 49b6 7fbc
000001e0: 3e07 07bd a5c9 a2bc 752b 6ebd 3533 76bd
000001f0: 0155 8939 8ad0 afbc 1e22 6fbe fb7b 6b3d
00000200: 916e 09bd 1fc8 debc 6bac 7f3a a152 633d
00000210: a553 e33d e49f 64bd 7176 34be dad4 27bd
00000220: eebe 8c3c 9c25 e1bc b62f bcbd cb08 2abe
00000230: c474 003d b0a6 06be 35aa 8dbc 3790 533d
00000240: 8c80 5ebd f0b8 fb3c bf02 b33d 7a6f d43d
00000250: 1643 173d 935f 50bd 7bbf 92bb e83d 1abd
00000260: f1ec 4bbc 34eb d3bd 1ae9 f7bd fe45 09bc
00000270: 6ec7 093d 4ff7 f93d 272c b5bc f9fb d13d
00000280: 804a 9d3c 2b0a 93bc 5d0a debd 5d5d 973d
00000290: e3f0 3ebd 2c7c be3c c7f5 8e3c 5c2f c4bd
000002a0: 08e8 3c3d 64fb 03bd 5f9e 8c3d 5b7d 87bb
000002b0: 4968 adbc 6a5b 013e 1858 2c3d 6c78 ec3d
000002c0: 6177 b8bd 2130 83bd 538a 453e 1d1d 45bd
000002d0: 797d f5bb e5b8 3bbe 39e3 0b3c c815 213d
000002e0: c83b 593d b309 003d dd3f 54be 9a82 65bd
000002f0: 099f 843d 8655 49bd 6638 5c3d 8c66 3c3d
00000300: 03db 133e dcc4 b2bd bf5e 043e 9dcf 013d
00000310: 352d 5fbd 6ab3 753d 0061 d33c c56a f23d
00000320: 8132 f2bc 6bf7 0abd b528 29bc a2b2 a6bc
00000330: 37c6 bb3d 0e2f dcbb f246 ba3d 8a3b 9b3d
00000340: aabf 96ba 3012 da3c 7fdd e93c d5bd 25be
00000350: 490a 19bd 9b7e 813c 23ae e53d 0e04 6b3d
00000360: d774 46bd cb9a 1dbe 9716 c2bd 669b 3f3c
00000370: 3d49 e83c 8258 943d 7718 213c 2f62 9fbd
00000380: b7dc 6ebd 53fc 59bd 74d6 79bd 170a 67bd
00000390: 79b9 b83d 463d 413d 2c9e d4bc 4c86 033e
000003a0: c54b 943d 4ba6 3ebd 6f82 8cbb d153 a03d
000003b0: 396b a6bd 8a28 ec3d 7c1c a2bd 5702 07bd
000003c0: d560 f5bd c127 0e3e eb06 3a3d 9e63 683d
000003d0: 2511 cc3c 2e09 783d 781f dcbd 29e3 543c
000003e0: 4bbd 8a3d e1a5 bfbd 43d2 48bd 7f91 01be
000003f0: bb4d f83d b4b3 783d 65dd 02bd 3deb 2c3e
-0.09027504 -0.02750275 -0.15598969 0.0042888564 0.045580614 -0.09287722 -0.030659255 -0.055295546
-0.09100544 0.11443446 -0.08556119 -0.013963811 0.15715304 -0.0019490157 -0.13360123 -0.025953723
-0.0010439785 -0.0024623822 -0.08503056 0.18627223 -0.11382281 -0.016335135 0.21620806 0.06537326
0.0994743 0.06951447 -0.0011539542 -0.13550912 -0.102659 0.018410048 0.010763897 -0.047182072
0.07973133 -0.030246284 -0.058799494 0.025243921 0.005291557 0.017421123 -0.010801061 0.1140918
-0.08716312 0.118876 0.17138405 0.20071794 0.037208103 0.089390986 0.19293973 0.01848883
-0.112900466 0.009073784 -0.07829769 -0.094860345 -0.11757132 0.012196299 -0.02849809 0.054066457
0.15738757 -0.21606545 -0.0085316785 -0.0011407171 0.15398888 -0.07282552 -0.04446959 -0.011698001
-0.089294896 -0.0071952906 0.06469827 0.0143484445 -0.09883003 -0.18969049 -0.049457632 -0.07153344
-0.09531316 -0.09128249 -0.039843388 0.014263527 0.10049585 -0.006850944 0.12855655 -0.1041451
-0.027027542 0.1063044 0.07935011 0.103952795 -0.046569977 0.021061588 -0.013573158 0.0041635716
0.007818662 -0.058737747 0.05590829 -0.11272954 -0.09253636 -0.16262965 0.044735957 -0.050028037
0.006509971 -0.0266016 0.018164162 0.117041826 -0.10373511 -0.02858991 -0.11752815 -0.075187825
-0.12886158 0.10494109 0.025684832 0.0884184 0.08291423 0.0484625 0.13273795 -0.10716104
0.058880176 0.061739206 0.023052944 -0.027962007 0.10612498 0.0023202258 0.027836356 -0.015607425
-0.03296589 -0.019871542 -0.058146913 -0.06010743 0.0002619401 -0.021461744 -0.23352858 0.057491284
-0.03355271 -0.027195035 0.00097531703 0.055498723 0.11099938 -0.055816546 -0.17623307 -0.040974475
0.017180886 -0.027483754 -0.09188788 -0.16604917 0.031361356 -0.13149524 -0.017293075 0.051651206
-0.05432181 0.030727834 0.08740758 0.10372825 0.036929213 -0.050872397 -0.0044783927 -0.037656695
-0.012446628 -0.10347596 -0.121050075 -0.008378504 0.033637457 0.122053735 -0.02211578 0.10253138
0.019200563 -0.017949184 -0.108418204 0.073908545 -0.046616446 0.02325257 0.01745118 -0.095793456
0.04611972 -0.032222167 0.068661444 -0.0041348166 -0.021167891 0.12632528 0.0420762 0.11546406
-0.09007145 -0.06405664 0.19291048 -0.048123468 -0.007491764 -0.1833225 0.008538061 0.039327413
0.053035527 0.03125925 -0.20727487 -0.056032754 0.06475646 -0.049153827 0.053764723 0.045996234
0.14439015 -0.08728954 0.12926768 0.031692136 -0.054486472 0.059985556 0.02580309 0.11836771
-0.029565098 -0.033927362 -0.010324647 -0.02034885 0.09168666 -0.0067194765 0.09095563 0.075797155
-0.0011501212 0.02662 0.028548 -0.16185696 -0.037363324 0.01580744 0.112148546 0.057376914
-0.04845127 -0.1539108 -0.09476965 0.011694765 0.028355235 0.07243444 0.009832493 -0.07782399
-0.05831596 -0.05321915 -0.060995534 -0.056406107 0.09019751 0.047177576 -0.025954328 0.12844199
0.072410144 -0.046545308 -0.00428801 0.07828487 -0.0812592 0.1153117 -0.07915589 -0.032961216
-0.1198136 0.13882352 0.045416754 0.056735627 0.024910519 0.06055563 -0.1074819 0.012993612
0.06774386 -0.09357811 -0.049028646 -0.12653159 0.12124201 0.060718253 -0.03194942 0.16886611

model.time_mlp.1.bias f4 [256]
00000000: e38c 1bb6 3bb8 c1b4 b419 83b4 5d0a 9e35
00000010: 75e0 4435 0032 63b4 7f69 81b3 35f6 b835
00000020: 220e 9433 79a8 6cb5 d54c 7635 ecd0 bcb4
00000030: 69fa 1436 2b82 2cb5 6296 8fb6 123f ddb5
00000040: 3738 2fb4 c9c7 2536 4470 b535 dd4a 23b5
00000050: 025e dd35 637b e935 0da4 87b5 e4c7 e6b5
00000060: b604 d5b5 d780 7d35 9577 deb0 9053 7c35
00000070: 6075 93b6 b666 b0b6 9827 9135 ee42 0636
00000080: a144 78b5 b71c f135 bba5 d135 f4eb 53b4
00000090: b3bb 6cb5 0b72 bcb4 433a aeb5 1ea3 e133
000000a0: 12d0 33b5 ac4c 3a35 3e0f 2834 d2fc 57b6
000000b0: d60a c135 c0c6 fc34 9aac 3634 8817 a0b3
000000c0: a9af 8934 36dd 08b2 fcf3 4e35 2712 98b4
000000d0: ce87 0fb2 29d4 1536 6d51 c134 451a 81b5
000000e0: 242f a9b5 39a8 f9b3 a5a9 96b4 e51a 9535
000000f0: 1883 6c36 3086 0db6 a9f3 bd33 c126 f034
00000100: 88cb 78b5 cdcf c835 509a ac35 85dc 29b3
00000110: b47b 01b6 a421 2e36 ccba 2534 11e4 1736
00000120: 908e 9033 bbc8 6f36 cdbd aab5 7677 8bb5
00000130: 4fcd 7db4 6db6 35b6 7257 af35 4241 9f34
00000140: 0a4d ab33 b4ad 7fb5 c8cc ab35 d480 4935
00000150: 16f0 15b5 37b6 ba35 f2cd b5b5 d0d5 6db5
00000160: d468 d734 5d7b 3bb6 e867 47b6 58a6 a2b5
00000170: 1b14 90b4 543c 1bb5 818e 2f36 3b26 3b35
00000180: eaaa 3db1 b61b 1036 547a 4535 7255 8234
00000190: b2f3 d935 a6af 22b5 2090 45b5 adc7 e2b4
000001a0: f37c ccb5 cfdc 27b6 6143 bc35 823f 39b5
000001b0: 444a ebb5 13b3 51b5 0c1b 96b5 dad7 9136
000001c0: 056f f3b4 1c49 7935 b052 8c34 52de 0b35
000001d0: 2d23 3c36 5dca 1bb6 3048 ab36 0f15 5036
000001e0: 14b1 c135 baf2 7b35 07bf 5cb3 6fd1 2a36
000001f0: 4ea6 f5b5 b893 c1b4 68ae 08b4 dfee 1b36
00000200: e4f0 1136 b5a2 f233 de84 8ab4 4a4f 5231
00000210: 441b bd36 9378 1535 b0af ad35 5d79 b635
00000220: 3c7e e134 c472 9f35 0ebc 3535 1920 b235
00000230: 4adc d5b4 ec6e ca35 50a3 18b5 e88d 8136
00000240: 133b c935 7985 fbb4 2bce 4536 9dad be33
00000250: 1358 6036 a810 3f35 2a26 c535 e653 a235
00000260: b1a9 5735 2d41 6836 4a24 23b5 af40 d935
00000270: 5006 0d36 f239 f1b5 c156 3336 33b3 6f35
00000280: f00d b935 e975 8a34 44e0 84b2 3616 5935
00000290: 6925 f9b4 d77e 6434 ddbd 3e36 cbba de34
000002a0: 0920 7c34 75cc 9935 4ca7 f4b5 3a65 3536
000002b0: a618 d3b5 047b 0ab5 b542 04b5 3de9 30b5
000002c0: 98f7 adb5 6ecc 0735 5db1 23b6 3398 b734
000002d0: 3f21 9235 236a 68b5 a4ed fdb5 ba5a 14b5
000002e0: fdfa 4835 ded6 51b5 16a0 9334 d5e9 21b6
000002f0: 4c22 9a34 e749 ebb4 1314 c435 da87 1636
00000300: 02ca 9b34 cba8 b034 5172 1d35 152a f6b5
00000310: 1d15 8436 dcd2 5bb5 542c 5eb5 1934 34b5
00000320: f812 1bb5 b700 ce33 1fa1 75b6 7046 f0b4
00000330: 52fd b235 11ad 0635 6a69 ecb4 0f77 37b5
00000340: 8875 43b4 121f 9135 d535 acb6 18bd 9ab5
00000350: 4f20 6834 d97c b635 ae62 a334 2497 d135
00000360: 1264 9ab5 e4af 8bb3 ed22 f3b5 883f 9c35
00000370: c9b4 19b5 eb21 e232 4644 8733 d346 e035
00000380: b4bb 03b6 5611 4c36 0ecc cc34 5b79 08b6
00000390: 72b9 4536 3eb3 7434 adf4 3bb5 627c f3b5
000003a0: 2857 a636 37e3 0335 844f 6f35 2449 18b4
000003b0: bb25 6836 4867 10b4 788f 99b5 d350 f8b4
000003c0: e073 48b6 a37e 0636 0cef 7636 96fb 1e35
000003d0: 99e0 5db6 f7c9 0fb5 6114 f7b5 9fcc 8bb5
000003e0: a187 fe35 15da c9b5 87c0 03b4 a70c 14b5
000003f0: c4ae adb5 48f9 bbb5 6caf 0bb6 799e 0cb5
-2.3178807e-06 -3.6083097e-07 -2.4419353e-07 1.1774933e-06 7.334232e-07 -2.1159212e-07 -6.02622e-08 1.3780724e-06
6.894358e-08 -8.816201e-07 9.1753947e-07 -3.516974e-07 2.2199476e-06 -6.426441e-07 -4.279239e-06 -1.6484139e-06
-1.6318596e-07 2.4703206e-06 1.3518224e-06 -6.083117e-07 1.6493143e-06 1.7395763e-06 -1.0106029e-06 -1.7194511e-06
-1.5871108e-06 9.443733e-07 -1.6186613e-09 9.3998915e-07 -4.3946056e-06 -5.257166e-06 1.0814865e-06 2.0006514e-06
-9.248707e-07 1.7964256e-06 1.5619947e-06 -1.9736746e-07 -8.818999e-07 -3.5100706e-07 -1.2980967e-06 1.050705e-07
-6.698548e-07 6.940197e-07 1.5651764e-07 -3.2184657e-06 1.4382774e-06 4.7083267e-07 1.7012863e-07 -7.454861e-08
2.5646048e-07 -7.966539e-09 7.7096024e-07 -2.8325414e-07 -8.354574e-09 2.2326224e-06 3.6008296e-07 -9.618894e-07
-1.2605201e-06 -1.16255656e-07 -2.806311e-07 1.1109192e-06 3.5243047e-06 -2.1088745e-06 8.84532e-08 4.473168e-07
-9.2683376e-07 1.4961639e-06 1.285991e-06 -3.954894e-08 -1.9294503e-06 2.5947602e-06 1.5434779e-07 2.2633506e-06
6.7314545e-08 3.5730616e-06 -1.2721226e-06 -1.0391075e-06 -2.3637152e-07 -2.7077288e-06 1.3063966e-06 2.966354e-07
7.976821e-08 -9.5247674e-07 1.2800092e-06 7.5065805e-07 -5.5856196e-07 1.3911111e-06 -1.3545489e-06 -8.860052e-07
4.0123143e-07 -2.7936978e-06 -2.9713792e-06 -1.2118353e-06 -2.683672e-07 -5.782979e-07 2.615998e-06 6.971856e-07
-2.7600273e-09 2.1473802e-06 7.356623e-07 2.4276557e-07 1.6238685e-06 -6.0605305e-07 -7.359795e-07 -4.2241064e-07
-1.5235549e-06 -2.5013467e-06 1.4026701e-06 -6.9010287e-07 -1.7530479e-06 -7.8119155e-07 -1.1183743e-06 4.346465e-06
-4.5343054e-07 9.2866117e-07 2.6137195e-07 5.2105054e-07 2.8034658e-06 -2.321459e-06 5.104601e-06 3.1006673e-06
1.4431157e-06 9.3858e-07 -5.139648e-08 2.545388e-06 -1.8302323e-06 -3.605653e-07 -1.2729436e-07 2.323584e-06
2.17469e-06 1.12985994e-07 -2.5801177e-07 3.0604093e-09 5.635813e-06 5.5682284e-07 1.2940636e-06 1.3595378e-06
4.2001363e-07 1.1879824e-06 6.770141e-07 1.3271375e-06 -3.9834623e-07 1.5082455e-06 -5.6862064e-07 3.8610196e-06
1.499286e-06 -4.6849507e-07 2.9475293e-06 8.8791445e-08 3.3429867e-06 7.117728e-07 1.4688751e-06 1.2094358e-06
8.0340675e-07 3.4608631e-06 -6.077504e-07 1.6186585e-06 2.1014312e-06 -1.7972764e-06 2.6723576e-06 8.929521e-07
1.378763e-06 2.5790294e-07 -1.5468807e-08 8.087112e-07 -4.6407084e-07 2.1280299e-07 2.8422721e-06 4.1486632e-07
2.3480983e-07 1.1458893e-06 -1.8228106e-06 2.7030023e-06 -1.5727899e-06 -5.158802e-07 -4.9270903e-07 -6.5904516e-07
-1.2961564e-06 5.0588903e-07 -2.4392132e-06 3.4197146e-07 1.0887524e-06 -8.6581184e-07 -1.8919131e-06 -5.526632e-07
7.487104e-07 -7.817124e-07 2.7497362e-07 -2.4126978e-06 2.870969e-07 -4.3825932e-07 1.460898e-06 2.2430818e-06
2.901798e-07 3.2905368e-07 5.865341e-07 -1.8340676e-06 3.9363645e-06 -8.18907e-07 -8.276595e-07 -6.713104e-07
-5.77696e-07 9.5927525e-08 -3.660163e-06 -4.4754734e-07 1.3335759e-06 5.0170735e-07 -4.4035124e-07 -6.8346066e-07
-1.8203548e-07 1.0812385e-06 -5.1322663e-06 -1.1528928e-06 2.1618438e-07 1.3596392e-06 3.0432915e-07 1.5615701e-06
-1.1503018e-06 -6.504686e-08 -1.8115076e-06 1.1641396e-06 -5.726002e-07 2.6325287e-08 6.298846e-08 1.6709913e-06
-1.9629779e-06 3.040846e-06 3.814643e-07 -2.0336217e-06 2.946323e-06 2.2789479e-07 -7.001898e-07 -1.8141111e-06
4.957332e-06 4.9131944e-07 8.915015e-07 -1.4182712e-07 3.4592656e-06 -1.3448619e-07 -1.1441143e-06 -4.6252407e-07
-2.986977e-06 2.0041268e-06 3.6796e-06 5.922569e-07 -3.30623e-06 -5.356555e-07 -1.8408865e-06 -1.041586e-06
1.8963948e-06 -1.5039137e-06 -1.2270367e-07 -5.515271e-07 -1.2940368e-06 -1.4005136e-06 -2.0814723e-06 -5.238467e-07

model.time_mlp.3.weight f4 [32, 256]
00000000: bb96 8c3d 4baa 723b c086 d5bc 2579 30bd
00000010: 5770 13bc 14c0 92bc 5ee6 35bc 15d9 b4bc
00000020: 27df 113b b06a 6cbc 5a77 1f3c 0efb 31bc
00000030: 0a71 233c c2ae 88bc 98b2 07bd 97ea 30bc
00000040: 922d 57bb d12b 9abd 92d3 003d fbb5 d4bb
00000050: 6d13 92bc fbb1 893c 4e12 2fbc c2d5 a33d
00000060: 1b6e 4ebb d4b5 023c 22e6 0bbd 1b91 87bd
00000070: 0014 c13c eb94 3e3c 2b80 c13b f117 6cbc
00000080: 44f7 5f3d d382 d6bd 2d8a fbbc 1c02 3c3b
00000090: 884c 733b 419d 153c 05e6 0cbd bb18 953b
000000a0: 2e6f a0bc d290 463b dd36 303a 5b3f 973c
000000b0: 6f34 ddba 9fcf 353d 60cb a1bd dcac 15bd
000000c0: 11c9 85bc c444 0dbc 08ac b4bb 1288 f4bc
000000d0: 8a6f af3c f800 99bb 1603 b93b 0b56 4cbc
000000e0: 8459 123c 88e4 cebc 1fcb a0bc 25f6 c7bb
000000f0: 1d96 a3bc 90c9 14bd 2150 103d 16d5 bb3c
00000100: b19f 803c 497c 9e3c 3b22 8d3b ca15 d83c
00000110: d46a f0bc 70e3 17bc 3095 61bc 3b12 813d
00000120: 9f35 d9bc cefb a53c 33df cbbd e989 e03b
00000130: bcc5 8cbc 3da2 87bc ae1c 34bd 0a45 9e3c
00000140: 52f2 21bc c004 7bbd ae0f fdbc f53e 15bd
00000150: d0ff 2ebc 843e 3abd a8a2 adbc a03c 9cba
00000160: 5532 f9bc be18 38bd 47f3 b23c 9107 1ebd
00000170: 377e 25bd bd14 593c 18cf b2bc a633 03bd
00000180: 3838 8dbc b064 2dbd 2ac2 38bd 0965 b33c
00000190: 545d 8cbc 7a33 143c aaae c4bc 8ae4 22bc
000001a0: 3077 613c 6928 6a3a 646f ae3b d2f5 44bc
000001b0: b5ca 473d fe98 023d 54c7 8abc 32f9 e83c
000001c0: 502a 383b 7184 2a3d b317 483c 716f 4e3c
000001d0: 817f b0bb a36f 2dbd ce97 16ba 8095 e83b
000001e0: 0539 923c 5c51 be3c 89a3 943c 4fce 033d
000001f0: 3e8c c8bc c40e 16bd 8e8a 2ebd e713 1c3d
00000200: 2c4a 7dbb 0a53 b43c d575 56bc ade1 b0bb
00000210: 64cb c0bc 335f 853b a48a 0dbd 69b7 033c
00000220: 198e 4ebd 48b5 b6bc e171 0ebd fa64 163d
00000230: 7dc9 a1ba 72e6 82bc 3f6f e9ba 3d33 4cbb
00000240: 7d67 6cbc 8981 8d3a e2d1 463d 0b88 473b
00000250: 71b4 fabc 730f 69bd dd78 063d 35e2 3cbd
00000260: 4239 5bbc 0b22 89ba b3da c33c 6359 253c
00000270: 3b9a 6c3d 7d24 e3bb 8241 263d 7cad d4bc
00000280: aa1b 22bd 9dd3 663d d081 d6bc 1feb 823d
00000290: 3879 613b 2588 fbbb 278a 5abb 27f9 313d
000002a0: 7457 043c 621e 64bd 2a1d 94bd 3fdb ea39
000002b0: 898c 02bb c7f3 c93c f4e7 983c 7d5e fbbc
000002c0: 298e 193c f505 f23b 9960 fa3c c8d3 be3b
000002d0: 1031 82ba 99fb 8dbb 8e02 9d3c 1f71 083c
000002e0: 8293 f53b a12d 723c 2bb2 723d b75d 393c
000002f0: 01cb f33c 1d8f b43d 82ee 9bbc a6cd 3d3c
00000300: 3277 b83c 8906 39bc 69ea 5bbc d2a7 41bc
00000310: 2e01 2ebc 1feb f7bb d92d 1e3c 1fea 653c
00000320: 8839 2ebd 3c84 3fbc 9305 583c 5838 53bc
00000330: b14a f53b d734 483d fbdc d63b 337e b0bb
00000340: f719 273c 293a 5b3c 6da7 0fbd c1b7 c8bb
00000350: 539e 6bbd 8bec 3dbc 70ff 313d a40e 5dbc
00000360: 9380 023d 20f4 cd3b cd9a 333d 64b9 1ebc
00000370: 98e9 ba3b 640f 593d 1a84 433c 1ee9 4fbd
00000380: 0f75 eb3c eaac c7bc 259d 183d 2661 ecbb
00000390: 6b3d ddbb 4d68 ddbc c865 5cbc eebf 48bd
000003a0: 55af e0bc 0ca9 5d3c e9a2 f13c 5dc9 fc3b
000003b0: 7a5b 76bb 70de 21bd 0f4e cc3c e0e6 90bc
000003c0: 0dd6 0a3d 3d65 7f3d 0a68 3d3c aaac cc3a
000003d0: 0acf e63c 1fd6 403d 64df 68bb 8a71 763c
000003e0: c335 61bc 7495 113d 7db1 863a e1c3 a83c
000003f0: a128 c03a 6752 f53a 1f2c 493c b023 3bbd
0.06864687 0.0037027772 -0.02606523 -0.043084282 -0.008998952 -0.017913856 -0.011102287 -0.022076169
0.0022258253 -0.014429733 0.0097330455 -0.010863079 0.009975681 -0.016684894 -0.033129305 -0.010798118
-0.0032833559 -0.075278886 0.03145177 -0.0064914203 -0.017831529 0.0168085 -0.0106855165 0.079997554
-0.0031498733 0.0079779215 -0.03415502 -0.066194735 0.023569107 0.0116321845 0.0059051714 -0.014410005
0.05467917 -0.104741715 -0.030705536 0.002868778 0.0037124474 0.0091317305 -0.03439905 0.0045500672
-0.019584265 0.0030298722 0.00067220425 0.018462827 -0.0016876588 0.044387456 -0.07900119 -0.036541805
-0.016331227 -0.008622352 -0.005513672 -0.02985004 0.02141549 -0.004669305 0.00564612 -0.012471686
0.008932475 -0.025255457 -0.019628106 -0.0061023408 -0.01996904 -0.036325037 0.035232667 0.022928756
0.015701147 0.019346373 0.004307059 0.026377577 -0.029347815 -0.009270534 -0.013768479 0.06302305
-0.026514826 0.020261671 -0.09954681 0.0068523777 -0.01718413 -0.016556853 -0.043972664 0.01932003
-0.009884434 -0.061283827 -0.030891266 -0.036436994 -0.010681108 -0.045469776 -0.021195725 -0.0011919923
-0.030419508 -0.04494547 0.02184452 -0.038581435 -0.04040357 0.013249573 -0.021827266 -0.032031678
-0.017238721 -0.04233235 -0.045107044 0.021898763 -0.017134346 0.009045476 -0.024009068 -0.009942183
0.013761327 0.0008932413 0.0053233374 -0.012021499 0.0487773 0.031884186 -0.01694075 0.028439138
0.0028101392 0.041630212 0.012212682 0.012599812 -0.0053862934 -0.042342793 -0.00057446666 0.0070979
0.017849455 0.023232155 0.018144386 0.032179173 -0.024480935 -0.036635175 -0.042612605 0.038104918
-0.0038648946 0.022012252 -0.013089617 -0.0053979964 -0.023534484 0.0040701865 -0.034556046 0.008039334
-0.050428484 -0.022303239 -0.034776572 0.036717393 -0.0012343373 -0.015979026 -0.0017809643 -0.003115847
-0.01442897 0.0010796051 0.048540004 0.0030446078 -0.03060362 -0.0568995 0.032830108 -0.046114165
-0.013380351 -0.0010462416 0.023907995 0.010092112 0.057764273 -0.00693184 0.040589817 -0.02596163
-0.039577164 0.056354154 -0.026184946 0.06392502 0.0034404527 -0.007676142 -0.0033346505 0.0434505
0.008077491 -0.055693038 -0.07232125 0.0004479531 -0.0019920191 0.024652375 0.018665291 -0.030684704
0.0093722725 0.007385964 0.03056364 0.005823586 -0.0009932835 -0.0043329713 0.019166257 0.008327751
0.007494391 0.014781387 0.059251945 0.011313847 0.029759886 0.08816359 -0.019034628 0.011584675
0.022517774 -0.011293062 -0.013422587 -0.011819797 -0.010620398 -0.0075658704 0.009654486 0.01403287
-0.042535335 -0.011689242 0.013184923 -0.012891851 0.0074857106 0.048878517 0.0065571046 -0.005386138
0.010199062 0.013380566 -0.03507178 -0.006125421 -0.057524037 -0.011592041 0.043456495 -0.01349226
0.0318609 0.0062852055 0.0438488 -0.009687755 0.005704116 0.052993193 0.011933351 -0.050759427
0.028742341 -0.024374444 0.03725924 -0.0072137294 -0.0067517064 -0.027027274 -0.013452001 -0.049011163
-0.027427355 0.013529073 0.029496627 0.007714434 -0.0037591145 -0.039518774 0.024939565 -0.017688215
0.03389554 0.062352408 0.011560449 0.0015615423 0.028174896 0.0470792 -0.0035533542 0.015041718
-0.013745728 0.03554292 0.0010276284 0.020601215 0.0014660546 0.0018716574 0.012278586 -0.04568833

model.time_mlp.3.bias f4 [32]
00000000: dbec 9736 2dca 82b7 c536 beb7 2f97 90b7
00000010: 0a3c 0cb6 efca 9e37 3a09 f0b6 cd93 9037
00000020: ef35 9737 32b9 2b37 aa57 c6b6 d397 3bb7
00000030: 6be5 b9b6 216d 5a37 c232 2bb7 0794 a136
00000040: 2408 43b7 d05a 7636 f3da cdb6 ce6a 39b7
00000050: 8df2 a0b7 4743 2e36 0c0c 6937 8366 af36
00000060: 68cb 4537 b9a8 b4b5 f238 2736 b207 5337
00000070: 973f af37 0e3d 0437 9b23 df37 a693 6037
4.5277243e-06 -1.5591353e-05 -2.2675269e-05 -1.7236538e-05 -2.0896573e-06 1.8929566e-05 -7.1536315e-06 1.7234963e-05
1.8025718e-05 1.0235513e-05 -5.9110653e-06 -1.1181418e-05 -5.5401374e-06 1.3019221e-05 -1.0204212e-05 4.8154066e-06
-1.1624801e-05 3.6709716e-06 -6.134965e-06 -1.1051727e-05 -1.9186433e-05 2.596718e-06 1.3890687e-05 5.2273404e-06
1.1789474e-05 -1.346015e-06 2.4918086e-06 1.2578372e-05 2.0891237e-05 7.8820285e-06 2.6600252e-05 1.33858175e-05

model.layer.0.weight f4 [256, 55]
00000000: 2b53 12bc f332 b4bd be69 10be c8a0 ce3d
00000010: 24b6 05be 0a01 443c de7f f03b cc7b eebc
00000020: 982c c4bb 7718 d1bd 0e84 d63d 93ec 85bd
00000030: 716a 93bd 69b1 123d eb7d a13c 83eb 103e
00000040: 98c8 0d3d fcb6 13be 3b5d 763d 576f 84bd
00000050: 7efe 413d fbc3 d93d 2e6e 073c b0eb a53b
00000060: b45f 7d3c c274 b0bb b1c9 1abd 5021 e63d
00000070: 33e9 f03c 1776 98bc 191b 5bba 1904 aa3d
00000080: fe10 d2bc ec46 e1bb c67a 433d e300 393d
00000090: dac6 b73d d5ef d83d 2373 15bd 5493 593c
000000a0: 9309 32bd cb86 adbb 1900 0f3e c70b b1bd
000000b0: 189d 793d dc56 9fbc ef85 383d 8f75 6cbd
000000c0: 8a9c b7bd c44e 9abd da4d 833d 050b 023e
000000d0: 9065 cd3d bcdd 0d3d 5d9d 53bd fe96 dc3c
000000e0: 2f62 843d 32d6 a9bc 37fd f63c b776 a83d
000000f0: 1465 7e39 cd05 f53a 74c8 c0bd 6aa8 b5bd
00000100: 12d7 293c 8ebf 56bc d360 dfbd 2a36 df3a
00000110: 3f21 09bd e5f6 aebd 6395 14bd 049a 58bc
00000120: e09f 1d3d d520 363d 95bc e63d 7aea b53d
00000130: 2f9d d0bc b776 883c 1edb 603d 1fea cfbd
00000140: 41d2 56bd 798a 05bd d5e6 953d 78ea b4bd
00000150: adc9 6a3d 0382 1b3d 0415 a2bd eec0 803c
00000160: 3eb6 e0bc a4ab 8f3c 6406 833c 845b c9bc
00000170: dc63 123b 55ba bcbc 3397 c93d d576 c23d
00000180: c258 8a3d d995 773d 39fd f53d 7418 123d
00000190: 7258 abbd 3124 8abb 9ee4 5e3d c39d abbd
000001a0: 4e1d 803c 3bfd 41bd 6f7a 453d 333e 99bc
000001b0: a049 a4bb b050 9abd c187 88bc 084e 5a3d
000001c0: 7d9d 273d 97a1 063d e345 683c dfd5 be3c
000001d0: 01f3 16bd 9365 8fbd 0d65 e2bb aef1 b0bd
000001e0: f4c0 8fbc 5a2e 1bbd 4b57 aeba a210 1fbd
000001f0: 8413 083d 38ab d1bd ff6c dbbd fc32 b23a
00000200: 9d78 173c 42bf ebbd 75e8 bc3d ed63 49bd
00000210: 57c4 d0bd 953c 60bd e76b 0cbe f229 253e
00000220: 2692 c7bd c17d 58bd 869c 6cba 2f59 2ebd
00000230: 4d54 fb3d 890b 0fbd 766c 89bc 731c aa3d
00000240: 01f2 273d f25c dabd a968 b6bc 6319 52bd
00000250: 80c4 293d e465 46bd 2a4d a53d 9375 363b
00000260: 7c18 2dbd 9787 82bd 7f35 8dbc ac64 bebd
00000270: ef8d f33d c522 5fbd b4a7 05bd 7e75 e4b9
00000280: e6de 3c3d 5e88 2fbd b7f1 14be cf83 17bd
00000290: fe1d c63c 460b 893d 4af3 b0bd 467a bdbc
000002a0: b626 15be 166d d13d f53d 5abc 4df3 10bb
000002b0: 9014 b7bd a878 92bc fa33 cc3d 0529 33bd
000002c0: 7525 833c e14a e53a b798 ab3d 82db 99bd
000002d0: 11bf 533d c7b3 9e3d f423 83bb e05e 90bc
000002e0: bdb4 f93d a39b 073d 6313 0bbd 4c58 a9bc
000002f0: 7ff9 a93b 6c94 333d 8a9c 69bd f8f3 02bd
00000300: d725 033d 0229 d33c 0283 7f3c 6036 a33c
00000310: ce66 15bc 92da a5bd 1f4a ebbc 428e 993c
00000320: 6590 a7bd 4def ccbc 92c9 41bd 8d81 433d
00000330: b4c6 4e3d 0e44 39bd 6105 b4bc afc7 37bd
00000340: f1ca c23d 8775 2e3c b1a7 153d 0a0d e83d
00000350: f25f ab3d 9285 b0bd 2cf5 573d 5f20 f23d
00000360: cd45 1ebc e3ab 00bd 44e2 2b3c 8c5e 73bd
00000370: 4459 94bd e267 89bc 03ed 06bd 8916 8ebc
00000380: dadb ccbb e844 d33d f4ba 17be ab7e f43c
00000390: 10fa e03c deb4 133e 4e78 29bd 9d71 8d3d
000003a0: 0e5d a53c b0fc 9cbd 9663 593d acb9 843c
000003b0: 907e 75bd fe27 443d 7177 8c3d 70b4 89bd
000003c0: 89c2 7bbc 9163 05bd ee8a 20bd 77f8 113d
000003d0: a5ba 0abe 8f33 84bc 28b1 53bc 295a c13d
000003e0: 4689 a1bd 8f06 a3bd b749 f33c 176e c1bd
000003f0: ce30 28be 3b5e bd3d f568 4dba 70a8 18bc
-0.008930962 -0.0879878 -0.14102837 0.1008926 -0.13057762 0.011963138 0.0073394617 -0.029111765
-0.0059867613 -0.102097444 0.10474406 -0.065392636 -0.071980365 0.035813723 0.019713363 0.1415234
0.03461513 -0.14425272 0.060147505 -0.06466549 0.047361843 0.106330834 0.008266015 0.0050634965
0.015464712 -0.0053850124 -0.037790004 0.112368226 0.029408073 -0.018610997 -0.0008358225 0.08301563
-0.025642868 -0.0068749096 0.047724508 0.04516686 0.08973475 0.10592619 -0.036486756 0.013279755
-0.043466162 -0.0052956096 0.13964881 -0.086448245 0.060940832 -0.019450597 0.045049604 -0.0577293
-0.08965404 -0.075345546 0.064113334 0.12699516 0.10029137 0.03463529 -0.051663745 0.026927467
0.064640395 -0.02073202 0.03015004 0.08225768 0.00024260982 0.0018693745 -0.094132334 -0.08870013
0.010366218 -0.013107194 -0.1090714 0.0017029692 -0.03347897 -0.08543185 -0.03627528 -0.013220314
0.038482547 0.044464905 0.11266438 0.088826135 -0.025465576 0.01665817 0.054896466 -0.10152077
-0.052446608 -0.03260276 0.07319418 -0.08833784 0.05732124 0.037965786 -0.07914165 0.015716996
-0.02743065 0.0175379 0.015994258 -0.02457977 0.0022337353 -0.023038069 0.09843292 0.09495322
0.067552105 0.06044564 0.12011189 0.03566785 -0.08366479 -0.00421574 0.054417245 -0.083797
0.015638974 -0.04736064 0.048212465 -0.018706417 -0.0050136596 -0.07534921 -0.016666295 0.053297073
0.040921677 0.032868948 0.014176819 0.023295341 -0.03685284 -0.070017956 -0.006909019 -0.08639847
-0.017548062 -0.037886 -0.0013301162 -0.03883422 0.033221737 -0.102377355 -0.10714149 0.0013595517
0.009245065 -0.11511089 0.09224025 -0.049167562 -0.10193699 -0.054745276 -0.13713036 0.16129282
-0.097446725 -0.052854303 -0.00090260094 -0.04256552 0.122719385 -0.03492311 -0.016775351 0.083062075
0.041002277 -0.10662259 -0.022266703 -0.051293742 0.041447163 -0.048437014 0.080713585 0.0027841076
-0.04225968 -0.06373518 -0.017237423 -0.092965454 0.11892306 -0.05447652 -0.032630637 -0.00043575087
0.04611101 -0.04285466 -0.14545332 -0.036990937 0.024184223 0.06691603 -0.08640154 -0.023129594
-0.14565548 0.102258846 -0.013320436 -0.0022117675 -0.08939469 -0.017879799 0.09970851 -0.04374029
0.016009072 0.0017493629 0.083787374 -0.07512571 0.051695887 0.077491336 -0.0040020887 -0.017623365
0.12192676 0.03310741 -0.033954035 -0.020671986 0.005187213 0.043842718 -0.057034053 -0.031970948
0.03201851 0.02577639 0.0155952 0.019923389 -0.009118749 -0.080983296 -0.028721867 0.018744592
-0.08181838 -0.025016451 -0.047311373 0.04773097 0.050482467 -0.045230918 -0.021975221 -0.044868167
0.09511364 0.010648138 0.036536876 0.11330612 0.083679095 -0.086192265 0.05272405 0.118225805
-0.0096601965 -0.031413924 0.010490958 -0.05941634 -0.072435886 -0.016773168 -0.032940876 -0.01734473
-0.0062517943 0.10315877 -0.1481741 0.029845556 0.02746299 0.14424464 -0.041374497 0.06906436
0.020185973 -0.07665384 0.05307349 0.016201816 -0.059935153 0.047889702 0.06858719 -0.06723869
-0.015366205 -0.032565657 -0.039194994 0.035637345 -0.13547762 -0.016137866 -0.012920655 0.09441025
-0.07887511 -0.07960235 0.029698236 -0.09444826 -0.16424868 0.09246489 -0.0007835769 -0.009317502

model.layer.0.bias f4 [256]
00000000: 3a97 bc37 13a9 5837 a907 8737 6d05 8b35
00000010: f7fa ce34 38f7 a9b5 9567 47b7 40c5 afb6
00000020: 1609 67b7 cf3a be37 6dba 9d36 9234 4bb7
00000030: 8349 6637 3866 9a36 3a15 8737 9cf8 5eb6
00000040: 181c a036 f4c1 b3b7 c5ae 90b7 e903 26b7
00000050: bb10 27b7 6223 a7b6 6ae7 d1b7 0302 b136
00000060: 16ef 82b7 e162 9db7 9b25 2937 7afa 6cb7
00000070: 0106 f9b6 2773 51b7 8664 94b7 a029 2437
00000080: 2fa1 4ab7 47a0 87b6 5507 7f37 1af0 1537
00000090: 2d93 9ab7 83f0 a9b6 24ef 5d37 f481 bb36
000000a0: ef89 a637 2dd4 3737 366b 97b6 7f6a 8e36
000000b0: ddbc 8f37 4118 6836 9046 23b6 fe6c 3b36
000000c0: 3483 a0b7 9b45 8736 2ef8 5736 69ee 3db7
000000d0: 825c a0b7 6869 5636 fb10 1d37 94e3 bdb7
000000e0: 007a dbb7 8f26 0d37 ab0a 6d37 eb07 9db7
000000f0: d6b3 b9b6 fd98 9c36 b24b abb6 5711 f5b6
00000100: 5ded 97b7 c39d d333 3fc2 b4b6 cca7 89b7
00000110: eb19 aa37 41e7 3cb7 7d09 9d37 74a5 5db6
00000120: 1782 a735 c48f 3db7 8e2a c0b5 79ce 8437
00000130: 8464 e935 b939 56b6 c851 1537 5087 5bb7
00000140: bad1 f335 4884 cf37 ff72 f7b4 4793 9937
00000150: 28c7 afb7 acc0 4837 a0c5 d836 c9fb 3db7
00000160: aca0 8b37 5445 7cb7 67ae f9b6 063e ad37
00000170: 1b04 26b7 4aad d636 42e3 d1b7 615e d1b6
00000180: ff6d 4136 2e41 bdb7 ec3f 6f37 0e7b 0537
00000190: ad3c c6b6 7999 6037 a6ab d1b7 9ca4 8d37
000001a0: 34d1 95b7 c77b c4b7 4119 c635 5690 5837
000001b0: 9870 3db6 5672 29b7 e363 7eb6 ad45 a5b6
000001c0: 57fe 5db6 ec26 8137 331a b736 da92 57b7
000001d0: a0c1 98b7 3c6e 53b7 0dd2 2db7 837d 2537
000001e0: fa5e b337 3893 1bb7 17cf 1bb3 a574 6336
000001f0: e477 0eb6 6467 f937 5480 3e34 da2c 9eb7
00000200: a6c6 0137 e7d4 21b7 86db 8ab7 52c2 e136
00000210: 916f 78b7 84dd cbb5 cd18 0fb7 956c c2b6
00000220: bf60 b536 95f4 48b7 e23d a0b7 1b40 39b7
00000230: 1279 5337 9595 9237 617b a4b6 0a61 b9b6
00000240: c8c7 11b7 cd28 c5b7 67f5 3837 9ee0 2e37
00000250: 12a0 c9b6 9fd7 2e35 337c 78b7 4462 2cb6
00000260: 2995 61b6 71d2 bab6 fb19 c237 6d58 05b7
00000270: 86d5 0eb7 cf65 6fb6 9805 0237 9513 6db7
00000280: 0c05 7337 dd7d 0ab6 14bb 1037 0155 a7b7
00000290: 8335 3fb6 b6fc a837 5fdd 1037 af95 8fb4
000002a0: 46aa e2b5 aeaa 2db7 861c 8937 fb8a 87b7
000002b0: 3b09 efb6 4ed6 5337 e5f1 ca36 4ae7 b336
000002c0: 29d5 9eb6 9c39 3fb7 bd74 dcb7 70e0 11b6
000002d0: 9630 9cb7 3481 c1b7 a823 a2b6 b9c5 0737
000002e0: 46be 77b7 a7a2 cdb5 3436 b735 10e6 19b5
000002f0: c9aa 9bb7 193a d6b6 ec65 0835 bf27 9d37
00000300: 55a2 94b6 bf9d 8eb7 8b24 a8b6 aa3e a3b6
00000310: 18c0 cd36 dd45 61b7 c34d 2437 4bd8 1935
00000320: 77cd 2637 195e 1536 8234 bdb7 b9ad 0337
00000330: 7974 0fb7 a573 82b3 720e 6936 1e55 77b5
00000340: 8524 8336 33bf 3837 82a2 34b7 0e14 3bb7
00000350: 9252 a836 cf88 38b5 2118 11b7 5ff8 75b7
00000360: ce0e 2837 2f2f 0737 5c0b 3634 bb4b f2b6
00000370: 7f32 31b7 7c7b 3937 dc4c e735 c10c 18b6
00000380: df34 3a37 4b89 0bb7 9831 dab6 0977 2e36
00000390: 7a3a 8cb7 b178 a437 5950 bd37 ddce 4037
000003a0: 99af 1637 f5c2 9837 2463 e636 8922 2937
000003b0: 6aac 03b7 9a6a 0e37 3f9b eb36 5e22 bbb7
000003c0: d856 84b6 ef67 8d37 ef16 e2b6 a224 f9b7
000003d0: e047 69b7 1fe4 21b7 0216 a8b7 4728 1937
000003e0: c0fb 9236 80e3 5eb7 8439 9db7 0b16 2636
000003f0: c8e0 cdb3 f95e 3f37 e69c 5236 b232 9937
2.2481767e-05 1.2913969e-05 1.6096821e-05 1.0357886e-06 3.855309e-07 -1.2663431e-06 -1.1885441e-05 -5.2383693e-06
-1.3770788e-05 2.267715e-05 4.7006674e-06 -1.2111983e-05 1.3726184e-05 4.6014575e-06 1.6103138e-05 -3.3225288e-06
4.771642e-06 -2.142878e-05 -1.7247521e-05 -9.895281e-06 -9.957871e-06 -4.981107e-06 -2.5022502e-05 5.2752453e-06
-1.560854e-05 -1.8761903e-05 1.0081941e-05 -1.4125015e-05 -7.421477e-06 -1.2484182e-05 -1.7689785e-05 9.784853e-06
-1.2077667e-05 -4.0419723e-06 1.52008915e-05 8.936995e-06 -1.8426765e-05 -5.0645917e-06 1.3228306e-05 5.588163e-06
1.9852972e-05 1.0957051e-05 -4.5126317e-06 4.2443276e-06 1.7134875e-05 3.4584812e-06 -2.4329966e-06 2.7928613e-06
-1.9134583e-05 4.0314167e-06 3.2181956e-06 -1.1320787e-05 -1.9116564e-05 3.194984e-06 9.361883e-06 -2.263653e-05
-2.6163645e-05 8.4132325e-06 1.4128785e-05 -1.8719546e-05 -5.5343653e-06 4.6669725e-06 -5.105009e-06 -7.3035876e-06
-1.8111134e-05 9.85415e-08 -5.3870313e-06 -1.640981e-05 2.0277648e-05 -1.1259516e-05 1.8720277e-05 -3.3027873e-06
1.2480331e-06 -1.1298751e-05 -1.43175e-06 1.5831773e-05 1.7389107e-06 -3.1922084e-06 8.900133e-06 -1.3084922e-05
1.8165949e-06 2.4737921e-05 -4.6091006e-07 1.8307603e-05 -2.0954365e-05 1.1965789e-05 6.460308e-06 -1.1323901e-05
1.664491e-05 -1.5036512e-05 -7.4410814e-06 2.0652089e-05 -9.895327e-06 6.3978705e-06 -2.5020567e-05 -6.2396725e-06
2.8823267e-06 -2.2560907e-05 1.4260393e-05 7.956069e-06 -5.9079234e-06 1.3387174e-05 -2.4994672e-05 1.6885162e-05
-1.7859602e-05 -2.3422659e-05 1.47595e-06 1.2908209e-05 -2.8228733e-06 -1.0099806e-05 -3.7907091e-06 -4.9254945e-06
-3.3079612e-06 1.5396123e-05 5.456875e-06 -1.284919e-05 -1.8209976e-05 -1.2602246e-05 -1.036051e-05 9.863989e-06
2.138269e-05 -9.272997e-06 -3.6277097e-08 3.3893532e-06 -2.1229434e-06 2.9731258e-05 1.7741814e-07 -1.8855953e-05
7.735251e-06 -9.645918e-06 -1.6553106e-05 6.7281444e-06 -1.4807928e-05 -1.5189148e-06 -8.529239e-06 -5.794291e-06
5.405483e-06 -1.1977875e-05 -1.9102303e-05 -1.1041785e-05 1.2604769e-05 1.747421e-05 -4.901944e-06 -5.5247265e-06
-8.689189e-06 -2.350323e-05 1.1024392e-05 1.0423506e-05 -6.0089014e-06 6.513382e-07 -1.4810869e-05 -2.5687195e-06
-3.3614435e-06 -5.5677306e-06 2.31387e-05 -7.948006e-06 -8.513574e-06 -3.5673036e-06 7.749906e-06 -1.413086e-05
1.4485104e-05 -2.0636865e-06 8.626626e-06 -1.9947534e-05 -2.8492366e-06 2.0144838e-05 8.634611e-06 -2.6744735e-07
-1.6887868e-06 -1.0351343e-05 1.6344955e-05 -1.6157972e-05 -7.1238296e-06 1.2626477e-05 6.0482294e-06 5.3615413e-06
-4.733582e-06 -1.13979e-05 -2.6280404e-05 -2.1737324e-06 -1.8619274e-05 -2.3067558e-05 -4.832127e-06 8.092663e-06
-1.4766649e-05 -1.5321028e-06 1.3650338e-06 -5.7331727e-07 -1.8556968e-05 -6.3844604e-06 5.0812264e-07 1.8734367e-05
-4.4296416e-06 -1.7001175e-05 -5.0110443e-06 -4.8650736e-06 6.1318387e-06 -1.3427311e-05 9.793267e-06 5.731169e-07
9.9422095e-06 2.2257502e-06 -2.2555007e-05 7.848656e-06 -8.550583e-06 -6.074632e-08 3.4728114e-06 -9.213853e-07
3.9083557e-06 1.1011772e-05 -1.0766673e-05 -1.1150738e-05 5.0164026e-06 -6.8744424e-07 -8.648291e-06 -1.4660966e-05
1.0017027e-05 8.057613e-06 1.6954203e-07 -7.220978e-06 -1.0561779e-05 1.105561e-05 1.723321e-06 -2.2657189e-06
1.1098774e-05 -8.317012e-06 -6.5026798e-06 2.5997308e-06 -1.671653e-05 1.9606525e-05 2.256797e-05 1.1492256e-05
8.981581e-06 1.8210596e-05 6.8660756e-06 1.0081226e-05 -7.848352e-06 8.48868e-06 7.021619e-06 -2.230814e-05
-3.9440165e-06 1.6856908e-05 -6.7379947e-06 -2.9700172e-05 -1.3904617e-05 -9.649461e-06 -2.0037409e-05 9.128888e-06
4.3804466e-06 -1.32852e-05 -1.8742641e-05 2.4748758e-06 -9.586944e-08 1.14066e-05 3.1383765e-06 1.8262628e-05

model.layer.2.weight f4 [256, 256]
00000000: 0878 0d3d 08e9 9e3c 925b e63c 87db 9136
00000010: 5c36 53bc 9023 a1bc 496f 3a3d 95f1 8d3d
00000020: f1b9 97bc 230a 64bd e0a2 2dbc e0b1 333c
00000030: f8c1 71bd a288 c5bc 3402 d93c b0e0 c13b
00000040: 8b66 80bc c2fb 5ebd 1f4e 8ebd 4075 6c3b
00000050: 08e3 903c 92bf 2dbd de3e f73b 1025 08bd
00000060: 61d7 233b cc8b 96ba 8cf7 813c 2ec8 74bd
00000070: 76fc 3d3d fa47 56bd ce67 a03b e461 8a3b
00000080: f209 863a 29d7 993c 0c23 d83c 8299 70bc
00000090: 8855 823d bf5a 80bc 0053 dfbc 10a6 2e3d
000000a0: 9187 39bd c032 953b 143b 0b3d 91e2 c3bb
000000b0: 6214 aa3b 1bc7 773c 2bcb 0fbd ff20 76bb
000000c0: 87f8 1c3a ce21 34bd 4ab3 abbd fa20 923c
000000d0: 1225 c9bb e031 5bbc 5516 32bc 39a0 f6ba
000000e0: ef78 42bd 43f0 933c 0c05 c13c 100d bebc
000000f0: 9556 893c aa81 593d 7e47 7dbb 74d7 9d3c
00000100: b870 f43c 5dc2 8abd 91b1 0dbc dc8c 213d
00000110: 06bf c6bc 5c19 02bc e115 843b b6a0 453c
00000120: 6776 083d c2f0 573c dd7e c8ba d490 0cbd
00000130: a14d 0bbd ee13 12bd 3e0a a2bc 2a8f 633b
00000140: 27dc 113c e1af 81bd 2971 863c eede f9bb
00000150: 3017 c03c 8d45 853c 6e42 003d 98a2 86bd
00000160: 6b75 223d e08c 573b 811a 90bc ee32 9d3b
00000170: 4298 183d b37f a2bc 3d13 093d e353 713c
00000180: 785e 803c e584 8cba 6b08 ef3c f871 1e3d
00000190: c1bc 0abd 1cc1 b63c aed8 a5bc 4419 313d
000001a0: f4e4 94bc 6202 1e3d 6615 1c3d 2771 28bd
000001b0: b9b2 5a3d 1617 0cbd 7d5c 1a3b c74f 83bd
000001c0: 2070 253c b534 1abd bc29 1f3d b208 b2bc
000001d0: 43b8 66bd 1b4e 9c3c 8ca3 3b3d 069a 35bd
000001e0: 3c42 c9ba f4e6 0fbc 3dbc 5ebc 3b6a 37bd
000001f0: 339f 42ba 2cd7 abbb b003 8d3d 8e5a 88bb
00000200: d0d9 85bc 148d f8bc 43ab 8ebc cca8 953c
00000210: 9bdd 91bc 7dad 213c 5533 6c3d 3b57 05bd
00000220: 13ef 4cbd 99d2 e2bc 2d62 7c3c b0b3 1dbc
00000230: 890b ba3c d040 383d 5114 1a3c 2831 ec3c
00000240: 9b71 343c 592a d4bc 0a3d 563c ae08 d0bb
00000250: afe7 a0bc 69a0 73bc b3c1 86bc 452c e8bb
00000260: fccd da3b 4984 d83b 3fc9 78bb 7efe cc3b
00000270: 7626 843c c68d 0dbd aacf 563c cef5 32bd
00000280: aef5 26bd 8f26 193c 5fd8 cdbb 5167 133d
00000290: 700e a6bc f2a4 af3b 9d13 673c 95cf 693c
000002a0: d761 24bc 7045 38bd cdbd f6bb 2c08 34bd
000002b0: 258e 5abd b71e d13c 53d8 ddbc 13c3 d2bc
000002c0: e7ab 363c 0cdd 3dbd 6340 373c fe93 10bb
000002d0: 7453 c23c a831 e3bc 877d 263d f4d9 4cbc
000002e0: f116 0cbd b7b3 263c 5a17 debb f490 71bc
000002f0: 5ff8 16bd 3cc3 a2bc e75a fd3b 7396 2b3d
00000300: 3e60 15b9 ef8a 43bc b9f2 cdbd 9879 4ebd
00000310: 2cc0 313d 8c01 ad3d 1bce 17bc 2aed 04bd
00000320: ec90 0f3c 1dd9 27bd a887 cabb 44e9 82bc
00000330: e67f 2abb 9401 133d 1c74 023c dd0e cf3c
00000340: 4798 dfbb 9d7b a63c bc49 07bd 031c fabc
00000350: 049a 6e3c e773 e33c b5a2 48bd e4b7 2d3d
00000360: 8544 cb3d 2b29 87bc de76 f2bc 139d 4d3d
00000370: bd87 1cbd 9e1d e23c 27ae f0bc 419e 363b
00000380: b804 9fbc baba 3a3c 1ee0 a53b b385 a7bb
00000390: a9f4 8c3c 86b6 9ebb e97e 093a 13a6 4dbd
000003a0: 2d90 783d 550c 25bc 56a4 04bc cc7d c9bc
000003b0: bcc9 e1bb 2a22 033b 08e4 bf3d 0fde 85bb
000003c0: ca0a bebc 4b40 613c 1afe 57bb f77c 4cbd
000003d0: 259b 4cbb 2507 5d3d b5d3 bbbc ed59 a5bc
000003e0: f8b0 ff3c 7cfb e3bb 424a 743c 062e c93c
000003f0: 3a82 18bd 1b2d dfbc 2a7e 8abc 58b3 2dbd
0.0345383 0.019398227 0.028119836 4.346893e-06 -0.012891378 -0.019670278 0.045516286 0.06930844
-0.018521281 -0.05567373 -0.010597914 0.010967702 -0.059022874 -0.024113003 0.026490308 0.0059166774
-0.015673896 -0.054439314 -0.06948494 0.0036080629 0.017686382 -0.042419024 0.007545336 -0.03323847
0.0025000202 -0.0011485755 0.01586511 -0.05976122 0.046383344 -0.052314736 0.004895187 0.0042230953
0.0010226353 0.018779354 0.0263839 -0.014685037 0.0636397 -0.015668271 -0.027261257 0.04263884
-0.0452953 0.004553169 0.03399189 -0.0059779366 0.005190418 0.015123154 -0.035105865 -0.0037556288
0.0005987961 -0.04397755 -0.08383806 0.01783799 -0.0061384523 -0.01337859 -0.010869582 -0.0018816061
-0.047478613 0.018058902 0.023561977 -0.023199588 0.016764918 0.053102173 -0.003864735 0.019267775
0.029838905 -0.06775353 -0.008648292 0.039440975 -0.024261009 -0.007940616 0.0040309285 0.012062242
0.033316042 0.01317996 -0.0015296597 -0.034317806 -0.03400958 -0.035663538 -0.019780274 0.0034722784
0.008902586 -0.06332374 0.01641138 -0.0076254522 0.023448557 0.016268516 0.031313352 -0.06573981
0.03966276 0.0032890365 -0.017590763 0.004797331 0.03725458 -0.019836282 0.033465613 0.014729473
0.015670046 -0.0010720758 0.029178819 0.038682908 -0.033871416 0.022308879 -0.020244922 0.043236986
-0.01817558 0.03857649 0.038106345 -0.041123535 0.0533931 -0.034201704 0.0023553662 -0.06411701
0.010097533 -0.03764792 0.03885816 -0.021732662 -0.05632807 0.019080212 0.045810267 -0.04433634
-0.0015354822 -0.008783091 -0.013594684 -0.044779044 -0.0007424235 -0.0052441563 0.06885469 -0.0041611856
-0.016339213 -0.030340709 -0.017415648 0.018268965 -0.017805865 0.009868023 0.05766614 -0.032553893
-0.050032686 -0.027688311 0.015404266 -0.00962536 0.022710579 0.044983685 0.009404258 0.028832033
0.011013414 -0.0258991 0.013076076 -0.006348691 -0.019641725 -0.014869788 -0.016449785 -0.0070853555
0.0066773873 0.0066075665 -0.003796175 0.006255924 0.01613162 -0.034559034 0.013111034 -0.04369145
-0.040761642 0.009347572 -0.006281897 0.035987202 -0.020270556 0.005360239 0.014103797 0.014270683
-0.010033092 -0.044988096 -0.0075299502 -0.043953106 -0.053358216 0.025527341 -0.02708069 -0.025727784
0.011149383 -0.046353385 0.011184785 -0.0022060866 0.023721434 -0.027733639 0.040647056 -0.012503136
-0.034201566 0.010174683 -0.006777686 -0.014744032 -0.03685796 -0.019868486 0.0077317837 0.041891526
-0.000142456 -0.01193498 -0.10056061 -0.05040893 0.04339616 0.08447561 -0.009265448 -0.03245274
0.008762579 -0.04097854 -0.0061807223 -0.01598037 -0.0026016175 0.035890177 0.007962253 0.025275642
-0.006823573 0.020322615 -0.033029303 -0.030530935 0.014563087 0.027765227 -0.048983295 0.0424117
0.099251784 -0.016499123 -0.029597696 0.050198626 -0.038215388 0.027602013 -0.029379917 0.0027865323
-0.01941143 0.011397058 0.0050621172 -0.0051123737 0.017206507 -0.004843536 0.00052450463 -0.05020721
0.06068437 -0.010073741 -0.008095821 -0.024596117 -0.0068905037 0.0020009377 0.093696654 -0.0040853093
-0.023198504 0.013748239 -0.0032957853 -0.049923863 -0.0031220403 0.05396189 -0.022928098 -0.020184482
0.031212315 -0.0069574695 0.014910283 0.024558078 -0.03723357 -0.027243188 -0.016905863 -0.042407364
