results/qvpo_HalfCheetah-v3/actor_25_04_20_17_42_26_0.pth (torch, 665521 bytes, 24 tensors)

betas f4 [20]
000000 e7 f3 02 3c 51 74 a4 3c 9e 1c 04 3d 56 03 37 3d
       0.007992721 0.020074995 0.032253854 0.044680916
000010 52 9a 6b 3d 08 52 91 3d cf 82 ae 3d 70 eb cd 3d
       0.05752022 0.07095724 0.085210435 0.10054672
000020 e1 3c f0 3d 27 2f 0b 3e d8 c3 20 3e 3c b6 39 3e
       0.11730362 0.13592206 0.15699708 0.18135923
000030 b1 41 57 3e ad 42 7b 3e d6 56 94 3e 0b 3f b2 3e
       0.21021153 0.24537154 0.289725 0.34813723
000040 c4 de db 3e e4 0f 0d 3f 21 9c 3f 3f 77 be 7f 3f
       0.42943394 0.5510237 0.7484761 0.999

alphas_cumprod f4 [20]
000000 30 f4 7d 3f 11 db 78 3f 44 d4 70 3f 97 11 66 3f
       0.99200726 0.9720927 0.9407389 0.8987059
000010 ca d5 58 3f f7 72 49 3f 95 48 38 3f 21 c1 25 3f
       0.84701216 0.7869105 0.7198575 0.64747816
000020 92 4f 12 3f 11 d9 fc 3e ca 26 d5 3e 99 7e ae 3e
       0.57152665 0.4938436 0.41631156 0.3408096
000030 53 d0 89 3e 13 ff 4f 3e 11 bc 13 3e fc 9a c0 3d
       0.2691675 0.20312147 0.1442721 0.09404561
000040 c8 c9 5b 3d 01 5c c5 3c fb 8f c6 3b 47 53 cb 36
       0.05365923 0.024091722 0.0060596443 6.059566e-06

alphas_cumprod_prev f4 [20]
000000 00 00 80 3f 30 f4 7d 3f 11 db 78 3f 44 d4 70 3f
       1.0 0.99200726 0.9720927 0.9407389
000010 97 11 66 3f ca d5 58 3f f7 72 49 3f 95 48 38 3f
       0.8987059 0.84701216 0.7869105 0.7198575
000020 21 c1 25 3f 92 4f 12 3f 11 d9 fc 3e ca 26 d5 3e
       0.64747816 0.57152665 0.4938436 0.41631156
000030 99 7e ae 3e 53 d0 89 3e 13 ff 4f 3e 11 bc 13 3e
       0.3408096 0.2691675 0.20312147 0.1442721
000040 fc 9a c0 3d c8 c9 5b 3d 01 5c c5 3c fb 8f c6 3b
       0.09404561 0.05365923 0.024091722 0.0060596443

sqrt_alphas_cumprod f4 [20]
000000 92 f9 7e 3f 10 67 7c 3f 7b 4c 78 3f 32 b0 72 3f
       0.99599564 0.9859476 0.969917 0.948001
000010 ec 9a 6b 3f a8 17 63 3f a3 33 59 3f 37 fe 4d 3f
       0.9203327 0.8870797 0.84844416 0.80466026
000020 d0 88 41 3f c6 e6 33 3f 47 2d 25 3f 33 73 15 3f
       0.75599384 0.7027401 0.6452221 0.58378905
000030 f7 d0 04 3f d6 c0 e6 3e 4c 79 c2 3e a9 03 9d 3e
       0.51881355 0.45068997 0.37983167 0.30666855
000040 40 34 6d 3e b4 f0 1e 3e 87 6c 9f 3d 1b 53 21 3b
       0.23164463 0.15521508 0.07784372 0.0024616185

sqrt_one_minus_alphas_cumprod f4 [20]
000000 7a 18 b7 3d 6b 10 2b 3e 49 47 79 3e f0 f3 a2 3e
       0.089402154 0.16705482 0.243436 0.31826735
000010 0f 43 c8 3e f6 58 ec 3e 37 7f 07 3f 0c ff 17 3f
       0.39113662 0.46161622 0.5292849 0.59373546
000020 79 92 27 3f 60 21 36 3f 2e 95 43 3f 08 d9 4f 3f
       0.65457875 0.71144676 0.76399505 0.8119054
000030 e7 d9 5a 3f b6 86 64 3f 72 d0 6c 3f 3d aa 73 3f
       0.8548874 0.8926805 0.9250556 0.9518164
000040 74 09 79 3f c0 e5 7c 3f 23 39 7f 3f cd ff 7f 3f
       0.9728005 0.9878807 0.9969656 0.99999696

log_one_minus_alphas_cumprod f4 [20]
000000 fb 88 9a c0 26 0c 65 c0 f3 d9 34 c0 e4 8a 12 c0
       -4.8292212 -3.5788665 -2.8258026 -2.2897272
000010 8a 4e f0 bf bc e4 c5 bf de df a2 bf 51 75 85 bf
       -1.8773968 -1.5460429 -1.2724569 -1.0426427
000020 83 f7 58 bf 15 50 2e bf cb d3 09 bf 51 5f d5 be
       -0.8475267 -0.68090945 -0.53838795 -0.41674283
000030 62 8c a0 be 97 80 68 be c6 8a 1f be 03 46 ca bd
       -0.31357104 -0.22705303 -0.15580282 -0.09876635
000040 9c e7 61 bd 8f c6 c7 bc a3 2a c7 bb 29 00 cc b6
       -0.05515252 -0.024386672 -0.0060780807 -6.0796924e-06

sqrt_recip_alphas_cumprod f4 [20]
000000 be 83 80 3f 08 d3 81 3f 56 f8 83 3f 5d 05 87 3f
       1.0040205 1.0142527 1.0310161 1.0548512
000010 84 14 8b 3f 2e 4b 90 3f 48 dd 96 3f c7 12 9f 3f
       1.0865636 1.1272943 1.178628 1.2427605
000020 45 50 a9 3f e8 24 b6 3f 9d 61 c6 3f de 41 db 3f
       1.3227621 1.4230013 1.5498539 1.7129476
000030 7d b7 f6 3f 26 01 0e 40 e5 7e 28 40 c2 b1 50 40
       1.9274746 2.21882 2.632745 3.2608495
000040 84 24 8a 40 60 2a ce 40 3f 8a 4d 41 4f 1e cb 43
       4.3169575 6.4426727 12.8462515 406.2368

sqrt_recipm1_alphas_cumprod f4 [20]
000000 d9 d4 b7 3d 8e 80 2d 3e 4f 81 80 3e 1b e4 ab 3e
       0.08976144 0.16943571 0.25098655 0.33572468
000010 ea 98 d9 3e 74 37 05 3f 52 b3 1f 3f 1d e5 3c 3f
       0.42499477 0.5203774 0.62382996 0.737871
000020 7a a8 5d 3f fb 95 81 3f f5 8f 97 3f 25 04 b2 3f
       0.865852 1.0123895 1.1840807 1.3907515
000030 41 ea d2 3f 7f 87 fd 3f 2e de 1b 40 82 a3 46 40
       1.6477739 1.9806975 2.4354358 3.1037297
000040 9e 62 86 40 bd aa cb 40 95 ea 4c 41 26 1e cb 43
       4.199538 6.364592 12.807271 406.23553

posterior_variance f4 [20]
000000 00 00 00 00 ab 66 bc 3b 69 db 78 3c cc 23 d6 3c
       0.0 0.0057495437 0.01518903 0.026140116
000010 73 fe 1b 3d 79 aa 50 3d c1 bd 84 3d f8 a3 a3 3d
       0.03808446 0.050943825 0.06481505 0.07990259
000020 2f a7 c5 3d 38 a5 eb 3d 11 69 0b 3e de 70 24 3e
       0.09651028 0.11506122 0.13614298 0.1605868
000030 cb 27 42 3e 8c 6f 66 3e 43 23 8a 3e 3e 5d a8 3e
       0.18960492 0.2250349 0.26980028 0.32883638
000040 a6 7c d2 3e cc c9 08 3f 3a 22 3c 3f 22 32 7e 3f
       0.41110724 0.5343292 0.73489726 0.99295247

posterior_log_variance_clipped f4 [20]
000000 f1 34 38 c2 89 13 a5 c0 65 fd 85 c0 f3 3b 69 c0
       -46.0517 -5.1586347 -4.187182 -3.644284
000010 14 26 51 c0 b0 87 3e c0 30 1e 2f c0 80 b9 21 c0
       -3.267949 -2.9770317 -2.7362175 -2.526947
000020 86 a3 15 c0 f9 62 0a c0 04 3d ff bf 12 1a ea bf
       -2.3381057 -2.1622908 -1.9940495 -1.8289206
000030 0c d7 d4 bf 77 e9 be bf 7b b0 a7 bf 68 5c 8e bf
       -1.6628127 -1.4914998 -1.3100733 -1.112195
000040 07 8f 63 bf 3e 72 20 bf 66 b5 9d be 4e c0 e7 bb
       -0.8889012 -0.6267432 -0.3080246 -0.007072485

posterior_mean_coef1 f4 [20]
000000 cf ff 7f 3f 3d 6a 37 3f d9 5f 09 3f b2 0c db 3e
       0.9999971 0.7164648 0.53661877 0.42783123
000010 cc 7d b6 3e d9 e8 9c 3e 09 26 8a 3e 5b cd 77 3e
       0.3564285 0.306464 0.26982144 0.2419943
000020 6a 94 61 3e 97 e2 4f 3e 2c 8e 41 3e cf c6 35 3e
       0.22029272 0.20301281 0.1890189 0.1775162
000030 6d f2 2b 3e bf 95 23 3e c0 40 1c 3e ab 76 15 3e
       0.16791697 0.15975092 0.15259075 0.1459605
000040 45 80 0e 3e 85 ee 05 3e 61 60 ef 3d f6 43 9f 3d
       0.13916118 0.13079269 0.11688305 0.077766344

posterior_mean_coef2 f4 [20]
000000 00 00 00 00 bc 28 91 3e 06 31 ed 3e d3 62 12 3f
       0.0 0.2835139 0.46326464 0.57182044
000010 52 8d 24 3f 99 27 31 3f 9d 3e 3a 3f a3 f0 40 3f
       0.6427814 0.69201046 0.7275179 0.7536718
000020 f9 e1 45 3f cd 71 49 3f 4a d3 4b 3f 8a 18 4d 3f
       0.7729793 0.7868927 0.79619277 0.8011557
000030 8a 34 4d 3f 3b f4 4b 3f ec e9 48 3f fb 3a 43 3f
       0.80158293 0.7966954 0.78481936 0.7626187
000040 8a 1e 39 3f 68 56 26 3f dd 1e fc 3e f1 bd 00 3d
       0.72312224 0.64975595 0.49242297 0.031431142

model.time_mlp.1.weight f4 [256, 32]
000000 6e ff fe bd b0 ea 29 bd 25 af e8 bd ef ea d7 3c
       -0.12451063 -0.04148358 -0.11361531 0.026357142
000010 bd 50 89 3d ed 18 90 bd 7f 97 0d bc dc f6 0d bd
       0.06704853 -0.07036004 -0.0086420765 -0.03465925
000020 95 67 94 bd 42 45 05 3e 57 01 96 bd 35 e8 a7 bb
       -0.07246319 0.13014701 -0.07324474 -0.005124117
000030 cf e4 26 3e 0f a4 d6 3a fc a8 06 be 87 e1 ca bc
       0.16298221 0.0016375798 -0.131504 -0.024765743
000040 42 f1 02 ba cd 9f b3 bc 07 b8 f7 bd 6c fa 0d 3e
       -0.00049950567 -0.021926785 -0.12095647 0.1386506
000050 3c 21 06 be 14 9e aa bc c7 e4 5b 3e 1a 9a 84 3d
       -0.13098615 -0.02082733 0.2147399 0.06474705
000060 16 f0 ca 3d 0a ba 8d 3d 3d 72 bd ba be 0d 0b be
       0.09909074 0.0692025 -0.0014453601 -0.13579461
000070 5b d3 d2 bd 0e 7f 94 3c 3e b8 2b 3c a5 6a 42 bd
       -0.10294219 0.01812699 0.0104809385 -0.047464985
000080 b7 5e 91 3d 1a 25 21 bd c7 ba 02 bd e6 e0 7a 3d
       0.070981435 -0.039342023 -0.031916406 0.061249636
000090 e9 b3 e0 3c 49 5a 11 3d 13 88 84 3b 31 5c 00 3e
       0.027429538 0.035486493 0.0040445416 0.12535168
0000a0 05 03 a3 bd fb 8e fc 3d 27 df 31 3e 81 b0 4e 3e
       -0.0795956 0.12331959 0.17370282 0.20184518
0000b0 12 9b 1a 3d 35 9b b7 3d 31 b4 45 3e 23 02 98 3c
       0.037745543 0.0896515 0.19307019 0.018555706
0000c0 bb 5f 9a bd 76 6b 55 3d 13 fb 06 be 85 10 c1 bd
       -0.075377904 0.052104436 -0.13181715 -0.09426979
0000d0 e1 c9 ca bd 49 c8 fb 3c 3e 9c 2c bc f2 22 93 3d
       -0.099017866 0.030735152 -0.010535298 0.071844
0000e0 1b 50 33 3e 5d 1e 4b be 31 3e 16 3c 0f a8 87 3c
       0.17511027 -0.19835801 0.009170101 0.016559629
0000f0 38 cf 2f 3e 56 cb 61 bd 75 4c db bc 52 aa c4 3b
       0.17168891 -0.055125557 -0.026769856 0.006001749
000100 67 c7 3a be dd f9 e4 bd 77 52 49 3c 62 49 89 bd
       -0.18240128 -0.1118047 0.012287728 -0.0670345
000110 43 3a 52 be 6e 4a 97 be e1 31 12 be 3c 0c 16 be
       -0.20530038 -0.29548973 -0.1427684 -0.14653105
000120 7f e0 19 be 6f 3b 03 be a7 a7 80 bd 3b 00 39 3a
       -0.15027045 -0.12815641 -0.06281977 0.0007057224
000130 a9 02 be 3d bb a9 36 bc d8 38 01 3e 2e ee d7 bd
       0.09277851 -0.011148865 0.1261934 -0.10543476
000140 74 1b b4 3d 61 b6 2e 3e 09 9b 49 3e 96 d9 60 3e
       0.08794299 0.1706176 0.19688047 0.21958002
000150 99 1e 8e 3c 4e 79 7f 3d e6 58 a8 3c e0 05 14 3d
       0.017348574 0.062371545 0.020550203 0.036138415
000160 29 67 20 3d 20 f2 e1 bc 39 32 b2 3d e7 34 a7 bd
       0.03916088 -0.027581275 0.087009855 -0.08164387
000170 1f b8 7b bd fb b4 06 be 10 45 9b 3d db 39 9b bc
       -0.06145489 -0.13154976 0.07581532 -0.018948486
000180 f7 19 8f bc 9c 6b b2 bd 46 e3 ec 3c 0a 0c d3 3d
       -0.017468436 -0.08711931 0.028916966 0.10305031
000190 b6 bc 24 be d3 7a c3 bd 6b 59 38 be 0d 5e 02 be
       -0.16087613 -0.09544911 -0.1800286 -0.1273119
0001a0 b3 4e 2c be 07 5b 9f 3d f3 98 0a 3c 39 02 a0 3d
       -0.16826896 0.07781034 0.0084593175 0.07812924
0001b0 57 b9 9d 3d 3a fc 38 3d cc 0f 06 3e a2 80 dd bd
       0.077013664 0.045162417 0.13091964 -0.108155504
0001c0 62 41 13 3e 35 f1 d2 3d 17 d4 4b 3d 56 a7 9f 3d
       0.1438041 0.10299913 0.04976281 0.07795589
0001d0 77 de 20 3e b8 94 df 3c e0 4f 37 3d 40 43 8d ba
       0.15709864 0.027292594 0.04475391 -0.0010777488
0001e0 11 c7 9c bc 35 c5 cc bb 6d 9e 36 bd 8a b8 3e bd
       -0.019137891 -0.006249095 -0.04458468 -0.04656271
0001f0 e2 1e 62 3c 38 d3 01 bc 4c 45 61 be 53 77 91 3d
       0.013801308 -0.007923894 -0.21999091 0.071028374
000200 35 8b d4 bd fc d2 e2 bd 5f cf 83 bd 6b d6 0f 3c
       -0.10378114 -0.11075398 -0.06436037 0.008779149
000210 d5 33 01 3d d3 17 11 be fd 42 83 be 5b 0c e0 bd
       0.03154357 -0.14169244 -0.25637046 -0.109398566
000220 f0 10 15 bd 45 bb 86 bd 09 ae ef bd a2 cd 39 be
       -0.036393106 -0.065786876 -0.117031164 -0.18144849
000230 70 59 b7 3c 7d d8 0b be 6c b5 a4 bc 4f 3e 4d 3d
       0.022381514 -0.13656802 -0.02010604 0.05010825
000240 72 03 35 3d fb e3 ac 3d 64 eb 0c 3e 33 b7 56 3e
       0.04419274 0.08441921 0.1376167 0.20968322
000250 f2 15 b1 3d 87 f2 e6 bc 33 bf 1e 3c 89 2e d5 bc
       0.08646764 -0.028191818 0.00968914 -0.026023166
000260 df 3c cc ba 2a 11 be bd 84 30 e2 bd 37 be 10 3b
       -0.0015582106 -0.092806175 -0.1104441 0.0022086033
000270 22 1f 35 3d 11 d1 07 3e f4 01 3d bc 13 a7 e7 3d
       0.044219144 0.13263346 -0.01153611 0.11311164
000280 e9 3d 82 bb 2f b7 20 bd cd 4f 9d be eb 23 9e 3d
       -0.0039746654 -0.039237197 -0.30724946 0.077216946
000290 53 f0 92 3c 20 36 c2 3d fb 74 b2 3d 06 94 04 bd
       0.017936861 0.0948298 0.087137185 -0.03236773
0002a0 f0 2d cc 3d e6 c4 15 3c 27 0d c8 3d 51 5c 6e 3c
       0.099696994 0.0091411825 0.097681336 0.014548377
0002b0 e2 4c 22 bc c2 01 08 3e 13 44 3b 3d b5 96 f0 3d
       -0.009906026 0.1328192 0.045719218 0.11747495
0002c0 dc 8b 68 bd 3e 3b 65 bd d8 5f 4d 3e 6d f4 f7 bd
       -0.056774005 -0.0559647 0.20056093 -0.121071674
0002d0 cd 15 af 3b 3f fc 13 be 3c 94 5e 3d bb 55 b2 3d
       0.005343175 -0.14451693 0.054340586 0.08707758
0002e0 dc 8e cf 3d 69 4b a3 3d de 8f 22 be 8a a6 f5 bb
       0.1013467 0.07973368 -0.15875193 -0.0074966596
0002f0 1e 08 e8 3d a8 8c 20 ba fd 85 d1 3d 21 9d c1 3d
       0.11329673 -0.0006124475 0.10230634 0.09453798
000300 96 cb 13 3e 49 a6 f6 bc 50 39 6d 3e d5 0d f6 3c
       0.1443313 -0.030108588 0.23166394 0.030035893
000310 84 fb 7c bd 68 2e 5b 3d db 37 9f 3c 8b d2 e5 3d
       -0.0617633 0.053511053 0.019435814 0.112217985
000320 c8 01 0f bd 56 b2 1b bd 5c 7a 56 bc b9 b6 b4 bc
       -0.034913808 -0.03801187 -0.013090696 -0.022059785
000330 1e bb b9 3d cd 9e ee bb eb a3 b9 3d e6 e1 9a 3d
       0.09068893 -0.007282114 0.09064468 0.07562618
000340 26 63 00 3d 53 23 56 3d 9b eb d0 3d 22 ed ed bd
       0.031344555 0.05227978 0.10201188 -0.11617495
000350 ef 8c a7 bc 3b fb e1 3c 34 8d fb 3d 54 cc 8a 3d
       -0.020452945 0.027585616 0.12282792 0.06777254
000360 60 34 1c bd ce 10 13 be 11 06 ad bd 1e 0c b4 3c
       -0.038135886 -0.14361879 -0.08448423 0.021978434
000370 2d 43 1e 3d 71 67 a9 3d cc c8 a4 3c 41 53 8a bd
       0.038638283 0.08271683 0.020115279 -0.06754161
000380 3b 8f 82 bd 2a 6a 68 bd 17 99 a3 bc 5b 0c 2c bd
       -0.06374975 -0.05674187 -0.01997046 -0.04200397
000390 79 35 e8 3d 60 71 94 3d 91 7f 1f bb 29 1d 18 3e
       0.11338324 0.07248187 -0.002433751 0.14854874
0003a0 ce 2e b5 3d 09 86 0d bd a8 a1 85 3b 7b 80 ab 3d
       0.08846818 -0.034551654 0.004078109 0.08374115
0003b0 3b 8e 9f bd 65 2e f0 3d 0a d4 9f bd 65 78 04 bd
       -0.077908 0.11727599 -0.07804115 -0.03234138
0003c0 38 c7 ef bd 84 05 f4 3d 8b a0 a2 3c e4 94 d1 b9
       -0.1170792 0.119151145 0.019851943 -0.0003997452
0003d0 77 e2 26 3b 0b d4 4e 3d c4 56 e9 bd 21 c9 f8 3b
       0.0025464573 0.05049519 -0.11393502 0.007592336
0003e0 dd 4e 80 3d 12 e5 c9 bd 42 35 5d bd 23 a8 06 be
       0.06265042 -0.09858145 -0.05400587 -0.13150077
0003f0 ea 20 ee 3d e9 5b 64 3d 1d 35 17 bd 3e d5 27 3e
       0.116273716 0.055751715 -0.036915887 0.16389939

model.time_mlp.1.bias f4 [256]
000000 1c 83 95 b9 5b fe 90 3c 29 9a fe 3c 9d d0 5d 3c
       -0.0002851718 0.017699411 0.031079369 0.013538507
000010 77 58 2d 3c ba d3 46 3d bf 78 28 3c ad b1 a2 bb
       0.010580174 0.048541762 0.010282694 -0.0049650283
000020 60 fe 51 bc a9 45 2b 3c 96 48 58 3b 1f ce 53 3c
       -0.012816995 0.01045362 0.003300225 0.012927561
000030 1e ce 41 3c 11 11 43 3d e5 93 53 bc 51 11 4b bb
       0.011828927 0.047623698 -0.012913679 -0.0030985663
000040 55 60 f5 bc 50 45 99 bb a4 3a 00 3d e6 0b ed 3b
       -0.029953161 -0.004677452 0.031305924 0.0072340844
000050 e3 6e f4 bb be 28 db 3c 36 1e 86 bb d3 65 b1 3b
       -0.007459508 0.026752826 -0.004092957 0.0054137497
000060 1a 32 df 3b bd 8f bb 3b 1a e9 85 3a d5 73 8f 3c
       0.0068113925 0.005723922 0.0010216564 0.017511288
000070 f4 86 6c 3b a3 41 fe b9 48 04 10 bc d5 84 03 bb
       0.003609118 -0.00048495558 -0.008790083 -0.0020068188
000080 ae bc 5b 3b c7 d8 68 bb b5 b9 b0 ba d9 3a e9 3b
       0.003352921 -0.00355296 -0.0013483079 0.007117611
000090 15 dc 72 3c d4 67 5a 3c 8c 4b d4 bb b1 fe 89 3c
       0.014822979 0.013330419 -0.0064787325 0.01684508
0000a0 0a 95 51 3c 97 50 28 3c 8a db 6c 3b e8 4e 15 ba
       0.012791881 0.01027312 0.0036141598 -0.0005695657
0000b0 3f 9c 88 bc 11 f4 52 3d 11 9a ad 3c 3d 7d 9b 3b
       -0.016676066 0.05150229 0.021191629 0.004745154
0000c0 d2 aa 25 3d bf c3 01 3c 47 cd 73 3c 29 e4 a4 3c
       0.04044611 0.007920205 0.014880485 0.020128326
0000d0 d2 41 9b 3c 1b b3 d9 bc 68 80 42 3d c3 35 3a b9
       0.018952284 -0.026574662 0.04748574 -0.0001775837
0000e0 51 65 0d 3c b9 1b fc 38 21 8e 44 3c e2 7d 26 3d
       0.008630113 0.0001202146 0.011996777 0.040647395
0000f0 ac 27 d3 3b 9c ff e1 3c 93 c8 c5 3c 98 76 1d bc
       0.0064439382 0.027587704 0.024143493 -0.0096107945
000100 d3 cf 69 3c 52 ec f1 3c 59 1d 21 3c a2 f1 9f 3c
       0.014270741 0.029531632 0.009833657 0.0195244
000110 55 c4 24 3c 8f c9 e5 3c f7 0c f6 b8 20 f9 43 3b
       0.010056575 0.028050212 -0.00011732609 0.0029903129
000120 51 aa 11 bb 37 7e ad bb 2d f2 30 ba 75 b9 21 bc
       -0.002222676 -0.005294587 -0.0006749954 -0.009870877
000130 82 1f 18 3c fb 8f 00 3b 2a 0d 4d 3b 4e 25 05 bc
       0.009284856 0.001961707 0.0031288364 -0.00812657
000140 af 4b 23 3d 2f 5a 1b 3d b3 5b 95 3b ff fe 68 3c
       0.0398671 0.037927803 0.0045580505 0.014220952
000150 88 87 06 3b ba c8 28 3d 71 8e 30 3a 8f 23 f8 3a
       0.002052756 0.041207053 0.00067350926 0.0018931496
000160 c5 18 ff 3b 85 81 8c 3c 24 93 47 3c f2 db 8a 3a
       0.007784935 0.017151603 0.012181077 0.0010594113
000170 55 45 0a 3b 09 36 7a 3b af 90 fa ba 13 d4 0c bc
       0.0021098454 0.003817918 -0.0019116605 -0.008595484
000180 02 38 bb 3c 10 0e 66 3b 15 cf 26 bc 47 e2 9c 3c
       0.022853855 0.0035103597 -0.010181208 0.019150866
000190 6c 9a 0c 3c 13 a4 c0 3c 30 81 40 3d ac 4a c4 3c
       0.008581739 0.023515737 0.046998203 0.023961388
0001a0 6b 45 39 3d a0 f0 a8 3b 31 11 12 bc fe 05 3a 39
       0.045232218 0.005155638 -0.008915232 0.00017740575
0001b0 af 1a d2 3b b6 f5 0e 3c 2f ed 2d 3d 8d 38 48 bc
       0.0064118723 0.008725574 0.042462524 -0.012220514
0001c0 18 3d 0f 3d 4f b2 9c bc 9c 8e 63 bc 3d 45 4b 3d
       0.034970373 -0.019127993 -0.013888981 0.049626578
0001d0 0f b8 0d bb 68 21 fa 3c e7 e0 ef bb c8 55 dd bb
       -0.00216246 0.030533507 -0.0073205116 -0.0067546107
0001e0 3a e8 33 3c 9c 14 1d 3d aa b2 25 3d 3e c3 a9 3b
       0.01098066 0.038349733 0.04045359 0.0051807454
0001f0 f4 9f b1 3c f7 f5 e0 ba 1f 4e 25 3c 83 d8 a5 3c
       0.021682717 -0.0017163147 0.010089426 0.020244842
000200 07 bd 14 ba 19 e7 14 3c d4 46 f9 3c 68 1e 35 3c
       -0.0005673919 0.009088301 0.030429281 0.011054613
000210 e4 60 3d 3b fe f5 f4 bb 04 a9 b6 3b b9 c0 52 3c
       0.0028896863 -0.0074756136 0.0055743475 0.0128633315
000220 07 f6 2b bb b8 a0 f6 3b 45 db b6 3b d1 a9 f1 bb
       -0.0026239173 0.0075264834 0.005580338 -0.00737498
000230 0a 7f 58 3d 31 7f b5 39 08 d5 f0 3b 6c 8d fa 3b
       0.05285553 0.00034617775 0.007349614 0.0076462533
000240 34 ce 85 3c 72 fd ca bb 7f 29 4a bc 67 4e 95 bc
       0.016333677 -0.006194764 -0.012338995 -0.018225862
000250 42 76 4a bb a7 04 52 3b 96 91 71 3c 29 3b 51 bb
       -0.003089324 0.003204623 0.014744183 -0.0031926131
000260 64 ad e0 39 ed 0c 47 3b c8 ed 8d 3c 36 09 fb bc
       0.00042853795 0.0030372695 0.017325297 -0.03064404
000270 fa 4a 42 3b 00 90 ae 3c de 22 0e bc 5e 40 5b 3c
       0.002964674 0.021308899 -0.008675305 0.013382046
000280 4b 87 ae bb 06 c0 df bb df 3a 96 bc 11 d7 ad ba
       -0.005326187 -0.006828311 -0.018338619 -0.0013262947
000290 9a b3 30 bc 61 28 93 3b 5d e9 dd 3b 19 1b af 3c
       -0.010785008 0.0044908975 0.006772204 0.021375226
0002a0 5d d0 89 b8 c6 b9 c2 3c 7a 92 a5 3b 83 82 80 3b
       -6.57148e-05 0.023770224 0.0050528618 0.003921808
0002b0 35 43 a5 3b 49 ae 86 3a ae e8 b3 ba e1 d6 23 3d
       0.005043412 0.001027533 -0.001372596 0.039999846
0002c0 de 49 38 3c f3 e4 6d 3c 24 0f 0b 3c f2 ed c1 3c
       0.01124808 0.014519918 0.0084874965 0.023673031
0002d0 80 a8 9f ba 6f 97 b3 3a d8 9b 48 3c b6 c1 18 3c
       -0.0012180954 0.0013701747 0.012244187 0.009323528
0002e0 c6 3d 3f bc 46 b3 f5 3c 7f 25 5b 3b f2 ad 0f 3c
       -0.011672443 0.02999271 0.0033439097 0.008769499
0002f0 0a 04 d6 3c 10 64 08 3d a2 0f 49 bb 04 01 b1 3c
       0.026124973 0.033298552 -0.0030679484 0.02160693
000300 5e c4 50 3b 45 ab e0 3c 99 82 68 bb 11 08 29 3d
       0.0031855325 0.027425418 -0.0035478233 0.04126746
000310 73 73 9f ba 95 9c b2 3a 0f f3 04 3d 65 f9 8c 3b
       -0.0012165144 0.0013626987 0.03245836 0.004302191
000320 9f a5 14 3c 50 53 4e 3c f5 6c f3 3c 7d 6e 27 bc
       0.00907269 0.012593105 0.02971504 -0.010219214
000330 e4 6c 04 3c 84 88 12 3c 49 be 4c bc 12 58 22 3b
       0.008082602 0.008943681 -0.012496539 0.0024771732
000340 42 e4 01 3d ae e5 ef 3c 89 2d ae bb 4c 6e c5 3c
       0.031711824 0.029284324 -0.005315487 0.024100445
000350 e3 a0 be b9 7c 2a d5 3b 4a 44 35 3d 39 71 7d 3c
       -0.00036359494 0.0065053087 0.04425458 0.015468889
000360 cb 8f 15 3d 82 9d 42 3c 1e 9a 28 bc 22 34 36 3d
       0.036514085 0.011878373 -0.010290651 0.04448331
000370 14 f9 8a 3c 70 b1 b4 bb 1a 3d bc 3b cd bf 18 3c
       0.016964473 -0.0055143163 0.0057445886 0.009323073
000380 d9 05 b6 3a dd 56 92 bc 03 bb b8 3c 78 bf 9e ba
       0.0013887241 -0.017863685 0.022550112 -0.0012111505
000390 30 a1 f3 ba 71 6f 23 bc 02 6f 9e 3c 3e e3 4f bc
       -0.0018587466 -0.0099753 0.019340042 -0.012688456
0003a0 eb d4 11 3c 6a 06 0b 3c 8b 11 64 bc ef 2a ee bb
       0.008900861 0.008485416 -0.013920198 -0.0072683017
0003b0 4f 0f 77 3b c7 bd 77 3d 77 c3 58 3d 3f 61 2f 3c
       0.0037698334 0.06048372 0.052920785 0.010704338
0003c0 8a 00 97 ba c9 8b 01 bc d2 82 98 3b 6a dd 30 3d
       -0.0011520546 -0.007906863 0.004654267 0.043179907
0003d0 8d ad 43 3c ce b5 13 bb e5 07 49 3c 79 7f bb 3c
       0.011943233 -0.0022538784 0.012269949 0.022887932
0003e0 b4 bc b7 3b 34 76 d9 3b a3 bb f0 3c 63 a1 85 3c
       0.005607212 0.0066364054 0.029386347 0.016312307
0003f0 60 04 57 3b bf 6b 13 3c 4f 4a ea 3c 67 92 89 3c
       0.0032809004 0.008997857 0.028599886 0.016793443

model.time_mlp.3.weight f4 [32, 256]
000000 8e 63 2f 3d 93 ee 2f 3c 60 e1 14 bc a1 15 41 bd
       0.042819552 0.010738033 -0.009086937 -0.047139768
000010 fa 53 a5 ba 0b 2a 95 3d 56 a6 7e bc 10 0b af bc
       -0.0012613528 0.0728341 -0.015542587 -0.02136758
000020 a2 f5 47 3c 83 52 41 3d 5b a7 af bc d8 65 66 bc
       0.0122045595 0.04719783 -0.021442106 -0.014062367
000030 1f 4d b4 ba fc 93 5c 3d 11 f8 77 bd ac f9 84 3c
       -0.0013755894 0.053852066 -0.06053931 0.016232334
000040 24 cc 62 bc 61 b4 e8 bd 24 80 78 3d 73 a5 32 bb
       -0.013842616 -0.113625295 0.06066908 -0.002725926
000050 18 e1 1e bd 13 a6 67 3c f6 00 7c bd 73 05 e3 3d
       -0.038788885 0.014138716 -0.061524354 0.11085024
000060 60 5b 14 3c 35 6d 38 bd 15 83 da bb 68 8c 49 bd
       0.009054989 -0.045026023 -0.006668458 -0.049206167
000070 42 e4 26 3d 30 b0 8a bb 3b 75 b4 3c e0 d4 07 bd
       0.040745027 -0.004232429 0.022028556 -0.033161998
000080 f6 4e c4 3c 8e 19 16 be de a0 37 bd 94 b1 4b 3d
       0.023963433 -0.14658186 -0.04483115 0.0497299
000090 5f 7d 03 3d 9c a7 0b bc 00 08 44 bd 48 53 d5 bc
       0.032101985 -0.008523848 -0.047859192 -0.026040688
0000a0 67 01 43 bd a8 bc 37 3d c9 6a 2f 3c 2a 8b 89 3c
       -0.04760876 0.04485765 0.010706612 0.016789991
0000b0 8c 78 e8 bc f1 a1 95 3d 05 90 15 bd 1b de 4b bd
       -0.028377794 0.073062785 -0.0365143 -0.049772363
0000c0 a5 dd 14 3d f3 61 eb bc 27 0a 5e 3c 17 ac aa bc
       0.03634419 -0.02873323 0.013552225 -0.020834012
0000d0 ca 0e a5 3d 92 b6 22 bd 60 05 f9 3c 08 6d 8f bd
       0.080594614 -0.039724894 0.03039807 -0.07003218
0000e0 b3 c9 df 3c 3d b8 2d bd 1b 57 b7 bc ee 6c 80 3d
       0.027317857 -0.04241203 -0.022380402 0.06270777
0000f0 ae 68 24 3d 76 da cd bc d5 d6 6f 3d d6 10 9b 3c
       0.040138893 -0.025128584 0.05855449 0.018928926
000100 1c 41 8d bc 05 b0 67 3d 41 a0 92 bc 61 9e 9b 3d
       -0.01724296 0.05656435 -0.01789868 0.07598568
000110 36 2e 9d bd d4 fc 89 3c 79 14 a4 3b 8c a3 8a 3d
       -0.0767483 0.01684419 0.0050073233 0.06769475
000120 41 17 3a bd 77 7f cd 3a 8c ba ee bd e6 0d 8c ba
       -0.045432333 0.0015678246 -0.11656675 -0.0010685294
000130 99 97 73 3b c1 63 8b bc fe dc f7 bc 8e e9 4f bd
       0.0037169217 -0.01701534 -0.030256744 -0.050759844
000140 9e c8 76 3d fe ff 58 bd a9 dc 3c bd 2f c5 95 bc
       0.060249917 -0.05297851 -0.046108875 -0.018282501
000150 15 66 58 bc 49 54 5c 3d ed cc 76 bc ab 06 f8 bc
       -0.013207932 0.053791318 -0.015063507 -0.030276617
000160 51 40 6e bd 7c e1 81 bd a5 79 54 3d db 2d 96 bc
       -0.058166806 -0.06341836 0.05187382 -0.018332412
000170 fb dc c9 bb 36 b8 5b 3b 5c 46 12 bc e6 b1 01 bc
       -0.006160376 0.0033526546 -0.008927908 -0.007915949
000180 4e e9 39 3c 3e 0c ba bc 19 b4 2b bd 73 e5 2a 3d
       0.011347128 -0.022710916 -0.0419198 0.041722726
000190 94 9b 77 bd 61 77 d9 3c 39 18 44 3d bb 2e db bc
       -0.060451105 0.026546182 0.047874663 -0.026755681
0001a0 f6 47 06 3d 72 97 e9 bc 77 4f 48 3c d6 1d ed 3c
       0.03278347 -0.028514598 0.012225977 0.028944891
0001b0 fa 1e 84 3d 49 93 93 3d 70 7a 1a 3d e5 7d 5f 3c
       0.06451221 0.07205827 0.03771442 0.013640855
0001c0 5e a5 02 3d df e8 57 3d a9 84 d7 bc f4 69 b8 3d
       0.031895988 0.052712318 -0.026308374 0.09004584
0001d0 95 06 25 bd bb 3d bd bd 36 ad 6a bc 2c ea d4 bb
       -0.04028948 -0.0924029 -0.014323523 -0.006497642
0001e0 7b 2b b8 3c a3 4d 3d 3d 8c c7 8d 3d db 55 e0 3c
       0.02248167 0.04621662 0.06922826 0.02738469
0001f0 5a f7 2f 3c 05 8f 7b bd de 34 4f bd 38 72 63 3d
       0.010740126 -0.06141569 -0.050587527 0.05552885
000200 7c f3 5b 3a 5d 16 1c 3d 14 ff 99 3c a6 60 92 3b
       0.0008390469 0.038107265 0.018798389 0.004467088
000210 10 2a 3b bd 7e 5b 9d bc 77 e9 7c bd 91 6a 30 3d
       -0.04569441 -0.019208666 -0.061746087 0.04307038
000220 54 a3 51 bc 02 49 dd bc 7d a2 9d bd cf a5 3a 3d
       -0.012795288 -0.027012352 -0.07697008 0.045568284
000230 d3 40 ad 3d 52 2b ea bb 47 67 f5 3c 16 20 32 bc
       0.0845963 -0.0071462775 0.029956473 -0.010871908
000240 c7 99 d1 bc b7 db 9c 3c 74 5d ea 3b 35 7f 27 3d
       -0.025586022 0.019147737 0.0071522538 0.0408928
000250 9f 23 33 bd 74 ae b2 bd ed 8f 6a 3d a1 6f 57 bd
       -0.043735143 -0.087246805 0.057266165 -0.052596692
000260 a4 3a de 3c dd ed ec bc 80 df 54 3d 53 33 24 3b
       0.027127571 -0.028922016 0.05197096 0.0025055006
000270 f4 3d 84 3d 3b 0e 04 bb 58 b9 02 3d c5 d4 c9 bc
       0.06457129 -0.0020150084 0.03191504 -0.02463759
000280 78 5a 9e 3c 87 de 0f 3d a1 a1 8a bc 4b dc 86 3d
       0.019330248 0.035124328 -0.016922774 0.06584986
000290 7b 44 bf bb 1d 73 8d 3b e7 83 88 bc b3 2a 9d 3d
       -0.005837021 0.004316701 -0.016664458 0.0767416
0002a0 ae ec 1c bb d2 ca aa bd 56 22 82 bd 1e d8 4a 3c
       -0.0023944783 -0.08339466 -0.06354205 0.012380628
0002b0 98 11 f9 bc a3 bc 11 3d 5f a3 87 3b 14 c4 a4 3c
       -0.030403897 0.03558029 0.0041393484 0.020113029
0002c0 e0 e6 bd 3c 4e bd 95 3c cd 48 b2 3d ba d9 7b 3c
       0.023181379 0.018278744 0.08705292 0.015371734
0002d0 16 5d 67 3d 41 44 73 3b 00 12 dd 3c 98 19 b6 bb
       0.056485258 0.003711954 0.026986122 -0.00555725
0002e0 bd 4d 25 bd db 55 80 3d 19 13 fe 3c 91 14 9e bc
       -0.04035734 0.06266376 0.031014966 -0.019296916
0002f0 31 61 83 3d ff 18 3b 3e 2d 20 37 bc 71 4e 09 bd
       0.06415022 0.18271254 -0.011177105 -0.033522073
000300 da 62 14 3d 02 01 80 3c 31 6b e4 bc bd d9 8a 3d
       0.036227085 0.01562548 -0.027883144 0.067798115
000310 f0 43 f4 bc e8 86 d0 bc 29 ee 6a 3d e1 7a 8b bc
       -0.029817551 -0.025454953 0.057356033 -0.017026367
000320 61 e4 03 bd a9 e1 c3 bc a2 c1 a6 3d c8 54 6e bb
       -0.03220022 -0.023911314 0.08142401 -0.0036366452
000330 0e 5f 92 bc a2 0f 97 3d 60 0d b0 3b 4c cc 7a bc
       -0.017867591 0.073760286 0.005372688 -0.015307497
000340 63 ab 0e 3d c9 01 48 3d c4 8b 26 bd 04 82 e1 3c
       0.034831416 0.048829827 -0.040660635 0.027527817
000350 6d 27 45 bd c8 8f c9 bc 68 a0 d2 3d 37 4d 08 3d
       -0.048133302 -0.024604693 0.10284501 0.033276763
000360 50 0a b3 3d 90 37 78 3d a2 4d 72 3d 64 b5 00 3c
       0.08742201 0.060599864 0.059156068 0.007855747
000370 dc 32 b4 3c 0f 88 e7 3c 0e 69 23 bc 20 6a 5e bd
       0.021996908 0.02826312 -0.009973777 -0.054300427
000380 71 c4 49 3d 7c 0f 21 bd a2 28 c9 3d 3e ed 71 bc
       0.049259607 -0.039321408 0.09822203 -0.014766036
000390 67 59 f3 bc 6c da 09 bd c6 3e b8 bb 82 52 b0 bd
       -0.029705716 -0.03365557 -0.0056227176 -0.08609487
0003a0 c3 3d 26 bd 5f 17 1c 3d 0b ca e5 3c 2a 0b 09 3c
       -0.040586244 0.038108226 0.028050443 0.008364478
0003b0 8e 00 ea bc 8d aa 2e 3d 35 75 8b 3d 32 09 48 3c
       -0.028564718 0.04264312 0.06809465 0.012209224
0003c0 13 da 40 3c d9 9c 25 3d 4b d8 d3 bc e9 d3 71 3d
       0.011770743 0.040432785 -0.025859972 0.059039984
0003d0 a5 31 31 3d 55 1d a4 3c 93 df 25 bd bb 10 1e 3d
       0.043260235 0.020033518 -0.04049642 0.038590174
0003e0 62 fc 39 bd c2 d1 31 3d 08 bc 5b bc be e9 0e 3c
       -0.045406707 0.04341293 -0.013411529 0.008722721
0003f0 be a3 0d bc 0f c4 0a bb 45 22 d9 bc ec c9 99 bc
       -0.008644996 -0.002117399 -0.026505599 -0.018773042

model.time_mlp.3.bias f4 [32]
000000 35 7a 4c bc 6d d7 14 bc df 4f 36 bc 33 bf 86 3c
       -0.012480308 -0.009084565 -0.011127441 0.016448593
000010 43 86 3c bc 88 1e 3b bc cc 77 14 3c 35 c3 ba ba
       -0.01150662 -0.011420853 0.009061765 -0.001424885
000020 e0 c8 58 3c a2 a9 5a 3c 37 06 8b 3b a6 07 cf bc
       0.013231486 0.013346108 0.004242684 -0.025272202
000030 64 a6 39 3b e9 ac 31 bc a1 8e 2a bc 4e b9 c7 3b
       0.0028327936 -0.010844448 -0.010409982 0.006095088
000040 b3 5e 36 3c 8b 6c 0e bc be b3 2b 3c 3f 5f 36 3b
       0.0111309765 -0.008692871 0.010479866 0.0027827767
000050 69 b3 c5 3c fb 15 0c bc a3 0c 8b bc 54 37 9f bc
       0.024133401 -0.008550162 -0.0169738 -0.019435562
000060 4e d8 a0 3c 75 f4 95 3c 1a 23 8f bc 5a 70 c5 bb
       0.019634392 0.018305043 -0.017472792 -0.0060253562
000070 f6 3e a4 3c ae f4 0a bc 4a f4 38 3c 94 fd 95 bc
       0.020049553 -0.008481188 0.011288712 -0.018309392

model.layer.0.weight f4 [256, 55]
000000 e1 0d f3 3b 39 0e 1b be 3f a7 3a be 95 0a 31 3e
       0.007417426 -0.15142144 -0.18227862 0.17289193
000010 de ee 3b be 8f ba 8b 3d 72 05 6d 3c 86 a9 d3 bc
       -0.1835284 0.068226926 0.01446663 -0.025837671
000020 70 38 8e bc 8b 50 d2 bd 1c 3a d9 3d c9 12 95 bd
       -0.017360896 -0.102692686 0.106067866 -0.072789736
000030 41 e5 b2 bd 8b 56 c7 3c 02 7f d4 3b 4b 58 1e 3e
       -0.08735133 0.02433326 0.006484867 0.15463369
000040 47 ab dc 3c f6 df 10 be cd fa 92 3d ff 0c bf bd
       0.02693714 -0.14147934 0.07176743 -0.09328651
000050 96 6b 45 3d e9 6d d2 3d 0f bc e5 3b 5a 6e 04 bc
       0.048198305 0.1027487 0.0070109437 -0.0080829505
000060 dd ed f3 3c 42 24 87 bb 12 d9 39 bd 90 ea a9 3d
       0.029776508 -0.0041241953 -0.04537303 0.08296692
000070 b5 56 ed 3c ad 9a c8 bc 34 65 4c 3b 33 19 a8 3d
       0.02897201 -0.024487818 0.0031188251 0.08207931
000080 4e 9a 56 bd a7 c7 d6 3b 0d 07 50 3d 27 8a 3e 3d
       -0.05239325 0.006554562 0.050787974 0.04651847
000090 db 6c dd 3d 1a 84 b3 3d 4c 99 58 bd c1 3d 23 ba
       0.10811778 0.08765431 -0.05288057 -0.00062271586
0000a0 cb e3 25 bd d9 4b 33 3d 9a 1c c4 3d ed bc b7 3c
       -0.040500443 0.043773506 0.09575768 0.022428954
0000b0 cf 76 ca 3d ff e2 5c bd 63 1f 03 bd 8b 34 33 bd
       0.09885942 -0.053927418 -0.032012355 -0.04375128
0000c0 15 4c 92 bd f0 70 78 bd 10 97 07 3d ba 41 e8 3d
       -0.07143418 -0.06065458 0.03310305 0.11340661
0000d0 50 89 96 3d 4f ce 54 3c 87 76 5b bd 3f 00 98 3d
       0.07350409 0.012988641 -0.053579833 0.07421922
0000e0 da ff 2c 3e a4 3b fb 3b 4a bc a0 bb 28 5b e8 3d
       0.16894475 0.007667022 -0.0049052583 0.11345512
0000f0 ab 67 80 bc dd 67 85 bc d7 9b e9 bd 13 93 bc bd
       -0.015674433 -0.016284877 -0.11406677 -0.0920774
000100 fa 31 c5 3c 6d fd df bc 3f 73 8a bd 0f 60 d2 3c
       0.024071682 -0.027342523 -0.06760263 0.02568057
000110 88 93 c0 bb 67 e3 e8 bd db eb c7 bc ef 45 35 3c
       -0.005876962 -0.113714986 -0.024404457 0.011064037
000120 b2 dd ca 3c e4 cd 95 3c 95 c5 bf 3d 21 73 ce 3d
       0.024763916 0.018286653 0.09363858 0.10080553
000130 46 87 14 bc e7 55 04 3d f9 6c dd 3c 71 07 14 be
       -0.009065455 0.032308485 0.027029501 -0.14455964
000140 99 87 05 bd d2 ec f0 bc f3 72 5d 3d b0 9b 32 bd
       -0.03260002 -0.0294098 0.054064702 -0.043605506
000150 e7 b0 32 3d 5e 5c 60 3d 8b 40 68 bd e9 f3 16 3b
       0.04362574 0.05477559 -0.056702178 0.0023033565
000160 56 8c 0b bd fc c5 fa 3c 16 6e 66 bb 19 83 41 bc
       -0.03406938 0.030611984 -0.0035160831 -0.011811041
000170 a1 e8 71 b8 73 cd 1f be 22 f2 1f 3e b7 97 83 3e
       -5.767553e-05 -0.15605716 0.1561971 0.25701687
000180 ef 79 15 3e 06 f4 ce 3d 0b 88 aa 3d 5f 2f de bd
       0.14597295 0.101051375 0.083267294 -0.10848879
000190 e7 37 34 be 93 5e 3d bc 98 f8 88 3d 37 1e cf bd
       -0.1759945 -0.011558193 0.066880405 -0.10113185
0001a0 64 52 a9 ba 93 20 5f bd c3 bb 2a 3d 8f 1f c3 bc
       -0.0012918231 -0.054474425 0.04168297 -0.02381876
0001b0 1a 39 9e bc 72 87 6d bd 29 5a 81 bb 85 21 2f 3e
       -0.019314338 -0.0579905 -0.0039475155 0.1710263
0001c0 ba 44 f5 3d 16 f4 db 3c 5a a5 ce bd 9e 5d de 3d
       0.11975999 0.026849788 -0.10090132 0.108577
0001d0 ff 35 0b bd 56 72 83 bd 0f b5 fb bc e3 d1 ae bd
       -0.03398704 -0.06418292 -0.030725984 -0.085361265
0001e0 a7 88 86 bc 42 ea 77 bd 4f dd 47 bc dc 46 35 bd
       -0.016422583 -0.06052614 -0.01219876 -0.04425703
0001f0 f3 4c 9b 3c de 5f a3 bd 8f cd eb bd ce 05 72 bc
       0.01895759 -0.079772696 -0.115138166 -0.014771892
000200 57 3e d0 3c 9c 8f 11 be 7a 5c c0 3d 37 3e 48 bd
       0.025420351 -0.14214939 0.093926385 -0.048887458
000210 36 c6 b1 bd 6e 0d 8e bd 5f 5f f9 bd f0 35 1b 3e
       -0.08680384 -0.06936155 -0.12176394 0.15157294
000220 6f 9b b9 bd 4b c8 9b bd 8d 66 1c bc f9 5c 6c bd
       -0.0906285 -0.07606562 -0.009545934 -0.057705853
000230 8a 15 11 3e cd ee 00 bd 8b 0f 24 bd 23 d4 a2 3d
       0.14168373 -0.03147774 -0.040053885 0.07950618
000240 00 48 62 3d 87 4a d3 bd 0a 56 90 ba 1c 9a 6d bd
       0.055244446 -0.10316949 -0.001101197 -0.0580083
000250 a3 d3 0e 3d 59 54 04 be d5 82 a1 3d 87 3f 3a bd
       0.0348698 -0.12922801 0.07886282 -0.04547074
000260 ae 92 5c 3d 36 e5 15 be 71 a3 0c be ae 50 33 be
       0.053850822 -0.14638218 -0.13734223 -0.17511246
000270 65 2e 7d 3e d3 e7 ad bd 70 dc 5e bd 3b 24 4e bc
       0.2472473 -0.084914826 -0.054409444 -0.01258188
000280 fa 62 d7 3c 4b 11 ab bc bb 11 02 be 97 b5 71 bd
       0.026292313 -0.02088227 -0.12702076 -0.05901107
000290 d9 13 aa 3c bc 58 c4 3d 31 83 0b be 6a 12 59 bd
       0.020761417 0.09587237 -0.13624264 -0.052996077
0002a0 79 42 56 be c9 77 27 3e e2 92 5f bd 3f 91 b9 bc
       -0.20923795 0.16354288 -0.054583438 -0.022652267
0002b0 e5 72 d4 bd be 80 94 bc c1 d0 e4 3d e4 a8 73 bd
       -0.10373477 -0.018127795 0.11172629 -0.05948724
0002c0 f6 3a 61 3d 6d fc da 3c a5 c8 d7 3d e2 91 b4 bd
       0.05498787 0.026731694 0.10536317 -0.088168874
0002d0 2c d1 67 3d 06 1b d6 3d 16 9a 26 bc 2e c9 2d bd
       0.056595966 0.10454373 -0.010168573 -0.042428188
0002e0 3c 92 e5 3d 70 04 d5 3c c3 3a 97 bc 3c ca 96 bc
       0.112095326 0.026003093 -0.018460637 -0.01840698
0002f0 33 60 2c bc 22 c2 52 3b e1 71 12 bd 11 c2 d7 bc
       -0.010520983 0.003215917 -0.035753135 -0.026337655
000300 af 9a c3 3c c4 8c 66 3d 93 5f d2 3b 9f d5 fc 3c
       0.02387747 0.05628659 0.0064200847 0.030863581
000310 f2 06 1a 3c d3 0f ab bd f7 2a 2c bd 65 32 e7 3c
       0.00940107 -0.083526276 -0.042033162 0.028222272
000320 b1 bf d4 bd 71 64 ac bc 2b 63 18 bd 00 10 4d bd
       -0.10388125 -0.021043988 -0.03720395 -0.050064087
000330 9f 69 7c 3d 49 79 3a bd b2 63 79 bd 8b 37 11 3b
       0.061624166 -0.045525823 -0.060886092 0.002215835
000340 51 dc 36 3e d4 d0 fa bd bc 6e 1f 3d 2a 3b 92 3d
       0.17857482 -0.12246862 0.038923964 0.07140191
000350 26 63 f9 3d 4d b0 39 bd 01 a1 24 3d 1b 0f be 3d
       0.12177114 -0.04533415 0.040192608 0.09280225
000360 e3 21 73 3b 18 69 2b bd 43 4b a9 bb a3 d6 e8 bc
       0.0037099055 -0.041848272 -0.0051664426 -0.02842266
000370 9a c8 82 bd 87 0d 86 bc 8c 11 16 be 78 26 99 bd
       -0.06385918 -0.016363872 -0.14655131 -0.074780405
000380 4c 55 c3 bb e1 67 25 3e 10 9b f6 bd 10 fa 29 3d
       -0.005961096 0.16152908 -0.120412946 0.041498244
000390 3e 26 fd 3c 51 32 05 3e 1c 65 b9 bc 16 43 07 3d
       0.030902024 0.13007475 -0.02263122 0.033022963
0003a0 f6 3c 1c bc 4a 27 d8 bd 4b ff 8a 3d 8c 5b 8a 3c
       -0.009536019 -0.10554369 0.067869745 0.016889356
0003b0 1d 9e b1 bd cc 3c 55 3d 67 96 c5 3d 0c 4f 90 bd
       -0.08672736 0.052059934 0.096478276 -0.07046327
0003c0 2f 81 90 bc c9 38 4b bd e1 ae 51 bd 34 7c 32 3d
       -0.017639725 -0.0496147 -0.05119217 0.04357548
0003d0 1d 0c d7 bd b7 22 0a bd 51 32 b2 bc a6 a5 b6 3d
       -0.10500357 -0.033724513 -0.021752508 0.08918314
0003e0 95 c5 cf bd 0b 27 a6 bd e3 37 a0 3c f9 09 eb bd
       -0.10145108 -0.081129156 0.019557899 -0.114765115
0003f0 49 5b 31 be 70 f0 d3 3d 72 e8 b0 bb 9a bc fa ba
       -0.17319979 0.10348594 -0.0053988034 -0.0019129694

model.layer.0.bias f4 [256]
000000 38 de 71 3c 54 90 dd ba a4 65 8d 3c 33 a8 ca 3a
       0.014762454 -0.0016903975 0.01726038 0.0015461504
000010 b7 14 85 3b 24 d5 88 3a 27 83 a6 bc b9 21 d5 3c
       0.0040613073 0.0010439497 -0.02032621 0.026017057
000020 16 60 62 3c ff 3d c2 3c e3 1a 52 bb 2e b3 f9 3c
       0.013816854 0.023711203 -0.0032059483 0.030480947
000030 0e 16 5c bc fb 39 08 3c 7c c6 eb 3c f3 5b d2 3c
       -0.013432993 0.008314605 0.028781168 0.02567861
000040 43 cd 8a 3c f8 1e d8 bb 00 ee b2 3c c6 bd 16 3c
       0.01694358 -0.0065954886 0.021842003 0.009200519
000050 9a a1 0e 3a ab cf 31 3c 1c 04 d0 3c 10 25 82 3c
       0.00054409506 0.010852735 0.025392585 0.015886813
000060 3b 9b 5c 3c 5b 70 0f bc 7e e1 d7 3c a4 67 93 3c
       0.013464744 -0.008754815 0.02635264 0.017993756
000070 fd e4 e2 ba 9b 8c 4d 3d 31 5b da bb 61 36 0e 3c
       -0.0017310675 0.05018292 -0.006663703 0.008679957
000080 d0 84 be 3c 04 49 99 3c 6b f7 78 3c ea ff 79 3c
       0.02325669 0.018711574 0.015195708 0.015258769
000090 1a fc d8 b8 5d 4a e4 3b 2a 42 c1 3c 87 57 bb ba
       -0.0001034664 0.0069668726 0.02359112 -0.0014293053
0000a0 b5 32 b9 3b 93 d7 c8 3c 6e 13 c1 3c 39 0b 0e 3d
       0.0056517967 0.024516856 0.023568835 0.03467867
0000b0 b7 05 98 3c 6a 0e 8c 3b 73 2d 7c bb 36 f4 33 bc
       0.018557413 0.004274179 -0.0038479238 -0.010983517
0000c0 2c dd 92 3b d0 d4 07 3d 53 a7 ba 3c 67 58 06 3c
       0.004481932 0.03316194 0.022784865 0.008199788
0000d0 aa 47 af 3c d7 14 b7 3b fe 72 7a 3c 30 90 da ba
       0.021396477 0.005587201 0.015286205 -0.0016675051
0000e0 eb f9 9b 3b a7 06 f7 3c 2a de 43 3d b7 fd dd 3b
       0.004760017 0.03015454 0.047819294 0.00677463
0000f0 e0 e2 0e 3b f2 02 72 3c 9f c4 2b 3c 22 9c 9c 3c
       0.0021802709 0.01477121 0.01048389 0.019117419
000100 74 df 28 3c 10 1d 93 3a 77 71 ab 3c e8 d0 63 3c
       0.010307182 0.0011223871 0.020928128 0.013904788
000110 e9 90 83 ba 3b c0 90 3c b5 39 54 ba cf 8e 19 bd
       -0.0010037693 0.017669788 -0.0008095757 -0.03748971
000120 c8 d9 ff 3c 08 d6 cb 3b fe 00 2f bc a8 f5 27 3b
       0.031231776 0.006220583 -0.010681389 0.00256286
000130 b9 5f 92 3b 6d 62 81 3d 88 5d 9d b9 1c f9 2c 3c
       0.0044669774 0.06317601 -0.0003001506 0.010557439
000140 88 24 c2 bb c2 b7 56 3c 0b a9 c0 3c 15 92 20 3c
       -0.005924765 0.013105335 0.023518106 0.009800454
000150 6b c9 18 3c 4e 58 f6 3b d1 22 36 3c 9c dc 29 3d
       0.009325366 0.007517851 0.011116699 0.041470155
000160 9e c2 3c 3c 89 34 54 bb 25 b1 8d bc 3f ba af 3c
       0.01152101 -0.0032379946 -0.017296383 0.021451114
000170 65 73 5f bc 43 94 46 3c 05 1b cb 3b 22 16 3f 3c
       -0.013638352 0.012120309 0.0061982893 0.011662992
000180 eb 02 e0 3c 27 1b 9b 3c 7e 78 f3 3a 5e 85 d8 3c
       0.027345141 0.018933846 0.0018575338 0.026430782
000190 fe b8 78 3c 2f 5f 0c 3c e2 de 2a 3c 69 4f b4 3c
       0.015180824 0.008567615 0.010429116 0.022010522
0001a0 9d c9 55 bc 34 f3 ce 3c f2 d8 e0 3c 21 4a 3e 3c
       -0.013048557 0.025262453 0.027447198 0.011614353
0001b0 da 7c 8e 3b 01 17 20 3c 5d ad 61 3c c2 a5 5d ba
       0.0043483796 0.00977111 0.013774243 -0.0008455181
0001c0 ee a6 8f bc 0d 8b c8 3c 40 a1 8c bb d9 1c 45 ba
       -0.017535653 0.024480367 -0.0042916834 -0.0007519252
0001d0 d2 19 f1 3c 36 67 9a 3c 17 8d 71 3c 58 4c bb 3c
       0.029431257 0.018848043 0.014743111 0.022863552
0001e0 3c ae 6a 3c 65 fc 9f 3c d9 09 a7 3c c1 74 8e 3c
       0.014323767 0.01952953 0.020390438 0.017389657
0001f0 eb 41 79 3c 1e 4c 57 3c 65 c2 e3 3c 4f 77 d2 3b
       0.01521347 0.013140706 0.027802655 0.006422914
000200 1b 04 e7 3c c4 34 ca 3c 66 f8 0c 3c 2c 1f 3e 3c
       0.0282002 0.024683364 0.008604145 0.011604112
000210 72 6a 26 3c f8 87 ac bb be 56 16 3d 23 e7 ce 3c
       0.0101572145 -0.005265232 0.036703818 0.025256699
000220 b5 fd fa ba 47 57 06 3d e2 30 b6 3c 5b 3e e6 3c
       -0.0019149097 0.032798078 0.022240106 0.028105905
000230 5e 83 3a 3c 52 8e 3a 3d 72 92 59 3c 89 ab 1b 3d
       0.011383859 0.045545883 0.013279544 0.038005386
000240 0a 0b eb 3c 57 ba 8a 3c 5d 8e d9 3a 3c 7e bd 3c
       0.028691787 0.016934557 0.0016598214 0.023131482
000250 46 60 86 3c b9 b9 b4 3c 40 cc 2b 3c 5a 71 d2 3c
       0.016403329 0.022061216 0.010485709 0.025688816
000260 5e e4 75 3c ce 1c 2b 3c f1 5e d5 3b e8 cf 81 3c
       0.01500806 0.010443879 0.006511562 0.015846208
000270 f3 58 6c 3c 38 64 c2 bc 7a 21 8f 3d d9 ed 30 3c
       0.014425504 -0.023729429 0.06988807 0.010798895
000280 92 82 95 3c 9e e7 4f 3c eb 70 ff 3c c2 62 fe 3b
       0.018250737 0.012689499 0.031181773 0.0077632377
000290 cd b1 7a 3c 7d cb 3f bc 5c a4 37 3c cc a9 03 3c
       0.01530118 -0.01170623 0.01120862 0.008036088
0002a0 fc cf 02 3c b5 7a 0f 3d 5b fb 28 3b 89 c7 e4 3b
       0.007984158 0.035029132 0.0025784585 0.0069817943
0002b0 16 f7 24 3c c3 f2 16 b9 a3 bf a1 3c 53 1d 3a 3c
       0.0100686755 -0.0001439555 0.0197447 0.0113595305
0002c0 7b 88 54 bc 24 1f 40 3c 30 e3 fd 3b ac d6 62 3c
       -0.012971993 0.0117261745 0.00774803 0.013845127
0002d0 cf 6a 5f 3b 06 3d 78 3c dd 79 2a 3d c6 03 11 3d
       0.0034090762 0.015151268 0.041620124 0.03540399
0002e0 f6 2d d5 3c c3 95 66 3b c2 96 f9 3c 63 de 87 3c
       0.026022892 0.003518448 0.030467395 0.016585534
0002f0 aa 4a e9 bb ad 6f 67 3c 81 68 3c bb 88 82 5f 3b
       -0.0071194964 0.014125747 -0.0028748813 0.0034104902
000300 d9 e8 71 3c f3 3e bb 3c 06 db 30 3b a2 0e ba 3b
       0.014764988 0.022857165 0.0026986017 0.005678014
000310 a4 f0 41 3c 1a ed 1a 3d 23 da 39 3c 0b 7b e0 3c
       0.011837158 0.037823774 0.011343512 0.027402421
000320 23 6c c0 3c 8b a5 dd 3c 49 30 bd bc e4 60 b7 3c
       0.023489064 0.027056476 -0.023094313 0.022385068
000330 98 24 bb 3c b0 7c 9e 3c 99 9b f3 3c 10 51 20 3c
       0.022844598 0.019346565 0.02973728 0.009784952
000340 a0 9e b0 3c 57 c6 28 3c cd 32 51 bb d4 c8 0e 3d
       0.021560013 0.010301194 -0.0031921149 0.034859493
000350 00 73 9d 3c 27 da 81 3b ae 88 89 bb 74 97 fb 3c
       0.019219875 0.0039627734 -0.0041972017 0.030711867
000360 f2 0f 15 3d 8c cb 2e 3c e1 73 ba 3c a5 e9 02 bc
       0.03639216 0.010668647 0.022760333 -0.0079902755
000370 6b d8 7e 3c ae 1d 67 3c 8a 77 e4 3b dc 9b a0 3c
       0.015554528 0.014106197 0.006972258 0.01960557
000380 46 db 2a 3c e5 5e 48 bb f4 c7 ab 3b f1 5f 3a 3d
       0.010428255 -0.003057414 0.005242342 0.045501653
000390 e5 ab bb 3c 69 65 4b 3c 75 a0 e8 39 11 df 81 3c
       0.022909114 0.012414315 0.00044370038 0.015853437
0003a0 77 28 a8 3c cb 0b 03 3c 64 9f cb bc 35 76 6d 3c
       0.020527108 0.007998417 -0.024856277 0.014493515
0003b0 04 5c 95 3b ca e3 ac 3b 9c c3 9c 3b 60 fa 95 3b
       0.0045580883 0.005276178 0.0047840606 0.004576966
0003c0 9d 27 a1 3a d7 6e a1 3c 5d 6a b2 bb 29 b4 81 3a
       0.0012295131 0.019706173 -0.0054448084 0.0009895611
0003d0 89 e8 6f ba 24 84 40 3c 0f a7 06 3c 2f c5 87 3c
       -0.0009151777 0.011750255 0.008218541 0.016573517
0003e0 af 1e 01 39 9a a2 c4 3b d9 d7 64 3c c1 1b b5 3c
       0.00012313829 0.006000829 0.013967478 0.02210796
0003f0 8f 4b bb 3c 3f 0e 02 bc 28 22 13 3c 3a b2 1b 3b
       0.022863178 -0.007937967 0.008980311 0.0023757354

model.layer.2.weight f4 [256, 256]
000000 cc 51 54 3d 61 03 ba 3b c9 c7 47 3d df aa 0a bd
       0.05183582 0.0056766723 0.048774514 -0.03385436
000010 14 05 2b bd 18 af 9d 3b b2 a2 49 3d b0 92 9e 3d
       -0.04175289 0.0048121326 0.049227424 0.07742822
000020 70 a4 89 3c dd 3c f0 bc 3b c7 88 bb f0 ea f6 ba
       0.016802043 -0.029325897 -0.0041741407 -0.0018838327
000030 6b ff 0d bd 47 67 30 bc 2b f6 aa 3c b3 f0 54 3b
       -0.034667414 -0.010766811 0.020869335 0.00324921
000040 a0 ab 44 bc 46 ec 8b bd 18 6a 78 bd 03 2b 31 3c
       -0.012003809 -0.06832175 -0.060648054 0.010813477
000050 e1 14 d9 3c db 9f 2a bd 00 e2 0e 3c 4c 79 95 bc
       0.026499214 -0.041656356 0.008720875 -0.018246315
000060 15 20 28 3b 12 b9 9b bb d4 65 f2 3c cd 36 50 bd
       0.0025653888 -0.0047522867 0.029589571 -0.050833512
000070 c8 93 7a 3d 53 58 66 bd 58 af 85 3c c6 9d ab bc
       0.06117609 -0.056236576 0.016318962 -0.020949256
000080 00 85 c1 3b 3d 8f e2 3c d1 12 19 3d bd 64 fc bb
       0.0059057474 0.027656192 0.03737146 -0.0077024386
000090 d3 85 73 3d 2e 06 9f bc e1 e0 b1 bc 02 32 23 3d
       0.059453797 -0.019412126 -0.021713676 0.039842613
0000a0 39 24 67 bd 03 1a a4 bb 75 a3 d1 3c 22 d1 a0 bc
       -0.05643103 -0.0050079837 0.025590638 -0.019630972
0000b0 b6 0f e2 3c 42 35 bf 3c 61 44 07 bd a6 de fd bb
       0.027595382 0.023340825 -0.033024196 -0.007747489
0000c0 82 18 a9 bc 1d 3f 97 bd e8 7e b5 bd 00 01 c3 3c
       -0.020641569 -0.07385085 -0.08862096 0.023804188
0000d0 a3 70 05 bc 61 b5 fb 3b 6f a9 2b 3b 0a d4 55 3c
       -0.0081445305 0.007681534 0.002619352 0.013051042
0000e0 74 d1 0a bd 4b 06 08 3c 3c 47 9d 3b 1e c8 64 bc
       -0.033891156 0.008302282 0.0047997516 -0.013963727
0000f0 52 a5 2c 3d 8a 11 16 3d 01 43 10 bc dc 96 0b 3d
       0.04214985 0.03663782 -0.0088050375 0.034079418
000100 71 88 1e 3d 0a 00 a0 bd 38 bb 25 bd 11 50 4c 3d
       0.03870434 -0.078125075 -0.04046175 0.049881045
000110 47 86 d8 bc e3 22 18 bd d2 df 86 3a 16 0f cb 3b
       -0.026431216 -0.037142646 0.0010290092 0.0061968667
000120 16 43 1c 3d 84 d8 00 bd 56 45 8f 3b f4 a4 26 bd
       0.038149916 -0.031456485 0.004372279 -0.040684655
000130 8c 18 88 bd 37 d7 f0 bc 4b 15 a1 bb f1 59 ad 3a
       -0.06645307 -0.029399497 -0.0049158684 0.0013225657
000140 83 f8 24 bc e1 78 4a bd bf b2 e9 3c f2 1f ac 3b
       -0.010069015 -0.049431685 0.028527616 0.0052528316
000150 78 c2 dc 3c bf cf ed 3c 80 82 c4 3c 47 b9 a2 bd
       0.026948199 0.029029725 0.023988008 -0.07945495
000160 f4 ce 43 3c 16 68 dc 3b b0 8d e8 ba 4b 2d b8 3b
       0.011951197 0.006726275 -0.0017742421 0.0056206337
000170 a7 fa d7 3c 70 87 30 bd ad 39 4d 3d e7 30 d0 3c
       0.026364638 -0.043097913 0.050103832 0.025413943
000180 4f 63 8d 3c fa 4c ea bb 14 c2 39 3d 5c 01 28 3d
       0.017259268 -0.0071502896 0.045351103 0.04101692
000190 30 01 88 bb 98 d4 0c 3d e0 3a 4c 3b 74 6b de 3c
       -0.004150532 0.034382433 0.0031163022 0.027150847
0001a0 e1 a9 a8 bc e3 5d 64 3d c7 e6 1f 3d b4 28 41 bd
       -0.020588817 0.0557536 0.039038446 -0.04715796
0001b0 1c 07 45 3d f9 84 a8 bc 85 e1 a2 b9 25 0f 65 bd
       0.048102483 -0.020571219 -0.00031067073 -0.055922646
0001c0 49 bb 52 3c d3 fa 1b bd 57 7e 0a 3d 00 8d b8 bc
       0.012862035 -0.038081 0.033811893 -0.022528172
0001d0 9b af ea bc d4 6a a2 3c 9f 32 55 3d f5 bf 4e bd
       -0.028648188 0.01982633 0.05205023 -0.050476033
0001e0 cf b7 7c 3c 1a b6 21 3b 85 1c 7f 3b 27 cf 91 bd
       0.015424683 0.0024675191 0.003892691 -0.07119589
0001f0 44 4b 9d bb 3c d2 96 3c 15 66 63 3d 07 23 c7 3c
       -0.004800232 0.018410794 0.055517275 0.024308695
000200 38 65 39 bd d4 ec 75 bc 33 a4 94 bb a3 e2 1e 3d
       -0.045262545 -0.0150100775 -0.0045361756 0.038790356
000210 58 03 79 3c 17 ab 4a 3c dc 92 6e 3d 73 8b 23 bd
       0.015198551 0.012369893 0.058245525 -0.03992791
000220 bc 02 64 bd f7 c5 ba 3b 4f 9f 5c 3d 0d c2 2e bc
       -0.05566667 0.005699869 0.053862866 -0.0106663825
000230 8f d9 49 3d 06 df 4c 3d fa de a4 3c 4a d4 09 3d
       0.049279746 0.05001738 0.020125855 0.03364972
000240 24 cf e5 3c 1a 6d 3c bd 4d 6b 81 3c 2d e3 84 3d
       0.028052874 -0.046002485 0.015798235 0.06488643
000250 69 f7 65 bd 06 e4 28 bd ec 1a a6 bc c1 d1 61 bc
       -0.05614415 -0.041233085 -0.02027651 -0.013782919
000260 49 cb 79 3c d4 bc 94 3b 45 8b 0d bc 79 d6 10 3c
       0.015246221 0.0045391116 -0.0086391615 0.008840197
000270 0b be 9d 3d 21 b9 4a bd f2 2a 12 3d 7b 7b 36 bd
       0.077022634 -0.04949296 0.035685487 -0.044551354
000280 77 07 42 bd 0c 41 1e 3d 23 c7 aa bc 06 59 81 3c
       -0.0473704 0.038636252 -0.020846909 0.01578952
000290 d2 78 cc bc 96 8b 91 3c 07 86 80 3c af 53 e7 3c
       -0.024959955 0.017766755 0.01568891 0.028238146
0002a0 be 1c c6 bc 89 3c 2b bd c2 e7 5a bc fa e9 7e bd
       -0.024183627 -0.041805778 -0.013360919 -0.062234856
0002b0 4c 85 84 bd d4 0c 45 3d 77 ae 41 bd dd a7 14 bd
       -0.06470737 0.048107937 -0.047285523 -0.0362929
0002c0 4e 65 2a 3c 44 27 6f bd 32 e9 c7 3c 9f 8f 8e bc
       0.0104001295 -0.058387056 0.024403188 -0.017402468
0002d0 c0 ab 29 3d 52 eb 03 bd af 0f 2b 3d a2 ef 67 bc
       0.04142356 -0.03220684 0.041763004 -0.014156254
0002e0 69 dd 35 bd 10 d3 75 3b d7 bc c8 bc 86 88 2e 3c
       -0.044400606 0.0037509836 -0.024504108 0.010652667
0002f0 b4 74 c7 bc e7 0f 49 bd 4f 04 c6 3c 4d 8c 43 3d
       -0.02434764 -0.04908743 0.024171976 0.047741223
000300 eb af 70 3c ee d6 8a bb 63 91 e1 bd e7 72 3b bd
       0.01469038 -0.0042370474 -0.110140584 -0.045763876
000310 d0 6f 52 3d e5 73 fc 3d e0 a8 9c bb 83 26 81 bb
       0.051376164 0.12326793 -0.0047808737 -0.0039413585
000320 75 de 31 3c 38 4a 83 bc a1 d7 de b9 43 36 ca bb
       0.010856261 -0.016026601 -0.00042503796 -0.0061710193
000330 20 2d 1e bc 36 d3 6b 3d 94 99 09 3c 20 f5 1f 3d
       -0.009654313 0.057574473 0.008398432 0.03905213
000340 96 49 0e 3d bf 7f 5b 3b a3 77 e5 bc d6 c8 18 3c
       0.034738146 0.003349289 -0.028011149 0.009325227
000350 c8 27 c8 3c d0 bf 76 3d 21 07 3e bd 5e 0d 25 3c
       0.024433032 0.06024152 -0.046393517 0.010073988
000360 5c d2 cc 3d d9 fa a9 bc 4c c9 e5 bc 58 50 72 3d
       0.1000106 -0.020749496 -0.028050087 0.059158653
000370 87 0d 3c bd e8 a1 20 3d 8a c7 2f bd e3 bf 77 3c
       -0.04591134 0.039216906 -0.042914905 0.015121433
000380 46 99 a5 bc 10 ce d0 3b 26 b6 1e bc 7b 8f b4 3c
       -0.020214688 0.006372221 -0.009686982 0.022041073
000390 4f fb c8 3c ae 0c 33 3d f1 86 b8 bb 45 37 70 bd
       0.024533896 0.043713264 -0.0056313206 -0.05864646
0003a0 bc bf 1d 3d c0 af df bc db bc 1d bc f0 13 04 bc
       0.03851293 -0.027305484 -0.009627546 -0.008061394
0003b0 bc 77 e8 3c ff fe ba 3b 00 31 9f 3d df c7 ac 3c
       0.028377406 0.0057066674 0.07773018 0.0210914
0003c0 0c dd 27 bd ba 47 f7 3c d0 4b fa bc ac 08 88 bc
       -0.04098229 0.03018557 -0.030553728 -0.016605698
0003d0 cb db a4 bc df 99 af 3d 3f 7b 46 bd 55 69 52 bc
       -0.020124337 0.085742705 -0.04845738 -0.012842496
0003e0 dd f7 8b 3d ec 01 36 bb 11 39 79 3d 61 1c 4c 3c
       0.068343855 -0.0027772142 0.06084544 0.012457938
0003f0 ed e7 d9 bc 2d 83 3f bd cc 9a 50 bb 8b ff 32 bd
       -0.026599849 -0.04675596 -0.0031830547 -0.043700736
