results/qvpo_HalfCheetah-v3/actor_25_04_22_15_53_14_0.pth (torch, 667057 bytes, 24 tensors)

betas f4 [50]
00000000: 4f28 823b e992 013c 6ad0 413c 76e6 803c
00000010: 59c4 a03c fd81 c03c 851f e03c 109d ff3c
00000020: 5f7d 0f3d 581c 1f3d 84ab 2e3d f12a 3e3d
00000030: b09a 4d3d d1fa 5c3d 644b 6c3d 788c 7b3d
00000040: 0e5f 853d 31f0 8c3d ac79 943d 87fb 9b3d
00000050: c975 a33d 7be8 aa3d a353 b23d 4ab7 b93d
00000060: 7713 c13d 3268 c83d 82b5 cf3d 6efb d63d
00000070: ff39 de3d 3b71 e53d 2ba1 ec3d d5c9 f33d
00000080: 41eb fa3d bb02 013e 3d8c 043e 2c12 083e
00000090: 8a94 0b3e 5b13 0f3e a28e 123e 6406 163e
000000a0: a47a 193e 65eb 1c3e ab58 203e 7ac2 233e
000000b0: d428 273e be8b 2a3e 3aeb 2d3e 4d47 313e
000000c0: fa9f 343e 44f5 373e
0.0039720903 0.007908561 0.011829475 0.015734892 0.019624876 0.023499483 0.02735878 0.031202823
0.035031673 0.03884539 0.04264404 0.04642767 0.05019635 0.053950135 0.057689086 0.06141326
0.06512271 0.068817504 0.072497696 0.076163344 0.0798145 0.083451234 0.08707359 0.09068163
0.09427541 0.09785499 0.10142042 0.10497175 0.108509056 0.112032376 0.11554178 0.11903731
0.12251902 0.12598698 0.12944122 0.13288182 0.13630882 0.13972227 0.14312223 0.14650875
0.1498819 0.15324171 0.15658824 0.15992156 0.16324168 0.1665487 0.16984263 0.17312355
0.17639151 0.17964655

alphas_cumprod f4 [50]
00000000: affb 7e3f 72f7 7c3f 60f9 793f 720a 763f
00000010: 5836 713f 3e8b 6b3f 8719 653f 80f3 5d3f
00000020: 042d 563f 29db 4d3f db13 453f 7eed 3b3f
00000030: 937e 323f 58dd 283f 7c1f 1f3f c959 153f
00000040: e59f 0b3f 1704 023f 242e f13e a7cf de3e
00000050: 0f07 cd3e f3ea bb3e 1b8e ab3e 8bff 9b3e
00000060: 9a4a 8d3e 42ee 7e3e 5613 653e 7107 4d3e
00000070: 14c8 363e da4d 223e 1c8d 0f3e 2fed fc3d
00000080: 2ef0 dd3d 14fa c13d 47de a83d c26d 923d
00000090: 3ef0 7c3d e998 593d 4d74 3a3d 1a23 1f3d
000000a0: 0c49 073d a41b e53c 7c3b c13c 9154 a23c
000000b0: ced4 873c e06a 623c 4ff6 3b3c e66b 1b3c
000000c0: a701 003c 6405 d23b
0.9960279 0.9881507 0.9764614 0.9610969 0.94223547 0.9200934 0.89492077 0.86699677
0.8366244 0.80412537 0.7698342 0.7340926 0.69724387 0.65962744 0.62157416 0.58340126
0.54540855 0.5078749 0.47105515 0.435178 0.40044448 0.3670269 0.33506855 0.304684
0.2759598 0.24895576 0.22370657 0.2002237 0.17849761 0.1585001 0.14018673 0.12349927
0.10836826 0.09471527 0.08245521 0.07149841 0.06175255 0.053124342 0.04552107 0.038851835
0.033028647 0.027967282 0.023587935 0.019815715 0.016580965 0.013819426 0.011472299 0.009486174
0.007812894 0.006409334

alphas_cumprod_prev f4 [50]
00000000: 0000 803f affb 7e3f 72f7 7c3f 60f9 793f
00000010: 720a 763f 5836 713f 3e8b 6b3f 8719 653f
00000020: 80f3 5d3f 042d 563f 29db 4d3f db13 453f
00000030: 7eed 3b3f 937e 323f 58dd 283f 7c1f 1f3f
00000040: c959 153f e59f 0b3f 1704 023f 242e f13e
00000050: a7cf de3e 0f07 cd3e f3ea bb3e 1b8e ab3e
00000060: 8bff 9b3e 9a4a 8d3e 42ee 7e3e 5613 653e
00000070: 7107 4d3e 14c8 363e da4d 223e 1c8d 0f3e
00000080: 2fed fc3d 2ef0 dd3d 14fa c13d 47de a83d
00000090: c26d 923d 3ef0 7c3d e998 593d 4d74 3a3d
000000a0: 1a23 1f3d 0c49 073d a41b e53c 7c3b c13c
000000b0: 9154 a23c ced4 873c e06a 623c 4ff6 3b3c
000000c0: e66b 1b3c a701 003c
1.0 0.9960279 0.9881507 0.9764614 0.9610969 0.94223547 0.9200934 0.89492077
0.86699677 0.8366244 0.80412537 0.7698342 0.7340926 0.69724387 0.65962744 0.62157416
0.58340126 0.54540855 0.5078749 0.47105515 0.435178 0.40044448 0.3670269 0.33506855
0.304684 0.2759598 0.24895576 0.22370657 0.2002237 0.17849761 0.1585001 0.14018673
0.12349927 0.10836826 0.09471527 0.08245521 0.07149841 0.06175255 0.053124342 0.04552107
0.038851835 0.033028647 0.027967282 0.023587935 0.019815715 0.016580965 0.013819426 0.011472299
0.009486174 0.007812894

sqrt_alphas_cumprod f4 [50]
00000000: b77d 7f3f 917a 7e3f 18f8 7c3f 94f8 7a3f
00000010: 057f 783f 1d8f 753f 392d 723f 515e 6e3f
00000020: ed27 6a3f 1f90 653f 6b9d 603f b956 5b3f
00000030: 4dc3 553f abea 4f3f 91d4 493f dc88 433f
00000040: 810f 3d3f 7570 363f 9fb3 2f3f cee0 283f
00000050: a1ff 213f 8217 1b3f 952f 143f b04e 0d3f
00000060: 4a7b 063f fd76 ff3e f329 f23e f419 e53e
00000070: 9550 d83e 7bd6 cb3e 59b3 bf3e eeed b33e
00000080: 088c a83e 8492 9d3e 5805 933e 96e7 883e
00000090: f276 7e3e d504 6c3e 2c7a 5a3e dcd6 493e
000000a0: 7d19 3a3e 723f 2b3e 0845 1d3e 9125 103e
000000b0: 86db 033e 3bc1 f03d de5b db3d 1378 c73d
000000c0: 1e06 b53d 9df5 a33d
0.998012 0.9940577 0.9881606 0.9803555 0.97068816 0.959215 0.94600254 0.93112665
0.9146717 0.89673036 0.877402 0.85679203 0.8350113 0.8121745 0.78839976 0.76380706
0.7385178 0.71265346 0.68633455 0.65968025 0.63280684 0.60582745 0.57885104 0.5519819
0.52531874 0.49895468 0.4729763 0.44746363 0.4224898 0.39812073 0.3744152 0.35142463
0.32919335 0.30775845 0.28715014 0.26739186 0.24850062 0.23048718 0.21335667 0.19710869
0.18173786 0.16723421 0.15358365 0.1407683 0.1287671 0.11755606 0.10710882 0.09739699
0.088390574 0.080058314

sqrt_one_minus_alphas_cumprod f4 [50]
00000000: 1813 813d 11ef de3d e51a 1d3e f3f8 493e
00000010: 5a1c 763e 1cbb 903e 34f8 a53e 72b9 ba3e
00000020: faf2 ce3e 7d99 e23e 93a2 f53e 6e02 043f
00000030: 0edc 0c3f a85a 153f 577b 1d3f dc3b 253f
00000040: 999a 2c3f 9296 333f 6a2f 3a3f 5865 403f
00000050: 2939 463f 2fac 4b3f 3cc0 503f 9777 553f
00000060: f2d4 593f 57db 5d3f 248e 613f fcf0 643f
00000070: b607 683f 57d6 6a3f fd60 6d3f ddab 6f3f
00000080: 31bb 713f 2e93 733f fd37 753f b2ad 763f
00000090: 40f8 773f 781b 793f fe1a 7a3f 4afa 7a3f
000000a0: a1bc 7b3f 1265 7c3f 75f6 7c3f 6e73 7d3f
000000b0: 68de 7d3f 9739 7e3f fe86 7e3f 6bc8 7e3f
000000c0: 7cff 7e3f a42d 7f3f
0.0630247 0.10885442 0.1534229 0.19723873 0.24034253 0.28267753 0.32415926 0.3646961
0.4041975 0.44257727 0.47975597 0.5156621 0.55023277 0.58341455 0.61516327 0.64544463
0.674234 0.7015163 0.727286 0.7515464 0.7743097 0.79559606 0.81543326 0.83385605
0.85090554 0.8666281 0.88107514 0.8943021 0.90636766 0.91733307 0.9272612 0.9362162
0.94426256 0.95146453 0.95788556 0.9635879 0.96863174 0.9730754 0.97697437 0.9803816
0.983347 0.9859172 0.98813564 0.99004257 0.9916749 0.99306625 0.9942473 0.99524564
0.9960859 0.9967902

log_one_minus_alphas_cumprod f4 [50]
00000000: 1fe9 b0c0 84ef 8dc0 7cf1 6fc0 9fc9 4fc0
00000010: 047d 36c0 aeb8 21c0 d131 10c0 c91c 01c0
00000020: e5e5 e7bf 08ad d0bf bb06 bcbf ba8c a9bf
00000030: 1df0 98bf 8cf2 89bf a3c3 78bf 6829 60bf
00000040: b6d1 49bf 7d82 35bf fc09 23bf 183d 12bf
00000050: 0af6 02bf d126 eabe bbee d0be 1d0e babe
00000060: 3e54 a5be b194 92be aca6 81be 0dc9 64be
00000070: de56 49be 05b6 30be 3daa 1abe 3bfb 06be
00000080: efe8 eabd a9c9 cbbd 063d b0bd 58ed 97bd
00000090: f08a 82bd 2b97 5fbd ddd4 3ebd a34f 22bd
000000a0: eb91 09bd 685f e8bc 428c c3bc e2f5 a3bc
000000b0: 42f8 88bc 3dff 63bc 640c 3dbc ec29 1cbc
000000c0: 6f82 00bc 8ab2 d2bb
-5.528457 -4.4354877 -3.749114 -3.246681 -2.8513803 -2.526897 -2.2530406 -2.017382
-1.8117033 -1.6302805 -1.4689554 -1.3246071 -1.1948277 -1.0777144 -0.9717352 -0.8756318
-0.7883562 -0.70902234 -0.6368711 -0.5712447 -0.51156676 -0.4573274 -0.40807137 -0.36338893
-0.32290834 -0.28629068 -0.25322473 -0.2234232 -0.19662043 -0.17256935 -0.15104003 -0.13181774
-0.1147021 -0.09950573 -0.08605389 -0.074183166 -0.063741565 -0.054587524 -0.04658972 -0.03962673
-0.033586424 -0.028365806 -0.023870591 -0.020014707 -0.016719941 -0.013915834 -0.011538599 -0.009531479
-0.007843598 -0.006429975

sqrt_recip_alphas_cumprod f4 [50]
00000000: 4641 803f e1c3 803f 9a88 813f 9d90 823f
00000010: 7fdd 833f 4471 853f 634e 873f c777 893f
00000020: dff0 8b3f a4bd 8e3f 9fe2 913f fd64 953f
00000030: 954a 993f 029a 9d3f ac5a a23f e294 a73f
00000040: f451 ad3f 469c b33f 7a7f ba3f 8d08 c23f
00000050: ff45 ca3f 0248 d33f b020 dd3f 44e4 e73f
00000060: 5da9 f33f a744 0040 3750 0740 4407 0f40
00000070: a37b 1740 59c1 2040 e9ee 2a40 a91d 3640
00000080: 246a 4240 8ef4 4f40 42e1 5e40 5e59 6f40
00000090: b7c5 8040 1bd6 8a40 cdfb 9540 d358 a240
000000a0: ea13 b040 3159 bf40 045b d040 eb52 e340
000000b0: bd82 f840 f31a 0841 7b61 1541 b046 2441
000000c0: c803 3541 b4da 4741
1.001992 1.0059777 1.0119812 1.0200382 1.030197 1.0425191 1.0570797 1.0739678
1.0932883 1.1151624 1.1397284 1.1671444 1.1975886 1.2312624 1.2683921 1.309231
1.3540635 1.4032066 1.4570153 1.515886 1.5802611 1.650635 1.72756 1.8116536
1.903606 2.0041902 2.114271 2.2348185 2.3669212 2.511801 2.670832 2.8455603
3.0377283 3.2493014 3.4824986 3.7398295 4.024135 4.338636 4.6869874 5.073343
5.502431 5.9796376 6.5111103 7.103872 7.7659593 8.506579 9.336299 10.267258
11.313423 12.490894

sqrt_recipm1_alphas_cumprod f4 [50]
00000000: ba54 813d 3f44 e03d c8fc 1e3e 0d05 4e3e
00000010: eb8a 7d3e 7be2 963e 6971 af3e 3789 c83e
00000020: 4b41 e23e feb1 fc3e 87fa 0b3f fc12 1a3f
00000030: 1cb1 283f e7e4 373f a9bf 473f 4954 583f
00000040: 76b7 693f d3ff 7b3f 29a3 873f 3ad3 913f
00000050: 4d9f 9c3f 3518 a83f 9c50 b43f 415d c13f
00000060: 3f55 cf3f 5452 de3f 4371 ee3f 39d2 ff3f
00000070: 9c4c 0940 5377 1340 f07f 1e40 f47f 2a40
00000080: 1494 3740 b1dc 4540 537e 5540 46a2 6640
00000090: 4677 7940 2619 8740 b787 9240 7929 9f40
000000a0: 4425 ad40 57a7 bc40 2ee2 cd40 720f e140
000000b0: 1a71 f640 5c29 0741 7e85 1441 be7e 2341
000000c0: 674e 3441 7b36 4741
0.063149884 0.10950517 0.15526116 0.20119114 0.24760024 0.29469666 0.34266213 0.39167187
0.4419044 0.49354547 0.5467915 0.6018522 0.6589525 0.7183365 0.78026825 0.8450361
0.91295564 0.9843723 1.0596668 1.1392586 1.2236115 1.3132387 1.40871 1.5106584
1.619789 1.7368875 1.8628315 1.998603 2.1453009 2.304158 2.4765587 2.6640596
2.868413 3.091595 3.3358352 3.6036544 3.8979049 4.22182 4.5790668 4.9738126
5.410799 5.895427 6.43386 7.0331354 7.7013063 8.4475975 9.282591 10.218443
11.269141 12.450801

posterior_variance f4 [50]
00000000: 0000 0000 2abe 2d3b a221 c33b e0fb 1b3c
00000010: c28b 583c fd29 8b3c b66e aa3c 90f2 c93c
00000020: e4a0 e93c 23b6 043d 98a5 143d 489b 243d
00000030: 7994 343d de8e 443d 9288 543d d37f 643d
00000040: 1073 743d 6930 823d d323 8a3d 1b13 923d
00000050: 92fd 993d 95e2 a13d 80c1 a93d b399 b13d
00000060: 916a b93d 8933 c13d 07f4 c83d 7dab d03d
00000070: 7059 d83d 63fd df3d ec96 e73d a125 ef3d
00000080: 2ea9 f63d 4621 fe3d d8c6 023e 1c77 063e
00000090: 6021 0a3e 99c5 0d3e c463 113e e5fb 143e
000000a0: 078e 183e 381a 1c3e 8fa0 1f3e 2421 233e
000000b0: 119c 263e 7d11 2a3e 8381 2d3e 4eec 303e
000000c0: ff51 343e bdb2 373e
0.0 0.0026511052 0.005954937 0.009520501 0.013216915 0.016987795 0.020804744 0.024651796
0.028519101 0.03240026 0.036290735 0.04018715 0.044086907 0.04798781 0.051888056 0.055785965
0.059680045 0.0635689 0.06745114 0.0713255 0.07519068 0.07904545 0.0828886 0.08671894
0.09053529 0.09433658 0.098121695 0.10188959 0.10563934 0.109370016 0.11308083 0.11677099
0.12043987 0.1240869 0.12771165 0.13131374 0.13489294 0.13844909 0.14198214 0.14549215
0.14897929 0.15244377 0.15588592 0.15930611 0.16270472 0.16608234 0.16943936 0.17277643
0.17609404 0.17939277

posterior_log_variance_clipped f4 [50]
00000000: f134 38c2 53d9 bdc0 fff3 a3c0 17f0 94c0
00000010: b470 8ac0 8868 82c0 42d8 77c0 68fc 6cc0
00000020: dba8 63c0 627e 5bc0 813c 54c0 96b5 4dc0
00000030: 2cc8 47c0 115b 42c0 cb5a 3dc0 0ab8 38c0
00000040: 8666 34c0 425c 30c0 0791 2cc0 f9fd 28c0
00000050: 569d 25c0 346a 22c0 6260 1fc0 3d7c 1cc0
00000060: a0ba 19c0 c318 17c0 3994 14c0 da2a 12c0
00000070: b8da 0fc0 18a2 0dc0 6d7f 0bc0 4e71 09c0
00000080: 7376 07c0 b18d 05c0 f3b5 03c0 3dee 01c0
00000090: a435 00c0 9d16 fdbf e8dc f9bf afbc f6bf
000000a0: 91b4 f3bf 48c3 f0bf 9ee7 edbf 7220 ebbf
000000b0: bc6c e8bf 76cb e5bf ba3b e3bf a4bc e0bf
000000c0: 674d debf 3eed dbbf
-46.0517 -5.932779 -5.1235347 -4.654308 -4.3262577 -4.07526 -3.8725743 -3.7029057
-3.5571811 -3.4295888 -3.3161929 -3.2142081 -3.1215925 -3.0368083 -2.9586666 -2.8862329
-2.8187575 -2.755631 -2.6963518 -2.6405013 -2.587728 -2.5377321 -2.4902577 -2.445083
-2.4020157 -2.3608863 -2.3215468 -2.2838655 -2.2477245 -2.2130184 -2.1796525 -2.1475406
-2.1166046 -2.0867732 -2.0579803 -2.030166 -2.003274 -1.9772526 -1.952054 -1.9276332
-1.903948 -1.8809595 -1.8586309 -1.8369277 -1.8158183 -1.7952716 -1.7752602 -1.7557569
-1.7367371 -1.7181776

posterior_mean_coef1 f4 [50]
00000000: a0ff 7f3f b385 2a3f aec7 ff3e 31a2 cc3e
00000010: 8687 aa3e b128 923e ffbc 7f3e b042 633e
00000020: 9f72 4c3e bfbf 393e 2221 2a3e 31df 1c3e
00000030: b476 113e 4587 073e 1291 fd3d 2006 ee3d
00000040: 5a17 e03d 7f80 d33d dd0a c83d 2b8a bd3d
00000050: 2cda b33d fedc aa3d c979 a23d d39b 9a3d
00000060: b331 933d c62c 8c3d bb80 853d 5546 7e3d
00000070: c216 723d 1d64 663d 4a22 5b3d 4547 503d
00000080: ecca 453d b8a6 3b3d 8dd5 313d 8753 283d
00000090: c61d 1f3d 5432 163d f08f 0d3d f735 053d
000000a0: 7048 fa3c bdb5 ea3c a1b4 db3c 2d46 cd3c
000000b0: 846b bf3c c125 b23c be75 a53c 0b5c 993c
000000c0: c9d8 8d3c 9eeb 823c
0.9999943 0.6661026 0.4995703 0.39967492 0.3330652 0.2854667 0.2497444 0.22193408
0.199656 0.18139552 0.16614202 0.15319516 0.14205438 0.13235195 0.123811856 0.11622262
0.10941954 0.10327243 0.09767697 0.09254869 0.08781847 0.08342932 0.07933385 0.07549252
0.07187214 0.06844477 0.06518694 0.062078793 0.059103735 0.05624782 0.053499497 0.050849218
0.048289225 0.045813292 0.04341655 0.041095283 0.038846754 0.03666909 0.034561098 0.032522168
0.030552119 0.028651113 0.026819529 0.025057876 0.023366697 0.021746518 0.020197745 0.018720647
0.017315285 0.015981492

posterior_mean_coef2 f4 [50]
00000000: 0000 0000 d3f3 aa3e ff1a 003f caab 193f
00000010: cab5 2a3f 0fe0 363f d2fd 3f3f 8a12 473f
00000020: abb9 4c3f 3a56 513f 042a 553f 8e62 583f
00000030: 5120 5b3f fe7a 5d3f 6484 5f3f fd49 613f
00000040: 47d6 623f 8531 643f 3b62 653f b96d 663f
00000050: 4958 673f 7a25 683f 3ad8 683f 0673 693f
00000060: f5f7 693f d768 6a3f 3dc7 6a3f 7c14 6b3f
00000070: d251 6b3f 5480 6b3f 00a1 6b3f bab4 6b3f
00000080: 5fbc 6b3f b5b8 6b3f 7faa 6b3f 7092 6b3f
00000090: 3b71 6b3f 8247 6b3f ea15 6b3f 0ddd 6a3f
000000a0: 839d 6a3f dd57 6a3f a60c 6a3f 60bc 693f
000000b0: 8967 693f 9b0e 693f 04b2 683f 3252 683f
000000c0: 81ef 673f 4f8a 673f
0.0 0.33389148 0.5004119 0.60027754 0.6668364 0.71435636 0.74996674 0.77762663
0.79970807 0.81772196 0.83267236 0.8452538 0.85596186 0.86515796 0.8731139 0.8800352
0.8860821 0.8913806 0.8960301 0.90011173 0.9036909 0.90682185 0.90954936 0.91191137
0.9139398 0.9156622 0.91710263 0.9182813 0.9192172 0.9199269 0.9204254 0.9207264
0.92084306 0.92078716 0.9205703 0.9202032 0.9196965 0.9190599 0.91830313 0.91743547
0.91646594 0.9154032 0.9142555 0.9130306 0.9117361 0.9103791 0.9089663 0.9075042
0.9059983 0.9044542

model.time_mlp.1.weight f4 [256, 32]
00000000: bb66 febc a9e9 0d3e 983d 443d b021 61bd
00000010: bcec e0bc 760d a3bd e1a2 92bd d2a4 e4bd
00000020: b488 5c3e 46d0 5b3e de1a 063d cbcd 14bc
00000030: ddd7 293d a507 c53d 5f27 23bd 64c7 a6bd
00000040: 61c5 c1bd a7c3 f83c 15e6 97bc 7db6 263d
00000050: ea41 1abe b35e 3f3d a7ff 47be 1c6d ffbd
00000060: 08c8 a83d 9af6 eabb def6 6dbe 9df6 bb3c
00000070: fb75 95bd fd9c 88bd 8d8b 7fbc 990c 033e
00000080: 29d0 80bd b90b 2bbd 5c06 8f3d 0de1 f73d
00000090: 1549 02be fc52 f3bb 6e8f ff3b ab2e 613d
000000a0: 4266 ea3d 2e4e 33be 97da 84bd e435 4d3c
000000b0: 9ed0 023e 0ca3 9cbd ae88 88bd 2c07 e6bd
000000c0: bca5 993d ced7 e23d 0fa5 96bb a388 14be
000000d0: 3be9 f1bd 46a0 82bc 1567 b7bc e3e8 5d3d
000000e0: b57c 81bd e888 9b3d e853 663d 90c0 01bd
000000f0: fadb 3a3c ae26 2dbd 6dbf 4dbe 380b 7fbd
00000100: 5fc1 ef3d 913b 103c 9c97 3e3d 02a6 aabe
00000110: 81c1 85bd 9912 62bd f0c3 39bd 80d5 6bbd
00000120: eca4 d7bc 8a1f de3c 3bcc 23be 7457 3dbe
00000130: b50b 4ebd 614b 013e 5727 be3d 5b66 34bc
00000140: b9e4 ef3d 9e19 fd3d a6f5 363e 14b2 b63d
00000150: a668 ea3c 39f0 883e 1ead 733d dcd9 80bc
00000160: 1d9f 8cbd ea2f 663d 0e20 b2bd 39d3 28bd
00000170: cebf 3ebe 5c29 a0bd 35f4 f6bd d29e 9a3c
00000180: 1961 113d 26f6 003e f1bc 06be ae4e e5bc
00000190: 73d7 01bb 153f 5cbd dee4 943d ff5d 2f3e
000001a0: 776b 06bd 46eb 2bbd a91d a63d 5598 31be
000001b0: 3448 febc ca81 3bbd 65d4 f83c 4588 a03d
000001c0: 5b0f 3abd 3137 4abe 1ca2 95bd d28f 52be
000001d0: 90d5 b4bd fea9 57bc 12b0 a73d 7177 033e
000001e0: ede0 3abe e19f 823d e4bb 05be af51 35be
000001f0: 0245 9b3d 3532 5ebd 5fd1 be3c a130 603d
00000200: 5060 b03d 54d3 8ebd 7bcf 4b3d 6aa3 a6bd
00000210: 2e26 3a3d 654d a8bd 797e a4bd 4e1e 8bbd
00000220: 0179 3cbd f7f8 00bd 3d60 9ebd 3afa 873d
00000230: 5060 ab3d 0815 113c bbf4 47bd 19ff c6bd
00000240: e1c0 2d3d 7c1c 2e3d f230 47bd 0b0f d63d
00000250: e51a c5bd f0ab d7bb bbbc db3c da20 a43d
00000260: a85c 903d 4cb0 d1bd d9d9 273e 63bd 06be
00000270: edab 2f3d 1110 af3d 9a4c 72bb 79f2 443d
00000280: dd9c 1dbd 6904 d2bc fdfa eebc d2a3 0ebd
00000290: 325a 2a3d f14c 4bbd 416f 81bd 2e02 3c3e
000002a0: df08 34bd 8c4a 5bbd 3bc6 9e3d 8aae 86bd
000002b0: d86a e8bd 1441 38bb 3359 6d3b b50f 9c39
000002c0: 1496 813d 658b b53d 7857 fcbc 7f67 79bc
000002d0: f8ba 9abd c897 0a3b d367 82bd 27ab 8d3d
000002e0: af7e 113d af05 553d ed86 b83d 4263 5cbd
000002f0: 1390 fe3c 452e c63d a4c5 a03d 6461 dd3c
00000300: d91e cd3d fe51 483d 54cd 53be e742 17bd
00000310: a737 a73d 0520 3a3d 5ab9 8a3c caa3 65be
00000320: 666a f93b 1cc8 15bd f7c6 26bd d26e 573c
00000330: 4f67 f23d 2332 ff3d 39b5 33bd 0210 233e
00000340: a087 a2bc 8557 bcbd 05e9 043d 735f 29bd
00000350: dfa4 3c3d a6a8 013e 4ca8 763b 5627 adbd
00000360: 6516 cfbd 3a62 c13d 5453 b6bd f769 a3bc
00000370: 98b7 1fbd 7165 083d fda2 863d 9a6e 36be
00000380: 8b0d 3dbd 138e 01bd 04bb afbb e8e2 b43d
00000390: 5825 6c3c a9b3 d8bd d009 75bd 7617 febd
000003a0: c88b 7ebc e7a5 efbc ecee 0ebd 4c69 12bd
000003b0: 3c46 69bd acee b53d 5437 c2bd f40b 233e
000003c0: 5f9c 6abd 6493 2bbb 8570 073e cc62 153c
000003d0: bb98 93bd c2b5 25be 6d16 c33d 962f 26bd
000003e0: 3b24 4bbd 7e05 223d 29f9 4fbd dcb7 e43d
000003f0: d8f7 f33c 7b33 b33d 1c06 923d 3695 a0bd
-0.031054845 0.13858666 0.047910303 -0.054963768 -0.027456634 -0.07961552 -0.07159973 -0.111642495
0.21536523 0.21466169 0.032740466 -0.009082268 0.04146563 0.09620599 -0.03983247 -0.081434995
-0.09461475 0.030366732 -0.018542329 0.040701378 -0.15064207 0.04672117 -0.19531117 -0.12471983
0.08241278 -0.0071705105 -0.23238704 0.022944743 -0.072978936 -0.06670568 -0.015597236 0.12797774
-0.062897034 -0.041759226 0.06983635 0.12103472 -0.12723191 -0.007425664 0.0077990806 0.054976147
0.114452854 -0.17510292 -0.06487005 0.012525056 0.12774894 -0.07648286 -0.066666946 -0.11231837
0.075023144 0.11076318 -0.0045973132 -0.14505248 -0.11812063 -0.015945565 -0.02238802 0.054177176
-0.06322614 0.07594472 0.056232363 -0.031677783 0.011404986 -0.042273216 -0.20092554 -0.06226656
0.117068045 0.008803264 0.046531305 -0.3332978 -0.065310486 -0.055193517 -0.045352876 -0.057576656
-0.026323758 0.027114648 -0.15995876 -0.18490392 -0.050304133 0.12626411 0.09284847 -0.011010732
0.11713547 0.12358402 0.17867145 0.089206845 0.028614353 0.26745775 0.05949127 -0.015728883
-0.06866286 0.05619804 -0.0869752 -0.041217063 -0.18627855 -0.07820389 -0.120582975 0.01887456
0.03549299 0.12593898 -0.13158013 -0.027991619 -0.0019812256 -0.053771097 0.072702155 0.171257
-0.03281733 -0.04197242 0.08111126 -0.17343266 -0.031040289 -0.045778073 0.030374715 0.07838491
-0.0454248 -0.19747616 -0.073063105 -0.20562676 -0.08829796 -0.013163088 0.081878796 0.12838532
-0.18249865 0.06378151 -0.13059956 -0.17706941 0.075815216 -0.0542471 0.023293195 0.054733876
0.0861212 -0.069739014 0.049758416 -0.081366375 0.045446567 -0.08217887 -0.08031935 -0.067928895
-0.046013836 -0.03148743 -0.077332 0.06639524 0.083679795 0.008855112 -0.048817378 -0.09716625
0.04242027 0.042507634 -0.048630662 0.10452088 -0.0962427 -0.006581776 0.026823392 0.080140784
0.07048923 -0.10238704 0.16391696 -0.13158183 0.04288857 0.08547986 -0.0036971928 0.048082802
-0.038479675 -0.025636869 -0.029172415 -0.0348242 0.041589923 -0.049633924 -0.06320048 0.18360206
-0.043953773 -0.05353789 0.07752653 -0.065762594 -0.11348504 -0.0028114961 0.0036216497 0.0002976634
0.06327453 0.08864478 -0.030803427 -0.015222429 -0.07555193 0.0021147598 -0.06367459 0.0691741
0.035521206 0.052007373 0.0901011 -0.053805597 0.03107456 0.09676794 0.07850197 0.027023979
0.10015649 0.04890632 -0.20683795 -0.036929037 0.08164912 0.045440692 0.016934086 -0.22425762
0.0076115606 -0.036567792 -0.04071709 0.01314898 0.11836111 0.12460735 -0.043874 0.15924075
-0.019840062 -0.091963805 0.032448787 -0.041350793 0.04605567 0.1266199 0.0037636934 -0.08454768
-0.10111693 0.09442563 -0.08902612 -0.019947989 -0.038993448 0.033299867 0.06574056 -0.17815629
-0.046155494 -0.031629633 -0.00536287 0.088323414 0.0144132 -0.105811425 -0.05982381 -0.124068186
-0.015536256 -0.029253913 -0.034895822 -0.03574495 -0.056951746 0.08883414 -0.09483209 0.15922529
-0.057278033 -0.002618038 0.13226517 0.009117793 -0.072068654 -0.16182616 0.09525762 -0.040572725
-0.0495951 0.03955602 -0.050774727 0.11167881 0.029781267 0.087500535 0.071300715 -0.0784096

model.time_mlp.1.bias f4 [256]
00000000: b419 bf3b 0cce 48bc 7d0b 453d 821d 3e3c
00000010: 8e80 97ba 79c7 81bc 5a0f 1e3b f679 d9ba
00000020: 0d1d 263d b1f4 0f3c c632 53bc dcf2 3437
00000030: 5b57 ccbb f1ff 46bb 166e 13bc 443f 31bb
00000040: 28a2 27bc 54f8 243b 8bef a4bb 03ea 7dbb
00000050: e660 dd3c 94ba d03c 8040 7a3c d961 333a
00000060: c35d b03b ef8b 5a3c 9558 c13c 2e25 653c
00000070: 5391 1f3c f36b c93c 95e2 06bc 46a1 babb
00000080: 3ff8 d63c 2f6c 7bbc 1f90 09bc e81c 57bb
00000090: f6bb e3bb 6f71 79ba 4299 943c 05ca 023b
000000a0: bb02 fc3b 5d9c 9bbb b903 10bb d02f 543c
000000b0: d166 ba3b e418 80bb 1c16 d2bb c49b 87ba
000000c0: b5bc 9d3a 87b8 933c dd89 633b d24e a1bb
000000d0: 7bf6 e9bb 5243 0d3d 87a4 2dbc c198 f13b
000000e0: 0800 d3bb ad15 b3bb c825 aabb b035 03bc
000000f0: 00b6 d33c 22f0 023d bc88 443a 5ec2 b33c
00000100: 2c13 1c3b 2f6f 02bc 5d1d 203c be3b 4e3c
00000110: 828c 683b 1863 ca3b d7d4 733c ee64 09b9
00000120: 1496 893b 46fd ed3b 2685 a43c a22c d63c
00000130: df69 6239 a7b9 dcbb b448 063d 602d 983b
00000140: a667 5f3c 24d0 3c3c b8ae 4bbc e635 213d
00000150: 02ea 673c 7b52 693c 0f62 d4bb d1d3 4abb
00000160: e935 5a3c e890 e23c 642d 533b bffd f0bb
00000170: 514f c63b c85a 793b 5e5d dc3c 9c44 9d3c
00000180: 59ee 56bc 0dd5 143c ce26 13bc 3739 003c
00000190: 0165 8dbb dbe1 7bbc 2885 db3c 3c0e 1e3c
000001a0: e943 5b3c 04ee 63bc fa54 0dbc 1e10 e5bb
000001b0: 5f63 503c 572f ebbb 1269 c03b 9a11 0b3c
000001c0: ac70 323c 7f10 f13c cf83 c1bb 90b1 eabc
000001d0: 8af9 143a d1f5 2f3c a3a3 2b3d 44ad 2dbc
000001e0: 6c58 f1ba 5718 f6bb ed02 52bc 7e41 89bb
000001f0: b508 523c 1b8a 15bc 8ad6 5fbc c755 163c
00000200: 074a 413b b3e6 9f3c 9adf 04bc 578c 523b
00000210: f261 063d 2fe9 7cbb def5 e2bb d28b b93c
00000220: 0864 37bb a010 343c b406 ebbb a91b 08bc
00000230: 71df 3e3b 5480 303a 1c39 813b 0ad3 7b38
00000240: 83e0 e8bb 7d62 51bc 47d9 d9bb 20ca a3ba
00000250: bc8c f3ba 0874 b63b 3e2f 15bd 1819 b4ba
00000260: d3d8 67bb cf43 f4ba a7a5 13bb f492 b2bb
00000270: 31d7 293b 39aa dbb9 8e4d e33c 14fb cbbb
00000280: 41fa 85ba d40e 263a b0d3 c9bb 32a2 073c
00000290: 69e7 4abb 1751 b2bc 359c eeba 872a 6bbb
000002a0: ca62 933c 90cd 40bc 7066 09bc 9e64 cb3b
000002b0: 7dce e1bb 374d 843c 47b4 05bc 45ef 3a3c
000002c0: 7e1a 7c3b 6273 ae3b 4ce5 013b a4aa d5bb
000002d0: 4e10 ad3b 45e9 9bba 9922 10bc 9af6 453c
000002e0: 9321 42bc 6ca1 8fbb 79f4 83bb c14c 2fbb
000002f0: 679a 103b 9db9 12bc 1b58 90bb 57cf 3ebc
00000300: 33ea 1dbb 62b1 adba 7057 5dba 2d62 dfbb
00000310: 91b1 a5b9 d5cc 76bb fa46 f4bb 95b0 0cbc
00000320: df4a 35bc 66ff 84bc 41f4 3fbc d6f5 29bc
00000330: 20ba d4bc cb48 25bb 4837 dbbb d703 22bc
00000340: 8aee 973c 616b 02bc 610a 6dbc 7340 b5bc
00000350: d877 183c 7838 113c 8bc3 93bc 830b 723c
00000360: cb48 113c 168e a6bb 85c2 1ebc ceec c1bc
00000370: bcf1 653c 124d ca3c 98a8 44bc 97be c9bb
00000380: 682e 82bb eba7 f43b 8109 383b 7876 eeba
00000390: d0ed 0cbc 7b1f 9dbb bc32 713c 0707 2fbc
000003a0: 5fdf afbb 431c 3fbb a369 be38 caa6 e33b
000003b0: b44d 60bb 4533 9a3c a92e 813c f5a1 08bc
000003c0: 788c d3bb f9a5 f1bb 8fb8 4c38 4453 793b
000003d0: 7bf1 49bc 46b1 e53c 4c57 88bc ca5d 8ebb
000003e0: fd3a 853c b1ee 59bc 9315 d73b 5b8e a5bb
000003f0: 0a7f acba 3f70 d0bb c0a5 9f3a 6b9b 29bc
0.0058319215 -0.012256157 0.04810666 0.011603715 -0.0011558698 -0.015842186 0.0024118037 -0.0016592133
0.04055505 0.008786366 -0.012890523 1.0785381e-05 -0.0062359995 -0.0030364955 -0.0089984145 -0.0027045766
-0.010231532 0.002517243 -0.0050334386 -0.0038744218 0.027023744 0.025479592 0.015274167 0.00068428885
0.005382271 0.013339027 0.02360181 0.013985915 0.009739238 0.024587607 -0.008232732 -0.005695495
0.02624142 -0.015345617 -0.008396178 -0.0032823626 -0.006949897 -0.0009515499 0.018139485 0.0019956839
0.007690755 -0.0047488646 -0.0021974875 0.0129508525 0.005688526 -0.003909217 -0.006411327 -0.0010346104
0.0012034388 0.018032325 0.0034719624 -0.004922726 -0.0071399785 0.03448803 -0.010598308 0.007372946
-0.0064392127 -0.0054652304 -0.005192492 -0.008008406 0.02584362 0.03196729 0.00074971817 0.021943267
0.0023815138 -0.007961079 0.009772626 0.012587486 0.003548414 0.0061763637 0.014882288 -0.00013102937
0.004198799 0.0072628586 0.020083021 0.02614433 0.0002159248 -0.0067359987 0.03278418 0.004644081
0.013635552 0.011524234 -0.012431793 0.039358042 0.014154913 0.014240856 -0.006481416 -0.0030949006
0.013318517 0.027656987 0.00322231 -0.0073544676 0.0060519357 0.0038048495 0.02689999 0.019197755
-0.01311835 0.009083998 -0.00898142 0.007826141 -0.004315019 -0.015373672 0.026796892 0.009646948
0.01338289 -0.013911728 -0.008626217 -0.0069904467 0.012719004 -0.007177274 0.0058719004 0.008488083
0.010891121 0.029426811 -0.0059056054 -0.028649122 0.0005682936 0.01073976 0.041904103 -0.010600392
-0.0018413193 -0.0075102258 -0.01281808 -0.0041887155 0.012819459 -0.009127165 -0.01366199 0.009175724
0.0029493587 0.019519186 -0.008109951 0.0032127106 0.03280825 -0.0038591137 -0.0069262823 0.02264968
-0.0027983207 0.010990292 -0.00717243 -0.008307376 0.002912488 0.00067329896 0.0039435755 6.003961e-05
-0.007106842 -0.012779829 -0.006648216 -0.0012496151 -0.0018581371 0.005568031 -0.036422007 -0.0013740389
-0.003537704 -0.0018635931 -0.0022529156 -0.005449647 0.0025915618 -0.0004189776 0.027746942 -0.006224999
-0.0010221676 0.0006334607 -0.0061592683 0.0082784165 -0.0030960685 -0.021767182 -0.0018204512 -0.0035883503
0.017991442 -0.01176776 -0.008386239 0.006207063 -0.0068910704 0.0161501 -0.008160657 0.011409585
0.003846794 0.0053238133 0.001982051 -0.006520586 0.0052814847 -0.0011895081 -0.008797311 0.01208272
-0.011848825 -0.0043832567 -0.004026946 -0.002674863 0.0022064687 -0.0089553865 -0.0044050342 -0.011646113
-0.0024095892 -0.0013251717 -0.000844351 -0.0068171234 -0.0003160355 -0.003765871 -0.00745475 -0.008587022
-0.011065214 -0.016235065 -0.0117159495 -0.010373553 -0.025967658 -0.002522039 -0.0066899396 -0.009888611
0.018546361 -0.007960171 -0.014467807 -0.022125458 0.009305917 0.008863561 -0.018037578 0.014773252
0.008867453 -0.005082856 -0.009689932 -0.023672488 0.014034685 0.024694953 -0.0120030865 -0.0061567533
-0.003972817 0.0074663064 0.0028081837 -0.0018193265 -0.008601621 -0.0047950125 0.014721569 -0.010682828
-0.005367204 -0.0029161132 9.0795824e-05 0.006947373 -0.0034226002 0.018823275 0.01576932 -0.008339395
-0.006455954 -0.007374522 4.8809274e-05 0.0038044015 -0.01232564 0.028038632 -0.016643189 -0.0043446766
0.01626348 -0.013301537 0.006563851 -0.0050523705 -0.0013160419 -0.006361037 0.0012180135 -0.010351996

model.time_mlp.3.weight f4 [32, 256]
00000000: f75a ebbb d9f0 c43c c0e3 b7bc a9bf e53c
00000010: 5f26 bf3b b28b e9ba a510 0ebd a5b6 d13c
00000020: 38ee f43c 7858 ba3c 9d37 aebc 7353 3b3d
00000030: dfad 94bb af10 1bbc 0d8c 833d b1a5 903c
00000040: a3d8 30bc 526c 0d3c c1c5 c9bc d594 2c3d
00000050: b509 573c a14f a6bd a622 76bd ee98 c4bc
00000060: 2ad6 43bd baab 1fbd eff8 e33c e545 e63b
00000070: ed7f 4ebd 4972 eabc d54c 233c 2c2e 57bd
00000080: cce2 a2bc 2301 2e3d 3767 a3bc e5c8 4c3d
00000090: 2fa7 ba3c cc90 373d 2d2a d4b9 bf4a 063d
000000a0: e511 4cbd 8fa7 90bd 5f82 193d 05ad 323a
000000b0: 20bc 81bd c8d7 b53c 7cc5 a03b 5816 763d
000000c0: e67a c8bc cd24 bfbc e024 0bbd e139 bd3d
000000d0: 543a 4a3d 816d 25bd b73a aabc 8254 aebc
000000e0: 81cb 5c3d f96b ee3c b9ee 213d 4221 04bd
000000f0: 1e32 bdbc f3c5 4fbb 2746 b73c 76e9 c73c
00000100: db71 053d 4273 c5ba 311e e6bc 8c0f 16bd
00000110: dca6 81bd 06b1 4fbd dc83 5d3b 476f eb3b
00000120: 7a10 01bd 59dd 083b d69b 2c3b 6d11 99bb
00000130: 2e15 f0bb 24a7 393d 7a56 783c 89b2 23bc
00000140: 51cf d6bb 9090 07be 4fd4 273d 204b 7cbd
00000150: 63e0 89bc 5312 6fbc c16f 453c c7d7 f83c
00000160: 4768 97bd d112 67bd 51b2 a83c f12b 44b9
00000170: 7e95 2fbd 043d 7c3c eaab d7bb 1208 8dbd
00000180: 58e2 fc3c 96dc b5bc f8cd 2e3c 4afa 233c
00000190: 49c1 853c 6602 933d f7ca 183c 87ac d3bd
000001a0: e44c 2cbc de30 a23c 346c 353c 122f 8d3c
000001b0: 319b 863c bfee 1cbc d558 ac3c bef4 53bd
000001c0: 10e4 c03b b2eb 06bd 2d39 49bc d68b c03a
000001d0: 7589 7c3c 8f7b 4abd 319c 833b a02c 3ebc
000001e0: c188 c93b 7def 31bb 57c2 093a f9f7 7a3b
000001f0: 597c 423c 3635 523d d1c0 1a3d 03ff ce3b
00000200: f814 333d 9684 e53a 4d1d eebb 260b 12bd
00000210: 746c 08bd d5ba a2bb 3aee 093b 4ab2 2cbd
00000220: bd5d 283d 2027 43bd 857b 5c3d 1928 9ebc
00000230: 08b1 09bd 4409 fa3c 920d 883d 5a01 8b3d
00000240: f508 953b 98d9 a53c bcbd 86bb ca6d 07bd
00000250: 3145 203a 37b3 8dbc 9389 b93c 7275 433d
00000260: 0cd7 bebc 53d2 bcbb 902c 1a3d afe4 01bd
00000270: b59d a13c 7513 c53c 20e9 41bd dfdd 1f3c
00000280: 60db d33c c2f3 58ba 26f1 1dbc 6a0e a4bc
00000290: e6d6 583d 22e4 e23c 5a27 1dba 42cf d33a
000002a0: 0d5a 66bd a899 37bb f5e2 313d 1892 c63c
000002b0: 52ea 673c 60f5 e2bc b3a1 2a3d 21db 11bd
000002c0: e821 88bd 18ef 2fbd 209d 453c 4c4a 3dbc
000002d0: b267 91bc f3aa 123d 88a2 d93c 4659 88bb
000002e0: 6b37 87bc 50fe 1fba fd4b 943c f66d 083d
000002f0: 98bc 6d3a eafe 673c ebcf a73d 1eda 5d3d
00000300: 43cb 67bd 6b30 d0bc bd0b 1ebd 6bcd 9bbc
00000310: 5d65 56bc 2ba7 27bb 650a 323d 09df 723d
00000320: 629a 283d 587b 183c ecb7 073b 7850 143b
00000330: a041 853d 5836 ad3b 08d2 753c dd7b a43c
00000340: 9393 b8bd 661f 243a c41f 02bc cabb 36bd
00000350: c0cc 73bd 9465 88bc c6e7 a33d 41a4 85bd
00000360: 6aca 20bc 6b8f 003d 8e5e 4e3d 16b8 503c
00000370: 8557 05bd adc7 6fbc ae6b f23b 7569 ff3c
00000380: 0dfd 703b 09ac 52bc 5c3e 013d 203e 343d
00000390: 61ef 1a3c c440 573c 5d54 04bd 5dcb 3b3d
000003a0: 8a34 243c 882b 92bc dddf 41bc 711a 593c
000003b0: 47c6 aa3c a1f4 1dbd 5e2d ed3c abec c7bc
000003c0: 076f 49ba 1f43 0b3d 2980 b038 76f1 38bd
000003d0: f712 233c 7bce 9cbc 7ecf e63c afca 403d
000003e0: 1c26 e9ba bdd1 063d 5cfb bbbc d24d c83c
000003f0: 4554 883c a304 2c3d 5c88 2bbd 7267 263d
-0.0071824747 0.024040626 -0.022447467 0.028045492 0.0058334316 -0.0017818122 -0.034683842 0.025599787
0.029898748 0.022747263 -0.021266753 0.04573388 -0.0045373286 -0.009464427 0.06423197 0.017657133
-0.010793838 0.008631783 -0.02463043 0.042134125 0.013124873 -0.08120657 -0.060091637 -0.023998704
-0.047811665 -0.03898213 0.027828662 0.007027375 -0.05041497 -0.028618949 0.009967049 -0.052534267
-0.019883536 0.042481553 -0.019946678 0.049996275 0.022784797 0.044815823 -0.00040467214 0.032786127
-0.049821753 -0.07063209 0.037477847 0.0006815943 -0.0633471 0.02219762 0.0049063545 0.060079902
-0.024472665 -0.023332978 -0.033970714 0.09239555 0.049372032 -0.040387634 -0.02077995 -0.02128053
0.053905014 0.02910422 0.039534304 -0.03225828 -0.023095187 -0.003170368 0.022372318 0.024403315
0.032579284 -0.0015064257 -0.028090568 -0.03663592 -0.06330654 -0.050705932 0.0033800518 0.007184896
-0.031509854 0.0020883887 0.0026338003 -0.004671267 -0.0073267436 0.045325413 0.015157336 -0.009991297
-0.0065554758 -0.1323874 0.040973958 -0.061595082 -0.016830629 -0.014591771 0.01205057 0.030376328
-0.07392936 -0.05641443 0.02059284 -0.00018708386 -0.042867176 0.015395407 -0.006581773 -0.06886305
0.030869648 -0.02219991 0.010669224 0.010008404 0.016327517 0.07178192 0.009325734 -0.10335641
-0.010516379 0.019798692 0.011073161 0.017234359 0.016431423 -0.009578406 0.021038452 -0.051747076
0.005886562 -0.03293962 -0.012281698 0.0014690112 0.015413632 -0.04943424 0.004016422 -0.011607319
0.0061503355 -0.0027150803 0.0005255094 0.0038294776 0.011870467 0.051320277 0.03778154 0.006317021
0.04372117 0.0017510827 -0.0072666765 -0.035655163 -0.033306554 -0.00496612 0.0021046535 -0.042162217
0.04110502 -0.047644734 0.053828735 -0.01930623 -0.033616096 0.030521996 0.06643213 0.06787367
0.004548187 0.020245358 -0.0041119736 -0.033063687 0.0006113826 -0.01729737 0.022648608 0.047719426
-0.023295902 -0.0057623773 0.037640154 -0.03171223 0.01972852 0.02405713 -0.047341466 0.009757488
0.025861442 -0.0008276069 -0.009640014 -0.020026404 0.052939318 0.027696673 -0.00059949385 0.001615979
-0.056238223 -0.002801517 0.043429334 0.024239585 0.014154987 -0.027704895 0.041658115 -0.03560937
-0.06647092 -0.042952627 0.012061387 -0.011553358 -0.017749641 0.03580756 0.026566759 -0.004161033
-0.016505918 -0.0006103264 0.01810264 0.033307992 0.0009068935 0.014159897 0.08193954 0.05416309
-0.05659033 -0.025413712 -0.038585413 -0.01901885 -0.01308569 -0.0025581818 0.043466944 0.059294734
0.041162856 0.009306751 0.0020708991 0.002263097 0.065066576 0.0052860193 0.015003689 0.020078594
-0.090125225 0.0006260782 -0.007942144 -0.044612683 -0.059521437 -0.016649999 0.08003192 -0.065254696
-0.009813884 0.031386774 0.050383143 0.012739202 -0.03255417 -0.014635009 0.0073980903 0.031178216
0.0036771924 -0.012858399 0.03155361 0.04400456 0.009456486 0.013138 -0.032307018 0.04584824
0.010022292 -0.017843023 -0.011833158 0.013250933 0.0208465 -0.038563374 0.028952297 -0.024404844
-0.0007684086 0.03399956 8.416206e-05 -0.04515215 0.009953252 -0.019141426 0.028175112 0.047068294
-0.0017787847 0.032914866 -0.022947006 0.02445117 0.016641745 0.04199661 -0.04187809 0.040625997

model.time_mlp.3.bias f4 [32]
00000000: 6916 433c c746 d2bb bc7c 213c 1148 2bbc
00000010: 68f1 043c c0e2 343c 9223 323c f378 3bbc
00000020: 220d 03bc 41c8 1c3c 61ac 4a3b 1c04 223b
00000030: f4a9 073c 16d5 acba 35b2 a3bb 37aa 37bc
00000040: 13f1 433c f90a cb3b fb60 c7bb 3b3d 40bc
00000050: f593 f2bb 2028 193c 86fc b63b b0ec e23b
00000060: dc37 d33a ad73 843b 678c 3b3c a983 ba3b
00000070: 665f dbba 40bd 823b 11c1 3abc acda 36bc
0.0119071985 -0.0064171287 0.009856399 -0.010454194 0.008114196 0.01104039 0.010872738 -0.011442411
-0.007998737 0.009569229 0.00309255 0.0024721688 0.008280266 -0.0013186063 -0.004995609 -0.011210016
0.011959332 0.0061963764 -0.006084559 -0.0117333485 -0.0074028918 0.009347945 0.0055843024 0.006925188
0.001611467 0.00404211 0.011447049 0.0056919646 -0.0016736805 0.0039898455 -0.01139857 -0.011160534

model.layer.0.weight f4 [256, 55]
00000000: 0c48 373e b33d 53bd e4b1 3a3e 6853 3cbe
00000010: 283b 9cbd 5b70 15be d1d6 863c 2af0 d8bd
00000020: 5ae7 913d 39aa c23d 1c12 85bd a941 e43b
00000030: 9b65 d53c 2a2d 80bd 8300 ccbd 0e52 103d
00000040: ac3d 0ebd 4413 dfbc 2de4 9d3d 3c68 963d
00000050: b587 d6bc 61e1 45be c76e 3f3e 5718 ce3b
00000060: e40a 97bd 0648 03bd 8f2f 13be 5221 043c
00000070: 914e afbc 69e1 6abc c215 0d3c 2f06 44bb
00000080: 46ee e83d 524b c5bc 4fa3 953d 962e febc
00000090: 68da 92bd 1fbe 66bd ce67 8bbd 43b0 95bc
000000a0: c5b2 963c 6446 503d d45a cc3d ebf6 87bd
000000b0: d92f 373a 0731 003d 5f3f 89ba 0b23 673d
000000c0: 7e4b ab3b 7644 1fbd 69df 6fbc cecc b03c
000000d0: e434 05bd 8316 de3b f810 623a 9f73 123e
000000e0: cd18 ea3d 1c91 0b3d b30b 163d 309f d53b
000000f0: be3f 3c3e e6d7 133d 1e03 10be 221b 643c
00000100: 62a9 1e3c 07a5 453c d41d 363d fe96 19bd
00000110: 05af 98bd 8b8e 07be eb74 0f3d f861 c63d
00000120: 0062 ebbc e159 9a3b 449b 5f3d 6dd8 15be
00000130: 8e1a eb3c 6e8a 8c3c 1241 3d3d 114a 06be
00000140: ba01 ccbd a9e9 413d ce01 2b3c eb14 14bc
00000150: 056d 913d a17d 623d 97dc 97bd 3d48 aa3d
00000160: 683b a93b 3100 61bd 5986 6bbd 2e1c d13d
00000170: ab4d dbbd 301d 2dbc c725 6ebd 2051 b2bd
00000180: 0741 46bd 63b8 c3bc e6f6 9fbd 7e2d 47bd
00000190: eb96 303b dbea d1bd 428c 053d f1ac 85bd
000001a0: 4f14 a6bd 1331 69bd b51c 18bd b5e3 ccbc
000001b0: 8803 5a3c 0004 463d 9e4c f3bd a9f0 16bd
000001c0: 325a fe3d 5a95 cfbd 7825 28be f5d1 573e
000001d0: 3054 623d 81a4 693d 7dca 513d ac38 59bd
000001e0: 528a 663d 9699 9b3d 1567 353e 8ada 7fbd
000001f0: c7aa a2bd 5046 b3bc d1ee b7bd 6e9e 8d3d
00000200: 0b42 f2bc 27d8 4d3c f767 03bd 520f 46bd
00000210: ec28 053c f641 283d 3f68 083d f6ba c3bd
00000220: d5cb 813b fbf3 86bd f5cc 363e 4423 89bd
00000230: 05cc d2bd d9fd 033d c975 43bd d37d 4bbc
00000240: 11fa 9fbc d58d 013e a0ef f13c 100f 5abd
00000250: ef6e 383d 9852 3c3d 7ccf c5bc 31c1 22bd
00000260: d34b 933d 65cb e0bb b4e1 c7bd 2613 8f3d
00000270: 9136 713d 39dc 34bc cb9a 5abd dc42 c5bd
00000280: fb9c 6bbd 3362 2e3d 59d3 213d bf67 3e3d
00000290: dd0b e03d 58b9 27be 75e1 e3bb e6ff f13d
000002a0: e9c4 283e 5518 14bd c9f8 ecbc 00a2 a53d
000002b0: f6be 9dbd b907 7c3d 56a8 6d3d f358 41bd
000002c0: dda8 aa3d c10e 8f3c 1d48 91bd efae ac3d
000002d0: 9490 59bd c566 db3d 7590 c43a cc70 b33d
000002e0: 01b7 c03d aded f43c 0889 52bd 6c48 433d
000002f0: 2e8a d2bd 756a 2c3e b593 ec3d 02b9 4c3c
00000300: 326f 693e aa01 0ebd f6cd c93c abec f2bc
00000310: 87ff 793c 9959 d73d d11b 023e 2458 e9bd
00000320: ba89 763d bab4 cbbd 7ec2 023d a28e c43d
00000330: 2a3a 38bd 53f7 0a3d 5ed6 52bc 800d 6f3d
00000340: 8c56 3d3d de98 a03d d92c 9bbd 714e 1ebd
00000350: 1efb 0f3b ae93 2ebc 6fe6 3aba 047e ad3d
00000360: dc9d a7bc b27d 09bc e148 4bbd bb79 cbba
00000370: b209 2a3e 3bfc 04be c5bc fb3d 235c b5bd
00000380: dbf9 0c3e a299 22be 8b88 c13d e773 13bd
00000390: 9690 cd3d 9b1e 173d d6d3 db3d 4804 4d3d
000003a0: aebe 803c b65b 01bd 2fd4 623c c0e3 003d
000003b0: 08f1 093e 805d 8f3d a4a5 a93d c902 2d3d
000003c0: e71c ac3d ac45 c5bd dba1 a5bd a61f 04bd
000003d0: 34a0 3fbe d2d3 50bc 2c4f 03bd 0994 9c3d
000003e0: 005d 18bd ccc5 843c e121 1a3e 4230 afbd
000003f0: 2a98 1a3d 60a6 84bd d06a 08bd fef1 a83c
0.17898577 -0.051572513 0.18231922 -0.18391192 -0.07628471 -0.14593641 0.016459854 -0.10592683
0.07124205 0.09505124 -0.06497595 0.006965835 0.026049426 -0.06258614 -0.09961035 0.035234503
-0.034726784 -0.027230866 0.07709537 0.073441 -0.026187757 -0.19324256 0.18694602 0.0062895226
-0.07375124 -0.03205111 -0.14373611 0.008064585 -0.021399768 -0.0143359685 0.0086111445 -0.0029910912
0.11373572 -0.024083767 0.07306539 -0.031028073 -0.07170564 -0.056333657 -0.068069085 -0.018272525
0.01839579 0.05084838 0.099782616 -0.06638893 0.0006988026 0.031296756 -0.0010471157 0.056429904
0.005227505 -0.03888365 -0.0146406675 0.021582033 -0.032521144 0.006777586 0.00086237444 0.14301918
0.114305116 0.034073934 0.03663225 0.006519221 0.1838369 0.03609457 -0.14063689 0.013922485
0.009683939 0.012063271 0.04446204 -0.037497513 -0.07455257 -0.1323797 0.03502361 0.09686655
-0.028733253 0.0047104214 0.054591432 -0.14633341 0.028699186 0.017155852 0.046204634 -0.13114192
-0.09961267 0.047341976 0.010437442 -0.00903819 0.07100872 0.05529559 -0.07415121 0.083145596
0.0051645525 -0.054931823 -0.05750117 0.10210453 -0.10708173 -0.010566041 -0.058141496 -0.087068796
-0.04840186 -0.023891633 -0.07810764 -0.04862737 0.0026945423 -0.10249873 0.032604463 -0.065271266
-0.08109342 -0.056931566 -0.037136752 -0.025010923 0.013306506 0.04834366 -0.11879848 -0.036850605
0.12419547 -0.101359084 -0.16420543 0.21076186 0.05525607 0.05704165 0.0512185 -0.053032562
0.056284256 0.075976536 0.17715104 -0.062464274 -0.079427294 -0.021884114 -0.089810975 0.06914984
-0.029572507 0.012563742 -0.03208157 -0.048354454 0.008127432 0.04107853 0.03330254 -0.09557144
0.0039610662 -0.06589504 0.17851622 -0.066961795 -0.1029282 0.03222451 -0.04771975 -0.012420136
-0.01952842 0.12651761 0.029533207 -0.05323702 0.04502767 0.045977205 -0.024146788 -0.039735023
0.07192197 -0.006860184 -0.09759846 0.06986074 0.05888993 -0.011038833 -0.05337028 -0.09631893
-0.057522755 0.04257412 0.039508197 0.04648566 0.10939763 -0.16379297 -0.006954367 0.11816387
0.16481365 -0.036156017 -0.028927224 0.0808754 -0.077024385 0.061530802 0.058021866 -0.04720397
0.08332989 0.01746309 -0.07093833 0.084318034 -0.053116396 0.10712961 0.0014996665 0.08761749
0.09409905 0.029898489 -0.051400214 0.04767649 -0.10280262 0.16837485 0.115516104 0.012495281
0.22796324 -0.034669556 0.024634343 -0.029653868 0.015258676 0.10515136 0.12705924 -0.113937646
0.06018994 -0.0994658 0.031923763 0.095975175 -0.044977345 0.033927273 -0.012868492 0.058362484
0.046225116 0.07841657 -0.075769134 -0.038649026 0.0021969746 -0.010655327 -0.0007129674 0.08471301
-0.020461015 -0.0083917845 -0.04963005 -0.0015523949 0.16605261 -0.12986843 0.12291864 -0.08855464
0.13767187 -0.15878919 0.09449872 -0.035999205 0.10037343 0.036894422 0.10733764 0.05005291
0.015715923 -0.031581603 0.013844534 0.0314672 0.13470852 0.070002556 0.082835466 0.042238984
0.0840395 -0.096324295 -0.08087512 -0.032256745 -0.18713456 -0.012745814 -0.032057926 0.07645423
-0.037198067 0.016207598 0.15051986 -0.08554126 0.03774277 -0.06477046 -0.03330499 0.020623203

model.layer.0.bias f4 [256]
00000000: 1478 9a3c 93e0 843c 0245 6b3c 437e 803c
00000010: f661 423c 121c 213c bb31 b43c 74f4 c03b
00000020: e691 cb3b 0809 5fbb 0a39 043c 6c8a 333c
00000030: 11ac 873c df2b 953c e982 803c 3df9 543c
00000040: 4d0f 6f3c 68e9 763c 686d ce3c b735 3e3c
00000050: da23 263c e0c6 a83b e35a 633c 9cd2 4e3c
00000060: a786 753c b6e9 183c 166a 4d3c df88 673c
00000070: 6561 a63b 1123 563c 3dcb 333c 56e7 5c3c
00000080: addf 633c 2e81 893c a9f7 4c3c dbb1 7f3c
00000090: 4d56 923b 70b6 6e3c 6da3 3f3c a6e3 773c
000000a0: 4858 103b b007 44ba f37c c93c 862c 993c
000000b0: f3f3 b73c f28b 683c b219 b63b 4748 943c
000000c0: a5d3 383c e57a 323c dc57 1b3c f6cf 683c
000000d0: ece6 d33b cb8e 02bb 743d 003c dce3 173c
000000e0: bd50 e63b 34cc 3a3c 0027 943c 5855 7f3c
000000f0: 4d09 4c3a 1b08 493c e439 813b 15fb a738
00000100: 4da9 ab3c a70b 823c 976d fa3b 2ba6 413c
00000110: 261d 4c3c 01d2 293c b853 9d3c b763 10bb
00000120: 9ab9 9f3c e3ae 753c e885 d43b dda8 c0bb
00000130: b678 143c 1e07 a23c 8be1 903c c98e 8b3c
00000140: 60cb ea3a 9258 163c 622b f23b b1ed 283b
00000150: 8cc1 87bb 362a 953c 2fa0 ec3b 4de3 e53b
00000160: caa7 c43c e2b8 9f3c 5f60 583c 788c 443b
00000170: 9a78 9a3c b631 003c f492 a03c c4cd 093c
00000180: e406 0d3c 9c18 313c d3e0 833c ec51 723c
00000190: e69f 703c e183 993b 2789 a03c 771f 213c
000001a0: c10f b53c 1261 ab3c 4ff8 893c f7a6 1c3c
000001b0: 3ee6 833c 23f1 37bc 8d42 293c 1b03 633c
000001c0: 2725 8d3b de08 af3b d4e3 803c 3432 633c
000001d0: e373 853c b51f 663c 556f 2a3b 12db ca3b
000001e0: a4ad 8e3c b0af 113c b96f 603c 19c4 663c
000001f0: d9f0 9a3c b61f de3b ed13 8a3c a88f 613c
00000200: a7d4 313c 9bc5 bbbb c7dd b83c 84cd 933b
00000210: 2b79 453c c86f ed3b 4e06 213b d7f7 fe3b
00000220: 1d0a 903c d153 ac3c f057 983c 695f 5d3c
00000230: 6c62 513c 41ba 673c 4d3a 2f3c 10ee a0ba
00000240: 2096 883c 8a12 fc3b cab3 013c 48ce 6b3c
00000250: ca9e 963c 45c3 1a3c 5f2e a23c b92c 9a3c
00000260: 51c2 833b 80bb 983c 9230 7a3c ef60 2f3c
00000270: 12ad 5a3c da53 483c e5dc 1b3c a86e 863b
00000280: b55b 5c3c c055 653c 1326 6d3c a33d c33c
00000290: 5328 603c a9cc 05bc 5667 513c 95e1 623c
000002a0: dd8f 9f3c 7fbd 363c 8091 923c 6bc6 653c
000002b0: d8ad 0a3c 0793 7b3c 2b1d d93b c265 863c
000002c0: 511b aa3c e2cc c83b 3f7c 483c dbc7 f13b
000002d0: 38eb 643c 6cc1 253c 7e00 f8bb 8b29 253c
000002e0: 61ab 653c 0497 213c e3cf fb3b 0cab 7b3a
000002f0: 9cef 553c f517 2d3c 992e 85bc bdc2 463c
00000300: fb24 6b3a 86f0 5e3c 0b61 863c ffe7 8d3c
00000310: 8d68 6e3c e5a1 533c 1552 733c 893d 2b3c
00000320: 909d 073c f07f 653c 6b02 273c e4d1 573c
00000330: 5f8d 1c3c 37a1 863c 488c ee3b d2b5 2a3c
00000340: 418f 883c 97da 753c e816 803c 459f a83c
00000350: b832 053c 434c 113c a29c e0bb 983e 4c3c
00000360: f51c 893b 5276 473c af12 593c b4e4 183b
00000370: da1f 963c 9003 00bc 7fd9 8e3c b97b 883b
00000380: 1c58 9c3b 8363 993c 38af 953c 27f1 0a3c
00000390: 6de0 433c ce48 463c d08e 3d3c 38f7 963c
000003a0: 18a4 a83c efc5 843c f682 243c d54b 2a3c
000003b0: a8dd 363c 84d2 293c 9f93 fb3b b48a 4e3c
000003c0: eeff a53c e3d7 733c 47e1 fc3b 3211 2a3c
000003d0: 9a18 0e3c c9cf e0b9 63ba 213c d4a9 8e3c
000003e0: 8981 e53b 01fd 9c3c 0dbe 2e3c 9b29 4c3c
000003f0: 3c38 453c d66c 853c 9cd9 1d3c 5268 2d3c
0.018856086 0.016220367 0.014359714 0.015685206 0.011864176 0.009833353 0.02199637 0.005888516
0.006212461 -0.0034032483 0.00807024 0.010958295 0.01656154 0.018209396 0.015687423 0.012998876
0.01459105 0.015070297 0.025198653 0.011609486 0.010140384 0.005150661 0.01387665 0.012623455
0.014985717 0.009333065 0.0125375 0.014131754 0.0050775283 0.013069884 0.010973749 0.013482889
0.013908309 0.01678523 0.012510219 0.015606369 0.0044658543 0.014569864 0.011696679 0.015129959
0.0022025276 -0.0007477952 0.024595713 0.018697988 0.022455191 0.014193522 0.0055572623 0.01810087
0.011280929 0.010893558 0.0094813965 0.014209738 0.006466737 -0.0019921537 0.007827152 0.0092706345
0.0070286677 0.011401225 0.018085003 0.015584312 0.00077833683 0.012269999 0.0039436687 8.009948e-05
0.020954752 0.015874697 0.0076424587 0.011819403 0.012458121 0.01036501 0.01920496 -0.002203209
0.019497681 0.0149953095 0.0064856894 -0.005879505 0.009061983 0.019778784 0.017685672 0.017035859
0.0017913394 0.00917639 0.0073904255 0.002577644 -0.0041429456 0.018208604 0.007221244 0.0070156218
0.02400579 0.019497339 0.01320657 0.0029990952 0.018856335 0.007824352 0.019601323 0.008410875
0.0086076 0.01080909 0.016098415 0.0147900395 0.01468656 0.0046849106 0.01959665 0.009834162
0.022102239 0.02092031 0.016842036 0.009561292 0.016100999 -0.011226925 0.010330808 0.013855721
0.0043074074 0.005341633 0.015733637 0.01386695 0.01629061 0.0140456455 0.00260063 0.006190666
0.017416783 0.008891985 0.013698512 0.014084839 0.018913673 0.0067786826 0.016855204 0.0137671605
0.010853923 -0.0057303435 0.02256669 0.0045105834 0.0120528145 0.0072459914 0.0024570408 0.0077810097
0.017582947 0.02103606 0.01859662 0.013511517 0.012779813 0.0141435275 0.010695052 -0.0012277979
0.016673148 0.0076926397 0.0079164 0.014392443 0.018386263 0.00944597 0.019797502 0.018820154
0.004020967 0.018644094 0.015270369 0.010704263 0.013346927 0.012227023 0.009513115 0.0041025467
0.013449599 0.013997495 0.01447441 0.023833102 0.013681489 -0.008166471 0.012780985 0.013847728
0.019477779 0.011153578 0.017891645 0.014024357 0.008464299 0.015354878 0.0066257915 0.016405944
0.020764979 0.0061279396 0.012236654 0.007378561 0.013972096 0.010116916 -0.007568418 0.010080705
0.014017911 0.009862665 0.007684694 0.0009600378 0.013057616 0.010564794 -0.016257571 0.01213139
0.0008970049 0.01360715 0.016403696 0.017322538 0.014551294 0.012917017 0.014851113 0.010451683
0.008277312 0.014007553 0.010193448 0.0131726 0.00955519 0.016434295 0.0072799064 0.010419326
0.016669871 0.015005729 0.015635923 0.020583758 0.008129768 0.00886828 -0.0068546096 0.012466095
0.00418436 0.012174206 0.013249083 0.0023329677 0.018325735 -0.007813349 0.017437695 0.0041651395
0.0047712456 0.018724209 0.018272027 0.008480347 0.011955363 0.012102319 0.011569694 0.01842843
0.020586058 0.016207663 0.010040989 0.010394056 0.011161245 0.010365132 0.00767751 0.012606312
0.020263638 0.014883014 0.007717285 0.010380076 0.008672858 -0.0004287942 0.009871098 0.017414965
0.007003967 0.01916361 0.010665429 0.012461091 0.012037333 0.016287249 0.009634402 0.010583954
