results/qvpo_HalfCheetah-v3/actor_25_04_21_23_44_05_0.pth (torch, 667057 bytes, 24 tensors)

betas f4 [50]
00000000: 4f28 823b e992 013c 6ad0 413c 76e6 803c
00000010: 59c4 a03c fd81 c03c 851f e03c 109d ff3c
00000020: 5f7d 0f3d 581c 1f3d 84ab 2e3d f12a 3e3d
00000030: b09a 4d3d d1fa 5c3d 644b 6c3d 788c 7b3d
00000040: 0e5f 853d 31f0 8c3d ac79 943d 87fb 9b3d
00000050: c975 a33d 7be8 aa3d a353 b23d 4ab7 b93d
00000060: 7713 c13d 3268 c83d 82b5 cf3d 6efb d63d
00000070: ff39 de3d 3b71 e53d 2ba1 ec3d d5c9 f33d
00000080: 41eb fa3d bb02 013e 3d8c 043e 2c12 083e
00000090: 8a94 0b3e 5b13 0f3e a28e 123e 6406 163e
000000a0: a47a 193e 65eb 1c3e ab58 203e 7ac2 233e
000000b0: d428 273e be8b 2a3e 3aeb 2d3e 4d47 313e
000000c0: fa9f 343e 44f5 373e
0.0039720903 0.007908561 0.011829475 0.015734892 0.019624876 0.023499483 0.02735878 0.031202823
0.035031673 0.03884539 0.04264404 0.04642767 0.05019635 0.053950135 0.057689086 0.06141326
0.06512271 0.068817504 0.072497696 0.076163344 0.0798145 0.083451234 0.08707359 0.09068163
0.09427541 0.09785499 0.10142042 0.10497175 0.108509056 0.112032376 0.11554178 0.11903731
0.12251902 0.12598698 0.12944122 0.13288182 0.13630882 0.13972227 0.14312223 0.14650875
0.1498819 0.15324171 0.15658824 0.15992156 0.16324168 0.1665487 0.16984263 0.17312355
0.17639151 0.17964655

alphas_cumprod f4 [50]
00000000: affb 7e3f 72f7 7c3f 60f9 793f 720a 763f
00000010: 5836 713f 3e8b 6b3f 8719 653f 80f3 5d3f
00000020: 042d 563f 29db 4d3f db13 453f 7eed 3b3f
00000030: 937e 323f 58dd 283f 7c1f 1f3f c959 153f
00000040: e59f 0b3f 1704 023f 242e f13e a7cf de3e
00000050: 0f07 cd3e f3ea bb3e 1b8e ab3e 8bff 9b3e
00000060: 9a4a 8d3e 42ee 7e3e 5613 653e 7107 4d3e
00000070: 14c8 363e da4d 223e 1c8d 0f3e 2fed fc3d
00000080: 2ef0 dd3d 14fa c13d 47de a83d c26d 923d
00000090: 3ef0 7c3d e998 593d 4d74 3a3d 1a23 1f3d
000000a0: 0c49 073d a41b e53c 7c3b c13c 9154 a23c
000000b0: ced4 873c e06a 623c 4ff6 3b3c e66b 1b3c
000000c0: a701 003c 6405 d23b
0.9960279 0.9881507 0.9764614 0.9610969 0.94223547 0.9200934 0.89492077 0.86699677
0.8366244 0.80412537 0.7698342 0.7340926 0.69724387 0.65962744 0.62157416 0.58340126
0.54540855 0.5078749 0.47105515 0.435178 0.40044448 0.3670269 0.33506855 0.304684
0.2759598 0.24895576 0.22370657 0.2002237 0.17849761 0.1585001 0.14018673 0.12349927
0.10836826 0.09471527 0.08245521 0.07149841 0.06175255 0.053124342 0.04552107 0.038851835
0.033028647 0.027967282 0.023587935 0.019815715 0.016580965 0.013819426 0.011472299 0.009486174
0.007812894 0.006409334

alphas_cumprod_prev f4 [50]
00000000: 0000 803f affb 7e3f 72f7 7c3f 60f9 793f
00000010: 720a 763f 5836 713f 3e8b 6b3f 8719 653f
00000020: 80f3 5d3f 042d 563f 29db 4d3f db13 453f
00000030: 7eed 3b3f 937e 323f 58dd 283f 7c1f 1f3f
00000040: c959 153f e59f 0b3f 1704 023f 242e f13e
00000050: a7cf de3e 0f07 cd3e f3ea bb3e 1b8e ab3e
00000060: 8bff 9b3e 9a4a 8d3e 42ee 7e3e 5613 653e
00000070: 7107 4d3e 14c8 363e da4d 223e 1c8d 0f3e
00000080: 2fed fc3d 2ef0 dd3d 14fa c13d 47de a83d
00000090: c26d 923d 3ef0 7c3d e998 593d 4d74 3a3d
000000a0: 1a23 1f3d 0c49 073d a41b e53c 7c3b c13c
000000b0: 9154 a23c ced4 873c e06a 623c 4ff6 3b3c
000000c0: e66b 1b3c a701 003c
1.0 0.9960279 0.9881507 0.9764614 0.9610969 0.94223547 0.9200934 0.89492077
0.86699677 0.8366244 0.80412537 0.7698342 0.7340926 0.69724387 0.65962744 0.62157416
0.58340126 0.54540855 0.5078749 0.47105515 0.435178 0.40044448 0.3670269 0.33506855
0.304684 0.2759598 0.24895576 0.22370657 0.2002237 0.17849761 0.1585001 0.14018673
0.12349927 0.10836826 0.09471527 0.08245521 0.07149841 0.06175255 0.053124342 0.04552107
0.038851835 0.033028647 0.027967282 0.023587935 0.019815715 0.016580965 0.013819426 0.011472299
0.009486174 0.007812894

sqrt_alphas_cumprod f4 [50]
00000000: b77d 7f3f 917a 7e3f 18f8 7c3f 94f8 7a3f
00000010: 057f 783f 1d8f 753f 392d 723f 515e 6e3f
00000020: ed27 6a3f 1f90 653f 6b9d 603f b956 5b3f
00000030: 4dc3 553f abea 4f3f 91d4 493f dc88 433f
00000040: 810f 3d3f 7570 363f 9fb3 2f3f cee0 283f
00000050: a1ff 213f 8217 1b3f 952f 143f b04e 0d3f
00000060: 4a7b 063f fd76 ff3e f329 f23e f419 e53e
00000070: 9550 d83e 7bd6 cb3e 59b3 bf3e eeed b33e
00000080: 088c a83e 8492 9d3e 5805 933e 96e7 883e
00000090: f276 7e3e d504 6c3e 2c7a 5a3e dcd6 493e
000000a0: 7d19 3a3e 723f 2b3e 0845 1d3e 9125 103e
000000b0: 86db 033e 3bc1 f03d de5b db3d 1378 c73d
000000c0: 1e06 b53d 9df5 a33d
0.998012 0.9940577 0.9881606 0.9803555 0.97068816 0.959215 0.94600254 0.93112665
0.9146717 0.89673036 0.877402 0.85679203 0.8350113 0.8121745 0.78839976 0.76380706
0.7385178 0.71265346 0.68633455 0.65968025 0.63280684 0.60582745 0.57885104 0.5519819
0.52531874 0.49895468 0.4729763 0.44746363 0.4224898 0.39812073 0.3744152 0.35142463
0.32919335 0.30775845 0.28715014 0.26739186 0.24850062 0.23048718 0.21335667 0.19710869
0.18173786 0.16723421 0.15358365 0.1407683 0.1287671 0.11755606 0.10710882 0.09739699
0.088390574 0.080058314

sqrt_one_minus_alphas_cumprod f4 [50]
00000000: 1813 813d 11ef de3d e51a 1d3e f3f8 493e
00000010: 5a1c 763e 1cbb 903e 34f8 a53e 72b9 ba3e
00000020: faf2 ce3e 7d99 e23e 93a2 f53e 6e02 043f
00000030: 0edc 0c3f a85a 153f 577b 1d3f dc3b 253f
00000040: 999a 2c3f 9296 333f 6a2f 3a3f 5865 403f
00000050: 2939 463f 2fac 4b3f 3cc0 503f 9777 553f
00000060: f2d4 593f 57db 5d3f 248e 613f fcf0 643f
00000070: b607 683f 57d6 6a3f fd60 6d3f ddab 6f3f
00000080: 31bb 713f 2e93 733f fd37 753f b2ad 763f
00000090: 40f8 773f 781b 793f fe1a 7a3f 4afa 7a3f
000000a0: a1bc 7b3f 1265 7c3f 75f6 7c3f 6e73 7d3f
000000b0: 68de 7d3f 9739 7e3f fe86 7e3f 6bc8 7e3f
000000c0: 7cff 7e3f a42d 7f3f
0.0630247 0.10885442 0.1534229 0.19723873 0.24034253 0.28267753 0.32415926 0.3646961
0.4041975 0.44257727 0.47975597 0.5156621 0.55023277 0.58341455 0.61516327 0.64544463
0.674234 0.7015163 0.727286 0.7515464 0.7743097 0.79559606 0.81543326 0.83385605
0.85090554 0.8666281 0.88107514 0.8943021 0.90636766 0.91733307 0.9272612 0.9362162
0.94426256 0.95146453 0.95788556 0.9635879 0.96863174 0.9730754 0.97697437 0.9803816
0.983347 0.9859172 0.98813564 0.99004257 0.9916749 0.99306625 0.9942473 0.99524564
0.9960859 0.9967902

log_one_minus_alphas_cumprod f4 [50]
00000000: 1fe9 b0c0 84ef 8dc0 7cf1 6fc0 9fc9 4fc0
00000010: 047d 36c0 aeb8 21c0 d131 10c0 c91c 01c0
00000020: e5e5 e7bf 08ad d0bf bb06 bcbf ba8c a9bf
00000030: 1df0 98bf 8cf2 89bf a3c3 78bf 6829 60bf
00000040: b6d1 49bf 7d82 35bf fc09 23bf 183d 12bf
00000050: 0af6 02bf d126 eabe bbee d0be 1d0e babe
00000060: 3e54 a5be b194 92be aca6 81be 0dc9 64be
00000070: de56 49be 05b6 30be 3daa 1abe 3bfb 06be
00000080: efe8 eabd a9c9 cbbd 063d b0bd 58ed 97bd
00000090: f08a 82bd 2b97 5fbd ddd4 3ebd a34f 22bd
000000a0: eb91 09bd 685f e8bc 428c c3bc e2f5 a3bc
000000b0: 42f8 88bc 3dff 63bc 640c 3dbc ec29 1cbc
000000c0: 6f82 00bc 8ab2 d2bb
-5.528457 -4.4354877 -3.749114 -3.246681 -2.8513803 -2.526897 -2.2530406 -2.017382
-1.8117033 -1.6302805 -1.4689554 -1.3246071 -1.1948277 -1.0777144 -0.9717352 -0.8756318
-0.7883562 -0.70902234 -0.6368711 -0.5712447 -0.51156676 -0.4573274 -0.40807137 -0.36338893
-0.32290834 -0.28629068 -0.25322473 -0.2234232 -0.19662043 -0.17256935 -0.15104003 -0.13181774
-0.1147021 -0.09950573 -0.08605389 -0.074183166 -0.063741565 -0.054587524 -0.04658972 -0.03962673
-0.033586424 -0.028365806 -0.023870591 -0.020014707 -0.016719941 -0.013915834 -0.011538599 -0.009531479
-0.007843598 -0.006429975

sqrt_recip_alphas_cumprod f4 [50]
00000000: 4641 803f e1c3 803f 9a88 813f 9d90 823f
00000010: 7fdd 833f 4471 853f 634e 873f c777 893f
00000020: dff0 8b3f a4bd 8e3f 9fe2 913f fd64 953f
00000030: 954a 993f 029a 9d3f ac5a a23f e294 a73f
00000040: f451 ad3f 469c b33f 7a7f ba3f 8d08 c23f
00000050: ff45 ca3f 0248 d33f b020 dd3f 44e4 e73f
00000060: 5da9 f33f a744 0040 3750 0740 4407 0f40
00000070: a37b 1740 59c1 2040 e9ee 2a40 a91d 3640
00000080: 246a 4240 8ef4 4f40 42e1 5e40 5e59 6f40
00000090: b7c5 8040 1bd6 8a40 cdfb 9540 d358 a240
000000a0: ea13 b040 3159 bf40 045b d040 eb52 e340
000000b0: bd82 f840 f31a 0841 7b61 1541 b046 2441
000000c0: c803 3541 b4da 4741
1.001992 1.0059777 1.0119812 1.0200382 1.030197 1.0425191 1.0570797 1.0739678
1.0932883 1.1151624 1.1397284 1.1671444 1.1975886 1.2312624 1.2683921 1.309231
1.3540635 1.4032066 1.4570153 1.515886 1.5802611 1.650635 1.72756 1.8116536
1.903606 2.0041902 2.114271 2.2348185 2.3669212 2.511801 2.670832 2.8455603
3.0377283 3.2493014 3.4824986 3.7398295 4.024135 4.338636 4.6869874 5.073343
5.502431 5.9796376 6.5111103 7.103872 7.7659593 8.506579 9.336299 10.267258
11.313423 12.490894

sqrt_recipm1_alphas_cumprod f4 [50]
00000000: ba54 813d 3f44 e03d c8fc 1e3e 0d05 4e3e
00000010: eb8a 7d3e 7be2 963e 6971 af3e 3789 c83e
00000020: 4b41 e23e feb1 fc3e 87fa 0b3f fc12 1a3f
00000030: 1cb1 283f e7e4 373f a9bf 473f 4954 583f
00000040: 76b7 693f d3ff 7b3f 29a3 873f 3ad3 913f
00000050: 4d9f 9c3f 3518 a83f 9c50 b43f 415d c13f
00000060: 3f55 cf3f 5452 de3f 4371 ee3f 39d2 ff3f
00000070: 9c4c 0940 5377 1340 f07f 1e40 f47f 2a40
00000080: 1494 3740 b1dc 4540 537e 5540 46a2 6640
00000090: 4677 7940 2619 8740 b787 9240 7929 9f40
000000a0: 4425 ad40 57a7 bc40 2ee2 cd40 720f e140
000000b0: 1a71 f640 5c29 0741 7e85 1441 be7e 2341
000000c0: 674e 3441 7b36 4741
0.063149884 0.10950517 0.15526116 0.20119114 0.24760024 0.29469666 0.34266213 0.39167187
0.4419044 0.49354547 0.5467915 0.6018522 0.6589525 0.7183365 0.78026825 0.8450361
0.91295564 0.9843723 1.0596668 1.1392586 1.2236115 1.3132387 1.40871 1.5106584
1.619789 1.7368875 1.8628315 1.998603 2.1453009 2.304158 2.4765587 2.6640596
2.868413 3.091595 3.3358352 3.6036544 3.8979049 4.22182 4.5790668 4.9738126
5.410799 5.895427 6.43386 7.0331354 7.7013063 8.4475975 9.282591 10.218443
11.269141 12.450801

posterior_variance f4 [50]
00000000: 0000 0000 2abe 2d3b a221 c33b e0fb 1b3c
00000010: c28b 583c fd29 8b3c b66e aa3c 90f2 c93c
00000020: e4a0 e93c 23b6 043d 98a5 143d 489b 243d
00000030: 7994 343d de8e 443d 9288 543d d37f 643d
00000040: 1073 743d 6930 823d d323 8a3d 1b13 923d
00000050: 92fd 993d 95e2 a13d 80c1 a93d b399 b13d
00000060: 916a b93d 8933 c13d 07f4 c83d 7dab d03d
00000070: 7059 d83d 63fd df3d ec96 e73d a125 ef3d
00000080: 2ea9 f63d 4621 fe3d d8c6 023e 1c77 063e
00000090: 6021 0a3e 99c5 0d3e c463 113e e5fb 143e
000000a0: 078e 183e 381a 1c3e 8fa0 1f3e 2421 233e
000000b0: 119c 263e 7d11 2a3e 8381 2d3e 4eec 303e
000000c0: ff51 343e bdb2 373e
0.0 0.0026511052 0.005954937 0.009520501 0.013216915 0.016987795 0.020804744 0.024651796
0.028519101 0.03240026 0.036290735 0.04018715 0.044086907 0.04798781 0.051888056 0.055785965
0.059680045 0.0635689 0.06745114 0.0713255 0.07519068 0.07904545 0.0828886 0.08671894
0.09053529 0.09433658 0.098121695 0.10188959 0.10563934 0.109370016 0.11308083 0.11677099
0.12043987 0.1240869 0.12771165 0.13131374 0.13489294 0.13844909 0.14198214 0.14549215
0.14897929 0.15244377 0.15588592 0.15930611 0.16270472 0.16608234 0.16943936 0.17277643
0.17609404 0.17939277

posterior_log_variance_clipped f4 [50]
00000000: f134 38c2 53d9 bdc0 fff3 a3c0 17f0 94c0
00000010: b470 8ac0 8868 82c0 42d8 77c0 68fc 6cc0
00000020: dba8 63c0 627e 5bc0 813c 54c0 96b5 4dc0
00000030: 2cc8 47c0 115b 42c0 cb5a 3dc0 0ab8 38c0
00000040: 8666 34c0 425c 30c0 0791 2cc0 f9fd 28c0
00000050: 569d 25c0 346a 22c0 6260 1fc0 3d7c 1cc0
00000060: a0ba 19c0 c318 17c0 3994 14c0 da2a 12c0
00000070: b8da 0fc0 18a2 0dc0 6d7f 0bc0 4e71 09c0
00000080: 7376 07c0 b18d 05c0 f3b5 03c0 3dee 01c0
00000090: a435 00c0 9d16 fdbf e8dc f9bf afbc f6bf
000000a0: 91b4 f3bf 48c3 f0bf 9ee7 edbf 7220 ebbf
000000b0: bc6c e8bf 76cb e5bf ba3b e3bf a4bc e0bf
000000c0: 674d debf 3eed dbbf
-46.0517 -5.932779 -5.1235347 -4.654308 -4.3262577 -4.07526 -3.8725743 -3.7029057
-3.5571811 -3.4295888 -3.3161929 -3.2142081 -3.1215925 -3.0368083 -2.9586666 -2.8862329
-2.8187575 -2.755631 -2.6963518 -2.6405013 -2.587728 -2.5377321 -2.4902577 -2.445083
-2.4020157 -2.3608863 -2.3215468 -2.2838655 -2.2477245 -2.2130184 -2.1796525 -2.1475406
-2.1166046 -2.0867732 -2.0579803 -2.030166 -2.003274 -1.9772526 -1.952054 -1.9276332
-1.903948 -1.8809595 -1.8586309 -1.8369277 -1.8158183 -1.7952716 -1.7752602 -1.7557569
-1.7367371 -1.7181776

posterior_mean_coef1 f4 [50]
00000000: a0ff 7f3f b385 2a3f aec7 ff3e 31a2 cc3e
00000010: 8687 aa3e b128 923e ffbc 7f3e b042 633e
00000020: 9f72 4c3e bfbf 393e 2221 2a3e 31df 1c3e
00000030: b476 113e 4587 073e 1291 fd3d 2006 ee3d
00000040: 5a17 e03d 7f80 d33d dd0a c83d 2b8a bd3d
00000050: 2cda b33d fedc aa3d c979 a23d d39b 9a3d
00000060: b331 933d c62c 8c3d bb80 853d 5546 7e3d
00000070: c216 723d 1d64 663d 4a22 5b3d 4547 503d
00000080: ecca 453d b8a6 3b3d 8dd5 313d 8753 283d
00000090: c61d 1f3d 5432 163d f08f 0d3d f735 053d
000000a0: 7048 fa3c bdb5 ea3c a1b4 db3c 2d46 cd3c
000000b0: 846b bf3c c125 b23c be75 a53c 0b5c 993c
000000c0: c9d8 8d3c 9eeb 823c
0.9999943 0.6661026 0.4995703 0.39967492 0.3330652 0.2854667 0.2497444 0.22193408
0.199656 0.18139552 0.16614202 0.15319516 0.14205438 0.13235195 0.123811856 0.11622262
0.10941954 0.10327243 0.09767697 0.09254869 0.08781847 0.08342932 0.07933385 0.07549252
0.07187214 0.06844477 0.06518694 0.062078793 0.059103735 0.05624782 0.053499497 0.050849218
0.048289225 0.045813292 0.04341655 0.041095283 0.038846754 0.03666909 0.034561098 0.032522168
0.030552119 0.028651113 0.026819529 0.025057876 0.023366697 0.021746518 0.020197745 0.018720647
0.017315285 0.015981492

posterior_mean_coef2 f4 [50]
00000000: 0000 0000 d3f3 aa3e ff1a 003f caab 193f
00000010: cab5 2a3f 0fe0 363f d2fd 3f3f 8a12 473f
00000020: abb9 4c3f 3a56 513f 042a 553f 8e62 583f
00000030: 5120 5b3f fe7a 5d3f 6484 5f3f fd49 613f
00000040: 47d6 623f 8531 643f 3b62 653f b96d 663f
00000050: 4958 673f 7a25 683f 3ad8 683f 0673 693f
00000060: f5f7 693f d768 6a3f 3dc7 6a3f 7c14 6b3f
00000070: d251 6b3f 5480 6b3f 00a1 6b3f bab4 6b3f
00000080: 5fbc 6b3f b5b8 6b3f 7faa 6b3f 7092 6b3f
00000090: 3b71 6b3f 8247 6b3f ea15 6b3f 0ddd 6a3f
000000a0: 839d 6a3f dd57 6a3f a60c 6a3f 60bc 693f
000000b0: 8967 693f 9b0e 693f 04b2 683f 3252 683f
000000c0: 81ef 673f 4f8a 673f
0.0 0.33389148 0.5004119 0.60027754 0.6668364 0.71435636 0.74996674 0.77762663
0.79970807 0.81772196 0.83267236 0.8452538 0.85596186 0.86515796 0.8731139 0.8800352
0.8860821 0.8913806 0.8960301 0.90011173 0.9036909 0.90682185 0.90954936 0.91191137
0.9139398 0.9156622 0.91710263 0.9182813 0.9192172 0.9199269 0.9204254 0.9207264
0.92084306 0.92078716 0.9205703 0.9202032 0.9196965 0.9190599 0.91830313 0.91743547
0.91646594 0.9154032 0.9142555 0.9130306 0.9117361 0.9103791 0.9089663 0.9075042
0.9059983 0.9044542

model.time_mlp.1.weight f4 [256, 32]
00000000: 5d59 0bbd adb8 0c3e bbe7 353d 80df 56bd
00000010: 952c b1bc 4b37 a6bd afa5 99bd eb04 ebbd
00000020: 5641 5a3e 216d 5a3e a81d 033d 27ca 1abc
00000030: dd1c 293d 89d9 c43d ba55 23bd 76d3 a6bd
00000040: 0ccb cbbd 8428 e93c 6f06 b7bc 1347 173d
00000050: c833 17be b854 4d3d 6ebb 46be ed91 ffbd
00000060: 1fd3 a73d 9a12 febb d798 6ebe 2ad3 b63c
00000070: 64c0 96bd 3ee8 89bd b1f1 84bc b966 023e
00000080: 0666 7bbd 7e56 4dbd 64f8 873d 191e f93d
00000090: 1e06 fabd 93cd cebb 8d7e ee3b 4acd 5d3d
000000a0: 50e8 e83d abcf 33be 085f 85bd cbd6 4b3c
000000b0: 8bd0 023e 3896 9cbd 087c 88bd 27fe e5bd
000000c0: 7168 a23d 2eb0 eb3d 7d14 72bb 9dde 13be
000000d0: 130c f7bd 80f0 63bc 16ae b4bc 86d2 5c3d
000000e0: a766 82bd 5483 9a3d 8638 643d a6e0 03bd
000000f0: cb55 323c ac48 2fbd 0948 4ebe b696 80bd
00000100: e0d2 f53d 47ca 1a3c 48fb 303d 1efb aabe
00000110: 74d5 87bd 9a6c 74bd b688 4cbd f320 7bbd
00000120: a590 edbc d1dd cf3c a9e0 24be 2ff7 3dbe
00000130: e172 4fbd da19 013e f0f0 bd3d 2a53 35bc
00000140: 6f4a f93d 047b 053e f178 383e 22bb bf3d
00000150: 0ac9 123d ddea 8a3e da2d 7a3d 156e 73bc
00000160: 8546 8bbd b09f 683d d6f1 b0bd 807c 26bd
00000170: 912a 3ebe 3fff 9ebd 4eca f5bd a547 9f3c
00000180: 6c68 1b3d 468e 013e 9e90 06be ae2e d2bc
00000190: b639 82ba 1362 5dbd 4487 933d adc7 2e3e
000001a0: 08c9 07bd 3743 2cbd 9d4d a63d 856e 31be
000001b0: c009 fdbc 1d0c 3bbd 0a6c f93c 069f a03d
000001c0: 35b5 45bd 829c 4cbe 6d73 99bd f1aa 4fbe
000001d0: 6f39 aebd 8d1d 34bc 9e3e ab3d 2bcd 043e
000001e0: fbac 39be 95f3 843d 9794 04be 792b 34be
000001f0: c990 9d3d 3a9b 59bd eafe c73c 83c7 643d
00000200: 6ce4 b13d 01ed 8dbd a394 623d 2fa7 a2bd
00000210: 96a3 373d 12d9 a4bd 4b14 a0bd 7ef0 86bd
00000220: cf9e 35bd 2e4c f8bc c3f1 9cbd 2ab2 883d
00000230: 98b0 ab3d 7b17 123c 51db 47bd 81f9 c6bd
00000240: 7eab 383d d88d 193d b1ce 33bd f01d db3d
00000250: 3828 ccbd 1c96 28bc 71c4 ce3c db6e a23d
00000260: 301a 8f3d fcd2 d2bd 3a4d 273e 7d48 07be
00000270: f480 2d3d b9fa ad3d 4a79 8abb 67c8 423d
00000280: 391e 27bd 420c 03bd e2ec ddbc c96f 19bd
00000290: e837 1f3d dcf7 40bd 14ed 73bd 6891 3f3e
000002a0: 3854 28bd f3b5 52bd 3b9f a13d 92ea 84bd
000002b0: 985b e7bd 0617 24bb ca2e 793b 3180 d239
000002c0: de2f 8e3d 82f1 b43d 3050 dbbc d45a 54bc
000002d0: cf97 aabd 6a69 92bb e821 88bd 939d 8a3d
000002e0: 13e9 0c3d b2e0 503d 4185 b63d 0d5d 60bd
000002f0: ffa1 f63c be32 c43d 70ca 9e3d 3975 d53c
00000300: 442b ca3d 8ca6 3d3d 28d7 4cbe 208b 12bd
00000310: 6fff a03d c718 3d3d 5f34 963c ad38 64be
00000320: 8448 103c c3dd 11bd f6d6 23bd 20b3 5f3c
00000330: 8a15 f33d 239e ff3d fc35 33bd 0222 233e
00000340: fe53 a2bc 415d bcbd 796a ec3c 27f7 20bd
00000350: 60f6 1e3d c45c f63d 1dfd a738 940d b3bd
00000360: fb85 d4bd a614 bc3d e596 bbbd 7a6c b8bc
00000370: 4737 2abd bfcc fb3c c163 813d 480e 39be
00000380: c689 31bd 519e 06bd 66e5 96bb c5d8 b63d
00000390: 5e70 6e3c 1123 d7bd 70c0 71bd 08bc fcbd
000003a0: e3cf 76bc f243 edbc d838 0ebd 24db 11bd
000003b0: 99b5 68bd 0e35 b63d fefd c1bd 0f20 233e
000003c0: 8adf 68bd 4ca4 acba f385 093e ff4c 423c
000003d0: e2ee 98bd c489 28be 7bb2 c13d 2ad1 27bd
000003e0: 117e 4cbd f9bf 203d 1239 51bd 6c18 e43d
000003f0: 237d f13c b494 b23d 7d67 913d be33 a1bd
-0.03402077 0.13742323 0.04441045 -0.05245924 -0.021627704 -0.08116015 -0.07502305 -0.114755474
0.21313986 0.21330692 0.032010704 -0.009447611 0.04128729 0.09611804 -0.039876677 -0.08145802
-0.099508375 0.028461702 -0.022341935 0.036933016 -0.14765847 0.050129622 -0.19407436 -0.12479005
0.08194565 -0.0077536823 -0.23300491 0.022317488 -0.07360914 -0.0673375 -0.016228529 0.12734498
-0.061376594 -0.050131314 0.066391736 0.12163944 -0.12208198 -0.0063111275 0.0072782696 0.054150857
0.11372435 -0.17559688 -0.065122664 0.012441347 0.12774865 -0.076458395 -0.06664282 -0.11230116
0.07930077 0.11508213 -0.0036938481 -0.14440389 -0.1206285 -0.01391232 -0.022055667 0.05391171
-0.06367236 0.0754458 0.055717967 -0.032196663 0.010884712 -0.042793915 -0.20144667 -0.06278746
0.12003112 0.009447641 0.04320839 -0.33394712 -0.0663251 -0.059673883 -0.049935065 -0.06131072
-0.028999636 0.025374325 -0.16101326 -0.18551324 -0.050646666 0.12607518 0.09274471 -0.011067191
0.121724 0.13035208 0.18014885 0.093618646 0.035836257 0.2713231 0.061078884 -0.014857789
-0.0680056 0.056792915 -0.086398765 -0.040646076 -0.18570925 -0.07763528 -0.12001477 0.019443342
0.03794138 0.1265193 -0.13141105 -0.025657024 -0.0009935412 -0.05404861 0.07203534 0.17068358
-0.033150703 -0.04205629 0.08120272 -0.17327316 -0.030888438 -0.04566585 0.030447025 0.07842831
-0.048268516 -0.19981578 -0.07492719 -0.20280053 -0.08507048 -0.010993374 0.08361553 0.1296889
-0.18132393 0.06491772 -0.12947308 -0.17594709 0.07693631 -0.05312655 0.024413545 0.05585433
0.08686146 -0.069299705 0.055317532 -0.07942044 0.044833742 -0.080492154 -0.078163706 -0.06588839
-0.044340905 -0.030309763 -0.076633 0.06674607 0.08383292 0.008916731 -0.04879314 -0.09715558
0.045085423 0.03748879 -0.04389829 0.106990695 -0.099686086 -0.010289695 0.025240155 0.079313
0.06987417 -0.10294148 0.16338053 -0.13211246 0.042359307 0.08495087 -0.0042258846 0.0475544
-0.040800307 -0.03199411 -0.027090494 -0.037460122 0.038871676 -0.047111377 -0.059552267 0.18707812
-0.041095942 -0.05144305 0.07891699 -0.06490053 -0.11296767 -0.0025038137 0.0038022273 0.0004014983
0.06942724 0.088351265 -0.026771635 -0.012961108 -0.083297364 -0.0044681327 -0.06647092 0.06768336
0.034401964 0.050995536 0.08912135 -0.05477624 0.030106543 0.09579991 0.07753456 0.026056873
0.098715335 0.04630141 -0.2000395 -0.03577721 0.0786122 0.046166208 0.01833552 -0.22287245
0.008806352 -0.03561188 -0.039999925 0.013653547 0.118693426 0.12481334 -0.043752655 0.15930942
-0.019815441 -0.09197474 0.028859364 -0.039298203 0.03880918 0.120294124 8.0103266e-05 -0.08742824
-0.10377117 0.09183626 -0.0915964 -0.022512663 -0.041556623 0.030737279 0.06317855 -0.18071854
-0.04334428 -0.032865826 -0.004604983 0.08928064 0.014553158 -0.10504735 -0.059021413 -0.123405516
-0.0150642125 -0.028963063 -0.03472218 -0.03560938 -0.05681381 0.08896838 -0.09472273 0.15930198
-0.05685381 -0.0013171523 0.13430004 0.011859178 -0.07467438 -0.16458803 0.094578706 -0.04097096
-0.049924914 0.03924558 -0.051079817 0.111374706 0.029478615 0.08719769 0.07099817 -0.07871197

model.time_mlp.1.bias f4 [256]
00000000: fa68 aa3b e656 51bc d05f 473d a278 503c
00000010: 0eca dcba abb3 89bc c2f0 1db9 e992 00bb
00000020: 87fa 233d 1276 0a3c 8f8b 55bc 035d 1d3a
00000030: 6b76 0abb 6f4b 54bb 69b5 3dbc eab0 83bb
00000040: 7089 fabb 25de 963a fb6c bbbb b068 99bb
00000050: 815a ea3c f9b3 cb3c 179e 823c d5fe e938
00000060: 72d3 d73b f08a 4a3c decc c43c 6b7d 493c
00000070: 1a30 133c f6ce b83c 508d 17bc 3d2b d2bb
00000080: 970e d63c 47be 81bc 85e7 12bc d0a5 65bb
00000090: ba28 e6bb 5272 17bb 13c1 983c dc28 ac3a
000000a0: cf31 103c 64a2 62bb a665 30bb 8159 533c
000000b0: 8d9d a63b 5af0 3bbb e724 b3bb d765 dcb9
000000c0: 774a 973a e311 8b3c c251 e43a 857a c4bb
000000d0: a521 0cbc 266e 103d bf6a 3fbc 9850 c83b
000000e0: a155 e7bb 2fd1 bebb 0b58 a5bb cd08 e4bb
000000f0: eee5 db3c 9e55 013d 9c9a b1b9 8bff ac3c
00000100: b68d 173b 5039 babb 38a6 1c3c dade 593c
00000110: 6348 913b 01ad b73b ce7a 5d3c 1fdf 5eba
00000120: d4cd aa3b 8abe e53b b6ad b03c 4ea0 df3c
00000130: 2534 48ba 7b4f 03bc 9a3e 0a3d 890d a43b
00000140: 5ced 603c 6573 523c 070b 57bc 50bd 243d
00000150: 4b02 703c 6c8f 803c a0c7 f8bb 09f8 56bb
00000160: 2db7 673c e535 e83c 7457 dab9 448e edbb
00000170: 65e5 a03b d22e 873b 862e d63c cd53 9b3c
00000180: 3061 63bc f601 153c b3b3 903a 02ad d43b
00000190: 0bb5 88bb 43c9 6fbc 93ef ce3c 5b4a 0f3c
000001a0: d0f6 563c da7f 70bc b9f8 1bbc 8a34 febb
000001b0: 4d2c 443c 8128 e0bb c0ab 053c 5a3b 093c
000001c0: bff9 353c a28f f23c 4ba9 babb 2aaa ecbc
000001d0: ee31 c6b9 28a9 3c3c e619 2c3d 6cca 19bc
000001e0: a0cd 473a 770f d7bb 26f9 59bc 4f72 8ebb
000001f0: 7527 633c b5a7 20bc 255a 63bc 4582 533c
00000200: 29db b23b 2a4b a33c 3b84 11bc fd6e 6aba
00000210: 691c 0b3d 8fcb a4bb 45e4 c4bb ca93 bc3c
00000220: 7d6d e9ba 32d7 583c 445a f4bb 4dfd d9bb
00000230: 7b78 6d3b 8b07 003b 84d1 803b c3a9 4239
00000240: 8515 03bc 1660 5dbc 4863 b2bb 9429 c1ba
00000250: 5a73 2dbb 3a59 db3b 4a36 16bd f167 34ba
00000260: 2f18 8f39 80c3 ebba b264 46bb 823e a5bb
00000270: 7396 373b 73dd ba39 dd2d eb3c 279e d8bb
00000280: 4ff8 5bb8 de83 853a cbe9 e4bb 9ffb 003c
00000290: 38c0 37bb c969 a6bc b03b 22bb 32e7 97bb
000002a0: 5afd 883c 0591 46bc 54d3 0fbc 3a34 9f3b
000002b0: 702b ddbb 9228 853c 3809 0fbc 2700 443c
000002c0: 14e4 d13a 9a83 383b bba7 0a3b b5c5 d9bb
000002d0: fae5 d03b 897d 5bbb 9ed6 02bc 8114 4f3c
000002e0: be15 45bc 51ad 4ebb f3a5 62bb 6643 54bb
000002f0: 49ca ee3a 7e77 10bc 2981 d7bb d099 5bbc
00000300: bdf6 2dbb 1c1e 75bb e77b 1dbb 0117 d8bb
00000310: 68b5 34ba f318 32bb 18df febb 4bdd 30bc
00000320: 16e8 3dbc 46d4 9ebc 3976 3abc 7572 3bbc
00000330: c0e3 e9bc 85f8 2fbb b9c8 d6bb 1d70 1abc
00000340: 5176 9a3c 4979 993b 7a55 9dbc 4888 d5bc
00000350: 74fa 333c 57c1 3f3c a697 96bc ccd0 593c
00000360: 6859 233c 1c42 a1bb 987b 28bc 4216 c0bc
00000370: db2b 6a3c 3b5f b03c 0c3d 60bc fb94 c1bb
00000380: ae48 6dbb 837c 973b 4aca 4b3a 0512 8eba
00000390: 10ff 07bc 0f9f 94bb b37b 673c b1e6 13bc
000003a0: 1085 c4bb ae76 8fbb 796c 823a 5517 f83b
000003b0: 58c6 80bb b294 a83c 9c00 7a3c f3d9 0ebc
000003c0: fd28 febb 060f ecbb c1dc 93ba 3802 1b3b
000003d0: fdb1 3dbc d824 ef3c fd70 88bc f2be 90bb
000003e0: caa0 3c3c 1541 52bc 1f2b cd3b 695a 02bc
000003f0: 9cbf 91ba 9ba2 f1bb d3f8 c53a 6588 1cbc
0.0052005025 -0.012777066 0.04867536 0.012724074 -0.0016844885 -0.016809305 -0.00015062376 -0.0019618815
0.040033843 0.008451002 -0.013033762 0.00060029345 -0.0021127712 -0.0032393595 -0.011578896 -0.0040188925
-0.0076457784 0.0011510296 -0.0057197786 -0.004681669 0.028607609 0.024866091 0.015944524 0.00011157772
0.0065864855 0.012362227 0.02402347 0.012297968 0.008983636 0.022559624 -0.00925 -0.006413846
0.026130004 -0.015837802 -0.008966331 -0.003504146 -0.007023898 -0.0023108912 0.018646752 0.0013134736
0.008800938 -0.0034581656 -0.0026916056 0.012899757 0.0050846995 -0.0028677196 -0.0054670456 -0.00042037547
0.0011542578 0.016976302 0.0017419385 -0.005996051 -0.008552943 0.035261296 -0.011683165 0.006113123
-0.0070597683 -0.0058232765 -0.005045896 -0.006959057 0.026843037 0.03157579 -0.00033875264 0.021117946
0.0023125238 -0.0056831017 0.009561114 0.013297761 0.004433678 0.0056053405 0.013518048 -0.00085018756
0.005212525 0.0070112394 0.021567207 0.027298119 -0.00076371647 -0.008014555 0.033751108 0.0050064963
0.013728466 0.012844895 -0.013125188 0.040219605 0.014648984 0.015693389 -0.0075921565 -0.003280165
0.014142794 0.028346011 -0.00041645358 -0.0072496254 0.0049101585 0.0041254545 0.026145231 0.018960858
-0.013878152 0.009094706 0.0011039883 0.0064903507 -0.0041719726 -0.014635387 0.025260722 0.008745755
0.013120368 -0.01467892 -0.009519749 -0.007757728 0.011973453 -0.006840766 0.008158624 0.008375967
0.011106907 0.029609505 -0.005696451 -0.028889734 -0.00037802703 0.011514939 0.042016886 -0.00938664
0.0007621888 -0.006563123 -0.0133040305 -0.0043471227 0.013864388 -0.0098056095 -0.013876473 0.012909477
0.005458255 0.019933302 -0.008881624 -0.000894293 0.03396264 -0.005029149 -0.006008657 0.02301969
-0.0017809119 0.0132349 -0.0074570496 -0.0066525103 0.0036235142 0.0019535746 0.003931226 0.00018564523
-0.008000736 -0.013511678 -0.005443964 -0.0014737123 -0.002646646 0.0066939862 -0.036672868 -0.00068819436
0.00027293104 -0.0017987341 -0.0030272421 -0.005042852 0.0028013259 0.00035641677 0.028708393 -0.00661065
-5.2444924e-05 0.0010186394 -0.006985878 0.007872491 -0.0028038155 -0.020314114 -0.0024754815 -0.004635715
0.01672237 -0.012119536 -0.008778412 0.004858521 -0.006749563 0.016254697 -0.008730225 0.011962927
0.0016013407 0.0028154613 0.0021157104 -0.006645883 0.0063750716 -0.0033491573 -0.007985739 0.012639166
-0.0120291095 -0.003153641 -0.0034583777 -0.0032388805 0.0018218245 -0.008817552 -0.0065766764 -0.013403371
-0.0026544773 -0.003740198 -0.002403015 -0.006594539 -0.0006893487 -0.0027175515 -0.0077780597 -0.010794948
-0.011590978 -0.01938833 -0.011380726 -0.011440863 -0.028550982 -0.002685101 -0.0065546897 -0.009426144
0.018855246 0.004683648 -0.019205797 -0.02606596 0.010985006 0.011703811 -0.018382858 0.01329441
0.009970047 -0.004921211 -0.010283373 -0.023448113 0.0142926825 0.021529784 -0.01368643 -0.0059076524
-0.003620665 0.0046229973 0.0007773979 -0.001083911 -0.008300558 -0.004535563 0.014128613 -0.009027169
-0.0059973076 -0.0043781614 0.000995054 0.007571141 -0.0039298944 0.020578716 0.015258934 -0.008718955
-0.007756351 -0.0072039394 -0.0011281 0.0023652446 -0.01157808 0.029192373 -0.01665544 -0.0044172937
0.0115129445 -0.0128329 0.006261244 -0.007956126 -0.0011119726 -0.0073741204 0.0015104063 -0.009554003

model.time_mlp.3.weight f4 [32, 256]
00000000: 3efd e4bb 7103 e83c 76eb c5bc 3709 e53c
00000010: e051 c13b 6337 c8ba a612 0ebd 45a9 d63c
00000020: ea3b ef3c 3c27 073d bdb7 b1bc 6526 2d3d
00000030: 7edf 8bbb 31c2 31bc 39a0 843d 1ea8 913c
00000040: 50c6 5fbc dabb 073c 9a63 ccbc 8841 3a3d
00000050: 3bc5 313c e422 a6bd ab39 6dbd f510 e7bc
00000060: 3001 3bbd b021 35bd 90d2 da3c bee4 fc3b
00000070: 8551 50bd 575e c7bc 705a 003c 8e67 5abd
00000080: eaea b8bc 41b5 353d efe7 98bc 0993 4e3d
00000090: 2c73 d43c c319 393d 619e 86ba 49e4 f13c
000000a0: 16c2 45bd daab 85bd 2b15 123d 4849 a6ba
000000b0: 8587 8dbd 535c a53c 00f3 0d3c f2f3 723d
000000c0: cf78 bfbc 186b d2bc def3 09bd 28d0 b13d
000000d0: c6a3 493d b747 3abd f18e 8ebc a1ae d3bc
000000e0: c0dc 6e3d 3f68 ec3c fb02 233d 8764 06bd
000000f0: 1ed7 c5bc 517b 5abb 9846 b83c 4363 913c
00000100: 7e93 f83c a696 6cbb 1162 02bd 0e82 1cbd
00000110: fcad 89bd 41a4 49bd ed06 613b 900a fb3b
00000120: f654 09bd fa33 843a baac 173a 3ce9 a9bb
00000130: 22b9 1abc adb4 2a3d 1f66 7f3c 4b79 debb
00000140: e150 fdbb a8d3 0bbe ae57 243d 396b 81bd
00000150: af74 b4bc 852f 91bc fb7a 173c 8922 e13c
00000160: 551e a2bd c82e 71bd e12c a03c 0cb8 46bb
00000170: c452 22bd c4af 803c 2741 c7bb af1c 9bbd
00000180: 104b 043d 76c0 a7bc 1238 a33b 627c 293c
00000190: bee7 7c3c 80e8 8f3d c8b0 143c 43e0 d2bd
000001a0: 4eec 90bc 9ab5 aa3c 682d 5a3c 6a91 a33c
000001b0: fef9 8b3c 8e87 87bc 9755 b33c f8b9 56bd
000001c0: 74c4 db3b 640a 08bd 0229 33bc 5868 29bb
000001d0: 0c7b 913c a124 46bd baa8 f73a 8161 3cbc
000001e0: 646a 0b3c 0a0d 6dbb 76a6 84bb ef16 643b
000001f0: 2cdb 0b3c fb43 5c3d b972 1f3d c2d2 c13b
00000200: 8e71 383d 1612 35bb 8afa 57bc 8834 0ebd
00000210: 9808 12bd 4ded 63bb 9cf5 e53a d220 28bd
00000220: 634f 293d b585 42bd 5cae 603d 42ec a1bc
00000230: 8fb7 0abd f7c8 053d 816f 8d3d 0d6d 873d
00000240: 1518 e73b 8b24 de3c 3a62 ccbb a3ce 13bd
00000250: 6eaa 513b 18ad 98bc 7fa9 9c3c 91ab 323d
00000260: f774 c7bc dbba 00bc da58 223d a716 f0bc
00000270: d708 a93c 349e d33c a7dd 4cbd 1738 f43b
00000280: f33c fb3c 20c5 57b9 f43b 1abc 6065 8abc
00000290: 0f2d 503d 8ef5 fa3c e209 96ba 510a 7f3b
000002a0: 9fdd 5bbd 0607 af3a 3b71 353d 574c cc3c
000002b0: bebc 643c fc3e f3bc c830 223d 6b2c 18bd
000002c0: 71d1 8abd 302f 37bd e699 043c 1298 69bc
000002d0: 394d b8bc 4053 0f3d 7401 ed3c 24dd 25bb
000002e0: e677 57bc aa30 d9ba 3422 523c c82f 0f3d
000002f0: e714 24bb cdb4 953c d390 a63d 8361 563d
00000300: 772e 6cbd f9d4 cbbc 302d 26bd 4bbe 89bc
00000310: e973 4bbc 525e 98bb d1cd 283d 0a10 713d
00000320: cca7 2b3d 47ec 403c bb62 9cba d322 0e3a
00000330: e914 833d a29f a73b e2b5 9b3c aabf ad3c
00000340: 019d c3bd 3aeb b139 ed55 f6bb 7e76 2dbd
00000350: ca1d 6ebd ac8b 67bc 1aa3 a83d e00d 83bd
00000360: 4941 21bc 6e51 ff3c 976b 503d 67b5 813c
00000370: 14cf 14bd ce71 3ebc 608d 543c fcf1 013d
00000380: 0af6 813b da77 2fbc a44b 0b3d 92b1 4e3d
00000390: f518 503c 1b9b 503c afbd 1abd de24 3f3d
000003a0: ca99 713c 0e63 81bc 90d6 9fbc 052b 623c
000003b0: 8fc0 8e3c e0f7 2fbd 5bd3 d33c 1c77 c5bc
000003c0: b339 bcb9 0c10 0d3d 01a7 91b9 7e3e 4fbd
000003d0: cf59 7a3c 0f55 97bc 858d fb3c 69e7 563d
000003e0: e991 44ba 9039 1b3d b1f2 d6bc 4404 b33c
000003f0: cf59 9f3c 81f8 313d b46a 32bd 9fa5 263d
-0.0069881966 0.028321953 -0.024160128 0.027958496 0.005899653 -0.0015275296 -0.034685753 0.02620376
0.029203374 0.0329964 -0.021694059 0.042272944 -0.0042685857 -0.0108495215 0.064758725 0.01778036
-0.013658121 0.008284533 -0.024949837 0.04547265 0.010850246 -0.081121236 -0.057916325 -0.028206328
-0.04565543 -0.04422158 0.026711732 0.007717698 -0.050858993 -0.024336977 0.007834062 -0.053321414
-0.022572953 0.04436231 -0.018665282 0.050433192 0.025933824 0.045190584 -0.0010270589 0.0295278
-0.048280798 -0.06526919 0.03566472 -0.0012686634 -0.06910614 0.020185625 0.008663893 0.059314676
-0.023373036 -0.025685832 -0.033679835 0.08682281 0.049228452 -0.04547855 -0.017402144 -0.025840105
0.058315992 0.028858302 0.039797764 -0.032810714 -0.024150427 -0.0033337662 0.0224946 0.017747527
0.030343767 -0.0036100536 -0.031831805 -0.038209967 -0.06722638 -0.04922891 0.0034336403 0.0076611713
-0.03352829 0.0010086291 0.0005785931 -0.0051852744 -0.009443553 0.041676212 0.015588312 -0.0067893616
-0.007730589 -0.13654959 0.04012268 -0.06319279 -0.022028295 -0.017722854 0.009245629 0.027482288
-0.079159416 -0.058882505 0.01955265 -0.0030322103 -0.039629713 0.015708812 -0.006080765 -0.0757383
0.032298148 -0.020477515 0.0049810493 0.010344597 0.015436111 0.07026768 0.009075351 -0.10296681
-0.017690804 0.020838547 0.01331649 0.0199668 0.017086979 -0.01654413 0.021891398 -0.052423447
0.0067067686 -0.033213034 -0.01093507 -0.0025849547 0.017758869 -0.048374776 0.0018894889 -0.011497856
0.008509252 -0.0036171102 -0.004048164 0.0034803709 0.008536141 0.05377577 0.038927767 0.005915017
0.04503017 -0.0027629188 -0.013182292 -0.034718066 -0.035652727 -0.0034778893 0.0017544511 -0.041046925
0.041335475 -0.047490794 0.054853782 -0.019765977 -0.03386646 0.032662358 0.06906033 0.06612597
0.0070524313 0.027117034 -0.0062372955 -0.036085736 0.0031992453 -0.018637225 0.01912379 0.04362065
-0.024347765 -0.00785705 0.039635517 -0.029307676 0.020634098 0.025832273 -0.05001607 0.0074529755
0.030668711 -0.00020577433 -0.009413708 -0.016894042 0.05082422 0.030634668 -0.0011447037 0.0038916061
-0.05367815 0.0013353534 0.044297438 0.024938745 0.013961015 -0.02969312 0.039597303 -0.037151735
-0.06778229 -0.044722736 0.008093333 -0.014257448 -0.02249776 0.034991503 0.028931357 -0.0025308812
-0.013151145 -0.0016570289 0.0128255375 0.034957677 -0.0025036873 0.01827469 0.08133092 0.05233909
-0.0576615 -0.024881827 -0.040570438 -0.016814372 -0.012417772 -0.0046499157 0.041211907 0.058853187
0.04190807 0.011775083 -0.001193128 0.00054220593 0.06400473 0.0051154653 0.019007627 0.021209557
-0.095514305 0.00033935328 -0.0075175674 -0.04234933 -0.058133878 -0.014132421 0.08234234 -0.06399131
-0.009842225 0.031166758 0.050883856 0.01583357 -0.036330298 -0.011623813 0.01297316 0.031724915
0.0039660977 -0.010709727 0.034007683 0.050462313 0.012701263 0.0127322925 -0.037778553 0.04666602
0.014746139 -0.015794303 -0.019511491 0.013804202 0.017425803 -0.042961 0.025857618 -0.024104647
-0.00035901144 0.03443913 -0.00027780983 -0.050596707 0.015280201 -0.018473176 0.03070713 0.052466784
-0.0007498549 0.037896693 -0.026238771 0.02185262 0.019452004 0.043449882 -0.04355879 0.040685292

model.time_mlp.3.bias f4 [32]
00000000: 3c00 393c 2cbd dcbb ffb5 103c 387c 0dbc
00000010: 6624 033c aa9a 463c 8031 203c 9860 37bc
00000020: 475e d5bb 99bc 153c eed0 283b 53b8 7238
00000030: 8ef4 0f3c 80e3 21ba 0fc4 6bbb 8767 26bc
00000040: 5d5d 473c 7688 d03b 5c9f a7bb 8ced 39bc
00000050: d3ac f6bb 8d6c 0e3c 2004 de3b eb43 043c
00000060: 3c8a 053b 4b13 a73b c886 333c c48e cf3b
00000070: 952d 29bb c985 933b a84d 1bbc 173f 47bc
0.01129156 -0.006736418 0.008832454 -0.008635573 0.0080042835 0.012121836 0.009777427 -0.011192463
-0.006511483 0.0091392035 0.0025759297 5.786896e-05 0.008786334 -0.0006175563 -0.0035975014 -0.010156519
0.012168256 0.0063639237 -0.0051154327 -0.0113481395 -0.0075279265 0.008692873 0.006775394 0.0080728335
0.0020376584 0.0050987354 0.010957427 0.0063341577 -0.0025814523 0.0045020324 -0.009478964 -0.012161038

model.layer.0.weight f4 [256, 55]
00000000: 15f6 383e dcae 4cbd 2a37 393e 5ebc 3abe
00000010: 96d1 9abd 39c8 14be e73f 833c 846d d9bd
00000020: 5fd8 8f3d 7a6c c23d f215 85bd ec44 043c
00000030: c127 d43c ff71 7ebd 46dd cbbd fc90 103d
00000040: 1748 10bd 358b e6bc 37cc 9f3d f595 953d
00000050: 28c5 c6bc 6dda 46be cf5e 3f3e 993a 0f3c
00000060: bb30 97bd d31f fbbc ef98 12be 9635 113c
00000070: 8c07 aebc d042 69bc a126 1d3d 0e31 77bb
00000080: 723f e93d eb45 ccbc a186 923d 3cd0 fabc
00000090: 0898 91bd cc7f 67bd db9f 91bd b1fe a2bc
000000a0: d5c0 903c 0e05 5a3d 01ee c13d 878b 8bbd
000000b0: 45a7 e5bb 5c17 083d 457a 803a e6af 5d3d
000000c0: ef3e a43b 0835 27bd 992a 52bc b80d ad3c
000000d0: 3d0d 04bd 8687 ab3b ae14 68ba 45ce 113e
000000e0: 3f88 e33d c02f 423d 2aca 083d c0f6 3a3b
000000f0: 1f53 3c3e 9a1b 0f3d 4b92 0dbe 1345 533c
00000100: 3648 3f3c 96de 273c ba76 303d 37c1 1ebd
00000110: 5a2d 96bd 6a68 05be be68 083d 80b2 c33d
00000120: 9cf3 fcbc e324 563b e070 5b3d 0a1c 12be
00000130: 1d91 f43c 4e71 853c 3754 353d 355b 04be
00000140: 738e c7bd 540c 443d 06f4 133c 4b95 32bc
00000150: b51a 8e3d af59 853d 2e87 9dbd 102d a63d
00000160: 82a7 933b 3656 62bd 6e77 6ebd 00f8 d43d
00000170: c825 d8bd 099e 3fbc 5892 76bd 8f37 b4bd
00000180: 9893 26bd 9b9a adbc bf18 97bd 51d5 3dbd
00000190: 3fef 963b f527 dbbd 84e3 053d d26b 86bd
000001a0: ad57 a5bd 2053 63bd cfc9 23bd 8c7a d7bc
000001b0: 9faa 7e3c 6932 373d 8d4c fbbd 3b2a 20bd
000001c0: 4f59 033e fdeb cebd 9c45 28be 1b7e 573e
000001d0: 816f 6d3d 788c 633d 8697 5b3d 971e 66bd
000001e0: e152 743d e4bf a03d 5f0d 383e d416 85bd
000001f0: 1e2c a8bd fc4e 99bc dd8b b3bd 1a43 8f3d
00000200: 2201 d4bc 408b 563c 809c febc 7236 51bd
00000210: 7133 3c3c 3ea6 343d 08cf 023d 48c6 c7bd
00000220: 3597 533a a95f 81bd 5d9d 393e 459a 82bd
00000230: f485 c0bd baf1 0c3d 5698 36bd d160 1cbc
00000240: f316 bcbc 50e6 053e 7dce e23c 580a 65bd
00000250: 9cf3 1e3d 370a 583d df88 d6bc af8e 12bd
00000260: 913a 8f3d d764 88bb 4b76 d2bd fe22 913d
00000270: 5dd7 7e3d 1373 7ebb 877a 4bbd 7e1f cfbd
00000280: dcdc 5abd 44fe 1c3d 06a8 2c3d 5485 403d
00000290: 6d56 e53d 1a0a 24be 3294 e6bb e5ea ee3d
000002a0: a4fb 293e 1d46 1dbd 5f53 03bd 4280 a93d
000002b0: 30fe 9dbd 8c15 813d 1c5b 653d 8534 3cbd
000002c0: 6ba6 ac3d 8b22 973c 7f96 92bd d275 aa3d
000002d0: 6fb9 57bd 4ccb d93d f560 073a 24b1 b63d
000002e0: 9aee c83d 19e8 ed3c 1de4 59bd 1f73 493d
000002f0: 7095 cdbd fb34 2b3e e09c ea3d 4029 393c
00000300: b2fa 6a3e 9ba6 0abd 3435 d33c b128 4ebc
00000310: 8727 8d3c fcd8 d73d 7911 033e a2be f0bd
00000320: b242 813d 18c0 cebd cabe 023d 1947 cd3d
00000330: 906b 46bd 191e 243d 6731 abbc f6fd 653d
00000340: 43d0 303d 74f8 8f3d f902 9cbd c8ca 38bd
00000350: c191 153b 8e0f ebbb 2ac9 ac39 6913 ac3d
00000360: 4067 a1bc 8524 f0bb 25a4 54bd c127 88bb
00000370: 19c8 303e cda9 02be 69d3 f63d 2169 afbd
00000380: c119 1a3e 65a8 20be ce95 c43d 168d 15bd
00000390: 4d66 d03d 16ea 113d 71af dd3d e426 533d
000003a0: f29f 843c 016f 04bd 3122 573c 1083 043d
000003b0: 2b74 093e 70d5 923d a6e4 aa3d f577 3b3d
000003c0: 86f2 ae3d 5854 c9bd 3116 a3bd 9190 f6bc
000003d0: 41e3 3fbe 2bf9 5cbc 07ff 08bd 2772 9e3d
000003e0: 1c89 12bd 1a78 863c 7e4d 2f3e a845 acbd
000003f0: 24c0 1e3d 989e 80bd 196e 17bd ee9c b73c
0.18062623 -0.049971446 0.1808745 -0.18235919 -0.075595066 -0.14529504 0.016021682 -0.106165916
0.070236914 0.094933465 -0.06498326 0.008073073 0.025897862 -0.062120434 -0.09954314 0.035294518
-0.035225 -0.028142551 0.07802623 0.07303993 -0.024263933 -0.1941926 0.1868851 0.008741998
-0.073823415 -0.030654823 -0.14316152 0.008862874 -0.021243833 -0.014237121 0.038366918 -0.0037718448
0.11389054 -0.024935683 0.07154585 -0.030616872 -0.07109076 -0.05651836 -0.07110568 -0.019896837
0.017670074 0.053227477 0.09469224 -0.06813722 -0.0070084655 0.033225402 0.0009802064 0.054122828
0.005012385 -0.04082206 -0.012827539 0.021124706 -0.032239188 0.0052346615 -0.0008853179 0.14238842
0.11109971 0.04740882 0.033395924 0.0028528422 0.18391083 0.034938432 -0.13825338 0.012894887
0.011674931 0.01024594 0.043081976 -0.038758483 -0.07332869 -0.13028112 0.033303015 0.095555305
-0.03087788 0.0032675795 0.053574443 -0.14268509 0.029854352 0.01628938 0.044269767 -0.12925418
-0.09743967 0.04786332 0.009030348 -0.010899852 0.06938688 0.065112464 -0.07691799 0.08114064
0.0045060525 -0.055258 -0.058219366 0.10398865 -0.10554081 -0.011695393 -0.060198158 -0.087996595
-0.0406681 -0.021191886 -0.07377767 -0.046346013 0.004606157 -0.107009806 0.03268768 -0.06563534
-0.080733635 -0.055499196 -0.03998738 -0.026303552 0.015543609 0.04472581 -0.1227046 -0.039102774
0.12827037 -0.10103605 -0.16432804 0.21044199 0.057967667 0.055553883 0.0536113 -0.056181516
0.059649352 0.078491 0.1797385 -0.06498495 -0.0821154 -0.01871442 -0.08766911 0.069952205
-0.025879446 0.013094723 -0.031080484 -0.051077314 0.011486874 0.044103853 0.03193572 -0.09754616
0.0008071543 -0.06317074 0.18126436 -0.06377081 -0.094005495 0.034410216 -0.044578873 -0.009544567
-0.022960162 0.13076138 0.027686352 -0.055918068 0.038806543 0.052744117 -0.026188312 -0.035780605
0.069935925 -0.0041624117 -0.10276469 0.07086752 0.062217105 -0.0038825914 -0.049677398 -0.101134285
-0.053433284 0.038328424 0.042152427 0.04700215 0.11198125 -0.16019478 -0.007036709 0.11665896
0.165999 -0.038396943 -0.03206193 0.08276416 -0.07714498 0.06302938 0.05599509 -0.045948524
0.08430179 0.018449089 -0.07157611 0.08323254 -0.052667078 0.10634479 0.0005164289 0.08920506
0.09811135 0.029041337 -0.05319606 0.049182054 -0.100382686 0.16719429 0.11455703 0.011301339
0.22947195 -0.033850294 0.025782205 -0.012582944 0.017230762 0.10539433 0.12799634 -0.1175511
0.06311549 -0.10095233 0.031920232 0.100233264 -0.048442423 0.040067766 -0.02089758 0.0561504
0.043167364 0.070298105 -0.076177545 -0.045115262 0.0022822472 -0.007173485 0.00032956275 0.0840214
-0.019702554 -0.007328572 -0.051914353 -0.0041551297 0.17263831 -0.12760086 0.12052042 -0.085649736
0.15048887 -0.15689237 0.095988855 -0.036511503 0.10175762 0.035623632 0.108244784 0.05155076
0.01618955 -0.032332424 0.01313071 0.032351553 0.13423221 0.07169616 0.083443925 0.045768697
0.085423514 -0.098305404 -0.07963217 -0.030098232 -0.18739034 -0.013487141 -0.033446338 0.077366166
-0.03577529 0.01641469 0.17119405 -0.084117234 0.03875746 -0.06280249 -0.03697023 0.022413697

model.layer.0.bias f4 [256]
00000000: bae0 9a3c 17e2 5a3c 64a7 8f3c 9df6 6f3c
00000010: 53a7 273c 57fb cb3b 3e5c b23c 1cae f53b
00000020: d1ce c63b 5ace 60bb 9586 083c ce47 413c
00000030: 5ad4 8a3c 0c9e 8d3c bb74 6d3c 647b 513c
00000040: 1476 673c 6508 4f3c d769 c83c f67d 503c
00000050: 66fe ee3b d54e 0a3c c4d7 543c 6af8 4e3c
00000060: 5ce7 783c cc74 073c c6b4 283c 0f3d 833c
00000070: 6c62 673b 84b5 513c 1fea 633c af1a 413c
00000080: 006f 653c 7f0a 973c 8e83 633c 28d2 7f3c
00000090: 9582 733b dd9e 5e3c f215 543c fd9f 673c
000000a0: 9d41 953b 34d4 c33a 2abc c53c 9ab7 933c
000000b0: f15c ab3c a9a8 803c 7840 db3b 880c 903c
000000c0: ac59 473c ab85 523c e96d 193c 8c1c 653c
000000d0: 34f4 0e3c be88 4ebb 9ad5 c73b f16e 223c
000000e0: 88da 243c 7977 303c 1f9b a23c 9042 713c
000000f0: 95b6 333b 2bdd 613c cfb3 aa3b 7ce7 2d3b
00000100: 529f a73c 7ff6 743c cc94 9b3b 3f43 3b3c
00000110: 3148 373c d9b1 033c 59fc 9d3c c017 fcba
00000120: 535e a53c f37a 693c 1d4f 0b3c 579a c2bb
00000130: 158f 213c ce64 963c 86dd 8f3c 2e24 933c
00000140: 4c97 003b 12ab 083c b998 163c e868 563b
00000150: 0aee 063b 7583 8d3c ace6 183c ba35 073c
00000160: 5452 c13c 6570 ac3c f3e0 503c 1a46 e93a
00000170: e691 903c 66e5 0f3c ace4 a93c 7577 ff3b
00000180: a570 263c 1579 353c 7ec7 7c3c fab5 5f3c
00000190: 2242 813c 4bd7 d83b e6d4 a43c 115d 2c3c
000001a0: f92c ad3c 9afe 9b3c 2425 8c3c 93e3 573c
000001b0: 6d76 813c e09f 2bbc fe7a 1f3c 98bb 463c
000001c0: 38fa 0c3b 5935 a43b 06ee 583c 03a0 6f3c
000001d0: 02d3 7c3c 02e1 4f3c 766f 333b 5384 cd3b
000001e0: ebf4 913c 44a7 013c cecd 2e3c 7f26 7e3c
000001f0: eb7e 943c 52a9 0b3c fa80 853c faf8 423c
00000200: 6252 4c3c 48d4 41bb 22f8 be3c 9c03 c43b
00000210: 04e9 313c 127e f33b 4b04 b73b 2140 863b
00000220: 303b 783c 66c3 ac3c f4b8 823c 2462 713c
00000230: d195 5a3c 3642 4e3c f81a 2b3c b995 2aba
00000240: aafb 8c3c e68a 053b 1083 103c 45e1 723c
00000250: 7a7b 993c 9ba5 133c 0fcd 9a3c 3d7a 9e3c
00000260: b300 3d3b 2ad2 953c 06ac 833c 52ef 2c3c
00000270: 1b65 6d3c 3413 4c3c 0595 0b3c cde2 113b
00000280: 0476 733c a401 613c 40b6 673c 1f24 c93c
00000290: 16d1 6e3c c6cd d2bb bc8f 6b3c 7046 783c
000002a0: 48c3 a43c 7734 243c 28ab 903c 0fd6 803c
000002b0: 80d4 133c f464 8b3c 7256 7d3b 9339 873c
000002c0: 48f8 a03c 9bc5 a93b c862 503c c1d8 013c
000002d0: f460 5a3c 8fae 003c e8b9 d6bb 4007 2a3c
000002e0: 1afb 763c 6bef 3d3c 29a2 153c 082a 8b3a
000002f0: 6a74 6e3c 9712 4e3c cb77 66bc 01f5 553c
00000300: 236b 203b 400e 603c c650 7f3c a4ae 7b3c
00000310: 4643 873c 8dd4 303c f6b8 8c3c 69bf 393c
00000320: 7eb0 f93b d7fe 733c d6a1 343c 5e20 783c
00000330: a2de 0d3c 2033 813c 4911 eb3b 106b fd3b
00000340: a90c 813c f22b 7a3c 7d87 823c f1bd 9f3c
00000350: 7a88 3e3c bfd9 da3b 9225 a2bb f24e 3b3c
00000360: 116e de3b 9290 483c e7db 573c 42af 4c3b
00000370: 22ce 993c 95a0 d2bb a7d5 823c b383 8d3b
00000380: 1c12 d13b d3cf a03c dc44 913c 7c1e 053c
00000390: e601 453c 2672 403c 75b5 513c 39f8 923c
000003a0: b79e af3c 14e1 913c 2a81 123c 0f48 423c
000003b0: a64d 253c 184c 4f3c b4b2 9d3b 7592 343c
000003c0: aec5 aa3c 4989 5e3c a349 073c 2a47 1e3c
000003d0: 844f ff3b 9b6b 5fbb a3f8 163c d272 8b3c
000003e0: c34f ec3b 41d6 9f3c 51bf 1e3c bc3d 403c
000003f0: 142e 323c 1dfb 853c 882a 253c 1d0a 013c
0.018905986 0.013359568 0.017535873 0.0146461995 0.010232764 0.0062250304 0.0217725 0.007497562
0.006067135 -0.0034302683 0.008332868 0.011796905 0.01694696 0.017287277 0.014493163 0.012785766
0.014127273 0.012636279 0.02446453 0.012725344 0.0072935103 0.008441647 0.012990896 0.012632469
0.015191879 0.008267593 0.010297006 0.016020326 0.0035306467 0.012799624 0.013910799 0.011786147
0.014003515 0.018437622 0.013886346 0.01561407 0.003715669 0.013587681 0.012944685 0.014137265
0.004554941 0.0014940561 0.024137575 0.018031884 0.020918341 0.015705423 0.006691035 0.0175841
0.012167376 0.012849252 0.0093645835 0.013983857 0.008725215 -0.003151461 0.0060984613 0.009914146
0.010061868 0.010770672 0.019849358 0.014725342 0.002742206 0.013785641 0.005209423 0.002653568
0.020461712 0.014951347 0.0047479626 0.011429607 0.011186645 0.008038008 0.019285368 -0.0019233152
0.020186579 0.014250505 0.008502749 -0.005938809 0.009860774 0.018358614 0.017561685 0.017961588
0.001962143 0.008341568 0.009191685 0.0032716338 0.002058866 0.017274598 0.00933234 0.0082525555
0.023598827 0.021049688 0.012748945 0.0017797381 0.017647695 0.00878272 0.020738922 0.007796223
0.0101586925 0.0110762315 0.015428422 0.013654226 0.015778605 0.006617462 0.02012105 0.010520236
0.021139609 0.019042302 0.017107554 0.0131768165 0.01580354 -0.010475129 0.0097339135 0.012129687
0.0021511447 0.0050112423 0.013240343 0.014625552 0.015431168 0.012687923 0.0027379668 0.006271878
0.017816981 0.007913414 0.010669185 0.015512108 0.018126925 0.008524256 0.016296852 0.011900181
0.0124708135 -0.0029575992 0.023311678 0.0059818756 0.010858778 0.0074308002 0.0055852286 0.004097
0.01515083 0.021089267 0.015957333 0.014732871 0.013341383 0.012589028 0.010443442 -0.0006507296
0.017209847 0.002037698 0.00882031 0.014824216 0.018735636 0.009011651 0.018896608 0.019345397
0.0028839528 0.01828869 0.016073238 0.010555105 0.014489437 0.01245575 0.008519416 0.0022260428
0.01485968 0.013733301 0.014142573 0.024553357 0.014576217 -0.0064332215 0.014377531 0.015153512
0.020112649 0.010022274 0.017659739 0.015727071 0.009022832 0.017015912 0.0038656262 0.016506946
0.01964964 0.005181027 0.012718864 0.007925213 0.0133287795 0.007854118 -0.0065529235 0.010377705
0.015074516 0.011592726 0.0091329 0.0010617385 0.014554122 0.012577674 -0.014066647 0.013058902
0.002447792 0.013675272 0.015583223 0.015361462 0.01651157 0.010792864 0.01717804 0.01133714
0.0076199165 0.0148923015 0.011024913 0.015144436 0.008659037 0.015771449 0.0071736914 0.00773371
0.015753107 0.015269266 0.015933746 0.01949975 0.011629218 0.0066787894 -0.0049483264 0.011432396
0.0067880233 0.0122414995 0.013174987 0.0031232391 0.01877505 -0.0064278343 0.015971018 0.0043186783
0.0063803326 0.019630348 0.01773303 0.008124944 0.012024378 0.011745965 0.01279961 0.017940627
0.021437986 0.01780752 0.008941928 0.011858 0.010089314 0.0126524195 0.004812563 0.011021246
0.020846214 0.013582536 0.008257302 0.0096605215 0.0077914614 -0.0034091237 0.009214553 0.017022524
0.007211657 0.019511344 0.009689168 0.011733469 0.010875244 0.016355092 0.010080941 0.007875946
