results/qvpo_HalfCheetah-v3/actor_25_04_15_17_18_51_0.pth (torch, 665521 bytes, 24 tensors)

betas f4 [20]
0	0x3c02f3e7	0.007992721
1	0x3ca47451	0.020074995
2	0x3d041c9e	0.032253854
3	0x3d370356	0.044680916
4	0x3d6b9a52	0.05752022
5	0x3d915208	0.07095724
6	0x3dae82cf	0.085210435
7	0x3dcdeb70	0.10054672
8	0x3df03ce1	0.11730362
9	0x3e0b2f27	0.13592206
10	0x3e20c3d8	0.15699708
11	0x3e39b63c	0.18135923
12	0x3e5741b1	0.21021153
13	0x3e7b42ad	0.24537154
14	0x3e9456d6	0.289725
15	0x3eb23f0b	0.34813723
16	0x3edbdec4	0.42943394
17	0x3f0d0fe4	0.5510237
18	0x3f3f9c21	0.7484761
19	0x3f7fbe77	0.999

alphas_cumprod f4 [20]
0	0x3f7df430	0.99200726
1	0x3f78db11	0.9720927
2	0x3f70d444	0.9407389
3	0x3f661197	0.8987059
4	0x3f58d5ca	0.84701216
5	0x3f4972f7	0.7869105
6	0x3f384895	0.7198575
7	0x3f25c121	0.64747816
8	0x3f124f92	0.57152665
9	0x3efcd911	0.4938436
10	0x3ed526ca	0.41631156
11	0x3eae7e99	0.3408096
12	0x3e89d053	0.2691675
13	0x3e4fff13	0.20312147
14	0x3e13bc11	0.1442721
15	0x3dc09afc	0.09404561
16	0x3d5bc9c8	0.05365923
17	0x3cc55c01	0.024091722
18	0x3bc68ffb	0.0060596443
19	0x36cb5347	6.059566e-06

alphas_cumprod_prev f4 [20]
0	0x3f800000	1.0
1	0x3f7df430	0.99200726
2	0x3f78db11	0.9720927
3	0x3f70d444	0.9407389
4	0x3f661197	0.8987059
5	0x3f58d5ca	0.84701216
6	0x3f4972f7	0.7869105
7	0x3f384895	0.7198575
8	0x3f25c121	0.64747816
9	0x3f124f92	0.57152665
10	0x3efcd911	0.4938436
11	0x3ed526ca	0.41631156
12	0x3eae7e99	0.3408096
13	0x3e89d053	0.2691675
14	0x3e4fff13	0.20312147
15	0x3e13bc11	0.1442721
16	0x3dc09afc	0.09404561
17	0x3d5bc9c8	0.05365923
18	0x3cc55c01	0.024091722
19	0x3bc68ffb	0.0060596443

sqrt_alphas_cumprod f4 [20]
0	0x3f7ef992	0.99599564
1	0x3f7c6710	0.9859476
2	0x3f784c7b	0.969917
3	0x3f72b032	0.948001
4	0x3f6b9aec	0.9203327
5	0x3f6317a8	0.8870797
6	0x3f5933a3	0.84844416
7	0x3f4dfe37	0.80466026
8	0x3f4188d0	0.75599384
9	0x3f33e6c6	0.7027401
10	0x3f252d47	0.6452221
11	0x3f157333	0.58378905
12	0x3f04d0f7	0.51881355
13	0x3ee6c0d6	0.45068997
14	0x3ec2794c	0.37983167
15	0x3e9d03a9	0.30666855
16	0x3e6d3440	0.23164463
17	0x3e1ef0b4	0.15521508
18	0x3d9f6c87	0.07784372
19	0x3b21531b	0.0024616185

sqrt_one_minus_alphas_cumprod f4 [20]
0	0x3db7187a	0.089402154
1	0x3e2b106b	0.16705482
2	0x3e794749	0.243436
3	0x3ea2f3f0	0.31826735
4	0x3ec8430f	0.39113662
5	0x3eec58f6	0.46161622
6	0x3f077f37	0.5292849
7	0x3f17ff0c	0.59373546
8	0x3f279279	0.65457875
9	0x3f362160	0.71144676
10	0x3f43952e	0.76399505
11	0x3f4fd908	0.8119054
12	0x3f5ad9e7	0.8548874
13	0x3f6486b6	0.8926805
14	0x3f6cd072	0.9250556
15	0x3f73aa3d	0.9518164
16	0x3f790974	0.9728005
17	0x3f7ce5c0	0.9878807
18	0x3f7f3923	0.9969656
19	0x3f7fffcd	0.99999696

log_one_minus_alphas_cumprod f4 [20]
0	0xc09a88fb	-4.8292212
1	0xc0650c26	-3.5788665
2	0xc034d9f3	-2.8258026
3	0xc0128ae4	-2.2897272
4	0xbff04e8a	-1.8773968
5	0xbfc5e4bc	-1.5460429
6	0xbfa2dfde	-1.2724569
7	0xbf857551	-1.0426427
8	0xbf58f783	-0.8475267
9	0xbf2e5015	-0.68090945
10	0xbf09d3cb	-0.53838795
11	0xbed55f51	-0.41674283
12	0xbea08c62	-0.31357104
13	0xbe688097	-0.22705303
14	0xbe1f8ac6	-0.15580282
15	0xbdca4603	-0.09876635
16	0xbd61e79c	-0.05515252
17	0xbcc7c68f	-0.024386672
18	0xbbc72aa3	-0.0060780807
19	0xb6cc0029	-6.0796924e-06

sqrt_recip_alphas_cumprod f4 [20]
0	0x3f8083be	1.0040205
1	0x3f81d308	1.0142527
2	0x3f83f856	1.0310161
3	0x3f87055d	1.0548512
4	0x3f8b1484	1.0865636
5	0x3f904b2e	1.1272943
6	0x3f96dd48	1.178628
7	0x3f9f12c7	1.2427605
8	0x3fa95045	1.3227621
9	0x3fb624e8	1.4230013
10	0x3fc6619d	1.5498539
11	0x3fdb41de	1.7129476
12	0x3ff6b77d	1.9274746
13	0x400e0126	2.21882
14	0x40287ee5	2.632745
15	0x4050b1c2	3.2608495
16	0x408a2484	4.3169575
17	0x40ce2a60	6.4426727
18	0x414d8a3f	12.8462515
19	0x43cb1e4f	406.2368

sqrt_recipm1_alphas_cumprod f4 [20]
0	0x3db7d4d9	0.08976144
1	0x3e2d808e	0.16943571
2	0x3e80814f	0.25098655
3	0x3eabe41b	0.33572468
4	0x3ed998ea	0.42499477
5	0x3f053774	0.5203774
6	0x3f1fb352	0.62382996
7	0x3f3ce51d	0.737871
8	0x3f5da87a	0.865852
9	0x3f8195fb	1.0123895
10	0x3f978ff5	1.1840807
11	0x3fb20425	1.3907515
12	0x3fd2ea41	1.6477739
13	0x3ffd877f	1.9806975
14	0x401bde2e	2.4354358
15	0x4046a382	3.1037297
16	0x4086629e	4.199538
17	0x40cbaabd	6.364592
18	0x414cea95	12.807271
19	0x43cb1e26	406.23553

posterior_variance f4 [20]
0	0x00000000	0.0
1	0x3bbc66ab	0.0057495437
2	0x3c78db69	0.01518903
3	0x3cd623cc	0.026140116
4	0x3d1bfe73	0.03808446
5	0x3d50aa79	0.050943825
6	0x3d84bdc1	0.06481505
7	0x3da3a3f8	0.07990259
8	0x3dc5a72f	0.09651028
9	0x3deba538	0.11506122
10	0x3e0b6911	0.13614298
11	0x3e2470de	0.1605868
12	0x3e4227cb	0.18960492
13	0x3e666f8c	0.2250349
14	0x3e8a2343	0.26980028
15	0x3ea85d3e	0.32883638
16	0x3ed27ca6	0.41110724
17	0x3f08c9cc	0.5343292
18	0x3f3c223a	0.73489726
19	0x3f7e3222	0.99295247

posterior_log_variance_clipped f4 [20]
0	0xc23834f1	-46.0517
1	0xc0a51389	-5.1586347
2	0xc085fd65	-4.187182
3	0xc0693bf3	-3.644284
4	0xc0512614	-3.267949
5	0xc03e87b0	-2.9770317
6	0xc02f1e30	-2.7362175
7	0xc021b980	-2.526947
8	0xc015a386	-2.3381057
9	0xc00a62f9	-2.1622908
10	0xbfff3d04	-1.9940495
11	0xbfea1a12	-1.8289206
12	0xbfd4d70c	-1.6628127
13	0xbfbee977	-1.4914998
14	0xbfa7b07b	-1.3100733
15	0xbf8e5c68	-1.112195
16	0xbf638f07	-0.8889012
17	0xbf20723e	-0.6267432
18	0xbe9db566	-0.3080246
19	0xbbe7c04e	-0.007072485

posterior_mean_coef1 f4 [20]
0	0x3f7fffcf	0.9999971
1	0x3f376a3d	0.7164648
2	0x3f095fd9	0.53661877
3	0x3edb0cb2	0.42783123
4	0x3eb67dcc	0.3564285
5	0x3e9ce8d9	0.306464
6	0x3e8a2609	0.26982144
7	0x3e77cd5b	0.2419943
8	0x3e61946a	0.22029272
9	0x3e4fe297	0.20301281
10	0x3e418e2c	0.1890189
11	0x3e35c6cf	0.1775162
12	0x3e2bf26d	0.16791697
13	0x3e2395bf	0.15975092
14	0x3e1c40c0	0.15259075
15	0x3e1576ab	0.1459605
16	0x3e0e8045	0.13916118
17	0x3e05ee85	0.13079269
18	0x3def6061	0.11688305
19	0x3d9f43f6	0.077766344

posterior_mean_coef2 f4 [20]
0	0x00000000	0.0
1	0x3e9128bc	0.2835139
2	0x3eed3106	0.46326464
3	0x3f1262d3	0.57182044
4	0x3f248d52	0.6427814
5	0x3f312799	0.69201046
6	0x3f3a3e9d	0.7275179
7	0x3f40f0a3	0.7536718
8	0x3f45e1f9	0.7729793
9	0x3f4971cd	0.7868927
10	0x3f4bd34a	0.79619277
11	0x3f4d188a	0.8011557
12	0x3f4d348a	0.80158293
13	0x3f4bf43b	0.7966954
14	0x3f48e9ec	0.78481936
15	0x3f433afb	0.7626187
16	0x3f391e8a	0.72312224
17	0x3f265668	0.64975595
18	0x3efc1edd	0.49242297
19	0x3d00bdf1	0.031431142

model.time_mlp.1.weight f4 [256, 32]
0	0xbdb8e310	-0.09027684
1	0xbce1502b	-0.027504047
2	0xbe1fbb72	-0.15598848
3	0x3b8c9462	0.0042901495
4	0x3d3ab3a7	0.045581486
5	0xbdbe3625	-0.09287671
6	0xbcfb2886	-0.030658972
7	0xbd627d6b	-0.05529539
8	0xbdba6104	-0.091005355
9	0x3dea5ca3	0.1144345
10	0xbdaf3ab2	-0.08556117
11	0xbc64c86a	-0.013963798
12	0x3e20ecbb	0.15715306
13	0xbaff75fc	-0.0019490118
14	0xbe08cec3	-0.13360123
15	0xbcd49ce6	-0.025953721
16	0xba88e073	-0.0010442868
17	0xbb215136	-0.0024615056
18	0xbdae248e	-0.08503066
19	0x3e3ebe74	0.1862734
20	0xbde91b04	-0.11382106
21	0xbc85cd2a	-0.016333181
22	0x3e5d662c	0.21621007
23	0x3d85e37b	0.06537529
24	0x3dcbba42	0.09947635
25	0x3d8e5eac	0.06951651
26	0xba96fbac	-0.0011519096
27	0xbe0ac25d	-0.13550706
28	0xbdd23dd0	-0.10265696
29	0x3c96d4f4	0.01841209
30	0x3c3063a2	0.010765942
31	0xbd413fd8	-0.047180027
32	0x3da34a48	0.079731524
33	0xbcf7c932	-0.030247305
34	0xbd70d6ae	-0.058798485
35	0x3ccecd7d	0.025244469
36	0x3bad63a3	0.0052914186
37	0x3c8eb65a	0.017420936
38	0xbc30f771	-0.010801182
39	0x3de9a8ed	0.11409173
40	0xbdb28299	-0.08716316
41	0x3df37540	0.11887598
42	0x3e2f7f4c	0.17138404
43	0x3e4d8901	0.20071794
44	0x3d186785	0.0372081
45	0x3db7129f	0.089390986
46	0x3e4591fe	0.19293973
47	0x3c9775e3	0.01848883
48	0xbde73921	-0.11290193
49	0x3c14ad48	0.009074517
50	0xbda05b0d	-0.078298666
51	0xbdc245c2	-0.094859615
52	0xbdf0c8f9	-0.117570825
53	0x3c47d3e5	0.012196516
54	0xbce97498	-0.028497979
55	0x3d5d74df	0.054066535
56	0x3e212a39	0.15738763
57	0xbe5d403f	-0.21606539
58	0xbc0bc82e	-0.008531613
59	0xba9581ee	-0.001140652
60	0x3e1daf47	0.15398894
61	0xbd952584	-0.07282546
62	0xbd3625ad	-0.044469524
63	0xbc3fa8b4	-0.011697937
64	0xbdb6e036	-0.089294836
65	0xbbebc88e	-0.007195539
66	0x3d8480c4	0.064698726
67	0x3c6b1591	0.014348404
68	0xbdca6785	-0.09883026
69	0xbe423e45	-0.18969066
70	0xbd4a9432	-0.049457736
71	0xbd928028	-0.0715335
72	0xbdc33390	-0.09531319
73	0xbdbaf253	-0.09128251
74	0xbd2332d5	-0.0398434
75	0x3c69b18c	0.014263522
76	0x3dcdd0c5	0.10049585
77	0xbbe07de5	-0.0068509453
78	0x3e03a454	0.12855655
79	0xbdd54a07	-0.1041451
80	0xbcdd68c0	-0.027027488
81	0x3dd9b658	0.106304824
82	0x3da28291	0.0793506
83	0x3dd4e5a7	0.10395365
84	0xbd3ebf8c	-0.046569392
85	0x3cac8a3c	0.021062009
86	0xbc5e606a	-0.013572792
87	0x3b88717f	0.0041639204
88	0x3c001b49	0.007819005
89	0xbd7096a2	-0.058737405
90	0x3d650073	0.05590863
91	0xbde6de91	-0.1127292
92	0xbdbd8386	-0.09253602
93	0xbe26884c	-0.1626293
94	0x3d373d69	0.0447363
95	0xbd4ce9d7	-0.050027695
96	0x3bd554f5	0.006510372
97	0xbcd9ebc9	-0.026601689
98	0x3c94cc9d	0.018163973
99	0x3defb360	0.11704135
100	0xbdd4736a	-0.10373576
101	0xbcea3650	-0.028590351
102	0xbdf0b2bb	-0.1175284
103	0xbd99fc26	-0.075187966
104	0xbe03f450	-0.12886167
105	0x3dd6eb55	0.10494105
106	0x3cd268f3	0.02568481
107	0x3db514b4	0.088418394
108	0x3da9ceef	0.082914226
109	0x3d46809c	0.048462495
110	0x3e07ec75	0.13273795
111	0xbddb773f	-0.10716104
112	0x3d712c08	0.058879882
113	0x3d7ce298	0.061739534
114	0x3cbcd7fa	0.023052204
115	0xbce51140	-0.027962327
116	0x3dd9579e	0.10612415
117	0x3b17fbce	0.0023190859
118	0x3ce40674	0.027835108
119	0xbc7fbba9	-0.0156087065
120	0xbd070899	-0.032967184
121	0xbca2cc5c	-0.019872837
122	0xbd6e2cd1	-0.05814821
123	0xbd763491	-0.060108725
124	0x3988a722	0.00026064465
125	0xbcafd341	-0.021463038
126	0xbe6f2275	-0.23352988
127	0x3d6b7a9f	0.057489987
128	0xbd096e99	-0.03355274
129	0xbcdec9a4	-0.02719576
130	0x3a7fbcd5	0.0009755616
131	0x3d63525b	0.055498462
132	0x3de35381	0.110999115
133	0xbd64a011	-0.055816714
134	0xbe347677	-0.17623316
135	0xbd27d4e8	-0.040974528
136	0x3c8cbede	0.017180856
137	0xbce125a4	-0.027483769
138	0xbdbc2fb7	-0.091887884
139	0xbe2a08cb	-0.16604917
140	0x3d0074c3	0.031361353
141	0xbe06a6b0	-0.13149524
142	0xbc8daa35	-0.017293075
143	0x3d539037	0.051651206
144	0xbd5e815f	-0.054322597
145	0x3cfbb6f5	0.03072689
146	0x3db30295	0.08740727
147	0x3dd46f49	0.103727885
148	0x3d17426c	0.03692858
149	0xbd50605b	-0.05087314
150	0xbb92c60a	-0.0044791745
151	0xbd1a3ebd	-0.03765749
152	0xbc4bf048	-0.012447424
153	0xbdd3eb9f	-0.103476755
154	0xbdf7e985	-0.12105087
155	0xbc094956	-0.008379301
156	0x3d09c698	0.03363666
157	0x3df9f6e4	0.12205294
158	0xbcb52dd3	-0.022116577
159	0x3dd1fb8e	0.102530584
160	0x3c9d4b17	0.019200845
161	0xbc930b49	-0.017949717
162	0xbdde0a29	-0.10841782
163	0x3d975d84	0.073908836
164	0xbd3ef0ce	-0.046616368
165	0x3cbe7c39	0.023252593
166	0x3c8ef5cc	0.01745119
167	0xbdc42f5b	-0.09579345
168	0x3d3ce809	0.046119723
169	0xbd03fb64	-0.032222167
170	0x3d8c9e5f	0.068661444
171	0xbb877d5a	-0.004134816
172	0xbcad6849	-0.021167891
173	0x3e015b6a	0.12632528
174	0x3d2c5818	0.0420762
175	0x3dec786c	0.11546406
176	0xbdb8776b	-0.09007152
177	0xbd833006	-0.06405644
178	0x3e458a3a	0.1929101
179	0xbd451ce0	-0.04812324
180	0xbbf57b5b	-0.0074915118
181	0xbe3bb8d6	-0.18332228
182	0x3c0be416	0.008538267
183	0x3d2115fe	0.039327614
184	0x3d593bfe	0.05303573
185	0x3d0009e9	0.03125945
186	0xbe543fd0	-0.20727468
187	0xbd658264	-0.056032553
188	0x3d849f23	0.064756654
189	0xbd495550	-0.049153626
190	0x3d5c389c	0.053764924
191	0x3d3c66c2	0.045996435
192	0x3e13daff	0.14439009
193	0xbdb2c437	-0.08728831
194	0x3e045e40	0.12926579
195	0x3d01cf63	0.03169192
196	0xbd5f2cc8	-0.054486066
197	0x3d75b3c3	0.059985887
198	0x3cd3616c	0.02580329
199	0x3df26ad4	0.11836782
200	0xbcf23261	-0.029565038
201	0xbd0af762	-0.03392733
202	0xbc2928a1	-0.010324628
203	0xbca6b29d	-0.020348841
204	0x3dbbc638	0.091686666
205	0xbbdc2f08	-0.0067194737
206	0x3dba46f2	0.09095563
207	0x3d9b3b8a	0.075797155
208	0xba96bbca	-0.0011500057
209	0x3cda15a7	0.026621653
210	0x3ce9dde2	0.028548185
211	0xbe25be1a	-0.16185799
212	0xbd190ab1	-0.03736371
213	0x3c817e96	0.015807431
214	0x3de5ae34	0.11214867
215	0x3d6b043a	0.057377078
216	0xbd4674a7	-0.048451092
217	0xbe1d9abf	-0.15391062
218	0xbdc2167f	-0.09476947
219	0x3c3f9c29	0.011694946
220	0x3ce8499e	0.028355416
221	0x3d94589a	0.07243462
222	0x3c21193a	0.009832675
223	0xbd9f6217	-0.07782381
224	0xbd6edda0	-0.058316827
225	0xbd59fc3a	-0.053219058
226	0xbd79d7e4	-0.060996905
227	0xbd670b62	-0.05640734
228	0x3db8b93d	0.090197064
229	0x3d413d17	0.0471774
230	0xbcd49e58	-0.02595441
231	0x3e038649	0.12844194
232	0x3d944bc2	0.07241012
233	0xbd3ea64e	-0.04654532
234	0xbb8c827d	-0.0042880164
235	0x3da053d1	0.07828487
236	0xbda66b3a	-0.081259206
237	0x3dec288a	0.1153117
238	0xbda21c7c	-0.07915589
239	0xbd070257	-0.032961216
240	0xbdf560bc	-0.11981341
241	0x3e0e27a6	0.13882312
242	0x3d3a0828	0.045417935
243	0x3d6862b6	0.056734763
244	0x3ccc0ee6	0.024909448
245	0x3d780825	0.060554642
246	0xbddc1ff7	-0.10748284
247	0x3c54df3b	0.012992675
248	0x3d8abcce	0.06774293
249	0xbdbfa65e	-0.09357904
250	0xbd48d33d	-0.049029578
251	0xbe0191bd	-0.12653251
252	0x3df84d3e	0.12124108
253	0x3d78b2ba	0.060717322
254	0xbd02de5f	-0.03195035
255	0x3e2ceaff	0.16886519

model.time_mlp.1.bias f4 [256]
0	0xb4929348	-2.730178e-07
1	0xb49ed38f	-2.9583722e-07
2	0x33d0b865	9.719296e-08
3	0xb3fd65d0	-1.179975e-07
4	0xb3892309	-6.3859325e-08
5	0xb255b748	-1.2439905e-08
6	0x3401ec5b	1.2100047e-07
7	0x34efec03	4.468894e-07
8	0x330e78b1	3.317172e-08
9	0xb23af9f7	-1.088346e-08
10	0x3379c776	5.815624e-08
11	0x341b1c25	1.4445739e-07
12	0xb496613f	-2.8010433e-07
13	0xb43f4350	-1.781275e-07
14	0x3373f448	5.680002e-08
15	0x33c6ea75	9.262741e-08
16	0x33182fcf	3.543374e-08
17	0xb4a159f1	-3.0054028e-07
18	0x32dd16a6	2.5738085e-08
19	0x31bbcb67	5.4655405e-09
20	0xb33b7136	-4.3642295e-08
21	0x351a0cff	5.738838e-07
22	0xb3d40a26	-9.873865e-08
23	0x34e81e38	4.3235354e-07
24	0xb4fec51a	-4.7454597e-07
25	0xb1b2236c	-5.184509e-09
26	0x31faf0dd	7.3033406e-09
27	0xb3198143	-3.574065e-08
28	0xb534589c	-6.718417e-07
29	0xb5058ce6	-4.9751395e-07
30	0x34c87e86	3.734496e-07
31	0x328a4762	1.6097776e-08
32	0xb1d2cbba	-6.1349654e-09
33	0x34e45796	4.2532037e-07
34	0x34cfc867	3.8702566e-07
35	0xb4431c9a	-1.8171195e-07
36	0xb3a487cd	-7.661547e-08
37	0xb367c65e	-5.3964293e-08
38	0x34f56207	4.570613e-07
39	0x33cb8666	9.477371e-08
40	0x339df2fa	7.3550794e-08
41	0xb3d4ca79	-9.908849e-08
42	0xb367f342	-5.400512e-08
43	0xb513fa96	-5.512642e-07
44	0x33e00b1e	1.0432835e-07
45	0xb354a7ee	-4.9512828e-08
46	0x34847c2b	2.467726e-07
47	0xb4894d13	-2.5574317e-07
48	0x31a99fe0	4.936723e-09
49	0xb42b7bbc	-1.597063e-07
50	0xb37d275d	-5.8941954e-08
51	0x319a250c	4.4862016e-09
52	0x351e33ba	5.893486e-07
53	0x3510a800	5.388865e-07
54	0x334dcd29	4.7916874e-08
55	0xb2346300	-1.0499889e-08
56	0xb437ee3b	-1.7129871e-07
57	0x33a91200	7.87295e-08
58	0xb48ec60e	-2.6593665e-07
59	0xb14a8263	-2.9468985e-09
60	0x34a5e198	3.0897786e-07
61	0xb3ba37b6	-8.671434e-08
62	0xb3da609c	-1.0168989e-07
63	0xb42dd197	-1.6188129e-07
64	0xb485cf7b	-2.4924142e-07
65	0x3450a881	1.9432811e-07
66	0x3454ef00	1.9830986e-07
67	0xb4c74f08	-3.712414e-07
68	0xb4ee96c8	-4.4440662e-07
69	0x3489ce43	2.5668314e-07
70	0xb49ef78e	-2.9609913e-07
71	0x34c10c8f	3.595819e-07
72	0x341555e6	1.3907956e-07
73	0xb3734d28	-5.664802e-08
74	0x340d9a1e	1.3187716e-07
75	0xb2fa91bc	-2.9170103e-08
76	0xb1dd3cd5	-6.4388623e-09
77	0xb24c27fd	-1.1883455e-08
78	0x34351a74	1.6866562e-07
79	0x34926522	2.7268203e-07
80	0x340b87bc	1.2994764e-07
81	0x33a30322	7.590849e-08
82	0x33674aeb	5.3852016e-08
83	0xb3b133b8	-8.2516124e-08
84	0xb508b401	-5.092589e-07
85	0x351986a7	5.7192887e-07
86	0xb4b80eb8	-3.428338e-07
87	0x33fe71ea	1.18485175e-07
88	0xb41f75cc	-1.4850883e-07
89	0xb4c16c61	-3.6027907e-07
90	0xb4cfb2e2	-3.868691e-07
91	0xb3383832	-4.2891948e-08
92	0xb487b655	-2.5278374e-07
93	0x337de8e6	5.9117973e-08
94	0xb4265d5b	-1.5493917e-07
95	0x339c7f51	7.287475e-08
96	0x34849d19	2.470122e-07
97	0x33eeebd7	1.1125638e-07
98	0x343d5eef	1.7636533e-07
99	0x331dd9cb	3.6752493e-08
100	0x34136e44	1.3730556e-07
101	0xb486e25a	-2.5124137e-07
102	0xb3c56a6a	-9.192884e-08
103	0xb38d3ab1	-6.5765e-08
104	0xb48d1740	-2.6280213e-07
105	0x33dbe12f	1.0238943e-07
106	0x34691def	2.1710706e-07
107	0x348aff2c	2.5890165e-07
108	0xb42121a8	-1.5006538e-07
109	0xb4267ffa	-1.5506512e-07
110	0xb40701f6	-1.2573568e-07
111	0x351a425e	5.746605e-07
112	0xb2c34401	-2.2731912e-08
113	0xb3f16c25	-1.12421084e-07
114	0x342a9872	1.5887943e-07
115	0x33e3ca72	1.0607336e-07
116	0x348f567e	2.6698757e-07
117	0xb4199253	-1.4302468e-07
118	0x34bcf535	3.519614e-07
119	0x345a3fa0	2.0325979e-07
120	0x3411520c	1.3534026e-07
121	0x31b63f4f	5.3040945e-09
122	0xb3e7c5a7	-1.07927285e-07
123	0x338a5c16	6.442876e-08
124	0x34273f6b	1.5576158e-07
125	0x34e3756d	4.2367483e-07
126	0x3384ba7e	6.180652e-08
127	0x34fdb9b1	4.726003e-07
128	0xb51c3b02	-5.8200396e-07
129	0xb3e1bc04	-1.0511579e-07
130	0x33a7cef7	7.81419e-08
131	0x34a324b6	3.0387827e-07
132	0x34b04fa3	3.2840498e-07
133	0x32da8945	2.5440963e-08
134	0xb3911ccc	-6.757327e-08
135	0xb154e8b9	-3.0982348e-09
136	0xb483da60	-2.455954e-07
137	0x34253793	1.538704e-07
138	0xb478da97	-2.3176322e-07
139	0x3500dce2	4.800514e-07
140	0x344b9328	1.8959383e-07
141	0x34cd7cc1	3.8274996e-07
142	0x34e4b516	4.2600067e-07
143	0x339b377d	7.227843e-08
144	0xb4c54a90	-3.674836e-07
145	0x3432fc22	1.6669267e-07
146	0x3450150d	1.9379168e-07
147	0xb4263d06	-1.5482155e-07
148	0x352a47c3	6.343436e-07
149	0x3535cbf2	6.7724534e-07
150	0x32871651	1.5726217e-08
151	0x34f91e31	4.640183e-07
152	0xb45e02f3	-2.0676434e-07
153	0x350c1abd	5.2192973e-07
154	0x3336d706	4.257074e-08
155	0x33d8a5c9	1.008844e-07
156	0x34872bdb	2.5177619e-07
157	0xb4971ab4	-2.814537e-07
158	0xb3b5c03a	-8.463435e-08
159	0x3496c442	2.8082474e-07
160	0x3434526b	1.679379e-07
161	0x30ade195	1.2651521e-09
162	0x32517d23	1.2193854e-08
163	0x343361fd	1.6706322e-07
164	0xb4243e3e	-1.5296334e-07
165	0xb2aed066	-2.0351035e-08
166	0x35469d6c	7.3989827e-07
167	0xb402294d	-1.2122219e-07
168	0xb4eef883	-4.451177e-07
169	0x34bb351a	3.48701e-07
170	0x34e60315	4.284308e-07
171	0x34c3df3d	3.6484008e-07
172	0x34a1ea57	3.0159092e-07
173	0x34f14518	4.494002e-07
174	0xb436b675	-1.7016448e-07
175	0x33241d11	3.821066e-08
176	0xb45bb546	-2.0461911e-07
177	0x3485b7d4	2.4906933e-07
178	0xb3b51a11	-8.433211e-08
179	0xb41447e1	-1.3809723e-07
180	0x340dc417	1.3202985e-07
181	0x34293645	1.5759095e-07
182	0xb45c3e8c	-2.0511851e-07
183	0xb3834dd8	-6.1143226e-08
184	0x33a0d4eb	7.48931e-08
185	0x34ad28f3	3.2253556e-07
186	0x3460ee6a	2.094836e-07
187	0xb4795f29	-2.3224551e-07
188	0xb15c7c22	-3.2084775e-09
189	0xb184d9a0	-3.8664467e-09
190	0x345af3fe	2.0391596e-07
191	0x344b35a1	1.8925358e-07
192	0xb3b2ed4f	-8.331937e-08
193	0x3482fe9f	2.4399648e-07
194	0xb49cdbf7	-2.921731e-07
195	0xb4469bc8	-1.849686e-07
196	0x3518c3f6	5.6909573e-07
197	0xb326dc14	-3.8850047e-08
198	0x32fbdc3a	2.9320393e-08
199	0xb4bde008	-3.5366998e-07
200	0x33969097	7.01122e-08
201	0x342b4e99	1.595421e-07
202	0x348ac614	2.5848624e-07
203	0x33342385	4.194182e-08
204	0xb404684d	-1.2331402e-07
205	0x34580411	2.0118047e-07
206	0x34880861	2.533807e-07
207	0xb4b10061	-3.2969095e-07
208	0x346e320d	2.2183686e-07
209	0xb285ffdf	-1.5599595e-08
210	0xb4374b16	-1.7070519e-07
211	0x33fd6e05	1.1801243e-07
212	0xb42a5338	-1.5862759e-07
213	0xb3e2cf0e	-1.0561608e-07
214	0x32ab781b	1.9961638e-08
215	0x34d0034c	3.8745418e-07
216	0xb4ed56db	-4.4207886e-07
217	0xb53786bb	-6.836887e-07
218	0xb51033ce	-5.3719566e-07
219	0xb37ef8cd	-5.9365266e-08
220	0x33422c4d	4.5209436e-08
221	0x34c7357f	3.7105562e-07
222	0xb4eb8553	-4.3869167e-07
223	0xb3a8b658	-7.856278e-08
224	0xb4d1fc8b	-3.9113033e-07
225	0x34ff0ffa	4.7509076e-07
226	0xb44e9d7c	-1.9242538e-07
227	0xb4ac4b4c	-3.2092282e-07
228	0x345b4511	2.042109e-07
229	0xb50cb281	-5.241382e-07
230	0xb48ce89e	-2.6246283e-07
231	0xb4c068b5	-3.583897e-07
232	0x3552f0f7	7.8581746e-07
233	0x345e1a0d	2.0684838e-07
234	0x341dc0ff	1.4691976e-07
235	0xb4c3f350	-3.6498614e-07
236	0xb44f70dc	-1.9319435e-07
237	0x3466c643	2.1492546e-07
238	0x33821423	6.0572596e-08
239	0xb454973e	-1.979906e-07
240	0x3444845f	1.8302079e-07
241	0xb2414823	-1.12504805e-08
242	0x35370eae	6.8194174e-07
243	0xb491110b	-2.7020755e-07
244	0xb4ef6167	-4.458809e-07
245	0xb526272b	-6.1896816e-07
246	0xb41f6d15	-1.4847713e-07
247	0xb302aec9	-3.042695e-08
248	0xb40ad30f	-1.2929034e-07
249	0xb49bbe04	-2.9009254e-07
250	0x34b49492	3.3635712e-07
251	0xb42e3912	-1.6225775e-07
252	0xb3a8e0a3	-7.863971e-08
253	0xb43277fb	-1.662119e-07
254	0x346dde9f	2.2153334e-07
255	0x34024011	1.21305e-07

model.time_mlp.3.weight f4 [32, 256]
0	0x3d8c967a	0.068646386
1	0x3b72b13b	0.0037031907
2	0xbcd58423	-0.026063984
3	0xbd307860	-0.04308355
4	0xbc136fca	-0.008998821
5	0xbc92bea2	-0.017913166
6	0xbc35e5a1	-0.011102111
7	0xbcb4d71b	-0.022075227
8	0x3b11efec	0.0022268249
9	0xbc6c6afa	-0.014429802
10	0x3c1f69cf	0.009729817
11	0xbc31f96b	-0.0108626885
12	0x3c2373a8	0.009976305
13	0xbc88ac60	-0.016683757
14	0xbd07b301	-0.033129696
15	0xbc30e5d6	-0.010796985
16	0xbb572209	-0.0032826683
17	0xbd9a2bfd	-0.07527921
18	0x3d00d414	0.031452253
19	0xbbd4bcf5	-0.006492252
20	0xbc921936	-0.017834287
21	0x3c89b395	0.016809264
22	0xbc2f104f	-0.010685041
23	0x3da3d54a	0.07999666
24	0xbb4e530e	-0.003148261
25	0x3c02b4c7	0.007977671
26	0xbd0be499	-0.034153555
27	0xbd879113	-0.066194676
28	0x3cc11061	0.02356738
29	0x3c3e95cf	0.011632397
30	0x3bc17246	0.005903515
31	0xbc6c1329	-0.014408865
32	0x3d5ff70d	0.054678965
33	0xbdd683c6	-0.104743525
34	0xbcfb8920	-0.030705035
35	0x3b3beed8	0.0028676298
36	0x3b735ccf	0.0037134176
37	0x3c15a01f	0.009132414
38	0xbd0ce78b	-0.034400504
39	0x3b9512e5	0.0045493715
40	0xbca071f5	-0.019585589
41	0x3b46a05d	0.0030307986
42	0x3a30429c	0.0006723793
43	0x3c9740d0	0.018463522
44	0xbadd4edb	-0.0016884463
45	0x3d35d019	0.04438791
46	0xbda1caff	-0.079000466
47	0xbd15ad80	-0.036542416
48	0xbc85c6e7	-0.016330196
49	0xbc0d4760	-0.008622974
50	0xbbb4a6d1	-0.00551305
51	0xbcf48884	-0.029850252
52	0x3caf710f	0.021416215
53	0xbb9910df	-0.0046712006
54	0x3bb91590	0.0056483224
55	0xbc4c54cf	-0.012471392
56	0x3c125e07	0.008933551
57	0xbcceefef	-0.025260894
58	0xbca0c7e1	-0.01962656
59	0xbbc7ebc2	-0.0061011026
60	0xbca394d4	-0.019968428
61	0xbd14c930	-0.03632468
62	0x3d105024	0.035232678
63	0x3cbbd1c7	0.022927178
64	0x3c8098df	0.015697895
65	0x3c9e81ef	0.019349067
66	0x3b8d0f9d	0.0043048398
67	0x3cd81475	0.026376942
68	0xbcf06a36	-0.02934752
69	0xbc17dbd6	-0.009268722
70	0xbc6191a1	-0.013767631
71	0x3d811227	0.063022904
72	0xbcd939f1	-0.026516886
73	0x3ca5f452	0.020258103
74	0xbdcbdee3	-0.09954622
75	0x3be098e9	0.006854166
76	0xbc8cc2cd	-0.017182732
77	0xbc87a397	-0.016557498
78	0xbd341c60	-0.043972373
79	0x3c9e4381	0.019319298
80	0xbc21e82d	-0.009882015
81	0xbd7b0537	-0.06128427
82	0xbcfd17ba	-0.030895103
83	0xbd153da5	-0.036435742
84	0xbc2efddf	-0.010680645
85	0xbd3a3d88	-0.045468837
86	0xbcada1c2	-0.021195296
87	0xba9c2db0	-0.0011915471
88	0xbcf93435	-0.030420402
89	0xbd3819cd	-0.04494648
90	0x3cb2f4e5	0.02184529
91	0xbd1e06f2	-0.038580842
92	0xbd257cd5	-0.040402252
93	0x3c591d1e	0.013251571
94	0xbcb2cf87	-0.021827472
95	0xbd03327e	-0.032030575
96	0xbc8d385d	-0.01723879
97	0xbd2d6727	-0.042334702
98	0xbd38c1f4	-0.045106843
99	0x3cb3667a	0.02189945
100	0xbc8c5cc8	-0.017134085
101	0x3c143656	0.009046158
102	0xbcc4ac48	-0.024007931
103	0xbc22de94	-0.009940762
104	0x3c617b93	0.013762373
105	0x3a6a456d	0.0008936737
106	0x3bae71b7	0.0053236145
107	0xbc44ef69	-0.01201997
108	0x3d47cc03	0.048778545
109	0x3d0299d6	0.03188499
110	0xbc8ac866	-0.01694126
111	0x3ce8f315	0.028436223
112	0x3b38456d	0.0028117553
113	0x3d2a84e1	0.04163063
114	0x3c480caf	0.012210055
115	0x3c4e70e4	0.012600157
116	0xbbb0860c	-0.0053870734
117	0xbd2d6fa3	-0.042342793
118	0xba16bb24	-0.0005749932
119	0x3be87a28	0.0070946403
120	0x3c9237e8	0.017848924
121	0x3cbe52ff	0.023232935
122	0x3c94a221	0.018143715
123	0x3d03d063	0.032181155
124	0xbcc88bd8	-0.024480745
125	0xbd161031	-0.036636535
126	0xbd2e8c10	-0.042614043
127	0x3d1c1340	0.038104296
128	0xbb7d4bfb	-0.0038650024
129	0x3cb4525f	0.022011934
130	0xbc5671a4	-0.0130886175
131	0xbbb0d7bc	-0.0053968113
132	0xbcc0d22a	-0.023537714
133	0x3b855dc4	0.0040700156
134	0xbd0d8d07	-0.034558322
135	0x3c03b864	0.008039568
136	0xbd4e8d18	-0.050427526
137	0xbcb6b4a7	-0.022302939
138	0xbd0e7257	-0.03477701
139	0x3d1662e1	0.036715392
140	0xbaa195c6	-0.0012327961
141	0xbc82e67c	-0.015979044
142	0xbae98340	-0.0017815605
143	0xbb4c5169	-0.0031176454
144	0xbc6c615a	-0.014427507
145	0x3a8dad55	0.0010809103
146	0x3d46d153	0.04853947
147	0x3b47b544	0.0030473033
148	0xbcfab817	-0.030605359
149	0xbd6910fd	-0.056900967
150	0x3d067af9	0.03283212
151	0xbd3ce5b8	-0.046117514
152	0xbc5b395b	-0.013380374
153	0xba89129e	-0.0010457819
154	0x3cc3dcbd	0.023908967
155	0x3c25569c	0.01009145
156	0x3d6c996c	0.057763502
157	0xbbe328bf	-0.0069323475
158	0x3d263e49	0.040586744
159	0xbcd4afa6	-0.025962662
160	0xbd221ceb	-0.03957836
161	0x3d66d27f	0.05635309
162	0xbcd67f94	-0.02618388
163	0x3d82eb9a	0.06392594
164	0x3b6173e4	0.0034401352
165	0xbbfb8283	-0.0076754703
166	0xbb5a7d2e	-0.0033338773
167	0x3d31fa6b	0.043451708
168	0x3c04570b	0.008077393
169	0xbd641d79	-0.05569217
170	0xbd941d90	-0.07232201
171	0x39ebb6cb	0.00044958884
172	0xbb02a8b9	-0.0019936992
173	0x3cc9f671	0.024653645
174	0x3c98e571	0.018664094
175	0xbcfb5c36	-0.030683618
176	0x3c1991c5	0.009373133
177	0x3bf207c6	0.0073861806
178	0x3cfa5f4d	0.030563021
179	0x3bbed8c6	0.0058241813
180	0xba828ce4	-0.0009960202
181	0xbb8dfbba	-0.0043329867
182	0x3c9d0128	0.01916559
183	0x3c087289	0.008328089
184	0x3bf59bd9	0.007495385
185	0x3c72311e	0.014782218
186	0x3d72b353	0.05925305
187	0x3c395ff9	0.011314386
188	0x3cf3cd00	0.029760838
189	0x3db48f51	0.08816398
190	0xbc9bf165	-0.019036004
191	0x3c3dd3fa	0.011586184
192	0x3cb8792e	0.02251872
193	0xbc390364	-0.011292312
194	0xbc5bef5f	-0.01342377
195	0xbc41a68b	-0.011819492
196	0xbc2e0baa	-0.010622898
197	0xbbf7ef14	-0.007566342
198	0x3c1e2c06	0.009654051
199	0x3c65eb97	0.01403322
200	0xbd2e3869	-0.042534266
201	0xbc3f8a08	-0.011690624
202	0x3c58067a	0.013185138
203	0xbc5335d2	-0.01289125
204	0x3bf569e9	0.007489432
205	0x3d483529	0.048878822
206	0x3bd6ddac	0.006557187
207	0xbbb0814f	-0.0053865085
208	0x3c2721c6	0.010200923
209	0x3c5b3b52	0.013380842
210	0xbd0fa983	-0.03507377
211	0xbbc8b578	-0.0061251484
212	0xbd6b9e43	-0.057523977
213	0xbc3df04f	-0.011592939
214	0x3d31ff0a	0.043456115
215	0xbc5d0b99	-0.013491535
216	0x3d027f47	0.031859662
217	0x3bcdf922	0.0062858025
218	0x3d339a70	0.043848455
219	0xbc1eaf5a	-0.009685362
220	0x3bbaef87	0.0057048234
221	0x3d590d9a	0.052991487
222	0x3c43860e	0.011933817
223	0xbd4fe83d	-0.05075859
224	0x3ceb7781	0.028743507
225	0xbcc7ad0f	-0.024374513
226	0x3d189bdc	0.037258014
227	0xbbec6922	-0.0072146812
228	0xbbdd3780	-0.006751001
229	0xbcdd6e16	-0.027030032
230	0xbc5c645e	-0.013451664
231	0xbd48c327	-0.049014237
232	0xbce0b078	-0.027427897
233	0x3c5db648	0.013532229
234	0x3cf19e70	0.029494494
235	0x3bfcbb2a	0.0077127414
236	0xbb769c1a	-0.0037629665
237	0xbd21dc9c	-0.03951703
238	0x3ccc5055	0.024940649
239	0xbc90e840	-0.01768887
240	0x3d0ad5f5	0.03389545
241	0x3d7f61f7	0.062349286
242	0x3c3d6e65	0.011561965
243	0x3acca6df	0.0015613696
244	0x3ce6d200	0.028176308
245	0x3d40d72c	0.047080204
246	0xbb690f90	-0.0035562254
247	0x3c76758f	0.015042677
248	0xbc613868	-0.013746358
249	0x3d1196e6	0.0355443
250	0x3a86c8e2	0.0010283256
251	0x3ca8c29f	0.020600615
252	0x3ac04155	0.0014667908
253	0x3af56487	0.0018721976
254	0x3c4932b9	0.01228016
255	0xbd3b2412	-0.045688696

model.time_mlp.3.bias f4 [32]
0	0x349d7830	2.9330977e-07
1	0xb60f7971	-2.1379349e-06
2	0xb475eed9	-2.2904295e-07
3	0xb69aa192	-4.608367e-06
4	0xb5c864e9	-1.493053e-06
5	0x3678b064	3.7057553e-06
6	0x363139b0	2.6408634e-06
7	0xb6343019	-2.6850087e-06
8	0x364c0bb0	3.0405172e-06
9	0x36165cf7	2.2405854e-06
10	0x34df7626	4.162295e-07
11	0xb5928b4e	-1.0918391e-06
12	0x355cfb89	8.232242e-07
13	0x34a9450a	3.1528936e-07
14	0xb565a00b	-8.554204e-07
15	0xb4bec853	-3.5536013e-07
16	0xb6900b57	-4.2928546e-06
17	0xb4a6fc6c	-3.110357e-07
18	0xb56e148b	-8.8691803e-07
19	0x354d9894	7.659048e-07
20	0x35c6af64	1.4803195e-06
21	0x36279fdc	2.497799e-06
22	0x36076491	2.0175105e-06
23	0xb5d53083	-1.5883855e-06
24	0x36404ff5	2.865677e-06
25	0xb6039deb	-1.9612442e-06
26	0x366a9905	3.4957786e-06
27	0x36803c71	3.8217336e-06
28	0x34449edf	1.831172e-07
29	0xb6951cc6	-4.4438957e-06
30	0x364e91aa	3.078118e-06
31	0xb540801a	-7.1711986e-07

model.layer.0.weight f4 [256, 55]
0	0xbc12146d	-0.008916003
1	0xbdb4333e	-0.08798836
2	0xbe106c7d	-0.14103885
3	0x3dce9162	0.10086323
4	0xbe05ae1b	-0.13054697
5	0x3c43aae0	0.011942595
6	0x3bf09a50	0.0073426142
7	0xbcee7877	-0.029110176
8	0xbbc410c7	-0.0059834453
9	0xbdd11989	-0.102099486
10	0x3dd68613	0.104747914
11	0xbd85ee47	-0.065395884
12	0xbd936a1a	-0.07197972
13	0x3d12ad8c	0.03581004
14	0x3ca17d58	0.019713089
15	0x3e10ea89	0.14151968
16	0x3d0dc6fb	0.03461359
17	0xbe13b7aa	-0.14425531
18	0x3d766088	0.060150653
19	0xbd846e34	-0.06466332
20	0x3d420129	0.047364388
21	0x3dd9c254	0.10632768
22	0x3c076da6	0.008265888
23	0x3ba5f7ca	0.005064939
24	0x3c7d6b9f	0.015467553
25	0xbbb08e73	-0.005388075
26	0xbd1ac71a	-0.037787534
27	0x3de62214	0.11236969
28	0x3cf0e745	0.029407153
29	0xbc986f8c	-0.018607877
30	0xba5c0e48	-0.0008394462
31	0x3daa0240	0.083012104
32	0xbcd20d47	-0.025641097
33	0xbbe14eaf	-0.006875835
34	0x3d437640	0.047720194
35	0x3d390292	0.045168467
36	0x3db7c488	0.08973032
37	0x3dd8ed8b	0.10592183
38	0xbd156e67	-0.03648224
39	0x3c596797	0.013269327
40	0xbd320d5f	-0.043469783
41	0xbbada136	-0.005298759
42	0x3e0eff7d	0.13964649
43	0xbdb10d96	-0.086451694
44	0x3d799c61	0.06094015
45	0xbc9f4ea4	-0.019446678
46	0x3d38913f	0.045060392
47	0xbd6c6c64	-0.057720557
48	0xbdb79243	-0.08963444
49	0xbd9a48f3	-0.07533445
50	0x3d8325aa	0.06403668
51	0x3e020eea	0.12701002
52	0x3dcd6549	0.10029084
53	0x3d0dab3f	0.03458714
54	0xbd537090	-0.05162102
55	0x3cdcb028	0.026939467
56	0x3d844f9d	0.064604975
57	0xbca9a59b	-0.02070885
58	0x3cf73088	0.030174509
59	0x3da86dcf	0.08224069
60	0x3968a171	0.00022185386
61	0x3af53c37	0.0018709962
62	0xbdc0c80c	-0.09413156
63	0xbdb5a77f	-0.08869838
64	0x3c29d418	0.0103655085
65	0xbc56b5e4	-0.01310489
66	0xbddf61c0	-0.10907316
67	0x3adf4c82	0.0017036351
68	0xbd0922d3	-0.033480477
69	0xbdaef755	-0.085432686
70	0xbd1497c4	-0.036277547
71	0xbc589bcb	-0.013220738
72	0x3d1d9dab	0.038480442
73	0x3d362291	0.04446656
74	0x3de6bd60	0.11266589
75	0x3db5eb11	0.08882726
76	0xbcd0a183	-0.02546764
77	0x3c887597	0.016657634
78	0x3d60dc7e	0.054897778
79	0xbdcfe925	-0.10151891
80	0xbd56d4ad	-0.052448917
81	0xbd0588c8	-0.032601148
82	0x3d95e778	0.0731954
83	0xbdb4eab5	-0.08833829
84	0x3d6acb67	0.057322886
85	0x3d1b8022	0.037963994
86	0xbda215aa	-0.07914288
87	0x3c80c44c	0.015718602
88	0xbce0b6cd	-0.027430916
89	0x3c8fa7da	0.017536093
90	0x3c830867	0.015995217
91	0xbcc960e4	-0.024582334
92	0x3b124500	0.002231896
93	0xbcbcbdf7	-0.023039801
94	0x3dc9a00a	0.09844978
95	0x3dc27486	0.09494881
96	0x3d8a57ab	0.067550026
97	0x3d779715	0.060446817
98	0x3df5fa94	0.120106846
99	0x3d121f71	0.035674516
100	0xbdab559a	-0.083659366
101	0xbb8a3fb3	-0.0042190193
102	0x3d5ee415	0.054416735
103	0xbdab99e7	-0.08378964
104	0x3c7f6019	0.015586876
105	0xbd41d6f2	-0.04732413
106	0x3d4579ec	0.048211977
107	0xbc99b013	-0.018760717
108	0xbba3e07d	-0.0050011263
109	0xbd9a337f	-0.07529353
110	0xbc8869eb	-0.016652068
111	0x3d5a3395	0.05327185
112	0x3d277733	0.04088516
113	0x3d06bd2a	0.032895245
114	0x3c682861	0.014169783
115	0x3cbe97c4	0.023265727
116	0xbd16f07e	-0.036850445
117	0xbd8f64bc	-0.070016354
118	0xbbe259ea	-0.0069076912
119	0xbdb0f26e	-0.0863999
120	0xbc8fbc22	-0.017545763
121	0xbd1b3023	-0.037887704
122	0xbaae5399	-0.001330006
123	0xbd1f147c	-0.038837895
124	0x3d081319	0.033221338
125	0xbdd1acd6	-0.10238044
126	0xbddb6d88	-0.10714251
127	0x3ab1f91a	0.0013578266
128	0x3c178176	0.0092471745
129	0xbdebbe14	-0.11510864
130	0x3dbce954	0.09224191
131	0xbd4967c2	-0.049171217
132	0xbdd0c4d3	-0.10193791
133	0xbd603a7f	-0.054743286
134	0xbe0c6b3c	-0.13712782
135	0x3e2529d3	0.16129236
136	0xbdc79041	-0.09744311
137	0xbd587c6b	-0.05285303
138	0xba6cd42f	-0.00090343034
139	0xbd2e56e8	-0.04256335
140	0x3dfb5311	0.12271703
141	0xbd0f0ded	-0.03492539
142	0xbc896a32	-0.01677427
143	0x3daa1be8	0.08306104
144	0x3d27eed9	0.040999267
145	0xbdda5bea	-0.106620625
146	0xbcb66f80	-0.022269964
147	0xbd521c36	-0.051296435
148	0x3d29ca7e	0.041452877
149	0xbd4681a8	-0.048463494
150	0x3da54b83	0.08071043
151	0x3b365f8b	0.0027827944
152	0xbd2d1943	-0.04226042
153	0xbd828911	-0.063737996
154	0xbc8d3721	-0.017238202
155	0xbdbe63a3	-0.09296348
156	0x3df38946	0.11891417
157	0xbd5f27a0	-0.05448115
158	0xbd058b45	-0.03260352
159	0xb9eafacb	-0.00044818813
160	0x3d3cb01d	0.046066392
161	0xbd2fbdc5	-0.042905588
162	0xbe14e3ef	-0.14540075
163	0xbd1773f2	-0.03697581
164	0x3cc617f7	0.02418135
165	0x3d891c0e	0.06694804
166	0xbdb103a9	-0.08643276
167	0xbcbda827	-0.02315147
168	0xbe151d3d	-0.14561935
169	0x3dd161a0	0.102236986
170	0xbc5a38fb	-0.013319249
171	0xbb10e92b	-0.0022111635
172	0xbdb714e8	-0.089395344
173	0xbc9278cf	-0.017879872
174	0x3dcc33a6	0.09970789
175	0xbd332942	-0.04374052
176	0x3c83254a	0.016008992
177	0x3ae53848	0.0017488087
178	0x3dab9844	0.08378652
179	0xbd99dbe3	-0.07512643
180	0x3d53be2a	0.051695026
181	0x3d9eb33d	0.07749031
182	0xbb83286b	-0.004002621
183	0xbc905c7d	-0.017622227
184	0x3df9b51b	0.12192746
185	0x3d079af8	0.033106774
186	0xbd0b13d7	-0.033954468
187	0xbca958ed	-0.020672286
188	0x3ba9fa6b	0.005187323
189	0x3d33952b	0.04384343
190	0xbd699c3b	-0.05703376
191	0xbd02f3ae	-0.031970672
192	0x3d03261c	0.032018766
193	0x3cd32847	0.025776042
194	0x3c7f8616	0.015595933
195	0x3ca334ba	0.019922603
196	0xbc156657	-0.009118638
197	0xbda5da9c	-0.08098337
198	0xbceb48f8	-0.028721318
199	0x3c998e23	0.018744534
200	0xbda79034	-0.081818014
201	0xbcccf013	-0.02501682
202	0xbd41c917	-0.047310915
203	0x3d438112	0.047730513
204	0x3d4ec512	0.05048091
205	0xbd3948fe	-0.045235626
206	0xbcb40acb	-0.021977803
207	0xbd37c099	-0.04486141
208	0x3dc2c924	0.09511021
209	0x3c2e846c	0.010651689
210	0x3d15ac60	0.036541343
211	0x3de806b3	0.11329403
212	0x3dab643c	0.083687276
213	0xbdb086ce	-0.08619462
214	0x3d57cda1	0.052686337
215	0x3df233a4	0.11826256
216	0xbc1ee52d	-0.009698194
217	0xbd00920b	-0.031389277
218	0x3c2c55c8	0.010518499
219	0xbd737f1c	-0.059447393
220	0xbd9466e3	-0.072461866
221	0xbc89a950	-0.016804367
222	0xbd06e32a	-0.032931484
223	0xbc8df462	-0.017328445
224	0xbbcd87c5	-0.0062722885
225	0x3dd35338	0.10318607
226	0xbe17bafb	-0.14817421
227	0x3cf47f3a	0.029845823
228	0x3ce0fa90	0.027463228
229	0x3e13b4c5	0.14424427
230	0xbd29786e	-0.041374616
231	0x3d8d71a5	0.069064416
232	0x3ca55cfe	0.020185944
233	0xbd9cfcb5	-0.076653875
234	0x3d596426	0.053074025
235	0x3c84bb49	0.016202586
236	0xbd757eb4	-0.059935287
237	0x3d4428d6	0.047890507
238	0x3d8c7754	0.068586975
239	0xbd89b4ad	-0.06723914
240	0xbc7bc176	-0.015365949
241	0xbd0562de	-0.03256499
242	0xbd208a26	-0.03919425
243	0x3d11f76c	0.03563635
244	0xbe0abada	-0.1354784
245	0xbc843388	-0.016137853
246	0xbc53b456	-0.012921413
247	0x3dc159e4	0.094409734
248	0xbda18955	-0.07887522
249	0xbda30692	-0.079602376
250	0x3cf34a99	0.029698657
251	0xbdc16e26	-0.09444837
252	0xbe2830ef	-0.16424917
253	0x3dbd5e3c	0.092464894
254	0xba4d84c0	-0.00078399107
255	0xbc18aa06	-0.0093178805

model.layer.0.bias f4 [256]
0	0xb52c6050	-6.4215146e-07
1	0xb5bc1ca0	-1.4015422e-06
2	0xb65dbbc9	-3.3040872e-06
3	0xb6188176	-2.2725121e-06
4	0x35fe793e	1.8959761e-06
5	0xb4338e0a	-1.6722348e-07
6	0x357d9d3b	9.4478645e-07
7	0xb46cfc81	-2.2071073e-07
8	0xb5f325b3	-1.8115883e-06
9	0x36584a02	3.2229586e-06
10	0xb5527ed6	-7.8415667e-07
11	0xb623f673	-2.4432345e-06
12	0x36808a90	3.830828e-06
13	0xb6185a81	-2.2702445e-06
14	0x3683c852	3.9274246e-06
15	0x36478e01	2.9735968e-06
16	0xb5928e7b	-1.0919315e-06
17	0xb600cf8b	-1.9194292e-06
18	0xb69a1e1a	-4.593062e-06
19	0x36147e27	2.212715e-06
20	0x35f42259	1.8189413e-06
21	0x34fe6ff0	4.7392632e-07
22	0xb6a27e36	-4.842669e-06
23	0xb5c92bb6	-1.4988389e-06
24	0x3548ac02	7.475611e-07
25	0x35fca04c	1.8822116e-06
26	0x35d8f72a	1.6165188e-06
27	0xb40d0efb	-1.3137098e-07
28	0x34e5c5a6	4.2798382e-07
29	0xb5ce24ea	-1.535894e-06
30	0xb5a48073	-1.2256336e-06
31	0xb621750f	-2.4059007e-06
32	0xb565c26f	-8.5592086e-07
33	0xb5857a78	-9.944915e-07
34	0x35061ab7	4.9957765e-07
35	0xb5dd4087	-1.6484563e-06
36	0x33bc1112	8.757537e-08
37	0xb4758ba9	-2.2868211e-07
38	0xb5994db0	-1.1421998e-06
39	0xb6231b0d	-2.4304638e-06
40	0xb5ee1010	-1.7737057e-06
41	0xb61f4dc3	-2.373811e-06
42	0xb65c18d7	-3.2797013e-06
43	0xb5f7f037	-1.8472846e-06
44	0xb42a7c53	-1.5877713e-07
45	0xb59b9e45	-1.1594462e-06
46	0x3555c52e	7.963562e-07
47	0x36205e63	2.3896798e-06
48	0xb6fdbc41	-7.561903e-06
49	0xb3bc71b3	-8.775114e-08
50	0x35587be7	8.064657e-07
51	0xb53ee015	-7.11066e-07
52	0xb63360a8	-2.672934e-06
53	0x34e24b9e	4.21508e-07
54	0x36c47ad6	5.855555e-06
55	0x3540bd47	7.180101e-07
56	0x3607b8f9	2.0224236e-06
57	0xb606a6d8	-2.0064672e-06
58	0xb4c74fa1	-3.7124576e-07
59	0xb6125116	-2.1802894e-06
60	0xb5ab9fdf	-1.2787021e-06
61	0x35fdd786	1.8912694e-06
62	0xb572e3e7	-9.0483667e-07
63	0x34d3f16c	3.947747e-07
64	0xb35e20cd	-5.1718235e-08
65	0xb5f2ce7d	-1.8090501e-06
66	0xb60aadab	-2.066469e-06
67	0x35add97e	1.2952803e-06
68	0xb61674ff	-2.2419842e-06
69	0xb698c510	-4.552894e-06
70	0x3626efa1	2.487541e-06
71	0x349750c1	2.8184698e-07
72	0x368b3955	4.149197e-06
73	0xb6574017	-3.2074802e-06
74	0x34a656fb	3.0983196e-07
75	0xb5c0231e	-1.4315335e-06
76	0x363f8a03	2.8541551e-06
77	0x3448b5e1	1.8692619e-07
78	0x3605700b	1.9883762e-06
79	0x35902fd1	1.0742752e-06
80	0x363addbf	2.7845233e-06
81	0xb53c8dd5	-7.024185e-07
82	0x3436f790	1.7040134e-07
83	0xb36cc5db	-5.512798e-08
84	0xb5ae2b9b	-1.2976701e-06
85	0x35e3292b	1.6924799e-06
86	0x3644bc7e	2.9315993e-06
87	0xb59b6a6a	-1.157937e-06
88	0xb687bc65	-4.0452455e-06
89	0xb64ad376	-3.0223432e-06
90	0xb567efb4	-8.640302e-07
91	0x35746ba9	9.105375e-07
92	0xb34dad37	-4.788782e-08
93	0xb4c8ee73	-3.7426398e-07
94	0xb694dd4c	-4.436506e-06
95	0x35fa2a78	1.8638812e-06
96	0x35dbde02	1.6381384e-06
97	0xb50ab484	-5.167169e-07
98	0xb68b7dce	-4.1571684e-06
99	0x32d9a3f5	2.5336684e-08
100	0x3510148f	5.3674097e-07
101	0x36938e97	4.397541e-06
102	0xb2c7a7e0	-2.324299e-08
103	0x35dfc7af	1.667291e-06
104	0x3353a9a2	4.9281546e-08
105	0xb670feec	-3.591117e-06
106	0xb4cf98a6	-3.866782e-07
107	0xb59ad085	-1.1534581e-06
108	0xb3680c0b	-5.4027662e-08
109	0x358ae541	1.0348523e-06
110	0xb60203ed	-1.9373795e-06
111	0xb6a4ebef	-4.915047e-06
112	0x36026ccc	1.9434838e-06
113	0x36be10cb	5.664396e-06
114	0xb64f0e8e	-3.0853876e-06
115	0xb667e7f1	-3.455669e-06
116	0x3509f39f	5.139099e-07
117	0xb674c98f	-3.6476156e-06
118	0xb2bc2469	-2.1902638e-08
119	0x35a52d23	1.2306594e-06
120	0xb447f107	-1.8621004e-07
121	0x3579b5cd	9.3024283e-07
122	0x354ee158	7.70689e-07
123	0x3689e98a	4.1101057e-06
124	0xb6172c3d	-2.2526503e-06
125	0x35e803be	1.7286436e-06
126	0x35ae49be	1.2985472e-06
127	0x3396b981	7.018662e-08
128	0xb60c1c3b	-2.0878058e-06
129	0xb6b562fb	-5.405743e-06
130	0x34bd5340	3.5264566e-07
131	0xb6076fd6	-2.0181665e-06
132	0xb60e7da0	-2.1232772e-06
133	0xb5f2facf	-1.81034e-06
134	0xb65f45a5	-3.3270128e-06
135	0xb3c13d73	-8.9984404e-08
136	0xb5dcfd66	-1.6465026e-06
137	0xb60a4b8a	-2.0607572e-06
138	0xb670abdb	-3.586282e-06
139	0x35056a0b	4.9700674e-07
140	0xb56169b7	-8.3972867e-07
141	0x35dc9df8	1.6437252e-06
142	0xb699ea6e	-4.5870465e-06
143	0xb645d705	-2.9480445e-06
144	0xb4b20f9e	-3.3166447e-07
145	0x352c77a4	6.4249093e-07
146	0x35945508	1.1051607e-06
147	0x34dcca2c	4.1125293e-07
148	0x34a685e0	3.1017316e-07
149	0xb6338873	-2.6752502e-06
150	0x35f6e512	1.8395097e-06
151	0xb3534d6a	-4.9197673e-08
152	0x34549379	1.9797689e-07
153	0xb5cca283	-1.5246482e-06
154	0xb6015707	-1.9273155e-06
155	0x3551d1ba	7.816376e-07
156	0xb5229316	-6.056374e-07
157	0xb5a670b7	-1.2400768e-06
158	0xb653b3dd	-3.1546144e-06
159	0xb525e30a	-6.1797675e-07
160	0x35f96b54	1.8583182e-06
161	0x329d1c9e	1.829022e-08
162	0xb4a3c913	-3.0507417e-07
163	0xb5b96b83	-1.3814864e-06
164	0xb5fcad93	-1.882598e-06
165	0x3626fda2	2.4883561e-06
166	0x33467fa7	4.6216567e-08
167	0xb53d80b4	-7.0595274e-07
168	0xb60e8a72	-2.1240235e-06
169	0x34807f1b	2.393434e-07
170	0x35cd28b1	1.5285533e-06
171	0xb671c6de	-3.6027554e-06
172	0xb5dc69e3	-1.6422094e-06
173	0xb5c7096f	-1.4829401e-06
174	0xb6213613	-2.4022345e-06
175	0xb59f9610	-1.1890097e-06
176	0xb5303bc0	-6.5652057e-07
177	0xb540d045	-7.1828646e-07
178	0xb62b023a	-2.5482282e-06
179	0x358f5a96	1.0680694e-06
180	0x35f49392	1.8222365e-06
181	0xb63a0580	-2.7719361e-06
182	0xb5d37d06	-1.5757112e-06
183	0xb659608a	-3.2391713e-06
184	0x35b310b3	1.3341399e-06
185	0xb6231302	-2.4299957e-06
186	0xb564e884	-8.5274974e-07
187	0xb57f3739	-9.507526e-07
188	0x357396e1	9.074411e-07
189	0x3562da20	8.4508974e-07
190	0xb4c8a9ec	-3.7376537e-07
191	0x35cc12de	1.5204675e-06
192	0x3637a0cb	2.7362719e-06
193	0xb5b7008c	-1.3634722e-06
194	0xb64a51d5	-3.0147978e-06
195	0xb6045ef1	-1.9724796e-06
196	0xb437b9b2	-1.7110759e-07
197	0x35aca791	1.2863767e-06
198	0xb641cd4c	-2.887874e-06
199	0x36884095	4.060634e-06
200	0xb58fd971	-1.0717614e-06
201	0xb53d9cdd	-7.063625e-07
202	0xb6ad085a	-5.156774e-06
203	0xb5c2ca7e	-1.4513059e-06
204	0xb5a9f846	-1.2663738e-06
205	0xb3ffb772	-1.1907731e-07
206	0xb52aef7e	-6.367844e-07
207	0xb57561f9	-9.141218e-07
208	0x34282558	1.5659805e-07
209	0x35bae8b1	1.3925802e-06
210	0xb5e2ea0a	-1.6906426e-06
211	0x3555fee8	7.971962e-07
212	0x35aaabcf	1.271599e-06
213	0x36179788	2.2588956e-06
214	0xb57d73ba	-9.441825e-07
215	0x34d44dbd	3.954464e-07
216	0x362edf31	2.6057935e-06
217	0x34d01ee0	3.8765484e-07
218	0xb6475c2e	-2.9706966e-06
219	0xb513b170	-5.5019973e-07
220	0x3429920e	1.5792486e-07
221	0x35a281a7	1.2107674e-06
222	0xb68f1b92	-4.2649417e-06
223	0xb5ff600c	-1.9026934e-06
224	0xb599adb0	-1.1449938e-06
225	0xb65b13f1	-3.264515e-06
226	0x362444d0	2.4477959e-06
227	0x33eef581	1.11273955e-07
228	0xb49b6429	-2.8943876e-07
229	0xb4d90f35	-4.0430464e-07
230	0x36624345	3.371578e-06
231	0xb660a404	-3.347407e-06
232	0x366bb103	3.5120763e-06
233	0x35b3fdfa	1.3410456e-06
234	0x362af4c2	2.5474442e-06
235	0x353a2090	6.9337784e-07
236	0xb6b4c2f9	-5.387116e-06
237	0x3596cff1	1.123639e-06
238	0x3621dc24	2.4119008e-06
239	0xb57190db	-8.999029e-07
240	0xb5f8fb66	-1.8550606e-06
241	0x362a5581	2.5381744e-06
242	0xb643ff39	-2.9205823e-06
243	0xb665cd13	-3.4243028e-06
244	0xb6052c41	-1.9844304e-06
245	0xb6ad151e	-5.15826e-06
246	0x357d8205	9.443905e-07
247	0xb5d3eddb	-1.578995e-06
248	0x35ba2445	1.3868636e-06
249	0xb65cb3f5	-3.2887303e-06
250	0xb6206373	-2.3899745e-06
251	0x35ec1dca	1.759204e-06
252	0xb32f407c	-4.080401e-08
253	0xb5dbbe24	-1.637211e-06
254	0xb615c29f	-2.2316015e-06
255	0x34fe2447	4.7337582e-07

model.layer.2.weight f4 [256, 256]
0	0x3d0d69aa	0.034524597
1	0x3c9f0297	0.019410415
2	0x3ce64fa6	0.028114151
3	0xb7cf5640	-2.4716486e-05
4	0xbc536e50	-0.0129047185
5	0xbca11dda	-0.019667555
6	0x3d3a8653	0.045538258
7	0x3d8df7ff	0.06932067
8	0xbc97e44c	-0.018541478
9	0xbd641a78	-0.055689305
10	0xbc2d92b8	-0.0105940625
11	0x3c33b184	0.010967616
12	0xbd71dd63	-0.05904902
13	0xbcc5ce75	-0.024146298
14	0x3cd8a498	0.026445672
15	0x3bc24bb1	0.0059294333
16	0xbc80ae4d	-0.015708113
17	0xbd5f1a1d	-0.054468263
18	0xbd8e4ee2	-0.069486395
19	0x3b69ccd7	0.0035675073
20	0x3c90d86e	0.017681327
21	0xbd2dc898	-0.04242763
22	0x3bf685d4	0.007523278
23	0xbd0827c6	-0.033241056
24	0x3b24b05b	0.002512953
25	0xba9aa649	-0.0011798824
26	0x3c81ec51	0.015859755
27	0xbd74d1db	-0.059770446
28	0x3d3e060a	0.046392478
29	0xbd563c0c	-0.05230336
30	0x3ba02199	0.0048868177
31	0x3b89bf00	0.004203677
32	0x3a83bdc9	0.0010051067
33	0x3c99b899	0.01876478
34	0x3cd80b54	0.02637259
35	0xbc707c83	-0.014678123
36	0x3d82576f	0.06364333
37	0xbc801fa2	-0.015640084
38	0xbcdf6137	-0.027268035
39	0x3d2ea46b	0.04263727
40	0xbd39b517	-0.045338716
41	0x3b93b0ec	0.0045071747
42	0x3d0b201b	0.033966165
43	0xbbc3eb72	-0.005978995
44	0x3ba992ac	0.0051749554
45	0x3c779306	0.015110737
46	0xbd0fc636	-0.035101138
47	0xbb77c00c	-0.0037803678
48	0x3a20f968	0.000614068
49	0xbd341431	-0.04396457
50	0xbdabbe10	-0.08385861
51	0x3c91eafb	0.017812243
52	0xbbca0b5a	-0.006165904
53	0xbc5b1390	-0.013371363
54	0xbc3258ba	-0.010885412
55	0xbaf84288	-0.0018940726
56	0xbd42761b	-0.047475915
57	0x3c93b80c	0.018032096
58	0x3cc0b5d1	0.023524197
59	0xbcbe4904	-0.023228176
60	0x3c894540	0.016756654
61	0x3d59937c	0.053119168
62	0xbb7ccdf7	-0.0038574913
63	0x3c9e05aa	0.01928981
64	0x3cf4230a	0.029801864
65	0xbd8ac008	-0.06774908
66	0xbc0e078b	-0.008668791
67	0x3d2190db	0.039444786
68	0xbcc70233	-0.02429304
69	0xbc01f985	-0.007933025
70	0x3b8401db	0.0040285415
71	0x3c462390	0.01209344
72	0x3d085efe	0.033293717
73	0x3c5823e8	0.0131921545
74	0xbacba12b	-0.0015535703
75	0xbd0c8df0	-0.03431505
76	0xbd0b3050	-0.03398162
77	0xbd12017a	-0.03564594
78	0xbca227ba	-0.019794334
79	0x3b603a2d	0.0034214363
80	0x3c11ab0c	0.008890878
81	0xbd81b946	-0.06334166
82	0x3c865c05	0.0164013
83	0xbbfa4c96	-0.0076385243
84	0x3cbfe4ed	0.02342459
85	0x3c850940	0.016239762
86	0x3d003bfa	0.031307198
87	0xbd86ad35	-0.06576005
88	0x3d227856	0.039665543
89	0x3b573078	0.0032835286
90	0xbc8ff31f	-0.017571984
91	0x3b9d7cd6	0.0048061414
92	0x3d18a555	0.037267048
93	0xbca24d14	-0.019812144
94	0x3d090d7e	0.033460133
95	0x3c7159ea	0.01473091
96	0x3c805952	0.015667591
97	0xba8a2cd3	-0.0010541923
98	0x3ceefcb5	0.029173234
99	0x3d1e514a	0.038651742
100	0xbd0adb6e	-0.03390067
101	0x3cb67ac6	0.02227534
102	0xbca612ce	-0.020272639
103	0x3d312187	0.043244865
104	0xbc94cda9	-0.018164473
105	0x3d1de489	0.038548026
106	0x3d1c1ea2	0.03811515
107	0xbd2898d6	-0.04116138
108	0x3d5aa60d	0.053381015
109	0xbd0c0fc0	-0.034194708
110	0x3b19b339	0.0023452772
111	0xbd8361e4	-0.064151555
112	0x3c25e7e9	0.0101260925
113	0xbd1a64ee	-0.03769391
114	0x3d1f1c6e	0.038845472
115	0xbcb1e1cf	-0.02171412
116	0xbd66abc4	-0.056316152
117	0x3c9c3298	0.019067094
118	0x3d3bb3f0	0.0458259
119	0xbd3597b2	-0.04433412
120	0xbacc666c	-0.0015594489
121	0xbc0fed0e	-0.008784546
122	0xbc5f0b46	-0.013613528
123	0xbd375a6b	-0.044763964
124	0xba3e1451	-0.0007250952
125	0xbbac8a82	-0.005265535
126	0x3d8cfb5e	0.06883882
127	0xbb888be8	-0.0041670687
128	0xbc85bcb9	-0.016325342
129	0xbcf8de04	-0.030379303
130	0xbc8eddf4	-0.01743982
131	0x3c95b058	0.018272564
132	0xbc91f54c	-0.017817162
133	0x3c221712	0.009893196
134	0x3d6c297c	0.05765675
135	0xbd05493c	-0.032540545
136	0xbd4ce1fa	-0.050020196
137	0xbce2f82d	-0.02770623
138	0x3c7bef60	0.015376896
139	0xbc1d5436	-0.009602597
140	0x3cb9ca54	0.022679485
141	0x3d384e26	0.044996403
142	0x3c19bc99	0.009383344
143	0x3cec46ac	0.028842293
144	0x3c34010f	0.0109865805
145	0xbcd41ebc	-0.025893562
146	0x3c568128	0.013092317
147	0xbbd0adaf	-0.006368361
148	0xbca0deab	-0.019637426
149	0xbc73e58d	-0.014886272
150	0xbc86e511	-0.01646665
151	0xbbe7dab4	-0.007075632
152	0x3bd9e669	0.0066497815
153	0x3bd893f1	0.006609433
154	0xbb78eb94	-0.0037982212
155	0x3bccbbaa	0.0062479572
156	0x3c83f689	0.016108768
157	0xbd0db98c	-0.03460078
158	0x3c573b99	0.013136768
159	0xbd32e9b1	-0.043679897
160	0xbd26dc2a	-0.04073731
161	0x3c18cde2	0.00932643
162	0xbbcde0b1	-0.006282889
163	0x3d13492f	0.035958465
164	0xbca61a80	-0.020276308
165	0x3bafcd38	0.00536504
166	0x3c67863f	0.014131128
167	0x3c697979	0.014250153
168	0xbc245604	-0.010030273
169	0xbd38311f	-0.04496872
170	0xbbf758b7	-0.0075484174
171	0xbd342739	-0.04398272
172	0xbd5aa5ab	-0.05338065
173	0x3cd0eebf	0.025504468
174	0xbcdde096	-0.02708463
175	0xbcd28c98	-0.025701806
176	0x3c36b479	0.0111514265
177	0xbd3decd9	-0.046368454
178	0x3c36ba55	0.011152823
179	0xbb0ff40e	-0.0021965536
180	0x3cc21593	0.023691928
181	0xbce36822	-0.027759615
182	0x3d266722	0.0406257
183	0xbc4d5004	-0.012531284
184	0xbd0c19e6	-0.034204386
185	0x3c26de38	0.010184817
186	0xbbdd8beb	-0.0067610643
187	0xbc716cef	-0.014735444
188	0xbd172187	-0.03689721
189	0xbca2e3fe	-0.019884106
190	0x3bfc73d6	0.0077042384
191	0x3d2b9283	0.04188777
192	0xb92df50e	-0.00016589856
193	0xbc43ea5a	-0.011957729
194	0xbdcdedff	-0.1005516
195	0xbd4e730e	-0.050402693
196	0x3d31d196	0.043412767
197	0x3dacfe76	0.08446972
198	0xbc180624	-0.009278808
199	0xbd04edc1	-0.032453302
200	0x3c0ee7e2	0.008722277
201	0xbd27fcea	-0.041012682
202	0xbbcb6ec7	-0.006208274
203	0xbc82b74f	-0.015956549
204	0xbb29ecee	-0.0025928575
205	0x3d131622	0.03590978
206	0x3c01cfc7	0.007923073
207	0x3ccf2e75	0.025290707
208	0xbbe06d4a	-0.006848966
209	0x3ca67d96	0.020323556
210	0xbd075555	-0.033040363
211	0xbcf9f092	-0.03051022
212	0x3c6e161b	0.014531638
213	0x3ce34d0e	0.027746703
214	0xbd48940f	-0.048969325
215	0x3d2dd1c7	0.042436387
216	0x3dcb41e9	0.09924681
217	0xbc873fde	-0.016509946
218	0xbcf29ab3	-0.029614782
219	0x3d4da89f	0.050209638
220	0xbd1c9ca9	-0.03823534
221	0x3ce1d0be	0.027565356
222	0xbcf0de9c	-0.029403023
223	0x3b35393e	0.0027652527
224	0xbc9f2d16	-0.019430678
225	0x3c3aa12c	0.011390965
226	0x3ba5a7c7	0.005055401
227	0xbba88121	-0.0051423465
228	0x3c8cd607	0.0171919
229	0xbb9fb186	-0.0048734574
230	0x3a08c079	0.0005216669
231	0xbd4da603	-0.05020715
232	0x3d78900a	0.06068424
233	0xbc25bc22	-0.010115655
234	0xbc04ff36	-0.008117488
235	0xbcc9a506	-0.024614822
236	0xbbe26375	-0.006908829
237	0x3b02cf96	0.0019960157
238	0x3dbfd88d	0.09367476
239	0xbb85e7c7	-0.004086468
240	0xbcbdf951	-0.023190172
241	0x3c61897a	0.013765687
242	0xbb574e03	-0.0032852895
243	0xbd4c8a42	-0.04993654
244	0xbb4e33a5	-0.0031463888
245	0x3d5d0b38	0.053965777
246	0xbcbc1a5f	-0.022961793
247	0xbca58f06	-0.0202098
248	0x3cffbdf8	0.031218514
249	0xbbe416f6	-0.006960745
250	0x3c74162a	0.014897862
251	0x3cc8ea3b	0.024525752
252	0xbd18770a	-0.0372229
253	0xbcdf4d6f	-0.027258603
254	0xbc8a83e6	-0.016908597
255	0xbd2da689	-0.04239515
