results/qvpo_HalfCheetah-v3/actor_25_04_16_02_23_16_0.pth (torch, 665521 bytes, 24 tensors)

betas f4 [20]
000000 e7 f3 02 3c 51 74 a4 3c 9e 1c 04 3d 56 03 37 3d
       0.007992721 0.020074995 0.032253854 0.044680916
000010 52 9a 6b 3d 08 52 91 3d cf 82 ae 3d 70 eb cd 3d
       0.05752022 0.07095724 0.085210435 0.10054672
000020 e1 3c f0 3d 27 2f 0b 3e d8 c3 20 3e 3c b6 39 3e
       0.11730362 0.13592206 0.15699708 0.18135923
000030 b1 41 57 3e ad 42 7b 3e d6 56 94 3e 0b 3f b2 3e
       0.21021153 0.24537154 0.289725 0.34813723
000040 c4 de db 3e e4 0f 0d 3f 21 9c 3f 3f 77 be 7f 3f
       0.42943394 0.5510237 0.7484761 0.999

alphas_cumprod f4 [20]
000000 30 f4 7d 3f 11 db 78 3f 44 d4 70 3f 97 11 66 3f
       0.99200726 0.9720927 0.9407389 0.8987059
000010 ca d5 58 3f f7 72 49 3f 95 48 38 3f 21 c1 25 3f
       0.84701216 0.7869105 0.7198575 0.64747816
000020 92 4f 12 3f 11 d9 fc 3e ca 26 d5 3e 99 7e ae 3e
       0.57152665 0.4938436 0.41631156 0.3408096
000030 53 d0 89 3e 13 ff 4f 3e 11 bc 13 3e fc 9a c0 3d
       0.2691675 0.20312147 0.1442721 0.09404561
000040 c8 c9 5b 3d 01 5c c5 3c fb 8f c6 3b 47 53 cb 36
       0.05365923 0.024091722 0.0060596443 6.059566e-06

alphas_cumprod_prev f4 [20]
000000 00 00 80 3f 30 f4 7d 3f 11 db 78 3f 44 d4 70 3f
       1.0 0.99200726 0.9720927 0.9407389
000010 97 11 66 3f ca d5 58 3f f7 72 49 3f 95 48 38 3f
       0.8987059 0.84701216 0.7869105 0.7198575
000020 21 c1 25 3f 92 4f 12 3f 11 d9 fc 3e ca 26 d5 3e
       0.64747816 0.57152665 0.4938436 0.41631156
000030 99 7e ae 3e 53 d0 89 3e 13 ff 4f 3e 11 bc 13 3e
       0.3408096 0.2691675 0.20312147 0.1442721
000040 fc 9a c0 3d c8 c9 5b 3d 01 5c c5 3c fb 8f c6 3b
       0.09404561 0.05365923 0.024091722 0.0060596443

sqrt_alphas_cumprod f4 [20]
000000 92 f9 7e 3f 10 67 7c 3f 7b 4c 78 3f 32 b0 72 3f
       0.99599564 0.9859476 0.969917 0.948001
000010 ec 9a 6b 3f a8 17 63 3f a3 33 59 3f 37 fe 4d 3f
       0.9203327 0.8870797 0.84844416 0.80466026
000020 d0 88 41 3f c6 e6 33 3f 47 2d 25 3f 33 73 15 3f
       0.75599384 0.7027401 0.6452221 0.58378905
000030 f7 d0 04 3f d6 c0 e6 3e 4c 79 c2 3e a9 03 9d 3e
       0.51881355 0.45068997 0.37983167 0.30666855
000040 40 34 6d 3e b4 f0 1e 3e 87 6c 9f 3d 1b 53 21 3b
       0.23164463 0.15521508 0.07784372 0.0024616185

sqrt_one_minus_alphas_cumprod f4 [20]
000000 7a 18 b7 3d 6b 10 2b 3e 49 47 79 3e f0 f3 a2 3e
       0.089402154 0.16705482 0.243436 0.31826735
000010 0f 43 c8 3e f6 58 ec 3e 37 7f 07 3f 0c ff 17 3f
       0.39113662 0.46161622 0.5292849 0.59373546
000020 79 92 27 3f 60 21 36 3f 2e 95 43 3f 08 d9 4f 3f
       0.65457875 0.71144676 0.76399505 0.8119054
000030 e7 d9 5a 3f b6 86 64 3f 72 d0 6c 3f 3d aa 73 3f
       0.8548874 0.8926805 0.9250556 0.9518164
000040 74 09 79 3f c0 e5 7c 3f 23 39 7f 3f cd ff 7f 3f
       0.9728005 0.9878807 0.9969656 0.99999696

log_one_minus_alphas_cumprod f4 [20]
000000 fb 88 9a c0 26 0c 65 c0 f3 d9 34 c0 e4 8a 12 c0
       -4.8292212 -3.5788665 -2.8258026 -2.2897272
000010 8a 4e f0 bf bc e4 c5 bf de df a2 bf 51 75 85 bf
       -1.8773968 -1.5460429 -1.2724569 -1.0426427
000020 83 f7 58 bf 15 50 2e bf cb d3 09 bf 51 5f d5 be
       -0.8475267 -0.68090945 -0.53838795 -0.41674283
000030 62 8c a0 be 97 80 68 be c6 8a 1f be 03 46 ca bd
       -0.31357104 -0.22705303 -0.15580282 -0.09876635
000040 9c e7 61 bd 8f c6 c7 bc a3 2a c7 bb 29 00 cc b6
       -0.05515252 -0.024386672 -0.0060780807 -6.0796924e-06

sqrt_recip_alphas_cumprod f4 [20]
000000 be 83 80 3f 08 d3 81 3f 56 f8 83 3f 5d 05 87 3f
       1.0040205 1.0142527 1.0310161 1.0548512
000010 84 14 8b 3f 2e 4b 90 3f 48 dd 96 3f c7 12 9f 3f
       1.0865636 1.1272943 1.178628 1.2427605
000020 45 50 a9 3f e8 24 b6 3f 9d 61 c6 3f de 41 db 3f
       1.3227621 1.4230013 1.5498539 1.7129476
000030 7d b7 f6 3f 26 01 0e 40 e5 7e 28 40 c2 b1 50 40
       1.9274746 2.21882 2.632745 3.2608495
000040 84 24 8a 40 60 2a ce 40 3f 8a 4d 41 4f 1e cb 43
       4.3169575 6.4426727 12.8462515 406.2368

sqrt_recipm1_alphas_cumprod f4 [20]
000000 d9 d4 b7 3d 8e 80 2d 3e 4f 81 80 3e 1b e4 ab 3e
       0.08976144 0.16943571 0.25098655 0.33572468
000010 ea 98 d9 3e 74 37 05 3f 52 b3 1f 3f 1d e5 3c 3f
       0.42499477 0.5203774 0.62382996 0.737871
000020 7a a8 5d 3f fb 95 81 3f f5 8f 97 3f 25 04 b2 3f
       0.865852 1.0123895 1.1840807 1.3907515
000030 41 ea d2 3f 7f 87 fd 3f 2e de 1b 40 82 a3 46 40
       1.6477739 1.9806975 2.4354358 3.1037297
000040 9e 62 86 40 bd aa cb 40 95 ea 4c 41 26 1e cb 43
       4.199538 6.364592 12.807271 406.23553

posterior_variance f4 [20]
000000 00 00 00 00 ab 66 bc 3b 69 db 78 3c cc 23 d6 3c
       0.0 0.0057495437 0.01518903 0.026140116
000010 73 fe 1b 3d 79 aa 50 3d c1 bd 84 3d f8 a3 a3 3d
       0.03808446 0.050943825 0.06481505 0.07990259
000020 2f a7 c5 3d 38 a5 eb 3d 11 69 0b 3e de 70 24 3e
       0.09651028 0.11506122 0.13614298 0.1605868
000030 cb 27 42 3e 8c 6f 66 3e 43 23 8a 3e 3e 5d a8 3e
       0.18960492 0.2250349 0.26980028 0.32883638
000040 a6 7c d2 3e cc c9 08 3f 3a 22 3c 3f 22 32 7e 3f
       0.41110724 0.5343292 0.73489726 0.99295247

posterior_log_variance_clipped f4 [20]
000000 f1 34 38 c2 89 13 a5 c0 65 fd 85 c0 f3 3b 69 c0
       -46.0517 -5.1586347 -4.187182 -3.644284
000010 14 26 51 c0 b0 87 3e c0 30 1e 2f c0 80 b9 21 c0
       -3.267949 -2.9770317 -2.7362175 -2.526947
000020 86 a3 15 c0 f9 62 0a c0 04 3d ff bf 12 1a ea bf
       -2.3381057 -2.1622908 -1.9940495 -1.8289206
000030 0c d7 d4 bf 77 e9 be bf 7b b0 a7 bf 68 5c 8e bf
       -1.6628127 -1.4914998 -1.3100733 -1.112195
000040 07 8f 63 bf 3e 72 20 bf 66 b5 9d be 4e c0 e7 bb
       -0.8889012 -0.6267432 -0.3080246 -0.007072485

posterior_mean_coef1 f4 [20]
000000 cf ff 7f 3f 3d 6a 37 3f d9 5f 09 3f b2 0c db 3e
       0.9999971 0.7164648 0.53661877 0.42783123
000010 cc 7d b6 3e d9 e8 9c 3e 09 26 8a 3e 5b cd 77 3e
       0.3564285 0.306464 0.26982144 0.2419943
000020 6a 94 61 3e 97 e2 4f 3e 2c 8e 41 3e cf c6 35 3e
       0.22029272 0.20301281 0.1890189 0.1775162
000030 6d f2 2b 3e bf 95 23 3e c0 40 1c 3e ab 76 15 3e
       0.16791697 0.15975092 0.15259075 0.1459605
000040 45 80 0e 3e 85 ee 05 3e 61 60 ef 3d f6 43 9f 3d
       0.13916118 0.13079269 0.11688305 0.077766344

posterior_mean_coef2 f4 [20]
000000 00 00 00 00 bc 28 91 3e 06 31 ed 3e d3 62 12 3f
       0.0 0.2835139 0.46326464 0.57182044
000010 52 8d 24 3f 99 27 31 3f 9d 3e 3a 3f a3 f0 40 3f
       0.6427814 0.69201046 0.7275179 0.7536718
000020 f9 e1 45 3f cd 71 49 3f 4a d3 4b 3f 8a 18 4d 3f
       0.7729793 0.7868927 0.79619277 0.8011557
000030 8a 34 4d 3f 3b f4 4b 3f ec e9 48 3f fb 3a 43 3f
       0.80158293 0.7966954 0.78481936 0.7626187
000040 8a 1e 39 3f 68 56 26 3f dd 1e fc 3e f1 bd 00 3d
       0.72312224 0.64975595 0.49242297 0.031431142

model.time_mlp.1.weight f4 [256, 32]
000000 23 15 c9 bd ec 9a 28 bd c1 4a 1b be ab 5c 49 3d
       -0.09818485 -0.04116337 -0.15165235 0.04916064
000010 92 74 d1 3d 99 68 40 bd 58 b2 2c 3a ab 0d 13 bd
       0.10227312 -0.046974752 0.00065878546 -0.035901707
000020 7e 2a a3 bd 73 79 f7 3d 5c f6 a7 bd 90 e9 44 bc
       -0.07967089 0.120837115 -0.08201286 -0.012018576
000030 a4 02 22 3e f1 f8 b3 ba e8 7c 08 be 0f 3a d3 bc
       0.1582132 -0.0013730807 -0.13328898 -0.02578452
000040 61 10 9d 3b 11 43 b0 bc 1a 95 20 be ff 8b e7 3d
       0.0047932123 -0.021516355 -0.15681878 0.11305999
000050 fe 05 0e be 9a 02 81 bc c7 f7 65 3e d2 b3 9b 3d
       -0.13869473 -0.01574831 0.22457801 0.076026574
000060 f8 e8 e2 3d 0d f4 a5 3d 63 bc 2a 3c a0 c8 fd bd
       0.110795915 0.081031896 0.010420891 -0.12391782
000070 fe 7e ba bd 72 d3 f5 3c 46 31 b7 3c 0e c0 11 bd
       -0.09106253 0.030008052 0.022362363 -0.03558355
000080 9e 97 bc 3d b2 69 fa bc e6 1a 9b bd d0 13 33 3d
       0.09208606 -0.030567978 -0.0757349 0.043720067
000090 ed 2b ae 3c c4 c5 ea 3c a2 43 6d bb ff 73 f2 3d
       0.02126118 0.028658755 -0.0036203642 0.11838531
0000a0 60 78 ad bd 22 46 f6 3d e1 45 30 3e 90 f5 4d 3e
       -0.08470225 0.120250955 0.17214157 0.20113206
0000b0 b2 53 19 3d b5 52 b7 3d 5f a3 45 3e f7 c0 97 3c
       0.037433334 0.08951322 0.19300602 0.01852463
0000c0 b1 ac fb bd 58 e4 15 bb 12 95 d7 bd a5 20 dc bd
       -0.12288798 -0.00228717 -0.1052648 -0.10748414
0000d0 a4 63 e2 bd 4c f4 c2 3c 92 16 83 bc e1 c9 88 3d
       -0.11054161 0.02379813 -0.016001973 0.0667913
0000e0 c2 42 2e 3e bf 22 50 be 86 4c 8c 3b d1 44 3f 3c
       0.17017654 -0.20325755 0.0042815832 0.011674122
0000f0 bb ce 2a 3e 00 cd 75 bd e9 a7 01 bd e5 79 92 3a
       0.16680424 -0.060009956 -0.031654272 0.0011175243
000100 ea 0d bd bd 37 b9 22 bd 1d 29 30 3d a2 83 5d bb
       -0.092311695 -0.039727416 0.04300796 -0.0033800383
000110 e0 52 e8 bd 97 12 4c be 1a c1 61 bd d9 05 99 bd
       -0.11343932 -0.19928966 -0.055115797 -0.074718185
000120 79 cc c6 bd 79 e9 bc bd f3 55 25 bd 9b 0d 65 3c
       -0.09706969 -0.09224219 -0.04036517 0.013980295
000130 60 80 cd 3d 70 37 e3 bb 9a 98 03 3e d4 56 d5 bd
       0.10034251 -0.006934099 0.12851182 -0.10416952
000140 70 6c e9 3c 79 d1 0b 3e 74 6a d7 3d df 1c fe 3d
       0.02849409 0.13654126 0.10518351 0.124078505
000150 a1 db 07 bd 89 55 ff 3c b2 dc 95 bb 8d 24 52 3c
       -0.03316844 0.031168716 -0.004573428 0.012826097
000160 fe 31 86 3c fc a2 4d bd 72 f5 83 3d 8b 6a d5 bd
       0.01638126 -0.050204262 0.06443299 -0.10420712
000170 d7 0f ac bd b0 ce 1d be 37 24 5a 3d 13 03 2a bd
       -0.08401459 -0.15410876 0.053257193 -0.041506838
000180 5f 30 e6 3b 29 ee 91 bd 86 84 af 3c 5e 43 ad 3d
       0.0070248093 -0.071255036 0.021425497 0.08460115
000190 cf ab 26 be cd 36 9d bd 0b ab 18 be 6d 8d c0 bd
       -0.16276477 -0.07676468 -0.14908998 -0.09401975
0001a0 1a f1 0e be 63 b1 ca 3d 92 8c b7 3c c6 6a b1 3d
       -0.1395916 0.09897115 0.022405896 0.086629435
0001b0 4d d1 a7 3d a6 57 44 3d c1 a1 07 3e 5d c8 db bd
       0.08194218 0.04793515 0.13245298 -0.10731576
0001c0 38 a2 18 3e 03 52 f2 3d 4b 1a a7 3d ee b9 88 3d
       0.14905632 0.11832049 0.08159312 0.06676088
0001d0 c3 80 22 3e 05 c4 f5 3c 42 d7 40 3d b9 7d 8c 3a
       0.15869431 0.030000696 0.047080286 0.0010718621
0001e0 32 a3 8b bc cf c6 88 bb f6 23 2e bd c8 3f 36 bd
       -0.017045591 -0.0041740905 -0.042514764 -0.04449442
0001f0 41 00 82 3c 64 e4 bf bb 68 27 5f be 96 b3 95 3d
       0.015869262 -0.0058560837 -0.21792376 0.07309644
000200 d0 62 2b bd 3e 06 7e bd 05 a0 de bc 2a 0b db 3c
       -0.04184228 -0.06201767 -0.027175913 0.026738722
000210 1e b9 84 3d 4e ab bf bd ec ec 4d be 8b c9 64 bd
       0.06480621 -0.09358846 -0.2010991 -0.05585627
000220 c2 52 0e 3c 6c f2 03 bd 95 82 c1 bd a2 7c 2b be
       0.008686723 -0.032213613 -0.09448735 -0.16746762
000230 8f 98 fa 3c 68 14 07 be 82 85 8f bc 87 0f 53 3d
       0.030590324 -0.13191378 -0.017519716 0.05152848
000240 75 49 c4 3c bc 99 a1 3d 2f fe 00 3e 56 c3 2b 3e
       0.023960808 0.07890651 0.12596963 0.16773733
000250 53 de 95 3d 56 81 07 bd 7c c0 e3 3b 76 c1 e6 bc
       0.073177956 -0.03308233 0.006950436 -0.028168421
000260 66 8b 67 bb 66 02 c2 bd 92 1a e6 bd dd 65 9e 39
       -0.003533089 -0.09473114 -0.11235537 0.00030212002
000270 4c 51 2d 3d d9 dd 05 3e 98 37 5c bc e6 bf e3 3d
       0.04231386 0.1307291 -0.013440989 0.11120586
000280 c4 03 32 3c b6 90 78 bc 28 b8 33 be 40 10 9d 3d
       0.010865156 -0.0151712205 -0.17550719 0.07669115
000290 98 12 e2 bc 0e 57 1e 3d a5 19 e2 3c c7 ad b7 bd
       -0.027596757 0.03865724 0.027600119 -0.08968692
0002a0 06 3f 4b 3d f8 f2 f7 bc 8a d2 8e 3d a2 75 68 bb
       0.04962065 -0.030267224 0.06973751 -0.0035470505
0002b0 c7 c9 aa bc e3 88 01 3e 99 ba 2c 3d 41 93 ec 3d
       -0.020848168 0.12649874 0.04217014 0.11551524
0002c0 b3 89 d4 bd 03 63 a4 bd 3a 76 41 3e 81 6e 9c bd
       -0.103778265 -0.080266975 0.18892756 -0.076382644
0002d0 54 91 16 bc fe c3 30 be fb 04 bb 3c 05 d1 5f 3d
       -0.009189922 -0.17262265 0.022829523 0.054642696
0002e0 fa 96 8c 3d 3a 57 40 3d cb 25 44 be cb 12 25 bd
       0.06864734 0.046958186 -0.19155042 -0.040301125
0002f0 e1 d7 a4 3d ce e2 08 bd c0 55 8e 3d 8b d9 7c 3d
       0.08048988 -0.033419423 0.06949949 0.061730903
000300 6e af 0f 3e 71 38 bf bd f6 23 13 3e 34 1f 1a 3d
       0.14031765 -0.09336937 0.14369187 0.037627414
000310 53 03 03 bd 10 9f a3 3d b5 17 20 3d 35 59 01 3e
       -0.031985592 0.07989323 0.03908511 0.12631686
000320 95 1d cd bc 8c a9 00 bd c6 89 12 bc e3 87 a0 bc
       -0.02503852 -0.031411693 -0.008943981 -0.019596046
000330 4d 9c bc 3d 40 ea d4 bb f4 85 ba 3d b6 5d 9b 3d
       0.092094995 -0.0064976513 0.09107581 0.07586233
000340 88 de ac 3c 64 50 1e 3d 3f 4d 13 3d 23 e2 3f be
       0.021102205 0.038650885 0.03596234 -0.18738608
000350 11 fc 42 bd a9 64 95 3c 29 98 f3 3d 15 24 86 3d
       -0.04760367 0.018236475 0.118942566 0.06549851
000360 ad 94 23 bd 77 c4 14 be 4a 58 b0 bd e4 db a6 3c
       -0.03993671 -0.1452807 -0.0861059 0.020368524
000370 bb ae 17 3d 4e 1e a6 3d cf a2 97 3c 3c 9c 8d bd
       0.03703187 0.08111249 0.01851025 -0.06914565
000380 d3 0a 72 bd 54 a9 79 bd 7e 6a 96 bd 8f 6a 6a bd
       -0.059092354 -0.0609525 -0.073445305 -0.05723053
000390 0a 3a b2 3d 7a 27 35 3d 66 cc e4 bc dc 51 02 3e
       0.08702476 0.0442271 -0.027929496 0.1272654
0003a0 6b ee 92 3d 32 29 40 bd 60 22 93 bb 26 1a a0 3d
       0.07174381 -0.046914287 -0.004490182 0.078174874
0003b0 93 8a a6 bd 78 17 ec 3d b0 25 a2 bd 66 0c 07 bd
       -0.081319 0.11527914 -0.079173446 -0.03297081
0003c0 38 28 ea bd 75 10 ff 3d 83 9b 36 3d ff a3 7f 3d
       -0.11433452 0.12454311 0.0445819 0.06241226
0003d0 aa 26 01 3d 08 cb 85 3d 31 ea d3 bd 1c 4c 89 3c
       0.031531014 0.06532866 -0.10347403 0.016759925
0003e0 24 4e 92 3d 04 20 b8 bd 74 cd 39 bd 85 a1 fb bd
       0.071438104 -0.089904815 -0.04536195 -0.12286667
0003f0 8e ce ff 3d ed da 83 3d 79 b6 e7 bc b9 ab 30 3e
       0.12490569 0.06438241 -0.028285252 0.17253007

model.time_mlp.1.bias f4 [256]
000000 6f fe 3d 3c a3 f6 51 3c 34 9b 0b 3c e5 b0 7f 3c
       0.011596306 0.01281515 0.00852089 0.01560614
000010 2e 23 0e 3c 9f e5 80 3c 50 2d 0e 3c 60 3a 70 3b
       0.00867538 0.015734492 0.0086777955 0.0036655888
000020 7a e0 44 bc 57 42 36 3b 9e 9d f0 3b 31 5c 7b 3c
       -0.01201641 0.0027810538 0.007343008 0.015341804
000030 eb 01 7d 3c 02 2c 66 3c 10 47 8a bb 4e 16 21 3c
       0.015442352 0.014048578 -0.004219897 0.009831978
000040 9f bb cb bb dd e6 66 3c 22 21 d0 3c 9b fa 30 3c
       -0.0062174345 0.014093128 0.025406424 0.0108019365
000050 70 2b 9c 3b ab c3 e3 3b 17 f2 1d bb 64 2a 96 b9
       0.0047659203 0.0069508157 -0.0024100596 -0.00028641813
000060 db 28 67 3c 0e 12 83 3b 38 a0 be 3b 6f 37 49 3a
       0.014108862 0.003999955 0.0058174394 0.0007675802
000070 d0 a8 93 3b f9 31 63 3b d3 31 1f 3c 54 0d 46 3c
       0.004506208 0.0034667237 0.009716469 0.012088139
000080 62 e6 a5 3b 7a 67 57 bb 3e d7 6d 3b 16 c2 3c ba
       0.005062864 -0.0032868073 0.0036291624 -0.0007200552
000090 ef 76 01 3c 60 32 a7 bb 88 f8 17 3b 14 74 97 3c
       0.007901891 -0.0051024407 0.0023188908 0.018487968
0000a0 89 41 f0 3b 1c e3 13 3b 26 a5 83 3b f4 02 4a 3b
       0.007332031 0.0022565788 0.00401749 0.0030824514
0000b0 75 57 8c bb b2 b6 81 3c dd d7 eb 3b 2b b9 39 bc
       -0.0042828866 0.015834186 0.007197364 -0.011335651
0000c0 f9 2b c5 3c d7 4a f3 3b cd 96 58 3c 56 bd 90 3b
       0.02406882 0.007424693 0.013219547 0.004417102
0000d0 28 ed 35 3c 7d 67 ea bb 20 1b 8f 3c 53 52 bb 3a
       0.011103906 -0.00715345 0.017468989 0.0014291502
0000e0 56 5a c6 3b 79 a4 e1 bb 02 90 03 3c 3e 65 5e 3b
       0.0060532494 -0.0068860617 0.00802994 0.0033934857
0000f0 d4 6f 4a 3c f4 6b 00 3c 65 eb 91 ba 93 74 eb ba
       0.012355763 0.007838238 -0.0011132775 -0.0017963819
000100 ae f2 60 3c 11 c7 84 3c 02 f7 13 3c ca 09 41 3b
       0.013729734 0.016208204 0.009031059 0.0029455298
000110 86 87 38 3c 01 a4 b7 3c 5c 55 fa 3b 7f 4b 6e 3b
       0.01126278 0.02241707 0.00763957 0.0036360917
000120 c5 3f f8 3a bc 3d 19 3b c2 9e b1 3b 6b b9 f6 ba
       0.0018939903 0.0023382744 0.0054205367 -0.0018823569
000130 eb f7 69 3b e9 25 df 3b 53 ef 9f 3a 59 33 02 3b
       0.003570075 0.006809939 0.0012202061 0.0019867031
000140 45 cd 89 3c 04 f1 11 3c cf 8a 51 39 06 36 db ba
       0.016821513 0.00890756 0.00019983503 -0.0016724474
000150 99 ad 8b ba 3f dc f2 3c 8e 1a eb 3a 0c 26 01 3c
       -0.0010656595 0.029646037 0.0017936991 0.007882606
000160 e2 02 e4 39 cd 93 0b 3c 99 f6 1f 3b c6 7d 16 3b
       0.00043489697 0.008519125 0.0024408458 0.002296315
000170 56 c8 af 3a 1c e7 94 3c a5 72 b0 bb 96 a4 81 ba
       0.0013411145 0.018176608 -0.0053847604 -0.0009890969
000180 ee 37 b7 3c c5 de 23 bb a4 c4 35 bc e7 c0 87 3b
       0.022365537 -0.0025004607 -0.011094246 0.004142869
000190 3f f2 18 3c 14 d8 21 3c e0 12 ca 3c 20 74 85 3c
       0.0093351 0.009878177 0.024667203 0.016290724
0001a0 14 07 a1 3c b0 2e c3 3b 7d 85 83 bb 0e 60 c4 3c
       0.019656695 0.0059564933 -0.004013716 0.023971584
0001b0 db 55 2c 3c 11 0e cd 3c af 19 fc 3b 1c 22 e3 3b
       0.010518516 0.025031121 0.0076934914 0.0069315564
0001c0 d9 29 08 3d a6 e9 38 ba dd 61 af ba f9 11 64 3c
       0.033243034 -0.00070538593 -0.0013380606 0.013920301
0001d0 36 e8 da bb 24 0f 39 3c aa 59 ba 3b 4b b3 fd 3b
       -0.0066805137 0.011295114 0.0056869583 0.0077423207
0001e0 89 88 96 3c a1 0e ba 3b ac 6e cf 3c 25 e2 75 3b
       0.018375652 0.0056780134 0.025321327 0.0037518826
0001f0 c7 9a f8 3b 91 fb 5a 3b 4d e8 13 bc 6f 06 8a 3c
       0.0075868103 0.0033414105 -0.009027553 0.01684877
000200 7e 34 ab 3b f0 be b6 3b f5 ef f5 3b 09 56 c0 bb
       0.0052247634 0.0055769607 0.0075054117 -0.005869631
000210 c9 01 ee 3b 41 7d 99 3c de 58 09 3c 8d 7c 6b 3c
       0.0072633964 0.018736484 0.008383004 0.014372957
000220 5b 27 70 3b 1f 90 ad 3b e5 26 8f 3b c6 67 ad bb
       0.0036644551 0.0052967216 0.0043686503 -0.005291912
000230 58 21 e4 3c 35 6e ee bb e4 90 65 3c ae 90 cd 3b
       0.02784793 -0.0072763213 0.014011595 0.0062733507
000240 7c c5 7f 3c a6 c1 4a ba 64 1a 55 3a fb cf 4a 3c
       0.015611049 -0.00077345443 0.00081292377 0.012378688
000250 30 0a 0a 3c 93 37 36 3b 61 79 b5 3c ca 4f 85 39
       0.00842528 0.002780412 0.022152605 0.00025427184
000260 72 1e 7e 3b 03 39 b1 3b 24 16 a8 3b c9 27 12 bc
       0.003877547 0.0054084077 0.0051295925 -0.008920618
000270 da 8b 26 bb f1 cf 8b ba 46 e3 35 3c a6 9e a6 3b
       -0.0025412948 -0.001066683 0.0111015495 0.0050848303
000280 97 20 68 3a 7d 06 57 bb 3e 3a 90 3a dd 0e 41 ba
       0.0008854954 -0.0032810264 0.0011003686 -0.00073645805
000290 ad 2e b7 bb 89 bf 4c 3c 6b de 6b 3b bf bb a3 3c
       -0.005590281 0.012496837 0.0035990726 0.019986985
0002a0 ae aa ab 3b 6c 5c 41 3c e1 3e 6a bb 7f 50 e8 3b
       0.0052388525 0.01180182 -0.0035743045 0.007089674
0002b0 12 56 05 ba 4f a8 2f 3c 7c 94 ec bb d6 88 b6 3c
       -0.0005086373 0.01072128 -0.007219849 0.022282045
0002c0 9d 38 34 3a 5c f7 b5 3b 32 83 4a 3c e1 c5 8b 3a
       0.0006874891 0.005553169 0.012360381 0.0010663831
0002d0 4a 74 34 b8 d7 fb 89 bb be 05 29 bb c2 3b 66 3c
       -4.3023647e-05 -0.00421093 -0.0025790776 0.014052333
0002e0 b8 d6 9c 3b a7 bc 11 3c 52 a3 74 bb 47 e1 80 3c
       0.0047863387 0.008895076 -0.0037328792 0.01573242
0002f0 63 dc 39 3c 46 0c c7 3c f3 b1 ea 3a e9 41 96 3c
       0.011344048 0.024297845 0.0017905816 0.018341975
000300 3d f9 14 3a 21 54 f5 3b 35 55 6d 3b 36 04 2c 3c
       0.00056828914 0.0074868356 0.0036214117 0.010499051
000310 91 ce 6a 3b f0 e6 2f 3b 84 f8 97 3c 5c b8 c7 b9
       0.003582869 0.002684053 0.018551119 -0.00038093596
000320 49 8d d6 3b 69 b4 8d 3b e5 14 65 3c 22 da eb bb
       0.006547604 0.004324485 0.013982032 -0.0071976343
000330 2e fc c3 3b 0c 0c 89 3c e0 b0 05 3b 25 74 eb ba
       0.00598099 0.016729377 0.0020399615 -0.0017963691
000340 1d ac af 3c ee d3 b9 3c f6 c1 06 bc 43 68 57 3c
       0.021444375 0.022684064 -0.008224955 0.0131474165
000350 e3 b5 45 3a c7 d9 23 3c 2c 80 d0 3c ab 6c da 3b
       0.0007542057 0.010000653 0.025451742 0.0066657863
000360 a4 ba e2 3c 6f 70 39 3b 6d e3 0b 39 e4 6e 92 3c
       0.027676888 0.0028295775 0.00013340796 0.017875142
000370 8c 7f 83 3c 5d 6f 09 bb f3 99 9a 3a ca 56 60 3c
       0.01605203 -0.0020970919 0.0011795148 0.013692567
000380 b8 cd a0 3b b4 dc c0 3b ec 06 0d 3c 00 ad 25 bb
       0.004907336 0.005885685 0.008607607 -0.0025280118
000390 9d 49 42 3c a8 ed 7d 3b cf fe 3c bb 2f 2d 44 3b
       0.011858371 0.003874639 -0.0028838401 0.0029934158
0003a0 a9 ca 97 3a ad 8e 6f 3c bd 4e db 3a 94 ec 1d bc
       0.0011580783 0.014621419 0.001673184 -0.009638924
0003b0 af 70 b1 3b 16 7a b4 3c 1c b8 ab 3c f4 c4 70 3c
       0.0054150443 0.022030871 0.020961814 0.014695395
0003c0 16 a8 d9 bb 53 41 bb 39 61 2e 12 3c 3b bf 0d 3b
       -0.006642352 0.0003571609 0.00892219 0.0021628875
0003d0 5f 94 fc ba 6b 02 03 3c 03 8d 40 3c a6 aa 4d 3c
       -0.0019270292 0.007996182 0.01175237 0.012552893
0003e0 c6 6c 0a 3c 47 9d ba bb 9b 1b 17 3c f1 82 58 3a
       0.008448785 -0.0056950185 0.00922289 0.0008259258
0003f0 e5 52 8b 3c ac 4a 51 bb 9a c8 f6 3b 46 d2 c5 bb
       0.0170073 -0.0031935377 0.007531238 -0.0060370294

model.time_mlp.3.weight f4 [32, 256]
000000 a3 ce c6 3d e2 ce 8e 3d fa cb 4d bd bd ac 89 bd
       0.097073816 0.069730535 -0.050243355 -0.067224
000010 b9 c2 5b bd d5 86 23 3d 54 13 82 3c 66 34 6e bc
       -0.0536525 0.039923508 0.015878357 -0.01453886
000020 19 d1 3e ba 3c 02 c0 3c 9f c7 71 bd a0 bd 0d 3d
       -0.0007279083 0.023438565 -0.059028264 0.03460467
000030 72 ea 41 3d fa 68 0d 3d 7b 5b 12 bd 42 59 df bc
       0.047342725 0.03452394 -0.035731774 -0.027264241
000040 f1 55 9e 3c 1f 32 0d be d0 a5 fb 3d ca 61 41 bd
       0.01932809 -0.13788651 0.122874856 -0.0472124
000050 5d d9 3c bd 7f d8 db 3c 81 71 00 bc fa 68 a0 3d
       -0.04610573 0.026836632 -0.007839561 0.07832523
000060 1e 11 0f 3d 6b df f2 bb f6 61 1c bd f8 f2 72 bd
       0.034928434 -0.0074118874 -0.03817936 -0.059313744
000070 a4 05 19 3d ec a8 ed 3c 4d b2 9c 3c 5f 7f 59 bd
       0.037358895 0.029011212 0.01912799 -0.053099986
000080 d3 13 6a 3c a5 10 eb bd b5 00 dd bb c1 f8 05 bc
       0.014286953 -0.11477784 -0.006744469 -0.008176983
000090 1a e6 17 3c 2d 2c 47 bc e0 37 8d bd c7 97 37 bd
       0.009271169 -0.012156528 -0.06895423 -0.04482248
0000a0 f2 3e 94 bd 2f 9a a4 3c da e4 22 bc 0a 74 9c 3c
       -0.07238568 0.020093052 -0.009942258 0.0190983
0000b0 e1 91 3f bd 80 15 9c 3d 35 a7 f4 3b b7 72 8c bd
       -0.04676998 0.07621288 0.0074662217 -0.068578176
0000c0 35 10 7d 3d f7 97 89 bd 29 a2 83 bc 4c 29 52 3a
       0.061783034 -0.06718438 -0.016068535 0.0008017018
0000d0 4f cd ad 3d fe 2f bb 3c 16 20 2a 3c f9 99 7d bc
       0.08486425 0.022850033 0.010383626 -0.0154786045
0000e0 64 26 96 3b c6 f2 5b bd d1 a3 7d bb e9 11 f2 3b
       0.0045822132 -0.053698324 -0.0038702379 0.007387389
0000f0 4b 3c 92 3c af 92 af bd ff 16 a8 3c 31 ab 28 3d
       0.017851016 -0.085728996 0.020518778 0.041178886
000100 dd c0 25 bd 10 fb 91 3d 2b ab 24 bc 6c 8e 41 3d
       -0.040467132 0.071279645 -0.010050575 0.047254965
000110 db 30 c3 bd aa 73 aa 3a 69 87 1f bd ae 42 80 3d
       -0.09530803 0.0013004441 -0.038947497 0.06262718
000120 31 47 32 bd 6f 96 c4 3c 5c 34 e3 bd 05 c9 0a 3c
       -0.043524925 0.023997514 -0.11093971 0.008470778
000130 51 fb 17 3c 40 64 19 3c 81 0f ab 3c b9 17 47 3b
       0.009276227 0.00936228 0.020881416 0.003037913
000140 d6 0d a6 3d 83 fd 95 bd bd fe 2d bd a0 9e 85 bc
       0.08108108 -0.07323744 -0.042479265 -0.01631099
000150 f3 ba 20 bd d2 17 72 3c a7 63 08 bc 72 9a db bb
       -0.03924079 0.014776187 -0.00832454 -0.006701761
000160 f7 82 a9 bd a2 63 52 bd 0f 5f c5 3d 6b 5e 1b bc
       -0.08276933 -0.05136455 0.096372716 -0.00948296
000170 50 ab 41 bb af 1e 81 bb f4 5b a7 bc ed 5d e5 bc
       -0.0029551573 -0.0039404253 -0.020429589 -0.027998889
000180 11 a8 49 3d 1c db 8a ba 67 7c 48 bd 0b 6a 05 3d
       0.049232546 -0.0010593864 -0.048946764 0.032571834
000190 80 b1 78 bc 64 a7 b1 3c e2 2a bf 3c 71 12 97 bd
       -0.015179038 0.021686263 0.023335878 -0.07376564
0001a0 03 78 12 3d e5 3c 92 bc cc 0c e1 bc 5d 98 7e 3d
       0.035758983 -0.017851302 -0.027471922 0.062157024
0001b0 f0 e6 96 3d ac 27 d3 3d 77 79 d9 3b 3f 9d 69 3d
       0.073682666 0.10310301 0.006636794 0.057034727
0001c0 8f c3 98 3c 70 37 6d 3d eb e4 cb bc 41 5d 58 3d
       0.018647937 0.057914197 -0.02488943 0.05282331
0001d0 ea 50 83 bd 99 81 ac bd be 54 85 bc 28 50 05 3c
       -0.064119175 -0.08423156 -0.01627576 0.0081367865
0001e0 89 4f 1f bd 8e 15 f5 3c 18 27 b8 bb 36 f4 3b bc
       -0.03889421 0.029917505 -0.0056198947 -0.011471799
0001f0 f9 41 8f bb da dd 74 bd 91 52 96 bd c7 f5 cf 3d
       -0.004371878 -0.059781887 -0.07339967 0.101543
000200 5f 3c 24 3d 79 6f d1 3c 8f dd 02 3b 82 8c 19 bb
       0.040096637 0.02556585 0.0019968485 -0.0023429696
000210 af 81 42 bd 04 e9 b8 bc 1f be c2 bd ae 56 1c 3d
       -0.047486957 -0.022572048 -0.09508919 0.0381686
000220 2f 86 81 bd fd 84 8b bd 8d 2e 1d bd 26 19 07 3d
       -0.063244216 -0.06812475 -0.038374472 0.032982968
000230 79 84 08 3e f6 74 96 bb f4 48 a2 3d f3 b2 63 bc
       0.13331784 -0.0045915795 0.07924071 -0.013897645
000240 94 79 a1 bc e5 bc 3e ba 55 5b 1e 3d 95 86 44 bb
       -0.019711293 -0.0007276072 0.03866132 -0.0029987444
000250 58 25 5d bd 01 57 bb bd 3d 66 43 3c 58 e1 63 bd
       -0.053990692 -0.09147454 0.011926231 -0.055634826
000260 f9 80 8a 3c 03 bd 59 bc 6e e8 e1 3c 9e 6c 2f bd
       0.016907202 -0.013289693 0.027576651 -0.042828195
000270 47 cb 88 3d 22 de 4b 3c 38 1d 37 3d 7d 43 62 bd
       0.06679397 0.012443097 0.0447056 -0.055240143
000280 06 36 ef bc 23 86 3c 3d 4a b0 3e bd 90 2d 0f 3d
       -0.029200565 0.04602636 -0.04655484 0.03495556
000290 1a 7f 99 bc 06 24 aa bc a2 c0 e1 3b 8d c7 63 3d
       -0.018737365 -0.02076913 0.0068894187 0.05561023
0002a0 c1 f8 0f 3d 44 46 f5 bd 79 72 c3 bd f6 81 4f bd
       0.03514934 -0.11976293 -0.09543318 -0.05066105
0002b0 6a 2f da bc ad 95 2f 3c 6f 7a 5c bc 78 da af 3c
       -0.026633937 0.010716838 -0.013456925 0.021466479
0002c0 18 de f5 3c 38 ee 9f 3b 86 16 d9 3d d2 72 6b 3c
       0.03001313 0.004880693 0.10599999 0.014370637
0002d0 5e f4 4f 3d a2 df 30 bb d9 d0 84 3c 8a bf 6c bd
       0.050770156 -0.0026988764 0.016212868 -0.057799853
0002e0 c6 74 31 3c bd d0 d7 3c ce 0a c7 3c 91 97 89 bd
       0.010831064 0.026344651 0.024297144 -0.06718362
0002f0 3b 60 1e 3d fd 90 2f 3e 18 5e 4a bc e4 6b 62 3d
       0.03866599 0.17145152 -0.012351535 0.055278674
000300 7d cc a9 3c 37 fa c3 3b 33 90 32 bd 69 b8 51 3c
       0.02072739 0.0059807557 -0.04359455 0.012800314
000310 b5 e0 33 bd 83 c9 41 3c 98 27 bf 3d 24 aa 75 bb
       -0.04391547 0.011827829 0.09333724 -0.0037485445
000320 d7 07 05 bc 7c 48 00 bd 57 df fe 3d 0c e3 93 bc
       -0.008119545 -0.031319126 0.124449424 -0.0180526
000330 9e e6 9d bb 6a 7d 5c 3d 4e 33 a9 3d 0c 26 86 3b
       -0.0048187515 0.05383054 0.08261739 0.004093891
000340 f8 9b 5b 3d 86 91 48 3b 0d 01 fd bb 3b da 41 3d
       0.05361554 0.0030604317 -0.0077210725 0.04732726
000350 ac 7f ed bc b9 00 09 bd e5 5c f5 3d 13 13 9b 3c
       -0.028991543 -0.033447955 0.11980609 0.018929994
000360 25 70 1c 3e 71 f1 5f 3d a9 37 ba 3d 6b e0 9b bc
       0.15277155 0.054673616 0.090926476 -0.01902791
000370 db c2 96 3b 5c 22 19 3d 33 f7 21 bc 58 4e 45 bb
       0.0046008653 0.037386283 -0.009885597 -0.003010651
000380 33 03 3e 3a be c9 73 bd b0 a6 c3 3d 66 16 5a bc
       0.00072484015 -0.05951857 0.095532775 -0.013311004
000390 4e c2 87 39 a0 49 4c bd 8b 6d 45 bb 49 3c bc bd
       0.00025893975 -0.0498749 -0.0030125107 -0.09191186
0003a0 79 bc 98 bc 5b 5c 56 3b c5 30 ff 3c ba 33 92 3c
       -0.018644558 0.0032708857 0.031151185 0.01784693
0003b0 83 1b 1f bd 16 73 3f 3b d9 d8 80 3d 20 ae 6d 3d
       -0.038844597 0.0029212884 0.062913604 0.058027387
0003c0 bb bb a2 3d aa d9 3d 3d 87 f8 00 3d a6 dc 50 3d
       0.07945963 0.04635016 0.031487014 0.050991677
0003d0 12 d6 d5 3c fe ac b9 3d 0d 92 3a bd 2e 26 48 3d
       0.026103053 0.09066199 -0.04554944 0.048864536
0003e0 b2 69 4b bd 5d 4d 82 3c 03 cb d0 3c 17 ce 4a bd
       -0.049661346 0.01590603 0.025487429 -0.04951295
0003f0 3e 1f e8 3b ef 9e b8 3c f0 59 2d bd 41 cf a0 bd
       0.0070838025 0.022536723 -0.0423221 -0.078520305

model.time_mlp.3.bias f4 [32]
000000 fa 99 b5 bb df 32 8c bc 91 db 64 3b 0d 23 cf 3b
       -0.005542037 -0.017114101 0.003492091 0.006321317
000010 99 2f 96 bc 66 0d e3 3a 76 90 85 bc b6 17 74 3a
       -0.018333243 0.0017322719 -0.016304236 0.00093113945
000020 f7 f8 c9 bb 83 de a1 3c 40 50 40 3c 3d ad cc bc
       -0.006163712 0.019759422 0.011737883 -0.02498495
000030 00 1e 9b 3b 33 73 5e bc bc ff 53 3b 17 28 92 3b
       0.004733801 -0.01357727 0.0032348474 0.0044603455
000040 67 f7 39 3c 5e 68 6a bc b5 ce 54 3c b0 94 af 3c
       0.011350489 -0.01430711 0.012988736 0.021433204
000050 c8 2b b1 3c 58 7a fd bb 73 8b 2e 3b 86 e0 99 bc
       0.021627322 -0.007735532 0.0026633411 -0.018783819
000060 e7 8e 8a 3c b6 9b a3 3c 35 05 89 bc c9 82 a5 bc
       0.016913844 0.01997171 -0.016726116 -0.020203965
000070 29 c8 d3 3c c1 74 07 bb 4e 6f a1 3c 7e 50 42 bc
       0.02585228 -0.0020668956 0.019706395 -0.011860011

model.layer.0.weight f4 [256, 55]
000000 51 53 72 3c be 7c d7 bd 1b cc 2d be fc 7d 03 3e
       0.014790372 -0.105218396 -0.16972391 0.12841028
000010 c1 dc 60 be 47 c4 f7 3c 6b 3b 1f 3c c5 dd 16 bd
       -0.21959211 0.03024496 0.009718756 -0.03683259
000020 14 47 0f bb ae 4e bb bd 8e dc ae 3d 1f 3b 97 bd
       -0.0021862434 -0.09145866 0.08538161 -0.07384323
000030 36 9d 9c bd 55 c1 e7 3c 0c 57 d4 3c 31 23 1f 3e
       -0.07647173 0.02829043 0.025920413 0.15540768
000040 d9 99 2d 3d 0d 91 1c be c6 85 a7 3d 73 7b c6 bd
       0.04238305 -0.15289707 0.08179812 -0.09691515
000050 a3 7e 0c 3d b0 77 eb 3d 04 83 97 3c a1 17 6c bc
       0.034300458 0.11497438 0.01849509 -0.01440993
000060 31 a7 e2 3b 93 44 2e 3c c0 9f 07 bd 95 39 b5 3d
       0.0069169034 0.010636467 -0.033111334 0.088488735
000070 c9 9e 63 3c a1 8b 01 bd 69 cb 82 3c 0f 9d c3 3d
       0.013892838 -0.0316273 0.015966134 0.09551441
000080 0b e7 4b bd f0 94 06 3b 63 f6 79 3d 87 1f 0a 3d
       -0.049780887 0.002053555 0.06102599 0.033721473
000090 32 b7 d1 3d bf 44 de 3d f9 d9 1a bd 8a e2 c7 bc
       0.1024002 0.10852956 -0.03780553 -0.024400014
0000a0 0b 47 cb bc 6d 65 bb 3b 80 93 23 3e b2 81 af 3c
       -0.02481415 0.005718878 0.15974236 0.021424148
0000b0 63 48 de 3d 96 9f 8b 3c cf 00 89 3d 43 7b cf bc
       0.108536504 0.01704387 0.06689607 -0.02532733
0000c0 e8 f5 a2 bd 7e ad 6c bd b8 93 fe 3c 64 f0 b2 3d
       -0.07957059 -0.057782643 0.031076297 0.08737257
0000d0 a4 2d 9a 3d 75 e6 80 3c 57 b0 37 bd 0c 6a 81 3d
       0.075282365 0.01573489 -0.044845905 0.06319055
0000e0 5b 15 d0 3d c1 5e 22 bd 4c 9b 86 39 b1 89 01 3e
       0.10160323 -0.039641146 0.00025674177 0.12650181
0000f0 be 4a a2 bc 3b 32 a5 bb b9 db d2 bd a9 a4 af bd
       -0.01981103 -0.0050413883 -0.10295815 -0.08576328
000100 d0 9f e8 3c 12 46 ef bc b2 d5 e2 bd 79 8e 33 3c
       0.028396517 -0.029208217 -0.110759154 0.010959261
000110 76 b9 e7 bc 70 7b b5 bd 0b 3f a6 bc a0 b0 ec 3a
       -0.028286677 -0.088614345 -0.020293733 0.001805801
000120 7c 86 f0 3c d3 85 6d 3d b5 04 b2 3d 3a 63 a0 3d
       0.029361002 0.057988953 0.08692304 0.07831426
000130 ba 7b 8f bc c7 bf fc 3c 36 a4 f6 3c a1 ea f0 bd
       -0.017515052 0.030853165 0.030107599 -0.11763502
000140 da b3 12 bd 4c 4f af bc 2c e5 51 3d be 21 be bd
       -0.03581605 -0.021400116 0.051243946 -0.092837796
000150 4d 6a 25 3d 48 bf 73 3d 8c 79 76 bd 3f bc d5 bb
       0.04038458 0.059508592 -0.06017451 -0.006522685
000160 9d a1 ea bc b3 33 fa 3c 6d ab 7e 3b 66 d3 06 bc
       -0.028641516 0.03054223 0.0038859502 -0.008229112
000170 b5 dd 7c ba c2 27 79 bd 28 fc ab 3d 70 82 fa 3d
       -0.0009646074 -0.06082893 0.08397704 0.1223191
000180 8a 63 e8 3d c5 1a 65 3d 4d e8 90 3d a4 c7 1c 3d
       0.113471106 0.055933733 0.07075558 0.03827633
000190 64 2c cf bd 9e cc 5c 3d ff 04 08 3d 9d 30 98 bd
       -0.10115889 0.053906076 0.03320789 -0.07431147
0001a0 55 41 24 3c 2c f5 87 bd 97 86 72 3d 5b b1 5a bc
       0.010025342 -0.0663856 0.059210386 -0.013347949
0001b0 b2 ba 69 bb bf 12 91 bd a6 c7 75 bc 86 cc de 3d
       -0.0035664258 -0.07083654 -0.015001213 0.108788535
0001c0 f4 91 16 3e c0 2f 8c bd 37 49 b2 bd 30 b9 f8 3c
       0.14704114 -0.06845045 -0.08705371 0.030361742
0001d0 6d fd 85 bd 6c e6 b2 bd 49 5a 36 bd 88 64 88 bd
       -0.06542478 -0.08735356 -0.044519696 -0.066598
0001e0 82 73 15 bd 83 7b 11 bc 7f 81 d1 bc 48 c7 c8 bb
       -0.03648711 -0.008879545 -0.025574444 -0.006127272
0001f0 1b 24 33 3c bf fd a8 bd 76 dc a8 bd e6 cf 95 bc
       0.010933901 -0.08251523 -0.082451746 -0.01828761
000200 32 0b 3a 3c 50 53 02 be 1c 03 b3 3d 28 2a 4c bd
       0.011355208 -0.12727094 0.087408274 -0.04984489
000210 0f 84 d6 bd 82 0b 87 bd 13 0f 15 be d9 37 3e 3e
       -0.10474407 -0.06593992 -0.14556532 0.18575992
000220 8c d8 94 bd 60 1f 80 bd 44 e9 71 3c 72 9d 7f bd
       -0.072678655 -0.06255984 0.0147650875 -0.06240601
000230 71 67 16 3e d5 0b 4e bc 27 ee 0a bd 39 78 65 3d
       0.14687897 -0.012576063 -0.033918526 0.056022856
000240 3a 53 85 3d 11 5d be bd f2 7d f6 b9 86 2d 73 bd
       0.06510015 -0.09295095 -0.00047014613 -0.059369586
000250 40 db 47 3e 0a de 03 be 40 d4 44 3e c4 43 2a 3d
       0.19517231 -0.1287767 0.19221592 0.041568533
000260 a5 26 a5 bc 58 e6 34 bd 5f e0 15 bd 66 c4 dc bd
       -0.020160029 -0.044164985 -0.03659093 -0.107796475
000270 29 0d 01 3e 04 f1 bf bd 42 6d 9a bc 18 8a 91 b9
       0.12602676 -0.09372142 -0.018850926 -0.00027759443
000280 9a 4d f2 3c 48 a0 06 bd 9a 2c 02 be 13 23 2e bd
       0.029578019 -0.0328677 -0.12712327 -0.042513918
000290 ab dd 0e 3d 42 73 a3 3d db 44 00 be f3 a8 4b bd
       0.034879368 0.07980968 -0.12526266 -0.04972167
0002a0 86 ec 36 be 75 f4 40 3e a1 6a 00 3b 14 f4 3b bc
       -0.17863664 0.18843253 0.0019594806 -0.011471767
0002b0 2a 4a c1 bd 08 5a ee bc b0 67 dd 3d fb 85 4a bd
       -0.09437974 -0.029095665 0.108107924 -0.04944418
0002c0 71 74 8c 3c 41 35 48 bb 62 02 b4 3d 23 ac 98 bd
       0.017145367 -0.003054932 0.08789517 -0.074547075
0002d0 ac 2e 7d 3d ed 44 af 3d 55 c4 94 ba dd 0e b0 bc
       0.061812088 0.085580684 -0.0011350015 -0.021491462
0002e0 be d6 fe 3d c4 03 37 3d b3 0f 07 bd 42 ed 2b bc
       0.124433026 0.044681326 -0.032973956 -0.010493578
0002f0 fb e0 30 ba 14 43 1d 3d cc fa 41 bd fd 3b 06 bd
       -0.0006747392 0.03839405 -0.04735832 -0.032772053
000300 61 19 d6 3c ac e4 0e 3d 91 f0 93 3b be c2 f8 3c
       0.026135148 0.034886047 0.0045147617 0.030366298
000310 ce 06 9d ba ff 56 b8 bd b3 6f 18 bd 97 7c b6 3c
       -0.0011980177 -0.09000968 -0.0372159 0.022276206
000320 58 e3 96 bd 1a c0 69 bc 7c 48 44 bd 71 f9 56 3d
       -0.07367581 -0.014266992 -0.04792069 0.05248398
000330 f5 bf 27 3d 65 29 9e bd ce d8 fc 3b 18 fb 89 bd
       0.04095455 -0.07722739 0.007716275 -0.067373455
000340 19 d2 b1 3d 50 d9 7a bd 0f c1 08 3d c5 6f ed 3d
       0.08682651 -0.0612424 0.03338724 0.11593584
000350 c8 51 ba 3d 55 a2 05 bd c2 b6 14 3d 73 12 c8 3d
       0.0909763 -0.032625515 0.036307104 0.09769144
000360 c1 40 2e 3b 7c 8d 67 bd 08 1a 50 3c 06 f0 28 bd
       0.002658889 -0.056531414 0.012701519 -0.04124453
000370 13 64 2d bd 38 f6 5f bc 94 65 e8 bd 9c 74 11 bd
       -0.042331766 -0.013669543 -0.113474995 -0.035511598
000380 43 df 4e bd e7 62 df 3d 67 5f 3b be 0f d8 49 3c
       -0.050505888 0.10907536 -0.18298112 0.012319579
000390 d2 f7 ff bb 54 d4 22 3e 77 8f 2a bd f7 7a cd 3d
       -0.007811525 0.15901309 -0.041640725 0.10033219
0003a0 48 b5 68 bb e1 eb 2b bd 8c a3 e6 3c 0b a1 de 3c
       -0.0035508443 -0.041973 0.028154157 0.0271764
0003b0 96 6d 2c bd d5 16 02 3d 34 7e 57 3d 48 c9 40 bd
       -0.042096697 0.031760056 0.05261059 -0.047066957
0003c0 a3 47 84 bb 56 e4 fd bc cd 95 33 bd 74 fe 21 3d
       -0.00403686 -0.030992668 -0.043844033 0.039549306
0003d0 9d 2b 0b be 63 52 a7 bb 7b 7d 3b 37 50 f6 d2 3d
       -0.13590856 -0.005106257 1.1175284e-05 0.10300887
0003e0 6d 4c 3b bd e6 eb c2 bd 55 e3 1c 3d c9 9c 9f bd
       -0.045727182 -0.0951765 0.03830274 -0.07793576
0003f0 98 e7 22 be bc 4e 74 3d 5a 92 02 3c 40 a0 12 3b
       -0.15908659 0.0596454 0.007969463 0.0022373348

model.layer.0.bias f4 [256]
000000 88 8e b8 3c 3f 32 9c 3c c6 ed b0 3c 38 c7 6b 3c
       0.022528902 0.019066928 0.021597754 0.014390759
000010 62 bb 0f ba e3 c3 83 3c b0 d5 18 bb eb e7 b2 3b
       -0.00054829393 0.016084617 -0.0023320727 0.0054597757
000020 8c 6c d0 3c 5c d3 8a 3c c2 44 74 3c 4c 33 aa 3c
       0.025442384 0.016946487 0.014908971 0.020776413
000030 c4 23 dc 3c fc 41 b0 3c 20 e0 d9 3c 42 35 c9 3c
       0.026872523 0.021515839 0.026596129 0.024561528
000040 90 1c a0 3c a5 ca 79 3b 5a c7 b8 3c 2a a6 99 3c
       0.01954487 0.003811517 0.022555996 0.018755991
000050 17 c5 0f 3c c0 89 97 3c ad 60 c5 3c 5a ae 77 3c
       0.008775017 0.018498302 0.02409395 0.015117252
000060 01 d1 bc 3c 45 1a e3 3b 7a d4 ee 3c f5 f9 38 3c
       0.02304888 0.006930622 0.029154051 0.011290063
000070 20 0e 55 3a 55 fe cf 3c 6a 95 de 3b 13 16 d9 3c
       0.000812741 0.02538983 0.006792714 0.026499784
000080 6d 6f 9d 3c e4 b9 cd 3c c6 ba 71 3c 2d 20 cf 3b
       0.019218171 0.025113054 0.014754003 0.0063209743
000090 11 5c b9 3b f0 23 b7 3c 0a d0 e7 3c 28 90 ca 3c
       0.005656727 0.022356004 0.028297443 0.024726942
0000a0 a4 74 4a 3c 2c 2c b6 3c 61 5b ef 3c 10 9a 8d 3c
       0.012356911 0.02223786 0.029218378 0.017285377
0000b0 2d 7e 5f 3c 1e d2 d3 3c 14 e8 fa 3b a9 7b 84 3a
       0.0136409225 0.025857028 0.0076570604 0.0010107654
0000c0 6e 41 8f 3c db 71 ac 3c 72 ac b4 3b 38 55 ff 3b
       0.017487254 0.021050384 0.005513721 0.0077921413
0000d0 3e 84 b7 3c 8b 79 33 3c 4a 9e b1 3c 48 13 c1 3c
       0.022401925 0.010954271 0.021681923 0.023568764
0000e0 bd c6 96 3c 6b 06 82 3c e1 5f 40 3c d4 56 57 3c
       0.018405313 0.015872201 0.011741609 0.01314326
0000f0 98 3c 6f 3c a3 7d 13 3d 95 5c 97 3c 78 ad c3 3c
       0.014601849 0.03600849 0.018476764 0.023886427
000100 45 9f 9d 3c 4c 66 5f 3a 70 4e 78 3c e5 25 7f 3c
       0.019240985 0.00085220183 0.01515542 0.015573
000110 5e 76 bb 3c 5a 9b d3 3c 15 e0 7c 3c 9a 9e 85 3c
       0.02288359 0.025830913 0.015434285 0.016310979
000120 20 0e bb 3c b4 1b a9 3c 7d 6c 2a bc 32 8c 3b 3c
       0.022833884 0.020643093 -0.010401842 0.011446999
000130 bc 73 bb 3c 5b f7 ac 3c 6d 15 77 3b 3e 18 4d 3c
       0.022882335 0.021114042 0.003770198 0.012517987
000140 aa 57 05 3b 48 05 81 bb 26 be b7 3c 97 d4 a5 3c
       0.0020346441 -0.003937397 0.022429537 0.020242972
000150 84 c2 a3 3c 9d 00 80 3c 55 f5 4f 3c b9 12 f3 3c
       0.019990213 0.015625292 0.012692769 0.029672014
000160 58 bf c1 3c 36 15 fd ba 1c ce eb 3b aa 7e 90 3c
       0.02365081 -0.001930869 0.007196201 0.017638523
000170 77 fc 29 bc 0b 95 dc 3c 24 ce 93 3c c4 ea ff 3c
       -0.010375134 0.026926538 0.018042631 0.031239875
000180 88 47 c4 3c c0 86 d5 3c fe e3 51 3c a9 19 cc 3c
       0.02395989 0.02606523 0.012810705 0.02491458
000190 8f da bb 3c b4 49 0b 3c e2 a5 14 3c 7e 2d d9 3c
       0.022931365 0.008501459 0.009072753 0.02651095
0001a0 29 26 65 3c 49 33 72 bc 81 c5 f5 3c 0d 76 67 3c
       0.013986149 -0.014782735 0.030001404 0.014127267
0001b0 d5 3b 80 3c 70 e1 6d 3b de c6 09 3d 3d 71 df 3a
       0.01565353 0.0036297701 0.03363692 0.0017047297
0001c0 49 9f 87 3c 9a 3b 8e 3c 2d 75 4e 3c ce f9 89 3c
       0.016555445 0.017362405 0.012601179 0.016842749
0001d0 72 ef 3d 3c e6 83 b1 3c 4d b5 68 3c 44 bd d0 3c
       0.011592733 0.02166934 0.014203382 0.025480874
0001e0 8c 85 80 3c 98 d9 b4 3c fb 25 04 3d 4f 82 cf 3c
       0.01568868 0.022076413 0.032262783 0.02533069
0001f0 2c 09 e2 3c 66 c6 01 3d fd f9 91 3c a4 f1 90 3c
       0.027592264 0.031683348 0.017819399 0.017693348
000200 10 2b 0d 3d 7e 4c 23 3c a2 7d 72 3c 38 1f b9 3c
       0.034464896 0.009966968 0.014800461 0.022597894
000210 c1 cc bb 3c 80 5e 6c 3c fc 5a bf 3c 0a f6 93 3c
       0.022924783 0.014426827 0.023358814 0.018061657
000220 ad b8 59 3c 45 d9 5b 3b a9 40 be 3c 34 b3 b0 3c
       0.013288659 0.003354625 0.023224192 0.021569826
000230 1d fd 69 3c 74 e1 4c 3c 29 b4 c0 3c d6 7e f5 3c
       0.014281538 0.012504924 0.023523407 0.029967707
000240 57 ee a6 3c a1 3a 85 3c fb e1 5f 3c ad b5 fb 3c
       0.020377321 0.016263308 0.013664718 0.030726278
000250 71 18 ce 3c 62 b0 ef 3c bc 95 45 3c ae ec 18 3d
       0.025158139 0.02925891 0.012059625 0.03733509
000260 18 4e 2e 3c 2b be aa 3c b6 bb 5a 3c e2 2b c7 3b
       0.010638736 0.020842632 0.013350418 0.0060782293
000270 a0 33 c0 3b 56 07 de bb 77 ea 29 3d 8c 65 91 3c
       0.005865529 -0.006775777 0.04148337 0.017748617
000280 e4 14 f1 3c a2 76 57 3c fd 9c 2e 3c c6 5a 7a 3b
       0.029428907 0.013150843 0.010657546 0.0038201078
000290 a0 ea cc 3c b1 af c6 ba 24 86 91 3c 83 a6 bc 3c
       0.025014222 -0.0015158561 0.017764159 0.023028618
0002a0 64 84 a3 3c 85 bf ed 3b a7 bb 6a 3c 50 4f 7e 3c
       0.01996059 0.007255497 0.014326966 0.015521839
0002b0 cb 9e bc 3a 98 50 75 3c d9 21 ba 3c 53 fe d6 bb
       0.0014390586 0.014972828 0.022721218 -0.0065610795
0002c0 48 74 1e 3c 39 b0 6e 3c 90 61 bd 3c 1d 94 9c 3c
       0.009671278 0.014568382 0.02311781 0.019113595
0002d0 eb 91 60 3c f0 05 9d 3a 06 ad 5d 3c fc fd c5 3c
       0.013706665 0.0011979919 0.0135300215 0.02416896
0002e0 7d 13 a4 3c e2 92 4c 3c 84 f3 ba 3c 33 a1 6d 3c
       0.020028824 0.0124861915 0.022821195 0.014503765
0002f0 60 89 77 3c 03 8b dd 3c 65 c1 6c 3c f6 d3 48 3c
       0.015108436 0.027043825 0.014450406 0.012257567
000300 1a c3 92 3c 29 74 87 3c d2 43 9a 3c e5 2e 9c 3c
       0.017915297 0.016534882 0.018831167 0.01906533
000310 fb 6d ce 3c 5b b0 11 3d 54 9a bd 3c 3a 50 b5 3c
       0.025198927 0.035568576 0.023144878 0.022132982
000320 e2 28 06 3d b2 89 94 3c 44 d3 18 3b 10 be 8f 3c
       0.032753833 0.018132064 0.0023319284 0.017546684
000330 f9 68 7c 3c 05 f1 eb 3b c1 b2 94 3c a7 7a ba 3c
       0.015405887 0.0072003626 0.018151643 0.022763563
000340 c0 43 cb 3c 1c 98 5a 3c 06 8b 54 3c a9 e8 fb 3c
       0.02481258 0.01334193 0.012972599 0.03075059
000350 4b 94 66 3c 59 cb ab 3b 36 8d 97 bb 7a d5 05 3d
       0.014073442 0.005242747 -0.004624988 0.03267429
000360 af 7f cc 3c e4 27 0d 3c 7e 0f 66 3a a4 b4 93 3c
       0.024963228 0.008615468 0.0008776112 0.018030472
000370 d7 89 2b 3c 93 9c 7d 3c 9c 68 94 3c 93 b1 a5 3c
       0.010469875 0.015479225 0.018116288 0.020226276
000380 e2 6e 83 3c ce 1c 9b 3c 94 bc 83 3c 2b ca 83 3c
       0.016044084 0.018934634 0.016081132 0.016087612
000390 55 43 c7 3c 0d b6 87 3c 11 5d 80 3c 91 95 a0 3c
       0.024324099 0.0165663 0.015669378 0.019602569
0003a0 49 a7 e8 3c 8f d3 92 3c 89 b9 ea 3b 1a 53 84 3c
       0.02840008 0.017923145 0.007163231 0.016152907
0003b0 e9 f4 37 3c c0 41 47 3c 1b 92 38 bb 03 2e 86 3c
       0.011227825 0.012161672 -0.0028163258 0.016379362
0003c0 94 7a be 3b 36 f0 cf 3c 07 5c 8c 3c d4 20 29 3c
       0.0058129523 0.025383096 0.017133726 0.010322768
0003d0 dd cb e4 3a 82 58 fb 3c 9d 0d 8b 3c c8 e2 b5 3b
       0.0017455776 0.030681852 0.016974265 0.005550716
0003e0 70 91 36 3c 81 dc 68 3c 1d ab cc 3c 3a e5 a0 3c
       0.011143073 0.0142127285 0.024983937 0.019640554
0003f0 22 aa f8 3c 72 29 93 3c 42 71 90 3c c4 bd b1 3c
       0.030354563 0.017964099 0.01763213 0.021696933

model.layer.2.weight f4 [256, 256]
000000 53 c4 28 3d 13 57 08 3d 6c b0 28 3d ce 76 a0 bb
       0.041202854 0.033286165 0.041183874 -0.004896975
000010 d1 4c a9 bc a1 61 9b b9 01 c6 35 3d 3d 50 6d 3d
       -0.020666512 -0.00029636643 0.044378284 0.05793785
000020 40 ea 99 3c 63 7a 04 bd da 1d c6 39 d9 6e 4e bb
       0.018788457 -0.03234328 0.00037787744 -0.0031499176
000030 50 3d 41 bd 86 88 35 3a 0a 99 82 3c 4d ac 70 3c
       -0.047177613 0.00069249456 0.015942115 0.014689517
000040 68 f2 d9 bb 01 fb 2b bd 16 58 7d bd f8 a7 e7 3c
       -0.0066512115 -0.041987423 -0.061851583 0.028278336
000050 b6 80 04 3d af f2 21 bd 5e e2 64 3c d4 64 1f bd
       0.03234931 -0.03953808 0.013969986 -0.038914517
000060 02 62 2b bb cc 0c 7c 3c b6 0f 93 3c 29 e9 69 bd
       -0.0026150947 0.01538391 0.017951827 -0.057107124
000070 54 58 81 3d 59 49 4e bd 94 2d 50 3c 1a 9f 2c 3c
       0.063156754 -0.05036292 0.012706179 0.01053598
000080 a6 9d 43 3d 99 ba 55 3c a7 16 4e 3d 4a 14 95 3b
       0.047757767 0.013044977 0.05031457 0.004549538
000090 9d 12 6a 3d 31 ff 21 bc 9e dc 05 bc e1 ff fb 3c
       0.057146657 -0.0098875025 -0.008170275 0.030761661
0000a0 77 9c 0c bd 18 ef 7b 3c 6f 2a 0d 3d 08 24 06 bc
       -0.034328904 0.015376829 0.034464296 -0.008187301
0000b0 61 42 00 3d 5c f9 00 3d fa 89 16 bd 31 62 0d 3c
       0.031313304 0.031487808 -0.03675268 0.008629368
0000c0 86 66 8f bb 8f fe 69 bd ed e5 af bd 3f bf 46 3d
       -0.0043762354 -0.05712753 -0.08588777 0.04852223
0000d0 2d 10 02 3c 26 a7 2b 3b 35 1d 82 bc 88 d1 07 3c
       0.007938427 0.0026192158 -0.015883068 0.008289702
0000e0 da 71 05 bd 75 be 06 3d 72 bb 3b 3d 6a 39 49 bc
       -0.03257928 0.032896478 0.04583306 -0.012281755
0000f0 97 92 39 3d db 49 d0 3c 06 97 5c bc de 4c 9d 3c
       0.045305815 0.025425842 -0.013463741 0.019201692
000100 cf 9f 2d 3d 2c 51 71 bd 11 c5 7b bc 6a a4 ff 3c
       0.042388733 -0.058915302 -0.0153668085 0.031206328
000110 af 5e 54 bb 8c 3c 2b bd 67 b9 c6 3c 2e 6a 8d 3c
       -0.0032405069 -0.04180579 0.024258329 0.017262544
000120 74 eb 43 3d 87 61 65 bc 2e a3 94 ba fa 1c 02 bd
       0.047831967 -0.014000303 -0.0011340135 -0.031765915
000130 9c 07 4a bd 6b d8 14 bd 5e e8 86 bc 8d 32 8e 3c
       -0.049323663 -0.036339205 -0.016468223 0.017358089
000140 54 c0 3f bc ea 62 44 bd 83 84 d4 3c bb bd 9f 3c
       -0.011703569 -0.047945894 0.025942093 0.01949965
000150 74 7e 12 3d bb 41 2c 3d f5 a9 04 3d c9 f9 58 bd
       0.035765126 0.042054873 0.032388646 -0.05297259
000160 29 1c 96 3c 42 60 9a 3c 91 76 da bb 79 17 8a 3c
       0.018323975 0.018844727 -0.0066669662 0.016856896
000170 aa 27 13 3d ed 0a 6e bd a0 e2 5d 3d 78 cb f2 3c
       0.0359265 -0.05811589 0.054171205 0.029638037
000180 24 50 67 3b ed 84 a4 bc 21 52 1c 3d a7 12 87 3d
       0.003529557 -0.020082915 0.03816426 0.065953545
000190 3e b7 42 bc 0c 4e 29 3d b1 22 2d bb 55 ad 33 3d
       -0.011884509 0.041334197 -0.0026418383 0.043866474
0001a0 a3 72 06 bc b0 73 f2 3c 18 64 b7 3c c2 86 3e bd
       -0.008206042 0.02959618 0.022386596 -0.046515234
0001b0 04 67 67 3d c9 e1 a0 bc 33 37 a1 3c 2b 3d 54 bd
       0.056494728 -0.019638913 0.019679641 -0.051816147
0001c0 bd 90 c3 3c e4 c0 05 bd 83 b1 67 3d bb bc be bc
       0.023872728 -0.032654658 0.056565773 -0.023283353
0001d0 01 67 85 bd bc 2f 80 3a b9 e5 10 3d 47 72 34 bd
       -0.06513787 0.0009779851 0.03537533 -0.044054296
0001e0 4c 3a cb 3b 24 74 fe 3b 0b eb 7b 3c dc a2 98 bd
       0.006202018 0.00776531 0.015375863 -0.07452938
0001f0 4d 5d 0d 3b 07 2c 54 3c 49 21 81 3d 68 21 b5 3b
       0.0021570504 0.01294995 0.06305177 0.005527664
000200 46 e0 04 bd 84 af 35 bc 5c cf 24 bc 26 ea de 3c
       -0.032440446 -0.0110892095 -0.010059204 0.02721126
000210 db 12 b2 ba 08 8f 11 bb 2e 59 8e 3d e2 a4 2c bd
       -0.0013585942 -0.0022210497 0.069506034 -0.042149432
000220 87 09 6f bd 9e e8 21 bd 6a 54 15 3d c3 26 ad bc
       -0.058358695 -0.03952848 0.036457457 -0.021136647
000230 df f1 13 3d a7 8c 43 3d 64 73 92 3c 23 4f 43 3d
       0.036119338 0.04774156 0.017877288 0.047682893
000240 57 91 e7 3c 70 d4 59 bc 4d fd de 3c c1 d4 5e 3d
       0.028267546 -0.013295278 0.027220393 0.054402117
000250 44 42 0b bd 89 65 23 bd 2e c5 18 bd 23 73 53 bc
       -0.033998743 -0.039891753 -0.03729742 -0.012905869
000260 47 62 c0 ba e5 d5 75 3b 34 af 99 3b 91 26 02 3c
       -0.0014677726 0.0037511524 0.0046900753 0.007943765
000270 a5 93 c2 3d 1a 8f bb bc 6b a6 00 3d 6f 5c 28 bd
       0.09500817 -0.022895385 0.03140871 -0.041103777
000280 6a c0 39 bd a0 65 c8 3c 83 1a 8c 3b 4f 7b 3a 3d
       -0.045349516 0.024462521 0.0042756214 0.045527752
000290 35 a2 dc bc a1 6f b4 3c 1d 13 b5 3b 7a 52 04 3d
       -0.026932815 0.022025885 0.00552596 0.03230522
0002a0 be fc df bc 27 43 14 bd 8b 53 e2 3b ad 46 24 bd
       -0.027342197 -0.036196854 0.0069069318 -0.040106464
0002b0 b7 25 2e bd bb fb 1a 3d cb e1 f8 bc f8 b8 ef bc
       -0.042516436 0.037837725 -0.030381104 -0.029263005
0002c0 70 01 77 3c 53 d9 e4 bc 1c 73 03 3d e5 d7 b9 bc
       0.015076026 -0.02793566 0.0320922 -0.022685954
0002d0 72 f8 30 3d 63 71 8d 3a 24 4d 38 3d d6 d6 c7 ba
       0.043205686 0.0010791238 0.044995442 -0.0015246521
0002e0 86 5a 0a bd 3c c1 59 3c 2c b4 83 bc ec 29 f4 ba
       -0.033777736 0.0132907 -0.016077124 -0.0018628216
0002f0 d4 95 c3 bc 44 8a 16 bd 94 b6 d3 3c 67 0e 57 3d
       -0.023875155 -0.036752954 0.025843896 0.05250397
000300 0b 35 7a 3c 3d 71 18 ba b8 19 e8 bd cb 75 3d bd
       0.0152714355 -0.00058152137 -0.113330305 -0.046254914
000310 f2 56 74 3d 3a 99 f6 3d a2 81 3c ba a0 2d b2 bc
       0.05965323 0.120409444 -0.00071909477 -0.021750271
000320 39 46 f9 3c 4d 22 80 bc 63 34 e0 3b e3 c8 fd bc
       0.030428993 -0.015641356 0.0068421825 -0.03097958
000330 d3 c0 94 3a 79 87 40 3d e5 fa a2 3b 80 3a 12 3d
       0.001134897 0.047004197 0.0049737566 0.03570032
000340 7d 8e a5 3c 39 70 ab 3c 81 96 b2 bc e0 9b 3f bd
       0.020209545 0.020927535 -0.021800281 -0.046779513
000350 e2 ac 17 3d a9 b2 4b 3d c3 71 94 bd 58 d1 8e bc
       0.03703011 0.04973093 -0.07248261 -0.017433807
000360 ce 4a b7 3d 52 2b 85 3a 27 35 a5 bc 2c ff 40 3d
       0.08949815 0.0010160005 -0.020166947 0.04711835
000370 0d d8 dd bc eb 4a 26 3d 78 9d d5 bc ec 2a 40 3c
       -0.02708056 0.04059879 -0.026076064 0.011728983
000380 60 b0 88 bb d0 15 77 3c 6a 5e b9 bb 84 8d 48 3c
       -0.004171416 0.015080884 -0.005657007 0.012240771
000390 71 8c ab 3c 48 2c 3a 3c e5 bc 75 bc b7 ca 79 bd
       0.020940991 0.011363097 -0.014998649 -0.06098434
0003a0 79 12 01 3d 51 4f 1b bc d5 6e 36 bc 32 c3 28 bd
       0.031511758 -0.00947936 -0.011134823 -0.041201778
0003b0 51 94 a8 3c 4b c9 55 3c 12 6a c8 3d f0 46 eb 3c
       0.020578535 0.01304848 0.09785856 0.02872035
0003c0 f8 71 e8 bc 76 0f f5 3c be 87 7f bc 23 ee b1 bc
       -0.028374657 0.029914599 -0.015596328 -0.021719998
0003d0 21 36 e7 3b ed c1 b4 3d 96 21 1a bd b7 59 18 bc
       0.007056013 0.08826051 -0.037629686 -0.009298733
0003e0 80 68 78 3d 3e 41 88 3c b3 95 2f 3d cf 53 0b 3d
       0.060646534 0.016632672 0.042867374 0.034015473
0003f0 b7 60 06 bd 33 cd b1 bc 9e a7 e9 bb 7c fb 3e bd
       -0.03280708 -0.021704292 -0.007130577 -0.046626553
