results/qvpo_HalfCheetah-v3/actor_25_04_15_17_06_59_0.pth (torch, 665521 bytes, 24 tensors)

betas f4 [20]
0	0x3c02f3e7	0.007992721
1	0x3ca47451	0.020074995
2	0x3d041c9e	0.032253854
3	0x3d370356	0.044680916
4	0x3d6b9a52	0.05752022
5	0x3d915208	0.07095724
6	0x3dae82cf	0.085210435
7	0x3dcdeb70	0.10054672
8	0x3df03ce1	0.11730362
9	0x3e0b2f27	0.13592206
10	0x3e20c3d8	0.15699708
11	0x3e39b63c	0.18135923
12	0x3e5741b1	0.21021153
13	0x3e7b42ad	0.24537154
14	0x3e9456d6	0.289725
15	0x3eb23f0b	0.34813723
16	0x3edbdec4	0.42943394
17	0x3f0d0fe4	0.5510237
18	0x3f3f9c21	0.7484761
19	0x3f7fbe77	0.999

alphas_cumprod f4 [20]
0	0x3f7df430	0.99200726
1	0x3f78db11	0.9720927
2	0x3f70d444	0.9407389
3	0x3f661197	0.8987059
4	0x3f58d5ca	0.84701216
5	0x3f4972f7	0.7869105
6	0x3f384895	0.7198575
7	0x3f25c121	0.64747816
8	0x3f124f92	0.57152665
9	0x3efcd911	0.4938436
10	0x3ed526ca	0.41631156
11	0x3eae7e99	0.3408096
12	0x3e89d053	0.2691675
13	0x3e4fff13	0.20312147
14	0x3e13bc11	0.1442721
15	0x3dc09afc	0.09404561
16	0x3d5bc9c8	0.05365923
17	0x3cc55c01	0.024091722
18	0x3bc68ffb	0.0060596443
19	0x36cb5347	6.059566e-06

alphas_cumprod_prev f4 [20]
0	0x3f800000	1.0
1	0x3f7df430	0.99200726
2	0x3f78db11	0.9720927
3	0x3f70d444	0.9407389
4	0x3f661197	0.8987059
5	0x3f58d5ca	0.84701216
6	0x3f4972f7	0.7869105
7	0x3f384895	0.7198575
8	0x3f25c121	0.64747816
9	0x3f124f92	0.57152665
10	0x3efcd911	0.4938436
11	0x3ed526ca	0.41631156
12	0x3eae7e99	0.3408096
13	0x3e89d053	0.2691675
14	0x3e4fff13	0.20312147
15	0x3e13bc11	0.1442721
16	0x3dc09afc	0.09404561
17	0x3d5bc9c8	0.05365923
18	0x3cc55c01	0.024091722
19	0x3bc68ffb	0.0060596443

sqrt_alphas_cumprod f4 [20]
0	0x3f7ef992	0.99599564
1	0x3f7c6710	0.9859476
2	0x3f784c7b	0.969917
3	0x3f72b032	0.948001
4	0x3f6b9aec	0.9203327
5	0x3f6317a8	0.8870797
6	0x3f5933a3	0.84844416
7	0x3f4dfe37	0.80466026
8	0x3f4188d0	0.75599384
9	0x3f33e6c6	0.7027401
10	0x3f252d47	0.6452221
11	0x3f157333	0.58378905
12	0x3f04d0f7	0.51881355
13	0x3ee6c0d6	0.45068997
14	0x3ec2794c	0.37983167
15	0x3e9d03a9	0.30666855
16	0x3e6d3440	0.23164463
17	0x3e1ef0b4	0.15521508
18	0x3d9f6c87	0.07784372
19	0x3b21531b	0.0024616185

sqrt_one_minus_alphas_cumprod f4 [20]
0	0x3db7187a	0.089402154
1	0x3e2b106b	0.16705482
2	0x3e794749	0.243436
3	0x3ea2f3f0	0.31826735
4	0x3ec8430f	0.39113662
5	0x3eec58f6	0.46161622
6	0x3f077f37	0.5292849
7	0x3f17ff0c	0.59373546
8	0x3f279279	0.65457875
9	0x3f362160	0.71144676
10	0x3f43952e	0.76399505
11	0x3f4fd908	0.8119054
12	0x3f5ad9e7	0.8548874
13	0x3f6486b6	0.8926805
14	0x3f6cd072	0.9250556
15	0x3f73aa3d	0.9518164
16	0x3f790974	0.9728005
17	0x3f7ce5c0	0.9878807
18	0x3f7f3923	0.9969656
19	0x3f7fffcd	0.99999696

log_one_minus_alphas_cumprod f4 [20]
0	0xc09a88fb	-4.8292212
1	0xc0650c26	-3.5788665
2	0xc034d9f3	-2.8258026
3	0xc0128ae4	-2.2897272
4	0xbff04e8a	-1.8773968
5	0xbfc5e4bc	-1.5460429
6	0xbfa2dfde	-1.2724569
7	0xbf857551	-1.0426427
8	0xbf58f783	-0.8475267
9	0xbf2e5015	-0.68090945
10	0xbf09d3cb	-0.53838795
11	0xbed55f51	-0.41674283
12	0xbea08c62	-0.31357104
13	0xbe688097	-0.22705303
14	0xbe1f8ac6	-0.15580282
15	0xbdca4603	-0.09876635
16	0xbd61e79c	-0.05515252
17	0xbcc7c68f	-0.024386672
18	0xbbc72aa3	-0.0060780807
19	0xb6cc0029	-6.0796924e-06

sqrt_recip_alphas_cumprod f4 [20]
0	0x3f8083be	1.0040205
1	0x3f81d308	1.0142527
2	0x3f83f856	1.0310161
3	0x3f87055d	1.0548512
4	0x3f8b1484	1.0865636
5	0x3f904b2e	1.1272943
6	0x3f96dd48	1.178628
7	0x3f9f12c7	1.2427605
8	0x3fa95045	1.3227621
9	0x3fb624e8	1.4230013
10	0x3fc6619d	1.5498539
11	0x3fdb41de	1.7129476
12	0x3ff6b77d	1.9274746
13	0x400e0126	2.21882
14	0x40287ee5	2.632745
15	0x4050b1c2	3.2608495
16	0x408a2484	4.3169575
17	0x40ce2a60	6.4426727
18	0x414d8a3f	12.8462515
19	0x43cb1e4f	406.2368

sqrt_recipm1_alphas_cumprod f4 [20]
0	0x3db7d4d9	0.08976144
1	0x3e2d808e	0.16943571
2	0x3e80814f	0.25098655
3	0x3eabe41b	0.33572468
4	0x3ed998ea	0.42499477
5	0x3f053774	0.5203774
6	0x3f1fb352	0.62382996
7	0x3f3ce51d	0.737871
8	0x3f5da87a	0.865852
9	0x3f8195fb	1.0123895
10	0x3f978ff5	1.1840807
11	0x3fb20425	1.3907515
12	0x3fd2ea41	1.6477739
13	0x3ffd877f	1.9806975
14	0x401bde2e	2.4354358
15	0x4046a382	3.1037297
16	0x4086629e	4.199538
17	0x40cbaabd	6.364592
18	0x414cea95	12.807271
19	0x43cb1e26	406.23553

posterior_variance f4 [20]
0	0x00000000	0.0
1	0x3bbc66ab	0.0057495437
2	0x3c78db69	0.01518903
3	0x3cd623cc	0.026140116
4	0x3d1bfe73	0.03808446
5	0x3d50aa79	0.050943825
6	0x3d84bdc1	0.06481505
7	0x3da3a3f8	0.07990259
8	0x3dc5a72f	0.09651028
9	0x3deba538	0.11506122
10	0x3e0b6911	0.13614298
11	0x3e2470de	0.1605868
12	0x3e4227cb	0.18960492
13	0x3e666f8c	0.2250349
14	0x3e8a2343	0.26980028
15	0x3ea85d3e	0.32883638
16	0x3ed27ca6	0.41110724
17	0x3f08c9cc	0.5343292
18	0x3f3c223a	0.73489726
19	0x3f7e3222	0.99295247

posterior_log_variance_clipped f4 [20]
0	0xc23834f1	-46.0517
1	0xc0a51389	-5.1586347
2	0xc085fd65	-4.187182
3	0xc0693bf3	-3.644284
4	0xc0512614	-3.267949
5	0xc03e87b0	-2.9770317
6	0xc02f1e30	-2.7362175
7	0xc021b980	-2.526947
8	0xc015a386	-2.3381057
9	0xc00a62f9	-2.1622908
10	0xbfff3d04	-1.9940495
11	0xbfea1a12	-1.8289206
12	0xbfd4d70c	-1.6628127
13	0xbfbee977	-1.4914998
14	0xbfa7b07b	-1.3100733
15	0xbf8e5c68	-1.112195
16	0xbf638f07	-0.8889012
17	0xbf20723e	-0.6267432
18	0xbe9db566	-0.3080246
19	0xbbe7c04e	-0.007072485

posterior_mean_coef1 f4 [20]
0	0x3f7fffcf	0.9999971
1	0x3f376a3d	0.7164648
2	0x3f095fd9	0.53661877
3	0x3edb0cb2	0.42783123
4	0x3eb67dcc	0.3564285
5	0x3e9ce8d9	0.306464
6	0x3e8a2609	0.26982144
7	0x3e77cd5b	0.2419943
8	0x3e61946a	0.22029272
9	0x3e4fe297	0.20301281
10	0x3e418e2c	0.1890189
11	0x3e35c6cf	0.1775162
12	0x3e2bf26d	0.16791697
13	0x3e2395bf	0.15975092
14	0x3e1c40c0	0.15259075
15	0x3e1576ab	0.1459605
16	0x3e0e8045	0.13916118
17	0x3e05ee85	0.13079269
18	0x3def6061	0.11688305
19	0x3d9f43f6	0.077766344

posterior_mean_coef2 f4 [20]
0	0x00000000	0.0
1	0x3e9128bc	0.2835139
2	0x3eed3106	0.46326464
3	0x3f1262d3	0.57182044
4	0x3f248d52	0.6427814
5	0x3f312799	0.69201046
6	0x3f3a3e9d	0.7275179
7	0x3f40f0a3	0.7536718
8	0x3f45e1f9	0.7729793
9	0x3f4971cd	0.7868927
10	0x3f4bd34a	0.79619277
11	0x3f4d188a	0.8011557
12	0x3f4d348a	0.80158293
13	0x3f4bf43b	0.7966954
14	0x3f48e9ec	0.78481936
15	0x3f433afb	0.7626187
16	0x3f391e8a	0.72312224
17	0x3f265668	0.64975595
18	0x3efc1edd	0.49242297
19	0x3d00bdf1	0.031431142

model.time_mlp.1.weight f4 [256, 32]
0	0xbdb8e326	-0.090277
1	0xbce150d8	-0.02750437
2	0xbe1fbb80	-0.1559887
3	0x3b8c954b	0.004290258
4	0x3d3ab3e7	0.045581724
5	0xbdbe360d	-0.09287653
6	0xbcfb2850	-0.030658871
7	0xbd627d5c	-0.055295333
8	0xbdba6100	-0.091005325
9	0x3dea5ca5	0.11443452
10	0xbdaf3ab1	-0.08556116
11	0xbc64c864	-0.0139637925
12	0x3e20ecbb	0.15715306
13	0xbaff75f0	-0.0019490104
14	0xbe08cec3	-0.13360123
15	0xbcd49ce6	-0.025953721
16	0xba88e40a	-0.0010443937
17	0xbb2154da	-0.0024617226
18	0xbdae2494	-0.085030705
19	0x3e3ebe62	0.18627313
20	0xbde91b06	-0.113821074
21	0xbc85cce4	-0.016333051
22	0x3e5d6638	0.21621025
23	0x3d85e395	0.065375485
24	0x3dcbba5c	0.099476546
25	0x3d8e5ec7	0.06951671
26	0xba96f4e5	-0.0011517076
27	0xbe0ac250	-0.13550687
28	0xbdd23db5	-0.10265676
29	0x3c96d561	0.018412294
30	0x3c30647b	0.010766144
31	0xbd413fa2	-0.047179826
32	0x3da34a5f	0.079731695
33	0xbcf7c8ef	-0.03024718
34	0xbd70d6b5	-0.05879851
35	0x3ccecde6	0.025244664
36	0x3bad64e9	0.0052915704
37	0x3c8eb68a	0.017421026
38	0xbc30f73b	-0.010801132
39	0x3de9a8f0	0.114091754
40	0xbdb28297	-0.08716314
41	0x3df37541	0.11887599
42	0x3e2f7f4d	0.17138405
43	0x3e4d8901	0.20071794
44	0x3d186786	0.037208103
45	0x3db7129f	0.089390986
46	0x3e4591fe	0.19293973
47	0x3c9775e3	0.01848883
48	0xbde7392a	-0.112902
49	0x3c14ae07	0.0090746945
50	0xbda05b1f	-0.0782988
51	0xbdc245be	-0.094859585
52	0xbdf0c8e2	-0.11757065
53	0x3c47d4d2	0.012196736
54	0xbce9741a	-0.028497744
55	0x3d5d751f	0.054066774
56	0x3e212a49	0.15738787
57	0xbe5d402f	-0.21606515
58	0xbc0bc72b	-0.008531372
59	0xba9579d6	-0.0011404108
60	0x3e1daf57	0.15398918
61	0xbd952563	-0.072825216
62	0xbd36256d	-0.044469286
63	0xbc3fa7b1	-0.011697696
64	0xbdb6e03e	-0.089294896
65	0xbbebc96c	-0.007195642
66	0x3d8480b6	0.06469862
67	0x3c6b156b	0.014348368
68	0xbdca6785	-0.09883026
69	0xbe423e44	-0.18969065
70	0xbd4a9430	-0.04945773
71	0xbd928027	-0.07153349
72	0xbdc33390	-0.09531319
73	0xbdbaf252	-0.0912825
74	0xbd2332d4	-0.039843395
75	0x3c69b18c	0.014263522
76	0x3dcdd0c5	0.10049585
77	0xbbe07de5	-0.0068509453
78	0x3e03a454	0.12855655
79	0xbdd54a07	-0.1041451
80	0xbcdd6880	-0.027027369
81	0x3dd9b650	0.106304765
82	0x3da28287	0.07935052
83	0x3dd4e594	0.10395351
84	0xbd3ebfac	-0.04656951
85	0x3cac8a06	0.021061908
86	0xbc5e60d2	-0.013572888
87	0x3b8870b5	0.0041638264
88	0x3c001ae4	0.007818911
89	0xbd7096bb	-0.058737498
90	0x3d65005a	0.05590854
91	0xbde6de9e	-0.112729296
92	0xbdbd8393	-0.092536114
93	0xbe268853	-0.16262941
94	0x3d373d50	0.044736207
95	0xbd4ce9f0	-0.050027788
96	0x3bd554d9	0.006510359
97	0xbcd9eb8e	-0.026601579
98	0x3c94cc9c	0.018163972
99	0x3defb364	0.11704138
100	0xbdd47365	-0.10373572
101	0xbcea3643	-0.028590327
102	0xbdf0b2b9	-0.11752839
103	0xbd99fc25	-0.07518796
104	0xbe03f44f	-0.12886165
105	0x3dd6eb56	0.104941055
106	0x3cd268f3	0.02568481
107	0x3db514b4	0.088418394
108	0x3da9ceef	0.082914226
109	0x3d46809c	0.048462495
110	0x3e07ec75	0.13273795
111	0xbddb773f	-0.10716104
112	0x3d712bff	0.05887985
113	0x3d7ce2a7	0.06173959
114	0x3cbcd82d	0.0230523
115	0xbce5111e	-0.027962264
116	0x3dd957aa	0.10612424
117	0x3b17fd9d	0.0023191937
118	0x3ce406b1	0.027835222
119	0xbc7fbb2e	-0.015608592
120	0xbd07087a	-0.03296707
121	0xbca2cc1e	-0.019872721
122	0xbd6e2cb2	-0.058148094
123	0xbd763472	-0.06010861
124	0x3988b6a8	0.0002607603
125	0xbcafd303	-0.021462923
126	0xbe6f226d	-0.23352976
127	0x3d6b7abe	0.057490103
128	0xbd096e87	-0.033552673
129	0xbcdec98d	-0.027195716
130	0x3a7fc5e9	0.0009756969
131	0x3d635296	0.055498682
132	0x3de35398	0.110999286
133	0xbd649ff5	-0.05581661
134	0xbe347674	-0.17623311
135	0xbd27d4df	-0.040974494
136	0x3c8cbee7	0.017180873
137	0xbce1259f	-0.02748376
138	0xbdbc2fb6	-0.09188788
139	0xbe2a08cb	-0.16604917
140	0x3d0074c3	0.031361353
141	0xbe06a6b0	-0.13149524
142	0xbc8daa35	-0.017293075
143	0x3d539037	0.051651206
144	0xbd5e8169	-0.054322634
145	0x3cfbb6dd	0.030726844
146	0x3db3028c	0.0874072
147	0x3dd46f54	0.10372797
148	0x3d1742a5	0.03692879
149	0xbd506014	-0.050872877
150	0xbb92c3ad	-0.004478893
151	0xbd1a3e6f	-0.037657198
152	0xbc4bef12	-0.0124471355
153	0xbdd3eb78	-0.103476465
154	0xbdf7e95e	-0.12105058
155	0xbc09481f	-0.008379011
156	0x3d09c6e6	0.03363695
157	0x3df9f70b	0.12205323
158	0xbcb52d38	-0.022116289
159	0x3dd1fbb5	0.102530874
160	0x3c9d4b56	0.019200962
161	0xbc930af6	-0.017949563
162	0xbdde0a29	-0.10841782
163	0x3d975d87	0.07390886
164	0xbd3ef0cf	-0.04661637
165	0x3cbe7c35	0.023252586
166	0x3c8ef5ca	0.017451186
167	0xbdc42f5c	-0.095793456
168	0x3d3ce808	0.04611972
169	0xbd03fb64	-0.032222167
170	0x3d8c9e5f	0.068661444
171	0xbb877d5a	-0.004134816
172	0xbcad6849	-0.021167891
173	0x3e015b6a	0.12632528
174	0x3d2c5818	0.0420762
175	0x3dec786c	0.11546406
176	0xbdb8776d	-0.09007154
177	0xbd832ff9	-0.064056344
178	0x3e458a3b	0.19291012
179	0xbd451cce	-0.048123173
180	0xbbf57ad2	-0.007491448
181	0xbe3bb8d2	-0.18332222
182	0x3c0be44a	0.008538315
183	0x3d21160b	0.039327662
184	0x3d593c0a	0.053035773
185	0x3d0009f5	0.031259496
186	0xbe543fcd	-0.20727463
187	0xbd658258	-0.05603251
188	0x3d849f2a	0.06475671
189	0xbd495544	-0.04915358
190	0x3d5c38a8	0.05376497
191	0x3d3c66ce	0.04599648
192	0x3e13dafe	0.14439008
193	0xbdb2c423	-0.08728816
194	0x3e045e2c	0.12926549
195	0x3d01cf33	0.03169174
196	0xbd5f2cd0	-0.054486096
197	0x3d75b3c4	0.05998589
198	0x3cd3616e	0.025803294
199	0x3df26ad4	0.11836782
200	0xbcf23260	-0.029565036
201	0xbd0af762	-0.03392733
202	0xbc2928a1	-0.010324628
203	0xbca6b29d	-0.020348841
204	0x3dbbc638	0.091686666
205	0xbbdc2f08	-0.0067194737
206	0x3dba46f2	0.09095563
207	0x3d9b3b8a	0.075797155
208	0xba96b95e	-0.0011499336
209	0x3cda15b7	0.026621683
210	0x3ce9de12	0.028548274
211	0xbe25be2b	-0.16185825
212	0xbd190af4	-0.03736396
213	0x3c817e25	0.01580722
214	0x3de5ae19	0.11214847
215	0x3d6b0406	0.057376884
216	0xbd4674da	-0.048451282
217	0xbe1d9acc	-0.15391082
218	0xbdc21698	-0.09476966
219	0x3c3f9b5d	0.011694756
220	0x3ce84938	0.028355226
221	0x3d945881	0.07243443
222	0x3c21186e	0.009832485
223	0xbd9f6230	-0.077824
224	0xbd6eddad	-0.058316875
225	0xbd59fc3a	-0.053219058
226	0xbd79d7f0	-0.06099695
227	0xbd670b84	-0.056407467
228	0x3db8b92d	0.090196945
229	0x3d413d03	0.047177326
230	0xbcd49e6f	-0.025954453
231	0x3e038648	0.12844193
232	0x3d944bc0	0.07241011
233	0xbd3ea650	-0.046545327
234	0xbb8c8285	-0.00428802
235	0x3da053d1	0.07828487
236	0xbda66b3a	-0.081259206
237	0x3dec288a	0.1153117
238	0xbda21c7c	-0.07915589
239	0xbd070257	-0.032961216
240	0xbdf560b8	-0.11981338
241	0x3e0e27a5	0.1388231
242	0x3d3a082c	0.04541795
243	0x3d6862ad	0.05673473
244	0x3ccc0ea0	0.024909317
245	0x3d7807f5	0.060554463
246	0xbddc2011	-0.10748304
247	0x3c54de6a	0.012992481
248	0x3d8abcb3	0.06774273
249	0xbdbfa678	-0.09357923
250	0xbd48d372	-0.049029775
251	0xbe0191ca	-0.1265327
252	0x3df84d24	0.121240884
253	0x3d78b285	0.060717124
254	0xbd02de94	-0.03195055
255	0x3e2ceaf2	0.168865

model.time_mlp.1.bias f4 [256]
0	0xb3984d1a	-7.092076e-08
1	0xb36ac7d8	-5.4664127e-08
2	0x317e956a	3.7046797e-09
3	0xb11fb313	-2.3239337e-09
4	0x34722043	2.2549743e-07
5	0x3313ae63	3.438471e-08
6	0xb3936d86	-6.865143e-08
7	0x34864e7c	2.501655e-07
8	0x33016ee5	3.013601e-08
9	0x32c983e6	2.345946e-08
10	0x3341491b	4.5002803e-08
11	0x330589ad	3.109169e-08
12	0xb4bf17da	-3.5593877e-07
13	0xb3610826	-5.2394306e-08
14	0x349032c1	2.6859018e-07
15	0x34090a5e	1.2762891e-07
16	0xb49c90cb	-2.9162615e-07
17	0xb3b53dd0	-8.439713e-08
18	0x338e161e	6.6164134e-08
19	0x3361bac9	5.2556775e-08
20	0xb3a8225c	-7.8293596e-08
21	0x34dddf53	4.1326948e-07
22	0xb4293a2b	-1.5760513e-07
23	0x35032a8b	4.886321e-07
24	0xb2eb1cb9	-2.7370662e-08
25	0xb32e60af	-4.0600465e-08
26	0x33819a0a	6.03505e-08
27	0xb39d6874	-7.329882e-08
28	0xb4d49d32	-3.9602452e-07
29	0xb4a8aca4	-3.141805e-07
30	0x33a418cb	7.641355e-08
31	0x3451c850	1.9537515e-07
32	0xb3b7c677	-8.557702e-08
33	0x349560fa	2.7823972e-07
34	0x34e97a15	4.3488458e-07
35	0x32d56ddc	2.4846422e-08
36	0xb3da5df2	-1.01685046e-07
37	0xb2c8761a	-2.333677e-08
38	0x33eae1ef	1.0937571e-07
39	0x3481b6a3	2.4161008e-07
40	0xb2f0152f	-2.794931e-08
41	0xb32a14cf	-3.9600135e-08
42	0xaf99a965	-2.79509e-10
43	0xb46b67b7	-2.1923812e-07
44	0x33f885f7	1.1572768e-07
45	0x329c86b8	1.8222053e-08
46	0x342f1c0e	1.6308351e-07
47	0xb34b0476	-4.7268678e-08
48	0x32fc2533	2.9353577e-08
49	0x3386890f	6.264792e-08
50	0xb22c6545	-1.0034744e-08
51	0x33c102ec	8.987794e-08
52	0x34f82ded	4.6227015e-07
53	0x34a40393	3.054998e-07
54	0x332b75e3	3.9921257e-08
55	0xb3b62421	-8.481607e-08
56	0xb437646b	-1.7079735e-07
57	0xb4033ab1	-1.2221678e-07
58	0xb3dfd565	-1.0423063e-07
59	0xb282bd39	-1.522004e-08
60	0x3457d580	2.0101106e-07
61	0xb4114826	-1.3530425e-07
62	0xb3baf5db	-8.706021e-08
63	0xb48e4468	-2.6499333e-07
64	0xb2067951	-7.827411e-09
65	0xb443e976	-1.8245723e-07
66	0x34d8dcd8	4.039382e-07
67	0xb506901c	-5.0128597e-07
68	0xb3251446	-3.8435495e-08
69	0x344573f1	1.8389234e-07
70	0xb403a19f	-1.2259123e-07
71	0x332568d2	3.851239e-08
72	0x345e0509	2.0677193e-07
73	0x332e4481	4.0574836e-08
74	0x34bb389b	3.487265e-07
75	0xb42bff3b	-1.6018468e-07
76	0x33a1abfd	7.528431e-08
77	0x3160e56e	3.2726706e-09
78	0xb42920d4	-1.5751294e-07
79	0x34122bce	1.3613246e-07
80	0x338f98e1	6.686765e-08
81	0xb305a4e6	-3.111645e-08
82	0xb48a15fc	-2.57205e-07
83	0xb3ebfeb0	-1.09893676e-07
84	0xb49e2bbc	-2.9461614e-07
85	0x34980135	2.8313084e-07
86	0xb3dec821	-1.0374084e-07
87	0x3379be49	5.8147894e-08
88	0xb47c1a34	-2.3478862e-07
89	0xb4b78122	-3.4180363e-07
90	0xb422cbc7	-1.516156e-07
91	0xb35c0018	-5.1222827e-08
92	0x33175cc0	3.5241783e-08
93	0x33305b6e	4.1061348e-08
94	0xb47becc8	-2.3462337e-07
95	0x33d62fd0	9.9738486e-08
96	0x34016819	1.2051932e-07
97	0x33c7d47d	9.305311e-08
98	0x33db560b	1.0213633e-07
99	0x303621a1	6.6259004e-10
100	0x3459e5c8	2.0293294e-07
101	0xb47cda0a	-2.3548651e-07
102	0xb40fa882	-1.3379216e-07
103	0xb1e497d2	-6.6529333e-09
104	0xb480ae39	-2.3968622e-07
105	0xb32eaaa0	-4.0667715e-08
106	0x3415c02f	1.3946622e-07
107	0x33fad6e2	1.1680619e-07
108	0xb3f4e9b3	-1.1404645e-07
109	0xb46a026a	-2.1793826e-07
110	0xb3906653	-6.724135e-08
111	0x34dcd4cd	4.1133026e-07
112	0xb3ab4e51	-7.977054e-08
113	0xb3ecebb3	-1.103248e-07
114	0x3409eefc	1.2846061e-07
115	0x33ce23ef	9.599159e-08
116	0xb44d1a71	-1.9101732e-07
117	0xb303dd6e	-3.0702203e-08
118	0x340b9051	1.2997886e-07
119	0xb3df7624	-1.04057364e-07
120	0x343adf7b	1.7403902e-07
121	0xb28e6709	-1.657783e-08
122	0xb43323c9	-1.6683693e-07
123	0xb469fbe6	-2.1791456e-07
124	0x340ab4b9	1.2917998e-07
125	0x353cce8e	7.0336034e-07
126	0xb349a6d8	-4.6950703e-08
127	0x33443632	4.5684097e-08
128	0xb481778a	-2.4115099e-07
129	0xb448548a	-1.8657207e-07
130	0x32c06df0	2.2401736e-08
131	0x34200e55	1.4906375e-07
132	0xb39d3b19	-7.321632e-08
133	0xb2eee086	-2.7808948e-08
134	0xb3544d5d	-4.9430458e-08
135	0x338ce447	6.5607814e-08
136	0xb3483035	-4.6609973e-08
137	0xb2418b96	-1.1265817e-08
138	0x3324ea85	3.839752e-08
139	0x346910b1	2.1705888e-07
140	0x3409ed0b	1.2845355e-07
141	0x346deef8	2.2159281e-07
142	0x349c97bb	2.9167663e-07
143	0xb38b6902	-6.491793e-08
144	0x3383bc39	6.1344004e-08
145	0x33d7a4ea	1.00417154e-07
146	0x343fe6b4	1.787219e-07
147	0xb3ccb1cf	-9.5318335e-08
148	0x34db206b	4.0815516e-07
149	0x34dadf2f	4.0768052e-07
150	0xb306a0fd	-3.1345724e-08
151	0x34b31bea	3.3361658e-07
152	0xb419af41	-1.4312992e-07
153	0x3488fdf6	2.5516755e-07
154	0x32a71287	1.9449784e-08
155	0x33f1f4c8	1.12669625e-07
156	0x33ec98eb	1.1017422e-07
157	0xb443ae62	-1.822423e-07
158	0xb31e6355	-3.6877584e-08
159	0x340ddcb9	1.3211947e-07
160	0x342271a7	1.5128772e-07
161	0xb431150d	-1.6492068e-07
162	0xb2cc2c7a	-2.3768951e-08
163	0x339feb14	7.446775e-08
164	0xb48d3320	-2.6300495e-07
165	0xb24d05f8	-1.1933928e-08
166	0x351bad8c	5.7994544e-07
167	0xb423a9c7	-1.5242323e-07
168	0xb4a32c47	-3.0393332e-07
169	0x3489ec32	2.5690093e-07
170	0x3462e99e	2.113288e-07
171	0x34071f0a	1.2584147e-07
172	0x34dc3a42	4.102058e-07
173	0x34818a34	2.4128678e-07
174	0xb4484823	-1.8652695e-07
175	0x33aafb1e	7.96192e-08
176	0xb43d4141	-1.7625736e-07
177	0x34322ff8	1.6594993e-07
178	0x343c2916	1.7523811e-07
179	0xb3dbcd92	-1.0235375e-07
180	0xb352cf71	-4.9083102e-08
181	0x340375e9	1.2243221e-07
182	0xb368a46b	-5.4166247e-08
183	0x336b3470	5.4762893e-08
184	0xb4062e87	-1.2496649e-07
185	0x34844bce	2.464207e-07
186	0xb2e51daa	-2.6672598e-08
187	0x33f099ff	1.12038826e-07
188	0xb33c4c84	-4.384175e-08
189	0xb4ade356	-3.238917e-07
190	0x32ea8099	2.7299665e-08
191	0x3397f8ab	7.076718e-08
192	0xb36f1d26	-5.5673034e-08
193	0x33c70db7	9.269154e-08
194	0xb4ab68e9	-3.1927564e-07
195	0xb3fdbd56	-1.18156706e-07
196	0x34e9c040	4.3539512e-07
197	0x3352872d	4.9017377e-08
198	0xb21cf95b	-9.137092e-09
199	0xb4694640	-2.1725373e-07
200	0x33e55d3f	1.0680605e-07
201	0xb31794be	-3.5292707e-08
202	0x33f28b53	1.1294346e-07
203	0xb304e116	-3.093836e-08
204	0x340b2aa7	1.29609e-07
205	0x34229524	1.5141683e-07
206	0x334d394f	4.7782404e-08
207	0xb4813a62	-2.4070602e-07
208	0x31f2a48e	7.0618347e-09
209	0xb1939794	-4.2954955e-09
210	0xb4780594	-2.3098829e-07
211	0xb398c162	-7.113228e-08
212	0xb2403e75	-1.1190072e-08
213	0x31f5de60	7.1557196e-09
214	0x33ba6675	8.679937e-08
215	0x34a6bbcf	3.1056558e-07
216	0xb4ce2398	-3.8396388e-07
217	0xb4fdc0f8	-4.7265326e-07
218	0xb489e980	-2.5688132e-07
219	0x34252e97	1.5383772e-07
220	0x3200a6ec	7.488534e-09
221	0x33e54bae	1.06774095e-07
222	0xb416a34d	-1.4029247e-07
223	0xb48d8565	-2.6360354e-07
224	0xb478c138	-2.3167092e-07
225	0x35114749	5.4120443e-07
226	0xb412c4ff	-1.3668976e-07
227	0xb408f892	-1.2756416e-07
228	0x3405489e	1.2413008e-07
229	0xb46fc48d	-2.2330114e-07
230	0xb3ea6795	-1.09153156e-07
231	0x328779fe	1.5771544e-08
232	0x34df8508	4.163378e-07
233	0x34be0da1	3.5400174e-07
234	0x341992f6	1.43027e-07
235	0xb427cc42	-1.5627396e-07
236	0xb42d280f	-1.6126454e-07
237	0x336fded3	5.584918e-08
238	0x339d3d74	7.3220605e-08
239	0xb44393e8	-1.8214598e-07
240	0xb27ba3b6	-1.46473464e-08
241	0xb4e0e98c	-4.189318e-07
242	0x34ca19ad	3.7644114e-07
243	0xb4421a3d	-1.8077203e-07
244	0xb475278b	-2.2831789e-07
245	0xb4a4656b	-3.0621172e-07
246	0xb4b434d1	-3.3566042e-07
247	0xb3813dcd	-6.018272e-08
248	0xb416c689	-1.4042065e-07
249	0xb44781ce	-1.8580542e-07
250	0x3434db07	1.6843488e-07
251	0xb4636fd2	-2.1181702e-07
252	0x3409f8dd	1.2849655e-07
253	0x335e7a87	5.179984e-08
254	0x332f4495	4.0807738e-08
255	0x33f5ac50	1.1440045e-07

model.time_mlp.3.weight f4 [32, 256]
0	0x3d8c9672	0.06864633
1	0x3b72b1da	0.0037032277
2	0xbcd58361	-0.026063623
3	0xbd307832	-0.043083377
4	0xbc136f5b	-0.008998717
5	0xbc92bdf6	-0.017912846
6	0xbc35e59f	-0.011102109
7	0xbcb4d710	-0.022075206
8	0x3b11f3bc	0.002227052
9	0xbc6c69a1	-0.014429481
10	0x3c1f6926	0.009729659
11	0xbc31f95a	-0.010862673
12	0x3c237197	0.009975812
13	0xbc88ab95	-0.01668338
14	0xbd07b334	-0.033129886
15	0xbc30e5d4	-0.010796983
16	0xbb5729e1	-0.0032831358
17	0xbd9a2c34	-0.07527962
18	0x3d00d429	0.03145233
19	0xbbd4bc43	-0.006492169
20	0xbc921a27	-0.017834736
21	0x3c89b3a5	0.016809294
22	0xbc2f1203	-0.010685447
23	0x3da3d54d	0.07999668
24	0xbb4e53af	-0.0031482985
25	0x3c02b40d	0.007977498
26	0xbd0be48a	-0.0341535
27	0xbd8790e0	-0.066194296
28	0x3cc10fec	0.023567162
29	0x3c3e9360	0.011631817
30	0x3bc16fcf	0.005903221
31	0xbc6c1343	-0.014408889
32	0x3d5ff6ec	0.054678842
33	0xbdd6840d	-0.104744054
34	0xbcfb8a4b	-0.030705592
35	0x3b3bf2a8	0.002867857
36	0x3b7360db	0.0037136588
37	0x3c159fb9	0.009132319
38	0xbd0ce808	-0.03440097
39	0x3b9513d5	0.0045494833
40	0xbca0725c	-0.01958578
41	0x3b46a54c	0.0030310927
42	0x3a3057db	0.00067269587
43	0x3c9740fd	0.018463606
44	0xbadd4bde	-0.0016883572
45	0x3d35d07b	0.044388276
46	0xbda1cb01	-0.07900048
47	0xbd15ad5c	-0.03654228
48	0xbc85c67b	-0.016329994
49	0xbc0d46c3	-0.008622828
50	0xbbb4a3bc	-0.0055126827
51	0xbcf4882c	-0.029850088
52	0x3caf7147	0.02141632
53	0xbb991448	-0.004671607
54	0x3bb91688	0.005648438
55	0xbc4c556c	-0.012471538
56	0x3c125f45	0.008933847
57	0xbccef157	-0.025261564
58	0xbca0c825	-0.019626686
59	0xbbc7e8bc	-0.006100742
60	0xbca394ed	-0.019968474
61	0xbd14c8ff	-0.036324497
62	0x3d105066	0.035232924
63	0x3cbbd1b6	0.022927146
64	0x3c8098e0	0.015697896
65	0x3c9e81eb	0.01934906
66	0x3b8d0cd3	0.0043045073
67	0x3cd81491	0.026376994
68	0xbcf06b13	-0.029347932
69	0xbc17dcb0	-0.009268925
70	0xbc6190ad	-0.013767404
71	0x3d811224	0.06302288
72	0xbcd93a44	-0.026517041
73	0x3ca5f2a3	0.0202573
74	0xbdcbdf35	-0.09954683
75	0x3be099ed	0.006854287
76	0xbc8cc283	-0.017182594
77	0xbc87a3ea	-0.016557653
78	0xbd341c91	-0.043972556
79	0x3c9e4344	0.019319184
80	0xbc21e8b9	-0.009882146
81	0xbd7b0502	-0.061284073
82	0xbcfd199c	-0.030896
83	0xbd153dbd	-0.03643583
84	0xbc2efd1e	-0.010680465
85	0xbd3a3d6c	-0.045468733
86	0xbcada2ef	-0.021195857
87	0xba9c324e	-0.0011916847
88	0xbcf93436	-0.030420404
89	0xbd3819ac	-0.044946358
90	0x3cb2f474	0.02184508
91	0xbd1e071e	-0.038581006
92	0xbd257cbf	-0.04040217
93	0x3c591c83	0.013251427
94	0xbcb2cefa	-0.02182721
95	0xbd033238	-0.032030314
96	0xbc8d380c	-0.01723864
97	0xbd2d678e	-0.042335086
98	0xbd38c1e9	-0.045106802
99	0x3cb3674c	0.021899842
100	0xbc8c5d25	-0.017134259
101	0x3c14374e	0.009046389
102	0xbcc4ab80	-0.024007559
103	0xbc22ddad	-0.009940547
104	0x3c617c91	0.013762609
105	0x3a6a4095	0.0008936015
106	0x3bae71cd	0.0053236247
107	0xbc44eecf	-0.012019827
108	0x3d47cc57	0.048778858
109	0x3d0299d3	0.03188498
110	0xbc8ac838	-0.016941175
111	0x3ce8f215	0.028435746
112	0x3b3848f0	0.0028119646
113	0x3d2a8503	0.041630756
114	0x3c480c15	0.012209912
115	0x3c4e71f1	0.012600408
116	0xbbb08657	-0.0053871083
117	0xbd2d6f76	-0.042342626
118	0xba16da99	-0.00057546195
119	0x3be87585	0.0070940875
120	0x3c923872	0.01784918
121	0x3cbe53ce	0.02323332
122	0x3c94a2aa	0.01814397
123	0x3d03d033	0.032180976
124	0xbcc88b55	-0.024480501
125	0xbd161087	-0.036636855
126	0xbd2e8bf7	-0.04261395
127	0x3d1c1332	0.038104244
128	0xbb7d5720	-0.0038656667
129	0x3cb452f3	0.02201221
130	0xbc567009	-0.013088235
131	0xbbb0d5e3	-0.005396591
132	0xbcc0d337	-0.023538215
133	0x3b855dbf	0.0040700133
134	0xbd0d8d02	-0.034558304
135	0x3c03b9fd	0.0080399485
136	0xbd4e8ce3	-0.05042733
137	0xbcb6b48c	-0.022302888
138	0xbd0e72fd	-0.03477763
139	0x3d1662e7	0.036715414
140	0xbaa19643	-0.0012328107
141	0xbc82e67e	-0.015979048
142	0xbae9870b	-0.0017816735
143	0xbb4c5c0e	-0.0031182799
144	0xbc6c635b	-0.014427985
145	0x3a8db7c5	0.0010812214
146	0x3d46d0e7	0.04853907
147	0x3b47ba17	0.0030475908
148	0xbcfab86c	-0.030605517
149	0xbd69116f	-0.05690139
150	0x3d067b23	0.032832276
151	0xbd3ce5b7	-0.04611751
152	0xbc5b3a15	-0.013380547
153	0xba891eae	-0.0010461414
154	0x3cc3dd95	0.02390937
155	0x3c255721	0.010091574
156	0x3d6c9978	0.057763547
157	0xbbe3277c	-0.006932197
158	0x3d263dff	0.040586468
159	0xbcd4af94	-0.025962628
160	0xbd221cb8	-0.03957817
161	0x3d66d262	0.05635298
162	0xbcd67ed6	-0.026183527
163	0x3d82eb90	0.06392586
164	0x3b616dee	0.0034397799
165	0xbbfb8035	-0.0076751956
166	0xbb5a80d8	-0.0033340957
167	0x3d31fab3	0.043451976
168	0x3c045463	0.00807676
169	0xbd641d74	-0.05569215
170	0xbd941d72	-0.07232179
171	0x39ebc617	0.0004497028
172	0xbb02b70b	-0.0019945528
173	0x3cc9f624	0.024653502
174	0x3c98e5f6	0.018664341
175	0xbcfb5b74	-0.030683257
176	0x3c19927c	0.0093733035
177	0x3bf209f5	0.007386441
178	0x3cfa5fa4	0.030563183
179	0x3bbedb8d	0.0058245123
180	0xba828b2e	-0.0009959692
181	0xbb8df972	-0.0043327147
182	0x3c9d0172	0.019165728
183	0x3c08733c	0.008328255
184	0x3bf59b13	0.007495293
185	0x3c7232a4	0.0147825815
186	0x3d72b327	0.059252884
187	0x3c395ff3	0.01131438
188	0x3cf3cde6	0.029761266
189	0x3db48f7c	0.0881643
190	0xbc9bf1cf	-0.019036202
191	0x3c3dd35d	0.011586037
192	0x3cb879ad	0.022518957
193	0xbc3901fa	-0.011291975
194	0xbc5bf11b	-0.013424183
195	0xbc41a505	-0.011819129
196	0xbc2e0c3f	-0.010623037
197	0xbbf7ef6f	-0.0075663845
198	0x3c1e2cb4	0.009654213
199	0x3c65ea3f	0.014032899
200	0xbd2e3842	-0.04253412
201	0xbc3f8a7b	-0.011690731
202	0x3c5806d0	0.013185218
203	0xbc5334a8	-0.012890972
204	0x3bf562cd	0.0074885846
205	0x3d48354e	0.04887896
206	0x3bd6d8f9	0.006556627
207	0xbbb0813c	-0.0053864997
208	0x3c272249	0.010201045
209	0x3c5b3c6a	0.013381103
210	0xbd0fa9e1	-0.03507412
211	0xbbc8b2b6	-0.0061248196
212	0xbd6b9df4	-0.057523683
213	0xbc3df06d	-0.0115929665
214	0x3d31ff6a	0.043456472
215	0xbc5d0ada	-0.013491357
216	0x3d027f52	0.031859703
217	0x3bcdf6d8	0.0062855296
218	0x3d339a0b	0.04384808
219	0xbc1eaf60	-0.009685367
220	0x3bbaf14b	0.005705034
221	0x3d590d20	0.052991033
222	0x3c438465	0.011933421
223	0xbd4fe877	-0.050758805
224	0x3ceb7800	0.028743744
225	0xbcc7ad68	-0.024374679
226	0x3d189c19	0.03725824
227	0xbbec7097	-0.00721557
228	0xbbdd380e	-0.006751067
229	0xbcdd6ef8	-0.027030453
230	0xbc5c63bd	-0.013451514
231	0xbd48c3aa	-0.049014725
232	0xbce0b045	-0.027427802
233	0x3c5db5e7	0.013532138
234	0x3cf19e72	0.029494498
235	0x3bfcbaf2	0.0077127153
236	0xbb76a6e2	-0.003763609
237	0xbd21dc4b	-0.03951673
238	0x3ccc5127	0.02494104
239	0xbc90e817	-0.017688794
240	0x3d0ad54f	0.033894833
241	0x3d7f6154	0.06234868
242	0x3c3d6d33	0.01156168
243	0x3accabde	0.0015615185
244	0x3ce6d132	0.028175924
245	0x3d40d692	0.04707963
246	0xbb691524	-0.003556558
247	0x3c7676e2	0.015042992
248	0xbc61395a	-0.013746584
249	0x3d119731	0.035544578
250	0x3a86c83a	0.0010283061
251	0x3ca8c2cb	0.020600697
252	0x3ac041b0	0.0014668014
253	0x3af5665b	0.0018722521
254	0x3c493169	0.012279847
255	0xbd3b23cc	-0.045688435

model.time_mlp.3.bias f4 [32]
0	0xb598be9c	-1.1380357e-06
1	0xb5e1bf7e	-1.6819538e-06
2	0x35b8af31	1.3760056e-06
3	0xb64b5ca3	-3.030328e-06
4	0x35b78f87	1.3676334e-06
5	0x35a78c83	1.2483364e-06
6	0x359e44fe	1.1791997e-06
7	0xb496113e	-2.7952223e-07
8	0x350b78fb	5.1957585e-07
9	0x359595a5	1.1144917e-06
10	0x36684310	3.460973e-06
11	0xb620bfa8	-2.3953417e-06
12	0x355d7ef3	8.251365e-07
13	0x342118f4	1.5003371e-07
14	0xb55c0244	-8.1959683e-07
15	0xb58ad197	-1.03428e-06
16	0xb6370abc	-2.7275373e-06
17	0x349ef1ac	2.9605633e-07
18	0xb60e81f6	-2.1235296e-06
19	0x35f5d545	1.8315992e-06
20	0x359df59f	1.1768897e-06
21	0x360c42eb	2.0900577e-06
22	0x36178a32	2.2581194e-06
23	0xb5817622	-9.64563e-07
24	0x358c949c	1.0474064e-06
25	0xb625b93c	-2.4694737e-06
26	0x35d076fb	1.5531836e-06
27	0x3618f515	2.2792422e-06
28	0x35dc4fe8	1.6414533e-06
29	0xb6787f89	-3.7029115e-06
30	0x359b9c59	1.1593903e-06
31	0xb51c1342	-5.814255e-07

model.layer.0.weight f4 [256, 55]
0	0xbc120e95	-0.008914609
1	0xbdb432e4	-0.08798769
2	0xbe106cd2	-0.14104012
3	0x3dce90ba	0.10086198
4	0xbe05ad7c	-0.1305446
5	0x3c43a43c	0.011941012
6	0x3bf09a91	0.0073426445
7	0xbcee7883	-0.029110199
8	0xbbc410aa	-0.005983432
9	0xbdd1198c	-0.10209951
10	0x3dd68611	0.1047479
11	0xbd85ee4b	-0.065395914
12	0xbd936a1f	-0.07197975
13	0x3d12ad83	0.035810005
14	0x3ca17d6a	0.019713122
15	0x3e10ea89	0.14151968
16	0x3d0dc702	0.034613617
17	0xbe13b7ab	-0.14425533
18	0x3d76608c	0.060150668
19	0xbd846e37	-0.06466334
20	0x3d42012e	0.047364406
21	0x3dd9c256	0.1063277
22	0x3c076da9	0.008265891
23	0x3ba5f7fb	0.005064962
24	0x3c7d6b99	0.015467548
25	0xbbb08ea7	-0.0053880992
26	0xbd1ac727	-0.037787583
27	0x3de62210	0.11236966
28	0x3cf0e741	0.029407145
29	0xbc986f92	-0.018607888
30	0xba5c1282	-0.0008395092
31	0x3daa023a	0.08301206
32	0xbcd20d41	-0.025641086
33	0xbbe14eab	-0.006875833
34	0x3d437642	0.0477202
35	0x3d39028e	0.045168452
36	0x3db7c485	0.0897303
37	0x3dd8ed8d	0.10592184
38	0xbd156e46	-0.036482118
39	0x3c59610c	0.013267767
40	0xbd320d94	-0.04346998
41	0xbbad9c3b	-0.005298165
42	0x3e0eff66	0.13964614
43	0xbdb10db5	-0.086451925
44	0x3d799cf2	0.06094069
45	0xbc9f4e42	-0.019446496
46	0x3d388fb7	0.045058932
47	0xbd6c6c23	-0.057720315
48	0xbdb791a0	-0.08963323
49	0xbd9a481a	-0.075332835
50	0x3d832ac3	0.064046405
51	0x3e02100c	0.12701434
52	0x3dcd60ed	0.10028253
53	0x3d0da572	0.03458161
54	0xbd536a1d	-0.05161487
55	0x3cdcb081	0.026939632
56	0x3d844f46	0.06460433
57	0xbca9a45e	-0.02070826
58	0x3cf73097	0.030174537
59	0x3da86cef	0.082239024
60	0x396a9bab	0.0002237397
61	0x3af5391a	0.0018709034
62	0xbdc0c811	-0.0941316
63	0xbdb5a796	-0.08869855
64	0x3c29d4a8	0.010365643
65	0xbc56b637	-0.013104967
66	0xbddf61af	-0.109073035
67	0x3adf4d4b	0.0017036585
68	0xbd0922b1	-0.03348035
69	0xbdaef762	-0.08543278
70	0xbd1497c2	-0.03627754
71	0xbc589b81	-0.013220669
72	0x3d1d9da3	0.038480412
73	0x3d362278	0.044466466
74	0x3de6bd67	0.112665944
75	0x3db5eb01	0.08882714
76	0xbcd0a1ac	-0.025467716
77	0x3c88755d	0.016657526
78	0x3d60dc90	0.054897845
79	0xbdcfe920	-0.10151887
80	0xbd56d489	-0.052448783
81	0xbd0588a5	-0.032601018
82	0x3d95e77f	0.07319545
83	0xbdb4eaaf	-0.08833825
84	0x3d6acb55	0.05732282
85	0x3d1b8044	0.03796412
86	0xbda2158e	-0.079142675
87	0x3c80c455	0.015718618
88	0xbce0b6cc	-0.027430914
89	0x3c8fa834	0.01753626
90	0x3c830880	0.015995264
91	0xbcc960ad	-0.024582231
92	0x3b124858	0.0022320952
93	0xbcbcbe57	-0.02303998
94	0x3dc9a02f	0.09845006
95	0x3dc27491	0.094948895
96	0x3d8a57c7	0.067550234
97	0x3d77971c	0.060446844
98	0x3df5fa9a	0.12010689
99	0x3d121e76	0.03567358
100	0xbdab55a0	-0.08365941
101	0xbb8a3cae	-0.0042186594
102	0x3d5ee434	0.05441685
103	0xbdab96b3	-0.08378353
104	0x3c7f3464	0.015576456
105	0xbd41d74e	-0.04732447
106	0x3d4571e7	0.04820433
107	0xbc99c79b	-0.018771937
108	0xbba388c9	-0.0049906713
109	0xbd9a33e1	-0.07529426
110	0xbc886b82	-0.016652826
111	0x3d5a35fa	0.053274132
112	0x3d277706	0.040884994
113	0x3d06bba1	0.03289378
114	0x3c682b91	0.014170543
115	0x3cbea00d	0.023269678
116	0xbd16f089	-0.036850486
117	0xbd8f64b9	-0.07001633
118	0xbbe25aa3	-0.0069077774
119	0xbdb0f264	-0.08639982
120	0xbc8fbc37	-0.017545803
121	0xbd1b3007	-0.0378876
122	0xbaae527b	-0.0013299728
123	0xbd1f1493	-0.03883798
124	0x3d081359	0.033221576
125	0xbdd1accb	-0.10238036
126	0xbddb6d7e	-0.10714243
127	0x3ab1fd9e	0.0013579612
128	0x3c1780dd	0.009247032
129	0xbdebbe29	-0.115108795
130	0x3dbce95a	0.09224196
131	0xbd4967af	-0.049171146
132	0xbdd0c4c6	-0.101937816
133	0xbd603a82	-0.054743297
134	0xbe0c6b3f	-0.13712786
135	0x3e2529dc	0.1612925
136	0xbdc79053	-0.097443245
137	0xbd587c70	-0.052853048
138	0xba6ccffb	-0.0009033677
139	0xbd2e5715	-0.042563517
140	0x3dfb530f	0.122717015
141	0xbd0f0dfb	-0.034925442
142	0xbc896a4a	-0.016774315
143	0x3daa1be8	0.08306104
144	0x3d27eebe	0.040999167
145	0xbdda5be5	-0.10662059
146	0xbcb66f42	-0.022269849
147	0xbd521c45	-0.05129649
148	0x3d29c99b	0.04145203
149	0xbd467fd2	-0.048461743
150	0x3da54bc2	0.0807109
151	0x3b367145	0.002783851
152	0xbd2d1a61	-0.042261485
153	0xbd82892e	-0.06373821
154	0xbc8d36f0	-0.01723811
155	0xbdbe6469	-0.092964955
156	0x3df38929	0.118913956
157	0xbd5f2c8a	-0.054485835
158	0xbd058e48	-0.032606393
159	0xb9f7ef63	-0.00047289868
160	0x3d3cdfa9	0.046111736
161	0xbd2fbd06	-0.042904876
162	0xbe14e0a1	-0.14538814
163	0xbd178176	-0.036988698
164	0x3cc5f33b	0.024163833
165	0x3d891c71	0.06694878
166	0xbdb1043a	-0.08643384
167	0xbcbda8fd	-0.023151869
168	0xbe151cf9	-0.14561833
169	0x3dd161d5	0.10223738
170	0xbc5a2c9a	-0.013316298
171	0xbb10edc6	-0.002211438
172	0xbdb714ea	-0.08939536
173	0xbc927965	-0.017880151
174	0x3dcc33c7	0.09970813
175	0xbd332975	-0.04374071
176	0x3c8325e1	0.016009273
177	0x3ae53967	0.0017488421
178	0x3dab986e	0.08378683
179	0xbd99dbe3	-0.07512643
180	0x3d53be6a	0.051695265
181	0x3d9eb353	0.07749047
182	0xbb832722	-0.0040024677
183	0xbc905d2b	-0.017622551
184	0x3df9b512	0.121927395
185	0x3d079ad7	0.03310665
186	0xbd0b13c5	-0.0339544
187	0xbca958ff	-0.02067232
188	0x3ba9f9c7	0.0051872465
189	0x3d33950a	0.043843307
190	0xbd699bed	-0.057033468
191	0xbd02f392	-0.031970568
192	0x3d032609	0.032018695
193	0x3cd3289c	0.0257762
194	0x3c7f8540	0.015595734
195	0x3ca3357f	0.01992297
196	0xbc156513	-0.009118336
197	0xbda5daad	-0.0809835
198	0xbceb4923	-0.028721398
199	0x3c998eb3	0.018744802
200	0xbda79039	-0.08181805
201	0xbcccef64	-0.025016494
202	0xbd41c8d7	-0.047310676
203	0x3d438066	0.047729872
204	0x3d4ec975	0.050485093
205	0xbd394885	-0.045235176
206	0xbcb40b00	-0.021977901
207	0xbd37c1f3	-0.0448627
208	0x3dc2c968	0.095110714
209	0x3c2e81ca	0.010651061
210	0x3d15acc7	0.036541726
211	0x3de806ac	0.113293976
212	0x3dab63e8	0.08368665
213	0xbdb087df	-0.08619665
214	0x3d57d1cf	0.052690323
215	0x3df23758	0.11826962
216	0xbc1f01d0	-0.009705022
217	0xbd009a86	-0.031397365
218	0x3c2ca9e5	0.010538553
219	0xbd738372	-0.059451528
220	0xbd9467d5	-0.07246367
221	0xbc89ac4c	-0.01680579
222	0xbd06e3c6	-0.032932065
223	0xbc8df4ed	-0.017328704
224	0xbbcd8905	-0.0062724375
225	0x3dd353e1	0.10318733
226	0xbe17baf7	-0.14817415
227	0x3cf47f5f	0.029845892
228	0x3ce0fac5	0.027463326
229	0x3e13b4c3	0.14424424
230	0xbd29784d	-0.041374493
231	0x3d8d719a	0.069064334
232	0x3ca55d19	0.020185994
233	0xbd9cfcb9	-0.076653905
234	0x3d596425	0.05307402
235	0x3c84bb2b	0.01620253
236	0xbd757eb9	-0.059935305
237	0x3d4428c9	0.04789046
238	0x3d8c7759	0.06858701
239	0xbd89b4a7	-0.0672391
240	0xbc7bc118	-0.015365861
241	0xbd0562ed	-0.032565046
242	0xbd208a20	-0.039194226
243	0x3d11f76b	0.035636347
244	0xbe0abad7	-0.13547836
245	0xbc8433c5	-0.016137967
246	0xbc53b416	-0.012921354
247	0x3dc159e7	0.09440976
248	0xbda18956	-0.07887523
249	0xbda30688	-0.0796023
250	0x3cf34a88	0.029698625
251	0xbdc16e30	-0.09444845
252	0xbe2830ec	-0.16424912
253	0x3dbd5e37	0.09246486
254	0xba4d8bfc	-0.00078409887
255	0xbc18a9f3	-0.009317863

model.layer.0.bias f4 [256]
0	0xb512fd07	-5.475744e-07
1	0xb5784a57	-9.249538e-07
2	0xb6351ee3	-2.698908e-06
3	0xb534bf30	-6.733344e-07
4	0x35a74cfc	1.2464875e-06
5	0x32e864a9	2.705413e-08
6	0x3588e3bf	1.0199072e-06
7	0x35be3d16	1.4173881e-06
8	0xb5942137	-1.1036526e-06
9	0x3686ca21	4.017042e-06
10	0xb58cfda4	-1.0504632e-06
11	0x350a20c4	5.1456686e-07
12	0x367e801e	3.7923523e-06
13	0xb33e04e1	-4.424226e-08
14	0x34f24807	4.512842e-07
15	0x358a04f5	1.0283244e-06
16	0xb5b64a45	-1.3581672e-06
17	0x34299958	1.5795138e-07
18	0xb5aaa3ef	-1.2713698e-06
19	0x34eacb24	4.37337e-07
20	0x3596f97b	1.1248479e-06
21	0x35021101	4.845352e-07
22	0xb5cd97ca	-1.5317867e-06
23	0xb5f5fc3d	-1.8327333e-06
24	0xb57e2c05	-9.468643e-07
25	0x3606ae85	2.006914e-06
26	0x349d89cb	2.9343786e-07
27	0xb5713ed0	-8.98709e-07
28	0x360de469	2.114359e-06
29	0xb5f8a907	-1.8526633e-06
30	0xb5b29d3d	-1.3307796e-06
31	0xb57aa71c	-9.3375434e-07
32	0x34c159dd	3.6014436e-07
33	0xb5a63b61	-1.2385245e-06
34	0xb60d64fa	-2.1069413e-06
35	0xb5bee095	-1.4221465e-06
36	0xb510a727	-5.388742e-07
37	0xb40b667e	-1.298267e-07
38	0xb4cd3d7a	-3.8228956e-07
39	0xb39c7be5	-7.2868524e-08
40	0xb453eb68	-1.9736547e-07
41	0xb5dd184d	-1.6472856e-06
42	0xb5086752	-5.08143e-07
43	0xb5efe2c7	-1.7872889e-06
44	0x351759f8	5.6382805e-07
45	0xb5e1ac86	-1.6814017e-06
46	0xb504652c	-4.9321056e-07
47	0x3591862c	1.0842391e-06
48	0xb6bcf7fb	-5.6317053e-06
49	0xb5a4a5b1	-1.2267175e-06
50	0x35c1b2b6	1.4431632e-06
51	0x35472a60	7.419494e-07
52	0xb629f722	-2.5326813e-06
53	0x3584e677	9.90184e-07
54	0x36b53014	5.3998174e-06
55	0x342d1013	1.6117728e-07
56	0x35b31db7	1.3345187e-06
57	0xb518ec4e	-5.696828e-07
58	0x355f8703	8.327044e-07
59	0xb592374d	-1.0893942e-06
60	0xb616bce0	-2.2461682e-06
61	0x3605cc74	1.9937552e-06
62	0x35a3081a	1.2146804e-06
63	0xb40ed0f3	-1.3300796e-07
64	0x337468c2	5.6905954e-08
65	0xb6617af6	-3.3599185e-06
66	0xb63ced11	-2.8152174e-06
67	0x365a6721	3.254456e-06
68	0xb4db8cb0	-4.0894292e-07
69	0xb6715871	-3.5963278e-06
70	0x362e8e9e	2.6011035e-06
71	0x36399aeb	2.7657322e-06
72	0x36902b7f	4.296598e-06
73	0xb63c3986	-2.8047666e-06
74	0x35725a66	9.028357e-07
75	0x35c28149	1.4491753e-06
76	0x3630c1c5	2.6338832e-06
77	0xb63652b9	-2.7168264e-06
78	0x35c1cd6c	1.4439406e-06
79	0xb4bddb6c	-3.5363644e-07
80	0x361dbae8	2.3503617e-06
81	0xb5548171	-7.9164516e-07
82	0x355fb0b2	8.33311e-07
83	0xb60c2be5	-2.0887176e-06
84	0x3510c961	5.3937225e-07
85	0x36adfab8	5.1849893e-06
86	0x35fa3e3b	1.8644563e-06
87	0xb5ff9edc	-1.9045215e-06
88	0xb689f57c	-4.1114963e-06
89	0xb6420bca	-2.8915115e-06
90	0x35c1b393	1.4431884e-06
91	0xb431dde7	-1.6565137e-07
92	0x348fd291	2.6789033e-07
93	0xb4a6dcb4	-3.1080492e-07
94	0xb6a097f1	-4.78606e-06
95	0x35f6c72d	1.8386396e-06
96	0x35829fe5	9.73229e-07
97	0x358e5434	1.0604331e-06
98	0xb64daec0	-3.0649098e-06
99	0xb5a44974	-1.224033e-06
100	0xb2cfc89a	-2.4189195e-08
101	0x35c39fc6	1.4575132e-06
102	0x35aade69	1.2730717e-06
103	0x35c0778b	1.4339906e-06
104	0x35977017	1.1282999e-06
105	0xb5a62aed	-1.2380457e-06
106	0xb4d7a918	-4.0169903e-07
107	0xb636f0b9	-2.7260232e-06
108	0x35775381	9.2136185e-07
109	0x35cf6af4	1.5453829e-06
110	0xb4c5bd73	-3.6831952e-07
111	0xb5ff31e3	-1.90135e-06
112	0x365a2808	3.2507833e-06
113	0x36490557	2.9954442e-06
114	0xb61f291a	-2.371677e-06
115	0xb5ad52c3	-1.2913591e-06
116	0x35e54ba9	1.708385e-06
117	0x350b0df4	5.180184e-07
118	0xb31f2a1c	-3.705837e-08
119	0x356ff82b	8.939557e-07
120	0xb4f7f978	-4.6188848e-07
121	0x35394fd8	6.903406e-07
122	0x3595f16f	1.1171632e-06
123	0x3663fe88	3.3973793e-06
124	0x345ac8d0	2.0375887e-07
125	0x364021f7	2.863e-06
126	0x34d020cd	3.8766885e-07
127	0x358f2daa	1.066762e-06
128	0xb624b268	-2.454175e-06
129	0xb6363289	-2.7149529e-06
130	0xb5016818	-4.820772e-07
131	0xb5e88910	-1.7325237e-06
132	0xb6376181	-2.732588e-06
133	0xb60d2768	-2.1033575e-06
134	0xb68ae297	-4.139099e-06
135	0x353ca6c1	7.0278116e-07
136	0x351cea5d	5.845557e-07
137	0xb62b3c2f	-2.5516017e-06
138	0xb613f134	-2.2045106e-06
139	0xb503211a	-4.884947e-07
140	0xb46ce8ac	-2.2063858e-07
141	0x35e5c164	1.7118114e-06
142	0xb6912e61	-4.326736e-06
143	0xb6732529	-3.6231452e-06
144	0xb4cae7e1	-3.7794146e-07
145	0xb39cd2c3	-7.3026534e-08
146	0xb43e256b	-1.7708741e-07
147	0x3504615b	4.93155e-07
148	0x358453cf	9.859158e-07
149	0xb5686cba	-8.6584953e-07
150	0x35747491	9.106671e-07
151	0x35293fea	6.3050413e-07
152	0x350a1821	5.144412e-07
153	0x35ccf388	1.5270061e-06
154	0xb5c9ec2e	-1.5044404e-06
155	0x362dfd39	2.5926404e-06
156	0xb63be745	-2.7999788e-06
157	0xb5d0188e	-1.5504354e-06
158	0x350aec06	5.1752465e-07
159	0xb4f9c833	-4.6525528e-07
160	0x3690d191	4.315931e-06
161	0x35d34c48	1.5742926e-06
162	0xb5ff9b01	-1.9044093e-06
163	0xb55f5c72	-8.32085e-07
164	0xb67912b9	-3.711479e-06
165	0x3678cf39	3.70755e-06
166	0xb4a74bd2	-3.116134e-07
167	0x3595bd14	1.1156394e-06
168	0xb63efdee	-2.8460013e-06
169	0xb5baa997	-1.3907437e-06
170	0x35c76156	1.4854984e-06
171	0xb54d433b	-7.6466284e-07
172	0xb5d803de	-1.609438e-06
173	0xb5d0a32b	-1.5544696e-06
174	0x34ce7292	3.845385e-07
175	0xb5a26fb8	-1.2102455e-06
176	0xb5a26fef	-1.2102518e-06
177	0xb5276720	-6.2362415e-07
178	0xb614c83a	-2.2170266e-06
179	0x35e645ab	1.7156611e-06
180	0x357f6349	9.513938e-07
181	0xb5d9a78d	-1.6216524e-06
182	0xb61e231f	-2.3564278e-06
183	0xb5e16a87	-1.679481e-06
184	0x3317a3e3	3.530648e-08
185	0xb6283389	-2.5063948e-06
186	0x33aa9e2f	7.945015e-08
187	0xb5d367b4	-1.5750907e-06
188	0x358df6ec	1.0577182e-06
189	0x35566c18	7.987851e-07
190	0xb51b6bf2	-5.789908e-07
191	0x363f2f97	2.8488919e-06
192	0x35bee4a5	1.4222647e-06
193	0xb5922d26	-1.0890988e-06
194	0xb55b58cd	-8.171308e-07
195	0xb635102e	-2.698052e-06
196	0xb5093d27	-5.1125465e-07
197	0x352161df	6.0119595e-07
198	0x33789ad5	5.788282e-08
199	0x364540db	2.9393038e-06
200	0xb55650df	-7.9838895e-07
201	0xb5a81cff	-1.2525414e-06
202	0xb680ef56	-3.8425596e-06
203	0xb3adff38	-8.102364e-08
204	0xb61abfe4	-2.3059483e-06
205	0x35b7b240	1.368644e-06
206	0x35a03006	1.1934906e-06
207	0x35ade8fc	1.2957312e-06
208	0xb4022421	-1.2120337e-07
209	0x354c72f8	7.6163224e-07
210	0x35b0d5c1	1.3175232e-06
211	0x35f8107c	1.8482237e-06
212	0x358fb3ff	1.0706716e-06
213	0xb5ab61af	-1.2768922e-06
214	0xb54cc36b	-7.628029e-07
215	0x3617c9ee	2.2618292e-06
216	0x360bc24e	2.0825714e-06
217	0x34d4b5f9	3.962048e-07
218	0xb6112e0a	-2.1633482e-06
219	0xb5485400	-7.462804e-07
220	0x36378b3d	2.7350172e-06
221	0x35363445	6.7876346e-07
222	0xb65dfdd7	-3.307932e-06
223	0xb5d8f1ea	-1.616366e-06
224	0xb5ba1d90	-1.3866684e-06
225	0xb5b63c84	-1.3577669e-06
226	0xb445854b	-1.8395546e-07
227	0x31645ab1	3.3229919e-09
228	0x355774db	8.026379e-07
229	0xb572102a	-9.0175547e-07
230	0x35f42035	1.818879e-06
231	0xb581b9bd	-9.665306e-07
232	0x363f258f	2.848308e-06
233	0x35ac06d5	1.2816987e-06
234	0x35a3e187	1.2210083e-06
235	0xb50ccea6	-5.245478e-07
236	0xb6ffe126	-7.625803e-06
237	0xb63f6048	-2.851726e-06
238	0x36832ce8	3.909332e-06
239	0x34265520	1.5490923e-07
240	0xb5a10e92	-1.1999675e-06
241	0x36928bc4	4.36741e-06
242	0xb5c6410d	-1.4771082e-06
243	0xb6203150	-2.3870562e-06
244	0xb4f69310	-4.5928073e-07
245	0xb6890108	-4.083038e-06
246	0xb64bb1a4	-3.0352758e-06
247	0xb4cc9b70	-3.8111057e-07
248	0x322cd336	1.00597415e-08
249	0xb6a7fa78	-5.0061462e-06
250	0xb5c1b804	-1.4433176e-06
251	0xb5d0b33d	-1.5549373e-06
252	0x34f61b46	4.5840915e-07
253	0xb42e46b4	-1.6230734e-07
254	0xb6467a5d	-2.9575524e-06
255	0x35d5b7bd	1.5923212e-06

model.layer.2.weight f4 [256, 256]
0	0x3d0d6845	0.034523267
1	0x3c9f065d	0.019412214
2	0x3ce64f1b	0.028113892
3	0xb7cdb417	-2.4521765e-05
4	0xbc5361d1	-0.012901739
5	0xbca1163d	-0.019663924
6	0x3d3a8542	0.04553724
7	0x3d8df991	0.06932367
8	0xbc97d8ca	-0.01853599
9	0xbd641970	-0.05568832
10	0xbc2d8d82	-0.01059282
11	0x3c339629	0.010961094
12	0xbd71e60e	-0.059057288
13	0xbcc5ce90	-0.024146348
14	0x3cd890e3	0.026436275
15	0x3bc23284	0.005926432
16	0xbc80ad41	-0.015707614
17	0xbd5f1f0e	-0.054472975
18	0xbd8e50a8	-0.06948978
19	0x3b69a296	0.0035649887
20	0x3c90e25b	0.01768606
21	0xbd2dcb26	-0.042430066
22	0x3bf656e2	0.0075176815
23	0xbd08254c	-0.033238694
24	0x3b24ee1c	0.0025166338
25	0xba9b37de	-0.0011842211
26	0x3c81ed99	0.015860366
27	0xbd74d330	-0.059771717
28	0x3d3e00ff	0.04638767
29	0xbd5637f6	-0.052299462
30	0x3b9fe595	0.004879663
31	0x3b899d3a	0.004199651
32	0x3a8436e9	0.0010087165
33	0x3c99ac15	0.018758813
34	0x3cd8167c	0.026377909
35	0xbc707353	-0.014675933
36	0x3d825679	0.063641496
37	0xbc802541	-0.015642764
38	0xbcdf60c9	-0.02726783
39	0x3d2ea42e	0.042637043
40	0xbd39b631	-0.045339767
41	0x3b9374fc	0.0045000296
42	0x3d0b1a7c	0.033960804
43	0xbbc3d796	-0.0059766276
44	0x3ba98e35	0.005174423
45	0x3c778301	0.015106917
46	0xbd0fc7fb	-0.035102826
47	0xbb784eed	-0.003788884
48	0x3a1fa31d	0.00060896744
49	0xbd34170b	-0.043967288
50	0xbdabbcec	-0.08385643
51	0x3c91e37a	0.017808665
52	0xbbca3f04	-0.006172063
53	0xbc5af826	-0.013364827
54	0xbc3265da	-0.010888541
55	0xbaf89815	-0.0018966222
56	0xbd426f04	-0.047469154
57	0x3c93bb12	0.018033538
58	0x3cc0bbf2	0.02352712
59	0xbcbe4dab	-0.023230394
60	0x3c893a18	0.016751334
61	0x3d5998ba	0.053124167
62	0xbb7cf846	-0.003860013
63	0x3c9e0b6c	0.019292556
64	0x3cf4114d	0.029793406
65	0xbd8ac3da	-0.06775637
66	0xbc0e059b	-0.008668329
67	0x3d219262	0.039446242
68	0xbcc6f8af	-0.024288503
69	0xbc01fa90	-0.007933274
70	0x3b83eb6b	0.0040258667
71	0x3c464e3d	0.012103614
72	0x3d08523c	0.03328155
73	0x3c582aa1	0.013193757
74	0xbaccd3e3	-0.0015627112
75	0xbd0c89dd	-0.034311164
76	0xbd0b34f6	-0.033986054
77	0xbd11fca4	-0.035641328
78	0xbca22b5c	-0.019796066
79	0x3b6041f8	0.0034219008
80	0x3c11ade5	0.008891557
81	0xbd81b9c1	-0.06334258
82	0x3c8667e2	0.016406957
83	0xbbfa7dfc	-0.007644413
84	0x3cbfdf40	0.023421884
85	0x3c851ce5	0.01624913
86	0x3d003420	0.03129971
87	0xbd86ad8a	-0.06576069
88	0x3d2273fa	0.039661385
89	0x3b572a47	0.0032831596
90	0xbc8feca7	-0.0175689
91	0x3b9d5eaf	0.004802547
92	0x3d18a718	0.037268728
93	0xbca248c9	-0.019810097
94	0x3d090c57	0.033459034
95	0x3c7151d2	0.01472898
96	0x3c8060b6	0.015671115
97	0xba89f58f	-0.0010525453
98	0x3cef0167	0.029175473
99	0x3d1e5087	0.038651016
100	0xbd0ad96f	-0.033898767
101	0x3cb67cd3	0.022276318
102	0xbca61734	-0.020274736
103	0x3d311cb4	0.043240264
104	0xbc94dd74	-0.018172003
105	0x3d1ddc35	0.038540084
106	0x3d1c1ed9	0.038115356
107	0xbd289dfd	-0.041166294
108	0x3d5aa629	0.05338112
109	0xbd0c0b0a	-0.034190215
110	0x3b19bcca	0.0023458474
111	0xbd83616b	-0.064150654
112	0x3c260868	0.01013384
113	0xbd1a67c9	-0.037696633
114	0x3d1f203e	0.038849108
115	0xbcb1dd53	-0.02171198
116	0xbd66b017	-0.056320276
117	0x3c9c30d9	0.019066261
118	0x3d3bafd3	0.045821976
119	0xbd3597ba	-0.04433415
120	0xbacce4c2	-0.001563214
121	0xbc101012	-0.008792894
122	0xbc5f02a4	-0.013611469
123	0xbd375e7d	-0.044767845
124	0xba3d9a09	-0.0007232731
125	0xbbac93cb	-0.0052666417
126	0x3d8cfaeb	0.06883796
127	0xbb887f2f	-0.004165552
128	0xbc85b3e9	-0.01632114
129	0xbcf8eb89	-0.03038575
130	0xbc8edb95	-0.01743869
131	0x3c95b19d	0.01827317
132	0xbc91ebb2	-0.017812584
133	0x3c221f83	0.009895208
134	0x3d6c29f6	0.057657205
135	0xbd054680	-0.032537937
136	0xbd4ce52f	-0.050023254
137	0xbce3008a	-0.027710218
138	0x3c7bdbdf	0.015372246
139	0xbc1d3ce0	-0.009597033
140	0x3cb9bd95	0.022673408
141	0x3d385136	0.044999324
142	0x3c19b5a9	0.00938169
143	0x3cec40a4	0.028839417
144	0x3c341913	0.010992306
145	0xbcd42563	-0.025896734
146	0x3c568a29	0.013094463
147	0xbbd0ab19	-0.0063680527
148	0xbca0de8b	-0.019637367
149	0xbc7400bd	-0.014892754
150	0xbc86e985	-0.016468773
151	0xbbe7f7db	-0.007079107
152	0x3bd9a51a	0.006641996
153	0x3bd88421	0.006607548
154	0xbb78cd0c	-0.0037964014
155	0x3bccfd66	0.0062557934
156	0x3c83f5d3	0.016108429
157	0xbd0dc094	-0.034607485
158	0x3c57496c	0.013140064
159	0xbd32e53b	-0.043675642
160	0xbd26e0f2	-0.04074187
161	0x3c18bdab	0.009322564
162	0xbbcdb064	-0.006277131
163	0x3d134a33	0.035959434
164	0xbca62918	-0.020283267
165	0x3baf8dc9	0.0053574783
166	0x3c679317	0.01413419
167	0x3c6962a0	0.014244705
168	0xbc246da1	-0.010035903
169	0xbd382f96	-0.044967256
170	0xbbf7294b	-0.0075427643
171	0xbd342c37	-0.04398748
172	0xbd5aa416	-0.05337914
173	0x3cd0e420	0.025499403
174	0xbcdde009	-0.027084367
175	0xbcd29155	-0.025704065
176	0x3c36af9c	0.011150267
177	0xbd3df013	-0.04637153
178	0x3c36acb5	0.011149575
179	0xbb103e95	-0.0022009958
180	0x3cc20f77	0.023689015
181	0xbce3703f	-0.027763484
182	0x3d266305	0.040621776
183	0xbc4d5c4a	-0.01253421
184	0xbd0c240b	-0.03421406
185	0x3c26c983	0.01017988
186	0xbbdd7fb9	-0.0067596105
187	0xbc716f19	-0.01473596
188	0xbd172249	-0.03689793
189	0xbca2e502	-0.01988459
190	0x3bfc47ab	0.007698973
191	0x3d2b959d	0.04189073
192	0xb92ca5fa	-0.0001646503
193	0xbc43e36f	-0.01195608
194	0xbdcdedde	-0.10055135
195	0xbd4e70e4	-0.05040063
196	0x3d31d1a3	0.043412816
197	0x3dacfc8b	0.08446606
198	0xbc17e122	-0.009269984
199	0xbd04e87b	-0.032448273
200	0x3c0eeaa3	0.008722934
201	0xbd2801af	-0.04101723
202	0xbbcbc60c	-0.0062186774
203	0xbc82b54f	-0.015955595
204	0xbb29a333	-0.0025884628
205	0x3d131874	0.035911992
206	0x3c01fd2c	0.007933896
207	0x3ccf32ac	0.025292717
208	0xbbe09d12	-0.0068546617
209	0x3ca67a68	0.02032204
210	0xbd07563e	-0.03304123
211	0xbcf9f292	-0.030511174
212	0x3c6e2039	0.01453405
213	0x3ce3523a	0.02774917
214	0xbd4895f5	-0.048971135
215	0x3d2dd0aa	0.042435326
216	0x3dcb411d	0.09924529
217	0xbc87398b	-0.01650693
218	0xbcf28d6d	-0.029608453
219	0x3d4da488	0.050205737
220	0xbd1ca257	-0.038240757
221	0x3ce1c9a6	0.027561974
222	0xbcf0e8aa	-0.029407818
223	0x3b35ac06	0.0027720942
224	0xbc9f34a5	-0.019434283
225	0x3c3a85fa	0.011384482
226	0x3ba5cebb	0.0050600446
227	0xbba8607b	-0.0051384545
228	0x3c8cce41	0.017188193
229	0xbb9fb7e2	-0.0048742155
230	0x3a084793	0.00051986537
231	0xbd4da546	-0.050206445
232	0x3d7891f5	0.06068607
233	0xbc25b0a4	-0.010112915
234	0xbc051f1b	-0.008125092
235	0xbcc9a766	-0.024615955
236	0xbbe27568	-0.0069109686
237	0x3b02f306	0.001998128
238	0x3dbfd8f3	0.09367552
239	0xbb85f667	-0.0040882113
240	0xbcbe011f	-0.023193894
241	0x3c61786a	0.013761619
242	0xbb57738b	-0.0032875265
243	0xbd4c862f	-0.049932655
244	0xbb4e078e	-0.0031437608
245	0x3d5d08d1	0.053963486
246	0xbcbc19e1	-0.022961559
247	0xbca5a675	-0.020220974
248	0x3cffc5a2	0.031222168
249	0xbbe4046e	-0.006958536
250	0x3c740517	0.014893792
251	0x3cc8e38e	0.024522569
252	0xbd186f21	-0.037215356
253	0xbcdf4f59	-0.027259516
254	0xbc8a7add	-0.016904289
255	0xbd2dae29	-0.04240242
