results/qvpo_HalfCheetah-v3/actor_25_04_22_15_18_41_0.pth (torch, 667057 bytes, 24 tensors)

betas f4 [50]
000000 4f 28 82 3b e9 92 01 3c 6a d0 41 3c 76 e6 80 3c
       0.0039720903 0.007908561 0.011829475 0.015734892
000010 59 c4 a0 3c fd 81 c0 3c 85 1f e0 3c 10 9d ff 3c
       0.019624876 0.023499483 0.02735878 0.031202823
000020 5f 7d 0f 3d 58 1c 1f 3d 84 ab 2e 3d f1 2a 3e 3d
       0.035031673 0.03884539 0.04264404 0.04642767
000030 b0 9a 4d 3d d1 fa 5c 3d 64 4b 6c 3d 78 8c 7b 3d
       0.05019635 0.053950135 0.057689086 0.06141326
000040 0e 5f 85 3d 31 f0 8c 3d ac 79 94 3d 87 fb 9b 3d
       0.06512271 0.068817504 0.072497696 0.076163344
000050 c9 75 a3 3d 7b e8 aa 3d a3 53 b2 3d 4a b7 b9 3d
       0.0798145 0.083451234 0.08707359 0.09068163
000060 77 13 c1 3d 32 68 c8 3d 82 b5 cf 3d 6e fb d6 3d
       0.09427541 0.09785499 0.10142042 0.10497175
000070 ff 39 de 3d 3b 71 e5 3d 2b a1 ec 3d d5 c9 f3 3d
       0.108509056 0.112032376 0.11554178 0.11903731
000080 41 eb fa 3d bb 02 01 3e 3d 8c 04 3e 2c 12 08 3e
       0.12251902 0.12598698 0.12944122 0.13288182
000090 8a 94 0b 3e 5b 13 0f 3e a2 8e 12 3e 64 06 16 3e
       0.13630882 0.13972227 0.14312223 0.14650875
0000a0 a4 7a 19 3e 65 eb 1c 3e ab 58 20 3e 7a c2 23 3e
       0.1498819 0.15324171 0.15658824 0.15992156
0000b0 d4 28 27 3e be 8b 2a 3e 3a eb 2d 3e 4d 47 31 3e
       0.16324168 0.1665487 0.16984263 0.17312355
0000c0 fa 9f 34 3e 44 f5 37 3e
       0.17639151 0.17964655

alphas_cumprod f4 [50]
000000 af fb 7e 3f 72 f7 7c 3f 60 f9 79 3f 72 0a 76 3f
       0.9960279 0.9881507 0.9764614 0.9610969
000010 58 36 71 3f 3e 8b 6b 3f 87 19 65 3f 80 f3 5d 3f
       0.94223547 0.9200934 0.89492077 0.86699677
000020 04 2d 56 3f 29 db 4d 3f db 13 45 3f 7e ed 3b 3f
       0.8366244 0.80412537 0.7698342 0.7340926
000030 93 7e 32 3f 58 dd 28 3f 7c 1f 1f 3f c9 59 15 3f
       0.69724387 0.65962744 0.62157416 0.58340126
000040 e5 9f 0b 3f 17 04 02 3f 24 2e f1 3e a7 cf de 3e
       0.54540855 0.5078749 0.47105515 0.435178
000050 0f 07 cd 3e f3 ea bb 3e 1b 8e ab 3e 8b ff 9b 3e
       0.40044448 0.3670269 0.33506855 0.304684
000060 9a 4a 8d 3e 42 ee 7e 3e 56 13 65 3e 71 07 4d 3e
       0.2759598 0.24895576 0.22370657 0.2002237
000070 14 c8 36 3e da 4d 22 3e 1c 8d 0f 3e 2f ed fc 3d
       0.17849761 0.1585001 0.14018673 0.12349927
000080 2e f0 dd 3d 14 fa c1 3d 47 de a8 3d c2 6d 92 3d
       0.10836826 0.09471527 0.08245521 0.07149841
000090 3e f0 7c 3d e9 98 59 3d 4d 74 3a 3d 1a 23 1f 3d
       0.06175255 0.053124342 0.04552107 0.038851835
0000a0 0c 49 07 3d a4 1b e5 3c 7c 3b c1 3c 91 54 a2 3c
       0.033028647 0.027967282 0.023587935 0.019815715
0000b0 ce d4 87 3c e0 6a 62 3c 4f f6 3b 3c e6 6b 1b 3c
       0.016580965 0.013819426 0.011472299 0.009486174
0000c0 a7 01 00 3c 64 05 d2 3b
       0.007812894 0.006409334

alphas_cumprod_prev f4 [50]
000000 00 00 80 3f af fb 7e 3f 72 f7 7c 3f 60 f9 79 3f
       1.0 0.9960279 0.9881507 0.9764614
000010 72 0a 76 3f 58 36 71 3f 3e 8b 6b 3f 87 19 65 3f
       0.9610969 0.94223547 0.9200934 0.89492077
000020 80 f3 5d 3f 04 2d 56 3f 29 db 4d 3f db 13 45 3f
       0.86699677 0.8366244 0.80412537 0.7698342
000030 7e ed 3b 3f 93 7e 32 3f 58 dd 28 3f 7c 1f 1f 3f
       0.7340926 0.69724387 0.65962744 0.62157416
000040 c9 59 15 3f e5 9f 0b 3f 17 04 02 3f 24 2e f1 3e
       0.58340126 0.54540855 0.5078749 0.47105515
000050 a7 cf de 3e 0f 07 cd 3e f3 ea bb 3e 1b 8e ab 3e
       0.435178 0.40044448 0.3670269 0.33506855
000060 8b ff 9b 3e 9a 4a 8d 3e 42 ee 7e 3e 56 13 65 3e
       0.304684 0.2759598 0.24895576 0.22370657
000070 71 07 4d 3e 14 c8 36 3e da 4d 22 3e 1c 8d 0f 3e
       0.2002237 0.17849761 0.1585001 0.14018673
000080 2f ed fc 3d 2e f0 dd 3d 14 fa c1 3d 47 de a8 3d
       0.12349927 0.10836826 0.09471527 0.08245521
000090 c2 6d 92 3d 3e f0 7c 3d e9 98 59 3d 4d 74 3a 3d
       0.07149841 0.06175255 0.053124342 0.04552107
0000a0 1a 23 1f 3d 0c 49 07 3d a4 1b e5 3c 7c 3b c1 3c
       0.038851835 0.033028647 0.027967282 0.023587935
0000b0 91 54 a2 3c ce d4 87 3c e0 6a 62 3c 4f f6 3b 3c
       0.019815715 0.016580965 0.013819426 0.011472299
0000c0 e6 6b 1b 3c a7 01 00 3c
       0.009486174 0.007812894

sqrt_alphas_cumprod f4 [50]
000000 b7 7d 7f 3f 91 7a 7e 3f 18 f8 7c 3f 94 f8 7a 3f
       0.998012 0.9940577 0.9881606 0.9803555
000010 05 7f 78 3f 1d 8f 75 3f 39 2d 72 3f 51 5e 6e 3f
       0.97068816 0.959215 0.94600254 0.93112665
000020 ed 27 6a 3f 1f 90 65 3f 6b 9d 60 3f b9 56 5b 3f
       0.9146717 0.89673036 0.877402 0.85679203
000030 4d c3 55 3f ab ea 4f 3f 91 d4 49 3f dc 88 43 3f
       0.8350113 0.8121745 0.78839976 0.76380706
000040 81 0f 3d 3f 75 70 36 3f 9f b3 2f 3f ce e0 28 3f
       0.7385178 0.71265346 0.68633455 0.65968025
000050 a1 ff 21 3f 82 17 1b 3f 95 2f 14 3f b0 4e 0d 3f
       0.63280684 0.60582745 0.57885104 0.5519819
000060 4a 7b 06 3f fd 76 ff 3e f3 29 f2 3e f4 19 e5 3e
       0.52531874 0.49895468 0.4729763 0.44746363
000070 95 50 d8 3e 7b d6 cb 3e 59 b3 bf 3e ee ed b3 3e
       0.4224898 0.39812073 0.3744152 0.35142463
000080 08 8c a8 3e 84 92 9d 3e 58 05 93 3e 96 e7 88 3e
       0.32919335 0.30775845 0.28715014 0.26739186
000090 f2 76 7e 3e d5 04 6c 3e 2c 7a 5a 3e dc d6 49 3e
       0.24850062 0.23048718 0.21335667 0.19710869
0000a0 7d 19 3a 3e 72 3f 2b 3e 08 45 1d 3e 91 25 10 3e
       0.18173786 0.16723421 0.15358365 0.1407683
0000b0 86 db 03 3e 3b c1 f0 3d de 5b db 3d 13 78 c7 3d
       0.1287671 0.11755606 0.10710882 0.09739699
0000c0 1e 06 b5 3d 9d f5 a3 3d
       0.088390574 0.080058314

sqrt_one_minus_alphas_cumprod f4 [50]
000000 18 13 81 3d 11 ef de 3d e5 1a 1d 3e f3 f8 49 3e
       0.0630247 0.10885442 0.1534229 0.19723873
000010 5a 1c 76 3e 1c bb 90 3e 34 f8 a5 3e 72 b9 ba 3e
       0.24034253 0.28267753 0.32415926 0.3646961
000020 fa f2 ce 3e 7d 99 e2 3e 93 a2 f5 3e 6e 02 04 3f
       0.4041975 0.44257727 0.47975597 0.5156621
000030 0e dc 0c 3f a8 5a 15 3f 57 7b 1d 3f dc 3b 25 3f
       0.55023277 0.58341455 0.61516327 0.64544463
000040 99 9a 2c 3f 92 96 33 3f 6a 2f 3a 3f 58 65 40 3f
       0.674234 0.7015163 0.727286 0.7515464
000050 29 39 46 3f 2f ac 4b 3f 3c c0 50 3f 97 77 55 3f
       0.7743097 0.79559606 0.81543326 0.83385605
000060 f2 d4 59 3f 57 db 5d 3f 24 8e 61 3f fc f0 64 3f
       0.85090554 0.8666281 0.88107514 0.8943021
000070 b6 07 68 3f 57 d6 6a 3f fd 60 6d 3f dd ab 6f 3f
       0.90636766 0.91733307 0.9272612 0.9362162
000080 31 bb 71 3f 2e 93 73 3f fd 37 75 3f b2 ad 76 3f
       0.94426256 0.95146453 0.95788556 0.9635879
000090 40 f8 77 3f 78 1b 79 3f fe 1a 7a 3f 4a fa 7a 3f
       0.96863174 0.9730754 0.97697437 0.9803816
0000a0 a1 bc 7b 3f 12 65 7c 3f 75 f6 7c 3f 6e 73 7d 3f
       0.983347 0.9859172 0.98813564 0.99004257
0000b0 68 de 7d 3f 97 39 7e 3f fe 86 7e 3f 6b c8 7e 3f
       0.9916749 0.99306625 0.9942473 0.99524564
0000c0 7c ff 7e 3f a4 2d 7f 3f
       0.9960859 0.9967902

log_one_minus_alphas_cumprod f4 [50]
000000 1f e9 b0 c0 84 ef 8d c0 7c f1 6f c0 9f c9 4f c0
       -5.528457 -4.4354877 -3.749114 -3.246681
000010 04 7d 36 c0 ae b8 21 c0 d1 31 10 c0 c9 1c 01 c0
       -2.8513803 -2.526897 -2.2530406 -2.017382
000020 e5 e5 e7 bf 08 ad d0 bf bb 06 bc bf ba 8c a9 bf
       -1.8117033 -1.6302805 -1.4689554 -1.3246071
000030 1d f0 98 bf 8c f2 89 bf a3 c3 78 bf 68 29 60 bf
       -1.1948277 -1.0777144 -0.9717352 -0.8756318
000040 b6 d1 49 bf 7d 82 35 bf fc 09 23 bf 18 3d 12 bf
       -0.7883562 -0.70902234 -0.6368711 -0.5712447
000050 0a f6 02 bf d1 26 ea be bb ee d0 be 1d 0e ba be
       -0.51156676 -0.4573274 -0.40807137 -0.36338893
000060 3e 54 a5 be b1 94 92 be ac a6 81 be 0d c9 64 be
       -0.32290834 -0.28629068 -0.25322473 -0.2234232
000070 de 56 49 be 05 b6 30 be 3d aa 1a be 3b fb 06 be
       -0.19662043 -0.17256935 -0.15104003 -0.13181774
000080 ef e8 ea bd a9 c9 cb bd 06 3d b0 bd 58 ed 97 bd
       -0.1147021 -0.09950573 -0.08605389 -0.074183166
000090 f0 8a 82 bd 2b 97 5f bd dd d4 3e bd a3 4f 22 bd
       -0.063741565 -0.054587524 -0.04658972 -0.03962673
0000a0 eb 91 09 bd 68 5f e8 bc 42 8c c3 bc e2 f5 a3 bc
       -0.033586424 -0.028365806 -0.023870591 -0.020014707
0000b0 42 f8 88 bc 3d ff 63 bc 64 0c 3d bc ec 29 1c bc
       -0.016719941 -0.013915834 -0.011538599 -0.009531479
0000c0 6f 82 00 bc 8a b2 d2 bb
       -0.007843598 -0.006429975

sqrt_recip_alphas_cumprod f4 [50]
000000 46 41 80 3f e1 c3 80 3f 9a 88 81 3f 9d 90 82 3f
       1.001992 1.0059777 1.0119812 1.0200382
000010 7f dd 83 3f 44 71 85 3f 63 4e 87 3f c7 77 89 3f
       1.030197 1.0425191 1.0570797 1.0739678
000020 df f0 8b 3f a4 bd 8e 3f 9f e2 91 3f fd 64 95 3f
       1.0932883 1.1151624 1.1397284 1.1671444
000030 95 4a 99 3f 02 9a 9d 3f ac 5a a2 3f e2 94 a7 3f
       1.1975886 1.2312624 1.2683921 1.309231
000040 f4 51 ad 3f 46 9c b3 3f 7a 7f ba 3f 8d 08 c2 3f
       1.3540635 1.4032066 1.4570153 1.515886
000050 ff 45 ca 3f 02 48 d3 3f b0 20 dd 3f 44 e4 e7 3f
       1.5802611 1.650635 1.72756 1.8116536
000060 5d a9 f3 3f a7 44 00 40 37 50 07 40 44 07 0f 40
       1.903606 2.0041902 2.114271 2.2348185
000070 a3 7b 17 40 59 c1 20 40 e9 ee 2a 40 a9 1d 36 40
       2.3669212 2.511801 2.670832 2.8455603
000080 24 6a 42 40 8e f4 4f 40 42 e1 5e 40 5e 59 6f 40
       3.0377283 3.2493014 3.4824986 3.7398295
000090 b7 c5 80 40 1b d6 8a 40 cd fb 95 40 d3 58 a2 40
       4.024135 4.338636 4.6869874 5.073343
0000a0 ea 13 b0 40 31 59 bf 40 04 5b d0 40 eb 52 e3 40
       5.502431 5.9796376 6.5111103 7.103872
0000b0 bd 82 f8 40 f3 1a 08 41 7b 61 15 41 b0 46 24 41
       7.7659593 8.506579 9.336299 10.267258
0000c0 c8 03 35 41 b4 da 47 41
       11.313423 12.490894

sqrt_recipm1_alphas_cumprod f4 [50]
000000 ba 54 81 3d 3f 44 e0 3d c8 fc 1e 3e 0d 05 4e 3e
       0.063149884 0.10950517 0.15526116 0.20119114
000010 eb 8a 7d 3e 7b e2 96 3e 69 71 af 3e 37 89 c8 3e
       0.24760024 0.29469666 0.34266213 0.39167187
000020 4b 41 e2 3e fe b1 fc 3e 87 fa 0b 3f fc 12 1a 3f
       0.4419044 0.49354547 0.5467915 0.6018522
000030 1c b1 28 3f e7 e4 37 3f a9 bf 47 3f 49 54 58 3f
       0.6589525 0.7183365 0.78026825 0.8450361
000040 76 b7 69 3f d3 ff 7b 3f 29 a3 87 3f 3a d3 91 3f
       0.91295564 0.9843723 1.0596668 1.1392586
000050 4d 9f 9c 3f 35 18 a8 3f 9c 50 b4 3f 41 5d c1 3f
       1.2236115 1.3132387 1.40871 1.5106584
000060 3f 55 cf 3f 54 52 de 3f 43 71 ee 3f 39 d2 ff 3f
       1.619789 1.7368875 1.8628315 1.998603
000070 9c 4c 09 40 53 77 13 40 f0 7f 1e 40 f4 7f 2a 40
       2.1453009 2.304158 2.4765587 2.6640596
000080 14 94 37 40 b1 dc 45 40 53 7e 55 40 46 a2 66 40
       2.868413 3.091595 3.3358352 3.6036544
000090 46 77 79 40 26 19 87 40 b7 87 92 40 79 29 9f 40
       3.8979049 4.22182 4.5790668 4.9738126
0000a0 44 25 ad 40 57 a7 bc 40 2e e2 cd 40 72 0f e1 40
       5.410799 5.895427 6.43386 7.0331354
0000b0 1a 71 f6 40 5c 29 07 41 7e 85 14 41 be 7e 23 41
       7.7013063 8.4475975 9.282591 10.218443
0000c0 67 4e 34 41 7b 36 47 41
       11.269141 12.450801

posterior_variance f4 [50]
000000 00 00 00 00 2a be 2d 3b a2 21 c3 3b e0 fb 1b 3c
       0.0 0.0026511052 0.005954937 0.009520501
000010 c2 8b 58 3c fd 29 8b 3c b6 6e aa 3c 90 f2 c9 3c
       0.013216915 0.016987795 0.020804744 0.024651796
000020 e4 a0 e9 3c 23 b6 04 3d 98 a5 14 3d 48 9b 24 3d
       0.028519101 0.03240026 0.036290735 0.04018715
000030 79 94 34 3d de 8e 44 3d 92 88 54 3d d3 7f 64 3d
       0.044086907 0.04798781 0.051888056 0.055785965
000040 10 73 74 3d 69 30 82 3d d3 23 8a 3d 1b 13 92 3d
       0.059680045 0.0635689 0.06745114 0.0713255
000050 92 fd 99 3d 95 e2 a1 3d 80 c1 a9 3d b3 99 b1 3d
       0.07519068 0.07904545 0.0828886 0.08671894
000060 91 6a b9 3d 89 33 c1 3d 07 f4 c8 3d 7d ab d0 3d
       0.09053529 0.09433658 0.098121695 0.10188959
000070 70 59 d8 3d 63 fd df 3d ec 96 e7 3d a1 25 ef 3d
       0.10563934 0.109370016 0.11308083 0.11677099
000080 2e a9 f6 3d 46 21 fe 3d d8 c6 02 3e 1c 77 06 3e
       0.12043987 0.1240869 0.12771165 0.13131374
000090 60 21 0a 3e 99 c5 0d 3e c4 63 11 3e e5 fb 14 3e
       0.13489294 0.13844909 0.14198214 0.14549215
0000a0 07 8e 18 3e 38 1a 1c 3e 8f a0 1f 3e 24 21 23 3e
       0.14897929 0.15244377 0.15588592 0.15930611
0000b0 11 9c 26 3e 7d 11 2a 3e 83 81 2d 3e 4e ec 30 3e
       0.16270472 0.16608234 0.16943936 0.17277643
0000c0 ff 51 34 3e bd b2 37 3e
       0.17609404 0.17939277

posterior_log_variance_clipped f4 [50]
000000 f1 34 38 c2 53 d9 bd c0 ff f3 a3 c0 17 f0 94 c0
       -46.0517 -5.932779 -5.1235347 -4.654308
000010 b4 70 8a c0 88 68 82 c0 42 d8 77 c0 68 fc 6c c0
       -4.3262577 -4.07526 -3.8725743 -3.7029057
000020 db a8 63 c0 62 7e 5b c0 81 3c 54 c0 96 b5 4d c0
       -3.5571811 -3.4295888 -3.3161929 -3.2142081
000030 2c c8 47 c0 11 5b 42 c0 cb 5a 3d c0 0a b8 38 c0
       -3.1215925 -3.0368083 -2.9586666 -2.8862329
000040 86 66 34 c0 42 5c 30 c0 07 91 2c c0 f9 fd 28 c0
       -2.8187575 -2.755631 -2.6963518 -2.6405013
000050 56 9d 25 c0 34 6a 22 c0 62 60 1f c0 3d 7c 1c c0
       -2.587728 -2.5377321 -2.4902577 -2.445083
000060 a0 ba 19 c0 c3 18 17 c0 39 94 14 c0 da 2a 12 c0
       -2.4020157 -2.3608863 -2.3215468 -2.2838655
000070 b8 da 0f c0 18 a2 0d c0 6d 7f 0b c0 4e 71 09 c0
       -2.2477245 -2.2130184 -2.1796525 -2.1475406
000080 73 76 07 c0 b1 8d 05 c0 f3 b5 03 c0 3d ee 01 c0
       -2.1166046 -2.0867732 -2.0579803 -2.030166
000090 a4 35 00 c0 9d 16 fd bf e8 dc f9 bf af bc f6 bf
       -2.003274 -1.9772526 -1.952054 -1.9276332
0000a0 91 b4 f3 bf 48 c3 f0 bf 9e e7 ed bf 72 20 eb bf
       -1.903948 -1.8809595 -1.8586309 -1.8369277
0000b0 bc 6c e8 bf 76 cb e5 bf ba 3b e3 bf a4 bc e0 bf
       -1.8158183 -1.7952716 -1.7752602 -1.7557569
0000c0 67 4d de bf 3e ed db bf
       -1.7367371 -1.7181776

posterior_mean_coef1 f4 [50]
000000 a0 ff 7f 3f b3 85 2a 3f ae c7 ff 3e 31 a2 cc 3e
       0.9999943 0.6661026 0.4995703 0.39967492
000010 86 87 aa 3e b1 28 92 3e ff bc 7f 3e b0 42 63 3e
       0.3330652 0.2854667 0.2497444 0.22193408
000020 9f 72 4c 3e bf bf 39 3e 22 21 2a 3e 31 df 1c 3e
       0.199656 0.18139552 0.16614202 0.15319516
000030 b4 76 11 3e 45 87 07 3e 12 91 fd 3d 20 06 ee 3d
       0.14205438 0.13235195 0.123811856 0.11622262
000040 5a 17 e0 3d 7f 80 d3 3d dd 0a c8 3d 2b 8a bd 3d
       0.10941954 0.10327243 0.09767697 0.09254869
000050 2c da b3 3d fe dc aa 3d c9 79 a2 3d d3 9b 9a 3d
       0.08781847 0.08342932 0.07933385 0.07549252
000060 b3 31 93 3d c6 2c 8c 3d bb 80 85 3d 55 46 7e 3d
       0.07187214 0.06844477 0.06518694 0.062078793
000070 c2 16 72 3d 1d 64 66 3d 4a 22 5b 3d 45 47 50 3d
       0.059103735 0.05624782 0.053499497 0.050849218
000080 ec ca 45 3d b8 a6 3b 3d 8d d5 31 3d 87 53 28 3d
       0.048289225 0.045813292 0.04341655 0.041095283
000090 c6 1d 1f 3d 54 32 16 3d f0 8f 0d 3d f7 35 05 3d
       0.038846754 0.03666909 0.034561098 0.032522168
0000a0 70 48 fa 3c bd b5 ea 3c a1 b4 db 3c 2d 46 cd 3c
       0.030552119 0.028651113 0.026819529 0.025057876
0000b0 84 6b bf 3c c1 25 b2 3c be 75 a5 3c 0b 5c 99 3c
       0.023366697 0.021746518 0.020197745 0.018720647
0000c0 c9 d8 8d 3c 9e eb 82 3c
       0.017315285 0.015981492

posterior_mean_coef2 f4 [50]
000000 00 00 00 00 d3 f3 aa 3e ff 1a 00 3f ca ab 19 3f
       0.0 0.33389148 0.5004119 0.60027754
000010 ca b5 2a 3f 0f e0 36 3f d2 fd 3f 3f 8a 12 47 3f
       0.6668364 0.71435636 0.74996674 0.77762663
000020 ab b9 4c 3f 3a 56 51 3f 04 2a 55 3f 8e 62 58 3f
       0.79970807 0.81772196 0.83267236 0.8452538
000030 51 20 5b 3f fe 7a 5d 3f 64 84 5f 3f fd 49 61 3f
       0.85596186 0.86515796 0.8731139 0.8800352
000040 47 d6 62 3f 85 31 64 3f 3b 62 65 3f b9 6d 66 3f
       0.8860821 0.8913806 0.8960301 0.90011173
000050 49 58 67 3f 7a 25 68 3f 3a d8 68 3f 06 73 69 3f
       0.9036909 0.90682185 0.90954936 0.91191137
000060 f5 f7 69 3f d7 68 6a 3f 3d c7 6a 3f 7c 14 6b 3f
       0.9139398 0.9156622 0.91710263 0.9182813
000070 d2 51 6b 3f 54 80 6b 3f 00 a1 6b 3f ba b4 6b 3f
       0.9192172 0.9199269 0.9204254 0.9207264
000080 5f bc 6b 3f b5 b8 6b 3f 7f aa 6b 3f 70 92 6b 3f
       0.92084306 0.92078716 0.9205703 0.9202032
000090 3b 71 6b 3f 82 47 6b 3f ea 15 6b 3f 0d dd 6a 3f
       0.9196965 0.9190599 0.91830313 0.91743547
0000a0 83 9d 6a 3f dd 57 6a 3f a6 0c 6a 3f 60 bc 69 3f
       0.91646594 0.9154032 0.9142555 0.9130306
0000b0 89 67 69 3f 9b 0e 69 3f 04 b2 68 3f 32 52 68 3f
       0.9117361 0.9103791 0.9089663 0.9075042
0000c0 81 ef 67 3f 4f 8a 67 3f
       0.9059983 0.9044542

model.time_mlp.1.weight f4 [256, 32]
000000 0a 98 6d bd 70 c0 27 3e 55 e7 f2 bb 15 77 7a bd
       -0.058006324 0.16382003 -0.007412831 -0.06114872
000010 f9 3b ea 3c c9 16 87 bd bb 5a 93 bd 4e 92 e9 bd
       0.02859305 -0.06596143 -0.0719504 -0.114048585
000020 af 1d 5b 3e fc c9 5b 3e c4 36 09 3d 87 c7 05 bc
       0.21398042 0.2146377 0.033499494 -0.008165247
000030 0f e6 2c 3d 78 10 c6 3d e6 e2 21 bd 95 69 a6 bd
       0.04221159 0.0967111 -0.039523028 -0.08125607
000040 16 9f cf bd e7 75 80 3d 0b d3 23 bc 55 47 4b 3d
       -0.10137765 0.06272488 -0.009999047 0.049628574
000050 da c6 3c be 5f 33 26 3d a0 2d 49 be d4 0b 04 be
       -0.18435231 0.040576335 -0.19646311 -0.12895137
000060 6a d2 9d 3d 2f bd 52 bc 90 e5 73 be 1b 44 8c 3c
       0.07706149 -0.012862488 -0.2381804 0.017122319
000070 31 67 a1 bd a2 8f 94 bd 93 91 af bc bc 25 fa 3d
       -0.0788101 -0.07253958 -0.02143172 0.122142285
000080 ad e8 80 bd 80 d9 51 bd 2c b0 62 3d 57 22 0c 3e
       -0.062943794 -0.051232815 0.05534379 0.13684975
000090 3a 03 ca bd e1 b8 36 3c 14 af ae 3c 9b dc 87 3d
       -0.09863897 0.011152477 0.021323718 0.06633874
0000a0 e8 6c fe 3d 6d db 2a be 85 85 6e bd ca 48 8f 3c
       0.12423116 -0.16685267 -0.058232803 0.017490763
0000b0 a5 4f 06 3e 7f 31 98 bd 32 e0 85 bd aa 80 e4 bd
       0.1311632 -0.07431316 -0.065369025 -0.11157353
0000c0 a4 48 a8 3d 6c 6c 00 3e 93 dc 27 bc d6 f9 24 be
       0.0821698 0.1254136 -0.01024546 -0.1611093
0000d0 bf eb 0e be 44 25 22 bc a2 e5 1c bc 8c 7c 88 3d
       -0.13957117 -0.00989658 -0.009576233 0.066643804
0000e0 88 a7 50 bd 92 93 b4 3d 84 2b 8c 3d a1 85 9f bc
       -0.05094102 0.08817209 0.068442374 -0.019472899
0000f0 a7 66 c1 3c 9b 55 f6 bc 90 40 41 be 87 0f 4d bd
       0.023608519 -0.030070117 -0.18872285 -0.050063636
000100 1a 8b 10 3d ad 50 f1 3c 3f cc 8c 3d 02 71 84 be
       0.035288908 0.029457415 0.06874894 -0.25867468
000110 0e 1f 5b bc 61 d2 45 ba b9 44 92 3b e0 3e 89 bc
       -0.013374103 -0.00075463025 0.004463759 -0.016753614
000120 65 fc 7d 3b 76 54 42 3d 50 d3 16 be 8d b1 35 be
       0.0038755175 0.04744383 -0.14729047 -0.17743511
000130 71 a6 3c bd e8 b6 03 3e 6d d0 c0 3d ec c8 28 bc
       -0.04605717 0.12862742 0.09414754 -0.01030181
000140 b4 0b a8 bc 35 39 b0 3c 25 29 01 3e 41 00 2c bd
       -0.020513393 0.021511653 0.12613352 -0.04199243
000150 d7 44 b5 bd 2c df 2b 3e e5 79 97 bb d7 41 8c bd
       -0.08851021 0.16784352 -0.0046226853 -0.068484955
000160 f4 e1 f1 bd d0 fe fc 3b f5 69 0a be 05 f2 b6 bd
       -0.11810675 0.0077208057 -0.13516982 -0.0893288
000170 c5 fd 6f be b8 50 01 be a0 b5 2c be 86 3b ef bc
       -0.23436649 -0.12628448 -0.1686616 -0.029203188
000180 20 98 28 3d 68 b8 01 3e dd d0 0a be 6e 0c ac bc
       0.041160703 0.12668002 -0.13556238 -0.02100202
000190 19 19 e7 b9 a3 7d 7f bd 79 73 6e 3d 6b 74 20 3e
       -0.00044078453 -0.062375676 0.058215592 0.1566941
0001a0 4f eb 37 bd 1a 19 4f bd 1c 64 9b 3d eb 72 34 be
       -0.044902142 -0.050561048 0.07587454 -0.17621963
0001b0 11 aa 04 bd 0a 13 3e bd f2 6c f6 3c 06 3e a0 3d
       -0.03238875 -0.046404876 0.030081246 0.0782433
0001c0 e6 ef d8 3c fb 6a 0f be e2 05 e3 bb ea 5f 20 be
       0.02648158 -0.14005654 -0.0069281915 -0.15661588
0001d0 c2 f2 d2 bd 22 04 7f bc ae 1a 98 3d 53 9a f1 3d
       -0.10300209 -0.01556495 0.07426964 0.11797013
0001e0 24 72 46 be 17 e8 55 3d ca a5 11 be 91 41 41 be
       -0.19379479 0.05222329 -0.142234 -0.18872668
0001f0 81 61 83 3d ab fd 86 bd ee 7a 3e 3c a8 66 30 3d
       0.06415082 -0.06591352 0.011625988 0.04306665
000200 92 aa e1 3d 7e 3b 97 bd 15 88 6a 3d 7b 36 04 be
       0.11018862 -0.07384394 0.057258684 -0.12911408
000210 44 a8 4f 3c 2a 0c c9 bd 66 dc be bd 20 f7 a2 bd
       0.012674395 -0.09816773 -0.093193814 -0.079572916
000220 df 40 68 bd 5d 6d 28 bd b5 5e af bd 2c b4 74 3d
       -0.05670249 -0.041119922 -0.08562986 0.059742138
000230 f9 60 a1 3d b0 d2 b6 3b 26 4f 50 bd 06 75 c9 bd
       0.07879824 0.005579315 -0.05085673 -0.098367736
000240 d7 16 89 3d 28 1d 92 3d 91 14 01 bd 8f 71 15 3e
       0.066938095 0.07134467 -0.031513754 0.145941
000250 59 62 83 bd d3 c3 01 3c 2f bb f7 3c 4b 8f a7 3d
       -0.06415243 0.007920223 0.030240623 0.08181628
000260 d4 ed 92 3d dd 5c cf bd fe fa 28 3e fe 9e 05 be
       0.07174268 -0.10125134 0.16501996 -0.13048932
000270 c2 22 34 3d f2 4a b1 3d 1d f4 2a bb 2e 68 49 3d
       0.04397846 0.08656873 -0.0026085444 0.04917162
000280 0b cb ed bc c3 7b 64 bc ae c7 c6 bb 0e cc c7 bd
       -0.029027482 -0.013945523 -0.006066284 -0.09755717
000290 de c9 95 bc c7 8e 81 bd 3c 6b 80 bd 75 3c 3f 3e
       -0.018284734 -0.06326061 -0.06270453 0.18675406
0002a0 9e 4f 2a bd 8b 2c 59 bd 7c 30 9c 3d 7e 53 8b bd
       -0.041579835 -0.053020995 0.07626435 -0.06803034
0002b0 86 48 ed bd ec 24 9b bb 6c 5d 16 3b 7b 19 0b ba
       -0.115860984 -0.004734626 0.0022943867 -0.0005306226
0002c0 41 28 87 3d 62 4d 9e 3d c0 eb 56 bc d4 47 0b 3c
       0.06599475 0.07729603 -0.013117731 0.008501012
0002d0 f6 dc 0b bd 06 79 5b 3c 74 72 53 bd a9 82 ab 3d
       -0.03414627 0.013395553 -0.051622823 0.08374531
0002e0 c3 aa 50 3d 82 9f 8a 3d 68 cb d8 3d 09 c3 1b bd
       0.0509441 0.06768705 0.10585672 -0.038027797
0002f0 31 ef 3f 3d 8b 82 e6 3d 7c 1a c1 3d 74 5a 2f 3d
       0.04685897 0.11255368 0.094288796 0.042810872
000300 c6 d4 b2 3d a6 c0 56 3d b5 49 3d be ce 60 51 3c
       0.087319896 0.052429818 -0.18485148 0.012779428
000310 08 b0 c3 3d 89 c4 88 3d bc 23 1d 3d 4c 86 51 be
       0.0955506 0.06678111 0.038364157 -0.20461386
000320 4b 29 ca 3c 22 c6 b8 bc 42 8e f5 bc b8 14 aa 3c
       0.024677893 -0.022555415 -0.02997506 0.020761833
000330 57 9f fc 3d 68 bb 02 3e 00 62 2c bd 53 19 24 3e
       0.12335079 0.12766802 -0.042085648 0.16025285
000340 7a 9f c9 bb 2a 58 bf bd bd 73 2e bc c2 fb 5d bd
       -0.0061530443 -0.09342988 -0.010647711 -0.054195173
000350 6b 06 5f bb f7 fe d3 3d ed 72 88 bb 54 2c b5 bd
       -0.0034030925 0.10351365 -0.004164091 -0.088463455
000360 1f d6 d4 bd 73 49 bc 3d 86 3b bb bd ee d1 b6 bc
       -0.10392403 0.09193697 -0.091422126 -0.0223169
000370 6b 63 29 bd 73 78 fd 3c e3 ce 81 3d b7 d8 38 be
       -0.041354578 0.030941224 0.06338289 -0.1805142
000380 3f 98 33 bd 0a 34 36 3b 47 61 3c bc 2c 01 44 3d
       -0.043846365 0.0027802014 -0.011497802 0.04785268
000390 d1 b1 38 bd 84 5c 03 be 35 a7 8c bd b4 21 04 be
       -0.045091454 -0.1282826 -0.0686783 -0.12903482
0003a0 9e d9 9e bc e0 99 07 bd f8 3e 20 bd b0 44 24 bd
       -0.019390877 -0.03310573 -0.03912255 -0.040104568
0003b0 92 58 79 bd b7 af af 3d 12 81 c6 bd 29 b4 21 3e
       -0.060875483 0.08578437 -0.09692587 0.15791382
0003c0 83 69 75 bd fe d4 8f 3b 26 70 16 3e 91 98 71 3c
       -0.059915077 0.0043894043 0.14691219 0.014745847
0003d0 07 eb d8 bc 8c d9 1a be f4 ed c2 3d e3 46 22 bd
       -0.026479257 -0.1512205 0.09518042 -0.039618384
0003e0 df 28 45 bd 39 aa 28 3d ee 21 49 bd b7 2a e8 3d
       -0.04813468 0.041177962 -0.049104623 0.11336272
0003f0 96 e6 00 3d 55 a9 b6 3d 36 7c 95 3d f6 1e 9d bd
       0.031469904 0.08919016 0.07299082 -0.07671921

model.time_mlp.1.bias f4 [256]
000000 db 12 3e b6 a2 b5 5f b8 dc d5 f4 37 28 76 85 b8
       -2.8323182e-06 -5.3336502e-05 2.9186653e-05 -6.3639425e-05
000010 7d 28 8d b8 bb 78 67 b8 1b 30 63 38 7e 72 02 38
       -6.7309455e-05 -5.518713e-05 5.416582e-05 3.1101044e-05
000020 4d cc 1f 38 3e 3e cc 37 e6 e9 81 38 6e bc a3 38
       3.8098824e-05 2.4347679e-05 6.194766e-05 7.8075434e-05
000030 72 a2 40 38 f6 68 9a 38 74 c2 6d 38 45 17 21 b8
       4.5927656e-05 7.362843e-05 5.6686302e-05 -3.8407063e-05
000040 bd 91 94 38 37 3b 99 b7 fe 8d 57 38 08 3b 8b b7
       7.084336e-05 -1.8266595e-05 5.1392235e-05 -1.659758e-05
000050 86 46 47 38 bd 57 d2 37 09 db 57 b8 06 51 3c b8
       4.7510977e-05 2.5074807e-05 -5.1463987e-05 -4.4898152e-05
000060 f4 27 80 38 be 97 0d 38 11 b0 10 b8 96 a0 10 38
       6.1109575e-05 3.375834e-05 -3.449625e-05 3.4481833e-05
000070 1a 01 52 b7 56 e6 33 38 3d 56 ce 37 47 8e 84 b8
       -1.2517232e-05 4.2891443e-05 2.4597271e-05 -6.320752e-05
000080 ed 3a 64 b8 0b bd 2a 38 1e bb 2b b8 66 20 0a b8
       -5.4414315e-05 4.070722e-05 -4.0943843e-05 -3.2931937e-05
000090 a2 01 91 38 38 aa 55 37 b1 7d 94 38 c6 c5 9f 38
       6.914443e-05 1.27354215e-05 7.080602e-05 7.618549e-05
0000a0 84 e3 78 38 36 de 61 38 28 a8 a6 38 38 fd ce 37
       5.9339698e-05 5.385113e-05 7.9468184e-05 2.4675028e-05
0000b0 35 20 46 b8 b3 b1 2b 38 31 f7 64 38 fb cf e0 37
       -4.7236874e-05 4.0935072e-05 5.458965e-05 2.679973e-05
0000c0 99 67 71 38 2d 2a 5e 38 8e 77 4b b8 f9 12 95 b8
       5.755536e-05 5.2968204e-05 -4.8510316e-05 -7.1084076e-05
0000d0 1f b1 4c 38 10 a7 02 38 6a 85 06 b7 c0 ca 0d b8
       4.8802347e-05 3.1150004e-05 -8.018085e-06 -3.3805845e-05
0000e0 0e 79 b4 36 08 e4 8d b7 f7 68 24 b8 14 09 80 38
       5.3785107e-06 -1.6914695e-05 -3.9198403e-05 6.1052066e-05
0000f0 9f 4b db b6 e0 3a 6d b8 6e 22 bd 37 9f 55 44 38
       -6.535512e-06 -5.6560035e-05 2.2546588e-05 4.6809782e-05
000100 d0 34 03 37 a3 7f 64 38 1d 49 7e 38 e5 4f 4e b8
       7.820505e-06 5.4478307e-05 6.062641e-05 -4.9188635e-05
000110 3e 92 5f b8 92 b5 28 38 62 4a 51 38 43 fc 70 b8
       -5.330354e-05 4.0223422e-05 4.9898757e-05 -5.7455396e-05
000120 05 99 70 b8 bc 8b c2 b7 37 5c 44 b8 dc c7 3a 37
       -5.736297e-05 -2.3191671e-05 -4.6815923e-05 1.1132997e-05
000130 db f0 32 38 a1 01 a0 b8 c8 fd dc b6 96 e3 84 38
       4.266282e-05 -7.629698e-05 -6.586055e-06 6.336642e-05
000140 73 b1 80 b8 f8 a4 94 b8 c3 1a 52 b8 e4 27 26 b8
       -6.136568e-05 -7.087918e-05 -5.0092825e-05 -3.9614635e-05
000150 3f cd 1c b8 f0 7f 73 38 71 b4 67 38 91 42 b5 b7
       -3.738445e-05 5.8054866e-05 5.524274e-05 -2.1607879e-05
000160 8e 60 d1 37 52 6b 8d b8 c3 f5 62 b8 fe 14 8a b8
       2.4959703e-05 -6.743394e-05 -5.4111482e-05 -6.584263e-05
000170 5f b7 90 b4 20 c5 60 38 c1 32 c2 b7 8e b1 6f 38
       -2.695551e-07 5.358935e-05 -2.3150236e-05 5.71474e-05
000180 aa 4f c7 37 72 e6 dd 35 f6 81 e0 37 ed 8a 7c b8
       2.3759745e-05 1.6532852e-06 2.6763399e-05 -6.0210867e-05
000190 1a 30 06 38 09 98 26 b8 32 d2 e5 36 58 ed 82 38
       3.1992888e-05 -3.9719078e-05 6.849202e-06 6.243092e-05
0001a0 26 78 22 b8 d0 d6 62 b7 b9 a1 12 b8 69 86 bd b7
       -3.8735707e-05 -1.3520665e-05 -3.495973e-05 -2.2593145e-05
0001b0 ce 60 21 b8 c2 f4 a0 b8 3f a1 2b b8 15 b4 8d b8
       -3.8475548e-05 -7.674984e-05 -4.091975e-05 -6.756947e-05
0001c0 e7 90 37 b8 92 69 bb b7 b2 24 cf b7 77 f7 62 36
       -4.376555e-05 -2.2341297e-05 -2.469341e-05 3.3820668e-06
0001d0 42 e9 9c b8 ba 9e 35 b8 f2 e8 5d 38 ab 6e 49 38
       -7.482107e-05 -4.330159e-05 5.2907453e-05 4.8025202e-05
0001e0 77 96 2f 38 6d 41 a6 b8 ee 5c 8f b8 1d d9 4d 37
       4.1863383e-05 -7.927683e-05 -6.836081e-05 1.2269503e-05
0001f0 75 a7 85 b8 2f 5c 9d 38 bc 6d 5d 38 7a c7 6b b8
       -6.3731255e-05 7.503514e-05 5.2792704e-05 -5.6214143e-05
000200 37 bf bd 34 9f 9f 82 b8 ce 7c 70 37 57 7d 3b b8
       3.534312e-07 -6.228615e-05 1.4334173e-05 -4.4701006e-05
000210 f0 44 02 b5 b7 ad b8 38 05 57 96 b8 1e b7 bf 35
       -4.852909e-07 8.8061606e-05 -7.168766e-05 1.4283903e-06
000220 60 3e 67 b8 05 f9 bc b7 05 db 6c b8 b2 d9 9e b8
       -5.5132783e-05 -2.2527305e-05 -5.6470763e-05 -7.574576e-05
000230 ec b5 6e 37 04 61 48 38 cb c7 7f 38 2c 33 83 38
       1.4228262e-05 4.777407e-05 6.098281e-05 6.256098e-05
000240 03 3c 81 38 7d f7 87 b8 d3 fe 50 38 02 ef 84 38
       6.1623774e-05 -6.4834e-05 4.9828388e-05 6.338769e-05
000250 3f d9 5b 38 ec b3 3c 38 1c bc 2e b8 53 db 6b 37
       5.2415995e-05 4.4990258e-05 -4.1660023e-05 1.4058157e-05
000260 9d a2 56 38 45 6b 84 b8 07 de 20 b8 88 e0 d0 b7
       5.117302e-05 -6.314231e-05 -3.835375e-05 -2.4900088e-05
000270 39 ec 38 b8 ef 2c 93 b8 7a bf 44 38 2c d9 67 b7
       -4.4089018e-05 -7.017876e-05 4.6908368e-05 -1.3819237e-05
000280 e7 61 92 b8 1a 53 10 b7 d2 66 64 38 bc 4a 85 38
       -6.980058e-05 -8.602417e-06 5.4455195e-05 6.3558546e-05
000290 14 19 8a b8 e8 61 82 b8 59 7e c5 37 11 c2 3a b8
       -6.585024e-05 -6.2171195e-05 2.3543065e-05 -4.4526594e-05
0002a0 da 85 15 38 49 b5 87 38 c6 67 52 b8 92 3e e4 37
       3.5649027e-05 6.4710686e-05 -5.0164548e-05 2.7208855e-05
0002b0 85 20 25 b8 c1 e6 4b 38 5f 3f 67 38 16 09 71 38
       -3.936935e-05 4.8613878e-05 5.513371e-05 5.746734e-05
0002c0 9f 84 df 37 b0 b3 48 38 70 82 98 b8 35 4f 9c 38
       2.6645428e-05 4.7851063e-05 -7.272221e-05 7.453413e-05
0002d0 1a e7 1a b8 28 65 2f b8 0e e1 e5 b7 1a c0 73 38
       -3.693169e-05 -4.181746e-05 -2.7403727e-05 5.8114623e-05
0002e0 6d b2 87 b8 13 51 93 b8 d5 5f 68 38 47 c2 4a b8
       -6.470536e-05 -7.0246075e-05 5.540236e-05 -4.8341488e-05
0002f0 3b 15 2e 38 f5 6a 33 b8 92 8d 83 38 92 65 7b b8
       4.1504605e-05 -4.2776537e-05 6.272936e-05 -5.9937658e-05
000300 09 ad 9d 38 71 b5 8a b8 07 c1 92 38 5c 49 82 38
       7.518574e-05 -6.614149e-05 6.997777e-05 6.212547e-05
000310 45 25 88 b8 79 10 12 38 0a 93 44 b8 9e 28 8d b8
       -6.491927e-05 3.4824454e-05 -4.6866982e-05 -6.7309695e-05
000320 cf 47 59 38 09 00 6f 38 c1 a6 3c b8 46 89 44 b8
       5.180371e-05 5.6982073e-05 -4.4977995e-05 -4.6857887e-05
000330 55 a2 97 b8 61 c5 76 38 7a 37 59 38 1b 41 8f b8
       -7.230478e-05 5.8834794e-05 5.17885e-05 -6.830898e-05
000340 4f 27 80 38 68 a4 3b b8 2b 9f ba 36 ae 72 60 38
       6.1108374e-05 -4.473739e-05 5.5617616e-06 5.3512566e-05
000350 27 7c 72 38 3b 53 85 37 6d 77 91 b8 12 3d 0a b8
       5.7812922e-05 1.5893593e-05 -6.9363836e-05 -3.295864e-05
000360 9b 2f e4 37 ef e9 1e b8 6b b3 52 38 0d 65 48 b8
       2.7201886e-05 -3.7888003e-05 5.0234998e-05 -4.7777827e-05
000370 b0 03 51 b8 ce db 83 b8 dd ab 28 b8 61 ed a7 b8
       -4.9832917e-05 -6.2875086e-05 -4.021438e-05 -8.007396e-05
000380 a7 49 6d 38 86 6b 19 38 a7 42 73 38 b7 e0 21 b8
       5.6573797e-05 3.657818e-05 5.799779e-05 -3.8594673e-05
000390 15 0e 14 b8 d5 90 ef b7 a7 a6 b1 b7 ea 97 4c b8
       -3.5299065e-05 -2.8558463e-05 -2.1177648e-05 -4.877887e-05
0003a0 63 e9 7d b8 cc 25 8e 38 bd 0b 18 38 bf 6e 01 37
       -6.053726e-05 6.778128e-05 3.6250556e-05 7.714784e-06
0003b0 7d f6 80 b8 25 e3 3c 38 06 be 46 b8 55 68 96 38
       -6.149428e-05 4.5034238e-05 -4.738385e-05 7.171991e-05
0003c0 cf 53 7f 38 64 97 9f 36 a6 76 58 38 3c 8b 8b 38
       6.087479e-05 4.7561934e-06 5.1608913e-05 6.653971e-05
0003d0 54 5d 8b 38 40 f9 3f b8 81 46 34 37 1a d7 d1 b7
       6.64542e-05 -4.577008e-05 1.07452515e-05 -2.5014906e-05
0003e0 89 67 6b 38 18 ca 0f b8 4c 69 a5 b8 c2 f9 19 38
       5.612479e-05 -3.428207e-05 -7.887426e-05 3.6710648e-05
0003f0 01 7b 88 38 1e 28 88 38 64 e6 94 b8 0e 97 90 b8
       6.5078966e-05 6.492458e-05 -7.1001035e-05 -6.894591e-05

model.time_mlp.3.weight f4 [32, 256]
000000 c4 5a ad 3a 0b 5c da 3c b6 c8 6d bb 3f 9d 42 3d
       0.0013225903 0.026655218 -0.0036282963 0.047513243
000010 e2 b4 ce 3b ed 25 55 bc 49 b2 be bc 70 94 e8 3c
       0.006308184 -0.0130095305 -0.023278372 0.028391093
000020 bf ad 91 3d a0 4c 18 3d c3 c0 b9 bc d5 71 ef 3c
       0.071132176 0.03718245 -0.022674924 0.029229084
000030 b7 cb 27 3b d3 d0 00 bd 64 45 5e 3d 74 7e 95 3b
       0.0025603601 -0.03144915 0.054265395 0.0045621935
000040 76 a8 e4 bc 12 45 6a bc 31 0f e2 bc 2d e6 85 3c
       -0.02791236 -0.014298694 -0.027595134 0.016345108
000050 92 4e dc 3c 30 b3 8b bd fa 7c 2b bd a3 27 fc bc
       0.026892934 -0.06821287 -0.041867234 -0.030780619
000060 ee 18 64 bd f0 bc 1d bd 78 46 42 3d 99 91 9d 3c
       -0.055687837 -0.038510263 0.047430485 0.019234465
000070 f1 ff 1b bd 71 85 1a 39 e9 a9 b9 bb 7a 46 87 bd
       -0.03808588 0.00014736295 -0.005666007 -0.06605239
000080 80 42 f8 ba c6 0b 9e 3c 74 77 1a bd 39 37 1c 3d
       -0.0018940717 0.019292723 -0.037711576 0.038138602
000090 ac e0 3b 3a 14 8a 4c 3d d4 28 82 3c 2c 32 b3 3c
       0.00071669626 0.04993637 0.015888609 0.02187451
0000a0 f2 17 f3 bc c9 aa 9f bd 39 e5 a4 3c 9a ba 2f 3c
       -0.029674504 -0.077962466 0.020128833 0.010725642
0000b0 9d fa 12 bd dc c9 d8 3b 6f 5c d4 bb 74 7c 33 3d
       -0.035883535 0.0066158604 -0.0064807455 0.04381986
0000c0 80 f8 2d bd 5a f4 6e 3c 35 1f b1 bc 65 6a bd 3d
       -0.042473316 0.014584625 -0.021621326 0.09248809
0000d0 37 fa 3a 3d 7e f8 bd bc 27 5f ff bc d3 a6 8b bc
       0.04564878 -0.02318978 -0.031173302 -0.017047321
0000e0 32 34 2a 3d a2 8b 4d 3c 83 4b ee 3c 91 98 31 bd
       0.041553684 0.012545498 0.029088741 -0.04335839
0000f0 78 fc 0e 3b ab 95 17 3d f4 17 b0 3b fa dc 09 3d
       0.0021817964 0.03700797 0.005373949 0.033658005
000100 af 3d c3 3c 5c 2d 2b bc b6 96 d3 bc 1f 09 ab bc
       0.023833124 -0.010447826 -0.0258287 -0.020878373
000110 79 d1 c2 bc a0 6c 20 bd d2 75 94 3c 18 d1 c8 bb
       -0.023781525 -0.039166093 0.018122587 -0.0061284415
000120 f6 e5 b1 bc 49 8d 3c 3c 66 4c 4f 3c 81 29 d9 3c
       -0.0217161 0.011508294 0.012652492 0.026509048
000130 20 01 b5 bc 71 ff f9 3c 08 51 34 3d 58 b1 a1 bc
       -0.022095263 0.030517312 0.04402259 -0.019737884
000140 60 d4 f0 3c 30 8d cb bd 6e 48 ee 3c 35 ce 22 bd
       0.029398143 -0.09939039 0.029087272 -0.039747436
000150 48 b9 95 3a cc 5b 6b bb b4 9b ad 3a 1a 41 b6 3b
       0.0011423016 -0.003591287 0.0013245256 0.00556196
000160 1c 6c 52 bd 06 bf 94 bc 4b e3 32 3c 32 f6 88 b9
       -0.051372632 -0.018157493 0.010918449 -0.0002612337
000170 49 ff 2a bd 1c 50 67 3c c3 bf e1 3c e6 42 40 bd
       -0.041747365 0.014118221 0.02755726 -0.0469388
000180 29 e1 2c 3c 0a 09 24 bc 27 e4 24 bb a9 31 b8 3c
       0.010551729 -0.010011921 -0.0025160403 0.022484617
000190 fd 1b 33 ba 6e 92 54 3d 53 c8 ce 3c 24 c2 a4 bd
       -0.00068324787 0.05189746 0.025242006 -0.08044842
0001a0 da e5 07 3d b3 fc 52 3c cf a9 c5 3b 5c b8 e6 3b
       0.033178188 0.012877631 0.0060322057 0.0070410203
0001b0 0b a2 e6 3c 81 8d 96 bc a3 44 07 3d 22 40 2c bd
       0.02815344 -0.018378021 0.03302444 -0.04205335
0001c0 8a a9 95 3c 9a 83 5e bc 1d f7 08 bd dc 5b d4 bc
       0.01826932 -0.013581181 -0.03343879 -0.025922708
0001d0 1d 1a de 3b b1 01 13 bd 9d b4 c4 3c dc 7e d3 bc
       0.0067780153 -0.035890285 0.024011904 -0.025817327
0001e0 7c ed 4b bb 57 32 9a bc 5d 49 8d bc b3 aa 23 bc
       -0.0031116894 -0.018822832 -0.017246896 -0.009989428
0001f0 76 ea 01 3d 28 1a 02 3d 14 fc 9b 3c 9b 56 99 3c
       0.03171774 0.031763226 0.019041099 0.018718055
000200 ab 1a 64 3d c6 da f8 3c e7 a9 fb bc 08 72 b6 bc
       0.055689495 0.030377757 -0.030720664 -0.022271171
000210 a5 0f a5 bb 81 b2 98 bc a3 1f 21 bc 9a fb ad bc
       -0.0050372654 -0.018639805 -0.009834203 -0.021238137
000220 37 92 dc 3c ff 66 1a bd 53 e8 19 3d f2 c9 1d bd
       0.02692519 -0.03769588 0.037575077 -0.03852267
000230 ca 8c b8 bc a3 ea 17 3d 72 d5 31 3d b5 83 50 3d
       -0.022528071 0.037089 0.043416448 0.050906856
000240 b0 1a 33 bc 7f ac 3d 3c 66 fe 61 bc 43 43 04 bd
       -0.010931656 0.011576771 -0.0137935635 -0.03229071
000250 b6 15 a4 bb eb c0 e2 bb fd d8 a2 ba 28 96 cc 3c
       -0.005007471 -0.0069199703 -0.0012424287 0.024973944
000260 43 e5 8d bc a3 43 33 bc 86 4e 17 3d 30 81 2f bd
       -0.017321235 -0.010941419 0.03694012 -0.042847812
000270 10 0f f9 3c 95 22 09 3d 15 c2 60 bc 83 c2 22 bc
       0.03040269 0.033480246 -0.013718148 -0.0099340705
000280 20 5d 48 3c f4 cb 46 bc 19 84 a2 bc 2f f4 00 bc
       0.012229234 -0.012133587 -0.01983838 -0.007870718
000290 33 a8 0c 3d 08 46 3f 3b 12 6f 5c bc 80 5c 14 bc
       0.034340095 0.002918603 -0.013454216 -0.009055257
0002a0 a2 a2 f5 bc 36 b2 af bb e9 30 26 3d 2f 4c 15 3d
       -0.029984776 -0.0053618206 0.040573988 0.036449607
0002b0 1d 01 11 bb a4 99 e2 bb c0 1f b7 3c 15 a2 5f bc
       -0.0022125908 -0.006915288 0.022354007 -0.013649483
0002c0 03 42 71 bd 1a e9 13 bd 14 9d cd 3c b5 35 da bc
       -0.058900844 -0.036110975 0.025099315 -0.026636938
0002d0 5a bd 06 bc 3a b1 72 3c 5d d4 98 3c 1e 24 43 3c
       -0.008223856 0.014812762 0.01865595 0.0119104665
0002e0 64 73 4b bc 74 37 9d bc c6 3b 6f 3b c0 4b 52 3c
       -0.012417648 -0.019191481 0.0036504134 0.012835443
0002f0 8f 9c ce bb bf 59 2e 3b 16 55 71 3d 06 78 1e 3d
       -0.0063052843 0.0026603786 0.058919035 0.038688682
000300 c6 bd 90 bd ea 6d 98 bc 6c 0a 4f bd a9 79 f4 bc
       -0.070674464 -0.018607099 -0.05054705 -0.029843168
000310 9c 6b 5f bc 9b ac 35 bb a2 16 31 3d 3d 5c 33 3d
       -0.013636496 -0.002772129 0.043234475 0.043789137
000320 6e 63 e1 3c 97 1d 94 3a e3 21 4a bc 70 95 d5 3b
       0.027513232 0.0011300322 -0.012337181 0.0065180585
000330 07 b5 5f 3d ed a9 87 bc 41 cf 28 3c 51 0c 02 3c
       0.054616 -0.01656052 0.010303319 0.007937507
000340 62 9b 95 bd 58 ec 4e ba 4f e5 a0 bc df e8 6e bd
       -0.073050275 -0.00078934943 -0.019640593 -0.058327552
000350 4d 59 3f bd 1a ae 08 3c 2b 1e 8c 3d d0 b3 51 bd
       -0.046716023 0.00834229 0.068416916 -0.051196873
000360 27 f2 38 3b 78 82 5b 3c 96 eb 1f 3d c8 f1 de bb
       0.0028220506 0.013397805 0.03904303 -0.006803725
000370 e4 a4 82 bc bf 93 b9 3c b0 d2 0b 3c 03 dd b7 3c
       -0.015947767 0.022653459 0.0085341185 0.022444254
000380 59 13 15 bc 38 67 64 3a af d8 bc 3c 6f c6 3d 3d
       -0.009098851 0.00087128906 0.023052542 0.04633182
000390 23 9d 9b 3b 15 4d fe bb 23 1e 4c bc 3b 0f 07 3d
       0.0047489568 -0.0077606537 -0.012458357 0.03297351
0003a0 d5 e7 8c 3b 63 37 10 bd fa 67 cc bb b1 e3 b8 3c
       0.0043000975 -0.03520907 -0.006237981 0.02256951
0003b0 35 fd c3 3b 58 1f d4 bc f7 04 28 3d bc ab 2e bd
       0.0059811124 -0.025893852 0.04102036 -0.042644247
0003c0 4e 2d 4e bc 1e e9 20 3c 49 c5 11 bc 69 9b 42 bd
       -0.012584044 0.0098212045 -0.008897134 -0.047511492
0003d0 80 84 7d bb 46 b9 2c 3c a1 24 b8 3c 86 66 0f 3d
       -0.0038683712 0.0105422195 0.022478404 0.035009883
0003e0 96 91 91 3c 9f 18 18 3d f6 49 82 bc a1 24 75 3c
       0.017769616 0.037132856 -0.015904408 0.014962346
0003f0 7a 5e a5 bb 54 86 bb 3c 42 42 66 bc eb 04 cb 3c
       -0.005046663 0.022891201 -0.014053883 0.024782619

model.time_mlp.3.bias f4 [32]
000000 70 40 be b8 f6 bc c7 b8 ef 70 8b b8 de 89 c3 b8
       -9.0719084e-05 -9.524256e-05 -6.649072e-05 -9.324004e-05
000010 65 53 b8 b8 b5 c7 99 38 55 2b b3 38 84 51 ca b8
       -8.789337e-05 7.332807e-05 8.543456e-05 -9.647294e-05
000020 36 8b b9 38 42 1f c5 38 5f 17 c3 b8 e9 2a 4e 38
       8.8474175e-05 9.399514e-05 -9.302678e-05 4.915419e-05
000030 41 ee 8c b8 d1 3a 6d b8 0b ea b8 b8 c7 e0 c8 b8
       -6.7200985e-05 -5.655998e-05 -8.8173976e-05 -9.578611e-05
000040 61 b8 c7 b8 0f 1f c8 b8 96 e7 c8 38 8b 62 bf b8
       -9.523403e-05 -9.542528e-05 9.5798794e-05 -9.125945e-05
000050 39 76 bc b8 45 10 c5 b8 c7 fc a3 38 15 25 92 b8
       -8.986559e-05 -9.3967225e-05 7.819529e-05 -6.9687296e-05
000060 0a 33 26 36 91 d5 bd 38 2c ac b9 b8 64 63 b3 38
       2.4765636e-06 9.052002e-05 -8.853557e-05 8.553898e-05
000070 b1 f5 8d b8 05 4e bb 38 1e 0a bc 38 76 65 c9 b8
       -6.7691675e-05 8.931387e-05 8.966423e-05 -9.6033255e-05

model.layer.0.weight f4 [256, 55]
000000 c4 48 ef 3d 25 8a d0 bc e7 b6 fc 3d 95 2b e2 bd
       0.11683801 -0.025456497 0.12339573 -0.11043469
000010 ce 20 3e bd 5f 7b bd bd 9b bc 61 bb 84 6e b2 bd
       -0.046418004 -0.09252047 -0.0034444693 -0.087124854
000020 2f 58 58 3d cd d1 ed 3d ca ba a3 bd 5a 87 24 bc
       0.052818473 0.11612282 -0.079946116 -0.010042036
000030 75 3f 1b 3c 04 69 37 bd 40 e6 a0 bd 98 e5 5c 3c
       0.009475579 -0.044777885 -0.07856417 0.013482474
000040 e2 c8 5e bd 85 12 13 bd 95 39 71 3d 56 08 6a 3d
       -0.054390796 -0.035906333 0.058892805 0.057136856
000050 c3 eb 38 bc 3f dc 30 be 3a 20 2b 3e d7 45 32 bc
       -0.011286679 -0.17271517 0.16711512 -0.010880909
000060 a0 b3 68 bd 90 b2 91 bc fb 8d ff bd f3 00 27 bc
       -0.05681193 -0.01778534 -0.124782525 -0.010193097
000070 aa 8a 2f bd 94 76 10 bd 9c 43 f3 3c 29 43 a1 bc
       -0.04285685 -0.035269335 0.029695325 -0.019685345
000080 58 86 bf 3d c2 9b 3a bd 04 64 b8 3d 71 f6 5b bd
       0.09351796 -0.0455587 0.090034515 -0.05370182
000090 dd f5 4c bd 39 0b 1a bd 9a 04 84 bd 21 61 ab bc
       -0.05003916 -0.03760836 -0.0644619 -0.020920338
0000a0 07 e9 67 3c 64 71 54 3d bd 95 cc 3d 79 9e 85 bd
       0.014154679 0.05186595 0.09989498 -0.06524367
0000b0 80 1a 1c 3c f7 6b 66 3d 79 49 8e 3b ed 80 74 3d
       0.0095278025 0.056255307 0.0043422547 0.059693266
0000c0 8f c1 41 3c 05 39 5a bd f8 e3 a8 bc da 80 f9 3c
       0.011825933 -0.053277034 -0.020616516 0.030456949
0000d0 6c e7 4a bd 2d 3e 0f 3c f5 ce cd 3a ed 1b 82 3d
       -0.049537107 0.008742851 0.0015701937 0.06352983
0000e0 9f 3f 2f 3d 5b 4b d9 3c 65 cb 63 3d 3c 81 a7 3c
       0.042785283 0.02652519 0.055613894 0.020447366
0000f0 f0 c8 ee 3d 39 4c 9d 3c 0c 7e ff bd bf 32 70 bb
       0.116594195 0.019201385 -0.124752134 -0.003665134
000100 e3 37 e1 3c a2 0d fa ba 60 26 e5 3c 8c 7d 56 bd
       0.02749247 -0.0019077549 0.0279724 -0.052365825
000110 67 3e 77 bd e6 1d ee bd a3 e6 8b 3c 5e f9 aa 3d
       -0.060362246 -0.116267964 0.01707775 0.08348344
000120 eb 48 11 bd 92 c3 04 bc 53 47 13 3d b5 f3 09 be
       -0.03546993 -0.008103268 0.035956692 -0.13471873
000130 e7 e4 35 3d 45 4e 32 3a 86 57 f9 3c 11 0f f2 bd
       0.04440775 0.0006801824 0.030437242 -0.1181928
000140 0c 2a b4 bd 15 cb 7e 3d e5 ff e9 bb 2d 2d dc bc
       -0.08797082 0.062205393 -0.0071411007 -0.02687701
000150 eb cc 5d 3d 4d f3 66 3d ad e2 b7 bd 75 2c 88 3d
       0.054150503 0.056384373 -0.08978782 0.066491045
000160 39 f0 58 bc 9e b7 29 bd ce 1b 95 bd f8 c9 f1 3d
       -0.013240867 -0.041434877 -0.07280694 0.118061006
000170 14 aa bc bd 9f f2 06 3b ea 2f 88 bd f7 b7 e0 bd
       -0.09212127 0.002059139 -0.06649764 -0.109725885
000180 57 3c 0f bd 02 e0 d9 bb 95 04 88 bd bd 6f 1c bd
       -0.034969654 -0.0066490183 -0.06641499 -0.0381925
000190 5e 06 9c bc 46 db d2 bd dc 95 07 3d be 8f 44 bd
       -0.019046005 -0.10295729 0.0331019 -0.047988646
0001a0 d6 b1 c7 bd a8 6e 8f bd d5 8b 3a bd ae 35 bc bc
       -0.097507164 -0.07003528 -0.04554351 -0.022974815
0001b0 d5 36 9e 3c d7 55 61 3d bd 1b 8f bd b3 ff 05 bd
       0.019313255 0.055013504 -0.069877125 -0.032714557
0001c0 fe 58 88 3d 78 c1 e5 bc 50 91 98 bd 3f bf 08 3e
       0.06657599 -0.028046355 -0.07449591 0.13354205
0001d0 69 ad 2c 3d 2e 79 8f 3d ba 63 1f 3d 1b 8b 1a bd
       0.042157564 0.07005535 0.038913466 -0.037730318
0001e0 b3 33 3d 3d 10 01 85 3d 94 5c 28 3e 76 ec 54 bd
       0.046191882 0.06494343 0.16441566 -0.05198332
0001f0 0c b8 84 bd eb e1 1b bd bd 58 d6 bd 45 77 8f 3d
       -0.06480417 -0.03805725 -0.10466144 0.07005171
000200 75 be 1d bd 93 7a 31 3a f7 91 ba bc 8b 73 0e bd
       -0.038511712 0.0006770279 -0.02277468 -0.03477816
000210 20 22 9f bb d1 96 fa 3c d5 ee 36 3d 37 17 b2 bd
       -0.004856363 0.030589493 0.04466136 -0.08695834
000220 10 31 8d 3c 10 97 a7 bd 6a d2 27 3e 45 2d a6 bd
       0.017235309 -0.0818311 0.1638886 -0.08114103
000230 07 05 d7 bd 2f 1e 9e 3c 4a 81 80 bd de 1b d5 bc
       -0.10499006 0.019301502 -0.0627466 -0.026014265
000240 6b 9e 12 bc 0a ef ee 3d fe ba 2d 3d ff c8 28 bd
       -0.008948903 0.11666687 0.042414658 -0.04120731
000250 46 2f 17 3d 96 54 3f 3d de 99 2e bd 57 72 f3 bc
       0.036910318 0.046711527 -0.042627208 -0.029717607
000260 a3 74 9b 3d 77 16 81 3b 0c b8 fa bd ad 49 4d 3d
       0.07590606 0.0039394456 -0.122421354 0.05011909
000270 c1 b3 6c 3d 7a 07 82 bc 79 3a 46 bd 22 16 f0 bd
       0.057788614 -0.015872706 -0.048395608 -0.117229715
000280 5e 2c 68 bd fa b2 29 3d 2c 65 35 3d c0 c7 9b 3d
       -0.056682937 0.04143045 0.04428594 0.07606459
000290 6e 2a 0b 3e 43 27 b4 bd 77 2e ca 3c 60 d8 a2 3d
       0.13590404 -0.08796551 0.02468036 0.079514265
0002a0 cd ec 83 3d 6a 05 0c bc e0 f3 5e bc 4d 86 8f 3d
       0.064416505 -0.008546213 -0.013607949 0.07008038
0002b0 ac 73 83 bd bf 49 44 3d 60 63 96 3d 1a 23 66 bd
       -0.06418547 0.047921892 0.07343173 -0.05618582
0002c0 52 5c 93 3d bf b9 3f 3b f1 a1 70 bd a1 29 cb 3d
       0.07195343 0.0029255 -0.05874819 0.099200495
0002d0 03 7d 8e bd fc b7 c3 3d 54 a4 96 ba 9b 9b 97 3d
       -0.06957438 0.095565766 -0.0011493065 0.07402726
0002e0 c5 5e af 3d b8 90 22 3d e0 46 24 bd 20 b9 0d 3d
       0.08562998 0.039688796 -0.040106654 0.034600377
0002f0 f6 c1 e2 bd ad d2 37 3e 35 ba 02 3e d2 fc e0 3c
       -0.11072151 0.1795146 0.12766345 0.027464304
000300 87 34 5e 3e 89 63 4d bd 53 f5 2c 3c dc 3e bb bc
       0.21699725 -0.050143752 0.010556537 -0.022857122
000310 63 2a 6d 3b a5 77 b8 3d 72 74 e7 3d 7d b5 d6 bd
       0.0036188595 0.090071954 0.11301507 -0.10483835
000320 a4 8e 3f 3d 8f 04 b3 bd e2 54 43 3d 1d 3c b6 3d
       0.046766892 -0.08741104 0.047688372 0.088981844
000330 d4 0e 17 bd a3 41 05 3d 3a 89 33 3b 72 25 5a 3d
       -0.036879376 0.0325333 0.0027395026 0.053258367
000340 69 49 f1 3c e5 9c 6d 3d 6c b2 c0 bd 47 2b 89 bd
       0.02945395 0.058010954 -0.09409031 -0.066977076
000350 ce d4 0d bc 07 58 ba bc 69 60 4c bb f8 54 c2 3d
       -0.008656694 -0.022747053 -0.0031185395 0.09488863
000360 c2 86 1b bd e0 75 ea 3b 6b 47 62 bd fe ca 79 3b
       -0.037970312 0.007155165 -0.05524389 0.0038115378
000370 93 92 b3 3d 91 e3 9f bd f6 7f aa 3d 67 14 52 bd
       0.08768191 -0.07807077 0.08325188 -0.05128899
000380 c5 d5 cc 3d d4 cc cc bd bb 04 a8 3d 0a 5e be bc
       0.10001711 -0.10000005 0.08204027 -0.0232382
000390 60 de b6 3d b8 f0 4a 3d 00 f1 c4 3d 03 cb 1d 3d
       0.089291334 0.049545974 0.096162796 0.038523685
0003a0 ad aa d8 3b 1d a0 92 bc 81 9d db 3c ce 45 86 3c
       0.006612143 -0.017898614 0.026808502 0.016390707
0003b0 70 4f fc 3d 5a 3d 77 3d a8 df 8f 3d 00 fc 0a 3d
       0.12319839 0.060361244 0.07025081 0.033931732
0003c0 d7 0e c2 3d 75 64 ad bd 64 42 bf bd 81 ef 31 bd
       0.09475487 -0.08466426 -0.09338835 -0.0434413
0003d0 73 21 35 be df d2 08 bb af 5f a1 bc b9 cb 85 3d
       -0.17688541 -0.0020877642 -0.019698946 0.06532998
0003e0 12 27 59 bd eb 36 01 3b 78 e8 28 3e 87 e4 c4 bd
       -0.053015776 0.0019716572 0.1649493 -0.09613901
0003f0 e0 f5 c7 3c 22 74 9f bd 42 8b aa bc d4 5c db 3b
       0.024409235 -0.077858225 -0.020818356 0.0066944156
