results/qvpo_HalfCheetah-v3/actor_25_04_21_03_31_37_0.pth (torch, 665521 bytes, 24 tensors)

betas f4 [20]
00000000: e7f3 023c 5174 a43c 9e1c 043d 5603 373d
00000010: 529a 6b3d 0852 913d cf82 ae3d 70eb cd3d
00000020: e13c f03d 272f 0b3e d8c3 203e 3cb6 393e
00000030: b141 573e ad42 7b3e d656 943e 0b3f b23e
00000040: c4de db3e e40f 0d3f 219c 3f3f 77be 7f3f
0.007992721 0.020074995 0.032253854 0.044680916 0.05752022 0.07095724 0.085210435 0.10054672
0.11730362 0.13592206 0.15699708 0.18135923 0.21021153 0.24537154 0.289725 0.34813723
0.42943394 0.5510237 0.7484761 0.999

alphas_cumprod f4 [20]
00000000: 30f4 7d3f 11db 783f 44d4 703f 9711 663f
00000010: cad5 583f f772 493f 9548 383f 21c1 253f
00000020: 924f 123f 11d9 fc3e ca26 d53e 997e ae3e
00000030: 53d0 893e 13ff 4f3e 11bc 133e fc9a c03d
00000040: c8c9 5b3d 015c c53c fb8f c63b 4753 cb36
0.99200726 0.9720927 0.9407389 0.8987059 0.84701216 0.7869105 0.7198575 0.64747816
0.57152665 0.4938436 0.41631156 0.3408096 0.2691675 0.20312147 0.1442721 0.09404561
0.05365923 0.024091722 0.0060596443 6.059566e-06

alphas_cumprod_prev f4 [20]
00000000: 0000 803f 30f4 7d3f 11db 783f 44d4 703f
00000010: 9711 663f cad5 583f f772 493f 9548 383f
00000020: 21c1 253f 924f 123f 11d9 fc3e ca26 d53e
00000030: 997e ae3e 53d0 893e 13ff 4f3e 11bc 133e
00000040: fc9a c03d c8c9 5b3d 015c c53c fb8f c63b
1.0 0.99200726 0.9720927 0.9407389 0.8987059 0.84701216 0.7869105 0.7198575
0.64747816 0.57152665 0.4938436 0.41631156 0.3408096 0.2691675 0.20312147 0.1442721
0.09404561 0.05365923 0.024091722 0.0060596443

sqrt_alphas_cumprod f4 [20]
00000000: 92f9 7e3f 1067 7c3f 7b4c 783f 32b0 723f
00000010: ec9a 6b3f a817 633f a333 593f 37fe 4d3f
00000020: d088 413f c6e6 333f 472d 253f 3373 153f
00000030: f7d0 043f d6c0 e63e 4c79 c23e a903 9d3e
00000040: 4034 6d3e b4f0 1e3e 876c 9f3d 1b53 213b
0.99599564 0.9859476 0.969917 0.948001 0.9203327 0.8870797 0.84844416 0.80466026
0.75599384 0.7027401 0.6452221 0.58378905 0.51881355 0.45068997 0.37983167 0.30666855
0.23164463 0.15521508 0.07784372 0.0024616185

sqrt_one_minus_alphas_cumprod f4 [20]
00000000: 7a18 b73d 6b10 2b3e 4947 793e f0f3 a23e
00000010: 0f43 c83e f658 ec3e 377f 073f 0cff 173f
00000020: 7992 273f 6021 363f 2e95 433f 08d9 4f3f
00000030: e7d9 5a3f b686 643f 72d0 6c3f 3daa 733f
00000040: 7409 793f c0e5 7c3f 2339 7f3f cdff 7f3f
0.089402154 0.16705482 0.243436 0.31826735 0.39113662 0.46161622 0.5292849 0.59373546
0.65457875 0.71144676 0.76399505 0.8119054 0.8548874 0.8926805 0.9250556 0.9518164
0.9728005 0.9878807 0.9969656 0.99999696

log_one_minus_alphas_cumprod f4 [20]
00000000: fb88 9ac0 260c 65c0 f3d9 34c0 e48a 12c0
00000010: 8a4e f0bf bce4 c5bf dedf a2bf 5175 85bf
00000020: 83f7 58bf 1550 2ebf cbd3 09bf 515f d5be
00000030: 628c a0be 9780 68be c68a 1fbe 0346 cabd
00000040: 9ce7 61bd 8fc6 c7bc a32a c7bb 2900 ccb6
-4.8292212 -3.5788665 -2.8258026 -2.2897272 -1.8773968 -1.5460429 -1.2724569 -1.0426427
-0.8475267 -0.68090945 -0.53838795 -0.41674283 -0.31357104 -0.22705303 -0.15580282 -0.09876635
-0.05515252 -0.024386672 -0.0060780807 -6.0796924e-06

sqrt_recip_alphas_cumprod f4 [20]
00000000: be83 803f 08d3 813f 56f8 833f 5d05 873f
00000010: 8414 8b3f 2e4b 903f 48dd 963f c712 9f3f
00000020: 4550 a93f e824 b63f 9d61 c63f de41 db3f
00000030: 7db7 f63f 2601 0e40 e57e 2840 c2b1 5040
00000040: 8424 8a40 602a ce40 3f8a 4d41 4f1e cb43
1.0040205 1.0142527 1.0310161 1.0548512 1.0865636 1.1272943 1.178628 1.2427605
1.3227621 1.4230013 1.5498539 1.7129476 1.9274746 2.21882 2.632745 3.2608495
4.3169575 6.4426727 12.8462515 406.2368

sqrt_recipm1_alphas_cumprod f4 [20]
00000000: d9d4 b73d 8e80 2d3e 4f81 803e 1be4 ab3e
00000010: ea98 d93e 7437 053f 52b3 1f3f 1de5 3c3f
00000020: 7aa8 5d3f fb95 813f f58f 973f 2504 b23f
00000030: 41ea d23f 7f87 fd3f 2ede 1b40 82a3 4640
00000040: 9e62 8640 bdaa cb40 95ea 4c41 261e cb43
0.08976144 0.16943571 0.25098655 0.33572468 0.42499477 0.5203774 0.62382996 0.737871
0.865852 1.0123895 1.1840807 1.3907515 1.6477739 1.9806975 2.4354358 3.1037297
4.199538 6.364592 12.807271 406.23553

posterior_variance f4 [20]
00000000: 0000 0000 ab66 bc3b 69db 783c cc23 d63c
00000010: 73fe 1b3d 79aa 503d c1bd 843d f8a3 a33d
00000020: 2fa7 c53d 38a5 eb3d 1169 0b3e de70 243e
00000030: cb27 423e 8c6f 663e 4323 8a3e 3e5d a83e
00000040: a67c d23e ccc9 083f 3a22 3c3f 2232 7e3f
0.0 0.0057495437 0.01518903 0.026140116 0.03808446 0.050943825 0.06481505 0.07990259
0.09651028 0.11506122 0.13614298 0.1605868 0.18960492 0.2250349 0.26980028 0.32883638
0.41110724 0.5343292 0.73489726 0.99295247

posterior_log_variance_clipped f4 [20]
00000000: f134 38c2 8913 a5c0 65fd 85c0 f33b 69c0
00000010: 1426 51c0 b087 3ec0 301e 2fc0 80b9 21c0
00000020: 86a3 15c0 f962 0ac0 043d ffbf 121a eabf
00000030: 0cd7 d4bf 77e9 bebf 7bb0 a7bf 685c 8ebf
00000040: 078f 63bf 3e72 20bf 66b5 9dbe 4ec0 e7bb
-46.0517 -5.1586347 -4.187182 -3.644284 -3.267949 -2.9770317 -2.7362175 -2.526947
-2.3381057 -2.1622908 -1.9940495 -1.8289206 -1.6628127 -1.4914998 -1.3100733 -1.112195
-0.8889012 -0.6267432 -0.3080246 -0.007072485

posterior_mean_coef1 f4 [20]
00000000: cfff 7f3f 3d6a 373f d95f 093f b20c db3e
00000010: cc7d b63e d9e8 9c3e 0926 8a3e 5bcd 773e
00000020: 6a94 613e 97e2 4f3e 2c8e 413e cfc6 353e
00000030: 6df2 2b3e bf95 233e c040 1c3e ab76 153e
00000040: 4580 0e3e 85ee 053e 6160 ef3d f643 9f3d
0.9999971 0.7164648 0.53661877 0.42783123 0.3564285 0.306464 0.26982144 0.2419943
0.22029272 0.20301281 0.1890189 0.1775162 0.16791697 0.15975092 0.15259075 0.1459605
0.13916118 0.13079269 0.11688305 0.077766344

posterior_mean_coef2 f4 [20]
00000000: 0000 0000 bc28 913e 0631 ed3e d362 123f
00000010: 528d 243f 9927 313f 9d3e 3a3f a3f0 403f
00000020: f9e1 453f cd71 493f 4ad3 4b3f 8a18 4d3f
00000030: 8a34 4d3f 3bf4 4b3f ece9 483f fb3a 433f
00000040: 8a1e 393f 6856 263f dd1e fc3e f1bd 003d
0.0 0.2835139 0.46326464 0.57182044 0.6427814 0.69201046 0.7275179 0.7536718
0.7729793 0.7868927 0.79619277 0.8011557 0.80158293 0.7966954 0.78481936 0.7626187
0.72312224 0.64975595 0.49242297 0.031431142

model.time_mlp.1.weight f4 [256, 32]
00000000: 205c fbbd 8df9 1abd fedc f4bd 557d 023d
00000010: 117f 963d 9acb 83bd 7603 61bb 56fb f9bc
00000020: c64f 8ebd 1241 073e 8094 93bd 72b7 90bb
00000030: 2e53 273e 90db f63a e483 06be d73b cabc
00000040: 038a 673c 8379 7cbc 8c70 13be 0568 fb3d
00000050: 95cd 0bbe 9938 c8bc d3d3 583e 8baf 7d3d
00000060: f749 c53d cb1b 883d ce1b 89bb 24db 0dbe
00000070: ad6e d8bd 6126 7c3c 69c2 fd3b 9aa0 4dbd
00000080: b04a 9e3d 98de 35bd aa0f babc 8a82 1a3d
00000090: 3c4a 633c e3f7 d33c 608c 4abb fede f63d
000000a0: 6e73 a8bd 3962 fa3d 50ac 313e 0ad0 4e3e
000000b0: 0449 1b3d 3dde b73d 7cc9 453e e967 983c
000000c0: d556 8ebd 6703 e53c 9ed2 b7bd 07fd c0bd
000000d0: bff4 e5bd 6a52 943c f736 b8bc c43a 763d
000000e0: ca5e 273e be0a 57be b7ad 21bb bc5b a13b
000000f0: 22e5 233e c5b9 88bd cc4d 1dbd 1d94 b8bb
00000100: 0807 09be 2144 e7bd 35bd 16bb 633d 8bbd
00000110: 98bd 47be c658 90be be96 03be 9a33 08be
00000120: 7e18 0ebe 34aa f4bd c434 69bd 1014 8f3b
00000130: d869 c23d b9af 22bc 4eea 013e 7f2b d7bd
00000140: 8e36 0f3e 3826 5a3e 7d1a 443e 3180 4f3e
00000150: 5a53 e93b ccea 653d da38 803c ce9f 013d
00000160: e17e 0e3d 4fbc 02bd 7056 a93d 440f b0bd
00000170: 2cb6 86bd 1f22 0bbe 546b 923d 6ea1 bebc
00000180: e16e c43a 570f b0bd a9d4 0fbc 2e64 c43d
00000190: f515 1cbe 3fa4 a9bd 1d80 2bbe b2a0 eebd
000001a0: 72c4 23be 174c ab3d 07dd 473c 409c a43d
000001b0: f95e a03d fcf3 3b3d 7978 063e e90d ddbd
000001c0: ef6f 1b3e 60a0 083e 20ca 7f3d b01a 803d
000001d0: a99c 193e 8494 d43c f928 393d 31da c3b8
000001e0: 816d 93bc 6dde a5bb 68b3 31bd 82c9 39bd
000001f0: 3ee0 753c 6820 dcbb 5109 60be b4ef 933d
00000200: b1b5 84bd 5ec0 d3bd c7e5 bebd 3b19 fa3b
00000210: a7d0 463d 9c64 f7bd 727c 71be 027c babd
00000220: a631 afbc 19b8 5fbd 0b2e e0bd 5df3 34be
00000230: 1851 ce3c df35 0abe 166b 9dbc 953f 4f3d
00000240: b1e9 6e3d 32b1 e43d faa1 0a3e abef 353e
00000250: 12f6 8a3d 06a6 1dbd 2b0b 053b a1c0 06bd
00000260: bd67 06bc 9689 cbbd ce9e efbd 4454 8ebb
00000270: 7d4a 1a3d 151c 013e 2429 94bc d83c da3d
00000280: 1870 ea3a 05aa 13bd 480f 95be 0fe8 853d
00000290: d020 f9bb 3ef8 873d be7e 723d 517a 6dbd
000002a0: c470 9f3d ce44 02bc 981e af3d a65f d83b
000002b0: 5a94 71bc 2021 053e 8dc8 343d c1cb ee3d
000002c0: ba5f 8cbd ae8c 41bd be26 5e3e bac2 c1bd
000002d0: d950 ea3b d3cd 1abe 5cd8 383d 2fee 9d3d
000002e0: e6b3 ba3d 0a4f 8e3d 4913 2dbe 088e 91bc
000002f0: 1bfe d23d 6c5a 32bc ef7b bc3d 1593 ac3d
00000300: 9376 0f3e 5b53 00bd c413 803e eea6 4c3d
00000310: df37 75bd 1df8 4f3d 25ef 7d3c e73c dd3d
00000320: 8383 1fbd d20b 2abd f76c 81bc 8f05 c4bc
00000330: 5b51 b73d f3bc 02bc 50d3 b83d ec6d 9a3d
00000340: b546 463c e631 c53c 63f6 603d fcf7 d2bd
00000350: e7ea 46bc bb23 ea3c 5056 f93d 665f 873d
00000360: c2c1 23bd 5d01 15be a6ee b0bd a460 a43c
00000370: 476c 163d de7b a53d c219 953c e73e 8ebd
00000380: 9302 98bd bf29 37bd f610 febc f310 32bd
00000390: e76c f93d 1348 aa3d 4719 083c 5b34 223e
000003a0: a230 c63d 35e1 e6bc e3a0 0b3c 405c b13d
000003b0: 4802 9cbd 8a3c f23d b3ab 9ebd e22f 03bd
000003c0: ab97 debd c5e4 d43d 876e 143d 141e 0dbc
000003d0: 7b9d 8d3b 958f 683d 22ca d9bd 5df6 7e3c
000003e0: 0fda 903d d048 b9bd b4f2 3bbd a2ad fcbd
000003f0: bdc4 fe3d 21d1 823d e1dc ebbc 0627 303e
-0.12273431 -0.037835646 -0.119562134 0.031857807 0.07348455 -0.06435318 -0.0034334338 -0.030515354
-0.06948809 0.13208416 -0.072060585 -0.0044163996 0.16340324 0.0018833745 -0.1313625 -0.024686737
0.014132026 -0.01540983 -0.14398402 0.122756995 -0.13652642 -0.02444105 0.21174555 0.06193499
0.09633248 0.06645926 -0.004184223 -0.13853127 -0.10567985 0.01539001 0.0077441228 -0.05020199
0.07729089 -0.044401735 -0.022712547 0.037722148 0.013872679 0.025875038 -0.0030906424 0.12054251
-0.082251415 0.12225766 0.17350888 0.20196548 0.03791143 0.089779355 0.19315141 0.018604236
-0.06950156 0.027955724 -0.08975719 -0.09423261 -0.11228322 0.018105704 -0.022487147 0.060114637
0.16344753 -0.21000192 -0.0024670193 0.0049242657 0.16005376 -0.06676058 -0.03840427 -0.005632891
-0.13381588 -0.112922914 -0.002300096 -0.06798818 -0.19505918 -0.2819273 -0.12850472 -0.13300934
-0.1387653 -0.11946526 -0.056935087 0.0043664053 0.09492844 -0.009929591 0.12687036 -0.10506343
0.13985655 0.21303642 0.1915073 0.20263745 0.007120532 0.056132123 0.015652109 0.031646542
0.03478897 -0.031917866 0.0826844 -0.08596662 -0.06577715 -0.13587235 0.071493775 -0.023270335
0.0014986658 -0.08596676 -0.0087787295 0.0958942 -0.15242751 -0.082832806 -0.1674809 -0.11651744
-0.15992907 0.08364122 0.012198693 0.08037615 0.078306146 0.04588698 0.13131894 -0.10793669
0.15179418 0.13342428 0.06244862 0.0625509 0.15001167 0.025949724 0.04520509 -9.338966e-05
-0.017996551 -0.0050619156 -0.043383986 -0.04535819 0.015007077 -0.0067177303 -0.21878554 0.07223454
-0.064799674 -0.103394255 -0.0932117 0.0076324022 0.04853883 -0.120797366 -0.23582628 -0.09105684
-0.021385979 -0.05461893 -0.10946282 -0.1767096 0.025185153 -0.13497113 -0.019216102 0.050597746
0.058328334 0.1116661 0.13538352 0.17767207 0.067852154 -0.03848841 0.0020300846 -0.03289855
-0.008203444 -0.09938352 -0.117002115 -0.0043435413 0.037668694 0.12608369 -0.018086024 0.10656136
0.001788619 -0.036050815 -0.2911322 0.06538402 -0.0076027885 0.06639145 0.059202902 -0.05797798
0.0778518 -0.007950975 0.08550757 0.006603199 -0.014744842 0.13000917 0.044136573 0.11659957
-0.06854196 -0.047253303 0.21694466 -0.09460969 0.007150751 -0.15117578 0.04512821 0.077114455
0.09116344 0.06948669 -0.16901888 -0.017767921 0.10302373 -0.010885816 0.09203326 0.08426491
0.14010076 -0.031329494 0.2501508 0.049963884 -0.059867736 0.05077373 0.015498911 0.10802632
-0.03894378 -0.04151518 -0.015799029 -0.023928432 0.08951064 -0.007979619 0.0902468 0.07540497
0.012101819 0.024071645 0.054922473 -0.103012055 -0.012140966 0.02858149 0.12174666 0.06609993
-0.039979704 -0.14551301 -0.086392686 0.020065613 0.036724355 0.080802664 0.018200759 -0.069455914
-0.07422366 -0.044717547 -0.031013947 -0.043473195 0.121789746 0.08314528 0.008306808 0.15840285
0.09677245 -0.028183559 0.008522245 0.086601734 -0.076176226 0.11827953 -0.07747593 -0.032028086
-0.10868772 0.10395197 0.03623822 -0.008613128 0.0043217517 0.056777555 -0.10634257 0.015561667
0.070728414 -0.09047091 -0.045885757 -0.12337805 0.124398686 0.063875444 -0.028791847 0.17202386

model.time_mlp.1.bias f4 [256]
00000000: b00d 46bb daba c63b 4e32 db3c 9893 713c
00000010: 5411 843b fbbe 1c3d 751a 093c ec07 4f3b
00000020: 770f 05bc 243d b33a 40a3 213c ef01 963b
00000030: 4787 9f3c 032c df3c a097 09bc 5523 e13b
00000040: 25ad 95bc 507a 853b 2272 d23c b05f da3c
00000050: c760 84bb ad35 c33a 2dcf 32bb 4f97 8a3b
00000060: 6c19 d33b 5a5d 293a 4736 e63b 71e2 603c
00000070: e3ce d33b 7b7e 073b 4af3 8fbb af7e 1e3c
00000080: 397b 2f3c 6808 20bb 85da 81bb 9c3f 173c
00000090: d4e5 853c 24be cc3c 2231 c339 6042 a93c
000000a0: 44de 7b3c d12f 783c 6e50 8a3c 4992 30bb
000000b0: 6b94 1fbc 6f92 203d 587a 193c 493b 87b9
000000c0: 3dd7 3e3d 8da7 9b3c ab1e a53c 06b2 6a3c
000000d0: 55bb 803c 71ef c8bc a1dc 2b3d a05d bdbb
000000e0: de28 3f3c e467 803b 43f3 143c a137 913c
000000f0: 6f59 dc3b b662 a13c 69c7 8d3c a4ed 4c3a
00000100: f705 9e3c fc24 b13c f078 043c 5c2a 4f3c
00000110: 7900 913c faa4 a03c 7839 8b3b b8fa d53b
00000120: 5907 7c3b ddee 793b ca48 c639 3f9c 20bc
00000130: 71ed b83a a981 313b 051d 003c f903 35ba
00000140: a2f2 0d3d 49ce 253d 59f1 473b 77f6 513c
00000150: 549c 353b 3e6c b13c 58d0 0d3a a1f7 1c3a
00000160: 165f 433c a711 163c 3da4 0b3c c18b 873b
00000170: 8fa2 483b e129 393c 0f7a 903b 7947 3939
00000180: e396 773c 9ec2 913a f700 35bc ec61 653c
00000190: 1953 973b fbe8 8b3c d581 013d 3cd7 b63c
000001a0: c635 e13c 1f0b 6139 a826 09ba a3ee 4c3b
000001b0: 8720 633b e95c a23b 5a62 fa3c 0db7 5dbb
000001c0: 29d0 013d ea5a e0bb 0af2 8eba 4628 4c3d
000001d0: aaef d8bb c342 3d3d b2db 253b 6d85 f0ba
000001e0: 372e c13c 3988 fb3c c941 123d be70 653c
000001f0: e841 8f3c d292 eeba bc7a 573b d6d4 1b3c
00000200: a02a 023b 9022 823c fef9 2d3c e993 033c
00000210: 0814 113c be7d 9abb 56cb 9d3c 7742 563c
00000220: 52bf e53b 8f8a 363c 0ca3 453a fa3e 31bc
00000230: 17a3 4f3d 9a26 96ba 01b8 2d38 907e 1f3c
00000240: d8ed 033c bce8 88bb b5a0 4cbb 55ec d23b
00000250: d952 5f3b aaf4 ee3b b00f b83c 1ed4 2b3a
00000260: ac0c 713b 9e2b 5b3b c04d a13c 50a4 02bc
00000270: 59e9 cd39 fb8e a63b 007f de3a 3625 5c3c
00000280: 1e61 adba edaa afba 48d1 25bc ba9d 353c
00000290: cacd 9eba 54e0 153c a31b 0d3c 5df1 863c
000002a0: 1673 5e3b ede4 793c beab 943b 0bd4 ab3c
000002b0: 3d62 8f3b d6d2 c53b b880 a9bb e3a2 943c
000002c0: 7830 8f3b a7bd 9c3c 45bb d63c 5f3f a33c
000002d0: 65bf 27ba b93a c93b 91c7 7a3b a202 ce3c
000002e0: e0e6 b9bb bd56 393c 3137 1f3a 3a8a 883c
000002f0: d8a2 df3c 4a36 253c b1a5 8cbb b103 7d3b
00000300: 43d9 ca3b 3c64 4d3c f21e 9e3b 2223 2a3d
00000310: 74fd 253c c619 3b3b 30b2 cb3c 1aad 793b
00000320: 0ff8 79ba 1471 313c e1b2 c03c 37c6 56bc
00000330: 0ebd 83b9 1746 6a3c 5547 47bc 75f2 b73b
00000340: c5d1 cc3c 2026 e83c 26bf 40bb e720 c23c
00000350: adf7 96ba 44c1 093c c096 123d 3023 5c3c
00000360: 9842 fe3c 1551 44ba c48b f0bb b287 373d
00000370: 3d22 403c bfea 27bb fd75 b43b 973a b63b
00000380: c570 e13b 8ed7 fdbb 68d2 ac3c 0ab3 4b3a
00000390: 05f9 91ba 8c47 833b 7456 593c 0901 43bc
000003a0: 5925 363c 9c1a bb3c da80 43bc 2164 89bc
000003b0: 121b 003c 2546 6c3d 439e 6e3d 1c3e bcba
000003c0: 1ca6 7bbb 16aa cfb9 1466 313b 9732 4f3c
000003d0: e85c 2fbb 6ee2 0bbc dd2f 583c acf4 d13c
000003e0: 225c 1e3c 6290 2c3b 7c2e 8b3c e0a5 db3c
000003f0: 3f00 c13a 9de6 303a 5a55 6d3c ea60 953c
-0.003022056 0.006064755 0.026757386 0.014744662 0.004030386 0.03826807 0.008368124 0.0031590415
-0.008121363 0.0013674838 0.009865582 0.004577867 0.019473685 0.027242666 -0.008397967 0.006870667
-0.018271038 0.0040734187 0.025689188 0.026656955 -0.004039857 0.0014893316 -0.002728413 0.004229463
0.0064422395 0.0006460749 0.0070255133 0.013725863 0.006463872 0.0020674753 -0.004393016 0.009673758
0.010710531 -0.0024419073 -0.003962817 0.009231474 0.016344942 0.02499301 0.00037229905 0.020661533
0.0153728165 0.015148119 0.016884055 -0.0026942661 -0.009739975 0.03920215 0.009367548 -0.00025793377
0.046591986 0.019000793 0.020156225 0.014324671 0.015714327 -0.024528237 0.041958455 -0.0057789832
0.011667458 0.0039186347 0.009091201 0.017726721 0.0067245285 0.01970039 0.017307 0.00078173936
0.019289954 0.02162408 0.008085474 0.012644377 0.01770042 0.019609917 0.004248794 0.006530132
0.0038456528 0.0038136758 0.00037819735 -0.009802877 0.0014108849 0.002708534 0.007819419 -0.0006905194
0.03465522 0.040479932 0.0030508845 0.012815109 0.0027711587 0.02165806 0.0005409769 0.00059878273
0.011924526 0.009159482 0.008523044 0.004136533 0.003061447 0.011301489 0.004409082 0.000176696
0.015111658 0.0011120623 -0.011047593 0.014000397 0.0046180603 0.017078867 0.031617958 0.022319429
0.027491461 0.00021461815 -0.00052318955 0.0031270168 0.003465684 0.0049549234 0.030564476 -0.003383103
0.031692658 -0.0068467753 -0.0010905873 0.049843095 -0.006620367 0.046206247 0.002530795 -0.0018350311
0.023581607 0.030704604 0.03570727 0.014003931 0.017487481 -0.0018201715 0.0032879552 0.009511193
0.0019861832 0.015885621 0.010618685 0.00803087 0.0088548735 -0.0047146967 0.019261997 0.01307737
0.0070113325 0.011141433 0.00075392495 -0.010818237 0.050692644 -0.0011455596 4.141778e-05 0.009734765
0.008052312 -0.0041781347 -0.0031223719 0.0064368644 0.003407648 0.00729235 0.022468418 0.000655474
0.0036781235 0.0033442746 0.019690394 -0.007973745 0.00039274505 0.0050829626 0.0016975105 0.013436606
-0.0013227796 -0.001340238 -0.010120697 0.011084968 -0.0012115773 0.009147722 0.008612546 0.016472513
0.0033943108 0.015252334 0.004537075 0.020975133 0.0043757246 0.0060370965 -0.005172815 0.018144077
0.0043697916 0.019133402 0.026212344 0.019927679 -0.00063990644 0.0061410335 0.0038265924 0.02514774
-0.0056732744 0.011312184 0.0006073593 0.016667474 0.02729933 0.010083744 -0.004292213 0.0038606937
0.0061904504 0.012536105 0.0048254663 0.04153741 0.010131229 0.0028549298 0.02486524 0.0038097561
-0.000953556 0.010830183 0.023522796 -0.013108782 -0.00025127124 0.014298937 -0.012163003 0.00561362
0.02500237 0.028338492 -0.0029410808 0.02369733 -0.0011517905 0.0084078945 0.035788298 0.013436124
0.031037614 -0.0007488889 -0.00734088 0.044807144 0.011726913 -0.0025622097 0.0055072294 0.0055611837
0.0068798983 -0.0077466434 0.021096423 0.00077705143 -0.0011136836 0.004006332 0.013265241 -0.011902102
0.011117303 0.022839837 -0.011932576 -0.016771378 0.007818954 0.057684083 0.0582564 -0.0014361772
-0.003839857 -0.0003960884 0.00270689 0.012646339 -0.0026758257 -0.008537872 0.013195005 0.025629364
0.009665521 0.0026331176 0.016989939 0.026812494 0.0014724805 0.0006748231 0.014485681 0.018234689

model.time_mlp.3.weight f4 [32, 256]
00000000: 6009 7b3d 8e9d f23c 06f6 55bc ed29 0ebd
00000010: 241c 31ba 7407 483d b20c e3bc 3ac1 d4bc
00000020: 4d41 213c c54a 383c d52b a6bc a621 9abc
00000030: 67ef 2d3c cd52 bd3b 085c 30bd d7d6 623c
00000040: 96a0 13bc 1275 ddbd 133e 613d e673 77bb
00000050: bb8d 08bd b4b9 6f3c 13c0 eabc 32f6 c23d
00000060: 3663 e63b aeb0 c3bc 0971 4cbc e9ec 53bd
00000070: 138e b83c 3a6b 363b 41a4 bc3b a2af 0ebd
00000080: 0178 033d 302c 02be aa82 06bd 3b45 bc3c
00000090: 98a3 a53c 158a 153a 00ac 52bd 0c22 7dbc
000000a0: ca6f 37bd 73cb 8e3c 5d54 023c 555c 593c
000000b0: 5a9b c1bc 20d0 a03d 0648 42bd 9a8a 1dbd
000000c0: 9981 5f3d cfdb 0cbd ad59 973b 3b94 283b
000000d0: 2538 963d 2b21 cdbc 1b9d 103d e1b1 02bd
000000e0: 6cbd b23c 0bbc 2abd 712b ebbb 6b2b 3d3c
000000f0: 54a8 153c 3fa2 e6bc b86e 353d 7957 5c3c
00000100: bd85 2ebc 6add 513d d65d 57bc bae4 473d
00000110: 5137 95bd 4e72 8b3c 51a4 823a 206b 5f3d
00000120: fc41 3ebd 34cf e23b bf97 e1bd 8a6d 0a3c
00000130: 94d0 a4ba f93b a7bc 0dc6 f9bc bdf6 6bbc
00000140: 36cc 0c3d e738 68bd 8587 2ebd b9b4 bebc
00000150: f26c 17bc d819 993b ccab 90bc 7743 10bc
00000160: 5ca3 7ebd 455b 34bd c461 1e3d 0b44 0cbd
00000170: d27f 9ebc 80fa 043c 65ed 98bc bfe5 93bc
00000180: 50cb 723c 6b56 38bd 4dc4 1ebd ee3c 1e3d
00000190: a46e 1dbd 5b28 ca3c e0d3 643c a6bc d4bc
000001a0: bbc5 143d 0460 0abc bffa 233c 5c19 4f3c
000001b0: 1720 7f3d b1f9 503d 16db ae3c c42f b03c
000001c0: c2e6 e73c 0ea5 573d 5c6f 70bc cea2 793d
000001d0: 1a19 1abd 3d05 b7bd 4bdb 5abc 1c5f 8fbb
000001e0: 527e 3a3c e35c 123d fb70 213d 5627 d03c
000001f0: 6a98 36ba 8027 5fbd 74b5 2ebd 5a70 473d
00000200: 2316 faba f8f1 b23c 601e c0ba ffc4 c33b
00000210: 5798 2fbd 7c33 e0bb 55df 80bd 2aa7 ff3c
00000220: 7dd5 e5bc 8851 1cbd b886 46bd 1215 c53c
00000230: df4f a43d 5588 d0bb e8a4 f73b 1b8b 42bc
00000240: 44df 76bc af65 f23b 9740 db3c 0380 043d
00000250: 271d 49bd 6b4c a8bd 1521 523d 6150 73bd
00000260: 8f49 07bb e504 75bc d767 013d 09cd 02bc
00000270: 6f10 8b3d 0ebd dd3b c80d e13c 4e33 cfbc
00000280: 72d9 28bd 9796 243d 6db4 adbc fd8d 823d
00000290: 4621 5f3a 0091 053b 4c5e 44bc 0512 7b3d
000002a0: a891 b03b 6b17 acbd 15d4 9fbd 0fdf 183c
000002b0: fe92 b2bc d662 1f3d 4ef5 81ba 8d6b 9bbb
000002c0: 90d6 ac3c 2a2b 863c ff9e 9f3d 304e c03c
000002d0: 602e c73b 23c6 623b da7c dd3c eec7 e4bb
000002e0: 3ecf 68bc 38e5 ce3c aa7b 523d c253 b2bc
000002f0: 32f2 3e3d 0c56 003e ea29 d3bc c8bf c83b
00000300: 4d9a 0e3d 1f52 b93b ac2d edbc eef0 ee3c
00000310: 567b f6bc 7586 8cbc 335e cd3c 9199 a93b
00000320: 18a0 01bd 0c13 c5bc 0bb1 803d 8295 e0bb
00000330: d7cf 4f3b 359e 8c3d 3c52 7b3c 62a6 463b
00000340: 98b7 313d c058 ff3c 055a 1ebd 8c11 e33c
00000350: 875f 15bd f9ac b8bc 3951 ba3d 0519 2a3c
00000360: 8fc9 993d 01c4 483d c228 123d cd1b 273c
00000370: 9368 ab3c 4d80 253d 9f01 33bb 808c f3bc
00000380: 5f68 083d 512c 11bd 71d9 943d 80cb 69bc
00000390: 48cc 0dbc ffe1 0fbd f0a0 87bb d076 9fbd
000003a0: 6490 26bd 14c9 093d 4045 d63c 3f50 2e3c
000003b0: 81bb b7bc 0a82 b93c 3a7c 7a3d 7ce1 00bc
000003c0: ec03 d73c 70bf 503d a575 8abb 822f 953c
000003d0: 44a3 ca3c 58df 313d 0797 00bd 53b6 443d
000003e0: 68ca 1bbd 5c9f 263d f8d7 a03c 30d6 6e3b
000003f0: f012 b1ba 3ff7 113c 278b 2abc aa99 1cbd
0.061288238 0.029616144 -0.013059145 -0.034707952 -0.00067562074 0.048835233 -0.027716015 -0.025971044
0.009842229 0.011248295 -0.020284573 -0.018814873 0.01061616 0.005777693 -0.043056518 0.013845167
-0.009010455 -0.10813345 0.05499084 -0.003775829 -0.03333829 0.014631677 -0.028656041 0.09519614
0.00703087 -0.023887958 -0.012478122 -0.051739607 0.022528684 0.0027834908 0.0057568853 -0.034835465
0.032096867 -0.12712169 -0.032839455 0.02298223 0.02021961 0.0005704475 -0.051433563 -0.015450012
-0.044784345 0.017430997 0.007954684 0.013266643 -0.023633648 0.07852197 -0.04743197 -0.03846226
0.054566953 -0.034389313 0.0046188445 0.0025723118 0.073349275 -0.02504023 0.035306077 -0.03190792
0.021818839 -0.041683238 -0.0071768095 0.011545996 0.009134371 -0.028153537 0.044295043 0.0134485895
-0.010652003 0.051236548 -0.013144931 0.048802115 -0.072859414 0.017022278 0.0009967183 0.05454552
-0.046449646 0.006921673 -0.110152714 0.008448968 -0.0012574368 -0.02041434 -0.030489946 -0.014402089
0.03437444 -0.05669489 -0.04260971 -0.023279535 -0.009242283 0.0046722703 -0.017660044 -0.008805147
-0.06216751 -0.044032354 0.038667455 -0.03424458 -0.019348059 0.0081163645 -0.018667886 -0.018053887
0.014818981 -0.04500429 -0.038761426 0.038632326 -0.038435593 0.024677446 0.013966531 -0.02596886
0.036321383 -0.0084457435 0.010008513 0.0126403235 0.062286463 0.051019374 0.021344703 0.021507151
0.028308276 0.052647643 -0.014674988 0.06094628 -0.037621595 -0.08936546 -0.013357948 -0.0043753516
0.011382656 0.035733115 0.039414387 0.025409382 -0.00069654605 -0.05448103 -0.042653516 0.04869113
-0.0019080084 0.021843895 -0.001465749 0.0059744115 -0.042869892 -0.006842075 -0.06292597 0.03120764
-0.0280559 -0.03816369 -0.04846832 0.024057899 0.08023047 -0.0063639083 0.0075575 -0.011873986
-0.015067879 0.0073973755 0.026764197 0.032348644 -0.049100067 -0.082177006 0.05130108 -0.059402827
-0.002064321 -0.01495478 0.03159317 -0.0079834545 0.06790244 0.006766922 0.027472392 -0.025293019
-0.041222997 0.040182676 -0.021204198 0.06374738 0.0008511733 0.0020380616 -0.011985373 0.06129648
0.0053884573 -0.08402904 -0.07804123 0.009330525 -0.021798607 0.038912617 -0.0009915025 -0.0047430457
0.021098405 0.016378004 0.07793998 0.023474783 0.0060785264 0.0034602962 0.027037073 -0.0069818413
-0.014209567 0.025255784 0.051387466 -0.021768454 0.046617694 0.12532824 -0.025776822 0.0061263777
0.03481512 0.0056555416 -0.028952442 0.029167619 -0.030088108 -0.017153958 0.025069332 0.0051757772
-0.031646818 -0.024056934 0.06283768 -0.00685376 0.0031709576 0.06866113 0.01533943 0.0030311574
0.04338798 0.031170249 -0.038660068 0.027718328 -0.036468055 -0.022543417 0.09097523 0.010381942
0.075091474 0.04901505 0.0356834 0.010199499 0.020923888 0.04040556 -0.0027314199 -0.029730082
0.03330266 -0.035442654 0.07268036 -0.01426971 -0.0086546615 -0.035127636 -0.0041390583 -0.077863336
-0.040665045 0.03363903 0.026156068 0.010639249 -0.022428276 0.022645015 0.061153628 -0.00786626
0.026246987 0.05096382 -0.00422545 0.01821113 0.024736054 0.043425888 -0.03139403 0.04802544
-0.038034827 0.04067932 0.019634232 0.0036443584 -0.0013509672 0.008909046 -0.010409153 -0.038232483

model.time_mlp.3.bias f4 [32]
00000000: 154b 16bc 38b4 10bc 351e 32bc 38ba 3d3c
00000010: 5fbb 28bc 2de7 4cb9 acba 163c 5ded 5b3b
00000020: 1fcd f03b 4e69 443c 49ac 0f3c 40ad a2bc
00000030: 1dc7 153b 60af d0bb 5cdf 0dba edc4 123c
00000040: 2411 1c3c bd5c 70bc 98c6 81bc 3644 4a3c
00000050: 0a11 4c3c e60f 52bc 27f1 823b 571e 9cbc
00000060: efe6 ac3c df4d a23c 8dfe 07bc 22f6 82bb
00000070: 4672 843c a8aa dcb8 f41b 673c a6d1 72bb
-0.009173174 -0.00883203 -0.01087146 0.011580043 -0.010298579 -0.00019541076 0.0091997795 0.0033558228
0.007348671 0.011987997 0.008769103 -0.019858003 0.0022854276 -0.0063685626 -0.0005412006 0.008958084
0.009525571 -0.014670548 -0.015841767 0.012345364 0.012455234 -0.012821173 0.0039960328 -0.019057436
0.021106211 0.019812522 -0.008300436 -0.0039966265 0.016167771 -0.00010522205 0.014105786 -0.003705123

model.layer.0.weight f4 [256, 55]
00000000: 223e c4bc e8ec fbbd 4386 44be f609 193e
00000010: fd8d 3bbe 7701 763d 98ca 8aba 88d2 39bd
00000020: a9e5 e5bc 4ea4 b3bd 9325 b53d 0237 71bd
00000030: e2c6 88bd 7b47 133d d8cb a43c ff59 233e
00000040: fc5b 363d f2a4 1dbe adc2 6c3d e514 bfbd
00000050: 20db 373d a9e7 fc3d a9d6 9c3c 5677 70bc
00000060: 7da7 70bb ed3d 183c cb4c 16bd 17c3 b33d
00000070: 7ecc 2c3d 9e75 1ebd 1315 783c 2933 c63d
00000080: f5bc 64bd 1bd4 923b fb6e 863d 37c0 0c3d
00000090: 471f e53d 3b40 c83d 7f70 4e39 578e 5cbc
000000a0: 7428 59bd 59ef 20bb 350f da3d 160d 9fbd
000000b0: 880b d13d 4d11 58bb bbd9 103d 544b 81bc
000000c0: 7748 9abd 433b 5fbd f7c6 1d3d 853f c53d
000000d0: faf0 923d bb03 833c f01e 30bd daae e937
000000e0: 4c39 173e dee9 44bd 4dca d339 8ec9 213e
000000f0: 91c0 7c3c 76c8 8cbc 2a41 ebbd 8b0a debd
00000100: 60e8 093d c59a 08bd 2e82 babd 44be af3c
00000110: bd81 5fbc 64b5 98bd 224e 64bc 2004 033c
00000120: 8c9e 8e3c 1753 ef3c f85c b83d fbd5 da3d
00000130: 7664 61bb 5fce 213d 06cf ea3c ed03 01be
00000140: 5519 04bd 27c8 9abc 50d2 473d e6af 89bd
00000150: efda 043d c38e 7e3d 3351 62bd 2231 02bc
00000160: b550 0abc 3e9e 233d 272a 87b9 b741 6439
00000170: 468a 27bc be2b 9dbc 7864 d73d 0aaa ac3d
00000180: d4d9 903d 62b6 ba3d b78b 083e d99b cc3c
00000190: 607f 98bd aff9 67bc 481b 3bbc aba1 b9bd
000001a0: 3bca 403a 2083 5ebd 5312 453d 5be3 073a
000001b0: 4686 bab9 5ad7 84bd 1657 10bd b436 153e
000001c0: de98 f83d e4c6 5ebd b755 80bc b081 e63d
000001d0: 4a21 30bd a942 a4bd d3fa cdbc 60a0 94bd
000001e0: 88dc fdbc 9d87 10bd cbf6 fe3b 2139 18bd
000001f0: b357 ed3c c85e afbd 2733 c5bd 5412 12bc
00000200: 753b ee3b f394 0bbe 2626 bf3d d44b 17bd
00000210: a1b4 b6bd ce28 95bd b3ac 1fbe 1b9d 2f3e
00000220: 9694 bdbd 37a8 94bd 0b4b 5f3c 4c5a 7cbd
00000230: ccb2 0e3e d82f bfbc f506 27bd 4e9b ab3d
00000240: 3cea 683d 14c7 e4bd bd4f 5dbb 23aa 72bd
00000250: 56c0 e53d eb38 cbbd dd35 9f3b e95a a0bc
00000260: 86d5 09bd b2ab 7abb 1d1b 24bc 8418 aabd
00000270: f4e5 2d3e 22bf 07bd d00c 7dbb 8d00 4a3c
00000280: 05e6 fa3c 46bb 2fbd da65 eebd 60d9 32bd
00000290: d2c2 e83c 96e0 043e d9d6 ccbd 0cea 00bd
000002a0: 16f6 3cbe f057 1d3e 452a 0ebd f931 27bc
000002b0: 1154 c9bd 97af bbbc b8a6 d73d b619 48bd
000002c0: 18ef cf3c a184 ea3b 570c ac3d 45ea 95bd
000002d0: 24ce 733d b82b af3d dd67 adbb b53b b7bc
000002e0: 6db0 db3d 2bdc f93c 0032 e7bc 8a98 96bc
000002f0: 5c74 42bb 0c46 103d 04f4 49bd 829c 07bd
00000300: 38c5 bb3c 3d1d f93c d93f f03b 760a df3c
00000310: a786 09bb 087d babd 1e2c a7bc e918 c73c
00000320: 88b1 a7bd 4de7 82bc 20c5 3fbd 1e3d fbbc
00000330: 94ca 833d e21c 4dbc 94f3 31bd 65d6 dbba
00000340: 6527 183e ecdc 95bd a29a 8abb 4b3e e03d
00000350: c71c d53d ef10 9abd 067b b63c 503b dd3d
00000360: 991b a4bb 4a92 50bd f639 6a3c 22e8 29bd
00000370: 297c 48bd f295 233d bffc aebd 02e5 f6bc
00000380: e09c a53c 3d0d 1e3e 1124 18be ef22 073d
00000390: 9796 123d fe05 063e 91bb 0ebd 2754 903d
000003a0: ae1a 983c 33df 95bd 9578 913d d813 9a3b
000003b0: d323 8abd 915f 613d f0d4 433d e307 3ebd
000003c0: 180d 6dbd 8cab 18bd b7c3 45bd a17d 5a3d
000003d0: 6ea3 fabd 0f42 97bc 9d0d 88bb 9272 e93d
000003e0: 545c 9dbd 4036 8fbd cbc5 d03c 4b06 cbbd
000003f0: 999d 16be 2cea 163d eb2c a4bb 985e 5ebb
-0.023955408 -0.12301046 -0.19191842 0.14945206 -0.18315883 0.06005999 -0.0010588942 -0.045366794
-0.028063612 -0.08771573 0.08845057 -0.05889035 -0.06678559 0.03595684 0.020116732 0.159523
0.044521317 -0.15394953 0.057802845 -0.09330157 0.04488671 0.12348873 0.019145327 -0.014676889
-0.0036720925 0.009292108 -0.03669433 0.08777445 0.042187206 -0.038686387 0.015141743 0.09677727
-0.055844266 0.0044808513 0.065641366 0.034362998 0.11187606 0.09777876 0.00019687599 -0.013461671
-0.053017095 -0.0024556725 0.10647432 -0.07766168 0.102072775 -0.0032969296 0.035363894 -0.01578299
-0.07533353 -0.054499876 0.038519826 0.09631256 0.07174869 0.01599299 -0.042998254 2.7857186e-05
0.14767951 -0.048074596 0.00040395782 0.15799543 0.015426771 -0.017185431 -0.114870384 -0.10841855
0.033668876 -0.033350725 -0.09106861 0.02145303 -0.013641772 -0.074564725 -0.013934644 0.007996589
0.017409585 0.029214425 0.090021074 0.10685345 -0.0034392155 0.03950345 0.02866317 -0.12599154
-0.03225072 -0.018894268 0.048784554 -0.06723003 0.032435354 0.062147867 -0.05525322 -0.0079462845
-0.008442094 0.039945833 -0.00025780612 0.00021768255 -0.010225838 -0.019185897 0.1051721 0.0843087
0.070727974 0.09116818 0.13334547 0.024976658 -0.0744617 -0.01415865 -0.011420079 -0.09064039
0.00073543534 -0.05432427 0.04811318 0.000518372 -0.00035576726 -0.064863876 -0.0352393 0.14571649
0.12138532 -0.054388896 -0.015665872 0.11255205 -0.043000497 -0.08020527 -0.025144016 -0.072571516
-0.030988947 -0.03528558 0.007780885 -0.037163857 0.028972482 -0.08563 -0.09628897 -0.008915503
0.0072702714 -0.13631038 0.09333448 -0.03693755 -0.08921171 -0.072831735 -0.15593223 0.17149775
-0.09256856 -0.07258647 0.0136287315 -0.06160955 0.13935393 -0.023338243 -0.04077812 0.083792314
0.05686401 -0.11170784 -0.0033769452 -0.059244286 0.11218326 -0.099229656 0.004858716 -0.0195746
-0.033650897 -0.003824931 -0.01001623 -0.08305457 0.16982251 -0.033141263 -0.0038612373 0.012329233
0.03062726 -0.042903207 -0.116405204 -0.043664336 0.02841321 0.12976298 -0.100019164 -0.031473204
-0.1845325 0.15365577 -0.03470828 -0.0102047855 -0.098304875 -0.022910876 0.10529846 -0.048852645
0.025382563 0.007156924 0.08400791 -0.07320074 0.059522763 0.085532606 -0.0052919225 -0.022367338
0.1072701 0.030500492 -0.028222084 -0.018383283 -0.0029671406 0.035223052 -0.049304977 -0.03310824
0.02292119 0.03040945 0.00733183 0.027226668 -0.00209848 -0.09105879 -0.020406779 0.02430387
-0.08188158 -0.015979433 -0.046818852 -0.030668791 0.06435123 -0.012519093 -0.043445185 -0.0016772269
0.14858778 -0.07317528 -0.0042298594 0.109493814 0.104058795 -0.07522761 0.022275459 0.108023286
-0.0050081727 -0.050920762 0.0142960455 -0.041481145 -0.048946533 0.03993792 -0.08544301 -0.030138496
0.020216405 0.15434738 -0.14857508 0.0329923 0.035788145 0.13088223 -0.034846846 0.07047301
0.01856741 -0.073179625 0.07103077 0.0047020726 -0.06745114 0.05502278 0.047810495 -0.04639424
-0.057873815 -0.037272975 -0.04828235 0.053342465 -0.12238203 -0.018464116 -0.0041520135 0.11398806
-0.07683626 -0.06992769 0.02548494 -0.0991331 -0.14708556 0.036844417 -0.0050102375 -0.0033930894

model.layer.0.bias f4 [256]
00000000: fefa c93c 4588 a33c 5cce 933c daec b03b
00000010: 4e67 f6bb 1399 843c 31ad 8f3b 5188 6c3c
00000020: 8d6d 983c eca0 6c3c bdad 6e3b 975c 993c
00000030: 8b5e 0d3c 4642 223c b0f2 523c 2715 eb3c
00000040: 1ae9 9b3c 564a 063c 7314 be3c a299 903c
00000050: b038 2c39 f201 1b3c 6870 a83c aa70 dc3a
00000060: 13e2 563c 3011 5ebc 9233 ef3c e6e9 923c
00000070: e444 96b9 3696 563c ef64 963b 7ef6 3e3c
00000080: 9e30 ca3b 52ff 983c 41f2 7a3c 7f5c 1e3c
00000090: f67d 2839 a391 a93c 3805 c13c e26e 4e3c
000000a0: 431c d93b 8fc4 353c a15f 9c3c d8d1 2c3c
000000b0: fb5e 4d3c 3700 9e3c 959e 983c 711a 4dbc
000000c0: 3306 883c 067e 083d d254 4a3c 38d4 3d3c
000000d0: ec5a b43b bbd5 153c be23 dd3c df4a 9f3c
000000e0: 270c 663c 16db 843c 53b9 433b 5e79 7a3b
000000f0: cec6 3e3b 206e 903c 114c 1839 6292 923c
00000100: 3872 3c3c 45a9 d3bb 53dc ce3b 27fb fa3b
00000110: 1641 763c 567f 903c a3dd 0e3c 875a 343c
00000120: 4beb 9b3c 4f00 953c b984 7a3b 2fe6 4b3c
00000130: 34ee 9e3c fe1a bc3c eb6b 8f3c 159c 113c
00000140: aca4 d33a 7557 e23b eb40 7b3c 60a7 a43c
00000150: d064 923c d715 943b 1f99 613b ec04 453c
00000160: 5f45 903c 0a42 233a 6069 8cbc b97f 933c
00000170: dad9 88bc 10b2 d13b 5fe3 483c a868 fa3a
00000180: c86d 1c3c bf50 c63b a183 1d3c 76e4 da3c
00000190: 10da 9d3c 2a78 913c 2a3d 843b 8c7b c03c
000001a0: 2424 89bc 1397 f8bb 2c10 dd3c 4192 b83c
000001b0: e033 e03b 8848 0d3c cff0 1d3c a320 cdba
000001c0: d58d 6b3c caab 833c 95b3 4f3c 7f88 283c
000001d0: b1fa 903c 8aa5 f83b 47a1 413c 6c09 a93c
000001e0: 22e6 c53c f679 bebb e25a 4a3c dee7 8b3c
000001f0: de39 e63c 9bbd d53c 19e8 a03c ae8b 7d3b
00000200: ea39 9a3c b9fe 8b3b a233 3b39 200b 3d3b
00000210: 1b0a f53b 476c 9b3b ea31 953c 8e94 ce3c
00000220: cc65 3b3c 64d9 0d3d 8ea8 a83c 69e8 953c
00000230: 7720 473c 36c8 063c 6f3b a53b 6a92 c03c
00000240: 2b48 a53c 40dc 1aba fdcc a83c a9f3 a83c
00000250: 9b29 993c 0e7c 2f3c 1710 093c 5a08 e93c
00000260: ea58 9f3b f242 503c 9cf0 533c bb3c 703c
00000270: 0a58 703c edff 20bc b4e2 e03c 48dd 4ebb
00000280: 3985 b03c 70d1 8f3b 43ac 133c 42e3 bcbb
00000290: c7c0 c53c 894d 98bb 77f1 a53c cd8d 8e3c
000002a0: 3aa3 c3bb 2b62 0db9 4aa5 553c 6e4d 413c
000002b0: 9b57 4a3b fef9 ea3b 1f24 463c 514f aebb
000002c0: ea11 31bb d796 143c 7154 673b 5079 233b
000002d0: 0890 513c 9383 603c 1796 293c 0693 4a3c
000002e0: dc3f 653c 216f 4b3c 661d b53c 8798 1939
000002f0: ddb8 483c f44f 313c 1dfd 933c 113f 423c
00000300: 781f de3c 5c36 6e3c a7a4 973b a626 913c
00000310: a694 643c 58be 8d3c fbc6 963c bb20 9b3c
00000320: f353 ae3c cac2 a43c 3f31 eabc 5e35 a73c
00000330: 5319 113c 210a 023b fedf 623c daff 373c
00000340: cc90 d93c 738d 983c 2c2d a63b c7d6 ba3c
00000350: 0e20 a23c 2b91 9c3b 7c02 df3b 1316 b63c
00000360: 305a 5b3b 78b4 953c 6691 b73b 2b87 c6bb
00000370: 2d5d 223c 6daf 8d3c 68e9 833c fc57 b03c
00000380: a3e1 523c 4567 063c d872 0b3c dad9 0e3d
00000390: 31ac a93c d262 403c 8ca1 ba3b 2f2c 853c
000003a0: 15cb 963c 106d 603c 2158 05bb 4a2e 213c
000003b0: c1fe 203b 6e5e b43b d131 1f3c 838d 553c
000003c0: 0fd3 973c ef85 9e3c 6f9c cfbb 60cb 843b
000003d0: c686 01bc f89c 893c 4d8d 953b 1188 443b
000003e0: ff43 4c3c e136 4b3c e781 383c 945f 803c
000003f0: 2759 e63c 54ac 88bb 69a8 323c cf9e 1c3c
0.024655815 0.01996244 0.018042736 0.0053993287 -0.007519639 0.016186273 0.0043846597 0.014436797
0.018606925 0.014442664 0.0036419474 0.018720908 0.008628498 0.009903496 0.012875244 0.02869661
0.01903205 0.008196434 0.02320311 0.017651383 0.00016424316 0.009460913 0.020561412 0.0016818244
0.013115424 -0.0135539025 0.029199395 0.017933797 -0.00028661557 0.0130973365 0.004589669 0.011655448
0.0061703464 0.018676434 0.015316547 0.0096656075 0.00016068653 0.020699328 0.023562059 0.012599679
0.0066256835 0.0110942265 0.019088568 0.0105480775 0.012534852 0.019287212 0.018630305 -0.012518511
0.016604519 0.03332331 0.012349324 0.011586241 0.005504003 0.009145196 0.026994582 0.019444881
0.014040983 0.01621775 0.00298651 0.0038219313 0.0029110196 0.017630637 0.00014524187 0.017892066
0.011501841 -0.0064593875 0.006312886 0.007659334 0.015030166 0.017638844 0.0087198345 0.0110079115
0.019033095 0.018188624 0.0038226082 0.012445017 0.019400693 0.02296209 0.017507514 0.0088873105
0.0016147099 0.0069073983 0.015335302 0.020099342 0.017870337 0.004519205 0.0034423543 0.012025099
0.017611204 0.0006227797 -0.01714009 0.018005239 -0.016705442 0.0063994005 0.012261241 0.0019104676
0.009547658 0.006052106 0.009613902 0.026720267 0.01926902 0.017757494 0.0040356116 0.023496412
-0.016740866 -0.007586369 0.02698525 0.022530677 0.0068421215 0.00862325 0.009639933 -0.0015649985
0.014377077 0.016073126 0.012677093 0.010286449 0.017697664 0.007588093 0.011818237 0.020634376
0.024157587 -0.0058128787 0.01235077 0.017078336 0.028103765 0.026091387 0.019641923 0.0038687992
0.018826444 0.0042723087 0.00017852944 0.0028845742 0.0074780113 0.0047431323 0.018212277 0.02521732
0.0114378445 0.034631148 0.020588186 0.018299298 0.012153736 0.008226445 0.0050424854 0.023507316
0.020176014 -0.00059074536 0.020605559 0.020623999 0.018696597 0.010710729 0.0083656525 0.028446365
0.0048628943 0.0127112735 0.012935784 0.014662917 0.014669428 -0.009826642 0.02745185 -0.0031565
0.0215479 0.0043889806 0.009013238 -0.005764396 0.024139775 -0.004647915 0.020256741 0.0174016
-0.005970386 -0.00013483378 0.013039896 0.011798246 0.003087497 0.0071709147 0.012093573 -0.005319514
-0.0027018734 0.009069166 0.0035298134 0.0024944134 0.012790687 0.013703245 0.010350726 0.012364155
0.013992276 0.012416632 0.022108745 0.00014648038 0.012251106 0.010822285 0.01806503 0.0118558565
0.027114615 0.0145393275 0.0046277824 0.017718624 0.013951456 0.017302677 0.018405428 0.018936506
0.021280264 0.020112414 -0.028587935 0.02041119 0.008856135 0.0019842463 0.013847349 0.011230433
0.026558302 0.018622136 0.005071303 0.022807492 0.019790675 0.0047780476 0.006805716 0.022227323
0.0033470504 0.01827453 0.0056020496 -0.0060585937 0.00990991 0.017295564 0.016102508 0.02152633
0.012871179 0.008203332 0.008511268 0.03487573 0.02071199 0.011742311 0.0056955274 0.01625642
0.018407384 0.0136978775 -0.0020346718 0.009837696 0.0024565908 0.005504421 0.009716467 0.013034227
0.018533258 0.019350974 -0.006335787 0.0040525645 -0.007905668 0.016798481 0.0045639635 0.0029988328
0.012467383 0.012403221 0.01126144 0.015670575 0.028118683 -0.0041709337 0.01090441 0.009559347

model.layer.2.weight f4 [256, 256]
00000000: 0cd2 3d3d 8333 033d 107c 283d bfe1 73bc
00000010: 5901 bbbc 8dec d73b e339 593d af40 903d
00000020: 7a64 cc3b aacc 35bd 3762 52bc eb03 5cba
00000030: 6a65 55bd 438c 1bbc fd37 dc3c 0a37 ce3c
00000040: 26a5 84bb b151 2bbd 193f 6abd f631 e93c
00000050: c8f4 e93c 56cc 83bc f3ed ad3c cb3e a8bc
00000060: 97f6 e9b9 4e1e 9d3b 302d dd3c efbd 6bbd
00000070: bfa7 813d 1f80 42bd 1025 843c 216e cb3b
00000080: cbed cc3c 7d43 c93c 39ed 263d 1a86 00bc
00000090: 8ba9 733d 3b95 e4bb e784 26bc 1896 173d
000000a0: fce5 09bd 9384 3b3c 1427 e43c fc71 26bc
000000b0: 0444 fa3c b7e5 e73c b54e d4bc 96d4 5a3b
000000c0: 7a57 af3a b647 8fbd 37f8 b8bd 2278 dc3c
000000d0: 997c e83a 195b 783c 2b10 14ba e551 e13b
000000e0: c622 06bd 8ebf b43c 813d 163d bd4f 6fbc
000000f0: 3653 3f3d d5ae 5b3d 2d55 91bc dbd5 1f3c
00000100: 69cd 363d 71d5 8abd aeb2 8bbb 3e45 423d
00000110: f891 98bc ef31 0cbd 2d75 c83c e9e1 133c
00000120: f85e 253d 014b 04bd 936f 65bb 2ba3 f9bc
00000130: e181 31bd 27f5 c8bc 04cc 80bc 9820 8e3c
00000140: 08f2 7dbb 3249 48bd 68a3 e43c 233f 023c
00000150: 1100 163d 8a6e 063d 0cc4 f23c 9079 84bd
00000160: b8f8 023c 0f48 5b3c 304c 14bc 792e 233c
00000170: 6514 373d ef9c 01bd 96a8 683d dd76 003d
00000180: b62e b73c c8e4 ecbb a444 ea3c 814f 4d3d
00000190: 57d2 50bc 282a 1c3d c226 463b 60b5 b03c
000001a0: bd33 82bb 223a 503d 3394 c23c 333e 28bd
000001b0: c87c 4e3d bcc1 56bc 1eb0 3d3c cdb6 7abd
000001c0: 0ebe b53c 1aa5 16bd da14 173d 2e36 04bd
000001d0: c088 37bd e26f 1f3c e3ed 7b3d 008b 54bd
000001e0: 8ece 583c 0d77 8f3b 5f30 de3b 81f7 9bbd
000001f0: 3dc3 42ba ea7d 9d3c e68a 6d3d b8fc a33c
00000200: 70fc 1bbd b55c 15bc 4948 19ba a22c 083d
00000210: 6157 6b39 f989 8d3b ef45 aa3d e984 44bd
00000220: 1854 71bd 51eb 85bd 6b73 473d 72dd 2dbc
00000230: a3dd 013d 9101 4f3d 613f 963c 0b86 203d
00000240: 2555 e83c d4df bfba 2d90 183c 2e29 213d
00000250: 694e 15bd 390e d6bc 053b e5bc 97e8 92bb
00000260: 3812 b63c 6d1d 403b 6d33 a43b 360a 943b
00000270: 124f 743d b8c2 11bd 324e e33c 0e06 2fbd
00000280: f37f 56bd dff3 073d 45a0 2ebc 1840 0d3d
00000290: 5efd 09bd 8711 873c 0c9c 283c 1d77 ee3c
000002a0: acb5 fabc 2672 2ebd dcd0 1abc 24bb 45bd
000002b0: 65d3 25bd e604 1f3d a216 26bd 54a1 0cbd
000002c0: d681 bfb9 e1a7 3fbd c0ff b93c 0131 86bc
000002d0: e936 3c3d 2671 d8bc 04bc 213d 4723 cf3b
000002e0: 8f90 aebc 68a4 2e3c 05f7 29bd 4b53 e9bb
000002f0: 537a c7bc 56d6 3cbd c022 b03c ec81 493d
00000300: 23de 9b3c 0499 edbb 02a9 e2bd e5c6 52bd
00000310: 3a36 693d d530 d43d 1723 81bb a8be 6abc
00000320: d53a c83c 0433 8bbc 8d77 61bb 2035 d8bc
00000330: 21f7 603c ef6c 673d e3be fd3b f18b 073d
00000340: c9cb 9c3c 09ab 903c 82e2 95bc a914 0bbd
00000350: 92a0 2d3d 53ac 603d 9b8d 87bd aedf 8b3b
00000360: e36f a83d 0973 b9bc f47c 7cbc a758 453d
00000370: 895c 11bd e611 023d 4db0 00bd 0695 413c
00000380: 6169 34bc 52da 083c dfbd 92ba a6d6 933c
00000390: 6626 2a3d 301b 8c3c 61c4 cdbb 69b1 64bd
000003a0: b4ab 343d 5234 c8bb caea adba 65e0 e6bc
000003b0: c1dd 3f3c 9f5b fa3b bf0b bc3d 7e39 c43c
000003c0: 1f8a bdbc ec94 203c b002 9fbb cb32 0cbd
000003d0: f3c2 17bb 0a42 b53d dacd 2ebd c925 e6bb
000003e0: bea9 833d b8bf 3b3c 3f51 773d 930b 073d
000003f0: 4c14 0ebd 3a8b cfbc d123 523b 4426 45bd
0.046342894 0.032031547 0.04113394 -0.014885365 -0.022827791 0.0065894783 0.05303372 0.070435874
0.0062375637 -0.044384636 -0.012840799 -0.0008392918 -0.05209867 -0.00949389 0.026882166 0.025172729
-0.0040480075 -0.041825954 -0.05718908 0.028466206 0.028559104 -0.016088646 0.021231627 -0.020537755
-0.00044624947 0.0047948724 0.026999086 -0.05755418 0.06330823 -0.047485467 0.016130954 0.0062081967
0.025015732 0.024568314 0.040753577 -0.007844472 0.05948786 -0.0069757975 -0.010163522 0.037008375
-0.033666596 0.011445182 0.027850665 -0.010159012 0.03055001 0.028307779 -0.025916437 0.0033390871
0.001337751 -0.069961 -0.09031718 0.026912753 0.0017737328 0.015158438 -0.0005648161 0.0068762177
-0.032748006 0.022063997 0.03667975 -0.014606413 0.046710216 0.05363353 -0.01774081 0.009755577
0.04462949 -0.06778992 -0.0042632436 0.047429316 -0.01862429 -0.034227308 0.024469936 0.009026029
0.040373772 -0.03229809 -0.003500913 -0.030473312 -0.043336753 -0.02453096 -0.015722282 0.017349526
-0.0038748998 -0.04889793 0.02790995 0.007949623 0.036621157 0.032820262 0.029634498 -0.06468499
0.0079938695 0.013383879 -0.009051368 0.00995981 0.044697184 -0.031643804 0.0568014 0.031363357
0.02236114 -0.0072294213 0.028597184 0.05012465 -0.012745461 0.03812614 0.0030235504 0.021570861
-0.003973453 0.05083669 0.023752308 -0.041074943 0.05041197 -0.013107713 0.011577634 -0.06120949
0.022185352 -0.036778547 0.03688512 -0.032278232 -0.04480815 0.009731265 0.061506163 -0.051890373
0.01323284 0.0043782056 0.0067806686 -0.07615567 -0.00074296055 0.01922508 0.057993792 0.020017967
-0.03808254 -0.009116341 -0.0005847258 0.03324569 0.00022443898 0.004319426 0.0831412 -0.047978316
-0.05891809 -0.06539024 0.048694056 -0.010611879 0.03170551 0.050538603 0.018340768 0.039190333
0.028360913 -0.001463885 0.009311718 0.039345913 -0.03645173 -0.026129829 -0.027982244 -0.0044832933
0.022225484 0.0029314414 0.0050110132 0.004517819 0.05964572 -0.03558609 0.027747247 -0.042730384
-0.052368116 0.033191558 -0.010658328 0.034484953 -0.033688895 0.01648785 0.010291111 0.029109532
-0.030604206 -0.04258933 -0.00944921 -0.048274174 -0.040484805 0.03882303 -0.040548928 -0.034333542
-0.00036527094 -0.04679096 0.022704959 -0.016380789 0.045950804 -0.02642114 0.039485946 0.006321344
-0.021309165 0.010659315 -0.04149534 -0.007120525 -0.02435032 -0.046102844 0.021500945 0.04919617
0.019026821 -0.007250907 -0.11067392 -0.05145921 0.05693648 0.103608765 -0.0039409506 -0.014327683
0.024442116 -0.0169921 -0.0034403533 -0.02639252 0.013730795 0.05650037 0.0077437027 0.033092443
0.019140141 0.01765968 -0.018296484 -0.03395525 0.04238946 0.05485184 -0.06618806 0.004268608
0.08224466 -0.02263786 -0.0154106505 0.04818025 -0.03548864 0.03175535 -0.031418134 0.011815315
-0.011011452 0.008352833 -0.0011195502 0.018046688 0.041540526 0.017102808 -0.0062795137 -0.055833254
0.04410906 -0.0061097527 -0.0013268825 -0.028183172 0.011710585 0.0076403166 0.09181928 0.023953196
-0.02313715 0.009801131 -0.0048526153 -0.034228127 -0.002315697 0.088504866 -0.042676784 -0.0070235473
0.0642886 0.0114592835 0.060380217 0.032970022 -0.034687325 -0.025334943 0.0032064805 -0.048132196
