results/qvpo_HalfCheetah-v3/actor_25_04_22_02_09_24_0.pth (torch, 667057 bytes, 24 tensors)

betas f4 [50]
000000 4f 28 82 3b e9 92 01 3c 6a d0 41 3c 76 e6 80 3c
       0.0039720903 0.007908561 0.011829475 0.015734892
000010 59 c4 a0 3c fd 81 c0 3c 85 1f e0 3c 10 9d ff 3c
       0.019624876 0.023499483 0.02735878 0.031202823
000020 5f 7d 0f 3d 58 1c 1f 3d 84 ab 2e 3d f1 2a 3e 3d
       0.035031673 0.03884539 0.04264404 0.04642767
000030 b0 9a 4d 3d d1 fa 5c 3d 64 4b 6c 3d 78 8c 7b 3d
       0.05019635 0.053950135 0.057689086 0.06141326
000040 0e 5f 85 3d 31 f0 8c 3d ac 79 94 3d 87 fb 9b 3d
       0.06512271 0.068817504 0.072497696 0.076163344
000050 c9 75 a3 3d 7b e8 aa 3d a3 53 b2 3d 4a b7 b9 3d
       0.0798145 0.083451234 0.08707359 0.09068163
000060 77 13 c1 3d 32 68 c8 3d 82 b5 cf 3d 6e fb d6 3d
       0.09427541 0.09785499 0.10142042 0.10497175
000070 ff 39 de 3d 3b 71 e5 3d 2b a1 ec 3d d5 c9 f3 3d
       0.108509056 0.112032376 0.11554178 0.11903731
000080 41 eb fa 3d bb 02 01 3e 3d 8c 04 3e 2c 12 08 3e
       0.12251902 0.12598698 0.12944122 0.13288182
000090 8a 94 0b 3e 5b 13 0f 3e a2 8e 12 3e 64 06 16 3e
       0.13630882 0.13972227 0.14312223 0.14650875
0000a0 a4 7a 19 3e 65 eb 1c 3e ab 58 20 3e 7a c2 23 3e
       0.1498819 0.15324171 0.15658824 0.15992156
0000b0 d4 28 27 3e be 8b 2a 3e 3a eb 2d 3e 4d 47 31 3e
       0.16324168 0.1665487 0.16984263 0.17312355
0000c0 fa 9f 34 3e 44 f5 37 3e
       0.17639151 0.17964655

alphas_cumprod f4 [50]
000000 af fb 7e 3f 72 f7 7c 3f 60 f9 79 3f 72 0a 76 3f
       0.9960279 0.9881507 0.9764614 0.9610969
000010 58 36 71 3f 3e 8b 6b 3f 87 19 65 3f 80 f3 5d 3f
       0.94223547 0.9200934 0.89492077 0.86699677
000020 04 2d 56 3f 29 db 4d 3f db 13 45 3f 7e ed 3b 3f
       0.8366244 0.80412537 0.7698342 0.7340926
000030 93 7e 32 3f 58 dd 28 3f 7c 1f 1f 3f c9 59 15 3f
       0.69724387 0.65962744 0.62157416 0.58340126
000040 e5 9f 0b 3f 17 04 02 3f 24 2e f1 3e a7 cf de 3e
       0.54540855 0.5078749 0.47105515 0.435178
000050 0f 07 cd 3e f3 ea bb 3e 1b 8e ab 3e 8b ff 9b 3e
       0.40044448 0.3670269 0.33506855 0.304684
000060 9a 4a 8d 3e 42 ee 7e 3e 56 13 65 3e 71 07 4d 3e
       0.2759598 0.24895576 0.22370657 0.2002237
000070 14 c8 36 3e da 4d 22 3e 1c 8d 0f 3e 2f ed fc 3d
       0.17849761 0.1585001 0.14018673 0.12349927
000080 2e f0 dd 3d 14 fa c1 3d 47 de a8 3d c2 6d 92 3d
       0.10836826 0.09471527 0.08245521 0.07149841
000090 3e f0 7c 3d e9 98 59 3d 4d 74 3a 3d 1a 23 1f 3d
       0.06175255 0.053124342 0.04552107 0.038851835
0000a0 0c 49 07 3d a4 1b e5 3c 7c 3b c1 3c 91 54 a2 3c
       0.033028647 0.027967282 0.023587935 0.019815715
0000b0 ce d4 87 3c e0 6a 62 3c 4f f6 3b 3c e6 6b 1b 3c
       0.016580965 0.013819426 0.011472299 0.009486174
0000c0 a7 01 00 3c 64 05 d2 3b
       0.007812894 0.006409334

alphas_cumprod_prev f4 [50]
000000 00 00 80 3f af fb 7e 3f 72 f7 7c 3f 60 f9 79 3f
       1.0 0.9960279 0.9881507 0.9764614
000010 72 0a 76 3f 58 36 71 3f 3e 8b 6b 3f 87 19 65 3f
       0.9610969 0.94223547 0.9200934 0.89492077
000020 80 f3 5d 3f 04 2d 56 3f 29 db 4d 3f db 13 45 3f
       0.86699677 0.8366244 0.80412537 0.7698342
000030 7e ed 3b 3f 93 7e 32 3f 58 dd 28 3f 7c 1f 1f 3f
       0.7340926 0.69724387 0.65962744 0.62157416
000040 c9 59 15 3f e5 9f 0b 3f 17 04 02 3f 24 2e f1 3e
       0.58340126 0.54540855 0.5078749 0.47105515
000050 a7 cf de 3e 0f 07 cd 3e f3 ea bb 3e 1b 8e ab 3e
       0.435178 0.40044448 0.3670269 0.33506855
000060 8b ff 9b 3e 9a 4a 8d 3e 42 ee 7e 3e 56 13 65 3e
       0.304684 0.2759598 0.24895576 0.22370657
000070 71 07 4d 3e 14 c8 36 3e da 4d 22 3e 1c 8d 0f 3e
       0.2002237 0.17849761 0.1585001 0.14018673
000080 2f ed fc 3d 2e f0 dd 3d 14 fa c1 3d 47 de a8 3d
       0.12349927 0.10836826 0.09471527 0.08245521
000090 c2 6d 92 3d 3e f0 7c 3d e9 98 59 3d 4d 74 3a 3d
       0.07149841 0.06175255 0.053124342 0.04552107
0000a0 1a 23 1f 3d 0c 49 07 3d a4 1b e5 3c 7c 3b c1 3c
       0.038851835 0.033028647 0.027967282 0.023587935
0000b0 91 54 a2 3c ce d4 87 3c e0 6a 62 3c 4f f6 3b 3c
       0.019815715 0.016580965 0.013819426 0.011472299
0000c0 e6 6b 1b 3c a7 01 00 3c
       0.009486174 0.007812894

sqrt_alphas_cumprod f4 [50]
000000 b7 7d 7f 3f 91 7a 7e 3f 18 f8 7c 3f 94 f8 7a 3f
       0.998012 0.9940577 0.9881606 0.9803555
000010 05 7f 78 3f 1d 8f 75 3f 39 2d 72 3f 51 5e 6e 3f
       0.97068816 0.959215 0.94600254 0.93112665
000020 ed 27 6a 3f 1f 90 65 3f 6b 9d 60 3f b9 56 5b 3f
       0.9146717 0.89673036 0.877402 0.85679203
000030 4d c3 55 3f ab ea 4f 3f 91 d4 49 3f dc 88 43 3f
       0.8350113 0.8121745 0.78839976 0.76380706
000040 81 0f 3d 3f 75 70 36 3f 9f b3 2f 3f ce e0 28 3f
       0.7385178 0.71265346 0.68633455 0.65968025
000050 a1 ff 21 3f 82 17 1b 3f 95 2f 14 3f b0 4e 0d 3f
       0.63280684 0.60582745 0.57885104 0.5519819
000060 4a 7b 06 3f fd 76 ff 3e f3 29 f2 3e f4 19 e5 3e
       0.52531874 0.49895468 0.4729763 0.44746363
000070 95 50 d8 3e 7b d6 cb 3e 59 b3 bf 3e ee ed b3 3e
       0.4224898 0.39812073 0.3744152 0.35142463
000080 08 8c a8 3e 84 92 9d 3e 58 05 93 3e 96 e7 88 3e
       0.32919335 0.30775845 0.28715014 0.26739186
000090 f2 76 7e 3e d5 04 6c 3e 2c 7a 5a 3e dc d6 49 3e
       0.24850062 0.23048718 0.21335667 0.19710869
0000a0 7d 19 3a 3e 72 3f 2b 3e 08 45 1d 3e 91 25 10 3e
       0.18173786 0.16723421 0.15358365 0.1407683
0000b0 86 db 03 3e 3b c1 f0 3d de 5b db 3d 13 78 c7 3d
       0.1287671 0.11755606 0.10710882 0.09739699
0000c0 1e 06 b5 3d 9d f5 a3 3d
       0.088390574 0.080058314

sqrt_one_minus_alphas_cumprod f4 [50]
000000 18 13 81 3d 11 ef de 3d e5 1a 1d 3e f3 f8 49 3e
       0.0630247 0.10885442 0.1534229 0.19723873
000010 5a 1c 76 3e 1c bb 90 3e 34 f8 a5 3e 72 b9 ba 3e
       0.24034253 0.28267753 0.32415926 0.3646961
000020 fa f2 ce 3e 7d 99 e2 3e 93 a2 f5 3e 6e 02 04 3f
       0.4041975 0.44257727 0.47975597 0.5156621
000030 0e dc 0c 3f a8 5a 15 3f 57 7b 1d 3f dc 3b 25 3f
       0.55023277 0.58341455 0.61516327 0.64544463
000040 99 9a 2c 3f 92 96 33 3f 6a 2f 3a 3f 58 65 40 3f
       0.674234 0.7015163 0.727286 0.7515464
000050 29 39 46 3f 2f ac 4b 3f 3c c0 50 3f 97 77 55 3f
       0.7743097 0.79559606 0.81543326 0.83385605
000060 f2 d4 59 3f 57 db 5d 3f 24 8e 61 3f fc f0 64 3f
       0.85090554 0.8666281 0.88107514 0.8943021
000070 b6 07 68 3f 57 d6 6a 3f fd 60 6d 3f dd ab 6f 3f
       0.90636766 0.91733307 0.9272612 0.9362162
000080 31 bb 71 3f 2e 93 73 3f fd 37 75 3f b2 ad 76 3f
       0.94426256 0.95146453 0.95788556 0.9635879
000090 40 f8 77 3f 78 1b 79 3f fe 1a 7a 3f 4a fa 7a 3f
       0.96863174 0.9730754 0.97697437 0.9803816
0000a0 a1 bc 7b 3f 12 65 7c 3f 75 f6 7c 3f 6e 73 7d 3f
       0.983347 0.9859172 0.98813564 0.99004257
0000b0 68 de 7d 3f 97 39 7e 3f fe 86 7e 3f 6b c8 7e 3f
       0.9916749 0.99306625 0.9942473 0.99524564
0000c0 7c ff 7e 3f a4 2d 7f 3f
       0.9960859 0.9967902

log_one_minus_alphas_cumprod f4 [50]
000000 1f e9 b0 c0 84 ef 8d c0 7c f1 6f c0 9f c9 4f c0
       -5.528457 -4.4354877 -3.749114 -3.246681
000010 04 7d 36 c0 ae b8 21 c0 d1 31 10 c0 c9 1c 01 c0
       -2.8513803 -2.526897 -2.2530406 -2.017382
000020 e5 e5 e7 bf 08 ad d0 bf bb 06 bc bf ba 8c a9 bf
       -1.8117033 -1.6302805 -1.4689554 -1.3246071
000030 1d f0 98 bf 8c f2 89 bf a3 c3 78 bf 68 29 60 bf
       -1.1948277 -1.0777144 -0.9717352 -0.8756318
000040 b6 d1 49 bf 7d 82 35 bf fc 09 23 bf 18 3d 12 bf
       -0.7883562 -0.70902234 -0.6368711 -0.5712447
000050 0a f6 02 bf d1 26 ea be bb ee d0 be 1d 0e ba be
       -0.51156676 -0.4573274 -0.40807137 -0.36338893
000060 3e 54 a5 be b1 94 92 be ac a6 81 be 0d c9 64 be
       -0.32290834 -0.28629068 -0.25322473 -0.2234232
000070 de 56 49 be 05 b6 30 be 3d aa 1a be 3b fb 06 be
       -0.19662043 -0.17256935 -0.15104003 -0.13181774
000080 ef e8 ea bd a9 c9 cb bd 06 3d b0 bd 58 ed 97 bd
       -0.1147021 -0.09950573 -0.08605389 -0.074183166
000090 f0 8a 82 bd 2b 97 5f bd dd d4 3e bd a3 4f 22 bd
       -0.063741565 -0.054587524 -0.04658972 -0.03962673
0000a0 eb 91 09 bd 68 5f e8 bc 42 8c c3 bc e2 f5 a3 bc
       -0.033586424 -0.028365806 -0.023870591 -0.020014707
0000b0 42 f8 88 bc 3d ff 63 bc 64 0c 3d bc ec 29 1c bc
       -0.016719941 -0.013915834 -0.011538599 -0.009531479
0000c0 6f 82 00 bc 8a b2 d2 bb
       -0.007843598 -0.006429975

sqrt_recip_alphas_cumprod f4 [50]
000000 46 41 80 3f e1 c3 80 3f 9a 88 81 3f 9d 90 82 3f
       1.001992 1.0059777 1.0119812 1.0200382
000010 7f dd 83 3f 44 71 85 3f 63 4e 87 3f c7 77 89 3f
       1.030197 1.0425191 1.0570797 1.0739678
000020 df f0 8b 3f a4 bd 8e 3f 9f e2 91 3f fd 64 95 3f
       1.0932883 1.1151624 1.1397284 1.1671444
000030 95 4a 99 3f 02 9a 9d 3f ac 5a a2 3f e2 94 a7 3f
       1.1975886 1.2312624 1.2683921 1.309231
000040 f4 51 ad 3f 46 9c b3 3f 7a 7f ba 3f 8d 08 c2 3f
       1.3540635 1.4032066 1.4570153 1.515886
000050 ff 45 ca 3f 02 48 d3 3f b0 20 dd 3f 44 e4 e7 3f
       1.5802611 1.650635 1.72756 1.8116536
000060 5d a9 f3 3f a7 44 00 40 37 50 07 40 44 07 0f 40
       1.903606 2.0041902 2.114271 2.2348185
000070 a3 7b 17 40 59 c1 20 40 e9 ee 2a 40 a9 1d 36 40
       2.3669212 2.511801 2.670832 2.8455603
000080 24 6a 42 40 8e f4 4f 40 42 e1 5e 40 5e 59 6f 40
       3.0377283 3.2493014 3.4824986 3.7398295
000090 b7 c5 80 40 1b d6 8a 40 cd fb 95 40 d3 58 a2 40
       4.024135 4.338636 4.6869874 5.073343
0000a0 ea 13 b0 40 31 59 bf 40 04 5b d0 40 eb 52 e3 40
       5.502431 5.9796376 6.5111103 7.103872
0000b0 bd 82 f8 40 f3 1a 08 41 7b 61 15 41 b0 46 24 41
       7.7659593 8.506579 9.336299 10.267258
0000c0 c8 03 35 41 b4 da 47 41
       11.313423 12.490894

sqrt_recipm1_alphas_cumprod f4 [50]
000000 ba 54 81 3d 3f 44 e0 3d c8 fc 1e 3e 0d 05 4e 3e
       0.063149884 0.10950517 0.15526116 0.20119114
000010 eb 8a 7d 3e 7b e2 96 3e 69 71 af 3e 37 89 c8 3e
       0.24760024 0.29469666 0.34266213 0.39167187
000020 4b 41 e2 3e fe b1 fc 3e 87 fa 0b 3f fc 12 1a 3f
       0.4419044 0.49354547 0.5467915 0.6018522
000030 1c b1 28 3f e7 e4 37 3f a9 bf 47 3f 49 54 58 3f
       0.6589525 0.7183365 0.78026825 0.8450361
000040 76 b7 69 3f d3 ff 7b 3f 29 a3 87 3f 3a d3 91 3f
       0.91295564 0.9843723 1.0596668 1.1392586
000050 4d 9f 9c 3f 35 18 a8 3f 9c 50 b4 3f 41 5d c1 3f
       1.2236115 1.3132387 1.40871 1.5106584
000060 3f 55 cf 3f 54 52 de 3f 43 71 ee 3f 39 d2 ff 3f
       1.619789 1.7368875 1.8628315 1.998603
000070 9c 4c 09 40 53 77 13 40 f0 7f 1e 40 f4 7f 2a 40
       2.1453009 2.304158 2.4765587 2.6640596
000080 14 94 37 40 b1 dc 45 40 53 7e 55 40 46 a2 66 40
       2.868413 3.091595 3.3358352 3.6036544
000090 46 77 79 40 26 19 87 40 b7 87 92 40 79 29 9f 40
       3.8979049 4.22182 4.5790668 4.9738126
0000a0 44 25 ad 40 57 a7 bc 40 2e e2 cd 40 72 0f e1 40
       5.410799 5.895427 6.43386 7.0331354
0000b0 1a 71 f6 40 5c 29 07 41 7e 85 14 41 be 7e 23 41
       7.7013063 8.4475975 9.282591 10.218443
0000c0 67 4e 34 41 7b 36 47 41
       11.269141 12.450801

posterior_variance f4 [50]
000000 00 00 00 00 2a be 2d 3b a2 21 c3 3b e0 fb 1b 3c
       0.0 0.0026511052 0.005954937 0.009520501
000010 c2 8b 58 3c fd 29 8b 3c b6 6e aa 3c 90 f2 c9 3c
       0.013216915 0.016987795 0.020804744 0.024651796
000020 e4 a0 e9 3c 23 b6 04 3d 98 a5 14 3d 48 9b 24 3d
       0.028519101 0.03240026 0.036290735 0.04018715
000030 79 94 34 3d de 8e 44 3d 92 88 54 3d d3 7f 64 3d
       0.044086907 0.04798781 0.051888056 0.055785965
000040 10 73 74 3d 69 30 82 3d d3 23 8a 3d 1b 13 92 3d
       0.059680045 0.0635689 0.06745114 0.0713255
000050 92 fd 99 3d 95 e2 a1 3d 80 c1 a9 3d b3 99 b1 3d
       0.07519068 0.07904545 0.0828886 0.08671894
000060 91 6a b9 3d 89 33 c1 3d 07 f4 c8 3d 7d ab d0 3d
       0.09053529 0.09433658 0.098121695 0.10188959
000070 70 59 d8 3d 63 fd df 3d ec 96 e7 3d a1 25 ef 3d
       0.10563934 0.109370016 0.11308083 0.11677099
000080 2e a9 f6 3d 46 21 fe 3d d8 c6 02 3e 1c 77 06 3e
       0.12043987 0.1240869 0.12771165 0.13131374
000090 60 21 0a 3e 99 c5 0d 3e c4 63 11 3e e5 fb 14 3e
       0.13489294 0.13844909 0.14198214 0.14549215
0000a0 07 8e 18 3e 38 1a 1c 3e 8f a0 1f 3e 24 21 23 3e
       0.14897929 0.15244377 0.15588592 0.15930611
0000b0 11 9c 26 3e 7d 11 2a 3e 83 81 2d 3e 4e ec 30 3e
       0.16270472 0.16608234 0.16943936 0.17277643
0000c0 ff 51 34 3e bd b2 37 3e
       0.17609404 0.17939277

posterior_log_variance_clipped f4 [50]
000000 f1 34 38 c2 53 d9 bd c0 ff f3 a3 c0 17 f0 94 c0
       -46.0517 -5.932779 -5.1235347 -4.654308
000010 b4 70 8a c0 88 68 82 c0 42 d8 77 c0 68 fc 6c c0
       -4.3262577 -4.07526 -3.8725743 -3.7029057
000020 db a8 63 c0 62 7e 5b c0 81 3c 54 c0 96 b5 4d c0
       -3.5571811 -3.4295888 -3.3161929 -3.2142081
000030 2c c8 47 c0 11 5b 42 c0 cb 5a 3d c0 0a b8 38 c0
       -3.1215925 -3.0368083 -2.9586666 -2.8862329
000040 86 66 34 c0 42 5c 30 c0 07 91 2c c0 f9 fd 28 c0
       -2.8187575 -2.755631 -2.6963518 -2.6405013
000050 56 9d 25 c0 34 6a 22 c0 62 60 1f c0 3d 7c 1c c0
       -2.587728 -2.5377321 -2.4902577 -2.445083
000060 a0 ba 19 c0 c3 18 17 c0 39 94 14 c0 da 2a 12 c0
       -2.4020157 -2.3608863 -2.3215468 -2.2838655
000070 b8 da 0f c0 18 a2 0d c0 6d 7f 0b c0 4e 71 09 c0
       -2.2477245 -2.2130184 -2.1796525 -2.1475406
000080 73 76 07 c0 b1 8d 05 c0 f3 b5 03 c0 3d ee 01 c0
       -2.1166046 -2.0867732 -2.0579803 -2.030166
000090 a4 35 00 c0 9d 16 fd bf e8 dc f9 bf af bc f6 bf
       -2.003274 -1.9772526 -1.952054 -1.9276332
0000a0 91 b4 f3 bf 48 c3 f0 bf 9e e7 ed bf 72 20 eb bf
       -1.903948 -1.8809595 -1.8586309 -1.8369277
0000b0 bc 6c e8 bf 76 cb e5 bf ba 3b e3 bf a4 bc e0 bf
       -1.8158183 -1.7952716 -1.7752602 -1.7557569
0000c0 67 4d de bf 3e ed db bf
       -1.7367371 -1.7181776

posterior_mean_coef1 f4 [50]
000000 a0 ff 7f 3f b3 85 2a 3f ae c7 ff 3e 31 a2 cc 3e
       0.9999943 0.6661026 0.4995703 0.39967492
000010 86 87 aa 3e b1 28 92 3e ff bc 7f 3e b0 42 63 3e
       0.3330652 0.2854667 0.2497444 0.22193408
000020 9f 72 4c 3e bf bf 39 3e 22 21 2a 3e 31 df 1c 3e
       0.199656 0.18139552 0.16614202 0.15319516
000030 b4 76 11 3e 45 87 07 3e 12 91 fd 3d 20 06 ee 3d
       0.14205438 0.13235195 0.123811856 0.11622262
000040 5a 17 e0 3d 7f 80 d3 3d dd 0a c8 3d 2b 8a bd 3d
       0.10941954 0.10327243 0.09767697 0.09254869
000050 2c da b3 3d fe dc aa 3d c9 79 a2 3d d3 9b 9a 3d
       0.08781847 0.08342932 0.07933385 0.07549252
000060 b3 31 93 3d c6 2c 8c 3d bb 80 85 3d 55 46 7e 3d
       0.07187214 0.06844477 0.06518694 0.062078793
000070 c2 16 72 3d 1d 64 66 3d 4a 22 5b 3d 45 47 50 3d
       0.059103735 0.05624782 0.053499497 0.050849218
000080 ec ca 45 3d b8 a6 3b 3d 8d d5 31 3d 87 53 28 3d
       0.048289225 0.045813292 0.04341655 0.041095283
000090 c6 1d 1f 3d 54 32 16 3d f0 8f 0d 3d f7 35 05 3d
       0.038846754 0.03666909 0.034561098 0.032522168
0000a0 70 48 fa 3c bd b5 ea 3c a1 b4 db 3c 2d 46 cd 3c
       0.030552119 0.028651113 0.026819529 0.025057876
0000b0 84 6b bf 3c c1 25 b2 3c be 75 a5 3c 0b 5c 99 3c
       0.023366697 0.021746518 0.020197745 0.018720647
0000c0 c9 d8 8d 3c 9e eb 82 3c
       0.017315285 0.015981492

posterior_mean_coef2 f4 [50]
000000 00 00 00 00 d3 f3 aa 3e ff 1a 00 3f ca ab 19 3f
       0.0 0.33389148 0.5004119 0.60027754
000010 ca b5 2a 3f 0f e0 36 3f d2 fd 3f 3f 8a 12 47 3f
       0.6668364 0.71435636 0.74996674 0.77762663
000020 ab b9 4c 3f 3a 56 51 3f 04 2a 55 3f 8e 62 58 3f
       0.79970807 0.81772196 0.83267236 0.8452538
000030 51 20 5b 3f fe 7a 5d 3f 64 84 5f 3f fd 49 61 3f
       0.85596186 0.86515796 0.8731139 0.8800352
000040 47 d6 62 3f 85 31 64 3f 3b 62 65 3f b9 6d 66 3f
       0.8860821 0.8913806 0.8960301 0.90011173
000050 49 58 67 3f 7a 25 68 3f 3a d8 68 3f 06 73 69 3f
       0.9036909 0.90682185 0.90954936 0.91191137
000060 f5 f7 69 3f d7 68 6a 3f 3d c7 6a 3f 7c 14 6b 3f
       0.9139398 0.9156622 0.91710263 0.9182813
000070 d2 51 6b 3f 54 80 6b 3f 00 a1 6b 3f ba b4 6b 3f
       0.9192172 0.9199269 0.9204254 0.9207264
000080 5f bc 6b 3f b5 b8 6b 3f 7f aa 6b 3f 70 92 6b 3f
       0.92084306 0.92078716 0.9205703 0.9202032
000090 3b 71 6b 3f 82 47 6b 3f ea 15 6b 3f 0d dd 6a 3f
       0.9196965 0.9190599 0.91830313 0.91743547
0000a0 83 9d 6a 3f dd 57 6a 3f a6 0c 6a 3f 60 bc 69 3f
       0.91646594 0.9154032 0.9142555 0.9130306
0000b0 89 67 69 3f 9b 0e 69 3f 04 b2 68 3f 32 52 68 3f
       0.9117361 0.9103791 0.9089663 0.9075042
0000c0 81 ef 67 3f 4f 8a 67 3f
       0.9059983 0.9044542

model.time_mlp.1.weight f4 [256, 32]
000000 ea 94 6d bd 69 c2 27 3e 13 6e f4 bb 03 67 7a bd
       -0.058003344 0.16382755 -0.007459411 -0.061133396
000010 0b 1f ea 3c 0e 0b 87 bd 06 4f 93 bd a8 8a e9 bd
       0.028579256 -0.065939054 -0.07192807 -0.114034
000020 e9 1f 5b 3e 3a cb 5b 3e 7f 39 09 3d 94 c1 05 bc
       0.21398892 0.21464244 0.0335021 -0.008163828
000030 de e6 2c 3d b0 10 c6 3d a9 e2 21 bd 84 69 a6 bd
       0.04221236 0.09671152 -0.0395228 -0.08125594
000040 22 a5 cf bd 71 89 80 3d 2a 2c 23 bc 05 60 4b 3d
       -0.101389185 0.06276215 -0.00995926 0.04965212
000050 61 c8 3c be 1f 34 26 3d 68 28 49 be a3 04 04 be
       -0.18435813 0.04057705 -0.1964432 -0.12892394
000060 ff e1 9d 3d af 3d 52 bc 8b dd 73 be 65 84 8c 3c
       0.07709121 -0.012832089 -0.2381498 0.017152974
000070 1c 57 a1 bd 8d 7f 94 bd 3d 51 af bc d1 35 fa 3d
       -0.07877943 -0.07250891 -0.021401042 0.12217296
000080 57 ec 80 bd 6e fd 51 bd 0b b3 62 3d bf 19 0c 3e
       -0.06295078 -0.05126708 0.05534653 0.13681696
000090 02 02 ca bd c4 c5 36 3c 8e b0 ae 3c 86 dc 87 3d
       -0.09863664 0.011155549 0.021324422 0.066338584
0000a0 cb 6c fe 3d 77 db 2a be 9c 85 6e bd b1 48 8f 3c
       0.12423094 -0.16685282 -0.05823289 0.017490717
0000b0 a3 4f 06 3e 80 31 98 bd 33 e0 85 bd ab 80 e4 bd
       0.13116316 -0.074313164 -0.06536903 -0.11157354
0000c0 0e 4b a8 3d 77 6c 00 3e 71 04 28 bc ff fc 24 be
       0.082174405 0.12541376 -0.010254965 -0.16112135
0000d0 ed f0 0e be f2 3a 22 bc aa fb 1c bc 8b 79 88 3d
       -0.13959093 -0.009901749 -0.009581486 0.066638075
0000e0 bf ad 50 bd 6e 90 b4 3d 5d 28 8c 3d 3f 92 9f bc
       -0.050946947 0.0881661 0.06843636 -0.019478915
0000f0 09 5a c1 3c 3a 62 f6 bc 24 42 41 be d7 15 4d bd
       0.023602502 -0.030076135 -0.18872887 -0.050069656
000100 09 90 10 3d df 59 f1 3c 68 d3 8c 3d 37 72 84 be
       0.035293613 0.0294618 0.0687626 -0.2586839
000110 d1 fa 5a bc 6f d4 44 ba 88 52 92 3b 22 3d 89 bc
       -0.013365463 -0.0007508462 0.004465405 -0.016752783
000120 09 04 7e 3b ba 54 42 3d 46 d3 16 be 87 b1 35 be
       0.003875973 0.047444083 -0.14729032 -0.17743503
000130 66 a6 3c bd ea b6 03 3e 6f d0 c0 3d e5 c8 28 bc
       -0.046057127 0.12862745 0.094147556 -0.010301803
000140 68 18 a8 bc a3 42 b0 3c c3 29 01 3e 5b 11 2c bd
       -0.02051945 0.02151615 0.12613587 -0.04200874
000150 58 47 b5 bd e1 df 2b 3e a1 68 97 bb f9 40 8c bd
       -0.08851498 0.16784622 -0.004620627 -0.0684833
000160 28 e1 f1 bd 3c 0b fd 3b 92 69 0a be 40 f1 b6 bd
       -0.11810523 0.0077222865 -0.13516834 -0.089327335
000170 63 fd 6f be 56 50 01 be 3e b5 2c be 74 38 ef bc
       -0.23436503 -0.12628302 -0.16866013 -0.029201724
000180 93 aa 28 3d 6e c8 01 3e cd e7 0a be 14 e0 ab bc
       0.041178297 0.12674114 -0.13564987 -0.020980872
000190 b1 4d b7 b9 b6 3a 7f bd 16 8f 6e 3d 69 78 20 3e
       -0.00034962365 -0.06231185 0.058241926 0.15670933
0001a0 88 e1 37 bd 4e 13 4f bd c5 65 9b 3d 74 72 34 be
       -0.044892818 -0.05055552 0.075877704 -0.17621785
0001b0 0b a9 04 bd 7b 12 3e bd 8e 6d f6 3c 1b 3e a0 3d
       -0.032387774 -0.046404343 0.030081537 0.07824346
0001c0 df bd d8 3c 8a 70 0f be e0 18 e3 bb 71 63 20 be
       0.026457725 -0.14007774 -0.0069304556 -0.15662934
0001d0 9e dd d2 bd dd 86 7d bc 74 45 98 3d 98 bf f1 3d
       -0.102961764 -0.015474048 0.07435122 0.11804122
0001e0 b8 60 46 be 2a 2c 56 3d e5 94 11 be b5 30 41 be
       -0.19372833 0.052288212 -0.14216955 -0.18866237
0001f0 33 83 83 3d fb db 86 bd 6f 88 3f 3c 08 aa 30 3d
       0.06421509 -0.06584927 0.011690243 0.043130904
000200 c3 ad e1 3d a6 34 97 bd c4 89 6a 3d c2 42 04 be
       0.110194705 -0.07383089 0.05726029 -0.12916091
000210 66 2e 4f 3c b5 02 c9 bd 56 cd be bd e9 e9 a2 bd
       0.01264534 -0.098149695 -0.093165085 -0.07954771
000220 3b 2e 68 bd a3 61 28 bd 41 5b af bd 17 b8 74 3d
       -0.056684714 -0.04110874 -0.08562327 0.059745874
000230 0f 62 a1 3d 3d dc b6 3b 7f 4e 50 bd d8 74 c9 bd
       0.07880031 0.0055804537 -0.05085611 -0.09836739
000240 7a 2b 89 3d f6 24 92 3d f8 fd 00 bd ab 85 15 3e
       0.066977456 0.07135956 -0.031492203 0.14601772
000250 db 81 83 bd a5 88 01 3c bb be f7 3c 5f 92 a7 3d
       -0.06421252 0.007906114 0.030242315 0.08182215
000260 89 f1 92 3d f9 58 cf bd f7 fc 28 3e 04 9d 05 be
       0.071749754 -0.10124392 0.16502748 -0.13048178
000270 af 2a 34 3d e9 4e b1 3d 36 75 2a bb 1c 70 49 3d
       0.04398602 0.08657629 -0.0026009805 0.04917918
000280 3e 00 ee bc 92 39 65 bc 48 b1 c6 bb c9 e4 c7 bd
       -0.02905285 -0.013990777 -0.006063614 -0.09760434
000290 0a dd 95 bc 3f 9a 81 bd 25 79 80 bd d2 36 3f 3e
       -0.018293876 -0.06328248 -0.062731065 0.18673256
0002a0 d0 5e 2a bd d5 35 59 bd cc 2d 9c 3d 01 55 8b bd
       -0.041594326 -0.053029854 0.076259226 -0.068033226
0002b0 5b 49 ed bd 39 2c 9b bb 79 55 16 3b bd 2a 0b ba
       -0.11586257 -0.0047354964 0.002293913 -0.00053087977
0002c0 4e 53 87 3d 5f 56 9e 3d 2f 37 58 bc 79 40 0b 3c
       0.06607686 0.07731318 -0.013196751 0.008499258
0002d0 1c ee 0b bd 78 43 5b 3c 79 83 53 bd 58 79 ab 3d
       -0.034162626 0.013382785 -0.051639054 0.08372754
0002e0 9b 97 50 3d da 95 8a 3d ba c1 d8 3d 68 d6 1b bd
       0.050925832 0.06766863 0.105838254 -0.03804627
0002f0 d0 db 3f 3d da 78 e6 3d cb 10 c1 3d 13 47 2f 3d
       0.04684049 0.11253519 0.09427031 0.04279239
000300 8e d2 b2 3d f3 b0 56 3d 9d 3f 3d be 37 44 51 3c
       0.08731566 0.052414846 -0.18481298 0.012772611
000310 af a3 c3 3d ec a7 88 3d 42 f6 1c 3d 63 8e 51 be
       0.095527045 0.066726536 0.038320787 -0.20464472
000320 64 ff c9 3c 64 df b8 bc cc 9c f5 bc 94 0c aa 3c
       0.024657913 -0.022567458 -0.029981993 0.02075795
000330 37 9e fc 3d 1a bb 02 3e ab 62 2c bd 3b 19 24 3e
       0.123348646 0.12766686 -0.042086285 0.1602525
000340 6d e3 c7 bb f2 5c bf bd d0 f2 2e bc c4 fe 5d bd
       -0.0061001093 -0.093439 -0.010678008 -0.05419804
000350 0d ca 5c bb 86 f3 d3 3d 90 2c 8a bb ae 4a b5 bd
       -0.0033689768 0.10349183 -0.004216738 -0.08852135
000360 17 f5 d4 bd 50 2a bc 3d b5 5a bb bd ba 4e b7 bc
       -0.1039831 0.09187758 -0.0914816 -0.022376407
000370 d2 a1 29 bd a2 fb fc 3c af af 81 3d 51 e8 38 be
       -0.04141409 0.030881707 0.06332337 -0.18057372
000380 62 3e 33 bd 31 c0 3b 3b f4 e5 3c bc 5d 1a 44 3d
       -0.043760665 0.002864849 -0.0115294345 0.047876704
000390 b1 83 38 bd 9a 56 03 be 3d 9f 8c bd d9 1e 04 be
       -0.045047466 -0.12826005 -0.0686631 -0.12902392
0003a0 8a ca 9e bc 46 95 07 bd 4d 3c 20 bd 30 43 24 bd
       -0.019383688 -0.033101343 -0.039120007 -0.040103137
0003b0 be 57 79 bd f1 af af 3d f2 80 c6 bd 32 b4 21 3e
       -0.060874693 0.0857848 -0.09692563 0.15791395
0003c0 d2 cf 75 bd 81 bf 8f 3b f1 77 16 3e fb a9 71 3c
       -0.060012646 0.0043868427 0.14694192 0.014749999
0003d0 82 97 d8 bc c0 cc 1a be 0f 01 c3 3d b5 24 22 bd
       -0.026439432 -0.15117168 0.09521686 -0.039585788
0003e0 d9 07 45 bd e9 ca 28 3d 57 01 49 bd fe 3a e8 3d
       -0.048103187 0.041209135 -0.049073543 0.11339377
0003f0 24 07 01 3d 9c b9 b6 3d 7d 8c 95 3d af 0e 9d bd
       0.03150095 0.08922121 0.07302187 -0.07668816

model.time_mlp.1.bias f4 [256]
000000 15 98 e9 37 07 f3 78 b8 f0 8e 00 38 71 de 24 35
       2.7846583e-05 -5.9354144e-05 3.06507e-05 6.1418456e-07
000010 e5 96 7a b8 fb 7e 9a b8 d4 96 b3 b6 6f 52 82 38
       -5.9745176e-05 -7.366944e-05 -5.3521744e-06 6.2142375e-05
000020 e9 4b 3e 33 ff b0 4c b7 22 d2 44 38 84 bf a8 38
       4.4306862e-08 -1.2200558e-05 4.6925743e-05 8.046537e-05
000030 00 bc 83 38 39 e3 8d 38 dd da 40 38 98 0c 3d 38
       6.2815845e-05 6.7657274e-05 4.59802e-05 4.507284e-05
000040 89 43 ae 38 ea 86 e3 37 4a b3 30 38 9f 74 8c 35
       8.309546e-05 2.7123333e-05 4.2128646e-05 1.0464754e-06
000050 4f d9 da 37 ac 5c a1 b7 4d d3 79 b8 c3 6e 82 b8
       2.6088817e-05 -1.923585e-05 -5.9563015e-05 -6.219514e-05
000060 ce 03 4e 38 8e c1 70 38 22 cc 8e b6 92 c5 7e 38
       4.911777e-05 5.740072e-05 -4.255694e-06 6.074232e-05
000070 07 64 7d b7 77 52 35 b8 51 cf 26 38 fd 7f 92 b8
       -1.5103265e-05 -4.3230564e-05 3.9770563e-05 -6.985662e-05
000080 d9 72 e1 36 e0 a3 9f b8 36 2d 74 b8 a9 ec 0f 38
       6.7188926e-06 -7.612235e-05 -5.821624e-05 3.4314264e-05
000090 ba 01 ee 37 56 61 02 b8 02 0b a5 38 77 63 97 38
       2.8372615e-05 -3.1085066e-05 7.8698635e-05 7.218768e-05
0000a0 00 25 7c 38 fe 0f a1 38 bb a4 d0 37 6e 68 65 38
       6.011594e-05 7.680057e-05 2.487224e-05 5.4695112e-05
0000b0 b4 2e 54 38 57 3d 46 b8 95 56 27 b8 b5 75 af 37
       5.0588234e-05 -4.7264006e-05 -3.989654e-05 2.0916437e-05
0000c0 e7 c3 3f 38 0f 2a 93 38 6b ed 2b b8 46 b2 87 b8
       4.5720397e-05 7.01734e-05 -4.099069e-05 -6.470508e-05
0000d0 75 9b d4 b7 e3 22 5f 38 61 dc f9 37 be 12 0c 38
       -2.534476e-05 5.3199834e-05 2.9785735e-05 3.3396056e-05
0000e0 94 20 1f b8 83 ca 5c b7 ec 3e 64 b8 0a 58 9c 38
       -3.7938895e-05 -1.3160173e-05 -5.4418037e-05 7.455058e-05
0000f0 61 75 5b b8 fe 68 6d b8 c5 3d 14 b8 5d 8e a3 37
       -5.2322986e-05 -5.6602985e-05 -3.5343477e-05 1.9497407e-05
000100 5e 92 32 b8 82 6c 9e 38 0c a4 84 38 20 cc 9a b8
       -4.2574822e-05 7.554238e-05 6.3248066e-05 -7.3813135e-05
000110 14 ab 08 b8 30 d0 35 38 9a a2 1c 38 80 d0 6d b8
       -3.2584256e-05 4.3347653e-05 3.7344733e-05 -5.6699384e-05
000120 54 62 81 b8 87 fe 26 b8 d2 0d 95 b7 34 67 6c 38
       -6.1695144e-05 -3.981453e-05 -1.776862e-05 5.63629e-05
000130 1c f2 74 38 93 d4 ae b8 8f 97 04 38 10 a4 99 38
       5.8399615e-05 -8.3365616e-05 3.1612402e-05 7.3261675e-05
000140 24 9d 67 b8 04 cf 6e b8 53 aa 0b b8 87 9e 4f b7
       -5.522104e-05 -5.693642e-05 -3.329881e-05 -1.23750715e-05
000150 7b 33 ed b7 16 25 89 38 fd e7 8e 38 31 5c 8a b8
       -2.8276574e-05 6.539577e-05 6.814299e-05 -6.597525e-05
000160 66 fe 0b 38 6f e1 65 b8 54 9b 85 b8 7f 90 87 b8
       3.337711e-05 -5.4807806e-05 -6.370866e-05 -6.464216e-05
000170 94 c1 53 37 4b b7 5a 38 35 9a c8 37 55 fb 8a 38
       1.2621651e-05 5.2145955e-05 2.3913666e-05 6.627167e-05
000180 60 d4 a0 38 b8 49 b5 b5 c4 f1 90 38 85 3a 56 b8
       7.6689525e-05 -1.3507006e-06 6.9114874e-05 -5.1076076e-05
000190 8b d0 9b b7 2a 13 b6 b7 62 1d 05 b8 7a 0f 4c 38
       -1.857455e-05 -2.1705015e-05 -3.1737036e-05 4.8651804e-05
0001a0 d4 d3 6b b8 1b a8 b8 b7 f9 3d 34 38 58 11 3a 38
       -5.6225646e-05 -2.201279e-05 4.297306e-05 4.436201e-05
0001b0 3e 1d 05 38 5d 49 97 b8 a1 67 10 b8 71 a0 94 b8
       3.1736905e-05 -7.213906e-05 -3.4428787e-05 -7.0870745e-05
0001c0 dc 57 80 b8 04 16 21 b8 36 43 6c b8 a3 b0 7e b8
       -6.119881e-05 -3.8405895e-05 -5.632938e-05 -6.0722825e-05
0001d0 73 e4 a0 b8 93 13 a6 b7 1c fb 1c 37 16 e0 89 38
       -7.6719465e-05 -1.9797857e-05 9.3567905e-06 6.574408e-05
0001e0 a8 69 86 38 b5 b1 aa b8 20 62 7c b8 9d 7c 46 b8
       6.409298e-05 -8.139332e-05 -6.0172868e-05 -4.7322934e-05
0001f0 cc 75 84 b8 09 56 fc 37 2f e4 2d b8 ae b8 ce b7
       -6.316192e-05 3.0080804e-05 -4.1458927e-05 -2.4643112e-05
000200 96 6c 85 37 e9 b5 15 b8 61 c8 ec 37 c1 d6 79 b8
       1.59054e-05 -3.5693785e-05 2.8226701e-05 -5.956623e-05
000210 31 b5 71 38 31 f8 9e 38 bd 79 a5 b8 c0 d2 d2 37
       5.7627625e-05 7.580256e-05 -7.8904886e-05 2.5132089e-05
000220 95 b7 a9 b8 c3 2d 9b 37 7d 9c aa b8 11 39 a0 b8
       -8.092743e-05 1.849875e-05 -8.13538e-05 -7.640024e-05
000230 53 3a 4e 38 f8 3b 38 38 ed c1 58 b6 da 39 93 38
       4.9168546e-05 4.392487e-05 -3.2299388e-06 7.020282e-05
000240 75 54 59 b8 8d 87 79 b7 1f a5 9f 38 bc b0 8d 38
       -5.181549e-05 -1.4873117e-05 7.612467e-05 6.756323e-05
000250 de bb f3 36 da bc e6 b7 ce 0f 1f b8 c1 bd 52 38
       7.263835e-06 -2.7506077e-05 -3.7923273e-05 5.0244624e-05
000260 42 f9 85 38 f0 2b 50 38 33 a0 73 38 4e 40 80 38
       6.388362e-05 4.9631984e-05 5.8084912e-05 6.115493e-05
000270 f9 62 8d b5 34 ea 81 b8 ca 07 2b 38 dd db 16 b8
       -1.0534123e-06 -6.194823e-05 4.077683e-05 -3.596755e-05
000280 1e 89 81 b8 ab cc 35 b8 90 22 92 38 ef 33 39 38
       -6.1767394e-05 -4.3344375e-05 6.96826e-05 4.4155804e-05
000290 0b a3 2a b8 03 87 95 b8 51 4c 58 b8 0b aa 95 b8
       -4.0683004e-05 -7.1300215e-05 -5.156949e-05 -7.1365466e-05
0002a0 a8 a3 8d 38 51 d1 28 38 e4 88 6e 38 ce f1 a7 b7
       6.753887e-05 4.0249262e-05 5.687111e-05 -2.002055e-05
0002b0 a1 45 8c b8 b5 04 ca b7 f7 78 8c 38 e4 10 96 38
       -6.6886896e-05 -2.4082468e-05 6.698252e-05 7.1557035e-05
0002c0 e6 65 40 b8 72 a6 38 b6 64 d6 89 b8 2a 2c 88 38
       -4.5871268e-05 -2.751502e-06 -6.5726024e-05 6.4932115e-05
0002d0 70 65 15 36 2e c7 7c b8 14 3b 17 38 71 2e 54 38
       2.2261775e-06 -6.0266982e-05 3.6056226e-05 5.058799e-05
0002e0 ec 2b 99 b8 88 71 a6 b8 8e 31 61 b7 1c 96 3d b8
       -7.3037896e-05 -7.936644e-05 -1.3422583e-05 -4.520091e-05
0002f0 8e cc 34 38 b9 49 18 b8 44 5f 13 38 00 02 8b b8
       4.310585e-05 -3.6308284e-05 3.5136254e-05 -6.628409e-05
000300 44 dd 8d 38 79 bf 8e b8 da af a3 b8 e1 85 3b b7
       6.764618e-05 -6.806752e-05 -7.8052006e-05 -1.117724e-05
000310 cf 3d 63 b8 0a e9 82 38 60 96 f9 37 7f 78 1f b8
       -5.417858e-05 6.24229e-05 2.9753137e-05 -3.8020775e-05
000320 1f 07 88 38 91 00 9f b7 67 5a ca b7 c3 61 45 38
       6.486312e-05 -1.895454e-05 -2.4122373e-05 4.7059508e-05
000330 ac 44 5e b8 bc 37 e9 b6 ae 07 a1 38 5e ef 99 b8
       -5.299288e-05 -6.9504295e-06 7.678509e-05 -7.340194e-05
000340 b6 02 55 38 91 4b b3 b7 38 48 9c b6 74 91 70 38
       5.0785682e-05 -2.1373651e-05 -4.6575697e-06 5.7355923e-05
000350 05 39 7d 38 f7 d0 58 37 21 44 89 b8 ef 8e 95 37
       6.0373004e-05 1.2923257e-05 -6.545359e-05 1.7828743e-05
000360 ba c3 25 38 e4 97 2e b8 be c0 97 38 1a 29 65 b8
       3.952135e-05 -4.1626292e-05 7.236142e-05 -5.4636133e-05
000370 e5 90 3b 38 a5 ef 48 b8 a4 5e ee b6 ab e1 99 b8
       4.4719218e-05 -4.7906902e-05 -7.1039703e-06 -7.3376425e-05
000380 9c 26 2c 38 cc f9 bb 37 2e 2c d7 37 13 32 85 b8
       4.1043953e-05 2.2408458e-05 2.565057e-05 -6.351261e-05
000390 34 8b 90 b7 92 89 cc b7 bf de 7f 38 65 38 87 b8
       -1.723096e-05 -2.4382756e-05 6.1004186e-05 -6.447806e-05
0003a0 23 11 3d b8 39 2d 8f 38 59 66 61 38 b2 bc a6 b7
       -4.507707e-05 6.827195e-05 5.37395e-05 -1.987661e-05
0003b0 b5 34 5c 38 3d b3 9f 38 97 ce b9 37 2c 73 ab 38
       5.2501175e-05 7.6150965e-05 2.214992e-05 8.175368e-05
0003c0 48 6b db b7 b2 48 ee 37 b5 59 6f 38 ff da 79 38
       -2.6156791e-05 2.8405662e-05 5.7065587e-05 5.9570182e-05
0003d0 4e e6 96 b6 1e 19 7f b8 1a 2d 8e b7 fc f3 55 b8
       -4.4971594e-06 -6.082013e-05 -1.6948721e-05 -5.1010386e-05
0003e0 52 ee 07 38 aa f9 0e 37 38 3b a8 b8 70 6d aa 37
       3.240846e-05 8.521989e-06 -8.0218946e-05 2.031654e-05
0003f0 57 d9 3b 38 53 bf 07 38 32 2f a1 b8 c2 be 95 b8
       4.4786688e-05 3.2364693e-05 -7.685869e-05 -7.140405e-05

model.time_mlp.3.weight f4 [32, 256]
000000 a3 41 ac 3a 41 9f d9 3c 36 39 6e bb b9 ad 42 3d
       0.001314212 0.026565196 -0.0036350018 0.047528956
000010 39 af cc 3b 7e 34 55 bc 6a 51 be bc 96 27 e8 3c
       0.006246474 -0.013013003 -0.02323218 0.028339189
000020 68 a0 91 3d 35 ec 17 3d 98 17 b9 bc 7e 85 f0 3c
       0.07110673 0.0370905 -0.022594258 0.029360529
000030 40 f1 27 3b 2f be 00 bd 8e 48 5e 3d db 60 95 3b
       0.0025625974 -0.031431373 0.054268412 0.004558665
000040 a8 91 e3 bc a4 ba 69 bc a0 e9 e1 bc 27 e7 85 3c
       -0.027779415 -0.01426569 -0.027577221 0.016345574
000050 9a 31 dc 3c 12 b3 8b bd c5 8d 2b bd ff 10 fc bc
       0.02687912 -0.06821264 -0.04188325 -0.030769823
000060 81 81 64 bd 2a 52 1d bd 14 4c 42 3d 6f ce 9d 3c
       -0.055787567 -0.038408436 0.047435835 0.019263474
000070 08 08 1c bd 9a 77 dd 38 84 f7 b5 bb 28 43 87 bd
       -0.038093597 0.00010560379 -0.005553188 -0.06604606
000080 57 d8 f2 ba 57 62 9d 3c 25 89 1a bd ae 66 1c 3d
       -0.0018527609 0.019211931 -0.037728447 0.03818386
000090 53 66 23 3a fe 83 4c 3d 0e 42 82 3c 06 6d b3 3c
       0.0006233204 0.049930565 0.015900638 0.021902572
0000a0 40 c7 f3 bc 0a e0 9f bd 10 10 a5 3c cd b4 2f 3c
       -0.029758096 -0.07806404 0.02014926 0.010724259
0000b0 49 dc 12 bd e9 1a d7 3b 10 dd d6 bb 59 1a 34 3d
       -0.03585461 0.0065644872 -0.0065571144 0.04397044
0000c0 d2 da 2d bd 12 5f 6d 3c 7b 42 b1 bc 37 91 bd 3d
       -0.04244501 0.014487999 -0.021638146 0.09256213
0000d0 4d 04 3b 3d 34 d5 bd bc c4 20 00 bd 1e d3 8a bc
       0.0456584 -0.023172952 -0.031281248 -0.016946372
0000e0 63 a5 29 3d f1 61 4f 3c 67 0f ee 3c 2b 90 31 bd
       0.04141749 0.012657628 0.029060079 -0.04335038
0000f0 82 e4 0f 3b 68 78 17 3d e8 26 b3 3b f2 08 0a 3d
       0.002195627 0.036980063 0.0054672845 0.033699937
000100 88 46 c3 3c db 15 2b bc d7 a9 d2 bc e4 60 aa bc
       0.023837343 -0.0104422225 -0.025715752 -0.020798154
000110 3e ac c3 bc a1 7e 20 bd 4f 77 94 3c e3 49 c6 bb
       -0.023885842 -0.039183263 0.018123297 -0.0060512885
000120 57 52 b2 bc d5 c0 3c 3c 2c 41 4f 3c ba f2 d8 3c
       -0.021767778 0.011520584 0.0126498155 0.026482929
000130 27 91 b4 bc 10 86 fa 3c 50 09 34 3d 67 bd a1 bc
       -0.02204187 0.030581504 0.043954194 -0.019743634
000140 0b 98 f0 3c 02 85 cb bd 5f 69 ee 3c 47 c1 22 bd
       0.029369375 -0.099374786 0.02910298 -0.039735105
000150 84 d5 89 3a 5a 4f 72 bb 45 cd b0 3a 93 40 ba 3b
       0.0010515903 -0.0036973567 0.001348891 0.0056839674
000160 bd 67 52 bd a2 7b 95 bc 26 89 33 3c f0 c3 7c b9
       -0.051368464 -0.01824743 0.010957992 -0.00024105585
000170 74 cf 2a bd cc c1 67 3c 1e ab e1 3c b4 00 40 bd
       -0.04170175 0.014145326 0.027547415 -0.04687567
000180 74 df 2c 3c a5 3e 25 bc 93 41 25 bb 88 30 b8 3c
       0.010551322 -0.010085736 -0.0025216087 0.022484079
000190 51 ab 29 ba 64 b0 54 3d a6 bd ce 3c 17 fb a4 bd
       -0.00064723665 0.05192603 0.025236916 -0.08055704
0001a0 f9 0e 08 3d 9a 49 53 3c 42 f5 c7 3b 82 a0 e5 3b
       0.033217404 0.012895966 0.006102235 0.0070076594
0001b0 74 8a e6 3c 56 89 95 bc 16 36 07 3d 3d 2a 2c bd
       0.028142191 -0.018253963 0.033010565 -0.04203247
0001c0 0a 1d 95 3c dc b0 5e bc f9 e3 08 bd 1b 86 d3 bc
       0.018202323 -0.013591971 -0.033420537 -0.025820782
0001d0 67 d5 da 3b ee 1a 13 bd 13 9c c4 3c 75 86 d3 bc
       0.0066782716 -0.035914354 0.024000203 -0.02582095
0001e0 a1 0f 51 bb 4c 23 99 bc d9 2c 8c bc 95 7a 23 bc
       -0.0031900185 -0.018693589 -0.017111229 -0.009977956
0001f0 72 30 02 3d be e5 01 3d d2 6f 9b 3c ef 57 99 3c
       0.031784482 0.03171324 0.018974219 0.018718688
000200 5e 08 64 3d 33 ce f8 3c 1c ad fa bc 48 72 b6 bc
       0.055672042 0.030371761 -0.030600123 -0.02227129
000210 7a 26 a7 bb 75 ba 98 bc 03 3e 20 bc 1d 1a ae bc
       -0.0051010223 -0.018643597 -0.00978041 -0.021252686
000220 4b 9b dc 3c 72 77 1a bd c0 fd 19 3d 62 aa 1d bd
       0.026929518 -0.03771157 0.03759551 -0.038492568
000230 0b 94 b8 bc 72 8a 17 3d f2 d9 31 3d 3d a5 50 3d
       -0.02253153 0.036997266 0.04342074 0.050938834
000240 b4 39 33 bc ed da 3b 3c be 2b 60 bc b3 42 04 bd
       -0.0109390505 0.01146577 -0.013682304 -0.03229017
000250 cb d8 a6 bb 42 8b e2 bb b5 93 a1 ba 09 a6 cd 3c
       -0.0050917617 -0.0069135735 -0.0012327345 0.025103586
000260 e7 30 8e bc 2c 0c 33 bc 98 3c 17 3d 0c cb 2f bd
       -0.017357303 -0.010928195 0.03692302 -0.04291825
000270 b1 d8 f8 3c d2 13 09 3d 4c 96 61 bc 7e 7b 20 bc
       0.030376764 0.033466168 -0.013768744 -0.009795068
000280 03 51 46 3c 79 28 47 bc 56 1f a2 bc 69 53 02 bc
       0.012104276 -0.0121556455 -0.019790333 -0.007954457
000290 e1 db 0c 3d 2a 01 38 3b 9f 7a 5c bc 35 0b 14 bc
       0.03438938 0.0028076866 -0.0134569695 -0.009035875
0002a0 c4 4b f6 bc 49 5f b0 bb ae 18 26 3d 2d 4e 15 3d
       -0.030065425 -0.0053824526 0.04055088 0.036451507
0002b0 ed 06 0f bb 5b b6 e3 bb d2 40 b7 3c c0 41 60 bc
       -0.0021824196 -0.0069492287 0.022369776 -0.013687551
0002c0 c4 32 71 bd 28 db 13 bd 55 96 cd 3c 91 9c d9 bc
       -0.058886304 -0.036097676 0.025096098 -0.026563914
0002d0 7e d9 05 bc 29 a3 74 3c 8d 52 98 3c 73 2a 42 3c
       -0.00816953 0.014931479 0.01859405 0.011850941
0002e0 c0 fd 4c bc b3 11 9c bc bc ac 6d 3b 59 1d 53 3c
       -0.012511671 -0.019051408 0.0036266288 0.012885415
0002f0 e3 7b d0 bb bd 27 2a 3b ea 84 71 3d 58 86 1e 3d
       -0.0063624247 0.0025963627 0.058964647 0.03870234
000300 d1 b7 90 bd 68 be 98 bc 84 ef 4e bd a8 77 f4 bc
       -0.0706631 -0.01864548 -0.05052139 -0.029842213
000310 62 ee 5f bc 0c 54 36 bb 48 27 31 3d fc a0 33 3d
       -0.013667675 -0.0027821092 0.043250352 0.0438547
000320 9f b3 e0 3c bb fb 93 3a 01 ed 48 bc 31 94 d9 3b
       0.0274294 0.0011290231 -0.012263537 0.0066399802
000330 36 b6 5f 3d 5e f3 87 bc 16 fb 26 3c dd 49 02 3c
       0.05461713 -0.016595539 0.0101916995 0.007952181
000340 b7 86 95 bd a2 bf 63 ba 06 d4 a0 bc b3 0e 6f bd
       -0.073010854 -0.00086879183 -0.01963235 -0.058363628
000350 9f 62 3f bd 51 96 06 3c e5 fe 8b 3d 5b 1d 52 bd
       -0.04672491 0.008214549 0.06835727 -0.051297527
000360 22 8b 38 3b 3f fa 5b 3c 3c fb 1f 3d 64 3d e1 bb
       0.0028159101 0.013426363 0.039057955 -0.0068737734
000370 2d db 81 bc 22 e6 b8 3c e6 11 0a 3c 38 d8 b7 3c
       -0.015851581 0.022570673 0.008427119 0.022441968
000380 e3 93 14 bc 96 17 62 3a a5 55 bc 3c 17 39 3d 3d
       -0.009068462 0.00086247304 0.022990057 0.046197023
000390 0d c6 99 3b 58 74 fa bb 90 21 4c bc 14 77 07 3d
       0.004692799 -0.007643264 -0.012459174 0.033072546
0003a0 e3 01 8d 3b 90 18 10 bd 9c dc ca bb 96 cb b8 3c
       0.0043032034 -0.035179675 -0.0061908495 0.022558015
0003b0 f9 27 c8 3b e3 50 d3 bc 91 18 28 3d 8d aa 2e bd
       0.0061082807 -0.025795406 0.041039053 -0.04264312
0003c0 0c 36 4e bc 53 1c 21 3c 46 e3 12 bc c3 39 42 bd
       -0.012586128 0.009833413 -0.008965319 -0.047418367
0003d0 a4 a4 82 bb 6a 50 2c 3c e3 1b b8 3c cd e4 0e 3d
       -0.003986912 0.010517219 0.022474235 0.03488617
0003e0 0d 86 91 3c c6 97 17 3d 5c 33 83 bc 5c 3e 76 3c
       0.017764116 0.037009977 -0.016015701 0.015029516
0003f0 b8 10 a6 bb 01 a7 bb 3c d0 94 66 bc 5d 75 cb 3c
       -0.005067911 0.022906782 -0.014073566 0.024836237

model.time_mlp.3.bias f4 [32]
000000 e0 3a b4 b8 57 65 bf b8 8f 4b b7 b8 c3 4f c5 38
       -8.594035e-05 -9.126466e-05 -8.740194e-05 9.408549e-05
000010 29 b0 bc b8 aa e5 bc 38 6c ba a0 b8 e6 d3 c4 b8
       -8.997351e-05 9.007317e-05 -7.664118e-05 -9.3854775e-05
000020 1d af 85 b8 79 52 99 38 bd e0 c8 b8 72 c7 a0 38
       -6.3745516e-05 7.31097e-05 -9.578604e-05 7.666544e-05
000030 40 1b c7 38 e1 a1 13 38 d1 33 bd b8 15 18 cb b8
       9.494135e-05 3.5198293e-05 -9.021874e-05 -9.68428e-05
000040 05 a2 c2 b8 66 05 c8 b8 53 22 c4 38 2a 94 c8 b8
       -9.280819e-05 -9.537749e-05 9.352402e-05 -9.564341e-05
000050 26 44 9b 38 3b 4f cb b8 f1 dc bc b8 c6 5b ad b8
       7.4036696e-05 -9.694552e-05 -9.005692e-05 -8.266377e-05
000060 4c 06 c5 b8 1d 05 c0 38 09 a3 a0 38 7c 21 aa b8
       -9.394865e-05 9.156226e-05 7.659762e-05 -8.112469e-05
000070 ba c6 c0 38 87 d4 b2 38 d6 9d be 38 ea fd c9 b8
       9.192289e-05 8.527288e-05 9.089305e-05 -9.631722e-05

model.layer.0.weight f4 [256, 55]
000000 5c fb ee 3d 1b 89 d0 bc 9d b7 fc 3d 9d 2b e2 bd
       0.11669037 -0.025456002 0.12339709 -0.11043475
000010 51 21 3e bd 2c 7b bd bd f7 20 62 bb 3d 72 b2 bd
       -0.04641849 -0.09252009 -0.0034504512 -0.087131955
000020 86 48 58 3d 18 cc ed 3d b1 b9 a3 bd 1d 10 25 bc
       0.05280354 0.116111934 -0.07994402 -0.0100746425
000030 d7 8c 1b 3c 86 58 37 bd 05 f4 a0 bd 43 55 5e 3c
       0.009494028 -0.044762157 -0.07859043 0.013570133
000040 01 a5 5e bd 84 38 13 bd a4 51 71 3d 5e 0d 6a 3d
       -0.05435658 -0.03594257 0.05891575 0.057141654
000050 37 c4 37 bc e0 dc 30 be e7 1f 2b 3e 52 8a 31 bc
       -0.011216215 -0.17271757 0.16711389 -0.010836201
000060 e0 c7 68 bd 7b 73 91 bc bb 9a ff bd 36 43 27 bc
       -0.05683124 -0.01775526 -0.12480684 -0.010208895
000070 74 37 2f bd da 57 10 bd e7 51 f3 3c 08 5c a1 bc
       -0.042777494 -0.03524003 0.02970214 -0.019697204
000080 a4 92 bf 3d e2 6c 3a bd 68 51 b8 3d 1d f2 5b bd
       0.09354141 -0.045513995 0.08999902 -0.053697694
000090 e7 cf 4c bd f9 ed 19 bd b6 0f 84 bd 62 50 ab bc
       -0.05000296 -0.037580464 -0.06448309 -0.020912353
0000a0 40 fd 68 3c bc 28 54 3d 78 a9 cc 3d 25 8a 85 bd
       0.014220536 0.05179666 0.09993261 -0.065204896
0000b0 de 04 1e 3c 47 83 66 3d 84 84 8e 3b 6a 88 74 3d
       0.009644715 0.05627754 0.004349293 0.059700407
0000c0 f3 c4 41 3c 64 3c 5a bd 86 e1 a8 bc 6f 82 f9 3c
       0.0118267415 -0.05328025 -0.02061535 0.030457703
0000d0 2a e8 4a bd 5a 1e 0f 3c e9 7c e7 3a f2 1b 82 3d
       -0.049537815 0.008735264 0.0017661127 0.063529864
0000e0 5e 40 2f 3d 9f 4e d9 3c 97 cb 63 3d dd 85 a7 3c
       0.042785995 0.026526747 0.05561408 0.020449573
0000f0 e9 c7 ee 3d 24 5b 9d 3c 7c 7a ff bd f5 b5 70 bb
       0.116592236 0.019208498 -0.12474534 -0.0036729549
000100 34 47 e1 3c 6f d6 f9 ba 14 4a e5 3c 42 7d 56 bd
       0.027499773 -0.0019061099 0.027989425 -0.05236555
000110 84 5b 77 bd 06 0e ee bd 7d b7 8b 3c 60 ef aa 3d
       -0.06039001 -0.116237685 0.017055267 0.083464384
000120 02 45 11 bd a1 28 05 bc f1 4d 13 3d 31 ff 09 be
       -0.0354662 -0.0081273625 0.035963003 -0.13476254
000130 f3 bf 35 3d 8f a6 2c 3a 01 3c f9 3c 72 f8 f1 bd
       0.04437251 0.00065860985 0.03042412 -0.11814965
000140 e7 43 b4 bd fb e3 7e 3d 1d e8 ea bb 6e 60 dc bc
       -0.08802014 0.062229138 -0.0071687833 -0.02690145
000150 c0 b0 5d 3d 8a fd 66 3d ba d8 b7 bd c2 1e 88 3d
       0.05412364 0.056394137 -0.08976884 0.066464916
000160 03 32 59 bc 1d a7 29 bd a2 29 95 bd 92 c9 f1 3d
       -0.013256553 -0.041419137 -0.072833315 0.118060246
000170 3a b1 bc bd 7a 82 0c 3b 47 58 88 bd 35 ce e0 bd
       -0.09213491 0.0021440075 -0.066574626 -0.10976831
000180 72 37 0f bd 0f 5a d6 bb 14 11 88 bd 14 53 1c bd
       -0.034964986 -0.0065414975 -0.066438824 -0.038165167
000190 c0 61 9c bc 07 2b d3 bd cc 52 08 3d 67 88 44 bd
       -0.01908958 -0.10310941 0.033282086 -0.047981646
0001a0 cc 10 c8 bd f5 6e 8f bd 3e c0 39 bd 0c b6 ba bc
       -0.09768829 -0.07003585 -0.045349352 -0.022791885
0001b0 c7 37 9e 3c ca 8a 60 3d d0 1b 8f bd 1e ff 05 bd
       0.019313706 0.05481986 -0.06987727 -0.032714
0001c0 1f 5a 88 3d c8 bb e5 bc 69 91 98 bd 37 c0 08 3e
       0.06657814 -0.028043643 -0.0744961 0.13354574
0001d0 b8 8b 2c 3d c2 65 8f 3d 01 43 1f 3d ae 7c 1a bd
       0.042125434 0.07001831 0.03888226 -0.03771656
0001e0 db 33 3d 3d 6d 03 85 3d 7a 5e 28 3e e1 fb 54 bd
       0.04619203 0.06494794 0.1644229 -0.051998023
0001f0 ea b4 84 bd b2 e0 1b bd ed 5a d6 bd d0 82 8f 3d
       -0.06479819 -0.038056083 -0.104665615 0.070073724
000200 ae ce 1d bd b1 e1 2f 3a da 89 ba bc 68 9f 0e bd
       -0.038527183 0.0006709351 -0.02277081 -0.03481999
000210 76 18 a1 bb 85 d9 fa 3c a3 c9 36 3d f2 19 b2 bd
       -0.004916246 0.0306213 0.04462589 -0.08696355
000220 9d 38 8d 3c 34 92 a7 bd 22 d3 27 3e b1 30 a6 bd
       0.01723891 -0.08182183 0.16389135 -0.08114756
000230 f1 fe d6 bd bb 91 9d 3c fa 65 80 bd 55 3d d5 bc
       -0.10497845 0.019234529 -0.062694505 -0.026030222
000240 1b 1a 12 bc 1e d7 ee 3d 60 ae 2d 3d 34 de 28 bd
       -0.008917357 0.11662124 0.042402625 -0.041227534
000250 75 a1 17 3d 67 41 3f 3d f2 99 2e bd 55 b9 f3 bc
       0.03701921 0.046693232 -0.042627282 -0.02975146
000260 44 93 9b 3d 8b f6 7e 3b 17 7e fa bd ab 42 4d 3d
       0.07596448 0.0038904275 -0.12231081 0.050112408
000270 62 a5 6c 3d 07 7b 80 bc 2a 82 45 bd b5 1c f0 bd
       0.05777491 -0.015683664 -0.048219837 -0.117242254
000280 ef e0 68 bd c0 b9 29 3d ea 97 34 3d cb 2e 9c 3d
       -0.05685514 0.04143691 0.04409019 0.076261126
000290 32 29 0b 3e e1 27 b4 bd 08 2b ca 3c 5c d9 a2 3d
       0.13589934 -0.08796669 0.024678722 0.07951614
0002a0 f8 ec 83 3d db d3 0b bc 4a 08 5f bc 92 88 8f 3d
       0.064416826 -0.008534397 -0.013612816 0.070084706
0002b0 da 7e 83 bd db 35 44 3d 8d 5e 96 3d 56 1e 66 bd
       -0.064206794 0.047902923 0.07342253 -0.056181274
0002c0 02 55 93 3d d0 5f 3d 3b 7a 9a 70 bd da 27 cb 3d
       0.07193948 0.002889622 -0.05874107 0.099197105
0002d0 e7 69 8e bd ea c8 c3 3d e7 48 9d ba 91 b2 97 3d
       -0.06953793 0.09559806 -0.0011999876 0.07407106
0002e0 5a 56 af 3d 9a a4 22 3d d9 3a 24 bd 1c bd 0d 3d
       0.08561392 0.039707758 -0.040095184 0.034604177
0002f0 e2 ac e2 bd bc cf 37 3e 31 bc 02 3e 60 1c e1 3c
       -0.11068131 0.17950338 0.12767102 0.02747935
000300 aa 3c 5e 3e bd 45 4d bd dd 0b 2d 3c 97 3f bb bc
       0.21702829 -0.050115336 0.01056191 -0.02285747
000310 f9 09 6e 3b d5 80 b8 3d cd 79 e7 3d a3 b6 d6 bd
       0.0036321862 0.09008948 0.113025285 -0.10484054
000320 c3 9d 3f 3d 6c 08 b3 bd c2 5b 43 3d af 3f b6 3d
       0.046781313 -0.08741841 0.04769493 0.088988654
000330 fc ad 17 bd 2d 9f 05 3d f2 68 33 3b 80 ad 59 3d
       -0.03703116 0.032622505 0.0027375785 0.053143978
000340 d7 bc f1 3c 11 ce 6d 3d 28 dd c0 bd 7e e7 88 bd
       0.029508991 0.05805785 -0.09417182 -0.06684779
000350 af 01 0e bc 87 e7 ba bc f0 5f 4c bb 38 52 c2 3d
       -0.008667394 -0.022815479 -0.0031185113 0.09488338
000360 d6 3b 1c bd 9a 88 ea 3b 8a 47 62 bd 4a 4c 6d 3b
       -0.038143 0.0071573975 -0.055244006 0.0036208802
000370 b8 92 b3 3d 0d e3 9f bd 28 80 aa 3d b6 13 52 bd
       0.08768219 -0.078069784 0.08325225 -0.05128833
000380 cc d5 cc 3d 59 c9 cc bd 1e ec a7 3d d3 75 be bc
       0.10001716 -0.099993415 0.08199333 -0.023249542
000390 f0 b8 b6 3d b8 38 4b 3d 3f fd c4 3d c7 ed 1d 3d
       0.08921993 0.049614638 0.09618615 0.03855684
0003a0 ce 09 d9 3b b4 c6 92 bc 48 ce db 3c 2c 02 86 3c
       0.0066234833 -0.017917015 0.026831761 0.016358458
0003b0 32 4c fc 3d 6d 4b 77 3d 15 db 8f 3d 6d f1 0a 3d
       0.123192206 0.060374666 0.070242085 0.033921648
0003c0 47 0f c2 3d 1c 5f ad bd 3c 47 bf bd 3c e6 31 bd
       0.0947557 -0.08465406 -0.09339759 -0.04343246
0003d0 78 23 35 be 0a 81 08 bb b7 84 a1 bc f2 c5 85 3d
       -0.17689312 -0.0020828866 -0.019716604 0.06531896
0003e0 9d 3d 59 bd 42 0a fa 3a 50 e2 28 3e 8b f8 c4 bd
       -0.053037275 0.0019076543 0.16492581 -0.09617718
0003f0 65 9c c7 3c 60 90 9f bd d9 93 aa bc c2 1b d9 3b
       0.024366567 -0.07791209 -0.020822452 0.0066256234
