results/qvpo_HalfCheetah-v3/actor_25_04_22_15_18_41_0.pth (torch, 667057 bytes, 24 tensors)

betas f4 [50]
000000 4f 28 82 3b e9 92 01 3c 6a d0 41 3c 76 e6 80 3c
       0.0039720903 0.007908561 0.011829475 0.015734892
000010 59 c4 a0 3c fd 81 c0 3c 85 1f e0 3c 10 9d ff 3c
       0.019624876 0.023499483 0.02735878 0.031202823
000020 5f 7d 0f 3d 58 1c 1f 3d 84 ab 2e 3d f1 2a 3e 3d
       0.035031673 0.03884539 0.04264404 0.04642767
000030 b0 9a 4d 3d d1 fa 5c 3d 64 4b 6c 3d 78 8c 7b 3d
       0.05019635 0.053950135 0.057689086 0.06141326
000040 0e 5f 85 3d 31 f0 8c 3d ac 79 94 3d 87 fb 9b 3d
       0.06512271 0.068817504 0.072497696 0.076163344
000050 c9 75 a3 3d 7b e8 aa 3d a3 53 b2 3d 4a b7 b9 3d
       0.0798145 0.083451234 0.08707359 0.09068163
000060 77 13 c1 3d 32 68 c8 3d 82 b5 cf 3d 6e fb d6 3d
       0.09427541 0.09785499 0.10142042 0.10497175
000070 ff 39 de 3d 3b 71 e5 3d 2b a1 ec 3d d5 c9 f3 3d
       0.108509056 0.112032376 0.11554178 0.11903731
000080 41 eb fa 3d bb 02 01 3e 3d 8c 04 3e 2c 12 08 3e
       0.12251902 0.12598698 0.12944122 0.13288182
000090 8a 94 0b 3e 5b 13 0f 3e a2 8e 12 3e 64 06 16 3e
       0.13630882 0.13972227 0.14312223 0.14650875
0000a0 a4 7a 19 3e 65 eb 1c 3e ab 58 20 3e 7a c2 23 3e
       0.1498819 0.15324171 0.15658824 0.15992156
0000b0 d4 28 27 3e be 8b 2a 3e 3a eb 2d 3e 4d 47 31 3e
       0.16324168 0.1665487 0.16984263 0.17312355
0000c0 fa 9f 34 3e 44 f5 37 3e
       0.17639151 0.17964655

alphas_cumprod f4 [50]
000000 af fb 7e 3f 72 f7 7c 3f 60 f9 79 3f 72 0a 76 3f
       0.9960279 0.9881507 0.9764614 0.9610969
000010 58 36 71 3f 3e 8b 6b 3f 87 19 65 3f 80 f3 5d 3f
       0.94223547 0.9200934 0.89492077 0.86699677
000020 04 2d 56 3f 29 db 4d 3f db 13 45 3f 7e ed 3b 3f
       0.8366244 0.80412537 0.7698342 0.7340926
000030 93 7e 32 3f 58 dd 28 3f 7c 1f 1f 3f c9 59 15 3f
       0.69724387 0.65962744 0.62157416 0.58340126
000040 e5 9f 0b 3f 17 04 02 3f 24 2e f1 3e a7 cf de 3e
       0.54540855 0.5078749 0.47105515 0.435178
000050 0f 07 cd 3e f3 ea bb 3e 1b 8e ab 3e 8b ff 9b 3e
       0.40044448 0.3670269 0.33506855 0.304684
000060 9a 4a 8d 3e 42 ee 7e 3e 56 13 65 3e 71 07 4d 3e
       0.2759598 0.24895576 0.22370657 0.2002237
000070 14 c8 36 3e da 4d 22 3e 1c 8d 0f 3e 2f ed fc 3d
       0.17849761 0.1585001 0.14018673 0.12349927
000080 2e f0 dd 3d 14 fa c1 3d 47 de a8 3d c2 6d 92 3d
       0.10836826 0.09471527 0.08245521 0.07149841
000090 3e f0 7c 3d e9 98 59 3d 4d 74 3a 3d 1a 23 1f 3d
       0.06175255 0.053124342 0.04552107 0.038851835
0000a0 0c 49 07 3d a4 1b e5 3c 7c 3b c1 3c 91 54 a2 3c
       0.033028647 0.027967282 0.023587935 0.019815715
0000b0 ce d4 87 3c e0 6a 62 3c 4f f6 3b 3c e6 6b 1b 3c
       0.016580965 0.013819426 0.011472299 0.009486174
0000c0 a7 01 00 3c 64 05 d2 3b
       0.007812894 0.006409334

alphas_cumprod_prev f4 [50]
000000 00 00 80 3f af fb 7e 3f 72 f7 7c 3f 60 f9 79 3f
       1.0 0.9960279 0.9881507 0.9764614
000010 72 0a 76 3f 58 36 71 3f 3e 8b 6b 3f 87 19 65 3f
       0.9610969 0.94223547 0.9200934 0.89492077
000020 80 f3 5d 3f 04 2d 56 3f 29 db 4d 3f db 13 45 3f
       0.86699677 0.8366244 0.80412537 0.7698342
000030 7e ed 3b 3f 93 7e 32 3f 58 dd 28 3f 7c 1f 1f 3f
       0.7340926 0.69724387 0.65962744 0.62157416
000040 c9 59 15 3f e5 9f 0b 3f 17 04 02 3f 24 2e f1 3e
       0.58340126 0.54540855 0.5078749 0.47105515
000050 a7 cf de 3e 0f 07 cd 3e f3 ea bb 3e 1b 8e ab 3e
       0.435178 0.40044448 0.3670269 0.33506855
000060 8b ff 9b 3e 9a 4a 8d 3e 42 ee 7e 3e 56 13 65 3e
       0.304684 0.2759598 0.24895576 0.22370657
000070 71 07 4d 3e 14 c8 36 3e da 4d 22 3e 1c 8d 0f 3e
       0.2002237 0.17849761 0.1585001 0.14018673
000080 2f ed fc 3d 2e f0 dd 3d 14 fa c1 3d 47 de a8 3d
       0.12349927 0.10836826 0.09471527 0.08245521
000090 c2 6d 92 3d 3e f0 7c 3d e9 98 59 3d 4d 74 3a 3d
       0.07149841 0.06175255 0.053124342 0.04552107
0000a0 1a 23 1f 3d 0c 49 07 3d a4 1b e5 3c 7c 3b c1 3c
       0.038851835 0.033028647 0.027967282 0.023587935
0000b0 91 54 a2 3c ce d4 87 3c e0 6a 62 3c 4f f6 3b 3c
       0.019815715 0.016580965 0.013819426 0.011472299
0000c0 e6 6b 1b 3c a7 01 00 3c
       0.009486174 0.007812894

sqrt_alphas_cumprod f4 [50]
000000 b7 7d 7f 3f 91 7a 7e 3f 18 f8 7c 3f 94 f8 7a 3f
       0.998012 0.9940577 0.9881606 0.9803555
000010 05 7f 78 3f 1d 8f 75 3f 39 2d 72 3f 51 5e 6e 3f
       0.97068816 0.959215 0.94600254 0.93112665
000020 ed 27 6a 3f 1f 90 65 3f 6b 9d 60 3f b9 56 5b 3f
       0.9146717 0.89673036 0.877402 0.85679203
000030 4d c3 55 3f ab ea 4f 3f 91 d4 49 3f dc 88 43 3f
       0.8350113 0.8121745 0.78839976 0.76380706
000040 81 0f 3d 3f 75 70 36 3f 9f b3 2f 3f ce e0 28 3f
       0.7385178 0.71265346 0.68633455 0.65968025
000050 a1 ff 21 3f 82 17 1b 3f 95 2f 14 3f b0 4e 0d 3f
       0.63280684 0.60582745 0.57885104 0.5519819
000060 4a 7b 06 3f fd 76 ff 3e f3 29 f2 3e f4 19 e5 3e
       0.52531874 0.49895468 0.4729763 0.44746363
000070 95 50 d8 3e 7b d6 cb 3e 59 b3 bf 3e ee ed b3 3e
       0.4224898 0.39812073 0.3744152 0.35142463
000080 08 8c a8 3e 84 92 9d 3e 58 05 93 3e 96 e7 88 3e
       0.32919335 0.30775845 0.28715014 0.26739186
000090 f2 76 7e 3e d5 04 6c 3e 2c 7a 5a 3e dc d6 49 3e
       0.24850062 0.23048718 0.21335667 0.19710869
0000a0 7d 19 3a 3e 72 3f 2b 3e 08 45 1d 3e 91 25 10 3e
       0.18173786 0.16723421 0.15358365 0.1407683
0000b0 86 db 03 3e 3b c1 f0 3d de 5b db 3d 13 78 c7 3d
       0.1287671 0.11755606 0.10710882 0.09739699
0000c0 1e 06 b5 3d 9d f5 a3 3d
       0.088390574 0.080058314

sqrt_one_minus_alphas_cumprod f4 [50]
000000 18 13 81 3d 11 ef de 3d e5 1a 1d 3e f3 f8 49 3e
       0.0630247 0.10885442 0.1534229 0.19723873
000010 5a 1c 76 3e 1c bb 90 3e 34 f8 a5 3e 72 b9 ba 3e
       0.24034253 0.28267753 0.32415926 0.3646961
000020 fa f2 ce 3e 7d 99 e2 3e 93 a2 f5 3e 6e 02 04 3f
       0.4041975 0.44257727 0.47975597 0.5156621
000030 0e dc 0c 3f a8 5a 15 3f 57 7b 1d 3f dc 3b 25 3f
       0.55023277 0.58341455 0.61516327 0.64544463
000040 99 9a 2c 3f 92 96 33 3f 6a 2f 3a 3f 58 65 40 3f
       0.674234 0.7015163 0.727286 0.7515464
000050 29 39 46 3f 2f ac 4b 3f 3c c0 50 3f 97 77 55 3f
       0.7743097 0.79559606 0.81543326 0.83385605
000060 f2 d4 59 3f 57 db 5d 3f 24 8e 61 3f fc f0 64 3f
       0.85090554 0.8666281 0.88107514 0.8943021
000070 b6 07 68 3f 57 d6 6a 3f fd 60 6d 3f dd ab 6f 3f
       0.90636766 0.91733307 0.9272612 0.9362162
000080 31 bb 71 3f 2e 93 73 3f fd 37 75 3f b2 ad 76 3f
       0.94426256 0.95146453 0.95788556 0.9635879
000090 40 f8 77 3f 78 1b 79 3f fe 1a 7a 3f 4a fa 7a 3f
       0.96863174 0.9730754 0.97697437 0.9803816
0000a0 a1 bc 7b 3f 12 65 7c 3f 75 f6 7c 3f 6e 73 7d 3f
       0.983347 0.9859172 0.98813564 0.99004257
0000b0 68 de 7d 3f 97 39 7e 3f fe 86 7e 3f 6b c8 7e 3f
       0.9916749 0.99306625 0.9942473 0.99524564
0000c0 7c ff 7e 3f a4 2d 7f 3f
       0.9960859 0.9967902

log_one_minus_alphas_cumprod f4 [50]
000000 1f e9 b0 c0 84 ef 8d c0 7c f1 6f c0 9f c9 4f c0
       -5.528457 -4.4354877 -3.749114 -3.246681
000010 04 7d 36 c0 ae b8 21 c0 d1 31 10 c0 c9 1c 01 c0
       -2.8513803 -2.526897 -2.2530406 -2.017382
000020 e5 e5 e7 bf 08 ad d0 bf bb 06 bc bf ba 8c a9 bf
       -1.8117033 -1.6302805 -1.4689554 -1.3246071
000030 1d f0 98 bf 8c f2 89 bf a3 c3 78 bf 68 29 60 bf
       -1.1948277 -1.0777144 -0.9717352 -0.8756318
000040 b6 d1 49 bf 7d 82 35 bf fc 09 23 bf 18 3d 12 bf
       -0.7883562 -0.70902234 -0.6368711 -0.5712447
000050 0a f6 02 bf d1 26 ea be bb ee d0 be 1d 0e ba be
       -0.51156676 -0.4573274 -0.40807137 -0.36338893
000060 3e 54 a5 be b1 94 92 be ac a6 81 be 0d c9 64 be
       -0.32290834 -0.28629068 -0.25322473 -0.2234232
000070 de 56 49 be 05 b6 30 be 3d aa 1a be 3b fb 06 be
       -0.19662043 -0.17256935 -0.15104003 -0.13181774
000080 ef e8 ea bd a9 c9 cb bd 06 3d b0 bd 58 ed 97 bd
       -0.1147021 -0.09950573 -0.08605389 -0.074183166
000090 f0 8a 82 bd 2b 97 5f bd dd d4 3e bd a3 4f 22 bd
       -0.063741565 -0.054587524 -0.04658972 -0.03962673
0000a0 eb 91 09 bd 68 5f e8 bc 42 8c c3 bc e2 f5 a3 bc
       -0.033586424 -0.028365806 -0.023870591 -0.020014707
0000b0 42 f8 88 bc 3d ff 63 bc 64 0c 3d bc ec 29 1c bc
       -0.016719941 -0.013915834 -0.011538599 -0.009531479
0000c0 6f 82 00 bc 8a b2 d2 bb
       -0.007843598 -0.006429975

sqrt_recip_alphas_cumprod f4 [50]
000000 46 41 80 3f e1 c3 80 3f 9a 88 81 3f 9d 90 82 3f
       1.001992 1.0059777 1.0119812 1.0200382
000010 7f dd 83 3f 44 71 85 3f 63 4e 87 3f c7 77 89 3f
       1.030197 1.0425191 1.0570797 1.0739678
000020 df f0 8b 3f a4 bd 8e 3f 9f e2 91 3f fd 64 95 3f
       1.0932883 1.1151624 1.1397284 1.1671444
000030 95 4a 99 3f 02 9a 9d 3f ac 5a a2 3f e2 94 a7 3f
       1.1975886 1.2312624 1.2683921 1.309231
000040 f4 51 ad 3f 46 9c b3 3f 7a 7f ba 3f 8d 08 c2 3f
       1.3540635 1.4032066 1.4570153 1.515886
000050 ff 45 ca 3f 02 48 d3 3f b0 20 dd 3f 44 e4 e7 3f
       1.5802611 1.650635 1.72756 1.8116536
000060 5d a9 f3 3f a7 44 00 40 37 50 07 40 44 07 0f 40
       1.903606 2.0041902 2.114271 2.2348185
000070 a3 7b 17 40 59 c1 20 40 e9 ee 2a 40 a9 1d 36 40
       2.3669212 2.511801 2.670832 2.8455603
000080 24 6a 42 40 8e f4 4f 40 42 e1 5e 40 5e 59 6f 40
       3.0377283 3.2493014 3.4824986 3.7398295
000090 b7 c5 80 40 1b d6 8a 40 cd fb 95 40 d3 58 a2 40
       4.024135 4.338636 4.6869874 5.073343
0000a0 ea 13 b0 40 31 59 bf 40 04 5b d0 40 eb 52 e3 40
       5.502431 5.9796376 6.5111103 7.103872
0000b0 bd 82 f8 40 f3 1a 08 41 7b 61 15 41 b0 46 24 41
       7.7659593 8.506579 9.336299 10.267258
0000c0 c8 03 35 41 b4 da 47 41
       11.313423 12.490894

sqrt_recipm1_alphas_cumprod f4 [50]
000000 ba 54 81 3d 3f 44 e0 3d c8 fc 1e 3e 0d 05 4e 3e
       0.063149884 0.10950517 0.15526116 0.20119114
000010 eb 8a 7d 3e 7b e2 96 3e 69 71 af 3e 37 89 c8 3e
       0.24760024 0.29469666 0.34266213 0.39167187
000020 4b 41 e2 3e fe b1 fc 3e 87 fa 0b 3f fc 12 1a 3f
       0.4419044 0.49354547 0.5467915 0.6018522
000030 1c b1 28 3f e7 e4 37 3f a9 bf 47 3f 49 54 58 3f
       0.6589525 0.7183365 0.78026825 0.8450361
000040 76 b7 69 3f d3 ff 7b 3f 29 a3 87 3f 3a d3 91 3f
       0.91295564 0.9843723 1.0596668 1.1392586
000050 4d 9f 9c 3f 35 18 a8 3f 9c 50 b4 3f 41 5d c1 3f
       1.2236115 1.3132387 1.40871 1.5106584
000060 3f 55 cf 3f 54 52 de 3f 43 71 ee 3f 39 d2 ff 3f
       1.619789 1.7368875 1.8628315 1.998603
000070 9c 4c 09 40 53 77 13 40 f0 7f 1e 40 f4 7f 2a 40
       2.1453009 2.304158 2.4765587 2.6640596
000080 14 94 37 40 b1 dc 45 40 53 7e 55 40 46 a2 66 40
       2.868413 3.091595 3.3358352 3.6036544
000090 46 77 79 40 26 19 87 40 b7 87 92 40 79 29 9f 40
       3.8979049 4.22182 4.5790668 4.9738126
0000a0 44 25 ad 40 57 a7 bc 40 2e e2 cd 40 72 0f e1 40
       5.410799 5.895427 6.43386 7.0331354
0000b0 1a 71 f6 40 5c 29 07 41 7e 85 14 41 be 7e 23 41
       7.7013063 8.4475975 9.282591 10.218443
0000c0 67 4e 34 41 7b 36 47 41
       11.269141 12.450801

posterior_variance f4 [50]
000000 00 00 00 00 2a be 2d 3b a2 21 c3 3b e0 fb 1b 3c
       0.0 0.0026511052 0.005954937 0.009520501
000010 c2 8b 58 3c fd 29 8b 3c b6 6e aa 3c 90 f2 c9 3c
       0.013216915 0.016987795 0.020804744 0.024651796
000020 e4 a0 e9 3c 23 b6 04 3d 98 a5 14 3d 48 9b 24 3d
       0.028519101 0.03240026 0.036290735 0.04018715
000030 79 94 34 3d de 8e 44 3d 92 88 54 3d d3 7f 64 3d
       0.044086907 0.04798781 0.051888056 0.055785965
000040 10 73 74 3d 69 30 82 3d d3 23 8a 3d 1b 13 92 3d
       0.059680045 0.0635689 0.06745114 0.0713255
000050 92 fd 99 3d 95 e2 a1 3d 80 c1 a9 3d b3 99 b1 3d
       0.07519068 0.07904545 0.0828886 0.08671894
000060 91 6a b9 3d 89 33 c1 3d 07 f4 c8 3d 7d ab d0 3d
       0.09053529 0.09433658 0.098121695 0.10188959
000070 70 59 d8 3d 63 fd df 3d ec 96 e7 3d a1 25 ef 3d
       0.10563934 0.109370016 0.11308083 0.11677099
000080 2e a9 f6 3d 46 21 fe 3d d8 c6 02 3e 1c 77 06 3e
       0.12043987 0.1240869 0.12771165 0.13131374
000090 60 21 0a 3e 99 c5 0d 3e c4 63 11 3e e5 fb 14 3e
       0.13489294 0.13844909 0.14198214 0.14549215
0000a0 07 8e 18 3e 38 1a 1c 3e 8f a0 1f 3e 24 21 23 3e
       0.14897929 0.15244377 0.15588592 0.15930611
0000b0 11 9c 26 3e 7d 11 2a 3e 83 81 2d 3e 4e ec 30 3e
       0.16270472 0.16608234 0.16943936 0.17277643
0000c0 ff 51 34 3e bd b2 37 3e
       0.17609404 0.17939277

posterior_log_variance_clipped f4 [50]
000000 f1 34 38 c2 53 d9 bd c0 ff f3 a3 c0 17 f0 94 c0
       -46.0517 -5.932779 -5.1235347 -4.654308
000010 b4 70 8a c0 88 68 82 c0 42 d8 77 c0 68 fc 6c c0
       -4.3262577 -4.07526 -3.8725743 -3.7029057
000020 db a8 63 c0 62 7e 5b c0 81 3c 54 c0 96 b5 4d c0
       -3.5571811 -3.4295888 -3.3161929 -3.2142081
000030 2c c8 47 c0 11 5b 42 c0 cb 5a 3d c0 0a b8 38 c0
       -3.1215925 -3.0368083 -2.9586666 -2.8862329
000040 86 66 34 c0 42 5c 30 c0 07 91 2c c0 f9 fd 28 c0
       -2.8187575 -2.755631 -2.6963518 -2.6405013
000050 56 9d 25 c0 34 6a 22 c0 62 60 1f c0 3d 7c 1c c0
       -2.587728 -2.5377321 -2.4902577 -2.445083
000060 a0 ba 19 c0 c3 18 17 c0 39 94 14 c0 da 2a 12 c0
       -2.4020157 -2.3608863 -2.3215468 -2.2838655
000070 b8 da 0f c0 18 a2 0d c0 6d 7f 0b c0 4e 71 09 c0
       -2.2477245 -2.2130184 -2.1796525 -2.1475406
000080 73 76 07 c0 b1 8d 05 c0 f3 b5 03 c0 3d ee 01 c0
       -2.1166046 -2.0867732 -2.0579803 -2.030166
000090 a4 35 00 c0 9d 16 fd bf e8 dc f9 bf af bc f6 bf
       -2.003274 -1.9772526 -1.952054 -1.9276332
0000a0 91 b4 f3 bf 48 c3 f0 bf 9e e7 ed bf 72 20 eb bf
       -1.903948 -1.8809595 -1.8586309 -1.8369277
0000b0 bc 6c e8 bf 76 cb e5 bf ba 3b e3 bf a4 bc e0 bf
       -1.8158183 -1.7952716 -1.7752602 -1.7557569
0000c0 67 4d de bf 3e ed db bf
       -1.7367371 -1.7181776

posterior_mean_coef1 f4 [50]
000000 a0 ff 7f 3f b3 85 2a 3f ae c7 ff 3e 31 a2 cc 3e
       0.9999943 0.6661026 0.4995703 0.39967492
000010 86 87 aa 3e b1 28 92 3e ff bc 7f 3e b0 42 63 3e
       0.3330652 0.2854667 0.2497444 0.22193408
000020 9f 72 4c 3e bf bf 39 3e 22 21 2a 3e 31 df 1c 3e
       0.199656 0.18139552 0.16614202 0.15319516
000030 b4 76 11 3e 45 87 07 3e 12 91 fd 3d 20 06 ee 3d
       0.14205438 0.13235195 0.123811856 0.11622262
000040 5a 17 e0 3d 7f 80 d3 3d dd 0a c8 3d 2b 8a bd 3d
       0.10941954 0.10327243 0.09767697 0.09254869
000050 2c da b3 3d fe dc aa 3d c9 79 a2 3d d3 9b 9a 3d
       0.08781847 0.08342932 0.07933385 0.07549252
000060 b3 31 93 3d c6 2c 8c 3d bb 80 85 3d 55 46 7e 3d
       0.07187214 0.06844477 0.06518694 0.062078793
000070 c2 16 72 3d 1d 64 66 3d 4a 22 5b 3d 45 47 50 3d
       0.059103735 0.05624782 0.053499497 0.050849218
000080 ec ca 45 3d b8 a6 3b 3d 8d d5 31 3d 87 53 28 3d
       0.048289225 0.045813292 0.04341655 0.041095283
000090 c6 1d 1f 3d 54 32 16 3d f0 8f 0d 3d f7 35 05 3d
       0.038846754 0.03666909 0.034561098 0.032522168
0000a0 70 48 fa 3c bd b5 ea 3c a1 b4 db 3c 2d 46 cd 3c
       0.030552119 0.028651113 0.026819529 0.025057876
0000b0 84 6b bf 3c c1 25 b2 3c be 75 a5 3c 0b 5c 99 3c
       0.023366697 0.021746518 0.020197745 0.018720647
0000c0 c9 d8 8d 3c 9e eb 82 3c
       0.017315285 0.015981492

posterior_mean_coef2 f4 [50]
000000 00 00 00 00 d3 f3 aa 3e ff 1a 00 3f ca ab 19 3f
       0.0 0.33389148 0.5004119 0.60027754
000010 ca b5 2a 3f 0f e0 36 3f d2 fd 3f 3f 8a 12 47 3f
       0.6668364 0.71435636 0.74996674 0.77762663
000020 ab b9 4c 3f 3a 56 51 3f 04 2a 55 3f 8e 62 58 3f
       0.79970807 0.81772196 0.83267236 0.8452538
000030 51 20 5b 3f fe 7a 5d 3f 64 84 5f 3f fd 49 61 3f
       0.85596186 0.86515796 0.8731139 0.8800352
000040 47 d6 62 3f 85 31 64 3f 3b 62 65 3f b9 6d 66 3f
       0.8860821 0.8913806 0.8960301 0.90011173
000050 49 58 67 3f 7a 25 68 3f 3a d8 68 3f 06 73 69 3f
       0.9036909 0.90682185 0.90954936 0.91191137
000060 f5 f7 69 3f d7 68 6a 3f 3d c7 6a 3f 7c 14 6b 3f
       0.9139398 0.9156622 0.91710263 0.9182813
000070 d2 51 6b 3f 54 80 6b 3f 00 a1 6b 3f ba b4 6b 3f
       0.9192172 0.9199269 0.9204254 0.9207264
000080 5f bc 6b 3f b5 b8 6b 3f 7f aa 6b 3f 70 92 6b 3f
       0.92084306 0.92078716 0.9205703 0.9202032
000090 3b 71 6b 3f 82 47 6b 3f ea 15 6b 3f 0d dd 6a 3f
       0.9196965 0.9190599 0.91830313 0.91743547
0000a0 83 9d 6a 3f dd 57 6a 3f a6 0c 6a 3f 60 bc 69 3f
       0.91646594 0.9154032 0.9142555 0.9130306
0000b0 89 67 69 3f 9b 0e 69 3f 04 b2 68 3f 32 52 68 3f
       0.9117361 0.9103791 0.9089663 0.9075042
0000c0 81 ef 67 3f 4f 8a 67 3f
       0.9059983 0.9044542

model.time_mlp.1.weight f4 [256, 32]
000000 4c a4 38 bd 64 ca 12 3e 0a 0c 44 3d 3a 33 79 bd
       -0.04507856 0.14335018 0.047863044 -0.06083987
000010 ec f1 f6 bc c2 ad b3 bd e2 3a a5 bd bf 50 f4 bd
       -0.030144654 -0.08773376 -0.08067872 -0.119294636
000020 ef da 56 3e 32 28 58 3e 62 06 fb 3c 0b d8 27 bc
       0.20981954 0.21109083 0.030642692 -0.01024438
000030 3b 48 27 3d e3 58 c4 3d 08 e2 23 bd bc f9 a6 bd
       0.04084037 0.09587266 -0.040010482 -0.08153102
000040 46 a3 de bd 9e 57 12 3d d6 f3 f5 bc 67 c4 66 3d
       -0.10870986 0.03572809 -0.030023497 0.056339648
000050 ad 05 14 be ff 20 43 3d a2 e8 4a be 42 4f 04 be
       -0.1445529 0.04763889 -0.19815305 -0.1292086
000060 7e 8c 9e 3d e3 c9 49 bc 6d 47 73 be 7e 58 91 3c
       0.077416405 -0.0123162 -0.23757716 0.017742392
000070 80 1f a0 bd 74 47 93 bd 11 6f aa bc 68 6e fb 3d
       -0.07818508 -0.07191363 -0.020804914 0.12276918
000080 c3 65 6b bd f9 78 4c bd 12 8d 71 3d ca 1b f4 3d
       -0.057470094 -0.049920056 0.058972426 0.11919363
000090 fe 16 ee bd 49 69 05 bc 1f c7 6e 3b e2 6e 4e 3d
       -0.11625479 -0.008142778 0.0036434603 0.050398715
0000a0 c5 1a e2 3d 3c 85 36 be d2 46 89 bd 1f 52 37 3c
       0.11040262 -0.17824262 -0.06702961 0.011189013
0000b0 70 08 02 3e 84 7d 9d bd ba fd 88 bd bc 45 e6 bd
       0.12698531 -0.07689956 -0.066890195 -0.112437695
0000c0 ac c9 a3 3d 62 96 e9 3d 64 08 98 bb 37 42 16 be
       0.0799745 0.11405636 -0.004639672 -0.14673696
0000d0 14 6d f6 bd 67 42 48 bc d3 ba bf bc 9c ab 52 3d
       -0.12032524 -0.012222863 -0.023404514 0.05143319
0000e0 d5 1a 88 bd 22 a1 94 3d 50 59 58 3d d0 c7 0f bd
       -0.06645743 0.07257296 0.05281955 -0.035102665
0000f0 9e b1 02 3c 7a 32 3b bd 7c 42 51 be b5 8b 86 bd
       0.007976918 -0.045702435 -0.20435518 -0.06569616
000100 e9 7c d9 3d e3 34 ce 3b be 8f 21 3d 31 50 94 be
       0.10619528 0.0062929257 0.039443724 -0.2896743
000110 67 e9 76 bd b7 a1 63 bd bf ce 39 bd ce e7 6a bd
       -0.060281184 -0.055574145 -0.045363184 -0.057349972
000120 df 3c d5 bc 29 50 e0 3c 79 97 23 be 70 34 3d be
       -0.026030002 0.027381973 -0.15975751 -0.18477035
000130 1b b7 4d bd 8a 57 01 3e 0c 35 be 3d b8 29 34 bc
       -0.05022345 0.1263105 0.09287462 -0.010996275
000140 8c 3b 55 3d 14 6e c8 3d 26 49 30 3e a9 f7 a5 3d
       0.05205874 0.09786621 0.17215404 0.08103878
000150 5a ee eb 3c 23 64 85 3e 75 7a 55 3d 02 f0 bb bc
       0.028800178 0.2605296 0.052118737 -0.022941593
000160 e9 3e 9b bd 8c 08 49 3d 23 b0 c0 bd 2e f1 45 bd
       -0.075803585 0.049080417 -0.094085954 -0.04832571
000170 5d 07 46 be 1f b8 ae bd 89 c1 02 be 60 c9 40 3c
       -0.19338746 -0.08531212 -0.1276914 0.011766762
000180 4d 61 44 3c b5 e3 cd 3d 8a a3 03 be a3 ad 29 bd
       0.011986089 0.10053197 -0.12855354 -0.04142536
000190 7f 89 18 bc d8 53 8a bd ef 7a 67 3d f6 8b 1f 3e
       -0.009310125 -0.06754273 0.056513723 0.15580735
0001a0 0d a7 3c bd 4f 1c 56 bd d0 3d 97 3d d0 63 36 be
       -0.04605775 -0.05227309 0.07384837 -0.17811513
0001b0 60 ad 0a bd c3 22 42 bd 92 6a f1 3c 0d 83 9f 3d
       -0.03385675 -0.047396433 0.029469762 0.07788668
0001c0 95 dd c9 bc 3e ec 3c be 00 b2 76 bd 15 97 3f be
       -0.024641791 -0.18449494 -0.060228348 -0.18709977
0001d0 f2 39 a7 bd b7 20 80 bc 00 e8 96 3d 85 06 f2 3d
       -0.08165349 -0.0156406 0.07368469 0.1181765
0001e0 ea f2 45 be 00 3f 58 3d 59 09 11 be 3e a3 40 be
       -0.19330946 0.052794456 -0.14163722 -0.18812272
0001f0 52 9f 84 3d 98 bf 85 bd c7 6c 48 3c 10 e3 32 3d
       0.064757004 -0.06530684 0.012232966 0.043673575
000200 65 2c b7 3d 60 25 97 bd 53 0b 5d 3d 61 0a a2 bd
       0.089440145 -0.073801756 0.053965878 -0.07912136
000210 7a db 43 3d cd f1 9c bd 8e be 99 bd be a2 81 bd
       0.04781673 -0.07663307 -0.075070485 -0.06329869
000220 19 c7 2c bd b2 d5 e9 bc 15 14 9a bd 49 d9 8a 3d
       -0.04218206 -0.02854428 -0.075233616 0.06779725
000230 2b 31 ad 3d 89 de 19 3c ef ac 46 bd 10 a2 c6 bd
       0.08456644 0.009391435 -0.048504766 -0.0969888
000240 ac ba 44 3d 32 c4 3f 3d f6 12 3a bd 8e 31 e3 3d
       0.048029587 0.046817966 -0.04542824 0.11093436
000250 2e 01 c6 bd 59 89 8e bb 78 25 05 3d b7 0a b1 3d
       -0.09668194 -0.004349869 0.032506436 0.08644622
000260 a0 8f 9d 3d b6 69 c4 bd 44 80 2e 3e 5e 16 00 be
       0.0769341 -0.09590475 0.17041117 -0.12508532
000270 58 49 4a 3d ca 5e bc 3d 1d 8d 37 3b 69 90 5f 3d
       0.049386352 0.09197767 0.0028007694 0.05458108
000280 8d c4 1b bd 7c a2 d5 bc 12 c9 93 bc ea 97 0e bd
       -0.038029242 -0.026078455 -0.018040214 -0.034812845
000290 02 58 26 3d 2a c7 23 bd 9c 3f 52 bd fc 82 47 3e
       0.040611275 -0.03998486 -0.051330194 0.1948356
0002a0 e8 35 0d bd b2 7d 3d bd 6a 4b a9 3d f9 6c 7f bd
       -0.034475237 -0.04626245 0.08266337 -0.062359784
0002b0 ca ff e3 bd 09 4a c3 ba 48 59 90 3b d1 39 44 3a
       -0.11132772 -0.0014899384 0.0044051744 0.0007485422
0002c0 b1 1f 79 3d 59 d5 aa 3d 52 13 da bc ba f3 5b bc
       0.06082124 0.08341474 -0.02662054 -0.013424808
0002d0 91 09 a0 bd e2 39 ae 3b 37 15 5e bd 03 d3 a4 3d
       -0.07814325 0.0053169588 -0.05421945 0.0804806
0002e0 4e ea 41 3d 47 06 83 3d fc 20 d1 3d ba 21 2b bd
       0.04734259 0.06397682 0.102113694 -0.04178021
0002f0 5e 8d 30 3d 32 d1 de 3d 19 69 b9 3d 78 f7 1f 3d
       0.04310357 0.108797446 0.09053249 0.039054364
000300 00 12 cc 3d 20 f9 30 3d ed e6 46 be 20 e8 05 bd
       0.09964371 0.043206334 -0.19424029 -0.032692075
000310 4d 04 a5 3d 07 ef 22 3d bd 18 23 3c 10 7d 6c be
       0.08057461 0.039778735 0.009954629 -0.23094583
000320 1a 26 fe 3a 88 75 27 bd ed da 32 bd 35 67 39 3c
       0.0019390017 -0.04088357 -0.043665815 0.01131611
000330 b0 39 f0 3d 37 fb fd 3d 47 09 35 bd f3 e1 22 3e
       0.11729753 0.12401431 -0.0441983 0.15906505
000340 73 4c 98 bc bd 72 a3 bd 95 d9 09 3d 9e 8a 1d bd
       -0.018591141 -0.07980869 0.033654768 -0.038462274
000350 8b 5d 3d 3d 74 61 f9 3d 14 d0 36 bb 0b be bb bd
       0.046231788 0.12176791 -0.002789502 -0.09167107
000360 42 09 de bd ad 53 b2 3d 04 6a c5 bd 37 ce df bc
       -0.108416095 0.08707366 -0.096393615 -0.02732001
000370 37 eb 3d bd 34 63 d4 3c 45 12 6f 3d c2 fb 3d be
       -0.046366896 0.02592621 0.058367033 -0.18553069
000380 a8 1d 46 bd 31 98 09 bd 4a 9d 61 bc fc 03 c5 3d
       -0.048368126 -0.033592407 -0.013770411 0.096199006
000390 e3 c7 32 3c 57 0c c8 bd 29 1f 48 bd 15 d2 e7 bd
       0.0109119145 -0.09767979 -0.04885784 -0.11319367
0003a0 9b 48 c0 bb e9 51 af bc 54 33 ee bc 9f 2e 02 bd
       -0.0058680302 -0.021401362 -0.02907721 -0.031782743
0003b0 9c f0 5e bd b7 10 b9 3d 96 62 c0 bd 46 91 23 3e
       -0.05442868 0.09036391 -0.09393804 0.15973386
0003c0 5f 09 7a bd d8 04 c6 bb b3 e1 03 3e fd f8 de 3b
       -0.061044093 -0.006043058 0.12879066 0.006804584
0003d0 37 21 9f bd 9b 3c 29 be 61 80 cb 3d da 94 0c bd
       -0.07770007 -0.16527025 0.09936596 -0.034321643
0003e0 fa 10 2f bd 75 cf 3e 3d 28 fa 32 bd d6 3e f3 3d
       -0.0427408 0.046584565 -0.0436956 0.118772194
0003f0 1c 0f 17 3d 9a bd c1 3d 82 90 a0 3d a8 0a 92 bd
       0.036879644 0.09459992 0.07840063 -0.07130939

model.time_mlp.1.bias f4 [256]
000000 d8 9c 23 3a 8c 7f 80 bc 79 ee 27 3d 1d 75 0e 3a
       0.0006241328 -0.01568582 0.04099891 0.00054343214
000010 3b 0d af 3b 73 cc 79 bb 56 98 a2 bb 7e 49 b2 3b
       0.0053421534 -0.0038116246 -0.0049620075 0.00544089
000020 74 02 05 3d e0 cb 28 3c fa 4a 27 bc bd 79 96 3b
       0.032473043 0.010302514 -0.010210747 0.004592149
000030 0f 20 12 bc 31 03 8c 3b 13 66 c0 b9 7b 8a 5a 3a
       -0.008918776 0.0042728414 -0.00036697145 0.0008336675
000040 bb f7 1e 3a ce 01 2f 3c 94 86 2f ba 61 cc c1 3b
       0.00060641364 0.010681583 -0.0006695774 0.0059142564
000050 d2 e2 ed 3c 6e 67 78 3c 5e 30 90 3b 5f d3 18 bb
       0.02903882 0.015161378 0.004400297 -0.0023319346
000060 bd ea 48 3c 92 8f 1d 3c 5c 10 3d 3c a9 80 b7 3b
       0.012262997 0.009616749 0.011539545 0.0056000543
000070 d9 78 0a 3c e1 83 e2 3b e1 01 a0 3a 3d a8 88 3b
       0.008451664 0.006912694 0.0012207591 0.004170446
000080 83 a9 83 3c e9 c1 ac bb a8 dc 57 39 f8 ba cd 3b
       0.01607204 -0.0052721393 0.00020586199 0.006278392
000090 67 0d 46 3b 22 65 99 ba aa 08 32 3c 4f 91 0f 3c
       0.003022039 -0.0011703114 0.0108663235 0.008762672
0000a0 6b dc 14 3a 11 34 40 3b b2 86 cb 3b 8b 8e c1 3b
       0.0005678597 0.002932791 0.0062111253 0.005906885
0000b0 fc d5 d7 3a b3 ca dd 3b ca 3b 9d 3a fe b1 c5 3b
       0.001646697 0.0067685484 0.0011995968 0.006033181
0000c0 3a 7a 2a 3c 59 fe 87 3c 55 d1 4a bb 7a eb 39 bb
       0.010405118 0.016600775 -0.0030947526 -0.0028369115
0000d0 8b ce 30 3b e9 70 e5 3c e5 4b 34 bb 1e f7 20 3b
       0.0026978578 0.028007941 -0.0027511057 0.0024561356
0000e0 03 91 9a 3b 6a a2 68 3b 24 4d a8 3b b0 a7 6e 3a
       0.004716994 0.0035497197 0.005136149 0.0009103967
0000f0 21 bd 4a 3c 38 30 06 3d e5 16 03 3c e9 77 a0 3c
       0.012374193 0.03276083 0.008001064 0.019588428
000100 04 e5 11 3c d8 b2 98 3a 79 f8 a7 ba ad 7f aa 3b
       0.008904699 0.0011649979 -0.001281514 0.0052032084
000110 3b 24 0c 3c a0 ea 24 3b 32 4b a6 3b ff c0 0a 3c
       0.00855356 0.0025164261 0.005074882 0.008468865
000120 56 22 16 bb a4 71 2e b9 22 aa 64 3c c5 8b 4f 3c
       -0.002290865 -0.00016636268 0.013956578 0.012667601
000130 1d 6b 02 3c a3 d2 70 3b 1e c1 e3 3c 34 c2 44 3c
       0.007960108 0.0036746643 0.027802046 0.012009192
000140 2b e9 22 3c 26 dd c8 3b 87 95 4a bb e9 23 dd 3c
       0.009943287 0.0061298786 -0.003091188 0.026994662
000150 32 4a 39 3c 70 8f 3d 3c 36 a2 27 3b 10 71 af 3b
       0.011309193 0.011569843 0.0025578863 0.0053540543
000160 10 62 3a 3c fb bf ce 3c 24 5b b8 3b 94 5f 4f bc
       0.011375919 0.025238028 0.005626099 -0.012657065
000170 d9 4e 53 3c 8e 31 1d 3c 20 2f 90 3c de a9 67 3c
       0.012897217 0.009594334 0.017600596 0.014139621
000180 60 45 a9 bb 42 45 b2 3a bd ac 0e bb 5f 12 c7 39
       -0.005165741 0.0013600963 -0.002177044 0.00037969925
000190 c0 d4 c3 3a c3 34 a5 bb 4b 17 69 3c 28 cf e9 3b
       0.0014940724 -0.00504169 0.014226745 0.0071352907
0001a0 de 53 71 3c b7 5c 77 bb 58 9b a8 bb dc db 93 3a
       0.014729468 -0.0037744471 -0.0051454715 0.0011280733
0001b0 63 6b b5 3b 22 e8 e1 ba 66 dd bf 3a 43 25 82 ba
       0.005536483 -0.0017235319 0.0014638125 -0.0009929318
0001c0 c9 8e 7c 3b 10 4e b0 3c 22 46 a2 3a d1 c2 9c bc
       0.0038537255 0.021521598 0.001238052 -0.019135864
0001d0 15 ce 32 3c 84 d3 28 3b 6a a2 09 3d f2 59 77 ba
       0.010913392 0.0025760839 0.033602156 -0.0009435705
0001e0 6f 58 d3 3b 2c 2c 6b 3b 0f f8 25 bb 3b 5f a2 3b
       0.006449751 0.0035884483 -0.0025324856 0.0049552
0001f0 20 92 f5 3b dd bb 76 3a f4 6c da ba eb bc 62 3b
       0.007494226 0.0009412149 -0.0016664551 0.0034597467
000200 36 48 3e 3a f1 b4 ad 3c ee 56 5a ba 83 f6 61 bb
       0.0007258685 0.021204444 -0.00083289936 -0.0034479208
000210 3f 49 de 3c f8 90 7d 3b 19 43 17 3b e4 e9 8d 3c
       0.027134536 0.0038691144 0.0023080765 0.017323442
000220 22 25 cd 3b 10 41 ac 3b 23 60 90 3b 8a 92 2d 3b
       0.00626053 0.0052567795 0.0044059916 0.002648505
000230 37 c5 6d bb e9 ce 65 bb ab 97 3d 3c 9a 76 0c 3c
       -0.003628088 -0.0035065955 0.011571805 0.008573199
000240 f9 71 87 3b 82 fd ad ba 3c b1 7f 3a 64 ca 65 3a
       0.0041334596 -0.0013274404 0.0009753888 0.00087658153
000250 b8 c0 d8 3b 07 bf e4 ba d7 af ed bc 71 1c a5 3b
       0.0066147707 -0.001745195 -0.029014511 0.005038791
000260 10 aa b7 bb 7e 5a 91 3b 17 45 db 3b 4e 54 b1 3a
       -0.00560499 0.0044358363 0.0066915858 0.0013529153
000270 b9 4f fa bb 99 8b af bb 4f c4 d4 3c 51 f6 3f 3b
       -0.007638898 -0.0053572175 0.025972513 0.0029291103
000280 70 b1 0b 3c f6 2b 29 3c 6e f6 53 3b 86 d4 b7 3a
       0.008526191 0.0103254225 0.0032342928 0.0014025129
000290 3a 1a d2 3b 0a a0 09 bc fc 10 cf 3b d7 b4 c4 3b
       0.006411818 -0.008399973 0.0063191634 0.006003003
0002a0 8a 3d 36 3c e1 df 4b bb 8c f3 fe bb 46 61 5f bb
       0.0111230705 -0.0031108784 -0.007780498 -0.003408508
0002b0 00 f1 c9 3a 11 d2 6e 3c ae bd b3 b8 86 d0 7d 3b
       0.0015406907 0.014576451 -8.570716e-05 0.0038729026
0002c0 b7 e2 e4 3a 26 8c b3 ba 99 95 64 bb 6b 56 51 3b
       0.0017462586 -0.0013698384 -0.0034879206 0.0031942378
0002d0 06 39 19 ba 22 ef 14 3c a0 9a 49 3a a3 a1 52 3b
       -0.0005844984 0.009090217 0.00076905824 0.00321398
0002e0 23 c5 15 bc 4a f2 9e 3b 1f 30 87 3b 11 2f df 3b
       -0.009141239 0.0048506605 0.0041256095 0.0068110307
0002f0 c8 6f 14 3c 78 e7 83 b9 1b 8d 05 3b 29 db 95 ba
       0.009059854 -0.00025158725 0.0020378295 -0.0011433113
000300 25 85 87 3b f3 cf 03 bc dc f8 9f 3b 21 c1 40 3b
       0.004135745 -0.008045184 0.0048819613 0.0029411989
000310 88 00 6d 3a 80 f2 07 bc 33 b3 53 bc bb 32 81 38
       0.00090409117 -0.008297563 -0.012921142 6.1606486e-05
000320 90 62 bc bb b3 61 0c bc d4 e5 5c bb 05 b4 67 bc
       -0.0057490543 -0.008568215 -0.0033706324 -0.014142041
000330 65 37 94 bc 28 b1 05 3c 30 b5 53 3b ae e7 af 3a
       -0.01809282 0.008159913 0.003230404 0.0013420486
000340 65 f0 6b 3c 52 f0 11 ba 8d 02 5a bc c4 91 8a bc
       0.014400576 -0.00055671216 -0.013306272 -0.01691521
000350 70 c8 34 3b 84 a6 23 3b 65 c0 c7 bb 12 69 88 3b
       0.002758529 0.0024971077 -0.0060959333 0.004162916
000360 10 5d 5b 3b ed a6 df 3b a4 c1 e5 3a 0f 65 4b bc
       0.0033472218 0.006825319 0.0017529023 -0.012414231
000370 30 dc e5 3b 0c f1 55 3c 60 cc 7d bc b8 09 3b 3b
       0.007014774 0.013057958 -0.015490621 0.0028539728
000380 a8 17 fd 3b cc 58 3e ba b2 ba 0e 3c b9 ec d8 3b
       0.0077237673 -0.00072611566 0.008711504 0.0066200164
000390 93 fb cd bb 19 a8 ad 3b 35 09 0e 3c e4 de e7 b9
       -0.0062860935 0.00529958 0.008669187 -0.0004422582
0003a0 f6 90 87 3a f4 b8 94 3b 8f 36 55 bb 57 96 03 3b
       0.0010342884 0.0045386497 -0.003253374 0.0020078623
0003b0 f2 4f 1d 3b ae fd 4a 3c 79 28 0c 3c 43 db ab ba
       0.002400395 0.0123895835 0.008554571 -0.001311161
0003c0 95 84 61 3b 45 9e e8 3a 35 4b d9 3b 91 1a 29 bb
       0.00344113 0.0017747363 0.00663128 -0.0025803188
0003d0 e1 68 7b b9 de 28 ab 3c b6 ba 32 bc 41 7f c6 3b
       -0.00023976296 0.02089351 -0.010908773 0.0060576503
0003e0 e5 92 bb 3a 6f ea 8f bc 5a e3 eb 3b 65 36 e9 bb
       0.0014310746 -0.017567841 0.0071987333 -0.00711708
0003f0 b1 37 22 3c d3 90 c2 3a 61 e5 31 ba 95 43 63 3a
       0.009900973 0.0014844186 -0.0006786194 0.00086694333

model.time_mlp.3.weight f4 [32, 256]
000000 02 d3 37 bc be 5e da 3c 85 99 af bc c0 10 08 3d
       -0.011219742 0.026656505 -0.021435509 0.0332191
000010 76 4a 01 3c 10 98 82 3a f2 87 18 bd 05 75 08 3d
       0.007891288 0.0009963531 -0.037239023 0.033314724
000020 72 6f 14 3d f6 9b fe 3c aa f3 55 bc 0a 9a 43 3d
       0.036239095 0.031080227 -0.013058582 0.047754325
000030 bc 36 f3 bb 68 19 18 bc 3d 5d 8a 3d 65 cc ab 3c
       -0.0074222963 -0.009283401 0.06756065 0.020971486
000040 35 fb 4e bc da 09 2d 3c 47 20 cf bc 22 b2 2d 3d
       -0.012633135 0.010561431 -0.025283946 0.04240621
000050 23 02 c1 3b 75 95 b5 bd 27 84 78 bd 81 bd d8 bc
       0.0058901473 -0.08866397 -0.060672905 -0.02645755
000060 a8 b5 62 bd 0f 07 27 bd b8 78 e8 3c c8 64 e0 3b
       -0.055349022 -0.040778216 0.028377876 0.0068479516
000070 33 b3 5a bd fa a6 be bc 5e ca 53 3c 0f d7 50 bd
       -0.053393554 -0.02327298 0.012926666 -0.050986346
000080 1b 9b d7 bc 67 1b 2e 3d 99 af 8f bc 2a ed 53 3d
       -0.026319077 0.0425066 -0.017539786 0.05173985
000090 de c0 a3 3c 99 f3 31 3d 8a 75 01 bb 6d d0 fd 3c
       0.019989427 0.043445203 -0.0019753897 0.030983174
0000a0 b9 45 49 bd bc f6 82 bd 64 60 21 3d a3 b3 1a bb
       -0.04913876 -0.06394717 0.039398566 -0.0023605607
0000b0 65 95 85 bd 56 5d b6 3c 80 16 27 3c 08 f6 81 3d
       -0.06522635 0.022261303 0.0101982355 0.06345755
0000c0 d2 1c b6 bc 28 14 a9 bc c4 ad 0b bd 5f b4 b4 3d
       -0.02223054 -0.020639494 -0.034101263 0.088234656
0000d0 ee 19 5b 3d 18 29 48 bd a1 82 9c bc ba 6c ef bc
       0.053491525 -0.048867315 -0.019105257 -0.02922665
0000e0 73 eb 72 3d c6 7f f1 3c 06 eb 2b 3d 80 3d e6 bc
       0.059306573 0.029479872 0.041972183 -0.028105497
0000f0 03 5d 97 bc ba ed 1f 3b 25 88 ca 3c db 3a 7d 3c
       -0.018476969 0.002440317 0.024723122 0.015455927
000100 1b 7a 02 3d 75 9e 52 3a 5a c8 17 bd 6b ac 2b bd
       0.03185473 0.0008034476 -0.037056305 -0.041912477
000110 a6 64 75 bd c5 a4 57 bd bb 8b eb 3a 5b 71 2f 3c
       -0.05991044 -0.05264737 0.001797072 0.010708178
000120 8c 40 0f bd 4f 23 66 bb cb b6 64 ba 5c 69 ba 3b
       -0.034973666 -0.003511626 -0.0008724748 0.0056888293
000130 12 d3 4c bb 9c 50 34 3d 1a d9 96 3c 7d a4 15 bc
       -0.0031253737 0.044022188 0.018414069 -0.009133455
000140 90 db 4f bb 32 22 0d be 62 a4 41 3d a4 85 92 bd
       -0.0031716563 -0.13782576 0.04727591 -0.07154396
000150 b8 f9 9e bc da a5 ad bc aa 2e 3f 3c 18 4b 00 3d
       -0.019406185 -0.021197248 0.01166884 0.031321615
000160 db a0 9f bd bc ed 6e bd ab 99 92 3c 9c 6c d8 bb
       -0.077943526 -0.05833219 0.01789554 -0.006604744
000170 4c ef 05 bd 41 b5 48 3c c1 5a 8a ba 99 45 98 bd
       -0.032698914 0.012250246 -0.0010555611 -0.0743515
000180 7d 20 11 3d ab bd a2 bc 3c 10 20 3c 18 82 04 3c
       0.035431374 -0.019865831 0.009769496 0.008087657
000190 ea 3c 4a 3c b7 7f 96 3d 07 ec b9 3b 23 66 d7 bd
       0.012343625 0.073485784 0.0056738886 -0.10517528
0001a0 20 51 23 bc 96 23 c0 3c cc b0 4a 3c 3c 7f af 3c
       -0.009968072 0.023454469 0.012371253 0.021422975
0001b0 95 e2 53 3c 17 4d 4b bc a5 c4 90 3c 72 f5 61 bd
       0.012932439 -0.012408516 0.017671892 -0.055165716
0001c0 df 8f b1 3b f4 46 0b bd df c4 32 bc c1 62 88 bb
       0.005418762 -0.034003213 -0.010911196 -0.004162163
0001d0 ba 81 a9 3c cf e8 50 bd af bf 2a ba 57 5e 0f bc
       0.020691741 -0.051003274 -0.00065135484 -0.00875052
0001e0 1f 3f d6 3b 97 ba 9a 3a e1 72 8e b8 08 45 bc 3b
       0.0065382863 0.0011804876 -6.7924855e-05 0.005745534
0001f0 96 24 5b 3c 17 a4 6a 3d 7d 4c 1f 3d 35 4f 83 3b
       0.013375422 0.057285395 0.038891304 0.004007245
000200 d9 b5 2a 3d 12 72 d0 ba 14 68 1a bc 9e 3c 18 bd
       0.04167733 -0.0015903136 -0.009424228 -0.037167184
000210 00 db 03 bd c0 2c ad ba 90 94 e9 3b 93 bb 2f bd
       -0.032191277 -0.0013212189 0.0071283057 -0.042903494
000220 bd 34 38 3d 9d 9f 4e bd a9 60 64 3d 66 56 84 bc
       0.04497217 -0.050445188 0.055756245 -0.01615448
000230 08 b1 0f bd 01 be 06 3d a4 58 92 3d db 5f 80 3d
       -0.03508094 0.032896046 0.07145813 0.06268283
000240 8a cb 26 3c 0b 5d e3 3c 21 d0 9f bb f7 1a 0e bd
       0.010180363 0.027754327 -0.004877106 -0.034693684
000250 ca 12 24 3c 3f ab b0 bc 15 11 99 3c ff d7 3f 3d
       0.010014245 -0.021566032 0.018684903 0.04683685
000260 f6 0b c6 bc 82 ec 9d bb df c0 40 3d ce 5b db bc
       -0.024175625 -0.0048194537 0.047058936 -0.026777174
000270 70 05 90 3c 01 30 ad 3c 9d 88 3f bd 1f 00 4f 3c
       0.017580718 0.021141054 -0.046761144 0.012634306
000280 26 a9 0b 3d 6f f5 5a 3b cf 2b cd bb cf cb a7 bc
       0.03409686 0.003341045 -0.006261326 -0.020482926
000290 40 d5 62 3d 46 3b d4 3c a2 29 1f 3b eb 21 28 3c
       0.055379152 0.02590717 0.002428629 0.010261993
0002a0 e9 49 54 bd ef 19 d4 3b 0e 2d 36 3d d5 b3 b7 3c
       -0.0518283 0.006472818 0.04447656 0.022424618
0002b0 2b 80 97 3c 4e 50 09 bd 16 9f 2a 3d 1e 88 11 bd
       0.018493732 -0.03352385 0.041655622 -0.035530202
0002c0 84 7e 93 bd 5a 6e 40 bd 3d f8 03 3c c1 7e 8e bc
       -0.07201865 -0.04698024 0.00805479 -0.017394425
0002d0 48 b9 ac bc 6b 20 0b 3d cf 68 11 3d 67 a1 07 bb
       -0.021084443 0.033966463 0.035500344 -0.0020695569
0002e0 70 45 3a bc 85 ac 0d 3b dc 73 36 3c 23 85 10 3d
       -0.011369094 0.0021617722 0.011136021 0.03528322
0002f0 6e 4f 8b 3b 03 69 82 3c a8 74 af 3d 3f 82 63 3d
       0.004251412 0.015919214 0.08567172 0.055544134
000300 4b 50 61 bd 2d e6 d8 bc 65 36 15 bd 7c e6 54 bc
       -0.055008214 -0.026476944 -0.036428828 -0.012994405
000310 3a c4 80 bc e8 4c 45 bb 87 07 1b 3d 42 b6 84 3d
       -0.015718568 -0.0030105654 0.037848976 0.064800754
000320 f5 91 30 3d 58 39 73 3c ac ba 30 3b 20 15 98 3b
       0.043107945 0.014845215 0.0026966734 0.00464119
000330 fd 96 8a 3d 00 10 f9 3b be 07 bc 3c e7 b9 b8 3c
       0.0676708 0.0076007843 0.02295291 0.022549583
000340 3c fa c1 bd f2 e1 bb ba d3 d8 ab bb ec ab 21 bd
       -0.094715565 -0.0014334305 -0.0052443533 -0.039470598
000350 37 3a 81 bd af 79 17 bc b5 f1 af 3d 81 80 86 bd
       -0.06309932 -0.00924532 0.08591024 -0.06567479
000360 3e 7c 46 bc e8 08 09 3d 69 10 60 3d fc 7c 5f 3c
       -0.012114583 0.03345576 0.05470315 0.013640638
000370 50 f7 17 bd 26 0e 79 b9 a1 57 84 3c b3 11 15 3d
       -0.03710109 -0.00023751761 0.016155066 0.036393832
000380 c7 ca 1e 3c be 0e 69 bc e6 ab 19 3d 5d 76 5c 3d
       0.009691901 -0.014224706 0.03751745 0.053823818
000390 f9 02 35 3c 34 4c 8c 3c 71 5f 11 bd 5f af 4e 3d
       0.011048072 0.01712618 -0.03549141 0.050460216
0003a0 4a 11 7c 3c d1 2e 83 bc 2c 01 6e bc 21 aa 1a 3c
       0.015384981 -0.016013535 -0.014526647 0.009439976
0003b0 86 37 97 3c a6 c6 2d bd 62 8d c1 3c 26 87 a9 bc
       0.018459093 -0.042425774 0.023626987 -0.020694327
0003c0 95 dd 99 3b d5 cd eb 3c ac cf 82 3a aa 68 68 bd
       0.004695604 0.028784672 0.0009980104 -0.05674044
0003d0 8c e1 7f 3c 2b 7b 65 bc 1c e5 e5 3c bf 9a 64 3d
       0.015617739 -0.014006416 0.02806335 0.05581164
0003e0 38 10 8e 38 13 e2 0e 3d 9c 7f f0 bc 99 2b 87 3c
       6.7741086e-05 0.03488357 -0.029357724 0.016500281
0003f0 1e 26 a2 3c 22 54 38 3d b9 74 2f bd ad e0 27 3d
       0.019793566 0.04500211 -0.042835925 0.040985752

model.time_mlp.3.bias f4 [32]
000000 09 56 75 3c ed d9 2b bc d2 15 4a 3c 63 8d 63 bc
       0.014974126 -0.010488969 0.012334304 -0.01388869
000010 ce 80 4b 3c fd 49 7e 3c 2a 79 64 3c 26 8c 62 bc
       0.012420846 0.01552057 0.013944903 -0.013827359
000020 ab 8d 4b bc 78 8c 63 3c f5 9c fc 3b 5c 81 dc 3b
       -0.012423913 0.013888471 0.0077091404 0.006729288
000030 9f 11 10 3c 50 56 6c 3b e8 0c d2 bb 31 5f 5b bc
       0.008793264 0.0036062188 -0.00641023 -0.013389395
000040 e8 0a 83 3c b2 8d 21 3c fa 2b 39 bc 8a 4a 6c bc
       0.015996411 0.009860443 -0.011301989 -0.014422068
000050 8b 81 68 bc 2d 4a 5e 3c b1 c1 46 3c 91 c5 3c 3c
       -0.014191042 0.01356749 0.012131141 0.011521713
000060 26 bf bb 3b 96 2a 2f 3c f5 ae 81 3c f9 a0 0a 3c
       0.005729574 0.010691306 0.015830496 0.00846123
000070 d1 34 e1 bb 1b 91 96 3b e9 44 5d bc 4c 3c 7c bc
       -0.0068727513 0.0045949346 -0.013505199 -0.015395235

model.layer.0.weight f4 [256, 55]
000000 a5 79 2d 3e dd 95 3b bd f6 02 2e 3e c6 56 2a be
       0.16940935 -0.045797218 0.16993317 -0.16634664
000010 75 23 91 bd f8 21 05 be c6 10 74 3c 22 71 d7 bd
       -0.07086841 -0.1300124 0.014896577 -0.10519625
000020 9d ac 91 3d 5c 48 c3 3d bc 32 87 bd 67 a3 c3 3b
       0.071130015 0.09535286 -0.06601474 0.005970407
000030 a2 67 d5 3c 29 b8 7a bd f7 0d cb bd 59 8c 0d 3d
       0.026050393 -0.061210785 -0.09914773 0.034557674
000040 f0 f8 0f bd 59 28 d6 bc 5e bc 9a 3d 55 cb 9a 3d
       -0.035149515 -0.026142286 0.075554594 0.07558314
000050 5d b3 b5 bc 1c 6a 44 be e8 36 3e 3e 05 62 ee 3b
       -0.022180254 -0.19181103 0.18575633 0.0072748684
000060 18 26 97 bd 7b d0 f5 bc d5 33 13 be 12 d1 04 3c
       -0.07380313 -0.030006638 -0.14375241 0.008106487
000070 be be b4 bc 97 da 7d bc d1 32 33 3d 39 8a 91 bb
       -0.02206361 -0.01549401 0.043749634 -0.0044415263
000080 6e 4e e8 3d 1b 9f d2 bc ed 71 97 3d 14 b8 06 bd
       0.11343084 -0.025710633 0.073947765 -0.032890394
000090 fe 78 90 bd 31 92 61 bd 4d 78 90 bd 40 cd 58 bc
       -0.070543274 -0.05507106 -0.070541956 -0.013232529
0000a0 95 bc 99 3c 99 00 53 3d cb 45 cd 3d 8a a2 82 bd
       0.01876668 0.05151424 0.100230776 -0.06378658
0000b0 ed f3 36 bb cf f7 15 3d 22 3b 33 bb a2 e6 51 3d
       -0.0027916387 0.03661328 -0.0027348478 0.05124534
0000c0 06 97 de 3b cb 4b 35 bd 84 72 6f bc b4 76 cf 3c
       0.0067929057 -0.044261735 -0.014614705 0.025325157
0000d0 fa 7a 0d bd 0e ca f5 3b 11 c1 df 3a 47 5f f5 3d
       -0.034541108 0.0075008934 0.0017071088 0.11981063
0000e0 42 b5 be 3d 57 30 0f 3d 9c d6 1e 3d 69 a2 02 3c
       0.09311916 0.03495821 0.038778886 0.007973292
0000f0 f9 a4 29 3e d9 68 13 3d d7 dd 0f be 11 eb 64 3c
       0.16566838 0.035988662 -0.14049469 0.01397206
000100 72 ef 1b 3c 91 bc 51 3c 2b 00 35 3d 9c a8 18 bd
       0.009517537 0.012801305 0.044189613 -0.037270173
000110 05 8a 9b bd 92 6b 08 be 87 b8 0e 3d 93 44 c9 3d
       -0.075946845 -0.13322285 0.034843948 0.098275326
000120 cb dc ca bc e6 08 98 3b f5 53 5a 3d 4d 6e 15 be
       -0.024763485 0.0046397327 0.053302724 -0.14592858
000130 40 78 e4 3c d7 51 94 3c 84 98 3b 3d 8d 9c 07 be
       0.02788937 0.01810543 0.045799747 -0.13243313
000140 73 ac cf bd 13 1f 39 3d b6 97 26 3c 6c a2 0e bc
       -0.10140314 0.04519565 0.010168007 -0.008705717
000150 bc 24 93 3d 8d 2b 8c 3d b8 3a 98 bd 1c 62 ab 3d
       0.07184741 0.06844244 -0.07433075 0.08368322
000160 ef c2 9d 3b 1f b5 67 bd 08 bf 6b bd 7b be ce 3d
       0.0048144977 -0.056569215 -0.05755523 0.10094925
000170 a9 64 dc bd b5 2b 3e bc 8a 0e 6a bd f6 a8 c0 bd
       -0.10761387 -0.0116071 -0.05714277 -0.09407227
000180 9a 19 3d bd da a8 9c bc 51 4b 95 bd a2 85 45 bd
       -0.046166994 -0.019123483 -0.07289756 -0.048223145
000190 86 d5 96 3b 2d a5 db bd 82 ea 15 3d cd c3 7a bd
       0.0046030907 -0.10724864 0.036600597 -0.061221886
0001a0 d9 14 b1 bd 95 b6 81 bd 86 ea 20 bd e3 a9 e2 bc
       -0.086465545 -0.06333653 -0.03928616 -0.027668899
0001b0 f1 c0 59 3c c8 a9 4b 3d 92 50 dd bd d5 38 06 bd
       0.01329063 0.049722463 -0.10806383 -0.032769043
0001c0 62 32 e7 3d 7c fd b5 bd a7 a9 14 be 2c cb 42 3e
       0.11288907 -0.08886239 -0.14517842 0.19022816
0001d0 cd a5 68 3d 2f fb 67 3d e6 e3 58 3d bc 1e 5c bd
       0.056798745 0.05663603 0.052951716 -0.053740248
0001e0 7a 98 6c 3d f5 c3 9d 3d ec aa 35 3e 39 ee 84 bd
       0.0577626 0.077033915 0.17740983 -0.0649075
0001f0 58 33 a5 bd 9b 3e ac bc 71 34 b7 bd 36 53 9a 3d
       -0.08066434 -0.021025946 -0.08945549 0.075354025
000200 27 cc dc bc c0 2a 74 3c af 15 f8 bc d9 1f 4a bd
       -0.026952816 0.0149027705 -0.030283777 -0.04934678
000210 d5 a1 1b 3c 33 c1 31 3d 5d e4 02 3d 50 d0 c5 bd
       0.009499033 0.04339714 0.031956065 -0.09658873
000220 bf 77 03 3b 63 24 88 bd 2a 4d 38 3e 2c c0 86 bd
       0.0020060388 -0.06647565 0.17998186 -0.065796226
000230 5f 1b c0 bd ab bf 04 3d 27 d1 3f bd dc 12 31 bc
       -0.093802206 0.03240935 -0.046830323 -0.010807719
000240 f3 a5 b1 bc f0 e9 04 3e 6f a9 e1 3c 30 31 5e bd
       -0.021685576 0.12979865 0.027546613 -0.054246128
000250 43 a0 20 3d dc 4a 5d 3d 47 bf be bc 1d c8 18 bd
       0.039215337 0.05402647 -0.023284568 -0.037300218
000260 d4 50 95 3d 29 0c f9 b8 cd d6 db bd 36 7f 9c 3d
       0.07290807 -0.0001187551 -0.107343294 0.07641451
000270 64 1c 7b 3d 6f be 4d bc 9c 99 3f bd 23 f7 d7 bd
       0.061306372 -0.01255761 -0.046777353 -0.105451845
000280 3b 77 6e bd a5 70 23 3d c3 46 1a 3d 5b 32 57 3d
       -0.058219176 0.039902348 0.03766514 0.052538257
000290 dc 6e ff 3d 52 89 12 be bb 68 99 bb c7 e3 d8 3d
       0.124723166 -0.14310196 -0.0046816743 0.1059032
0002a0 1e 7e 07 3e 51 26 0e bd 60 cc d7 bc 0e 2c a9 3d
       0.13231704 -0.03470451 -0.02634257 0.08260356
0002b0 29 e2 9b bd 9f 3f 7e 3d 6a 0f 70 3d b7 c2 3e bd
       -0.07611496 0.062072393 0.05860845 -0.046572413
0002c0 17 d8 aa 3d 60 98 85 3c 38 c4 91 bd 23 1f ad 3d
       0.08341997 0.01630801 -0.07117504 0.084532045
0002d0 f0 c6 5c bd 9d cb dd 3d a1 61 81 3b ba 6b af 3d
       -0.05390066 0.10829852 0.003948406 0.08565469
0002e0 54 4f c5 3d 7e b1 01 3d 4e 23 56 bd c3 31 48 3d
       0.09634271 0.03166341 -0.052279763 0.04887558
0002f0 cc 00 cd bd d5 84 2b 3e a5 cc f0 3d a5 72 4d 3c
       -0.100099176 0.1674989 0.11757783 0.01253954
000300 76 c4 6a 3e d0 a7 0d bd fe 72 cb 3c 41 eb 69 bc
       0.22926506 -0.034583867 0.024835106 -0.01427728
000310 3c f4 79 3c 34 e0 d6 3d 23 bf 01 3e ab ae ed bd
       0.015255984 0.10491982 0.12670569 -0.11605581
000320 2c fa 6f 3d ce cf cd bd ff 3d 0c 3d 1c df c8 3d
       0.058588192 -0.10049401 0.03423881 0.0980818
000330 d6 7a 40 bd a6 15 19 3d c2 d8 1a bc df e2 5a 3d
       -0.046992145 0.03737416 -0.009451093 0.053439017
000340 1d c6 3e 3d 97 fe 8f 3d 82 21 b2 bd 5c db 4c bd
       0.046575654 0.07030981 -0.08697797 -0.050013885
000350 76 24 ce bb 4f a6 45 bc 07 c2 33 bb 8f 5e b6 3d
       -0.0062909676 -0.012063577 -0.0027428882 0.08904754
000360 b5 06 c8 bc 94 44 df bb 7b 32 55 bd 86 84 a0 3a
       -0.02441726 -0.006813595 -0.052050095 0.0012246526
000370 a2 ee 19 3e e4 ba f1 bd de 42 e2 3d e3 29 ac bd
       0.15032437 -0.11803225 0.1104791 -0.08406427
000380 20 dc 04 3e 77 05 10 be 80 f9 c3 3d 6d 9f 13 bd
       0.12974596 -0.14064585 0.09569073 -0.036040712
000390 81 c6 d1 3d 7a 72 10 3d 55 bd dd 3d 5e cc 50 3d
       0.1024294 0.035265423 0.10827128 0.05097615
0003a0 c0 f9 8f 3c 6c 7f 00 bd cd 27 4a 3c 28 f8 04 3d
       0.017575145 -0.03137152 0.012338591 0.032463223
0003b0 f4 68 0b 3e f3 42 8e 3d cd 9f a7 3d 02 6b 40 3d
       0.13614255 0.06946363 0.081847765 0.04697705
0003c0 10 59 af 3d b4 17 c8 bd 5a 98 a3 bd 28 90 ff bc
       0.08561909 -0.09770146 -0.07988043 -0.031196669
0003d0 78 b3 41 be d2 12 5a bc 72 b2 0a bd 96 dc 9f 3d
       -0.18916118 -0.013310151 -0.033861585 0.07805745
0003e0 09 14 16 bd 6d f8 82 3c 85 71 32 3e 02 2f ac bd
       -0.0366402 0.0159876 0.17426117 -0.084074035
0003f0 3a 0a 1e 3d 6d f8 82 bd 06 10 0e bd 57 2e ad 3c
       0.03858397 -0.0639504 -0.03468325 0.02114026
