results/qvpo_HalfCheetah-v3/actor_25_04_22_04_50_46_0.pth (torch, 667057 bytes, 24 tensors)

betas f4 [50]
00000000: 4f28 823b e992 013c 6ad0 413c 76e6 803c
00000010: 59c4 a03c fd81 c03c 851f e03c 109d ff3c
00000020: 5f7d 0f3d 581c 1f3d 84ab 2e3d f12a 3e3d
00000030: b09a 4d3d d1fa 5c3d 644b 6c3d 788c 7b3d
00000040: 0e5f 853d 31f0 8c3d ac79 943d 87fb 9b3d
00000050: c975 a33d 7be8 aa3d a353 b23d 4ab7 b93d
00000060: 7713 c13d 3268 c83d 82b5 cf3d 6efb d63d
00000070: ff39 de3d 3b71 e53d 2ba1 ec3d d5c9 f33d
00000080: 41eb fa3d bb02 013e 3d8c 043e 2c12 083e
00000090: 8a94 0b3e 5b13 0f3e a28e 123e 6406 163e
000000a0: a47a 193e 65eb 1c3e ab58 203e 7ac2 233e
000000b0: d428 273e be8b 2a3e 3aeb 2d3e 4d47 313e
000000c0: fa9f 343e 44f5 373e
0.0039720903 0.007908561 0.011829475 0.015734892 0.019624876 0.023499483 0.02735878 0.031202823
0.035031673 0.03884539 0.04264404 0.04642767 0.05019635 0.053950135 0.057689086 0.06141326
0.06512271 0.068817504 0.072497696 0.076163344 0.0798145 0.083451234 0.08707359 0.09068163
0.09427541 0.09785499 0.10142042 0.10497175 0.108509056 0.112032376 0.11554178 0.11903731
0.12251902 0.12598698 0.12944122 0.13288182 0.13630882 0.13972227 0.14312223 0.14650875
0.1498819 0.15324171 0.15658824 0.15992156 0.16324168 0.1665487 0.16984263 0.17312355
0.17639151 0.17964655

alphas_cumprod f4 [50]
00000000: affb 7e3f 72f7 7c3f 60f9 793f 720a 763f
00000010: 5836 713f 3e8b 6b3f 8719 653f 80f3 5d3f
00000020: 042d 563f 29db 4d3f db13 453f 7eed 3b3f
00000030: 937e 323f 58dd 283f 7c1f 1f3f c959 153f
00000040: e59f 0b3f 1704 023f 242e f13e a7cf de3e
00000050: 0f07 cd3e f3ea bb3e 1b8e ab3e 8bff 9b3e
00000060: 9a4a 8d3e 42ee 7e3e 5613 653e 7107 4d3e
00000070: 14c8 363e da4d 223e 1c8d 0f3e 2fed fc3d
00000080: 2ef0 dd3d 14fa c13d 47de a83d c26d 923d
00000090: 3ef0 7c3d e998 593d 4d74 3a3d 1a23 1f3d
000000a0: 0c49 073d a41b e53c 7c3b c13c 9154 a23c
000000b0: ced4 873c e06a 623c 4ff6 3b3c e66b 1b3c
000000c0: a701 003c 6405 d23b
0.9960279 0.9881507 0.9764614 0.9610969 0.94223547 0.9200934 0.89492077 0.86699677
0.8366244 0.80412537 0.7698342 0.7340926 0.69724387 0.65962744 0.62157416 0.58340126
0.54540855 0.5078749 0.47105515 0.435178 0.40044448 0.3670269 0.33506855 0.304684
0.2759598 0.24895576 0.22370657 0.2002237 0.17849761 0.1585001 0.14018673 0.12349927
0.10836826 0.09471527 0.08245521 0.07149841 0.06175255 0.053124342 0.04552107 0.038851835
0.033028647 0.027967282 0.023587935 0.019815715 0.016580965 0.013819426 0.011472299 0.009486174
0.007812894 0.006409334

alphas_cumprod_prev f4 [50]
00000000: 0000 803f affb 7e3f 72f7 7c3f 60f9 793f
00000010: 720a 763f 5836 713f 3e8b 6b3f 8719 653f
00000020: 80f3 5d3f 042d 563f 29db 4d3f db13 453f
00000030: 7eed 3b3f 937e 323f 58dd 283f 7c1f 1f3f
00000040: c959 153f e59f 0b3f 1704 023f 242e f13e
00000050: a7cf de3e 0f07 cd3e f3ea bb3e 1b8e ab3e
00000060: 8bff 9b3e 9a4a 8d3e 42ee 7e3e 5613 653e
00000070: 7107 4d3e 14c8 363e da4d 223e 1c8d 0f3e
00000080: 2fed fc3d 2ef0 dd3d 14fa c13d 47de a83d
00000090: c26d 923d 3ef0 7c3d e998 593d 4d74 3a3d
000000a0: 1a23 1f3d 0c49 073d a41b e53c 7c3b c13c
000000b0: 9154 a23c ced4 873c e06a 623c 4ff6 3b3c
000000c0: e66b 1b3c a701 003c
1.0 0.9960279 0.9881507 0.9764614 0.9610969 0.94223547 0.9200934 0.89492077
0.86699677 0.8366244 0.80412537 0.7698342 0.7340926 0.69724387 0.65962744 0.62157416
0.58340126 0.54540855 0.5078749 0.47105515 0.435178 0.40044448 0.3670269 0.33506855
0.304684 0.2759598 0.24895576 0.22370657 0.2002237 0.17849761 0.1585001 0.14018673
0.12349927 0.10836826 0.09471527 0.08245521 0.07149841 0.06175255 0.053124342 0.04552107
0.038851835 0.033028647 0.027967282 0.023587935 0.019815715 0.016580965 0.013819426 0.011472299
0.009486174 0.007812894

sqrt_alphas_cumprod f4 [50]
00000000: b77d 7f3f 917a 7e3f 18f8 7c3f 94f8 7a3f
00000010: 057f 783f 1d8f 753f 392d 723f 515e 6e3f
00000020: ed27 6a3f 1f90 653f 6b9d 603f b956 5b3f
00000030: 4dc3 553f abea 4f3f 91d4 493f dc88 433f
00000040: 810f 3d3f 7570 363f 9fb3 2f3f cee0 283f
00000050: a1ff 213f 8217 1b3f 952f 143f b04e 0d3f
00000060: 4a7b 063f fd76 ff3e f329 f23e f419 e53e
00000070: 9550 d83e 7bd6 cb3e 59b3 bf3e eeed b33e
00000080: 088c a83e 8492 9d3e 5805 933e 96e7 883e
00000090: f276 7e3e d504 6c3e 2c7a 5a3e dcd6 493e
000000a0: 7d19 3a3e 723f 2b3e 0845 1d3e 9125 103e
000000b0: 86db 033e 3bc1 f03d de5b db3d 1378 c73d
000000c0: 1e06 b53d 9df5 a33d
0.998012 0.9940577 0.9881606 0.9803555 0.97068816 0.959215 0.94600254 0.93112665
0.9146717 0.89673036 0.877402 0.85679203 0.8350113 0.8121745 0.78839976 0.76380706
0.7385178 0.71265346 0.68633455 0.65968025 0.63280684 0.60582745 0.57885104 0.5519819
0.52531874 0.49895468 0.4729763 0.44746363 0.4224898 0.39812073 0.3744152 0.35142463
0.32919335 0.30775845 0.28715014 0.26739186 0.24850062 0.23048718 0.21335667 0.19710869
0.18173786 0.16723421 0.15358365 0.1407683 0.1287671 0.11755606 0.10710882 0.09739699
0.088390574 0.080058314

sqrt_one_minus_alphas_cumprod f4 [50]
00000000: 1813 813d 11ef de3d e51a 1d3e f3f8 493e
00000010: 5a1c 763e 1cbb 903e 34f8 a53e 72b9 ba3e
00000020: faf2 ce3e 7d99 e23e 93a2 f53e 6e02 043f
00000030: 0edc 0c3f a85a 153f 577b 1d3f dc3b 253f
00000040: 999a 2c3f 9296 333f 6a2f 3a3f 5865 403f
00000050: 2939 463f 2fac 4b3f 3cc0 503f 9777 553f
00000060: f2d4 593f 57db 5d3f 248e 613f fcf0 643f
00000070: b607 683f 57d6 6a3f fd60 6d3f ddab 6f3f
00000080: 31bb 713f 2e93 733f fd37 753f b2ad 763f
00000090: 40f8 773f 781b 793f fe1a 7a3f 4afa 7a3f
000000a0: a1bc 7b3f 1265 7c3f 75f6 7c3f 6e73 7d3f
000000b0: 68de 7d3f 9739 7e3f fe86 7e3f 6bc8 7e3f
000000c0: 7cff 7e3f a42d 7f3f
0.0630247 0.10885442 0.1534229 0.19723873 0.24034253 0.28267753 0.32415926 0.3646961
0.4041975 0.44257727 0.47975597 0.5156621 0.55023277 0.58341455 0.61516327 0.64544463
0.674234 0.7015163 0.727286 0.7515464 0.7743097 0.79559606 0.81543326 0.83385605
0.85090554 0.8666281 0.88107514 0.8943021 0.90636766 0.91733307 0.9272612 0.9362162
0.94426256 0.95146453 0.95788556 0.9635879 0.96863174 0.9730754 0.97697437 0.9803816
0.983347 0.9859172 0.98813564 0.99004257 0.9916749 0.99306625 0.9942473 0.99524564
0.9960859 0.9967902

log_one_minus_alphas_cumprod f4 [50]
00000000: 1fe9 b0c0 84ef 8dc0 7cf1 6fc0 9fc9 4fc0
00000010: 047d 36c0 aeb8 21c0 d131 10c0 c91c 01c0
00000020: e5e5 e7bf 08ad d0bf bb06 bcbf ba8c a9bf
00000030: 1df0 98bf 8cf2 89bf a3c3 78bf 6829 60bf
00000040: b6d1 49bf 7d82 35bf fc09 23bf 183d 12bf
00000050: 0af6 02bf d126 eabe bbee d0be 1d0e babe
00000060: 3e54 a5be b194 92be aca6 81be 0dc9 64be
00000070: de56 49be 05b6 30be 3daa 1abe 3bfb 06be
00000080: efe8 eabd a9c9 cbbd 063d b0bd 58ed 97bd
00000090: f08a 82bd 2b97 5fbd ddd4 3ebd a34f 22bd
000000a0: eb91 09bd 685f e8bc 428c c3bc e2f5 a3bc
000000b0: 42f8 88bc 3dff 63bc 640c 3dbc ec29 1cbc
000000c0: 6f82 00bc 8ab2 d2bb
-5.528457 -4.4354877 -3.749114 -3.246681 -2.8513803 -2.526897 -2.2530406 -2.017382
-1.8117033 -1.6302805 -1.4689554 -1.3246071 -1.1948277 -1.0777144 -0.9717352 -0.8756318
-0.7883562 -0.70902234 -0.6368711 -0.5712447 -0.51156676 -0.4573274 -0.40807137 -0.36338893
-0.32290834 -0.28629068 -0.25322473 -0.2234232 -0.19662043 -0.17256935 -0.15104003 -0.13181774
-0.1147021 -0.09950573 -0.08605389 -0.074183166 -0.063741565 -0.054587524 -0.04658972 -0.03962673
-0.033586424 -0.028365806 -0.023870591 -0.020014707 -0.016719941 -0.013915834 -0.011538599 -0.009531479
-0.007843598 -0.006429975

sqrt_recip_alphas_cumprod f4 [50]
00000000: 4641 803f e1c3 803f 9a88 813f 9d90 823f
00000010: 7fdd 833f 4471 853f 634e 873f c777 893f
00000020: dff0 8b3f a4bd 8e3f 9fe2 913f fd64 953f
00000030: 954a 993f 029a 9d3f ac5a a23f e294 a73f
00000040: f451 ad3f 469c b33f 7a7f ba3f 8d08 c23f
00000050: ff45 ca3f 0248 d33f b020 dd3f 44e4 e73f
00000060: 5da9 f33f a744 0040 3750 0740 4407 0f40
00000070: a37b 1740 59c1 2040 e9ee 2a40 a91d 3640
00000080: 246a 4240 8ef4 4f40 42e1 5e40 5e59 6f40
00000090: b7c5 8040 1bd6 8a40 cdfb 9540 d358 a240
000000a0: ea13 b040 3159 bf40 045b d040 eb52 e340
000000b0: bd82 f840 f31a 0841 7b61 1541 b046 2441
000000c0: c803 3541 b4da 4741
1.001992 1.0059777 1.0119812 1.0200382 1.030197 1.0425191 1.0570797 1.0739678
1.0932883 1.1151624 1.1397284 1.1671444 1.1975886 1.2312624 1.2683921 1.309231
1.3540635 1.4032066 1.4570153 1.515886 1.5802611 1.650635 1.72756 1.8116536
1.903606 2.0041902 2.114271 2.2348185 2.3669212 2.511801 2.670832 2.8455603
3.0377283 3.2493014 3.4824986 3.7398295 4.024135 4.338636 4.6869874 5.073343
5.502431 5.9796376 6.5111103 7.103872 7.7659593 8.506579 9.336299 10.267258
11.313423 12.490894

sqrt_recipm1_alphas_cumprod f4 [50]
00000000: ba54 813d 3f44 e03d c8fc 1e3e 0d05 4e3e
00000010: eb8a 7d3e 7be2 963e 6971 af3e 3789 c83e
00000020: 4b41 e23e feb1 fc3e 87fa 0b3f fc12 1a3f
00000030: 1cb1 283f e7e4 373f a9bf 473f 4954 583f
00000040: 76b7 693f d3ff 7b3f 29a3 873f 3ad3 913f
00000050: 4d9f 9c3f 3518 a83f 9c50 b43f 415d c13f
00000060: 3f55 cf3f 5452 de3f 4371 ee3f 39d2 ff3f
00000070: 9c4c 0940 5377 1340 f07f 1e40 f47f 2a40
00000080: 1494 3740 b1dc 4540 537e 5540 46a2 6640
00000090: 4677 7940 2619 8740 b787 9240 7929 9f40
000000a0: 4425 ad40 57a7 bc40 2ee2 cd40 720f e140
000000b0: 1a71 f640 5c29 0741 7e85 1441 be7e 2341
000000c0: 674e 3441 7b36 4741
0.063149884 0.10950517 0.15526116 0.20119114 0.24760024 0.29469666 0.34266213 0.39167187
0.4419044 0.49354547 0.5467915 0.6018522 0.6589525 0.7183365 0.78026825 0.8450361
0.91295564 0.9843723 1.0596668 1.1392586 1.2236115 1.3132387 1.40871 1.5106584
1.619789 1.7368875 1.8628315 1.998603 2.1453009 2.304158 2.4765587 2.6640596
2.868413 3.091595 3.3358352 3.6036544 3.8979049 4.22182 4.5790668 4.9738126
5.410799 5.895427 6.43386 7.0331354 7.7013063 8.4475975 9.282591 10.218443
11.269141 12.450801

posterior_variance f4 [50]
00000000: 0000 0000 2abe 2d3b a221 c33b e0fb 1b3c
00000010: c28b 583c fd29 8b3c b66e aa3c 90f2 c93c
00000020: e4a0 e93c 23b6 043d 98a5 143d 489b 243d
00000030: 7994 343d de8e 443d 9288 543d d37f 643d
00000040: 1073 743d 6930 823d d323 8a3d 1b13 923d
00000050: 92fd 993d 95e2 a13d 80c1 a93d b399 b13d
00000060: 916a b93d 8933 c13d 07f4 c83d 7dab d03d
00000070: 7059 d83d 63fd df3d ec96 e73d a125 ef3d
00000080: 2ea9 f63d 4621 fe3d d8c6 023e 1c77 063e
00000090: 6021 0a3e 99c5 0d3e c463 113e e5fb 143e
000000a0: 078e 183e 381a 1c3e 8fa0 1f3e 2421 233e
000000b0: 119c 263e 7d11 2a3e 8381 2d3e 4eec 303e
000000c0: ff51 343e bdb2 373e
0.0 0.0026511052 0.005954937 0.009520501 0.013216915 0.016987795 0.020804744 0.024651796
0.028519101 0.03240026 0.036290735 0.04018715 0.044086907 0.04798781 0.051888056 0.055785965
0.059680045 0.0635689 0.06745114 0.0713255 0.07519068 0.07904545 0.0828886 0.08671894
0.09053529 0.09433658 0.098121695 0.10188959 0.10563934 0.109370016 0.11308083 0.11677099
0.12043987 0.1240869 0.12771165 0.13131374 0.13489294 0.13844909 0.14198214 0.14549215
0.14897929 0.15244377 0.15588592 0.15930611 0.16270472 0.16608234 0.16943936 0.17277643
0.17609404 0.17939277

posterior_log_variance_clipped f4 [50]
00000000: f134 38c2 53d9 bdc0 fff3 a3c0 17f0 94c0
00000010: b470 8ac0 8868 82c0 42d8 77c0 68fc 6cc0
00000020: dba8 63c0 627e 5bc0 813c 54c0 96b5 4dc0
00000030: 2cc8 47c0 115b 42c0 cb5a 3dc0 0ab8 38c0
00000040: 8666 34c0 425c 30c0 0791 2cc0 f9fd 28c0
00000050: 569d 25c0 346a 22c0 6260 1fc0 3d7c 1cc0
00000060: a0ba 19c0 c318 17c0 3994 14c0 da2a 12c0
00000070: b8da 0fc0 18a2 0dc0 6d7f 0bc0 4e71 09c0
00000080: 7376 07c0 b18d 05c0 f3b5 03c0 3dee 01c0
00000090: a435 00c0 9d16 fdbf e8dc f9bf afbc f6bf
000000a0: 91b4 f3bf 48c3 f0bf 9ee7 edbf 7220 ebbf
000000b0: bc6c e8bf 76cb e5bf ba3b e3bf a4bc e0bf
000000c0: 674d debf 3eed dbbf
-46.0517 -5.932779 -5.1235347 -4.654308 -4.3262577 -4.07526 -3.8725743 -3.7029057
-3.5571811 -3.4295888 -3.3161929 -3.2142081 -3.1215925 -3.0368083 -2.9586666 -2.8862329
-2.8187575 -2.755631 -2.6963518 -2.6405013 -2.587728 -2.5377321 -2.4902577 -2.445083
-2.4020157 -2.3608863 -2.3215468 -2.2838655 -2.2477245 -2.2130184 -2.1796525 -2.1475406
-2.1166046 -2.0867732 -2.0579803 -2.030166 -2.003274 -1.9772526 -1.952054 -1.9276332
-1.903948 -1.8809595 -1.8586309 -1.8369277 -1.8158183 -1.7952716 -1.7752602 -1.7557569
-1.7367371 -1.7181776

posterior_mean_coef1 f4 [50]
00000000: a0ff 7f3f b385 2a3f aec7 ff3e 31a2 cc3e
00000010: 8687 aa3e b128 923e ffbc 7f3e b042 633e
00000020: 9f72 4c3e bfbf 393e 2221 2a3e 31df 1c3e
00000030: b476 113e 4587 073e 1291 fd3d 2006 ee3d
00000040: 5a17 e03d 7f80 d33d dd0a c83d 2b8a bd3d
00000050: 2cda b33d fedc aa3d c979 a23d d39b 9a3d
00000060: b331 933d c62c 8c3d bb80 853d 5546 7e3d
00000070: c216 723d 1d64 663d 4a22 5b3d 4547 503d
00000080: ecca 453d b8a6 3b3d 8dd5 313d 8753 283d
00000090: c61d 1f3d 5432 163d f08f 0d3d f735 053d
000000a0: 7048 fa3c bdb5 ea3c a1b4 db3c 2d46 cd3c
000000b0: 846b bf3c c125 b23c be75 a53c 0b5c 993c
000000c0: c9d8 8d3c 9eeb 823c
0.9999943 0.6661026 0.4995703 0.39967492 0.3330652 0.2854667 0.2497444 0.22193408
0.199656 0.18139552 0.16614202 0.15319516 0.14205438 0.13235195 0.123811856 0.11622262
0.10941954 0.10327243 0.09767697 0.09254869 0.08781847 0.08342932 0.07933385 0.07549252
0.07187214 0.06844477 0.06518694 0.062078793 0.059103735 0.05624782 0.053499497 0.050849218
0.048289225 0.045813292 0.04341655 0.041095283 0.038846754 0.03666909 0.034561098 0.032522168
0.030552119 0.028651113 0.026819529 0.025057876 0.023366697 0.021746518 0.020197745 0.018720647
0.017315285 0.015981492

posterior_mean_coef2 f4 [50]
00000000: 0000 0000 d3f3 aa3e ff1a 003f caab 193f
00000010: cab5 2a3f 0fe0 363f d2fd 3f3f 8a12 473f
00000020: abb9 4c3f 3a56 513f 042a 553f 8e62 583f
00000030: 5120 5b3f fe7a 5d3f 6484 5f3f fd49 613f
00000040: 47d6 623f 8531 643f 3b62 653f b96d 663f
00000050: 4958 673f 7a25 683f 3ad8 683f 0673 693f
00000060: f5f7 693f d768 6a3f 3dc7 6a3f 7c14 6b3f
00000070: d251 6b3f 5480 6b3f 00a1 6b3f bab4 6b3f
00000080: 5fbc 6b3f b5b8 6b3f 7faa 6b3f 7092 6b3f
00000090: 3b71 6b3f 8247 6b3f ea15 6b3f 0ddd 6a3f
000000a0: 839d 6a3f dd57 6a3f a60c 6a3f 60bc 693f
000000b0: 8967 693f 9b0e 693f 04b2 683f 3252 683f
000000c0: 81ef 673f 4f8a 673f
0.0 0.33389148 0.5004119 0.60027754 0.6668364 0.71435636 0.74996674 0.77762663
0.79970807 0.81772196 0.83267236 0.8452538 0.85596186 0.86515796 0.8731139 0.8800352
0.8860821 0.8913806 0.8960301 0.90011173 0.9036909 0.90682185 0.90954936 0.91191137
0.9139398 0.9156622 0.91710263 0.9182813 0.9192172 0.9199269 0.9204254 0.9207264
0.92084306 0.92078716 0.9205703 0.9202032 0.9196965 0.9190599 0.91830313 0.91743547
0.91646594 0.9154032 0.9142555 0.9130306 0.9117361 0.9103791 0.9089663 0.9075042
0.9059983 0.9044542

model.time_mlp.1.weight f4 [256, 32]
00000000: dae3 b8bd 034c e1bc 64bb 1fbe 2fa0 8c3b
00000010: a7b3 3a3d 1d37 bebd a62b fbbc 5d7e 62bd
00000020: 4761 babd 7e5c ea3d c63a afbd c1c8 64bc
00000030: b8ec 203e c876 ffba c4ce 08be ea9c d4bc
00000040: 7cfd 88ba f19d 21bb 6525 aebd c6bd 3e3e
00000050: 861a e9bd b8ce 85bc 9f65 5d3e 20e2 853d
00000060: d2b8 cb3d 365d 8e3d a059 97ba 19c3 0abe
00000070: 483f d2bd 12cf 963c dd57 303c c942 41bd
00000080: 0d4a a33d 55c4 f7bc 6ed5 70bd 8ece ce3c
00000090: d45b ad3b 39b6 8e3c 70f6 30bc 06a9 e93d
000000a0: 8a82 b2bd 4875 f33d 4f7f 2f3e 0289 4d3e
000000b0: 8867 183d a012 b73d fe91 453e e475 973c
000000c0: ef39 e7bd b1b0 143c 3f5c a0bd b145 c2bd
000000d0: 0dc9 f0bd abd0 473c 7975 e9bc a474 5d3d
000000e0: 2f2a 213e 4840 5dbe b5c8 0bbc 1c86 95ba
000000f0: 3faf 1d3e 9425 95bd cf25 36bd 39a9 3fbc
00000100: cbdf b6bd f6c8 ebbb 7380 843d ca14 6b3c
00000110: 5e67 cabd 623e 42be ae94 4abd 4f80 92bd
00000120: a733 c3bd 5ff2 babd e232 23bd 6fb1 693c
00000130: c3d0 cd3d f77d e0bb 54a4 033e 074a d5bd
00000140: 4e66 ddbc 18b6 d93d af82 a23d c1e5 d43d
00000150: ecbe 3ebd 498b ac3c 4360 5ebc 1970 883b
00000160: 4e1a 003c e696 70bd 2d00 653d b4de e6bd
00000170: a983 bdbd 5e88 26be 233d 373d 1dea 4cbd
00000180: 8153 d53b a1eb d9bc 2acf 943c 65b3 ef3d
00000190: 9c73 d4bd 0e35 eabc 67b2 f0bd f1fb 99bd
000001a0: 40f4 03be 66eb d63d 1769 d23c b914 b53d
000001b0: f2ce a93d 9f80 463d 75ec 073e 3f77 dbbd
000001c0: 8c2b 713d 31e4 7c3d 42d9 bc3c 4810 e5bc
000001d0: 7f57 d93d 21fb 173b ae07 e43c 15b8 7fbc
000001e0: 9c07 07bd 56ca a2bc cb2b 6ebd 8b33 76bd
000001f0: 332a 8939 35d1 afbc 3322 6fbe a67b 6b3d
00000200: 7c6d 09bd 78c8 debc c1ab 7f3a 4053 633d
00000210: 1f54 e33d 679f 64bd 6476 34be c2d4 27bd
00000220: 05bf 8c3c 8f25 e1bc b42f bcbd ca08 2abe
00000230: c574 003d b0a6 06be 34aa 8dbc 3790 533d
00000240: c481 5ebd a0b7 fb3c f001 b33d 846f d43d
00000250: 4d43 173d e15e 50bd f5b9 92bb 3e3d 1abd
00000260: 58ea 4bbc e1ea d3bd c7e8 f7bd 6a43 09bc
00000270: 13c8 093d a2f7 f93d de2a b5bc 4cfc d13d
00000280: f848 9d3c f30c 93bc a709 debd b55d 973d
00000290: b2f0 3ebd 807d be3c d3f6 8e3c 342f c4bd
000002a0: 35e8 3c3d 4cfb 03bd 669e 8c3d 217d 87bb
000002b0: 4168 adbc 6b5b 013e 1958 2c3d 6c78 ec3d
000002c0: a577 b8bd 7d30 83bd 138a 453e 321c 45bd
000002d0: 2a7d f5bb cab8 3bbe 93e6 0b3c c816 213d
000002e0: d53c 593d c40a 003d 993f 54be 8781 65bd
000002f0: 929f 843d 7354 49bd 7939 5c3d 9f67 3c3d
00000300: edda 133e 16c5 b2bd 455e 043e 7bce 013d
00000310: 1a2e 5fbd 46b2 753d 495f d33c 836a f23d
00000320: 1533 f2bc 93f7 0abd 0c29 29bc bab2 a6bc
00000330: 34c6 bb3d 2a2f dcbb f146 ba3d 893b 9b3d
00000340: 6982 96ba 9316 da3c 89e2 e93c b8bd 25be
00000350: 360a 19bd aa7d 813c 9cad e53d c202 6b3d
00000360: 3676 46bd 249b 1dbe 4a17 c2bd ca95 3f3c
00000370: 6e46 e83c ce57 943d da12 213c e362 9fbd
00000380: 30dd 6ebd 8efd 59bd 28d8 79bd de0b 67bd
00000390: 6bb9 b83d 833c 413d 969f d4bc 3086 033e
000003a0: a54b 943d 6ea6 3ebd 0783 8cbb cc53 a03d
000003b0: 3c6b a6bd 8928 ec3d 7d1c a2bd 5802 07bd
000003c0: 3460 f5bd 3127 0e3e 8407 3a3d f562 683d
000003d0: 0610 cc3c 9c08 783d 0a20 dcbd 90dd 543c
000003e0: 8dbc 8a3d a2a6 bfbd c8d3 48bd e091 01be
000003f0: f84c f83d 2eb2 783d ebde 02bd dcea 2c3e
-0.09027834 -0.027502066 -0.15598828 0.0042915563 0.045581486 -0.09287856 -0.030660462 -0.05529629
-0.091005854 0.11443423 -0.08556132 -0.013963879 0.15715301 -0.0019490356 -0.13360125 -0.025953729
-0.0010451521 -0.002466079 -0.08503226 0.1862708 -0.11382012 -0.016333923 0.21620797 0.065372705
0.09947361 0.06951372 -0.0011547096 -0.13550986 -0.10265976 0.018409286 0.010763136 -0.047182832
0.079731084 -0.030244986 -0.058797292 0.025244977 0.005290488 0.017420875 -0.010800943 0.11409192
-0.087163046 0.11887604 0.17138408 0.20071796 0.03720811 0.08939099 0.19293973 0.018488832
-0.11290347 0.00907533 -0.078300945 -0.09485949 -0.117570974 0.012195746 -0.028498398 0.054066315
0.15738748 -0.21606553 -0.008531739 -0.0011407766 0.15398882 -0.07282558 -0.04446965 -0.011698061
-0.08929404 -0.0071955873 0.06469812 0.014348218 -0.09882997 -0.1896911 -0.0494582 -0.07153379
-0.09531336 -0.0912826 -0.039843448 0.014263495 0.10049584 -0.0068509537 0.12855655 -0.1041451
-0.027026322 0.10630435 0.07935082 0.103953846 -0.046568796 0.02106251 -0.013572755 0.0041637537
0.0078187715 -0.058737658 0.05590837 -0.11272946 -0.09253628 -0.16262957 0.04473604 -0.050027955
0.0065101986 -0.026601614 0.01816519 0.11704139 -0.10373613 -0.028589752 -0.117527775 -0.07518757
-0.12886143 0.104941174 0.025684876 0.08841843 0.08291425 0.048462506 0.13273795 -0.10716104
0.05887942 0.061741058 0.023052815 -0.027961865 0.10612392 0.0023190456 0.027835693 -0.015607853
-0.03296624 -0.019871872 -0.058147233 -0.06010775 0.00026162117 -0.021462062 -0.2335289 0.057490967
-0.033551678 -0.0271952 0.00097530714 0.055499315 0.11100029 -0.05581608 -0.17623287 -0.040974386
0.017180929 -0.02748373 -0.09188786 -0.16604915 0.03136136 -0.13149524 -0.017293073 0.051651206
-0.054322973 0.030727208 0.08740604 0.103728324 0.036929417 -0.050871734 -0.004477734 -0.03765606
-0.012446009 -0.10347534 -0.12104946 -0.008377889 0.03363807 0.12205435 -0.022115167 0.102532
0.019199833 -0.01795051 -0.10841685 0.0739092 -0.046616264 0.023253202 0.01745168 -0.09579316
0.046119887 -0.032222077 0.068661496 -0.0041347896 -0.021167876 0.1263253 0.042076204 0.11546406
-0.090071954 -0.06405733 0.19290952 -0.048122592 -0.0074917274 -0.1833221 0.00853886 0.039328367
0.05303653 0.031260267 -0.20727386 -0.05603173 0.06475748 -0.049152803 0.053765748 0.04599726
0.14438982 -0.087289974 0.12926586 0.031691056 -0.054487325 0.059984468 0.025802271 0.11836722
-0.029565373 -0.03392751 -0.010324728 -0.020348895 0.091686636 -0.0067194896 0.09095562 0.07579715
-0.0011482957 0.026622092 0.028550403 -0.16185653 -0.037363254 0.015806992 0.11214754 0.057375677
-0.04845258 -0.15391213 -0.09477098 0.011693427 0.028353896 0.0724331 0.009831155 -0.07782533
-0.05831641 -0.053220324 -0.06099716 -0.0564078 0.09019741 0.04717685 -0.025955003 0.12844157
0.072409905 -0.04654544 -0.0042880806 0.07828483 -0.08125922 0.11531169 -0.0791559 -0.03296122
-0.1198124 0.13882138 0.045417324 0.056734998 0.024909984 0.060555086 -0.107482985 0.012992278
0.067742445 -0.093579546 -0.049030095 -0.12653303 0.121240556 0.0607168 -0.031950872 0.16886467

model.time_mlp.1.bias f4 [256]
00000000: 179a 4eb6 f349 e1b4 2ff2 30b4 d687 6635
00000010: b9df b435 c4ab 5935 1dce bbb5 6a67 9cb3
00000020: 6042 55b5 7ea8 4ab5 f990 1336 0ebe 6735
00000030: 508d 2335 547a 2234 af4b ce34 8c1e 63b5
00000040: 603a bc35 071e 8335 5514 c533 6608 edb4
00000050: 717c 0836 4f92 88b5 13ca 4435 60b9 d7b5
00000060: da80 e9b3 0b16 0736 710e 6fb5 5885 d135
00000070: bf98 f7b5 416b aeb6 9c7d 8f35 4ff9 2235
00000080: 79ce 8fb5 2185 0536 674a 3b35 202a 6cb5
00000090: 1bb5 87b5 7b47 7fb5 6944 9ab5 a1d6 17b6
000000a0: f74c 9335 0e46 b1b5 5a84 c435 17df 6cb6
000000b0: 737a 8bb4 32d2 92b5 3b7f be35 ad81 af34
000000c0: a6fb 89b4 6cac 3735 b16e 2534 10cf 4e35
000000d0: 8716 36b6 2f55 e2b5 db9b cb35 d033 6eb5
000000e0: 1aca 8a35 5531 d0b5 3ddf 7d35 27aa 0635
000000f0: c769 3736 2595 1135 b104 4b34 abcb 8fb5
00000100: 63c4 d8b5 3884 9135 c75e 45b6 b455 bb33
00000110: 4c2a 2b36 78c3 d5b4 34ab 5a35 9dc7 ceb5
00000120: 3823 01b6 7202 bdb6 8fb9 6b35 fefc 9734
00000130: 98c1 9a31 6810 a9b5 d4ba b836 798f 21b6
00000140: 8395 08b5 5693 edb4 3706 80b6 3bcb 9ab5
00000150: 631a 8932 b474 1c34 2f1e 3434 32cb 6e36
00000160: dad0 93b4 dd02 18b5 b711 1ab5 e926 1a36
00000170: 9c73 3036 9e56 abb5 7073 12b3 e999 6535
00000180: 526e 8b34 597a ebb5 117a a036 e402 f734
00000190: b993 06b6 e4c8 5c35 a409 f833 1ce0 19b6
000001a0: fc13 da33 e570 c935 70b6 c735 6c1a 8a34
000001b0: 6571 9bb5 1bac 7734 20cd a435 cc27 39b3
000001c0: b0d4 1a35 851c 1c34 c665 dbb5 9e77 17b5
000001d0: 7ec6 deb5 a998 27b5 9afd 69b6 ce5c 3436
000001e0: 9f13 f7b5 6a72 82b5 694a 93b4 161a 0b36
000001f0: a8dc 0836 eeed 35b6 b692 e635 4a74 1ab6
00000200: 26a6 2f36 d033 ddb4 5485 1535 5830 9bb5
00000210: 5564 b4b5 1018 c935 2a02 47b5 0555 6434
00000220: cfe5 47b4 139b 83b5 7108 0e36 87d0 89b4
00000230: b083 5035 8b92 2ab6 74a2 bab5 2fb9 3235
00000240: 8c6c 88b4 6923 0435 e4e7 45b6 79c6 6435
00000250: 0c45 a6b5 2dac fc34 5149 6cb5 ce7b b734
00000260: 2c06 13b6 2836 06b6 af73 9fb5 3634 21b6
00000270: f3bc 83b5 df63 8735 5c74 4533 5e51 0736
00000280: 6919 f331 eb07 1c35 66eb 3bb4 b66c 8a34
00000290: 64d5 ab35 2ef4 fdb4 e475 2935 3126 8a35
000002a0: 5dfe 7a36 9568 d334 4356 1f34 29e4 a134
000002b0: 6b52 3e32 4a3f e9b2 2157 a4b5 0fe1 33b5
000002c0: c313 ceb5 17e6 88b5 170d a235 f8a6 ca35
000002d0: c2e9 8135 7f0f f133 5db2 cb34 051e 04b6
000002e0: 52dc 8b34 1c61 2eb3 5026 29b6 11ac 35b6
000002f0: 0247 6e35 0d20 a7b5 086e 9bb5 b993 3bb6
00000300: a366 9b35 b297 54b5 9826 94b5 e90b d334
00000310: 525a f3b4 f8f5 dd34 2fc9 49b6 8918 9135
00000320: 914a 3fb5 a9e3 8ab5 d127 32b6 0012 71b5
00000330: 5b18 6d36 de22 3db5 e415 dc35 a2ef a8b5
00000340: e485 6d33 6d86 a4b5 7306 6ab5 026a ab34
00000350: da7a 5535 324a 5ab5 94fd cf35 cb40 e6b5
00000360: 0daa ef35 c148 3136 779b ab35 4d18 81b5
00000370: 997e 3ab5 d8e6 05b6 face 82b3 206f 0ab4
00000380: c0a2 1836 7466 22b6 a82c 2336 596e ceb5
00000390: 6538 9f35 235a 8836 f23e 3bb1 4357 a035
000003a0: 9240 d0b5 87fe 18b6 7d8f 2d35 dd36 9eb5
000003b0: 3c78 1336 69a4 fdb4 10ec e5b5 91dc 87b5
000003c0: 9a03 0e35 ec9c 3ab6 12de d0b5 bcf6 0835
000003d0: e13c f4b5 1b3f b7b5 d8b1 3c35 9832 e6b5
000003e0: 60d7 30b4 1b63 4b35 8b21 14b5 e0f0 55b5
000003f0: 8883 13b6 fe6b a1b4 ed74 26b6 5e48 4bb3
-3.0786084e-06 -4.196332e-07 -1.6479383e-07 8.5879344e-07 1.3476157e-06 8.108875e-07 -1.3992573e-06 -7.283127e-08
-7.944527e-07 -7.549605e-07 2.1989092e-06 8.633077e-07 6.092787e-07 1.5131928e-07 3.8425557e-07 -8.460854e-07
1.4024081e-06 9.769e-07 9.177226e-08 -4.41508e-07 2.0338014e-06 -1.0175371e-06 7.3309747e-07 -1.60727e-06
-1.0873346e-07 2.0129398e-06 -8.9055453e-07 1.5610522e-06 -1.8447389e-06 -5.19809e-06 1.0690887e-06 6.0712495e-07
-1.0714422e-06 1.9896036e-06 6.97712e-07 -8.797815e-07 -1.0110992e-06 -9.509892e-07 -1.1493804e-06 -2.2625684e-06
1.0974753e-06 -1.3207916e-06 1.4641657e-06 -3.5296596e-06 -2.597986e-07 -1.0939023e-06 1.4193132e-06 3.2690642e-07
-2.5701337e-07 6.842372e-07 1.5407092e-07 7.7042296e-07 -2.7133226e-06 -1.6863104e-06 1.5170039e-06 -8.8737306e-07
1.034062e-06 -1.5511565e-06 9.45747e-07 5.0166494e-07 2.7330696e-06 5.4233743e-07 1.8907555e-07 -1.0713605e-06
-1.615041e-06 1.0841823e-06 -2.9410455e-06 8.7234554e-08 2.5505606e-06 -3.9816564e-07 8.146046e-07 -1.5406291e-06
-1.9242998e-06 -5.6329236e-06 8.7814345e-07 2.8310018e-07 4.503999e-09 -1.2596256e-06 5.505377e-06 -2.4074382e-06
-5.0881516e-07 -4.425189e-07 -3.8154208e-06 -1.1533042e-06 1.5960898e-08 1.4571089e-07 1.6774787e-07 3.558304e-06
-2.7532843e-07 -5.662858e-07 -5.739525e-07 2.2970437e-06 2.6293337e-06 -1.2765702e-06 -3.4098264e-08 8.5533117e-07
2.5971036e-07 -1.7544472e-06 4.782582e-06 4.6009438e-07 -2.0053542e-06 8.224872e-07 1.15501535e-07 -2.2929225e-06
1.0155051e-07 1.5008524e-06 1.4879752e-06 2.5723728e-07 -1.1581402e-06 2.3066279e-07 1.2278651e-06 -4.3109864e-08
5.767897e-07 1.4539008e-07 -1.6346391e-06 -5.642595e-07 -1.6598058e-06 -6.24345e-07 -3.486732e-06 2.687611e-06
-1.8408645e-06 -9.719054e-07 -2.7435024e-07 2.0727798e-06 2.0394018e-06 -2.7109595e-06 1.7179034e-06 -2.3015477e-06
2.6173743e-06 -4.1202156e-07 5.5700843e-07 -1.156247e-06 -1.3440246e-06 1.498267e-06 -7.4136426e-07 2.1265085e-07
-1.8616923e-07 -9.805393e-07 2.1164562e-06 -2.5669962e-07 7.767767e-07 -2.5417273e-06 -1.390536e-06 6.6579645e-07
-2.5410952e-07 4.922536e-07 -2.9490266e-06 8.5225435e-07 -1.2388059e-06 4.7063932e-07 -8.802354e-07 3.4176486e-07
-2.19083e-06 -1.999908e-06 -1.1880092e-06 -2.402126e-06 -9.815252e-07 1.008735e-06 4.5973465e-08 2.016393e-06
7.0751196e-09 5.812605e-07 -1.750137e-07 2.57836e-07 1.2802598e-06 -4.7302586e-07 6.312896e-07 1.0292916e-06
3.7400962e-06 3.9377906e-07 1.4839411e-07 3.0154595e-07 1.1078195e-08 -2.715355e-08 -1.224431e-06 -6.70102e-07
-1.5353947e-06 -1.0199755e-06 1.207375e-06 1.5098767e-06 9.679281e-07 1.1225256e-07 3.7941473e-07 -1.9687006e-06
2.6051072e-07 -4.0600852e-08 -2.5205263e-06 -2.7071258e-06 8.876524e-07 -1.2451798e-06 -1.1580423e-06 -2.7951157e-06
1.1578271e-06 -7.91969e-07 -1.1038092e-06 3.9310478e-07 -4.5327994e-07 4.1343424e-07 -3.0068438e-06 1.0810483e-06
-7.1261553e-07 -1.0348059e-06 -2.6547243e-06 -8.980569e-07 3.5329929e-06 -7.0458725e-07 1.6397648e-06 -1.2586718e-06
5.5302635e-08 -1.2258075e-06 -8.718118e-07 3.1928363e-07 7.9527456e-07 -8.1319297e-07 1.5496503e-06 -1.7155193e-06
1.7856379e-06 2.6417404e-06 1.2785739e-06 -9.618321e-07 -6.9474623e-07 -1.9952913e-06 -6.0912456e-08 -1.2892679e-07
2.2744498e-06 -2.4199517e-06 2.4314886e-06 -1.5380311e-06 1.1862836e-06 4.063609e-06 -2.7247862e-09 1.1946325e-06
-1.5516e-06 -2.279792e-06 6.4656325e-07 -1.1787885e-06 2.1974693e-06 -4.7244546e-07 -1.7130533e-06 -1.0122477e-06
5.2904363e-07 -2.78075e-06 -1.5561839e-06 5.1022994e-07 -1.8197135e-06 -1.3652929e-06 7.0294254e-07 -1.715106e-06
-1.646963e-07 7.576761e-07 -5.518311e-07 -7.96992e-07 -2.1981268e-06 -3.0067162e-07 -2.4803987e-06 -4.733044e-08

model.time_mlp.3.weight f4 [32, 256]
00000000: ed95 8c3d a9c4 723b 5b79 d5bc 9075 30bd
00000010: d76b 13bc b4b3 92bc 61e8 35bc 75d6 b4bc
00000020: b049 123b 1b5a 6cbc 645f 1f3c eff4 31bc
00000030: d45c 233c 93a4 88bc 21b6 07bd 6ee2 30bc
00000040: 2c84 57bb e52d 9abd c1d3 003d 44bb d4bb
00000050: a727 92bc 36b7 893c d924 2fbc c6d4 a33d
00000060: 6359 4ebb 64b4 023c f4e2 0bbd 718e 87bd
00000070: c104 c13c 4f74 3e3c 5232 c13b d510 6cbc
00000080: 2df9 5f3d 5087 d6bd f597 fbbc eb14 3c3b
00000090: 359d 733b ad9e 153c ceef 0cbd 151b 953b
000000a0: e275 a0bc dce6 463b 5e59 313a c544 973c
000000b0: da3e ddba 55d5 353d bfc9 a1bd 02aa 15bd
000000c0: 6dbb 85bc 7337 0dbc 5d88 b4bb 8184 f4bc
000000d0: df72 af3c d749 99bb 072e b93b bc59 4cbc
000000e0: bd6e 123c dd09 cfbc bac7 a0bc 6cc1 c7bb
000000f0: fb98 a3bc afc2 14bd cf54 103d 1bd1 bb3c
00000100: c397 803c 1f87 9e3c bcd1 8c3b 6312 d83c
00000110: dd6e f0bc f5d4 17bc 1480 61bc 5911 813d
00000120: 4144 d9bc 90da a53c 39e2 cbbd 79ba e03b
00000130: a2bd 8cbc 88ac 87bc 231f 34bd 863e 9e3c
00000140: a8ed 21bc 6b03 7bbd 4e33 fdbc 873c 15bd
00000150: 79f0 2ebc 133b 3abd a1b0 adbc 7f55 9cba
00000160: 5c32 f9bc d819 38bd 20ec b23c d80a 1ebd
00000170: 4d7a 25bd b518 593c 6cca b2bc 542e 03bd
00000180: e838 8dbc 1a70 2dbd fdbf 38bd 7971 b33c
00000190: 3e60 8cbc 2840 143c 93a4 c4bc 41c9 22bc
000001a0: 018c 613c 8330 6a3a 7a74 ae3b d8ec 44bc
000001b0: 8dd1 473d 4299 023d 29c5 8abc e5e5 e83c
000001c0: 447e 383b 6587 2a3d 9f05 483c 4478 4e3c
000001d0: 7177 b0bb 256d 2dbd 2767 17ba 5225 e83b
000001e0: 9d40 923c 925c be3c 63a4 943c fccd 033d
000001f0: 1488 c8bc 1515 16bd 4d89 2ebd b612 1c3d
00000200: ec08 7ebb d859 b43c b560 56bc e3b2 b0bb
00000210: 09e4 c0bc 0f56 853b e68e 0dbd 43d0 033c
00000220: 2587 4ebd 6dae b6bc 727a 0ebd cd5f 163d
00000230: 9272 a1ba 72e7 82bc 9629 eaba 35ef 4cbb
00000240: 1a75 6cbc 6d22 8e3a 3fce 463d f50b 483b
00000250: edc1 fabc 3a16 69bd 6b7f 063d f3ea 3cbd
00000260: 014c 5bbc e196 89ba d0e7 c33c 9b63 253c
00000270: 409a 6c3d f419 e3bb da36 263d c5b1 d4bc
00000280: 931f 22bd a1d2 663d 9075 d6bc e4eb 823d
00000290: 311e 613b 726a fbbb 989a 5abb bcff 313d
000002a0: 363d 043c b619 64bd 9e1c 94bd b2ca ec39
000002b0: 3b47 03bb c6f4 c93c d5e5 983c 9a54 fbbc
000002c0: 599e 193c 812a f23b d55c fa3c 1706 bf3b
000002d0: a1f9 82ba 6ddb 8dbb ce01 9d3c 1181 083c
000002e0: 73ad f53b 0a44 723c 24b3 723d 7160 393c
000002f0: 9cd7 f33c 1390 b43d 1601 9cbc d5d0 3d3c
00000300: bc7e b83c 6ff2 38bc 4910 5cbc 1a98 41bc
00000310: 5316 2ebc 09f0 f7bb 842b 1e3c 2dd7 653c
00000320: e335 2ebd b498 3fbc 3903 583c 9c23 53bc
00000330: 0c39 f53b 2536 483d e2ad d63b c581 b0bb
00000340: f42e 273c 4c4b 5b3c 04b0 0fbd be96 c8bb
00000350: 969a 6bbd f0f7 3dbc 1001 323d 2c06 5dbc
00000360: 577b 023d 0fdd cd3b c996 333d 03a2 1ebc
00000370: 4009 bb3b 3e06 593d 7b77 433c aeeb 4fbd
00000380: d47f eb3c b2ab c7bc 699f 183d 60cc ecbb
00000390: d739 ddbb 9c7f ddbc c65b 5cbc 03cc 48bd
000003a0: e5ae e0bc e0bc 5d3c 0f99 f13c b1b5 fc3b
000003b0: 2331 77bb 81d9 21bd 8558 cc3c 0fec 90bc
000003c0: 7fcd 0a3d dc58 7f3d b266 3d3c 37c1 cc3a
000003d0: 4dcf e63c 43d3 403d 377c 69bb 3e8f 763c
000003e0: b033 61bc 549c 113d ebc0 863a 9bc6 a83c
000003f0: 3d76 c03a 5c4f f53a c82c 493c 3621 3bbd
0.068645336 0.0037043488 -0.026058843 -0.043080866 -0.008997879 -0.017907955 -0.011102767 -0.022074917
0.0022321753 -0.01442578 0.009727333 -0.010861619 0.009970862 -0.016680038 -0.033132676 -0.010796173
-0.0032885177 -0.07528285 0.031451944 -0.0064920504 -0.017841173 0.016810995 -0.0106899375 0.07999568
-0.0031486384 0.007977579 -0.034151986 -0.066189654 0.023561837 0.01162441 0.005895891 -0.01440831
0.054680992 -0.104750276 -0.030712107 0.0028698992 0.003717256 0.00913207 -0.034408383 0.0045503476
-0.01958746 0.0030350005 0.0006765331 0.018465409 -0.0016879693 0.044392902 -0.07899808 -0.036539085
-0.016324723 -0.008619177 -0.00550942 -0.029848339 0.02141708 -0.004677992 0.005651239 -0.012472566
0.008937535 -0.025273258 -0.019626487 -0.0060960557 -0.019970408 -0.036318477 0.03523713 0.022926858
0.015697366 0.01935154 0.004297463 0.026375955 -0.029349739 -0.0092670815 -0.013763446 0.06302137
-0.026521804 0.02024582 -0.09955258 0.006858167 -0.017180268 -0.016561761 -0.043975007 0.019316923
-0.009883322 -0.061282557 -0.030908253 -0.036434676 -0.01067745 -0.045466494 -0.021202387 -0.0011927335
-0.030419521 -0.04494652 0.021841109 -0.03858456 -0.04039984 0.0132505195 -0.021825038 -0.032026604
-0.01723905 -0.042343237 -0.04510497 0.021904694 -0.017135736 0.009048499 -0.024004256 -0.009935678
0.01376629 0.00089336204 0.0053239437 -0.012019359 0.048783828 0.03188444 -0.016939716 0.028429935
0.0028151432 0.04163303 0.012208371 0.012601916 -0.0053853323 -0.042340416 -0.0005775564 0.007084527
0.017853076 0.0232375 0.018144792 0.032178864 -0.02447895 -0.0366412 -0.04261141 0.03810378
-0.0038762642 0.022015497 -0.01308458 -0.0053924187 -0.023546236 0.004069097 -0.034560107 0.008045259
-0.050421853 -0.02229997 -0.03478474 0.036712456 -0.001231747 -0.015979502 -0.0017865177 -0.0031270508
-0.014432216 0.0010844 0.048536535 0.0030524705 -0.03061005 -0.056905963 0.03283636 -0.046122503
-0.01338482 -0.0010497236 0.023914248 0.010094549 0.05776429 -0.006930584 0.040579654 -0.025963673
-0.039580893 0.056353215 -0.026179105 0.06392649 0.003435027 -0.0076726014 -0.0033356305 0.043456778
0.008071234 -0.055688582 -0.07232021 0.00045164448 -0.002003147 0.02465285 0.01866428 -0.03067999
0.009376132 0.0073903208 0.030561844 0.0058295834 -0.0009992608 -0.004329136 0.0191659 0.008331553
0.0074974834 0.01478673 0.059252873 0.011314497 0.029765896 0.088165425 -0.019043487 0.011585434
0.02252137 -0.011288269 -0.013431617 -0.011816049 -0.01062544 -0.007566456 0.00965393 0.014028353
-0.04253186 -0.011694122 0.013184362 -0.012886908 0.007483607 0.04887976 0.00655149 -0.0053865635
0.010204066 0.013384651 -0.03507997 -0.0061214855 -0.05752047 -0.011594757 0.043458045 -0.013490241
0.031855907 0.0062824558 0.04384497 -0.009682181 0.00570789 0.05298447 0.011930342 -0.05076187
0.028747477 -0.024373863 0.0372614 -0.007226512 -0.00675128 -0.027038388 -0.013449615 -0.049022686
-0.027427146 0.013533801 0.02949193 0.007712089 -0.0037718497 -0.03951407 0.024944553 -0.017690687
0.033887383 0.062340602 0.011560129 0.0015621547 0.02817502 0.047076475 -0.0035627016 0.0150488
-0.013745233 0.035549477 0.0010280883 0.020602515 0.0014683675 0.0018715668 0.012278743 -0.04568597

model.time_mlp.3.bias f4 [32]
00000000: 3717 89b7 3338 0237 4950 07b7 dd3a 9837
00000010: d435 94b7 48f0 da36 5ec6 93b7 690e e334
00000020: cd9d 38b7 115a 4ab7 ac32 4834 6b58 0637
00000030: fd4e a8b6 0876 1cb7 7e98 0b37 9c31 8536
00000040: 1414 e536 bdba 0237 a6c4 6d36 3b9c 9fb7
00000050: 92b8 bdb7 f900 81b6 be75 20b7 db07 9237
00000060: c67d 0c37 7b8e fbb7 6086 8137 9249 8eb7
00000070: 7fe9 02b5 932b 8737 8bbd 22b6 de80 f036
-1.6342483e-05 7.761689e-06 -8.06532e-06 1.8147222e-05 -1.766804e-05 6.5248787e-06 -1.7616137e-05 4.229253e-07
-1.10039955e-05 -1.20611085e-05 1.8644886e-07 8.007609e-06 -5.0159856e-06 -9.325806e-06 8.3205505e-06 3.969484e-06
6.8270692e-06 7.792082e-06 3.5430216e-06 -1.9027028e-05 -2.2616503e-05 -3.844613e-06 -9.564157e-06 1.7408214e-05
8.373934e-06 -2.998788e-05 1.5440572e-05 -1.6961978e-05 -4.8768555e-07 1.6113545e-05 -2.425021e-06 7.1675595e-06

model.layer.0.weight f4 [256, 55]
00000000: e440 12bc 5c33 b4bd cf66 10be 04a8 ce3d
00000010: 96b6 05be 700d 443c 3e97 f03b 567b eebc
00000020: 4e28 c4bb 2619 d1bd c784 d63d afec 85bd
00000030: 126a 93bd 30ae 123d bd78 a13c 98ea 103e
00000040: fcc4 0d3d 6fb7 13be 745f 763d e56e 84bd
00000050: b9fd 413d 24c3 d93d 4166 073c b708 a63b
00000060: 426c 7d3c fc74 b0bb 0dc8 1abd 9122 e63d
00000070: d6e7 f03c fe72 98bc d413 5cba 7e03 aa3d
00000080: f90e d2bc 943a e1bb 5779 433d da02 393d
00000090: 4cc5 b73d 11ef d83d 7870 15bd 857a 593c
000000a0: 9f10 32bd 7c9d adbb f0fd 0e3e 090c b1bd
000000b0: a4a2 793d 074d 9fbc 9b86 383d 2d79 6cbd
000000c0: 5999 b7bd 4348 9abd 8f25 833d 3707 023e
000000d0: 9073 cd3d 63ce 0d3d 175d 53bd fd6f dc3c
000000e0: 4b67 843d f7e7 a9bc 7d01 f73c 2671 a83d
000000f0: dc07 8039 30d6 f43a e2c8 c0bd 6fa8 b5bd
00000100: 9ddb 293c f3c3 56bc 4e60 dfbd 5c38 df3a
00000110: b21e 09bd 1cf7 aebd 7f93 14bd a795 58bc
00000120: c7a0 1d3d 2f1f 363d dfbb e63d 19ea b53d
00000130: 8698 d0bc 9776 883c 60da 603d 04eb cfbd
00000140: 9ed2 56bd 768c 05bd 6be6 953d 0bea b4bd
00000150: 45c8 6a3d 5f83 1b3d 1214 a2bd 21c1 803c
00000160: 66b5 e0bc 62b0 8f3c 2e03 833c e557 c9bc
00000170: 6d7a 123b 38cc bcbc bbaa c93d f176 c23d
00000180: 5758 8a3d cc94 773d e8f9 f53d 0f1d 123d
00000190: 4856 abbd 44ea 89bb ace4 5e3d 91a5 abbd
000001a0: c973 7f3c 9fb4 41bd a3aa 453d 6c71 99bc
000001b0: 42c7 a2bb 6350 9abd 7385 88bc c343 5a3d
000001c0: dfa3 273d da98 063d dfe8 673c f8da be3c
000001d0: ccf0 16bd 2365 8fbd d654 e2bb 4ff2 b0bd
000001e0: 86ba 8fbc 8430 1bbd c621 aeba b714 1fbd
000001f0: e412 083d 0fad d1bd fa6d dbbd 7a07 b23a
00000200: 8982 173c 8cbe ebbd 33e9 bc3d 3466 49bd
00000210: 97c4 d0bd d03a 60bd 666b 0cbe c929 253e
00000220: b891 c7bd f37a 58bd 06ec 6cba bb57 2ebd
00000230: f352 fb3d ca0c 0fbd a167 89bc d01c aa3d
00000240: c6ed 273d c65b dabd e06d b6bc 531d 52bd
00000250: fbc8 293d a270 46bd 2e4b a53d e56b 363b
00000260: 7c15 2dbd 4d87 82bd ee2a 8dbc 9961 bebd
00000270: 568a f33d 3047 5fbd 1e93 05bd 3d36 03ba
00000280: 3de2 3c3d 27e0 2fbd bcf1 14be d83b 17bd
00000290: 317d c53c 7e07 893d f2f0 b0bd 07b6 bdbc
000002a0: 0126 15be 0860 d13d 58a5 5abc 5a14 11bb
000002b0: ab15 b7bd 6d78 92bc f134 cc3d f628 33bd
000002c0: 3122 833c de41 e53a 6599 ab3d 58db 99bd
000002d0: b6be 533d 51b5 9e3d 832b 83bb b05d 90bc
000002e0: b5b5 f93d db9b 073d 8a13 0bbd f659 a9bc
000002f0: 44f3 a93b 1494 333d b39c 69bd 72f4 02bd
00000300: 6726 033d f327 d33c ad7f 7f3c 6d39 a33c
00000310: 9a60 15bc e5d9 a5bd f34c ebbc 2f8f 993c
00000320: 9690 a7bd 4cee ccbc 6cc7 41bd 3380 433d
00000330: 87d3 4e3d a143 39bd b617 b4bc fbbf 37bd
00000340: b9c6 c23d cd7b 2e3c 95ae 153d 3f09 e83d
00000350: a365 ab3d 8983 b0bd 3ad7 573d 6b22 f23d
00000360: 950a 1ebc efcc 00bd 8c42 2d3c 55a6 73bd
00000370: de63 94bd 7f77 89bc a1f5 06bd 40f0 8dbc
00000380: a9e5 ccbb f940 d33d 0fbb 17be b57e f43c
00000390: d8fa e03c c7b4 133e 1d79 29bd c771 8d3d
000003a0: c75b a53c a4fc 9cbd 1465 593d 3cbd 843c
000003b0: 727e 75bd e429 443d 3477 8c3d 0bb5 89bd
000003c0: f1bf 7bbc da61 05bd 8c89 20bd 82f6 113d
000003d0: 15bb 0abe 1c33 84bc 02b8 53bc 6459 c13d
000003e0: 2d89 a1bd d906 a3bd ef4a f33c 3a6e c1bd
000003f0: 1a31 28be 295e bd3d a277 4dba 39ac 18bc
-0.008926604 -0.087988585 -0.14101718 0.1009064 -0.13057932 0.011966094 0.007342248 -0.029111546
-0.00598625 -0.10209875 0.10474544 -0.065392844 -0.07197966 0.03581065 0.019710893 0.1415199
0.034611687 -0.14425443 0.060149625 -0.06466464 0.04736111 0.10632923 0.008264125 0.005066957
0.015467705 -0.0053850394 -0.03778844 0.11237062 0.029407423 -0.01860952 -0.00083952886 0.08301447
-0.025641905 -0.006873438 0.04772314 0.045168735 0.08973178 0.10592473 -0.03648421 0.01327384
-0.043472882 -0.0052983146 0.13964057 -0.08644874 0.06094612 -0.01944591 0.045050245 -0.05773275
-0.089647956 -0.07533314 0.06403648 0.12698065 0.100318074 0.034620654 -0.05160245 0.026908869
0.06465014 -0.020740492 0.030152077 0.08224706 0.00024419918 0.0018679556 -0.09413315 -0.08870017
0.010367301 -0.013108241 -0.109070405 0.0017030346 -0.03347654 -0.08543226 -0.036273476 -0.013219274
0.038483407 0.044463333 0.11266302 0.08882541 -0.025463354 0.01665811 0.05489576 -0.101522475
-0.052446954 -0.032604657 0.07319339 -0.08833703 0.0573199 0.037967082 -0.07913984 0.015717091
-0.027430248 0.01754016 0.015992727 -0.024578044 0.0022350803 -0.023046598 0.098470174 0.094953425
0.06755131 0.060444638 0.120105565 0.035672244 -0.08366066 -0.004208835 0.054417297 -0.08381189
0.01559157 -0.047291394 0.048258435 -0.018730842 -0.004967601 -0.07534864 -0.016665196 0.05328728
0.040927764 0.032860614 0.014154642 0.023297772 -0.036850736 -0.07001712 -0.006907086 -0.08639967
-0.017544996 -0.037888065 -0.0013285212 -0.038838115 0.03322114 -0.102380864 -0.10714336 0.001358255
0.009247431 -0.11510953 0.09224167 -0.049169734 -0.101937465 -0.054743588 -0.13712844 0.16129221
-0.097445905 -0.05285163 -0.0009037856 -0.042564135 0.12271681 -0.034924306 -0.016773047 0.08306277
0.040998243 -0.10662036 -0.02226919 -0.051297497 0.041451436 -0.04844726 0.0807098 0.0027835306
-0.042256817 -0.06373463 -0.017232385 -0.09295959 0.1189162 -0.05451125 -0.032611005 -0.00050053356
0.046114195 -0.042938378 -0.1454534 -0.036922306 0.024107547 0.06690882 -0.08639707 -0.023158086
-0.14565279 0.10223395 -0.013345085 -0.0022137375 -0.0893968 -0.01787969 0.09971035 -0.043740235
0.016007515 0.0017490943 0.08378867 -0.075125396 0.051695548 0.07749427 -0.0040029897 -0.017622799
0.12192861 0.03310762 -0.03395418 -0.02067278 0.00518647 0.04384239 -0.057034206 -0.031971402
0.032019045 0.025775885 0.015594405 0.019924844 -0.00911727 -0.08098201 -0.028723216 0.018745033
-0.081818745 -0.025015973 -0.047309324 0.047729682 0.050494697 -0.04523051 -0.021983963 -0.04486082
0.095105596 0.010649634 0.036543448 0.113298886 0.08368995 -0.08618838 0.05269549 0.11822971
-0.009646078 -0.03144544 0.010574948 -0.0594848 -0.07245611 -0.016780613 -0.032949094 -0.017326474
-0.0062529636 0.10315127 -0.14817451 0.029845575 0.027463362 0.1442443 -0.04137527 0.06906467
0.020185364 -0.07665375 0.05307491 0.016203515 -0.05993504 0.047891513 0.06858674 -0.06723984
-0.015365587 -0.03256402 -0.039193675 0.03563548 -0.13547929 -0.016137652 -0.012922289 0.09440878
-0.07887492 -0.079602905 0.029698817 -0.09444852 -0.16424981 0.09246475 -0.0007837956 -0.009318405

model.layer.0.bias f4 [256]
00000000: 3396 4237 25ab b537 833d c9b6 d4f5 28b6
00000010: 8574 dd36 66d1 aeb6 45a5 54b7 04f9 75b7
00000020: f60b a636 b0f6 a237 1d6d 2eb7 c861 f2b5
00000030: 1562 27b7 2a2a d5b5 0278 b6b7 a930 9337
00000040: 0a22 86b6 d2b7 fc35 4590 9337 4568 43b6
00000050: 5003 0c33 a1fe 7436 a27b 1e37 16cb 74b7
00000060: 837e deb6 2fe4 42b7 bc7f 8fb6 8945 7137
00000070: de22 3e36 06c7 bbb6 e3eb 6eb7 1a23 5737
00000080: 9127 2d36 6485 2536 9583 8037 59d2 9237
00000090: 83e0 6cb7 1786 2836 4379 f337 2e66 af37
000000a0: 2f85 b537 a1e2 b137 be01 bbb7 c2d6 4e37
000000b0: 0366 9e35 7006 5736 00be 2937 f0cc 47b7
000000c0: 7d65 90b7 b24c 2fb6 bd19 8537 f2ba b936
000000d0: c7f8 ecb6 3a6b a1b7 2d37 1934 5df1 27b7
000000e0: cd70 da36 4cd8 97b7 2358 e4b6 68c2 0cb7
000000f0: 4cbc 34b6 b33c a1b7 5be5 31b7 8cdf 81b7
00000100: 5c35 8237 c27e e5b6 4b1e 9ab7 fb43 64b6
00000110: 88e8 0b37 afe4 3237 92f4 8937 effd 70b7
00000120: b70a 34b6 4ea5 adb5 aafb 3337 8453 8a36
00000130: 6f40 7d37 7f1e 81b7 24d4 23b6 4046 1e37
00000140: 4978 1637 50f9 5fb7 9908 91b6 04cf ff36
00000150: 55ce 0536 3242 9eb7 d8b4 00b6 9621 8337
00000160: d6c7 cd37 17b9 96b7 c5d3 0137 b4bc 05b6
00000170: ae91 f6b6 c846 0a37 1532 a6b7 fa9c 09b7
00000180: b764 3ab6 7945 3237 9fa5 a7b6 fde6 99b6
00000190: 7c77 8c37 527e 5ab7 00ab 02b8 81f2 8837
000001a0: 0876 9ab7 a4db 2cb7 264d 1937 7c11 0d37
000001b0: 7b9c 04b7 9df0 0537 1110 0db7 d2b9 a6b5
000001c0: 290b 8d35 8985 5c36 e11e 77b7 9626 7c37
000001d0: 3baa 4937 c3c7 d237 8798 e8b6 167d e536
000001e0: 0dbe 2637 8235 5bb6 e75b 6b34 752e b4b7
000001f0: 106d 5937 8a04 ce37 ea98 99b7 4b82 41b8
00000200: 8c2d 21b7 aff3 6137 2309 d9b5 2f7f acb5
00000210: 5c6d 58b7 90d0 36b7 c827 1eb5 21c1 4137
00000220: 40ce d1b6 2d2a 9737 8ee8 8cb7 2035 97b6
00000230: 0af4 af37 a358 91b7 0887 52b7 7fe4 75b7
00000240: 130d 6fb6 29ee f0b6 94d3 4f36 b837 9637
00000250: e8dd d237 6098 7937 f1bc 8936 6aa2 08b7
00000260: 2a22 8db4 50db 36b7 cd18 3d36 6d62 abb7
00000270: d091 25b7 7c89 d1b7 1995 8537 8a79 6d37
00000280: 12d3 bb37 be9c 8537 b67e b7b6 8820 c3b6
00000290: a78f 87b6 8096 0d37 8dee 3fb6 3c90 2ab7
000002a0: cea1 9bb7 3f6c 85b7 4dbf 2737 028c e5b5
000002b0: 045f 00b7 fde0 c237 4879 d036 c794 b336
000002c0: 5f74 2237 da0d dbb6 4291 99b6 e288 84b7
000002d0: b695 48b7 0fcb 2bb5 8aaa a7b7 7f26 9236
000002e0: c5eb 71b7 04d7 1f37 0106 e6b6 97b4 cb36
000002f0: cbbc 2ab7 2531 a9b6 2768 f1b6 9d22 3237
00000300: 9a1f a537 b107 3137 10a1 20b7 06a1 91b6
00000310: 9725 2e37 32e1 5bb7 837a f036 1e56 cf37
00000320: 9751 2437 7133 2637 67e6 deb6 b854 f435
00000330: f78c ef36 4f39 a5b7 1423 ceb6 6286 9537
00000340: 711f 68b7 052f 5737 4b55 1737 3df6 19b7
00000350: ace7 83b6 b0da 2f35 0fa5 c1b6 cbda 7a36
00000360: 7afc aab6 cc97 3c37 4384 adb7 0858 89b7
00000370: e76f 65b7 aba0 0c37 9aa1 9c37 4e3a 5737
00000380: dee0 01b7 3e35 1bb7 8db7 cab5 3ccc c3b6
00000390: 8c42 a3b6 4a46 f236 3aec 3837 57a5 e0b6
000003a0: 6c43 b936 991b bcb6 11bb 3737 87b2 1937
000003b0: ad18 a2b7 6e53 12b6 23f6 9a35 dca0 77b6
000003c0: 1993 60b6 f34f 8237 2c32 a9b6 cbc0 91b6
000003d0: afb1 4c37 1829 d9b7 b7ba beb7 9d19 d637
000003e0: 7d22 55b7 2e01 31b7 9370 9ab7 1c24 5637
000003f0: e968 25b7 5787 8f37 85b3 1a37 9cc6 2237
1.1598272e-05 2.1656577e-05 -5.9974277e-06 -2.5177042e-06 6.599878e-06 -5.2099813e-06 -1.26746645e-05 -1.4661116e-05
4.948578e-06 1.9426778e-05 -1.0396613e-05 -1.8058863e-06 -9.976812e-06 -1.5882008e-06 -2.1751974e-05 1.7546425e-05
-3.997474e-06 1.8828962e-06 1.7590946e-05 -2.9117957e-06 3.2599303e-08 3.6507047e-06 9.446319e-06 -1.4590818e-05
-6.6308435e-06 -1.1616429e-05 -4.2766023e-06 1.4380909e-05 2.8332502e-06 -5.5962037e-06 -1.4240827e-05 1.2823171e-05
2.580204e-06 2.466456e-06 1.5320062e-05 1.7502507e-05 -1.4118969e-05 2.5112001e-06 2.9024324e-05 2.0909207e-05
2.16389e-05 2.1205577e-05 -2.2292948e-05 1.2328559e-05 1.1801607e-06 3.2041244e-06 1.0117423e-05 -1.190904e-05
-1.7213397e-05 -2.6121675e-06 1.586682e-05 5.535193e-06 -7.0623096e-06 -1.9242627e-05 1.4269308e-07 -1.0010172e-05
6.510038e-06 -1.8101324e-05 -6.80519e-06 -8.389914e-06 -2.6931693e-06 -1.922096e-05 -1.0603423e-05 -1.5482095e-05
1.5522055e-05 -6.8394884e-06 -1.8372337e-05 -3.4014217e-06 8.339186e-06 1.0662871e-05 1.644556e-05 -1.4364238e-05
-2.6828327e-06 -1.2937614e-06 1.07278265e-05 4.122443e-06 1.5094977e-05 -1.53922e-05 -2.4412375e-06 9.43389e-06
8.968703e-06 -1.3349883e-05 -4.3223376e-06 7.623692e-06 1.9938645e-06 -1.8865892e-05 -1.9178751e-06 1.5632057e-05
2.453096e-05 -1.7967583e-05 7.738306e-06 -1.9928384e-06 -7.3483307e-06 8.241921e-06 -1.9812063e-05 -8.202385e-06
-2.7774784e-06 1.0625802e-05 -4.9962687e-06 -4.586646e-06 1.674494e-05 -1.3023224e-05 -3.115367e-05 1.6325388e-05
-1.8413193e-05 -1.0303138e-05 9.137473e-06 8.408326e-06 -7.904247e-06 7.98344e-06 -8.407996e-06 -1.2422045e-06
1.0508567e-06 3.2860282e-06 -1.4729537e-05 1.50293545e-05 1.20201685e-05 2.5126972e-05 -6.9318953e-06 6.8392937e-06
9.938621e-06 -3.2664689e-06 2.1919514e-07 -2.1479305e-05 1.2959601e-05 2.4559227e-05 -1.8310227e-05 -4.613613e-05
-9.6069525e-06 1.3467782e-05 -1.6170419e-06 -1.2852014e-06 -1.29000655e-05 -1.0896605e-05 -5.8917476e-07 1.1548663e-05
-6.252696e-06 1.8020242e-05 -1.6797592e-05 -4.5063352e-06 2.0975265e-05 -1.7326622e-05 -1.2548415e-05 -1.4656339e-05
-3.5621385e-06 -7.180283e-06 3.0968558e-06 1.790734e-05 2.5137284e-05 1.4877034e-05 4.104914e-06 -8.144047e-06
-2.6288154e-07 -1.0899108e-05 2.817763e-06 -2.0430622e-05 -9.868716e-06 -2.4978763e-05 1.5924265e-05 1.4154599e-05
2.2390424e-05 1.5927824e-05 -5.468576e-06 -5.81524e-06 -4.040037e-06 8.439296e-06 -2.8600073e-06 -1.0166372e-05
-1.8552786e-05 -1.5905242e-05 9.998516e-06 -1.7102577e-06 -7.651517e-06 2.323137e-05 6.213002e-06 5.3519357e-06
9.683047e-06 -6.528321e-06 -4.5766656e-06 -1.5799367e-05 -1.1955786e-05 -6.3997953e-07 -1.9987365e-05 4.3556206e-06
-1.4419614e-05 9.527201e-06 -6.855233e-06 6.070895e-06 -1.0176746e-05 -5.0423137e-06 -7.1944846e-06 1.0617686e-05
1.9684248e-05 1.0551813e-05 -9.574243e-06 -4.3400823e-06 1.037996e-05 -1.310585e-05 7.1668196e-06 2.4716424e-05
9.794158e-06 9.906348e-06 -6.642938e-06 1.8204073e-06 7.1391655e-06 -1.969622e-05 -6.143362e-06 1.7824761e-05
-1.3835598e-05 1.2825946e-05 9.02016e-06 -9.1768425e-06 -3.9310744e-06 6.551081e-07 -5.7710636e-06 3.7380257e-06
-5.095787e-06 1.1241016e-05 -2.0684796e-05 -1.6372665e-05 -1.3675518e-05 8.382059e-06 1.86719e-05 1.2828574e-05
-7.741355e-06 -9.251116e-06 -1.5103593e-06 -5.835229e-06 -4.8655256e-06 7.2203447e-06 1.1022255e-05 -6.6949683e-06
5.5212786e-06 -5.6060494e-06 1.0951205e-05 9.161077e-06 -1.9323395e-05 -2.1804258e-06 1.1545529e-06 -3.68995e-06
-3.3464223e-06 1.5534437e-05 -5.0424333e-06 -4.343781e-06 1.2200718e-05 -2.5887552e-05 -2.273671e-05 2.5522715e-05
-1.2703819e-05 -1.0550297e-05 -1.8410652e-05 1.2763801e-05 -9.859193e-06 1.7109951e-05 9.220913e-06 9.702195e-06
