results/qvpo_HalfCheetah-v3/actor_25_04_16_02_08_25_0.pth (torch, 665521 bytes, 24 tensors)

betas f4 [20]
0	0x3c02f3e7	0.007992721
1	0x3ca47451	0.020074995
2	0x3d041c9e	0.032253854
3	0x3d370356	0.044680916
4	0x3d6b9a52	0.05752022
5	0x3d915208	0.07095724
6	0x3dae82cf	0.085210435
7	0x3dcdeb70	0.10054672
8	0x3df03ce1	0.11730362
9	0x3e0b2f27	0.13592206
10	0x3e20c3d8	0.15699708
11	0x3e39b63c	0.18135923
12	0x3e5741b1	0.21021153
13	0x3e7b42ad	0.24537154
14	0x3e9456d6	0.289725
15	0x3eb23f0b	0.34813723
16	0x3edbdec4	0.42943394
17	0x3f0d0fe4	0.5510237
18	0x3f3f9c21	0.7484761
19	0x3f7fbe77	0.999

alphas_cumprod f4 [20]
0	0x3f7df430	0.99200726
1	0x3f78db11	0.9720927
2	0x3f70d444	0.9407389
3	0x3f661197	0.8987059
4	0x3f58d5ca	0.84701216
5	0x3f4972f7	0.7869105
6	0x3f384895	0.7198575
7	0x3f25c121	0.64747816
8	0x3f124f92	0.57152665
9	0x3efcd911	0.4938436
10	0x3ed526ca	0.41631156
11	0x3eae7e99	0.3408096
12	0x3e89d053	0.2691675
13	0x3e4fff13	0.20312147
14	0x3e13bc11	0.1442721
15	0x3dc09afc	0.09404561
16	0x3d5bc9c8	0.05365923
17	0x3cc55c01	0.024091722
18	0x3bc68ffb	0.0060596443
19	0x36cb5347	6.059566e-06

alphas_cumprod_prev f4 [20]
0	0x3f800000	1.0
1	0x3f7df430	0.99200726
2	0x3f78db11	0.9720927
3	0x3f70d444	0.9407389
4	0x3f661197	0.8987059
5	0x3f58d5ca	0.84701216
6	0x3f4972f7	0.7869105
7	0x3f384895	0.7198575
8	0x3f25c121	0.64747816
9	0x3f124f92	0.57152665
10	0x3efcd911	0.4938436
11	0x3ed526ca	0.41631156
12	0x3eae7e99	0.3408096
13	0x3e89d053	0.2691675
14	0x3e4fff13	0.20312147
15	0x3e13bc11	0.1442721
16	0x3dc09afc	0.09404561
17	0x3d5bc9c8	0.05365923
18	0x3cc55c01	0.024091722
19	0x3bc68ffb	0.0060596443

sqrt_alphas_cumprod f4 [20]
0	0x3f7ef992	0.99599564
1	0x3f7c6710	0.9859476
2	0x3f784c7b	0.969917
3	0x3f72b032	0.948001
4	0x3f6b9aec	0.9203327
5	0x3f6317a8	0.8870797
6	0x3f5933a3	0.84844416
7	0x3f4dfe37	0.80466026
8	0x3f4188d0	0.75599384
9	0x3f33e6c6	0.7027401
10	0x3f252d47	0.6452221
11	0x3f157333	0.58378905
12	0x3f04d0f7	0.51881355
13	0x3ee6c0d6	0.45068997
14	0x3ec2794c	0.37983167
15	0x3e9d03a9	0.30666855
16	0x3e6d3440	0.23164463
17	0x3e1ef0b4	0.15521508
18	0x3d9f6c87	0.07784372
19	0x3b21531b	0.0024616185

sqrt_one_minus_alphas_cumprod f4 [20]
0	0x3db7187a	0.089402154
1	0x3e2b106b	0.16705482
2	0x3e794749	0.243436
3	0x3ea2f3f0	0.31826735
4	0x3ec8430f	0.39113662
5	0x3eec58f6	0.46161622
6	0x3f077f37	0.5292849
7	0x3f17ff0c	0.59373546
8	0x3f279279	0.65457875
9	0x3f362160	0.71144676
10	0x3f43952e	0.76399505
11	0x3f4fd908	0.8119054
12	0x3f5ad9e7	0.8548874
13	0x3f6486b6	0.8926805
14	0x3f6cd072	0.9250556
15	0x3f73aa3d	0.9518164
16	0x3f790974	0.9728005
17	0x3f7ce5c0	0.9878807
18	0x3f7f3923	0.9969656
19	0x3f7fffcd	0.99999696

log_one_minus_alphas_cumprod f4 [20]
0	0xc09a88fb	-4.8292212
1	0xc0650c26	-3.5788665
2	0xc034d9f3	-2.8258026
3	0xc0128ae4	-2.2897272
4	0xbff04e8a	-1.8773968
5	0xbfc5e4bc	-1.5460429
6	0xbfa2dfde	-1.2724569
7	0xbf857551	-1.0426427
8	0xbf58f783	-0.8475267
9	0xbf2e5015	-0.68090945
10	0xbf09d3cb	-0.53838795
11	0xbed55f51	-0.41674283
12	0xbea08c62	-0.31357104
13	0xbe688097	-0.22705303
14	0xbe1f8ac6	-0.15580282
15	0xbdca4603	-0.09876635
16	0xbd61e79c	-0.05515252
17	0xbcc7c68f	-0.024386672
18	0xbbc72aa3	-0.0060780807
19	0xb6cc0029	-6.0796924e-06

sqrt_recip_alphas_cumprod f4 [20]
0	0x3f8083be	1.0040205
1	0x3f81d308	1.0142527
2	0x3f83f856	1.0310161
3	0x3f87055d	1.0548512
4	0x3f8b1484	1.0865636
5	0x3f904b2e	1.1272943
6	0x3f96dd48	1.178628
7	0x3f9f12c7	1.2427605
8	0x3fa95045	1.3227621
9	0x3fb624e8	1.4230013
10	0x3fc6619d	1.5498539
11	0x3fdb41de	1.7129476
12	0x3ff6b77d	1.9274746
13	0x400e0126	2.21882
14	0x40287ee5	2.632745
15	0x4050b1c2	3.2608495
16	0x408a2484	4.3169575
17	0x40ce2a60	6.4426727
18	0x414d8a3f	12.8462515
19	0x43cb1e4f	406.2368

sqrt_recipm1_alphas_cumprod f4 [20]
0	0x3db7d4d9	0.08976144
1	0x3e2d808e	0.16943571
2	0x3e80814f	0.25098655
3	0x3eabe41b	0.33572468
4	0x3ed998ea	0.42499477
5	0x3f053774	0.5203774
6	0x3f1fb352	0.62382996
7	0x3f3ce51d	0.737871
8	0x3f5da87a	0.865852
9	0x3f8195fb	1.0123895
10	0x3f978ff5	1.1840807
11	0x3fb20425	1.3907515
12	0x3fd2ea41	1.6477739
13	0x3ffd877f	1.9806975
14	0x401bde2e	2.4354358
15	0x4046a382	3.1037297
16	0x4086629e	4.199538
17	0x40cbaabd	6.364592
18	0x414cea95	12.807271
19	0x43cb1e26	406.23553

posterior_variance f4 [20]
0	0x00000000	0.0
1	0x3bbc66ab	0.0057495437
2	0x3c78db69	0.01518903
3	0x3cd623cc	0.026140116
4	0x3d1bfe73	0.03808446
5	0x3d50aa79	0.050943825
6	0x3d84bdc1	0.06481505
7	0x3da3a3f8	0.07990259
8	0x3dc5a72f	0.09651028
9	0x3deba538	0.11506122
10	0x3e0b6911	0.13614298
11	0x3e2470de	0.1605868
12	0x3e4227cb	0.18960492
13	0x3e666f8c	0.2250349
14	0x3e8a2343	0.26980028
15	0x3ea85d3e	0.32883638
16	0x3ed27ca6	0.41110724
17	0x3f08c9cc	0.5343292
18	0x3f3c223a	0.73489726
19	0x3f7e3222	0.99295247

posterior_log_variance_clipped f4 [20]
0	0xc23834f1	-46.0517
1	0xc0a51389	-5.1586347
2	0xc085fd65	-4.187182
3	0xc0693bf3	-3.644284
4	0xc0512614	-3.267949
5	0xc03e87b0	-2.9770317
6	0xc02f1e30	-2.7362175
7	0xc021b980	-2.526947
8	0xc015a386	-2.3381057
9	0xc00a62f9	-2.1622908
10	0xbfff3d04	-1.9940495
11	0xbfea1a12	-1.8289206
12	0xbfd4d70c	-1.6628127
13	0xbfbee977	-1.4914998
14	0xbfa7b07b	-1.3100733
15	0xbf8e5c68	-1.112195
16	0xbf638f07	-0.8889012
17	0xbf20723e	-0.6267432
18	0xbe9db566	-0.3080246
19	0xbbe7c04e	-0.007072485

posterior_mean_coef1 f4 [20]
0	0x3f7fffcf	0.9999971
1	0x3f376a3d	0.7164648
2	0x3f095fd9	0.53661877
3	0x3edb0cb2	0.42783123
4	0x3eb67dcc	0.3564285
5	0x3e9ce8d9	0.306464
6	0x3e8a2609	0.26982144
7	0x3e77cd5b	0.2419943
8	0x3e61946a	0.22029272
9	0x3e4fe297	0.20301281
10	0x3e418e2c	0.1890189
11	0x3e35c6cf	0.1775162
12	0x3e2bf26d	0.16791697
13	0x3e2395bf	0.15975092
14	0x3e1c40c0	0.15259075
15	0x3e1576ab	0.1459605
16	0x3e0e8045	0.13916118
17	0x3e05ee85	0.13079269
18	0x3def6061	0.11688305
19	0x3d9f43f6	0.077766344

posterior_mean_coef2 f4 [20]
0	0x00000000	0.0
1	0x3e9128bc	0.2835139
2	0x3eed3106	0.46326464
3	0x3f1262d3	0.57182044
4	0x3f248d52	0.6427814
5	0x3f312799	0.69201046
6	0x3f3a3e9d	0.7275179
7	0x3f40f0a3	0.7536718
8	0x3f45e1f9	0.7729793
9	0x3f4971cd	0.7868927
10	0x3f4bd34a	0.79619277
11	0x3f4d188a	0.8011557
12	0x3f4d348a	0.80158293
13	0x3f4bf43b	0.7966954
14	0x3f48e9ec	0.78481936
15	0x3f433afb	0.7626187
16	0x3f391e8a	0.72312224
17	0x3f265668	0.64975595
18	0x3efc1edd	0.49242297
19	0x3d00bdf1	0.031431142

model.time_mlp.1.weight f4 [256, 32]
0	0xbdb8e319	-0.090276904
1	0xbce150a2	-0.027504269
2	0xbe1fbb81	-0.15598871
3	0x3b8c9484	0.0042901654
4	0x3d3ab3c6	0.0455816
5	0xbdbe3619	-0.09287662
6	0xbcfb286a	-0.03065892
7	0xbd627d64	-0.055295363
8	0xbdba6102	-0.09100534
9	0x3dea5ca4	0.11443451
10	0xbdaf3ab1	-0.08556116
11	0xbc64c867	-0.013963795
12	0x3e20ecbb	0.15715306
13	0xbaff75f6	-0.0019490111
14	0xbe08cec3	-0.13360123
15	0xbcd49ce6	-0.025953721
16	0xba88e652	-0.0010444617
17	0xbb215243	-0.0024615682
18	0xbdae2495	-0.08503071
19	0x3e3ebe65	0.18627317
20	0xbde91b0f	-0.11382114
21	0xbc85cd27	-0.016333176
22	0x3e5d662e	0.2162101
23	0x3d85e381	0.065375336
24	0x3dcbba48	0.0994764
25	0x3d8e5eb3	0.06951656
26	0xba96fa12	-0.0011518619
27	0xbe0ac25a	-0.13550702
28	0xbdd23dc9	-0.10265691
29	0x3c96d50e	0.01841214
30	0x3c3063d5	0.010765989
31	0xbd413fcb	-0.04717998
32	0x3da34a61	0.07973171
33	0xbcf7c8fe	-0.030247208
34	0xbd70d6bd	-0.05879854
35	0x3ccecdd4	0.02524463
36	0x3bad64d1	0.0052915593
37	0x3c8eb688	0.017421022
38	0xbc30f73d	-0.010801134
39	0x3de9a8f0	0.114091754
40	0xbdb28297	-0.08716314
41	0x3df37541	0.11887599
42	0x3e2f7f4d	0.17138405
43	0x3e4d8901	0.20071794
44	0x3d186786	0.037208103
45	0x3db7129f	0.089390986
46	0x3e4591fe	0.19293973
47	0x3c9775e3	0.01848883
48	0xbde73924	-0.112901956
49	0x3c14ae13	0.009074706
50	0xbda05b1c	-0.07829878
51	0xbdc245c3	-0.09485962
52	0xbdf0c8e7	-0.11757069
53	0x3c47d4aa	0.012196699
54	0xbce9742d	-0.02849778
55	0x3d5d7516	0.05406674
56	0x3e212a47	0.15738784
57	0xbe5d4031	-0.21606518
58	0xbc0bc750	-0.0085314065
59	0xba957b04	-0.0011404459
60	0x3e1daf55	0.15398915
61	0xbd952568	-0.07282525
62	0xbd362576	-0.04446932
63	0xbc3fa7d6	-0.01169773
64	0xbdb6e039	-0.08929486
65	0xbbebc90d	-0.007195598
66	0x3d8480b9	0.064698644
67	0x3c6b1599	0.014348411
68	0xbdca6781	-0.09883023
69	0xbe423e43	-0.18969063
70	0xbd4a942e	-0.04945772
71	0xbd928027	-0.07153349
72	0xbdc33390	-0.09531319
73	0xbdbaf252	-0.0912825
74	0xbd2332d4	-0.039843395
75	0x3c69b18d	0.014263523
76	0x3dcdd0c5	0.10049585
77	0xbbe07de5	-0.0068509453
78	0x3e03a454	0.12855655
79	0xbdd54a07	-0.1041451
80	0xbcdd6893	-0.027027404
81	0x3dd9b65a	0.10630484
82	0x3da28287	0.07935052
83	0x3dd4e59a	0.103953555
84	0xbd3ebf9c	-0.04656945
85	0x3cac8a29	0.021061974
86	0xbc5e608a	-0.013572821
87	0x3b887145	0.0041638934
88	0x3c001b2d	0.007818979
89	0xbd7096a9	-0.05873743
90	0x3d65006c	0.055908605
91	0xbde6de94	-0.11272922
92	0xbdbd8389	-0.09253604
93	0xbe26884e	-0.16262934
94	0x3d373d62	0.044736274
95	0xbd4ce9de	-0.05002772
96	0x3bd55508	0.0065103807
97	0xbcd9ebc6	-0.026601683
98	0x3c94ccc2	0.018164042
99	0x3defb355	0.11704127
100	0xbdd47379	-0.10373587
101	0xbcea3678	-0.028590426
102	0xbdf0b2c1	-0.117528446
103	0xbd99fc29	-0.07518799
104	0xbe03f450	-0.12886167
105	0x3dd6eb54	0.10494104
106	0x3cd268f1	0.025684806
107	0x3db514b4	0.088418394
108	0x3da9ceef	0.082914226
109	0x3d46809c	0.048462495
110	0x3e07ec75	0.13273795
111	0xbddb773f	-0.10716104
112	0x3d712bf3	0.058879804
113	0x3d7ce2a6	0.061739586
114	0x3cbcd827	0.023052288
115	0xbce51108	-0.027962223
116	0x3dd9579d	0.10612414
117	0x3b17fac2	0.0023190235
118	0x3ce40649	0.027835028
119	0xbc7fbc06	-0.015608793
120	0xbd0708b0	-0.03296727
121	0xbca2cc8c	-0.019872926
122	0xbd6e2ce9	-0.0581483
123	0xbd7634a9	-0.060108814
124	0x39889b2f	0.00026055562
125	0xbcafd371	-0.021463128
126	0xbe6f227b	-0.23352997
127	0x3d6b7a87	0.057489898
128	0xbd096e85	-0.033552665
129	0xbcdec9ad	-0.027195776
130	0x3a7fbcf4	0.0009755634
131	0x3d635265	0.0554985
132	0x3de35385	0.110999145
133	0xbd64a00c	-0.055816695
134	0xbe347677	-0.17623316
135	0xbd27d4e6	-0.04097452
136	0x3c8cbee0	0.01718086
137	0xbce125a3	-0.027483767
138	0xbdbc2fb7	-0.091887884
139	0xbe2a08cb	-0.16604917
140	0x3d0074c3	0.031361353
141	0xbe06a6b0	-0.13149524
142	0xbc8daa35	-0.017293075
143	0x3d539037	0.051651206
144	0xbd5e815b	-0.05432258
145	0x3cfbb70c	0.030726932
146	0x3db30291	0.08740724
147	0x3dd46f4a	0.10372789
148	0x3d174274	0.03692861
149	0xbd506051	-0.050873104
150	0xbb92c5b1	-0.004479133
151	0xbd1a3eb1	-0.037657443
152	0xbc4bf01a	-0.012447381
153	0xbdd3eb99	-0.10347671
154	0xbdf7e97f	-0.12105083
155	0xbc094928	-0.008379258
156	0x3d09c6a3	0.0336367
157	0x3df9f6ea	0.12205298
158	0xbcb52dbc	-0.022116534
159	0x3dd1fb94	0.10253063
160	0x3c9d4b4a	0.01920094
161	0xbc930b1a	-0.01794963
162	0xbdde0a2a	-0.108417824
163	0x3d975d91	0.07390893
164	0xbd3ef0b7	-0.046616282
165	0x3cbe7c55	0.023252646
166	0x3c8ef5dc	0.01745122
167	0xbdc42f59	-0.09579343
168	0x3d3ce80b	0.04611973
169	0xbd03fb63	-0.032222163
170	0x3d8c9e60	0.06866145
171	0xbb877d57	-0.0041348147
172	0xbcad6848	-0.02116789
173	0x3e015b6a	0.12632528
174	0x3d2c5818	0.0420762
175	0x3dec786c	0.11546406
176	0xbdb87767	-0.09007149
177	0xbd833000	-0.0640564
178	0x3e458a37	0.19291006
179	0xbd451cdd	-0.04812323
180	0xbbf57a9f	-0.007491424
181	0xbe3bb8ce	-0.18332216
182	0x3c0be49f	0.008538394
183	0x3d211621	0.039327744
184	0x3d593c21	0.05303586
185	0x3d000a0c	0.03125958
186	0xbe543fc7	-0.20727454
187	0xbd658241	-0.056032423
188	0x3d849f35	0.06475679
189	0xbd49552d	-0.049153496
190	0x3d5c38bf	0.053765055
191	0x3d3c66e5	0.045996565
192	0x3e13daf1	0.14438988
193	0xbdb2c422	-0.087288156
194	0x3e045e34	0.1292656
195	0x3d01cf1a	0.031691648
196	0xbd5f2cf4	-0.05448623
197	0x3d75b3ab	0.059985798
198	0x3cd36152	0.025803242
199	0x3df26ad0	0.11836779
200	0xbcf23268	-0.029565051
201	0xbd0af764	-0.033927336
202	0xbc2928a6	-0.010324633
203	0xbca6b29e	-0.020348843
204	0x3dbbc638	0.091686666
205	0xbbdc2f0a	-0.0067194747
206	0x3dba46f2	0.09095563
207	0x3d9b3b8a	0.075797155
208	0xba96bd1a	-0.0011500448
209	0x3cda159a	0.026621629
210	0x3ce9de40	0.02854836
211	0xbe25be23	-0.16185813
212	0xbd190af9	-0.03736398
213	0x3c817df5	0.015807131
214	0x3de5ae0a	0.11214836
215	0x3d6b03e6	0.057376765
216	0xbd4674fb	-0.048451405
217	0xbe1d9ad4	-0.15391093
218	0xbdc216a9	-0.09476978
219	0x3c3f9ad9	0.011694633
220	0x3ce848f6	0.028355103
221	0x3d945870	0.072434306
222	0x3c2117ea	0.009832362
223	0xbd9f6241	-0.07782412
224	0xbd6eddc4	-0.05831696
225	0xbd59fc3b	-0.05321906
226	0xbd79d7f2	-0.060996957
227	0xbd670b5f	-0.05640733
228	0x3db8b941	0.090197094
229	0x3d413d1d	0.047177423
230	0xbcd49e51	-0.025954397
231	0x3e03864a	0.12844196
232	0x3d944bc2	0.07241012
233	0xbd3ea64d	-0.046545316
234	0xbb8c827b	-0.0042880154
235	0x3da053d1	0.07828487
236	0xbda66b39	-0.0812592
237	0x3dec288a	0.1153117
238	0xbda21c7c	-0.07915589
239	0xbd070257	-0.032961216
240	0xbdf560c3	-0.119813465
241	0x3e0e279f	0.13882302
242	0x3d3a0819	0.04541788
243	0x3d68629c	0.056734666
244	0x3ccc0ec7	0.02490939
245	0x3d78081a	0.0605546
246	0xbddc1ffc	-0.10748288
247	0x3c54df1b	0.012992646
248	0x3d8abcca	0.0677429
249	0xbdbfa662	-0.09357907
250	0xbd48d345	-0.049029607
251	0xbe0191bf	-0.12653254
252	0x3df84d3a	0.12124105
253	0x3d78b2b2	0.060717292
254	0xbd02de67	-0.03195038
255	0x3e2ceafd	0.16886516

model.time_mlp.1.bias f4 [256]
0	0xb471d0b4	-2.25208e-07
1	0xb3c0cd39	-8.9780265e-08
2	0x3398388f	7.0883395e-08
3	0xb45e4ad8	-2.0702589e-07
4	0xb2b440e7	-2.0984272e-08
5	0x34002f2b	1.1938089e-07
6	0xb44de6b0	-1.9176036e-07
7	0x34e07a1b	4.1812095e-07
8	0xb23127e0	-1.03118225e-08
9	0xb3a35d39	-7.607236e-08
10	0xb40f3291	-1.3336309e-07
11	0xb3ec85ae	-1.10139226e-07
12	0xb48637c4	-2.500002e-07
13	0x33180001	3.539026e-08
14	0x34a0c52e	2.994579e-07
15	0x3440151f	1.7889077e-07
16	0xb27e57ff	-1.4804754e-08
17	0xb42d1ff4	-1.6123505e-07
18	0x342c81b2	1.6065931e-07
19	0xb2c612f6	-2.3058856e-08
20	0x33ba0355	8.661906e-08
21	0x34dc4ae4	4.1032683e-07
22	0xb4242e1c	-1.5290465e-07
23	0x34b8ec07	3.4444403e-07
24	0xb4b5a53e	-3.3834107e-07
25	0x339b1163	7.2209126e-08
26	0xb1f2be7d	-7.064783e-09
27	0xb40cb5ee	-1.3104702e-07
28	0xb35fd46b	-5.2114427e-08
29	0xb4935e71	-2.74496e-07
30	0x33ac16b6	8.013505e-08
31	0x32e5f25f	2.6769326e-08
32	0xb4391f09	-1.7240758e-07
33	0x346428e0	2.1249025e-07
34	0x3447e404	1.8616271e-07
35	0xb3fdf342	-1.1825479e-07
36	0xb34fd34b	-4.8388113e-08
37	0xb405c010	-1.2456462e-07
38	0x33fd91e4	1.1807768e-07
39	0x3493cb4b	2.75288e-07
40	0x346259ef	2.1080608e-07
41	0xb437b138	-1.7107675e-07
42	0xb316664a	-3.5017628e-08
43	0xb52f1e17	-6.5236367e-07
44	0x3417068d	1.4065354e-07
45	0x33afa9a0	8.179927e-08
46	0x348f34f0	2.6674343e-07
47	0xb3e59c93	-1.0692124e-07
48	0x34311c58	1.6494721e-07
49	0xb23a2c42	-1.0836688e-08
50	0xb2b05f31	-2.0532385e-08
51	0x33d29b0a	9.8070885e-08
52	0x34de6464	4.1423766e-07
53	0x34d943ad	4.046864e-07
54	0x3441c8c5	1.8047565e-07
55	0xb3c2cbd4	-9.070905e-08
56	0xb3ecfbfc	-1.1035442e-07
57	0xb395d7f6	-6.977636e-08
58	0xb468e02e	-2.168824e-07
59	0x327b295c	1.4619527e-08
60	0x34a74172	3.1153792e-07
61	0xb4009462	-1.197491e-07
62	0xb389171c	-6.383763e-08
63	0xb443777e	-1.8204261e-07
64	0xb3d6ffaa	-1.00116566e-07
65	0x3355c749	4.9774176e-08
66	0x33ac8184	8.032933e-08
67	0xb4dea368	-4.1469616e-07
68	0xb44c826c	-1.9046428e-07
69	0x34bbd46f	3.498603e-07
70	0xb3f10172	-1.12227e-07
71	0x339b2234	7.2239715e-08
72	0x32611ba8	1.3103012e-08
73	0x3435d5e0	1.6934746e-07
74	0x339164a6	6.7703965e-08
75	0xb433d44c	-1.6747907e-07
76	0x3445ba13	1.8414748e-07
77	0x340ee695	1.3308666e-07
78	0x33514ec5	4.8733245e-08
79	0x340de67e	1.3215501e-07
80	0x34760f8b	2.291619e-07
81	0x327b5b89	1.4630936e-08
82	0xb4a03cf4	-2.9846672e-07
83	0x32fbae25	2.9299438e-08
84	0xb4bb63fe	-3.4904218e-07
85	0x34665a86	2.1453351e-07
86	0xb2cd3802	-2.389061e-08
87	0xb37abeae	-5.8381083e-08
88	0xb482fc7f	-2.4398102e-07
89	0xb491b09d	-2.7136858e-07
90	0xb51b29d3	-5.780286e-07
91	0x33e0ebe6	1.04737225e-07
92	0x3318b326	3.5553192e-08
93	0x33a24c6a	7.5576125e-08
94	0xb44c3372	-1.9017696e-07
95	0x333c70f0	4.3874877e-08
96	0x347d8061	2.3609165e-07
97	0x33d91023	1.0107785e-07
98	0x3411bf50	1.3573776e-07
99	0xb37df86f	-5.9132102e-08
100	0x339e1494	7.3611915e-08
101	0xb3d8203f	-1.0064149e-07
102	0x337f55be	5.9449796e-08
103	0xb26c49a3	-1.3753751e-08
104	0xb3aac804	-7.9526245e-08
105	0x3413fbed	1.3782092e-07
106	0x327c3e31	1.4682471e-08
107	0x338123eb	6.013564e-08
108	0xb3ab9a10	-7.990832e-08
109	0xb4c9b5f8	-3.7571567e-07
110	0x340f5ba3	1.335125e-07
111	0x34b882ba	3.4367787e-07
112	0xb38e3789	-6.622492e-08
113	0xb413ab95	-1.3752863e-07
114	0x2f073e75	1.2300368e-10
115	0xb19b2adc	-4.5159663e-09
116	0x3448bc41	1.8694938e-07
117	0xb3f4abda	-1.1393395e-07
118	0xb407fb7c	-1.2664344e-07
119	0xb3602503	-5.2187726e-08
120	0x342435bc	1.5293239e-07
121	0xb2231390	-9.492297e-09
122	0xb42fb102	-1.636254e-07
123	0x3408ce19	1.2740965e-07
124	0x34511141	1.9470919e-07
125	0x35116470	5.4162865e-07
126	0x32bb222d	2.1785207e-08
127	0x331efca7	3.7017028e-08
128	0xb4898765	-2.561675e-07
129	0xb497a70c	-2.8247484e-07
130	0x33ec6cdf	1.100941e-07
131	0x338f5feb	6.676404e-08
132	0x345f6239	2.0804227e-07
133	0xb38763f7	-6.304611e-08
134	0xb3264477	-3.8712155e-08
135	0x33b30e1f	8.337906e-08
136	0xb4d5afe7	-3.9802327e-07
137	0x338a6d9f	6.446066e-08
138	0xb3ab688a	-7.9818236e-08
139	0x347e632e	2.3691675e-07
140	0xb3825635	-6.069278e-08
141	0xb25795a5	-1.2548672e-08
142	0x344b160c	1.8913869e-07
143	0xb33c5abb	-4.385468e-08
144	0x337e7e11	5.925364e-08
145	0x314aea0c	2.952791e-09
146	0xb3e93185	-1.08589155e-07
147	0xb3cfe78e	-9.681308e-08
148	0x34b92185	3.4483324e-07
149	0x34872d63	2.5178733e-07
150	0x3408fc8f	1.2757867e-07
151	0x3486dd27	2.5120355e-07
152	0x3334dc12	4.210967e-08
153	0x352441c4	6.119046e-07
154	0xb35da50b	-5.1605678e-08
155	0xb3e57f11	-1.0686757e-07
156	0x33757b19	5.7155464e-08
157	0xb47fd575	-2.3826381e-07
158	0x343f77b4	1.7831809e-07
159	0x334b0157	4.726584e-08
160	0x343de1ad	1.7684097e-07
161	0x33ab4b34	7.9764874e-08
162	0x332a49ef	3.964845e-08
163	0xb46f5206	-2.228845e-07
164	0xb48d1a30	-2.628235e-07
165	0xb17694ed	-3.5882366e-09
166	0x3497dcbf	2.8286556e-07
167	0xb428f102	-1.5733897e-07
168	0xb4cc24ba	-3.8024683e-07
169	0x339051e4	6.720418e-08
170	0x348da15c	2.63807e-07
171	0x34763648	2.2930283e-07
172	0x33f02b38	1.1183732e-07
173	0x346d82ce	2.2119931e-07
174	0xb4217901	-1.5038314e-07
175	0x332c2556	4.0080828e-08
176	0xb4a90af2	-3.1486667e-07
177	0x340bdd21	1.302583e-07
178	0x34372d02	1.7059577e-07
179	0xb3d44bc5	-9.885802e-08
180	0x34085ab1	1.269898e-07
181	0x33f45d5e	1.1379119e-07
182	0xb0570714	-7.8226603e-10
183	0x33fffed9	1.1920719e-07
184	0xb41c8523	-1.4577067e-07
185	0x34752953	2.2832437e-07
186	0x340f9196	1.3370877e-07
187	0x3379ee2b	5.8191443e-08
188	0xb2bc9d88	-2.1957717e-08
189	0xb48691f1	-2.506563e-07
190	0xb419a90e	-1.4310737e-07
191	0xb3dec6f5	-1.0373871e-07
192	0xb2559429	-1.24319195e-08
193	0x33a4f02c	7.680532e-08
194	0xb49bef17	-2.904496e-07
195	0x3199ba7d	4.4740873e-09
196	0x34f55419	4.5695995e-07
197	0xb352018a	-4.8895835e-08
198	0x33f14b02	1.1236081e-07
199	0xb4cae2f5	-3.7790565e-07
200	0xb23c8103	-1.0972374e-08
201	0xb48bb7d7	-2.602453e-07
202	0x34948a99	2.766799e-07
203	0xb23a8408	-1.0856645e-08
204	0x337dec0d	5.912084e-08
205	0x344922a7	1.873219e-07
206	0x336947ca	5.431483e-08
207	0xb4af24b0	-3.2622984e-07
208	0xb31663b6	-3.5015283e-08
209	0xb473e8ec	-2.2715875e-07
210	0xb3fec8f2	-1.18643484e-07
211	0xb37a43c5	-5.8269297e-08
212	0xb23a6bda	-1.08511475e-08
213	0xb408bb9a	-1.2734236e-07
214	0x340efcf2	1.3316802e-07
215	0x34a5f268	3.091002e-07
216	0xb4f71938	-4.6025684e-07
217	0xb365dcce	-5.3519038e-08
218	0xb4ebfe3b	-4.3957138e-07
219	0x33f445f4	1.137486e-07
220	0xb3f6603d	-1.1472773e-07
221	0x350be625	5.211644e-07
222	0xb4c6fea3	-3.7065647e-07
223	0xb347d6ca	-4.6528648e-08
224	0xb4ed3c1c	-4.4188425e-07
225	0x34f7fa52	4.6189467e-07
226	0x325f6bb6	1.3004799e-08
227	0xb3aae4ae	-7.9578385e-08
228	0x335c7a13	5.1333767e-08
229	0xb4cbfef8	-3.799721e-07
230	0xb3d59bf6	-9.9469545e-08
231	0xb480919b	-2.39478e-07
232	0x34910984	2.7015278e-07
233	0x337c7f9c	5.8789382e-08
234	0x33d2e4cd	9.820506e-08
235	0xb426ddba	-1.5540618e-07
236	0x348106dc	2.4033113e-07
237	0x33b1e623	8.2840664e-08
238	0x33856c29	6.212969e-08
239	0xb48f52dd	-2.6696117e-07
240	0xb3d5ffd2	-9.965119e-08
241	0xb442cc9e	-1.8142097e-07
242	0x3507a4b0	5.053107e-07
243	0xb2c6f23f	-2.3160394e-08
244	0xb475efaa	-2.2904592e-07
245	0xb49f2230	-2.9640933e-07
246	0xb4c943be	-3.7488456e-07
247	0xb4101e9a	-1.3422178e-07
248	0xb48bd55e	-2.6046013e-07
249	0xb49dc845	-2.9389244e-07
250	0x3485c4e6	2.4916443e-07
251	0xb456dd9e	-2.0010927e-07
252	0xb2ae9064	-2.0321927e-08
253	0xb3b7fd01	-8.567623e-08
254	0x34128f2e	1.3649398e-07
255	0x341a296b	1.4357435e-07

model.time_mlp.3.weight f4 [32, 256]
0	0x3d8c9675	0.06864635
1	0x3b72af26	0.0037030666
2	0xbcd58397	-0.026063723
3	0xbd307841	-0.043083433
4	0xbc136f5b	-0.008998717
5	0xbc92be64	-0.017913051
6	0xbc35e5fe	-0.011102198
7	0xbcb4d727	-0.022075249
8	0x3b11f321	0.002227016
9	0xbc6c6a1e	-0.014429597
10	0x3c1f6a13	0.00972988
11	0xbc31f95e	-0.010862676
12	0x3c237238	0.009975962
13	0xbc88ac08	-0.016683593
14	0xbd07b324	-0.033129826
15	0xbc30e5db	-0.010796989
16	0xbb57268f	-0.003282938
17	0xbd9a2c0e	-0.07527934
18	0x3d00d402	0.031452186
19	0xbbd4bc1b	-0.0064921505
20	0xbc9219ad	-0.017834509
21	0x3c89b3a2	0.016809288
22	0xbc2f1103	-0.010685208
23	0x3da3d54d	0.07999668
24	0xbb4e535c	-0.0031482792
25	0x3c02b45c	0.007977571
26	0xbd0be480	-0.03415346
27	0xbd8790fc	-0.066194504
28	0x3cc11022	0.023567263
29	0x3c3e9481	0.011632086
30	0x3bc16f9a	0.0059031965
31	0xbc6c12e4	-0.014408801
32	0x3d5ff70a	0.054678954
33	0xbdd683ee	-0.10474382
34	0xbcfb89e2	-0.030705396
35	0x3b3bf22b	0.002867828
36	0x3b735f58	0.0037135687
37	0x3c15a019	0.009132409
38	0xbd0ce7c3	-0.034400713
39	0x3b951304	0.004549386
40	0xbca07232	-0.019585703
41	0x3b46a393	0.00303099
42	0x3a3052ed	0.0006726224
43	0x3c9740ad	0.018463457
44	0xbadd4ccd	-0.001688385
45	0x3d35d03d	0.044388045
46	0xbda1cb06	-0.07900052
47	0xbd15ad55	-0.036542255
48	0xbc85c6cb	-0.016330143
49	0xbc0d46df	-0.008622854
50	0xbbb4a4ef	-0.0055128257
51	0xbcf4888d	-0.029850269
52	0x3caf7143	0.021416312
53	0xbb991268	-0.0046713836
54	0x3bb915ab	0.005648335
55	0xbc4c551b	-0.012471463
56	0x3c125ed4	0.008933742
57	0xbccef08f	-0.025261192
58	0xbca0c809	-0.019626634
59	0xbbc7e9e1	-0.0061008786
60	0xbca394ef	-0.019968478
61	0xbd14c8ee	-0.036324434
62	0x3d105053	0.035232853
63	0x3cbbd196	0.022927087
64	0x3c809905	0.015697965
65	0x3c9e81ea	0.019349057
66	0x3b8d0d46	0.004304561
67	0x3cd8148d	0.026376987
68	0xbcf06a91	-0.02934769
69	0xbc17dc54	-0.009268839
70	0xbc619108	-0.013767488
71	0x3d811220	0.06302285
72	0xbcd93a37	-0.026517017
73	0x3ca5f37c	0.020257704
74	0xbdcbdf10	-0.09954655
75	0x3be09a55	0.0068543353
76	0xbc8cc2c8	-0.017182723
77	0xbc87a3d2	-0.016557608
78	0xbd341c8c	-0.043972537
79	0x3c9e434f	0.019319205
80	0xbc21e8af	-0.009882136
81	0xbd7b051d	-0.061284173
82	0xbcfd18fa	-0.030895699
83	0xbd153dc1	-0.036435846
84	0xbc2efd38	-0.010680489
85	0xbd3a3d8d	-0.045468856
86	0xbcada269	-0.021195607
87	0xba9c2f8f	-0.0011916029
88	0xbcf9340d	-0.030420328
89	0xbd3819be	-0.044946425
90	0x3cb2f475	0.021845082
91	0xbd1e0711	-0.038580958
92	0xbd257cc8	-0.040402204
93	0x3c591c5c	0.01325139
94	0xbcb2cf33	-0.021827316
95	0xbd033257	-0.03203043
96	0xbc8d3854	-0.017238773
97	0xbd2d6765	-0.042334933
98	0xbd38c1f9	-0.04510686
99	0x3cb366d7	0.021899624
100	0xbc8c5d11	-0.017134221
101	0x3c1436a6	0.009046232
102	0xbcc4ac16	-0.024007838
103	0xbc22dd90	-0.00994052
104	0x3c617bdf	0.013762443
105	0x3a6a44d4	0.0008936648
106	0x3bae7206	0.0053236512
107	0xbc44ef48	-0.01201994
108	0x3d47cc37	0.04877874
109	0x3d0299b4	0.031884864
110	0xbc8ac83f	-0.016941188
111	0x3ce8f221	0.028435769
112	0x3b384736	0.0028118617
113	0x3d2a84fc	0.04163073
114	0x3c480cac	0.012210052
115	0x3c4e7145	0.012600248
116	0xbbb08488	-0.0053868927
117	0xbd2d6f77	-0.04234263
118	0xba16cca5	-0.00057525403
119	0x3be877a9	0.0070943427
120	0x3c92387e	0.017849203
121	0x3cbe5381	0.023233177
122	0x3c94a26a	0.018143851
123	0x3d03d075	0.032181222
124	0xbcc88b94	-0.024480619
125	0xbd16107c	-0.036636814
126	0xbd2e8bf3	-0.042613935
127	0x3d1c1329	0.03810421
128	0xbb7d5471	-0.0038655067
129	0x3cb452c1	0.022012116
130	0xbc5670dd	-0.013088432
131	0xbbb0d690	-0.0053966716
132	0xbcc0d297	-0.023537917
133	0x3b855c8e	0.0040698713
134	0xbd0d8d1a	-0.034558393
135	0x3c03b92d	0.008039755
136	0xbd4e8cde	-0.05042731
137	0xbcb6b485	-0.022302875
138	0xbd0e72d5	-0.03477748
139	0x3d1662d6	0.03671535
140	0xbaa199a1	-0.001232911
141	0xbc82e669	-0.015979009
142	0xbae9877c	-0.0017816867
143	0xbb4c561e	-0.003117926
144	0xbc6c62fd	-0.0144278975
145	0x3a8db44b	0.0010811178
146	0x3d46d130	0.04853934
147	0x3b47b843	0.0030474819
148	0xbcfab831	-0.030605407
149	0xbd691139	-0.05690119
150	0x3d067b11	0.03283221
151	0xbd3ce5e4	-0.04611768
152	0xbc5b3a12	-0.013380544
153	0xba8918c8	-0.0010459656
154	0x3cc3dd1d	0.023909146
155	0x3c25575d	0.01009163
156	0x3d6c9974	0.05776353
157	0xbbe32829	-0.0069322777
158	0x3d263e16	0.040586554
159	0xbcd4af89	-0.025962608
160	0xbd221cdf	-0.039578315
161	0x3d66d271	0.056353036
162	0xbcd67f14	-0.026183642
163	0x3d82eba3	0.063926004
164	0x3b6172e3	0.0034400753
165	0xbbfb80f6	-0.0076752855
166	0xbb5a7ef7	-0.0033339837
167	0x3d31fa92	0.043451853
168	0x3c045585	0.00807703
169	0xbd641d56	-0.05569204
170	0xbd941d7c	-0.07232186
171	0x39ebcaf0	0.00044973893
172	0xbb02af6b	-0.0019940983
173	0x3cc9f668	0.024653628
174	0x3c98e5d6	0.018664282
175	0xbcfb5bf6	-0.030683499
176	0x3c199221	0.009373219
177	0x3bf20918	0.007386338
178	0x3cfa5f77	0.0305631
179	0x3bbed9fa	0.0058243247
180	0xba828b3e	-0.000995971
181	0xbb8dfa8c	-0.004332846
182	0x3c9d0149	0.019165652
183	0x3c08738b	0.008328329
184	0x3bf59bb7	0.0074953693
185	0x3c7231e8	0.014782406
186	0x3d72b354	0.059253052
187	0x3c396081	0.011314512
188	0x3cf3cd80	0.029761076
189	0x3db48f5b	0.088164054
190	0xbc9bf1d6	-0.019036215
191	0x3c3dd351	0.011586026
192	0x3cb8796a	0.022518832
193	0xbc3902af	-0.011292144
194	0xbc5bf00a	-0.013423929
195	0xbc41a5d3	-0.011819321
196	0xbc2e0bb7	-0.01062291
197	0xbbf7ef73	-0.0075663864
198	0x3c1e2c3b	0.0096541
199	0x3c65e9f0	0.014032826
200	0xbd2e385e	-0.042534225
201	0xbc3f8aa8	-0.011690773
202	0x3c580626	0.01318506
203	0xbc533505	-0.012891059
204	0x3bf56578	0.0074889027
205	0x3d483537	0.048878875
206	0x3bd6da48	0.006556783
207	0xbbb080ee	-0.0053864634
208	0x3c27220b	0.010200988
209	0x3c5b3be1	0.013380975
210	0xbd0fa9d1	-0.03507406
211	0xbbc8b452	-0.0061250115
212	0xbd6b9e12	-0.057523794
213	0xbc3df091	-0.011593
214	0x3d31ff22	0.043456204
215	0xbc5d0b88	-0.013491519
216	0x3d027f16	0.03185948
217	0x3bcdf791	0.0062856157
218	0x3d339a3d	0.043848265
219	0xbc1eaf37	-0.009685329
220	0x3bbaf05a	0.0057049217
221	0x3d590d4c	0.052991197
222	0x3c43854f	0.011933639
223	0xbd4fe85d	-0.05075871
224	0x3ceb77d6	0.028743666
225	0xbcc7ad01	-0.024374487
226	0x3d189bf4	0.037258103
227	0xbbec6ec8	-0.0072153546
228	0xbbdd385b	-0.006751103
229	0xbcdd6e7b	-0.02703022
230	0xbc5c63ec	-0.013451558
231	0xbd48c364	-0.049014464
232	0xbce0b038	-0.027427778
233	0x3c5db622	0.013532193
234	0x3cf19e57	0.029494448
235	0x3bfcbae3	0.0077127083
236	0xbb76a1e5	-0.0037633118
237	0xbd21dc72	-0.039516874
238	0x3ccc50aa	0.024940807
239	0xbc90e86e	-0.017688956
240	0x3d0ad59a	0.033895113
241	0x3d7f6180	0.062348843
242	0x3c3d6d99	0.011561775
243	0x3acca5c3	0.0015613366
244	0x3ce6d1ae	0.028176155
245	0x3d40d6c5	0.04707982
246	0xbb6913b9	-0.0035564734
247	0x3c767623	0.015042814
248	0xbc6138f5	-0.01374649
249	0x3d119716	0.035544477
250	0x3a86c6fb	0.001028269
251	0x3ca8c300	0.020600796
252	0x3ac03e89	0.0014667074
253	0x3af56445	0.0018721899
254	0x3c49326d	0.012280089
255	0xbd3b23d3	-0.04568846

model.time_mlp.3.bias f4 [32]
0	0xb50aa58a	-5.16499e-07
1	0xb576adba	-9.1894947e-07
2	0x357d3503	9.4326987e-07
3	0xb61d0b93	-2.340156e-06
4	0xb5349618	-6.727364e-07
5	0x3596c87d	1.1234221e-06
6	0x341523cf	1.3889733e-07
7	0xb5c636ff	-1.4768156e-06
8	0x363eaea3	2.8413858e-06
9	0x368ba9f4	4.162308e-06
10	0x3525b6db	6.173338e-07
11	0xb5a7e613	-1.250943e-06
12	0x363d785f	2.823326e-06
13	0xb47d26fd	-2.3576645e-07
14	0xb5a5368c	-1.2309333e-06
15	0xb5f7fbcf	-1.847622e-06
16	0xb64461a0	-2.9263101e-06
17	0x34532d99	1.9667495e-07
18	0xb65197ac	-3.1231712e-06
19	0x350433d4	4.924925e-07
20	0x352f5ca3	6.5327384e-07
21	0x35feab20	1.8974279e-06
22	0x363b707a	2.7930641e-06
23	0xb4de79c3	-4.1439316e-07
24	0xb448a99c	-1.8688155e-07
25	0xb62d863d	-2.5857146e-06
26	0x36182232	2.266967e-06
27	0x35c44ad0	1.4624911e-06
28	0x35ae5957	1.2990012e-06
29	0xb5f219cd	-1.8037914e-06
30	0x365292cc	3.1377886e-06
31	0xb5d20aef	-1.5649401e-06

model.layer.0.weight f4 [256, 55]
0	0xbc120fc8	-0.008914895
1	0xbdb4342e	-0.08799015
2	0xbe106c8e	-0.1410391
3	0x3dce9195	0.10086361
4	0xbe05adfc	-0.13054651
5	0x3c43ab3d	0.011942682
6	0x3bf09a90	0.007342644
7	0xbcee785e	-0.02911013
8	0xbbc40ff3	-0.0059833466
9	0xbdd11985	-0.102099456
10	0x3dd68622	0.104748026
11	0xbd85ee52	-0.065395966
12	0xbd936a13	-0.071979664
13	0x3d12ad95	0.035810072
14	0x3ca17d5a	0.019713093
15	0x3e10ea86	0.14151964
16	0x3d0dc713	0.03461368
17	0xbe13b7b0	-0.1442554
18	0x3d766085	0.060150642
19	0xbd846e31	-0.0646633
20	0x3d420140	0.047364473
21	0x3dd9c24d	0.10632763
22	0x3c076d9f	0.008265882
23	0x3ba5f82b	0.0050649843
24	0x3c7d6bcb	0.015467594
25	0xbbb08fd6	-0.0053882403
26	0xbd1ac70f	-0.037787493
27	0x3de62216	0.1123697
28	0x3cf0e751	0.029407175
29	0xbc986f7c	-0.018607847
30	0xba5c119a	-0.0008394957
31	0x3daa023c	0.083012074
32	0xbcd20d16	-0.025641005
33	0xbbe14f34	-0.006875897
34	0x3d437634	0.04772015
35	0x3d390290	0.04516846
36	0x3db7c47c	0.08973023
37	0x3dd8ed80	0.105921745
38	0xbd156e29	-0.03648201
39	0x3c595ffd	0.013267514
40	0xbd320df5	-0.04347034
41	0xbbad9b58	-0.0052980594
42	0x3e0eff6e	0.13964626
43	0xbdb10df4	-0.086452395
44	0x3d799c68	0.060940176
45	0xbc9f4f52	-0.019447003
46	0x3d388f86	0.04505875
47	0xbd6c6cf0	-0.05772108
48	0xbdb7929a	-0.08963509
49	0xbd9a48e2	-0.075334325
50	0x3d832932	0.06404342
51	0x3e020cdc	0.12700218
52	0x3dcd61a5	0.1002839
53	0x3d0da24c	0.034578606
54	0xbd5373ef	-0.051624235
55	0x3cdcad81	0.026938202
56	0x3d844fd3	0.06460538
57	0xbca9a4c4	-0.02070845
58	0x3cf72d33	0.03017292
59	0x3da86de3	0.08224084
60	0x396a1e0a	0.0002232717
61	0x3af53639	0.0018708176
62	0xbdc0c81a	-0.09413166
63	0xbdb5a79a	-0.08869858
64	0x3c29d4a2	0.010365637
65	0xbc56b6c1	-0.013105095
66	0xbddf61a5	-0.10907296
67	0x3adf4be2	0.0017036165
68	0xbd09229b	-0.033480268
69	0xbdaef753	-0.08543267
70	0xbd149791	-0.036277357
71	0xbc589b97	-0.013220689
72	0x3d1d9dd1	0.038480584
73	0x3d362264	0.04446639
74	0x3de6bd51	0.11266578
75	0x3db5eafc	0.0888271
76	0xbcd0a129	-0.025467472
77	0x3c8875a0	0.01665765
78	0x3d60dc61	0.05489767
79	0xbdcfe937	-0.10151904
80	0xbd56d476	-0.052448712
81	0xbd0588ec	-0.032601282
82	0x3d95e770	0.07319534
83	0xbdb4eaad	-0.08833823
84	0x3d6acb3b	0.057322722
85	0x3d1b8057	0.03796419
86	0xbda2158d	-0.07914267
87	0x3c80c411	0.015718492
88	0xbce0b6af	-0.02743086
89	0x3c8fa84f	0.01753631
90	0x3c830845	0.015995154
91	0xbcc96052	-0.024582062
92	0x3b1248f9	0.0022321327
93	0xbcbcbf50	-0.023040444
94	0x3dc9a27d	0.09845445
95	0x3dc274c2	0.09494926
96	0x3d8a57b9	0.06755013
97	0x3d7796c6	0.060446523
98	0x3df5faeb	0.120107494
99	0x3d121f5d	0.03567444
100	0xbdab55ce	-0.08365975
101	0xbb8a3da3	-0.0042187735
102	0x3d5ee4d0	0.05441743
103	0xbdab9786	-0.0837851
104	0x3c7f6086	0.015586978
105	0xbd41de64	-0.04733123
106	0x3d456fd4	0.04820235
107	0xbc99a930	-0.018757433
108	0xbba3a008	-0.0049934424
109	0xbd9a3a50	-0.075306535
110	0xbc886bdf	-0.016653
111	0x3d5a31ca	0.05327014
112	0x3d2774f7	0.04088303
113	0x3d06bdb6	0.032895766
114	0x3c682b94	0.014170546
115	0x3cbe9ab3	0.023267126
116	0xbd16f09f	-0.036850568
117	0xbd8f64ce	-0.07001649
118	0xbbe25b89	-0.0069078845
119	0xbdb0f263	-0.086399816
120	0xbc8fbc92	-0.017545972
121	0xbd1b2ff9	-0.037887547
122	0xbaae54a8	-0.0013300376
123	0xbd1f145a	-0.03883777
124	0x3d081313	0.033221316
125	0xbdd1acc6	-0.10238032
126	0xbddb6d83	-0.10714247
127	0x3ab1fbe1	0.0013579094
128	0x3c178111	0.00924708
129	0xbdebbe22	-0.11510874
130	0x3dbce93b	0.09224173
131	0xbd49679b	-0.04917107
132	0xbdd0c4d8	-0.10193795
133	0xbd603a7a	-0.054743268
134	0xbe0c6b43	-0.13712792
135	0x3e2529de	0.16129252
136	0xbdc7905b	-0.097443305
137	0xbd587c69	-0.05285302
138	0xba6cd50b	-0.00090344314
139	0xbd2e5717	-0.042563524
140	0x3dfb531e	0.12271713
141	0xbd0f0dbc	-0.034925207
142	0xbc896a45	-0.016774306
143	0x3daa1bfc	0.08306119
144	0x3d27ef17	0.0409995
145	0xbdda5bef	-0.10662066
146	0xbcb66f1a	-0.022269774
147	0xbd521be7	-0.05129614
148	0x3d29ca07	0.041452434
149	0xbd4681ba	-0.04846356
150	0x3da54b8f	0.08071052
151	0x3b3665b3	0.0027831614
152	0xbd2d1a93	-0.04226167
153	0xbd828943	-0.06373837
154	0xbc8d38e2	-0.017239038
155	0xbdbe6436	-0.092964575
156	0x3df3896e	0.11891447
157	0xbd5f2c89	-0.05448583
158	0xbd058c62	-0.032604583
159	0xb9ef10e7	-0.00045598226
160	0x3d3cd16c	0.046098158
161	0xbd2fce2e	-0.042921238
162	0xbe14e2d5	-0.14539655
163	0xbd178255	-0.03698953
164	0x3cc601bf	0.024170754
165	0x3d891c15	0.06694809
166	0xbdb103f9	-0.08643336
167	0xbcbda9c2	-0.023152236
168	0xbe151cb7	-0.14561735
169	0x3dd16289	0.10223872
170	0xbc5a2e43	-0.013316694
171	0xbb10f003	-0.0022115714
172	0xbdb714f8	-0.08939546
173	0xbc9279ad	-0.017880285
174	0x3dcc33c4	0.09970811
175	0xbd3329be	-0.04374098
176	0x3c83261b	0.016009381
177	0x3ae534a4	0.0017487002
178	0x3dab9888	0.083787024
179	0xbd99dbef	-0.07512652
180	0x3d53be9e	0.05169546
181	0x3d9eb34f	0.07749044
182	0xbb8325d6	-0.004002313
183	0xbc905d44	-0.017622598
184	0x3df9b50b	0.12192734
185	0x3d079aa8	0.033106476
186	0xbd0b1394	-0.033954218
187	0xbca9590f	-0.02067235
188	0x3ba9f8d0	0.0051871315
189	0x3d3394d8	0.04384312
190	0xbd699bb8	-0.05703327
191	0xbd02f3ab	-0.03197066
192	0x3d0325e6	0.032018565
193	0x3cd32887	0.02577616
194	0x3c7f8507	0.015595681
195	0x3ca335e3	0.019923156
196	0xbc156473	-0.009118187
197	0xbda5dac2	-0.08098365
198	0xbceb4909	-0.02872135
199	0x3c998f52	0.018745098
200	0xbda7904d	-0.0818182
201	0xbcccef04	-0.025016315
202	0xbd41c88c	-0.047310397
203	0x3d4380cb	0.04773025
204	0x3d4ec6d4	0.050482586
205	0xbd394836	-0.04523488
206	0xbcb409de	-0.021977361
207	0xbd37c1b9	-0.044862483
208	0x3dc2c917	0.09511011
209	0x3c2e865b	0.01065215
210	0x3d15abca	0.036540784
211	0x3de8065a	0.113293365
212	0x3dab6438	0.083687246
213	0xbdb08866	-0.08619766
214	0x3d57d410	0.052692473
215	0x3df23e1c	0.11828253
216	0xbc1f2467	-0.009713269
217	0xbd009f90	-0.03140217
218	0x3c2cb1c7	0.010540432
219	0xbd738c91	-0.059460226
220	0xbd946718	-0.07246226
221	0xbc89ac8a	-0.016805906
222	0xbd06e379	-0.03293178
223	0xbc8df3df	-0.0173282
224	0xbbcd8bf0	-0.0062727854
225	0x3dd3543a	0.10318799
226	0xbe17bafb	-0.14817421
227	0x3cf47f60	0.029845893
228	0x3ce0fabb	0.027463308
229	0x3e13b4c6	0.14424428
230	0xbd29785c	-0.04137455
231	0x3d8d719e	0.069064364
232	0x3ca55d1b	0.020185998
233	0xbd9cfcae	-0.07665382
234	0x3d59642b	0.053074043
235	0x3c84bb61	0.01620263
236	0xbd757ea7	-0.05993524
237	0x3d4428d6	0.047890507
238	0x3d8c774e	0.06858693
239	0xbd89b4af	-0.06723916
240	0xbc7bc129	-0.015365877
241	0xbd0562db	-0.03256498
242	0xbd208a1b	-0.039194208
243	0x3d11f760	0.035636306
244	0xbe0abadd	-0.13547845
245	0xbc8433c4	-0.016137965
246	0xbc53b462	-0.012921425
247	0x3dc159e2	0.09440972
248	0xbda18955	-0.07887522
249	0xbda30691	-0.07960237
250	0x3cf34ab3	0.029698705
251	0xbdc16e28	-0.09444839
252	0xbe2830ed	-0.16424914
253	0x3dbd5e37	0.09246486
254	0xba4d8735	-0.0007840277
255	0xbc18aa2d	-0.009317917

model.layer.0.bias f4 [256]
0	0xb587562c	-1.0083363e-06
1	0x34137a3d	1.3734912e-07
2	0xb6059366	-1.9904342e-06
3	0x35338ef4	6.689072e-07
4	0x35eef068	1.7802349e-06
5	0xb4fe09e5	-4.7318386e-07
6	0x34a95230	3.1538502e-07
7	0x3249a2ca	1.1736754e-08
8	0xb6153c4e	-2.2237832e-06
9	0x369a7bfe	4.6039922e-06
10	0xb5642c6d	-8.5001267e-07
11	0x358149e0	9.632749e-07
12	0x36083fc4	2.0302696e-06
13	0xb56c9e83	-8.8147516e-07
14	0x35e4483c	1.7008347e-06
15	0x3588396c	1.0149502e-06
16	0xb55af2e0	-8.156476e-07
17	0xb5e7af53	-1.7261867e-06
18	0xb64f29b9	-3.086969e-06
19	0xb568315a	-8.649855e-07
20	0x35b12d38	1.3200688e-06
21	0x353142f0	6.6035045e-07
22	0xb60c2bb6	-2.0887069e-06
23	0xb610c86e	-2.1574338e-06
24	0x35872efa	1.0071956e-06
25	0x34dbee2f	4.096523e-07
26	0x345a0cd7	2.0307503e-07
27	0xb58b76b4	-1.0390854e-06
28	0x35b675b8	1.3594317e-06
29	0xb60f4fb8	-2.1355063e-06
30	0xb501d147	-4.8360783e-07
31	0xb5c2a98f	-1.4503474e-06
32	0xb5250dda	-6.1487447e-07
33	0xb588af53	-1.0183816e-06
34	0xb62098d4	-2.3930816e-06
35	0xb625073f	-2.4591134e-06
36	0xb46c009b	-2.1979433e-07
37	0x34ce830c	3.846584e-07
38	0x35dfe3f7	1.6681141e-06
39	0x352897f5	6.2806004e-07
40	0xb60516c6	-1.98318e-06
41	0xb50ee8e6	-5.3238034e-07
42	0xb61cf3e2	-2.338777e-06
43	0xb61b7783	-2.3166365e-06
44	0x353efb51	7.114623e-07
45	0xb3e903c6	-1.08505944e-07
46	0xb2c559d5	-2.297467e-08
47	0x3505083d	4.955835e-07
48	0xb638c115	-2.7530525e-06
49	0xb4bf112e	-3.5589022e-07
50	0x357effdd	9.4994704e-07
51	0xb5b86d99	-1.3740965e-06
52	0xb5f4af54	-1.8230444e-06
53	0x358d9a7b	1.0550278e-06
54	0x36ac82b5	5.1412158e-06
55	0xb4d93b7d	-4.0462683e-07
56	0x33df250a	1.0390984e-07
57	0xb5b42f4c	-1.342481e-06
58	0x350dceef	5.282772e-07
59	0x341f95f6	1.4862584e-07
60	0xb5c0fb75	-1.4378298e-06
61	0x360191ab	1.9307288e-06
62	0x34eb36e5	4.3812102e-07
63	0x35b9be66	1.3838987e-06
64	0xb594f832	-1.1099094e-06
65	0xb6074840	-2.0158623e-06
66	0xb48208d6	-2.4220816e-07
67	0x36250079	2.458719e-06
68	0xb50e27cc	-5.2957034e-07
69	0xb66ef6b1	-3.5608357e-06
70	0x35cd9763	1.531775e-06
71	0x3632655f	2.6583073e-06
72	0x360eb1dc	2.1263177e-06
73	0xb63c096a	-2.8019663e-06
74	0xb383934c	-6.126956e-08
75	0x35c11ca0	1.4387952e-06
76	0x3651e4ed	3.127668e-06
77	0xb53a52e2	-6.941101e-07
78	0x35d06f3e	1.5529583e-06
79	0xb5c16ba4	-1.4410948e-06
80	0x36366238	2.7177284e-06
81	0x35a598e1	1.2337952e-06
82	0x35246397	6.1239683e-07
83	0xb5ba2640	-1.3869212e-06
84	0x3491fe94	2.7193585e-07
85	0x36b6d896	5.4492366e-06
86	0x33e2cce3	1.0561214e-07
87	0xb5f04b59	-1.7903322e-06
88	0xb520343d	-5.968066e-07
89	0xb6191355	-2.281003e-06
90	0x34bb8dff	3.493478e-07
91	0xb449aa7f	-1.878161e-07
92	0xb4a2822f	-3.0269572e-07
93	0xb5306924	-6.571811e-07
94	0xb6434963	-2.909998e-06
95	0x35c5cdd7	1.4737551e-06
96	0x35a03b69	1.193822e-06
97	0xb5de3fe3	-1.6558882e-06
98	0xb6a618ea	-4.950086e-06
99	0xb5769b94	-9.186854e-07
100	0xb482d244	-2.4367375e-07
101	0x36451c52	2.9371772e-06
102	0x350d81a5	5.271525e-07
103	0x35851173	9.914351e-07
104	0xb5222601	-6.0405006e-07
105	0xb62a983b	-2.5420584e-06
106	0xb581d033	-9.671843e-07
107	0xb601bfb5	-1.9334086e-06
108	0x35745d27	9.103264e-07
109	0x36234361	2.4328112e-06
110	0xb63132a6	-2.6404537e-06
111	0xb6025f5c	-1.9427016e-06
112	0x36147ee5	2.212758e-06
113	0x36823d24	3.8814196e-06
114	0xb64b84e2	-3.0326705e-06
115	0xb510ff22	-5.401545e-07
116	0x35dcde06	1.6455895e-06
117	0xb665182c	-3.413773e-06
118	0x34c51e62	3.6716216e-07
119	0x351d9348	5.870138e-07
120	0xb51532ef	-5.5580944e-07
121	0xb543070b	-7.265341e-07
122	0x358827d4	1.0144381e-06
123	0x36398107	2.7642252e-06
124	0xb3a3458e	-7.602931e-08
125	0x3597cfca	1.1310851e-06
126	0x35a73a3c	1.2459418e-06
127	0xb59611ee	-1.1181089e-06
128	0xb5fee5a1	-1.8991306e-06
129	0xb62a3569	-2.5363063e-06
130	0xb534b4ef	-6.731852e-07
131	0xb5e3fc3b	-1.6986227e-06
132	0xb61e3d9f	-2.3579703e-06
133	0xb3aa516e	-7.931054e-08
134	0xb62ac2cf	-2.5445368e-06
135	0xb4d700ca	-4.0047445e-07
136	0xb6049282	-1.9754812e-06
137	0xb668d36c	-3.4693758e-06
138	0xb5873e89	-1.0076484e-06
139	0x34596c53	2.0249108e-07
140	0x34de8f1b	4.1454845e-07
141	0x3660ba03	3.3486874e-06
142	0xb620760a	-2.3910566e-06
143	0xb5cf5088	-1.544614e-06
144	0xb4cca3b4	-3.811707e-07
145	0x33d56a26	9.937894e-08
146	0xb401a746	-1.2074915e-07
147	0x34914dbc	2.7064914e-07
148	0xb3796d37	-5.807416e-08
149	0xb6061e90	-1.9985346e-06
150	0x3514f237	5.5486765e-07
151	0xb4d0bbef	-3.887976e-07
152	0xb4b644a0	-3.3950073e-07
153	0x359b50df	1.1571937e-06
154	0xb54cc483	-7.6281884e-07
155	0x35a99838	1.2635783e-06
156	0xb6001643	-1.9086444e-06
157	0x345822ac	2.0129181e-07
158	0x33fec9cf	1.18645055e-07
159	0xb5621805	-8.4226514e-07
160	0x363f5bc4	2.8514633e-06
161	0xb3d94729	-1.0117794e-07
162	0xb609d813	-2.0540363e-06
163	0xb594b1ee	-1.1078644e-06
164	0xb62d2fc5	-2.5806814e-06
165	0x35fd5aec	1.8876431e-06
166	0x3595c6ff	1.1159281e-06
167	0xb4f33526	-4.5300948e-07
168	0xb5d85cd1	-1.6120267e-06
169	0xb5eb507a	-1.7532286e-06
170	0x35818e2e	9.652629e-07
171	0xb662cde5	-3.379647e-06
172	0xb5db96cd	-1.636066e-06
173	0xb6070309	-2.0118334e-06
174	0xb48606d8	-2.4964424e-07
175	0xb5cbd7a8	-1.5187443e-06
176	0xb6085ef5	-2.0320851e-06
177	0xb5999eec	-1.1445641e-06
178	0xb6506e3a	-3.1058576e-06
179	0x355de358	8.2659744e-07
180	0x35543c63	7.906403e-07
181	0xb455c1a5	-1.9907618e-07
182	0xb5556597	-7.9496516e-07
183	0xb6632b50	-3.3850847e-06
184	0x3571bf15	9.0057557e-07
185	0xb5f3646f	-1.8134141e-06
186	0xb3ef0e28	-1.113188e-07
187	0xb4db83c6	-4.0887807e-07
188	0x34ddad95	4.1290755e-07
189	0x34f4fcd5	4.56325e-07
190	0x33d99ae5	1.0133025e-07
191	0x35ef7431	1.7840704e-06
192	0xb4cf1c9c	-3.857757e-07
193	0xb64d4bc7	-3.0591489e-06
194	0xb5f9379b	-1.8568129e-06
195	0xb611d5f7	-2.1731228e-06
196	0x355bc906	8.1876385e-07
197	0x362a573b	2.5382749e-06
198	0xb57193de	-8.999467e-07
199	0x363d4855	2.8205297e-06
200	0x3325a00d	3.856262e-08
201	0xb5649f7e	-8.516871e-07
202	0xb60b6146	-2.0769235e-06
203	0xb595cfa0	-1.1161792e-06
204	0xb5fe8258	-1.896241e-06
205	0x33d939a6	1.0115336e-07
206	0x353d61d3	7.055034e-07
207	0x338b931e	6.499452e-08
208	0x34dadf40	4.07681e-07
209	0x3592bd71	1.0932982e-06
210	0x3466527f	2.1450431e-07
211	0x3558275f	8.0523563e-07
212	0x3580a399	9.584356e-07
213	0x343b58f3	1.7448092e-07
214	0xb4f4fcef	-4.5632575e-07
215	0x35b3a08b	1.3383263e-06
216	0x362b110d	2.549091e-06
217	0xb540eec5	-7.187303e-07
218	0xb5fd7c3c	-1.8886126e-06
219	0xb22f5b7a	-1.020714e-08
220	0xb4baa494	-3.4764946e-07
221	0x359bde77	1.1613146e-06
222	0xb65a7413	-3.2552095e-06
223	0xb56b4fb8	-8.766033e-07
224	0xb454cc3e	-1.9818341e-07
225	0xb584dcfe	-9.899084e-07
226	0x346b9000	2.1938467e-07
227	0xb4941b4e	-2.7587015e-07
228	0xb4097ad8	-1.280381e-07
229	0x357621cc	9.169132e-07
230	0x356a54ba	8.7295086e-07
231	0xb5d3ae0a	-1.5771377e-06
232	0x366c70d2	3.523241e-06
233	0x361596ce	2.229051e-06
234	0x3622b858	2.4247183e-06
235	0x353d483a	7.051309e-07
236	0xb6b1500e	-5.2843307e-06
237	0xb5da1c4a	-1.6250499e-06
238	0x35e3ba63	1.6967064e-06
239	0xb53627f0	-6.78584e-07
240	0xb4b402a2	-3.3529528e-07
241	0x36510523	3.1146417e-06
242	0xb5f052da	-1.7905506e-06
243	0xb6a739c7	-4.983714e-06
244	0xb6533032	-3.1469503e-06
245	0xb67d8677	-3.7778207e-06
246	0xb5b6810a	-1.3597612e-06
247	0xb4d4bbb3	-3.9624646e-07
248	0xb49885c5	-2.8409536e-07
249	0xb666d72d	-3.439792e-06
250	0xb623710c	-2.4354695e-06
251	0x34b495d4	3.3636627e-07
252	0x36214068	2.402836e-06
253	0xb4a18e0b	-3.0091937e-07
254	0xb6332c7f	-2.6698979e-06
255	0x35847f0b	9.871741e-07

model.layer.2.weight f4 [256, 256]
0	0x3d0d6b1c	0.034525976
1	0x3c9f03a6	0.01941092
2	0x3ce64bb6	0.028112274
3	0xb7be64d9	-2.2696726e-05
4	0xbc53656d	-0.0129026
5	0xbca118d6	-0.019665163
6	0x3d3a8279	0.045534585
7	0x3d8df901	0.06932259
8	0xbc97dc7b	-0.01853775
9	0xbd641c98	-0.05569133
10	0xbc2d9227	-0.010593927
11	0x3c33ae55	0.010966857
12	0xbd71e4c3	-0.059056055
13	0xbcc5cd41	-0.024145724
14	0x3cd8a223	0.0264445
15	0x3bc1fcf1	0.0059200455
16	0xbc80af07	-0.01570846
17	0xbd5f1ad2	-0.054468937
18	0xbd8e516d	-0.069491245
19	0x3b69c5a8	0.003567079
20	0x3c90dac9	0.01768245
21	0xbd2dce9b	-0.042433362
22	0x3bf6617f	0.0075189467
23	0xbd082509	-0.033238444
24	0x3b2482b2	0.0025102315
25	0xba9adef7	-0.0011815716
26	0x3c81f1e1	0.015862407
27	0xbd74cff0	-0.059768617
28	0x3d3dfe03	0.046384823
29	0xbd563a7b	-0.052301865
30	0x3b9fbcf1	0.0048748185
31	0x3b899c42	0.0041995356
32	0x3a843397	0.0010086176
33	0x3c99a9b5	0.01875768
34	0x3cd8125a	0.026375938
35	0xbc7078b4	-0.014677215
36	0x3d8255de	0.06364034
37	0xbc802ba3	-0.015645808
38	0xbcdf5e01	-0.027266504
39	0x3d2ea849	0.042640958
40	0xbd39b459	-0.04533801
41	0x3b939501	0.0045038466
42	0x3d0b1d87	0.033963706
43	0xbbc3e0d5	-0.00597773
44	0x3ba99ec3	0.0051763966
45	0x3c77784c	0.015104365
46	0xbd0fc6d0	-0.03510171
47	0xbb77f70d	-0.0037836463
48	0x3a1ef4ab	0.000606368
49	0xbd34177a	-0.0439677
50	0xbdabbe0d	-0.08385859
51	0x3c91e691	0.017810138
52	0xbbca2951	-0.006169476
53	0xbc5afb93	-0.013365644
54	0xbc325ed6	-0.010886868
55	0xbaf88415	-0.0018960262
56	0xbd4271fc	-0.047471985
57	0x3c93b9c0	0.018032908
58	0x3cc0bbc0	0.023527026
59	0xbcbe4d82	-0.023230318
60	0x3c893f6c	0.016753875
61	0x3d59941f	0.053119775
62	0xbb7d1265	-0.00386157
63	0x3c9e08ea	0.01929136
64	0x3cf41429	0.02979477
65	0xbd8ac47c	-0.06775758
66	0xbc0e0ca3	-0.008670005
67	0x3d21917e	0.039445393
68	0xbcc6f8be	-0.024288531
69	0xbc01fd6d	-0.007933957
70	0x3b83deee	0.004024378
71	0x3c46282c	0.012094539
72	0x3d08557d	0.033284653
73	0x3c581fdb	0.013191189
74	0xbacc32fe	-0.0015579162
75	0xbd0c8b90	-0.034312785
76	0xbd0b39fd	-0.03399085
77	0xbd11fdb7	-0.035642352
78	0xbca227e6	-0.019794416
79	0x3b60784d	0.0034251392
80	0x3c11b43c	0.008893069
81	0xbd81b7ab	-0.0633386
82	0x3c866741	0.016406657
83	0xbbfa8480	-0.0076451898
84	0x3cbfe1b4	0.023423053
85	0x3c851353	0.016244566
86	0x3d0035ee	0.03130143
87	0xbd86ac63	-0.06575849
88	0x3d2276ce	0.039664082
89	0x3b56e12b	0.003278802
90	0xbc8ff08b	-0.017570755
91	0x3b9d4ad4	0.00480018
92	0x3d18a4a0	0.037266374
93	0xbca250da	-0.019813944
94	0x3d090cd8	0.033459514
95	0x3c713d89	0.014724144
96	0x3c805550	0.01566568
97	0xba89b79b	-0.0010506989
98	0x3ceef8ec	0.02917143
99	0x3d1e535a	0.03865371
100	0xbd0ad774	-0.03389688
101	0x3cb68317	0.022279305
102	0xbca6106e	-0.020271506
103	0x3d311b31	0.043238822
104	0xbc94e6a2	-0.01817638
105	0x3d1de098	0.038544267
106	0x3d1c1f8c	0.038116023
107	0xbd289712	-0.041159697
108	0x3d5aa7f9	0.053382847
109	0xbd0c0f2a	-0.03419415
110	0x3b19cdf7	0.0023468712
111	0xbd836072	-0.0641488
112	0x3c25f1e6	0.010128474
113	0xbd1a6592	-0.03769452
114	0x3d1f2192	0.038850375
115	0xbcb1e002	-0.02171326
116	0xbd66b16c	-0.056321546
117	0x3c9c3983	0.019070392
118	0x3d3bafd3	0.045821976
119	0xbd3597b1	-0.044334117
120	0xbaccc5c0	-0.0015622899
121	0xbc1019e1	-0.0087952325
122	0xbc5f10cd	-0.013614845
123	0xbd375ed1	-0.04476816
124	0xba3e5787	-0.00072609674
125	0xbbac98a5	-0.00526722
126	0x3d8cfb19	0.068838306
127	0xbb887279	-0.004164037
128	0xbc85bce0	-0.016325414
129	0xbcf8de55	-0.030379454
130	0xbc8edb30	-0.017438501
131	0x3c95a986	0.018269312
132	0xbc91f1db	-0.017815521
133	0x3c2215fe	0.009892939
134	0x3d6c29af	0.05765694
135	0xbd054693	-0.032538008
136	0xbd4ce963	-0.050027262
137	0xbce2fb30	-0.027707666
138	0x3c7be9bd	0.015375552
139	0xbc1d4c73	-0.009600746
140	0x3cb9c2c7	0.022675885
141	0x3d384f7b	0.044997673
142	0x3c19a61f	0.009377985
143	0x3cec3e17	0.0288382
144	0x3c340cb0	0.010989353
145	0xbcd426d0	-0.025897413
146	0x3c568291	0.013092653
147	0xbbd0a343	-0.0063671186
148	0xbca0dc3c	-0.019636266
149	0xbc73e960	-0.014887184
150	0xbc86ea78	-0.016469225
151	0xbbe7f7bb	-0.0070790923
152	0x3bd9dcf1	0.0066486527
153	0x3bd8a4c0	0.0066114366
154	0xbb792f90	-0.0038022734
155	0x3bccf12a	0.006254335
156	0x3c83fb6c	0.016111098
157	0xbd0dbc0d	-0.034603167
158	0x3c5737bb	0.013135846
159	0xbd32e642	-0.043676622
160	0xbd26decd	-0.040739823
161	0x3c18cedd	0.009326664
162	0xbbcdbcfe	-0.006278633
163	0x3d134a67	0.035959627
164	0xbca619a3	-0.020275896
165	0x3baf749e	0.005354478
166	0x3c67991c	0.014135625
167	0x3c696fd0	0.01424785
168	0xbc24718a	-0.010036835
169	0xbd383605	-0.044973392
170	0xbbf74807	-0.007546428
171	0xbd34285a	-0.043983795
172	0xbd5aa2ac	-0.053377792
173	0x3cd0eddd	0.025504047
174	0xbcdde4fd	-0.02708673
175	0xbcd2938d	-0.025705123
176	0x3c36b3c8	0.011151262
177	0xbd3deb6c	-0.046367094
178	0x3c36b846	0.011152333
179	0xbb1042ab	-0.0022012393
180	0x3cc21643	0.023692256
181	0xbce36630	-0.027758688
182	0x3d2661f6	0.040620767
183	0xbc4d51ff	-0.012531756
184	0xbd0c2347	-0.03421333
185	0x3c26bff5	0.010177602
186	0xbbdd7d9c	-0.0067593586
187	0xbc7188d2	-0.014742093
188	0xbd171d5a	-0.036893226
189	0xbca2e524	-0.019884653
190	0x3bfc4e69	0.007699777
191	0x3d2b8d0e	0.041882567
192	0xb92f4720	-0.00016715797
193	0xbc43d5d3	-0.011952835
194	0xbdcdef95	-0.10055462
195	0xbd4e74ba	-0.050404288
196	0x3d31cf33	0.04341049
197	0x3dacfd48	0.08446747
198	0xbc17ec51	-0.009272651
199	0xbd04e9ac	-0.03244941
200	0x3c0efba4	0.008726988
201	0xbd27fc12	-0.041011877
202	0xbbcbcd92	-0.0062195743
203	0xbc82b2ef	-0.015954463
204	0xbb29a396	-0.0025884858
205	0x3d13156d	0.035909105
206	0x3c01e853	0.007928926
207	0x3ccf3743	0.025294906
208	0xbbe07da9	-0.0068509174
209	0x3ca67875	0.02032111
210	0xbd075357	-0.033038463
211	0xbcf9f48c	-0.030512117
212	0x3c6e2281	0.014534594
213	0x3ce35026	0.027748179
214	0xbd4894a3	-0.048969876
215	0x3d2dd11d	0.042435754
216	0x3dcb414a	0.09924562
217	0xbc873426	-0.016504359
218	0xbcf294e0	-0.029612005
219	0x3d4da52f	0.05020636
220	0xbd1ca38c	-0.038241908
221	0x3ce1d3ac	0.027566753
222	0xbcf0e23b	-0.02940475
223	0x3b35839f	0.002769686
224	0xbc9f3311	-0.01943353
225	0x3c3a86ee	0.011384709
226	0x3ba5cd8a	0.0050599026
227	0xbba85b93	-0.0051378696
228	0x3c8cd586	0.01719166
229	0xbb9fba27	-0.004874486
230	0x3a0800f4	0.00051881303
231	0xbd4da730	-0.05020827
232	0x3d7891a6	0.060685776
233	0xbc25a0dc	-0.010109153
234	0xbc052001	-0.008125306
235	0xbcc9a3d9	-0.024614261
236	0xbbe283c4	-0.0069126803
237	0x3b02dc36	0.0019967682
238	0x3dbfd8ea	0.09367545
239	0xbb85f98c	-0.004088586
240	0xbcbe0076	-0.02319358
241	0x3c6182ed	0.013764125
242	0xbb579cdb	-0.003289989
243	0xbd4c89ef	-0.04993623
244	0xbb4e72c1	-0.0031501504
245	0x3d5d0736	0.053961955
246	0xbcbc19ed	-0.022961581
247	0xbca59cc1	-0.020216348
248	0x3cffc064	0.031219669
249	0xbbe42b46	-0.0069631664
250	0x3c73fc94	0.014891762
251	0x3cc8e912	0.0245252
252	0xbd187071	-0.037216607
253	0xbcdf4365	-0.027253816
254	0xbc8a8718	-0.01691012
255	0xbd2dadaf	-0.042401966
