results/qvpo_HalfCheetah-v3/actor_25_04_19_03_39_57_0.pth (torch, 665521 bytes, 24 tensors)

betas f4 [20]
000000 e7 f3 02 3c 51 74 a4 3c 9e 1c 04 3d 56 03 37 3d
       0.007992721 0.020074995 0.032253854 0.044680916
000010 52 9a 6b 3d 08 52 91 3d cf 82 ae 3d 70 eb cd 3d
       0.05752022 0.07095724 0.085210435 0.10054672
000020 e1 3c f0 3d 27 2f 0b 3e d8 c3 20 3e 3c b6 39 3e
       0.11730362 0.13592206 0.15699708 0.18135923
000030 b1 41 57 3e ad 42 7b 3e d6 56 94 3e 0b 3f b2 3e
       0.21021153 0.24537154 0.289725 0.34813723
000040 c4 de db 3e e4 0f 0d 3f 21 9c 3f 3f 77 be 7f 3f
       0.42943394 0.5510237 0.7484761 0.999

alphas_cumprod f4 [20]
000000 30 f4 7d 3f 11 db 78 3f 44 d4 70 3f 97 11 66 3f
       0.99200726 0.9720927 0.9407389 0.8987059
000010 ca d5 58 3f f7 72 49 3f 95 48 38 3f 21 c1 25 3f
       0.84701216 0.7869105 0.7198575 0.64747816
000020 92 4f 12 3f 11 d9 fc 3e ca 26 d5 3e 99 7e ae 3e
       0.57152665 0.4938436 0.41631156 0.3408096
000030 53 d0 89 3e 13 ff 4f 3e 11 bc 13 3e fc 9a c0 3d
       0.2691675 0.20312147 0.1442721 0.09404561
000040 c8 c9 5b 3d 01 5c c5 3c fb 8f c6 3b 47 53 cb 36
       0.05365923 0.024091722 0.0060596443 6.059566e-06

alphas_cumprod_prev f4 [20]
000000 00 00 80 3f 30 f4 7d 3f 11 db 78 3f 44 d4 70 3f
       1.0 0.99200726 0.9720927 0.9407389
000010 97 11 66 3f ca d5 58 3f f7 72 49 3f 95 48 38 3f
       0.8987059 0.84701216 0.7869105 0.7198575
000020 21 c1 25 3f 92 4f 12 3f 11 d9 fc 3e ca 26 d5 3e
       0.64747816 0.57152665 0.4938436 0.41631156
000030 99 7e ae 3e 53 d0 89 3e 13 ff 4f 3e 11 bc 13 3e
       0.3408096 0.2691675 0.20312147 0.1442721
000040 fc 9a c0 3d c8 c9 5b 3d 01 5c c5 3c fb 8f c6 3b
       0.09404561 0.05365923 0.024091722 0.0060596443

sqrt_alphas_cumprod f4 [20]
000000 92 f9 7e 3f 10 67 7c 3f 7b 4c 78 3f 32 b0 72 3f
       0.99599564 0.9859476 0.969917 0.948001
000010 ec 9a 6b 3f a8 17 63 3f a3 33 59 3f 37 fe 4d 3f
       0.9203327 0.8870797 0.84844416 0.80466026
000020 d0 88 41 3f c6 e6 33 3f 47 2d 25 3f 33 73 15 3f
       0.75599384 0.7027401 0.6452221 0.58378905
000030 f7 d0 04 3f d6 c0 e6 3e 4c 79 c2 3e a9 03 9d 3e
       0.51881355 0.45068997 0.37983167 0.30666855
000040 40 34 6d 3e b4 f0 1e 3e 87 6c 9f 3d 1b 53 21 3b
       0.23164463 0.15521508 0.07784372 0.0024616185

sqrt_one_minus_alphas_cumprod f4 [20]
000000 7a 18 b7 3d 6b 10 2b 3e 49 47 79 3e f0 f3 a2 3e
       0.089402154 0.16705482 0.243436 0.31826735
000010 0f 43 c8 3e f6 58 ec 3e 37 7f 07 3f 0c ff 17 3f
       0.39113662 0.46161622 0.5292849 0.59373546
000020 79 92 27 3f 60 21 36 3f 2e 95 43 3f 08 d9 4f 3f
       0.65457875 0.71144676 0.76399505 0.8119054
000030 e7 d9 5a 3f b6 86 64 3f 72 d0 6c 3f 3d aa 73 3f
       0.8548874 0.8926805 0.9250556 0.9518164
000040 74 09 79 3f c0 e5 7c 3f 23 39 7f 3f cd ff 7f 3f
       0.9728005 0.9878807 0.9969656 0.99999696

log_one_minus_alphas_cumprod f4 [20]
000000 fb 88 9a c0 26 0c 65 c0 f3 d9 34 c0 e4 8a 12 c0
       -4.8292212 -3.5788665 -2.8258026 -2.2897272
000010 8a 4e f0 bf bc e4 c5 bf de df a2 bf 51 75 85 bf
       -1.8773968 -1.5460429 -1.2724569 -1.0426427
000020 83 f7 58 bf 15 50 2e bf cb d3 09 bf 51 5f d5 be
       -0.8475267 -0.68090945 -0.53838795 -0.41674283
000030 62 8c a0 be 97 80 68 be c6 8a 1f be 03 46 ca bd
       -0.31357104 -0.22705303 -0.15580282 -0.09876635
000040 9c e7 61 bd 8f c6 c7 bc a3 2a c7 bb 29 00 cc b6
       -0.05515252 -0.024386672 -0.0060780807 -6.0796924e-06

sqrt_recip_alphas_cumprod f4 [20]
000000 be 83 80 3f 08 d3 81 3f 56 f8 83 3f 5d 05 87 3f
       1.0040205 1.0142527 1.0310161 1.0548512
000010 84 14 8b 3f 2e 4b 90 3f 48 dd 96 3f c7 12 9f 3f
       1.0865636 1.1272943 1.178628 1.2427605
000020 45 50 a9 3f e8 24 b6 3f 9d 61 c6 3f de 41 db 3f
       1.3227621 1.4230013 1.5498539 1.7129476
000030 7d b7 f6 3f 26 01 0e 40 e5 7e 28 40 c2 b1 50 40
       1.9274746 2.21882 2.632745 3.2608495
000040 84 24 8a 40 60 2a ce 40 3f 8a 4d 41 4f 1e cb 43
       4.3169575 6.4426727 12.8462515 406.2368

sqrt_recipm1_alphas_cumprod f4 [20]
000000 d9 d4 b7 3d 8e 80 2d 3e 4f 81 80 3e 1b e4 ab 3e
       0.08976144 0.16943571 0.25098655 0.33572468
000010 ea 98 d9 3e 74 37 05 3f 52 b3 1f 3f 1d e5 3c 3f
       0.42499477 0.5203774 0.62382996 0.737871
000020 7a a8 5d 3f fb 95 81 3f f5 8f 97 3f 25 04 b2 3f
       0.865852 1.0123895 1.1840807 1.3907515
000030 41 ea d2 3f 7f 87 fd 3f 2e de 1b 40 82 a3 46 40
       1.6477739 1.9806975 2.4354358 3.1037297
000040 9e 62 86 40 bd aa cb 40 95 ea 4c 41 26 1e cb 43
       4.199538 6.364592 12.807271 406.23553

posterior_variance f4 [20]
000000 00 00 00 00 ab 66 bc 3b 69 db 78 3c cc 23 d6 3c
       0.0 0.0057495437 0.01518903 0.026140116
000010 73 fe 1b 3d 79 aa 50 3d c1 bd 84 3d f8 a3 a3 3d
       0.03808446 0.050943825 0.06481505 0.07990259
000020 2f a7 c5 3d 38 a5 eb 3d 11 69 0b 3e de 70 24 3e
       0.09651028 0.11506122 0.13614298 0.1605868
000030 cb 27 42 3e 8c 6f 66 3e 43 23 8a 3e 3e 5d a8 3e
       0.18960492 0.2250349 0.26980028 0.32883638
000040 a6 7c d2 3e cc c9 08 3f 3a 22 3c 3f 22 32 7e 3f
       0.41110724 0.5343292 0.73489726 0.99295247

posterior_log_variance_clipped f4 [20]
000000 f1 34 38 c2 89 13 a5 c0 65 fd 85 c0 f3 3b 69 c0
       -46.0517 -5.1586347 -4.187182 -3.644284
000010 14 26 51 c0 b0 87 3e c0 30 1e 2f c0 80 b9 21 c0
       -3.267949 -2.9770317 -2.7362175 -2.526947
000020 86 a3 15 c0 f9 62 0a c0 04 3d ff bf 12 1a ea bf
       -2.3381057 -2.1622908 -1.9940495 -1.8289206
000030 0c d7 d4 bf 77 e9 be bf 7b b0 a7 bf 68 5c 8e bf
       -1.6628127 -1.4914998 -1.3100733 -1.112195
000040 07 8f 63 bf 3e 72 20 bf 66 b5 9d be 4e c0 e7 bb
       -0.8889012 -0.6267432 -0.3080246 -0.007072485

posterior_mean_coef1 f4 [20]
000000 cf ff 7f 3f 3d 6a 37 3f d9 5f 09 3f b2 0c db 3e
       0.9999971 0.7164648 0.53661877 0.42783123
000010 cc 7d b6 3e d9 e8 9c 3e 09 26 8a 3e 5b cd 77 3e
       0.3564285 0.306464 0.26982144 0.2419943
000020 6a 94 61 3e 97 e2 4f 3e 2c 8e 41 3e cf c6 35 3e
       0.22029272 0.20301281 0.1890189 0.1775162
000030 6d f2 2b 3e bf 95 23 3e c0 40 1c 3e ab 76 15 3e
       0.16791697 0.15975092 0.15259075 0.1459605
000040 45 80 0e 3e 85 ee 05 3e 61 60 ef 3d f6 43 9f 3d
       0.13916118 0.13079269 0.11688305 0.077766344

posterior_mean_coef2 f4 [20]
000000 00 00 00 00 bc 28 91 3e 06 31 ed 3e d3 62 12 3f
       0.0 0.2835139 0.46326464 0.57182044
000010 52 8d 24 3f 99 27 31 3f 9d 3e 3a 3f a3 f0 40 3f
       0.6427814 0.69201046 0.7275179 0.7536718
000020 f9 e1 45 3f cd 71 49 3f 4a d3 4b 3f 8a 18 4d 3f
       0.7729793 0.7868927 0.79619277 0.8011557
000030 8a 34 4d 3f 3b f4 4b 3f ec e9 48 3f fb 3a 43 3f
       0.80158293 0.7966954 0.78481936 0.7626187
000040 8a 1e 39 3f 68 56 26 3f dd 1e fc 3e f1 bd 00 3d
       0.72312224 0.64975595 0.49242297 0.031431142

model.time_mlp.1.weight f4 [256, 32]
000000 96 32 e7 bd f3 49 de bc 66 71 f5 bd e0 21 11 3d
       -0.112889454 -0.027134871 -0.1198452 0.035432696
000010 70 c0 93 3d 24 19 89 bd ed d2 ce bb 19 10 09 bd
       0.07214439 -0.06694248 -0.0063117654 -0.033462618
000020 56 5c 94 bd cb 58 04 3e d2 ba 98 bd 90 4e d2 bb
       -0.07244174 0.12924497 -0.07457508 -0.006418057
000030 00 dd 25 3e 78 d4 7a 3a d7 16 07 be 06 e3 cc bc
       0.16197586 0.00095684035 -0.13192306 -0.025010597
000040 c9 5f d4 3b df 81 f2 bb 0e ff 13 be f9 d1 0d 3e
       0.006481145 -0.0074007357 -0.14452764 0.1384963
000050 d9 69 01 be c2 f1 91 bc 5f 86 5e 3e c8 9c 89 3d
       -0.12638034 -0.017815474 0.21730946 0.06719357
000060 f9 df cf 3d 2e a4 92 3d 92 65 79 3a 73 99 08 be
       0.10150141 0.07160221 0.00095137313 -0.13339786
000070 86 eb cd bd bf 1e a8 3c ad f7 52 3c d0 9a 38 bd
       -0.10054688 0.020522473 0.012876433 -0.045069516
000080 6f 50 88 3d a4 a7 e1 bc 2a 15 c3 3b ec 2b 24 3d
       0.066559665 -0.027545758 0.0059534507 0.04008095
000090 b3 e3 e4 3a f7 46 32 3c c2 8c 94 bc 86 7f da 3d
       0.0017462879 0.010881177 -0.018133525 0.106688544
0000a0 d8 89 c0 bd e8 bf e7 3d 87 20 2b 3e 27 98 4a 3e
       -0.094012916 0.113159 0.16711627 0.19784604
0000b0 10 19 11 3d 8f ed b4 3d 67 f6 44 3e 1d c2 94 3c
       0.035424292 0.08834373 0.1923462 0.018158967
0000c0 32 08 8f bd 41 5a 0c 3d 9f 2f bc bd be 62 8b bd
       -0.06983985 0.03426576 -0.091887705 -0.06805943
0000d0 e1 29 d8 bd c7 2c 88 3c 2f 57 d7 bc f5 f5 63 3d
       -0.10554863 0.016622914 -0.02628669 0.055654485
0000e0 73 9b 22 3e 97 dc 5b be d1 9f eb bb da 52 4d 39
       0.15879612 -0.21470867 -0.0071906825 0.00019581188
0000f0 40 0d 1f 3e c7 69 92 bd 17 ae 30 bd 1a cb 29 bc
       0.15532398 -0.07149082 -0.043134775 -0.010363365
000100 a4 d1 08 be ed f3 f2 bd 8e 84 8f bc ea 33 99 bd
       -0.13361222 -0.118629314 -0.017519262 -0.07480605
000110 55 55 47 be 08 0e 8f be 5e b3 00 be 0d a9 05 be
       -0.19466145 -0.27940392 -0.12568423 -0.13052769
000120 ee 22 0c be 07 f3 f1 bd 14 c1 65 bd 22 8e 9f 3b
       -0.136852 -0.11813932 -0.056092337 0.0048692385
000130 ea 00 c3 3d c2 0c 20 bc 8f 01 02 3e 18 12 d7 bd
       0.09521659 -0.009768667 0.12695907 -0.10501498
000140 cf 47 13 3e a7 5c 5a 3e 76 9b 40 3e ff 44 3f 3e
       0.14382862 0.21324407 0.18809304 0.18678664
000150 b8 d9 4c bb 3d b9 48 3d d7 1f 1c 3c 70 8e d3 3c
       -0.00312577 0.049004782 0.009529076 0.025824755
000160 88 06 ee 3c 96 1c 1a bd 3d aa 9d 3d 20 ba bb bd
       0.029055849 -0.037624918 0.07698486 -0.0916636
000170 cd 60 92 bd 28 f7 10 be bf c0 86 3d 41 4b ed bc
       -0.071473695 -0.14156783 0.06579732 -0.028966548
000180 93 91 a4 3b 1f 89 ac bd 9a ac 77 bb c0 64 a9 3d
       0.0050222366 -0.08424591 -0.0037792088 0.0827117
000190 9b 7f 29 be ec 17 c2 bd 9d 38 36 be 93 1d 00 be
       -0.16552584 -0.09477219 -0.17795034 -0.12511282
0001a0 6a 66 2a be 89 2c a2 3d 5d 8b 19 3c e2 26 a1 3d
       -0.1664063 0.07918651 0.009371606 0.078687444
0001b0 c3 63 9e 3d 63 bc 39 3d 4f 2a 06 3e 72 63 dd bd
       0.07733872 0.045345675 0.13102077 -0.10809983
0001c0 4d de 13 3e 71 48 09 3e 50 21 ae 3d 9d 92 94 3d
       0.1444027 0.1340654 0.085024476 0.07254527
0001d0 65 d1 1a 3e c1 4b ca 3c c0 54 31 3d 7d 91 0f bb
       0.1511894 0.024694325 0.043293715 -0.0021906786
0001e0 dd 0c a5 bc 03 e0 ec bb 0f 98 3a bd fd af 42 bd
       -0.020147735 -0.0072288527 -0.04555517 -0.047531117
0001f0 a5 44 52 3c a4 ac 11 bc f2 42 62 be 52 7c 8f 3d
       0.012833749 -0.008891258 -0.2209585 0.07006134
000200 b3 62 80 bd 71 53 b0 bd 0b 90 cf bc 87 ef bf 3c
       -0.062688254 -0.08609665 -0.02533724 0.023429645
000210 f2 44 10 3d cc f5 10 be d7 f4 83 be 08 74 e4 bd
       0.035222 -0.14156264 -0.25772735 -0.11154944
000220 0f 2b 1f bd bd 70 8b bd ca 5d f3 bd 3b 10 3b be
       -0.038859423 -0.068086125 -0.11883123 -0.1826791
000230 26 16 b1 3c 0c 4e 0c be 8e c8 a6 bc 10 ab 4c 3d
       0.021617007 -0.13701648 -0.020359304 0.049967825
000240 45 95 38 3d 99 e7 ce 3d e3 42 15 3e c4 1f 6d 3e
       0.04506423 0.101027675 0.14576297 0.23156649
000250 65 77 cf 3d 8f 64 89 bc 7d f9 a3 3c b3 3e 83 bc
       0.101301946 -0.016771583 0.020016426 -0.016021108
000260 dc c6 08 3c 2b d6 a9 bd b0 f9 cd bd 2c dc 45 3c
       0.008348193 -0.082928024 -0.1005739 0.012076419
000270 68 89 5d 3d d0 eb 11 3e b6 cf da ba 9b db fb 3d
       0.05408612 0.14250112 -0.0016693983 0.12297746
000280 51 ad 8b ba 06 1c 03 bd de e6 a3 be 6c 87 8c 3d
       -0.0010656511 -0.032009147 -0.32012075 0.06861767
000290 83 78 87 3c d6 7b bf 3d 0b ea b0 3d c6 04 03 bd
       0.016536957 0.09349792 0.0863839 -0.031986974
0002a0 7b d2 cf 3d 47 33 45 3c 0f b0 ce 3d 55 46 8e 3c
       0.10147568 0.012036151 0.10092174 0.017367521
0002b0 d5 b5 00 bc 36 5c 09 3e 34 81 3e 3d 53 84 f1 3d
       -0.007855852 0.13414082 0.046509936 0.11792817
0002c0 50 8d 93 bd ae 8a 7c bd 67 2b 5d 3e 3a b7 11 be
       -0.072046876 -0.061655693 0.21598588 -0.14230052
0002d0 44 51 1c bc 6c e7 17 be 6d c7 56 3d 6f 56 af 3d
       -0.00954086 -0.14834374 0.05243628 0.08561408
0002e0 56 ce cc 3d e5 9c a0 3d b2 e4 23 be ac 11 10 bc
       0.10000293 0.07842425 -0.16005209 -0.008793276
0002f0 89 60 e5 3d b6 1a fa ba ba de ce 3d d4 f5 be 3d
       0.11200053 -0.0019081447 0.101010755 0.09324232
000300 05 43 03 3e df 33 6b bd 4a e2 57 3e e2 cf 2f 3d
       0.12818535 -0.057422515 0.21082416 0.042922862
000310 fe 1f 23 bd 60 73 9c 3d 0d fe 27 3d df 51 06 3e
       -0.039825432 0.076391935 0.041013766 0.13117169
000320 9c 22 a0 bc 64 26 da bc 7a 4f b0 bb 15 11 8d bc
       -0.019547753 -0.026629634 -0.005380568 -0.01722006
000330 1e 9c bf 3d 57 e5 b8 bb b8 83 bb 3d 48 ea 9b 3d
       0.09355949 -0.005642574 0.09155983 0.07613045
000340 06 cd 1b 3d 2a db 98 3c 62 22 5e 3d c0 26 27 be
       0.038037322 0.018659193 0.05423201 -0.16323376
000350 94 7f 17 bd 4b e9 a9 3c 3a 0b f3 3d 52 dd 83 3d
       -0.036986902 0.020741126 0.11867376 0.06438698
000360 52 28 29 bd 92 3c 16 be 9b 53 b3 bd 9e e0 9a 3c
       -0.041298218 -0.14671543 -0.08756181 0.018905934
000370 1e af 11 3d 16 1e a3 3d 66 a2 8b 3c 95 9c 90 bd
       0.035567395 0.07964723 0.017045211 -0.07061116
000380 4d 87 9e bd 66 99 81 bd 17 25 81 bd 70 97 1c bd
       -0.0774065 -0.063280866 -0.063059025 -0.03823036
000390 82 89 07 3e 70 0f c1 3d 82 30 9f 3c 6f 46 2d 3e
       0.13236049 0.094267726 0.01943231 0.169214
0003a0 35 ad da 3d 97 d0 a0 bc c9 ed 77 3c f2 cb ba 3d
       0.10677568 -0.019630713 0.015132376 0.09120931
0003b0 52 fb 95 bd 26 d9 f5 3d c3 98 9c bd a8 dd 00 bd
       -0.07323326 0.120043084 -0.076463245 -0.031461388
0003c0 08 9d d0 bd a6 ed d7 3d dd 2e a4 3c b7 fc 13 bd
       -0.10186201 0.10543375 0.020041877 -0.03612968
0003d0 3f cc 4b bb b8 5a 6c 3d 08 29 d4 bd 1c ef 99 3c
       -0.0031097082 0.057703704 -0.103593886 0.018790774
0003e0 ef be 97 3d a5 4f b2 bd e2 f3 2d bd aa ac f5 bd
       0.074094646 -0.08706597 -0.042468913 -0.11995824
0003f0 22 e3 02 3e d3 d2 89 3d b1 d5 cf bc 06 a8 33 3e
       0.12781957 0.06729665 -0.02537045 0.17544565

model.time_mlp.1.bias f4 [256]
000000 19 4d 0a 3b 6c e3 ae 3a 93 88 ac 3c 4c f7 4d 3c
       0.0021103083 0.0013342923 0.021061217 0.012571167
000010 32 80 a7 3c 12 85 41 3d e8 57 ec 3b c0 a1 d7 3b
       0.02044687 0.047246046 0.0072126277 0.0065805614
000020 b7 b9 e4 bb e5 3c b0 3b f1 07 61 3c 35 e2 ee 3b
       -0.0069801467 0.005378353 0.013734804 0.0072901496
000030 e1 b4 02 3c b7 ba 11 3d ab 45 9e bb c8 8c d4 3b
       0.007977695 0.035578456 -0.0048300824 0.006486509
000040 25 6c 9c bc e8 76 17 3c 05 68 aa 3c 46 cc d6 3c
       -0.019094536 0.009244658 0.020801554 0.026220452
000050 12 3e af bb 3a b9 87 3b e4 c1 89 bb d7 b5 43 3c
       -0.0053479755 0.004141954 -0.0042040218 0.0119452095
000060 80 2b 33 3c d8 8c 21 bc 1b e1 a5 3b ea eb 8f 3b
       0.010935664 -0.00986024 0.005062235 0.004392137
000070 92 42 17 3c 95 fc 46 3b 6e af 88 ba e0 d0 66 3c
       0.00923218 0.0030362953 -0.0010428259 0.014087886
000080 83 6e 44 3c 07 93 17 bc ab 30 90 b9 5c 23 b1 3a
       0.011989239 -0.009251363 -0.0002750208 0.0013514566
000090 54 c5 7d 3c 90 6e 97 3b 77 48 6d b9 48 5d 89 3c
       0.015488941 0.0046213344 -0.00022629077 0.016768113
0000a0 26 d1 59 3c 5a d4 06 3c e6 a8 71 3c e5 47 57 bb
       0.013294494 0.0082293395 0.014749741 -0.003284925
0000b0 7c d5 3e bc 8b a2 03 3d 6b 8b 69 3b 51 a2 96 3b
       -0.011647578 0.032137435 0.0035636078 0.0045969863
0000c0 61 14 57 3d 50 d7 8c 3c d4 9a d3 3c 13 b2 79 3c
       0.05250967 0.017192513 0.025830664 0.01524021
0000d0 d2 3c 59 3c 59 9c d8 bc 16 7d 46 3d fc 8b 50 bb
       0.01325913 -0.02644174 0.048459135 -0.0031821718
0000e0 7e f4 86 3c 76 f9 fd b9 07 80 d4 3b 50 66 ae 3c
       0.016474005 -0.00048441783 0.0064849886 0.02128902
0000f0 c6 54 8e 3c f4 5d cd 3c 21 8e 8a 3c 12 7f 8b ba
       0.017374408 0.025069214 0.016913475 -0.0010642728
000100 76 29 8a 3c 0b 5c 9f 3c 74 b8 a7 3b fe b1 81 3c
       0.016865473 0.01945307 0.005118424 0.015831944
000110 42 f8 7f 3c 9f 78 2f 3c 63 ac f0 3a e5 76 f6 3b
       0.015623154 0.010709911 0.0018361922 0.0075214976
000120 76 af ad 39 e6 f9 27 3a 5c c0 98 3b 7e c0 ed bb
       0.0003312786 0.0006407782 0.004661603 -0.007255613
000130 bd 90 84 38 f0 7b ce ba b3 4d 21 3c 12 55 c2 bb
       6.32121e-05 -0.0015753489 0.009845185 -0.0059305513
000140 35 dc d8 3c 7c b3 d2 3c c6 cd a5 ba 27 29 d0 3b
       0.02647219 0.02572035 -0.0012649826 0.006352562
000150 95 f2 50 b8 9b a2 e2 3c 00 b8 18 3c 3e c9 05 3c
       -4.9816987e-05 0.027665427 0.009321213 0.008165656
000160 a9 3c 76 3b df f7 0a 3c 9d 56 66 3b 6d f7 05 3c
       0.0037572777 0.008481949 0.003514684 0.008176667
000170 7b 41 a0 3b 7b e2 19 3c 4c 2c f6 ba 93 54 a4 ba
       0.0048906184 0.009392376 -0.0018781512 -0.0012537412
000180 62 63 98 3b 2b 20 97 b9 b5 59 fd ba 91 59 97 3c
       0.004650519 -0.0002882493 -0.0019329103 0.018475326
000190 e3 89 0e 3c a7 f7 96 3c 79 5f 96 3c 8c 06 a8 3c
       0.008699867 0.018428637 0.018356072 0.020510934
0001a0 8f 49 09 3d 05 31 c8 3b e0 6b 3a 3b 0c c6 0d 3c
       0.033517417 0.006109359 0.0028445646 0.008653175
0001b0 f0 c7 6f 3b 5a 8f 84 3c 38 5c 25 3d 22 72 da ba
       0.0036587678 0.016181637 0.04037115 -0.0016666094
0001c0 66 92 1b 3d 1e 1f 5d bc da 9d 95 ba d7 96 2f 3d
       0.037981413 -0.013496188 -0.0011414841 0.04286846
0001d0 bc 56 34 bc 1b 38 e9 3b f8 ea 04 bb 1d de 16 3b
       -0.011007007 0.007117284 -0.0020281654 0.0023020573
0001e0 a8 c9 00 3d 63 44 d7 3c a2 c5 19 3d ac 80 87 3c
       0.031442314 0.026277727 0.037541993 0.016540848
0001f0 ca 2e 99 3c 79 cc 89 bb 05 4d c9 ba 9d 59 8f 3c
       0.018699069 -0.0042052832 -0.0015358037 0.017498786
000200 51 a2 ed 3b 72 c6 3d 3c 94 8d 91 3c 08 07 90 bb
       0.0072520156 0.011582958 0.017767705 -0.0043953694
000210 c7 59 77 3b 4f 40 92 3b 5e f3 b6 3b d2 a9 8b 3c
       0.003774272 0.0044632326 0.005583211 0.01704875
000220 4f 09 96 3b 43 b4 e4 3b f1 67 e2 3a 20 32 9e bb
       0.0045787464 0.0069794967 0.0017273409 -0.0048277527
000230 88 ed 23 3d 64 ae 2f bc 79 e6 22 bb 25 50 ff 3b
       0.04002145 -0.01072273 -0.002485661 0.0077915364
000240 de 21 b8 3b ba 35 81 3a 53 ab 81 bb 8e 3f 1e 3c
       0.0056192717 0.0009857931 -0.003957191 0.009658707
000250 07 b1 7c 3b 16 e7 c4 3b 5a 0c c6 3c 27 1c a0 3b
       0.0038557665 0.006008993 0.024175812 0.0048861685
000260 b6 e1 0f 3c 92 43 9f b9 4c 70 33 3c b4 8c 9d 3b
       0.008781841 -0.00030377187 0.010952067 0.004808033
000270 56 dd 2a 3c 4c e7 00 bb 0c aa 06 3c 03 49 6b 3c
       0.010428747 -0.0019669114 0.008219253 0.014360669
000280 47 73 9d ba 85 3c ae 39 23 f2 93 bb 1e ca 4c 3c
       -0.0012012505 0.00033232957 -0.004514949 0.01249936
000290 2a ca cb bb 70 c5 9c 3b 17 3b 11 3c 8a 9a 5a 3c
       -0.006219168 0.0047842786 0.008864186 0.013342509
0002a0 11 06 1b bb 9c 21 a8 3c fe 21 f1 bb 28 bd 8c 3c
       -0.002365474 0.020523839 -0.0073587885 0.01718004
0002b0 45 b1 c0 3b 61 b9 5b 3c 64 02 1f bc 79 b7 54 3c
       0.005880507 0.013410897 -0.00970516 0.012983196
0002c0 65 38 90 3b e0 83 7c 3c 63 5b 9f 3c 84 a3 d7 3c
       0.004401254 0.015412301 0.019452756 0.026323088
0002d0 09 fd 86 3a 88 a1 10 3b 0d 44 3f 3b 5e 13 02 3d
       0.0010298799 0.0022068936 0.0029184849 0.03175675
0002e0 ac b4 9d bb b5 1b b9 3c 36 28 10 bc c5 3e 9a 3c
       -0.0048127975 0.02259622 -0.00879865 0.018828759
0002f0 a7 e2 ee 3c b2 61 de 3c 84 1d 84 ba f2 ad 33 bb
       0.02916081 0.027146194 -0.0010079597 -0.0027416912
000300 15 00 c6 3b 00 94 a7 3c 12 2c d0 b9 8a f3 22 3d
       0.0060424902 0.020456314 -0.00039705687 0.03978304
000310 3f e7 19 3c ec 78 5b 3b 56 c5 c8 3c 51 f6 de ba
       0.009393512 0.0033488823 0.02450816 -0.0017010664
000320 e0 1f a5 bb ff 56 07 3c 07 75 73 3c 06 2d 93 bc
       -0.0050392 0.008260488 0.014859444 -0.017965805
000330 92 4e 2d 3b 3d 87 a7 3c 34 10 40 bc 9e 78 ed 3a
       0.0026444537 0.020450229 -0.011722613 0.0018117612
000340 b2 18 2b 3c a3 29 a6 3c 5f 49 f5 bb 28 d9 a2 3c
       0.0104429 0.020283526 -0.007485553 0.019878939
000350 c9 98 c6 3a 15 5b d2 3b 72 5f 93 3c 04 09 3c 3c
       0.0015151735 0.006419549 0.017989848 0.011476759
000360 a3 83 d8 3c b9 04 9c b9 46 e1 33 bc ea f5 34 3d
       0.026429957 -0.00029758157 -0.010979002 0.044179834
000370 f4 b6 5e 3c 03 de b6 bb 13 36 d7 3b ad c2 7d 3b
       0.013593424 -0.005580665 0.0065677254 0.0038720772
000380 bf df e2 3c c3 7b f1 bb 5c 67 00 3d 90 c2 c7 3b
       0.027694581 -0.00736949 0.03134857 0.0060961917
000390 59 c6 20 ba 01 19 98 3b f7 36 6c 3c 1c c4 01 bc
       -0.0006133072 0.0046416526 0.0144174015 -0.007920291
0003a0 76 e4 35 3c a2 2f f2 3c 99 3a 41 bc 08 ea 9b bc
       0.011101833 0.029563729 -0.011793756 -0.019032493
0003b0 0e d8 10 3c 9e b1 6e 3d 33 b4 84 3d d4 79 1f bc
       0.008840574 0.058274858 0.06479683 -0.009733636
0003c0 a4 aa 0b bb 8c 7d 74 3b 68 e0 27 3b 38 c0 4c 3c
       -0.0021311427 0.0037306277 0.0025615934 0.012497
0003d0 5b 83 14 bc f2 53 0e bc 25 45 53 3c 58 1b ee 3c
       -0.009064521 -0.008687006 0.012894903 0.029065773
0003e0 51 60 15 3c 3f 58 d3 3b 04 57 54 3c 7a 5f b1 3c
       0.009117202 0.0064497287 0.012960199 0.021651972
0003f0 a1 77 88 3a 7d 3e f3 bb 65 dd 2c 3c e4 4e 4d 3c
       0.0010411629 -0.0074232207 0.010550831 0.012531016

model.time_mlp.3.weight f4 [32, 256]
000000 83 f3 7c 3d ff 11 08 3c b1 4c ba bb 41 9c 13 bd
       0.06175567 0.008305072 -0.005685412 -0.036037687
000010 e9 a4 51 3c 4c d9 64 3d 68 1d a1 bc 16 9f 6e bc
       0.012795665 0.055871293 -0.019667342 -0.014564296
000020 ba 1a be 3b 97 10 40 3c 02 38 e3 bb 18 13 7b bc
       0.005801526 0.011722705 -0.006934167 -0.0153243765
000030 89 2c 10 3c bf 0e 20 3c 69 b2 1d bd da 35 fa 3c
       0.0087996805 0.009769141 -0.038500223 0.030543257
000040 15 41 66 ba 1f aa c4 bd 4f c2 37 3d 8b d3 96 3c
       -0.00087835017 -0.096027605 0.04486304 0.018411418
000050 40 9d e5 bc d0 6a 21 3c 12 40 10 bd 69 d7 e0 3d
       -0.028029084 0.009852126 -0.035217352 0.10978586
000060 0d fd 24 3c f1 f7 6c bd 50 99 34 bb f6 75 7b bd
       0.010070098 -0.057853643 -0.0027557202 -0.061391793
000070 7d 42 d0 3c 0b 2c 0a 3c e5 5f 4e 3c 46 d6 d2 bc
       0.02542233 0.008433352 0.012596105 -0.02573694
000080 34 2f 29 3d 25 6c 02 be df ed 05 bd d0 bf 39 3c
       0.041304782 -0.12736566 -0.032697555 0.011337236
000090 de 15 c0 3c 05 e0 2d 3c 33 f7 2c bd a5 f1 6d b8
       0.023447927 0.010612492 -0.042227935 -5.6730252e-05
0000a0 91 b5 ab bc 85 39 84 3c c3 b9 b1 3b 6c 54 89 3c
       -0.020960601 0.016140709 0.005423756 0.016763888
0000b0 9d 56 c8 bc 12 47 a9 3d 8f 15 80 bd 34 1d 3e bd
       -0.024455363 0.08265509 -0.06254112 -0.04641457
0000c0 66 71 67 3d ea 82 6e bb 75 03 00 3b bd 5e eb 3b
       0.05650463 -0.0036393949 0.001953331 0.0071829245
0000d0 da 07 71 3d 7d 16 12 bd 29 d2 45 3d 92 de 04 bd
       0.05884538 -0.035665978 0.048296127 -0.032438822
0000e0 6c b2 b7 3c 64 15 07 bd 1b 52 0b bc e6 c7 b6 3b
       0.022423945 -0.032979384 -0.008503462 0.005578029
0000f0 1e 24 fb 3c 5b 86 e0 bb 55 83 40 3d 50 72 b1 3c
       0.03065687 -0.006851954 0.047000248 0.021660954
000100 3c a4 e1 ba d9 39 70 3d fd 70 1a bc 2a a8 93 3d
       -0.0017215083 0.058648918 -0.009426353 0.07209809
000110 42 fb 39 bd d5 cc b2 3c ed d4 8f 3b d9 e8 6e 3d
       -0.045405634 0.021826187 0.0043893964 0.05832753
000120 f4 c3 25 bd df b6 2f 3c d5 ac d8 bd 2e 2b 2c 3b
       -0.04047008 0.010724752 -0.1057984 0.0026270854
000130 31 24 27 bc 42 eb af bc dc e3 0c bd cc b4 52 bc
       -0.0102015 -0.021474484 -0.03439699 -0.012860488
000140 83 f3 93 3c f7 6f 29 bd 00 b9 14 bd 99 84 9b bc
       0.018060451 -0.041366544 -0.036309242 -0.018984126
000150 49 db 86 bc 67 bf 63 3c a7 50 4e bc 6b b1 05 bc
       -0.016461985 0.013900614 -0.012592471 -0.0081599755
000160 3a 5a 48 bd 06 89 62 bd 4a aa 14 3d 65 cc e0 bc
       -0.04891417 -0.055306457 0.036295213 -0.027441213
000170 f6 62 ad bc a8 ba 96 3c cd cd 92 bc 8d 1d c1 bc
       -0.021165352 0.018399552 -0.0179204 -0.023573661
000180 1d 40 dc 3a ff 1a 4c bd 96 a7 38 bd a4 67 f6 3c
       0.0016803775 -0.049830433 -0.045081697 0.030078717
000190 2d 55 1c bd 0c b2 a7 3c b5 b9 71 3b cd f0 47 bc
       -0.038167167 0.020470642 0.0036884372 -0.0122034075
0001a0 d0 63 3d 3d bd 33 d0 bb 81 41 c4 3c bb 50 95 3b
       0.046237767 -0.006353824 0.023957016 0.004556743
0001b0 e5 ff 67 3d 05 55 7e 3d 18 82 18 3d d6 41 ab 3c
       0.056640524 0.0620928 0.037233442 0.020905416
0001c0 a8 db 2d 3d 25 cc 30 3d a0 f0 25 bc ae df 8b 3d
       0.04244581 0.043163437 -0.01012817 0.06829773
0001d0 1c 2b dd bc af 00 9b bd 22 04 f0 bb 2f f2 a2 3a
       -0.026998095 -0.0756849 -0.0073247114 0.0012431795
0001e0 2b 68 b8 3c ec fb 11 3d 60 ad 71 3d 90 a8 1e 3d
       0.022510609 0.035640642 0.059003234 0.038734972
0001f0 14 0c fa ba 3b e2 56 bd 45 27 35 bd 6d 0f 68 3d
       -0.0019077086 -0.052461844 -0.044226903 0.056655336
000200 2d 4a d1 ba 45 7c bf 3c 0b ed f3 bb e9 54 43 bb
       -0.0015967541 0.023374686 -0.007444029 -0.002980525
000210 49 62 0e bd 22 61 3d bb 87 ad 49 bd f1 03 15 3d
       -0.0347617 -0.0028897007 -0.049237754 0.036380712
000220 2f a6 6e bc 16 94 df bc b0 eb 4e bd 52 8e ec 3c
       -0.014565988 -0.027292293 -0.050517738 0.028876457
000230 70 9d 51 3d 78 01 89 bc f2 6a c6 3b 4a 04 e4 bb
       0.051175535 -0.016724333 0.0060552293 -0.006958519
000240 46 d0 37 bc d8 c5 2d 3c 55 b8 ef 3c 45 bf 45 3d
       -0.01121909 0.010606252 0.029262701 0.048278112
000250 55 d3 30 bd 38 76 94 bd 41 89 87 3d a8 2e 58 bd
       -0.043170292 -0.07249111 0.06617976 -0.05277887
000260 e3 47 9f 3b 40 32 22 bc 8d 0f f8 3c 04 21 0d ba
       0.0048608645 -0.009899676 0.030280853 -0.0005383643
000270 6a 52 96 3d f9 04 16 bb 96 14 f5 3c 0a ec 1a bc
       0.07339938 -0.0022891148 0.029917043 -0.00945569
000280 4d b2 0e bd 0f 5d 61 3d 7c f3 de bc e9 e3 b0 3d
       -0.03483801 0.05502039 -0.027215712 0.086372204
000290 f8 09 17 ba 6d 45 72 b9 06 a3 3d bc dd f8 83 3d
       -0.00057616783 -0.00023104782 -0.011574512 0.06443951
0002a0 a2 97 ef 3a ff 05 82 bd 4a 02 97 bd 07 c1 0b 3d
       0.0018279443 -0.063488 -0.073734835 0.034119632
0002b0 96 d1 84 bc 19 50 59 3d 05 2e 39 3c c4 a7 44 bc
       -0.01621322 0.053054903 0.011302476 -0.012002889
0002c0 2d d1 9b 3c cf 66 4c 3c 03 fd 70 3d 11 f9 b3 3c
       0.019020641 0.012475683 0.05883504 0.02196935
0002d0 6a 8e 6b 3c a8 e0 93 bb 3d 32 a8 3c 9d 84 43 3c
       0.014377216 -0.004512865 0.020531768 0.011933473
0002e0 17 58 77 ba e1 e4 ce 3c f9 33 37 3d b1 de 45 3b
       -0.00094354287 0.025255622 0.0447273 0.003019255
0002f0 6d 8a 37 3d 5b 47 03 3e 89 96 c7 bc fe 25 bd bb
       0.044809747 0.12820189 -0.024363773 -0.0057723513
000300 08 a0 01 3d 13 78 84 3b 87 86 c9 bc 15 e6 1d 3d
       0.03164676 0.0040426343 -0.02460028 0.0385495
000310 1a 8e b7 bc b1 3a e0 bc bf 3f be 3c de a5 08 3b
       -0.022406626 -0.027371736 0.023223756 0.0020850818
000320 e5 a5 20 bd f8 6f 8d bc 67 e5 22 3d ac cb 48 bc
       -0.03922071 -0.017265305 0.039769556 -0.01225559
000330 9b 09 1c 3c df eb 9e 3d ce 6d 43 3c e7 c9 16 bc
       0.0095237745 0.077598326 0.011928035 -0.009203411
000340 2a 7c de 3c 61 1e 4d 3d 0c 01 23 bd b1 62 a7 3c
       0.027158815 0.0500778 -0.03979592 0.020432802
000350 58 c9 22 bd 4e bb 97 bc fa de 96 3d 94 5b 88 3b
       -0.039742798 -0.018521931 0.07366748 0.0041613076
000360 02 b1 69 3d 92 c2 53 3d e5 c2 d2 3c 62 9f e1 3c
       0.057053573 0.05169923 0.025727699 0.02754182
000370 27 6f b2 3c 58 4b 38 3d f4 3a 94 3b b1 d0 f2 bc
       0.021781517 0.04499373 0.0045236293 -0.029640527
000380 ca de 39 3d 66 c3 e3 bc 58 55 bf 3d fc 3e ea bb
       0.045378484 -0.027803134 0.0934245 -0.0071486216
000390 1f e7 4f bc 97 06 f7 bc 99 81 a4 bb bb 35 95 bd
       -0.012689381 -0.03015451 -0.005020332 -0.07285639
0003a0 a2 ae 0f bd 31 77 1f 3d b8 90 26 3c d7 24 e7 3a
       -0.035078652 0.03893203 0.01016634 0.001763488
0003b0 b9 26 7d bc be 69 ed 3c 86 36 96 3d b6 2b ad bc
       -0.015451127 0.028981086 0.07334618 -0.021139007
0003c0 da 99 b5 3c 75 fa 61 3d 2a 96 21 bb aa bc 04 3d
       0.022168089 0.055170495 -0.0024656155 0.032406487
0003d0 3a d2 d1 3c b9 b2 1d 3d 04 a8 cb bc cb 8a 49 3d
       0.02561294 0.03850052 -0.02486039 0.04920463
0003e0 9b a6 01 bd f6 76 1a 3d b2 96 3b 3c 6d 8e ec 3c
       -0.031653028 0.037711106 0.011449503 0.028876508
0003f0 68 d2 4e ba 3c 43 e0 ba 5b e2 fe 39 a8 e3 b8 bc
       -0.00078896293 -0.0017109881 0.00048615303 -0.022569492

model.time_mlp.3.bias f4 [32]
000000 05 a9 1b bb c4 fd 80 bc 9e 83 e9 bb 06 a3 8c 3c
       -0.0023751867 -0.015746005 -0.0071262857 0.01716758
000010 e2 f3 67 bc ce 5c cf 3b 9c 08 5b ba 68 d9 5c bb
       -0.014157267 0.006328202 -0.000835547 -0.003369892
000020 40 28 6a 3b 9d 5e 60 3c 7f b6 b2 3c 48 6f 6f bc
       0.0035729557 0.013694433 0.021815537 -0.014613934
000030 a5 13 d2 ba 17 cf 8d bc 19 22 29 3b 3b 5d 99 3b
       -0.0016027583 -0.017310662 0.0025807677 0.0046803034
000040 82 0d 5b b8 2f 5d 3d bc 56 74 af bb cf e4 79 3c
       -5.222625e-05 -0.011557861 -0.0053544445 0.015252306
000050 e9 9d 58 3c 0b 22 83 bc ab f5 61 3b 46 1e 82 bc
       0.013221242 -0.016007444 0.0034478705 -0.015883576
000060 13 1b a9 3c 74 29 5d 3c 36 ba db bb cf 20 12 bc
       0.020642793 0.013498653 -0.0067055477 -0.008918955
000070 b7 23 57 3c 46 ec d4 3a cc b3 84 3c 67 04 fb bb
       0.013131074 0.0016244731 0.016199015 -0.007660437

model.layer.0.weight f4 [256, 55]
000000 37 76 a0 bc 1f 5c b7 bd 17 65 34 be 90 a7 47 3e
       -0.01958762 -0.089531176 -0.17616688 0.19497514
000010 0b 6d 47 be 51 7f 14 3d 98 60 21 3c fd 4f 05 bd
       -0.1947519 0.03625423 0.00984969 -0.032546986
000020 fc 7f 47 bc a1 3a c3 bd 58 2f c4 3d a7 cc 91 bd
       -0.01217651 -0.09532667 0.095793426 -0.071191125
000030 5d 87 61 bd 1c 0c 92 3c 9d ee 64 3c 33 04 1f 3e
       -0.055060733 0.01782804 0.013972905 0.15528946
000040 64 71 0f 3d b5 5d 14 be 07 12 90 3d 24 10 bf bd
       0.035020247 -0.14488871 0.070346884 -0.093292505
000050 f8 8b 79 3d b1 44 e6 3d 51 96 dd 3c d7 fb 4f bc
       0.0609245 0.112435706 0.027049216 -0.012694321
000060 87 7f 56 3c db dd 66 bb 1c 22 28 bd d7 e4 b5 3d
       0.013091928 -0.003522745 -0.041048154 0.08881538
000070 ed fb 32 3d 12 c5 00 bd c3 b4 b5 3b 11 ef b4 3d
       0.043697286 -0.03143794 0.00554523 0.08834661
000080 44 68 2f bd 2d 1d 34 3c 7a c3 46 3d d6 e0 84 3d
       -0.042824045 0.010993284 0.048526265 0.064881966
000090 b8 97 d9 3d d4 15 bf 3d 7d 96 d1 bc 9f 60 4d bd
       0.10624641 0.09330335 -0.025584454 -0.050140973
0000a0 8e af a5 bc 00 e0 9a 3c 18 08 a9 3d f9 43 9a bd
       -0.020225313 0.01890564 0.08253497 -0.07532496
0000b0 57 c0 15 3d 02 ce 45 bd 70 ec c2 bc 18 d6 76 bc
       0.036560383 -0.048292167 -0.023794383 -0.015065692
0000c0 9a bb ce bd 94 03 4a bd 1e c5 57 3d bb 14 be 3d
       -0.10094376 -0.04931982 0.05267822 0.09281298
0000d0 ff 4c a2 3d e2 a4 b8 3c 8f 01 6b bd 6e cd 0a 3d
       0.07924842 0.02253956 -0.057374533 0.03388732
0000e0 07 32 ed 3d ee 7a cc bc 28 f9 9b 3c ea 13 0c 3e
       0.115818076 -0.024960961 0.019039705 0.13679472
0000f0 c1 c0 40 3c c5 00 a9 bc ad a2 e9 bd c3 72 de bd
       0.011764706 -0.02063025 -0.11407981 -0.10861733
000100 87 7a d9 3c 15 13 fb bc a0 be a6 bd f2 97 c2 ba
       0.026547683 -0.030648747 -0.081418276 -0.0014846309
000110 59 aa 34 bb 88 12 94 bd 2f 8c ae bc 28 12 1b 3c
       -0.0027567355 -0.07230097 -0.02130708 0.009464778
000120 3b f9 b9 3c 9f 9a 96 3c a9 d6 db 3d ad 66 97 3d
       0.02270185 0.018384276 0.107343026 0.07392631
000130 6d 31 28 bc 8c 76 e4 3b 3c 0a 39 3d ae 09 f5 bd
       -0.01026569 0.0069721397 0.045175776 -0.11964737
000140 40 64 e1 bc b3 00 4c bc ae cf 85 3d c2 de 9e bd
       -0.027513623 -0.012451339 0.065337524 -0.077573314
000150 5a e6 25 3d e5 60 6d 3d 4c 5d 71 bd dc 0a f1 3a
       0.040502883 0.057953734 -0.058926865 0.0018390077
000160 4a 3d 6d bd 15 6b 2b 3d f6 58 08 ba 98 13 1c bc
       -0.057919778 0.04185017 -0.00052012445 -0.009526156
000170 2c 46 e3 39 e8 f3 eb bd 21 17 a9 3d 2a 70 ab 3d
       0.00043349096 -0.11521131 0.082563646 0.08371003
000180 b7 7f 17 3d f2 03 ba 3d 80 04 37 3e 78 93 3f 3d
       0.036987033 0.09082784 0.1787281 0.046771497
000190 9d 5e 88 bd d7 31 d8 3d f9 3b d1 3c 43 c0 7e bd
       -0.06658671 0.10556381 0.025541293 -0.062195074
0001a0 ec 59 c6 3b 41 c0 59 bd fc 50 51 3d f2 93 08 bc
       0.0060532 -0.053161863 0.051102623 -0.008336054
0001b0 c9 87 71 bb 51 f6 7e bd 68 57 25 bd dc b5 04 3e
       -0.0036854616 -0.062246624 -0.04036656 0.12959999
0001c0 0a f3 c6 3d 6d dd 3f bd fa 5e 9f bc c8 27 a7 3d
       0.09714325 -0.046842027 -0.019454468 0.081618845
0001d0 4a 83 42 bd b2 ae 9c bd e0 5f a3 bc 76 14 a4 bd
       -0.04748849 -0.07650508 -0.019943178 -0.08011715
0001e0 79 1c f4 bc e2 3b 87 bc 75 0a 3a bc a2 95 78 bc
       -0.029798733 -0.016508047 -0.011355032 -0.015172394
0001f0 bb 7b 01 3d 59 02 cb bd dd ec ba bd 17 bc 35 bb
       0.03161214 -0.09912557 -0.09127209 -0.0027730518
000200 cc 65 ca bc 6e fa f0 bd 72 37 85 3d 94 82 42 bd
       -0.024706744 -0.11766516 0.06504716 -0.04748781
000210 28 f6 fb bd 61 7d 56 bd f3 87 12 be 75 1c 36 3e
       -0.1230281 -0.052365664 -0.14309673 0.17784293
000220 0a fd a6 bd e1 b8 64 bd 43 5c ef bb 09 b5 4c bd
       -0.08153732 -0.055840377 -0.0073046996 -0.049977336
000230 66 36 09 3e 8b db cf bc e1 be c9 bc 7c 24 23 3d
       0.13399658 -0.025373241 -0.024627151 0.039829716
000240 99 dd 7b 3d 27 71 ed bd 8d 18 88 bc 40 cb 29 bd
       0.06149063 -0.11593848 -0.01661327 -0.0414536
000250 a5 94 28 3e 3b db 8c bd 01 cd 57 3d 97 92 86 bd
       0.16462953 -0.068777524 0.05268574 -0.065709285
000260 ff 4f fa 3b 40 6c d0 bc 6a bf 92 3d 8a 52 67 bd
       0.007638931 -0.025442243 0.071654156 -0.0564752
000270 bf 79 04 3e 45 7b bf bc 21 56 28 bd 51 be 8e 3b
       0.12937067 -0.02337421 -0.041097764 0.0043561836
000280 cf f6 10 3d be 51 40 bd 6d 26 13 be 91 9b 43 bd
       0.035391625 -0.046952955 -0.14370127 -0.04775578
000290 77 eb 0a 3d 6b cc d7 3d ff c3 d8 bd 49 c3 2c bd
       0.033915963 0.105370365 -0.10584258 -0.042178426
0002a0 9b c4 4d be ce 79 19 3e 05 08 ee bc a5 e9 b7 bc
       -0.2009453 0.14987871 -0.029056558 -0.022450278
0002b0 aa 3c da bd 21 31 f2 bc 36 25 ea 3d 22 92 6f bd
       -0.10656102 -0.029564442 0.11432879 -0.058488972
0002c0 cc 4b 19 3d ed 4d 32 3c 87 87 d5 3d f8 f5 6e bd
       0.0374258 0.010882837 0.104262404 -0.058340043
0002d0 06 51 85 3d 5c 94 c4 3d 89 c6 96 bc 40 0c 2d bd
       0.065095946 0.0959861 -0.018405216 -0.04224801
0002e0 29 50 e1 3d ac df b4 3c ff 11 8b bc 93 9a f0 bc
       0.110016175 0.022079311 -0.016976355 -0.029370582
0002f0 e6 90 15 bc dc 73 bf 3c 4f 33 18 bd 76 b2 ac bc
       -0.009128785 0.023370676 -0.037158307 -0.02108119
000300 d2 95 a5 3c 59 fd 1e 3d f7 ba cd ba f8 fa 1c 3d
       0.020213041 0.03881583 -0.0015695979 0.03832528
000310 5d 26 29 3c 84 30 c6 bd 9a 10 15 bd 78 56 0f 3d
       0.010324088 -0.09677222 -0.036392786 0.034994572
000320 8e 1b d1 bd 80 f7 1a bc 7d ea 5f bd b0 5c a3 bc
       -0.10210334 -0.009458423 -0.054666985 -0.019941658
000330 49 9c a3 3d 50 3e 8a bd b4 a9 4f bc 96 be 5c 3c
       0.079887934 -0.067501664 -0.012674738 0.013473174
000340 51 13 af 3d cf d3 a4 bd 3f 9a 3b bc 57 3e 34 3e
       0.08548606 -0.08048212 -0.011450349 0.17601906
000350 68 fe 5d 3d 11 76 f8 bc 4b d1 30 3d bf d7 b5 3d
       0.0541977 -0.030329736 0.043168347 0.08879041
000360 01 69 15 bc eb 8c 54 bd 9c 64 a8 3b 45 cb 00 bd
       -0.009119273 -0.051892202 0.0051389467 -0.031443853
000370 f3 b2 c2 bd c6 ec 89 3b 38 e6 d8 bd 1f 62 b7 bc
       -0.09506788 0.004209134 -0.10590786 -0.022385655
000380 22 f3 a8 ba d5 60 12 3e 34 43 08 be 0d 9d 3e 3d
       -0.0012889842 0.14294751 -0.13306886 0.046536494
000390 24 75 2c 3d 88 a0 04 3e 09 30 d7 bc d4 b0 71 3d
       0.0421039 0.12951863 -0.026268022 0.059006527
0003a0 48 62 5c 3c 70 46 a5 bd 59 ef 2a 3d 84 a3 5a 3a
       0.013451166 -0.080700755 0.041732166 0.0008340406
0003b0 f5 31 99 bd de 8c 68 3d 98 b5 8f 3d f2 70 61 bd
       -0.07480232 0.056774966 0.07017058 -0.055039354
0003c0 fa d6 b5 bc aa ab 32 bd e3 3a 43 bd a1 f6 4c 3d
       -0.022197235 -0.043620743 -0.04766358 0.05003989
0003d0 fb b3 fd bd 1e 09 f1 bc 68 42 ab bc e4 4b dc 3d
       -0.12387844 -0.029423293 -0.020905688 0.107566625
0003e0 f8 58 b6 bd 01 04 88 bd f6 38 70 3c f1 be db bd
       -0.08903688 -0.06641389 0.014662018 -0.107297786
0003f0 eb 51 1b be cf 61 b4 3d ee fa 52 bc 46 e6 09 bc
       -0.15167968 0.08807718 -0.012877209 -0.008416718

model.layer.0.bias f4 [256]
000000 56 89 71 3c ba 9f 9e 3c 04 7a 4b 3c af 4d 12 3c
       0.014742216 0.019363273 0.0124192275 0.008929654
000010 6f 0d 8e bc 9b 4c 31 3c 9d ab 9f bc 1f e3 5c 3c
       -0.01734039 0.010821487 -0.019491011 0.013481884
000020 95 ff 21 3c 2d 12 78 3c d4 91 82 bb 00 72 ca 3c
       0.009887596 0.015141052 -0.003984669 0.024712563
000030 2c b2 29 ba 6d 6f fa 3b 20 58 49 3c df a6 13 3d
       -0.0006473388 0.0076426775 0.012289077 0.036047813
000040 2d 5e 9b 3c 75 69 07 3c a6 94 bb 3c 96 18 93 3c
       0.018965805 0.008264889 0.02289803 0.01795606
000050 eb 7a db 3b 38 67 f2 3b a7 aa bc 3c 77 60 fd 3b
       0.0066980026 0.0073975585 0.023030592 0.007732447
000060 df ad 52 3c b7 d9 c3 bb de 49 b4 3c a6 16 87 3c
       0.012858837 -0.0059768814 0.022007879 0.016490292
000070 46 ba 36 3c ac 18 b5 bb 39 24 70 bb 1e ad a8 3c
       0.0111528095 -0.0055266228 -0.0036642684 0.020590361
000080 c9 66 a2 3c cd c6 92 3c 12 d6 b2 3c 61 ba 65 3c
       0.019824402 0.017917061 0.021830592 0.014021487
000090 a1 7a 1f 3c 10 e6 d8 3c 31 c4 d8 3c 7f 90 9b 3c
       0.009733827 0.02647689 0.026460739 0.0189898
0000a0 fc f3 66 3c 90 fa a4 3c 5b 4e 7d 3c 64 d9 1e 3c
       0.014096256 0.020139009 0.015460576 0.009695385
0000b0 1b 76 87 3c ac ff 93 3c d4 98 0b 3c b2 77 9e bb
       0.01653581 0.01806625 0.008520324 -0.004836046
0000c0 b6 99 98 3c 5b 14 58 3c 33 78 88 3c c6 78 2e 3c
       0.018627983 0.013188447 0.016658878 0.010648912
0000d0 48 20 aa 3c fb 5a b7 3b ac 7c a2 3c 76 17 a4 3c
       0.020767346 0.0055955625 0.019834839 0.020030718
0000e0 d8 1d 6d 3c fc 8c 8d 3c 5b 0a 11 3c e3 b8 bf 3b
       0.014472447 0.01727914 0.008852567 0.0058508976
0000f0 de 09 04 3b b7 d4 59 3c 5c a5 06 3c ab 8a 92 3c
       0.0020147483 0.013295344 0.008218136 0.017888388
000100 14 07 d8 3b 72 9a 4c bc 51 3f 0e 3c 3c b5 23 3c
       0.0065926407 -0.0124879945 0.008682088 0.00999194
000110 ef 90 8f 3c bd 27 9b 3c 0a 16 d0 3b b3 4b b9 3b
       0.017525164 0.018939847 0.0063502835 0.005654776
000120 55 39 1b 3c 2f 98 44 3c 80 e8 98 3b 13 3f 18 3c
       0.009474118 0.011999174 0.004666388 0.009292382
000130 d9 c6 e7 3c cf 14 b0 3c 26 c8 2f 3c 8e 93 a5 3b
       0.02829306 0.021494297 0.010728871 0.0050529903
000140 37 dd 5a bb 5c 89 c6 3b dc 80 9f 3c fa 3f 89 3c
       -0.0033396014 0.006058855 0.019470625 0.01675414
000150 fb 1b bb 3c 7c 70 fe 3b ed 0a 00 3c 04 d6 bb 3c
       0.02284049 0.007764874 0.007815105 0.022929199
000160 f4 5c af 3c e1 01 0f 3b ea 46 07 bc 4b dd 4b 3c
       0.021406628 0.0021821188 -0.008256653 0.012442897
000170 c8 40 5d bc 07 de 83 3c 7a ec 40 3c f7 42 18 3c
       -0.013504215 0.016097082 0.01177513 0.009293309
000180 57 24 90 3c a8 ea af 3c 3d 48 c0 3b 3b ef f6 3c
       0.017595453 0.021474198 0.0058679865 0.03014337
000190 df 6e 86 3c 37 18 42 3c 79 aa 39 3b fd bf b7 3c
       0.01641029 0.011846594 0.002833037 0.022430414
0001a0 aa f9 d8 bc 67 49 8f bb fc 36 bd 3c e7 46 35 3b
       -0.026486237 -0.004372764 0.023097508 0.002766067
0001b0 a6 7e c7 3b e2 d0 73 ba 2f af 0a 3c c9 1f 9b 3a
       0.0060880957 -0.00093008403 0.008464619 0.0011835034
0001c0 92 0f 86 3c b9 81 80 3c ee 85 33 3c 9d 2d 2e 3c
       0.016364846 0.015686857 0.010957224 0.010630992
0001d0 06 1c 3b 3c c9 fd 4e 3c 0d f9 86 3c 32 6a b8 3c
       0.0114202555 0.012633749 0.016476179 0.022511575
0001e0 a2 07 63 3c 36 ba a1 3a be fd 93 3c d3 d4 79 3c
       0.0138568 0.001233882 0.01806533 0.015248495
0001f0 c5 9a 0e 3c 5c d7 d2 3c cd e2 af 3c 6c 15 88 3b
       0.008703892 0.025737457 0.021470452 0.0041529443
000200 fe b4 a3 3c 69 65 75 bb e3 4e 02 3c ca b5 ad 3b
       0.019983765 -0.0037444478 0.007953378 0.005301212
000210 d6 f7 d7 bb f6 93 19 3c 96 ba a1 3c f4 1a cb 3c
       -0.0065908236 0.009373656 0.019742291 0.024793126
000220 16 95 f8 3b d1 a5 5f 3c 3d 13 6d 3c cc 56 0d 3c
       0.007586132 0.013650374 0.014469919 0.008626651
000230 d5 7c 07 3c 2d aa 90 3c 23 24 dd 3b dc a1 7e 3b
       0.008269508 0.017659271 0.0067486926 0.00388538
000240 05 2a 9a 3c 94 cb ca 3c 00 3e 55 3c 68 f8 e3 3c
       0.018818865 0.024755277 0.01301527 0.02782841
000250 0b cd ac 3c e6 b2 a3 3c 2b 21 2b 3c 78 3e 95 3c
       0.021093866 0.019982766 0.01044492 0.018218264
000260 40 c2 bc 3b 30 ae 38 3c 81 e3 d4 3b 6e 6c 3d 3c
       0.005760461 0.011271998 0.006496847 0.011561496
000270 9e 29 3a 3c 3b a4 96 bc ab f9 de 3c d0 52 b1 3b
       0.011362461 -0.018388858 0.02721866 0.0054114833
000280 a3 5b cd 3c 49 af fc 3b 7e 8c a6 3c 69 1d 23 bc
       0.02506811 0.0077113253 0.020330664 -0.009955742
000290 72 3d 17 3c 7c 4d 83 3c d2 1b ae 3c 9b 9b 9e 3c
       0.009230958 0.016028158 0.0212535 0.019361308
0002a0 be 78 30 3a 95 53 03 3c 28 3a cd 3c 95 1b 8a bb
       0.0006731859 0.008015533 0.025052145 -0.004214714
0002b0 dd 52 2f 3b bd d3 42 3c c9 56 0d 3c 8f 31 2b 3a
       0.0026752271 0.011891303 0.008626648 0.0006530517
0002c0 30 70 41 3b cb cd 8b 3c 17 26 c6 3b 37 55 c8 b9
       0.0029516332 0.017065903 0.006047021 -0.00038210463
0002d0 99 91 22 3c 30 56 f7 3b 23 72 5b 3b 15 69 7b 3c
       0.0099224085 0.007548116 0.0033484779 0.015344878
0002e0 71 9c 71 3c 59 d7 32 3c 8a 97 d6 3c da 19 78 3c
       0.014746771 0.010915601 0.026195306 0.015142882
0002f0 c3 4a c1 3b 13 64 37 3c ff a0 6d 3c e3 b0 7d 3b
       0.005898805 0.011193293 0.0145037165 0.003871017
000300 55 9e bb 3c 11 c8 92 3c c9 53 b5 3b cc 05 2a 3c
       0.022902647 0.017917665 0.0055336696 0.010377359
000310 bf 0c 39 3c a6 08 ae 3c ca 7e ba 3c 49 00 9b 3c
       0.011294543 0.021244358 0.022765536 0.018921034
000320 92 85 e3 3c 0d 34 cc 3c f2 28 ed bc cd ca 85 3c
       0.027773652 0.024927163 -0.028950188 0.016332055
000330 b5 95 af bb 74 64 c2 3b 04 a6 b9 3c eb 98 c5 3c
       -0.0053584226 0.005932385 0.02266217 0.024120769
000340 94 46 ae 3c 25 71 8c 3c 03 00 08 3c 54 1b 88 3c
       0.021273889 0.017143795 0.008300784 0.016614594
000350 32 1c ae 3c f4 e1 87 3b 1c bb 4f 3b 56 72 f4 3c
       0.021253679 0.0041468088 0.003169722 0.029839676
000360 e3 3f 08 3c 74 8e 89 3c 18 25 c1 3b d2 40 9b bc
       0.008316013 0.01679156 0.0058943145 -0.018951807
000370 b9 c1 06 3b 8f 28 b3 3c aa 01 d1 3c b6 90 62 3c
       0.0020562245 0.021869926 0.025513489 0.013828447
000380 81 65 01 3c b4 4b 29 3c 4f 7f 46 3c b6 c9 ad 3c
       0.007897736 0.01033299 0.012115314 0.021214347
000390 eb 7d 9d 3c 34 7e 49 3c 1b 80 31 3c a0 7c 64 3c
       0.019225081 0.012298156 0.010833765 0.013945729
0003a0 e1 db 62 3c aa 46 7b 3c f8 be 00 3b f8 dc 29 3c
       0.0138463685 0.015336672 0.0019645076 0.010367624
0003b0 94 6c c6 bb 58 f8 df 3a 8e a6 28 bb 70 a1 f4 3b
       -0.006055424 0.0017087562 -0.002573404 0.007465534
0003c0 ce 97 91 3c 5f cd 98 3c fa bb 2e 3b 49 0f a7 3b
       0.017772581 0.018652616 0.0026662336 0.0050982577
0003d0 a1 b0 b1 ba d4 af c6 3c d5 2a 84 3b d4 07 a5 bb
       -0.0013556668 0.024253763 0.0040334263 -0.0050363336
0003e0 6f 87 74 3c 0f c6 29 3c 89 d6 22 3c fc 47 b3 3c
       0.014924868 0.010362162 0.0099388445 0.02188491
0003f0 03 e1 ab 3c d9 5b 07 bc d2 55 7d 3c cf 2c 96 3b
       0.020981317 -0.008261644 0.015462356 0.0045829783

model.layer.2.weight f4 [256, 256]
000000 da 08 41 3d 59 f8 1b 3d 93 be 23 3d 90 76 c0 bb
       0.047127582 0.03807864 0.039976668 -0.0058735088
000010 a6 08 c8 bc 67 19 82 3b 73 e2 61 3d 11 80 8d 3d
       -0.024418186 0.0039703134 0.0551476 0.06909192
000020 60 24 e5 3b 6f dc 26 bd 95 32 79 bc 89 9a c0 bb
       0.0069928616 -0.040737566 -0.015209814 -0.005877797
000030 a4 3a 4e bd 5d b0 02 bc c9 e6 c3 3c 8c 40 76 3c
       -0.050348893 -0.007976619 0.023913758 0.015030038
000040 29 51 91 bb 46 ef 4a bd a2 13 81 bd 54 b8 a3 3c
       -0.004434724 -0.049544595 -0.06302573 0.019985355
000050 3b b7 15 3d 8f 73 65 bc b7 f2 23 3c 0d 00 20 bd
       0.036551695 -0.014004602 0.010006598 -0.03906255
000060 7d c1 96 3a 85 d9 74 3b a9 ca d0 3c 5e 15 7c bd
       0.0011501756 0.0037361097 0.02548726 -0.061543815
000070 10 a5 78 3d 57 27 3e bd 4a be a1 3c dc 1b 61 3c
       0.06070429 -0.046424236 0.019744057 0.013739552
000080 ab ac d7 3c ad 72 ed 3c 5b 77 3d 3d af a8 d5 bb
       0.026327452 0.028985346 0.046256404 -0.006520353
000090 e9 8c 85 3d 6f 47 4d bc b2 15 54 bc 8d c0 2d 3d
       0.06521017 -0.012529238 -0.012944626 0.04241996
0000a0 6b 47 21 bd 6d 15 64 3c 8a 81 7d 3c f4 f4 85 3b
       -0.03937475 0.013921124 0.015472779 0.0040880386
0000b0 8b a4 e7 3c 50 21 b1 3c a4 39 19 bd 16 09 88 ba
       0.028276702 0.02162233 -0.037408486 -0.0010378684
0000c0 ba 4a 0a bb 00 21 b0 bd d7 0d b2 bd d8 c4 0f 3d
       -0.002110167 -0.08600044 -0.08694046 0.035099834
0000d0 d5 e6 b5 ba c0 4d 5e 3a c0 f4 01 3a d6 11 18 bc
       -0.0013877997 0.00084802136 0.000495743 -0.009281596
0000e0 f8 b8 27 bd a8 7e 0d 3c ca 26 c0 3c 17 c3 9d bc
       -0.040947884 0.008636154 0.023455996 -0.019258065
0000f0 ce 1b 18 3d 4f c1 31 3d ee 37 18 bc 3f 45 a1 3c
       0.03713589 0.043397244 -0.009290678 0.01968634
000100 cd c2 13 3d 23 ce 8e bd 99 10 4c bb 31 ae 38 3d
       0.03607445 -0.06972911 -0.0031137823 0.045087997
000110 e2 69 90 bc 28 4c 07 bd 4f 8e 4f 3c 23 8f 5c 3c
       -0.017628614 -0.033031613 0.012668206 0.013461861
000120 d8 c8 2f 3d 9c 84 e4 bc 07 c4 7b bb 7a 19 10 bd
       0.04291615 -0.027895264 -0.0038416402 -0.035180546
000130 2d e3 5c bd c1 b9 b2 bc e6 fb 69 bc 22 73 3c 3c
       -0.05392759 -0.02181709 -0.014281249 0.011502059
000140 ae 35 dc bc 4b b8 51 bd f0 0a d4 3c 09 a1 0a 3c
       -0.026881065 -0.051201146 0.025884122 0.008461245
000150 11 d8 09 3d 57 93 16 3d 77 fb bf 3c b8 0d 84 bd
       0.033653323 0.036761608 0.023435337 -0.06447929
000160 a3 d3 65 3c 31 8e 33 3c 85 45 2b bc fa 77 96 3c
       0.014027509 0.010959194 -0.0104535865 0.018367756
000170 42 e0 ed 3c 73 2e 4d bd 2d a1 5c 3d 83 d5 01 3d
       0.029037599 -0.050093126 0.053864647 0.03169776
000180 7c 88 cf 3c 8f 8f 2e bb dc 2f f4 3c 49 2c 4e 3d
       0.025333636 -0.002663586 0.029807977 0.050335202
000190 92 6f 9a bc 5c 7f 14 3d a7 ca 5e 3b 37 22 19 3d
       -0.018852029 0.036254272 0.0033995302 0.037386145
0001a0 90 37 17 bc 19 4d 29 3d 24 0d 90 3c 98 26 1c bd
       -0.009229556 0.04133329 0.017584391 -0.038122743
0001b0 7a f6 63 3d 5d d1 a3 bc 12 7d 98 3c d4 11 98 bd
       0.05565498 -0.019997293 0.018614326 -0.074252754
0001c0 a3 cb 7e 3c 7b 1f ef bc 74 ec 2c 3d ce 55 eb bc
       0.01555148 -0.029189816 0.042217687 -0.028727438
0001d0 77 19 87 bd f4 9b ad 3c 4c 79 ac 3c e6 c6 49 bd
       -0.06596654 0.021192528 0.021053933 -0.04926195
0001e0 c6 63 76 3c 88 ec 73 3b 26 6f 23 3c 70 b1 82 bd
       0.015038436 0.003721984 0.00997523 -0.063815
0001f0 ff a2 cc 3a 7b 7d 99 3c 06 cd 67 3d e3 36 84 3c
       0.0015612541 0.018736592 0.05659201 0.016139453
000200 51 1b 09 bd 09 bb 83 bc 84 67 3b bc 61 42 0b 3d
       -0.033473317 -0.016080396 -0.011438254 0.03399885
000210 20 27 14 ba 67 db 52 3a 4f 98 92 3d f8 6d 1b bd
       -0.0005651582 0.0008043558 0.07157957 -0.03794667
000220 38 ca 2e bd ba 12 5a bd 6d ae 2e 3d 83 26 9a bc
       -0.04267332 -0.053240515 0.042646814 -0.018817192
000230 dd 9b f5 3c 93 d9 1a 3d 95 60 ae 3c 42 fa 27 3d
       0.029981548 0.03780515 0.021286288 0.04101015
000240 ff 5d f9 3c 28 22 2b bd 0a fb 45 3c 42 47 28 3d
       0.030440329 -0.04178062 0.012083778 0.04108358
000250 5f 16 12 bd dc bd f3 bc 34 9e 9e bc 3e 9f 91 b9
       -0.035665866 -0.029753618 -0.019362547 -0.000277752
000260 c4 2c 5b 3b e6 ea 1b 3c ac f5 e8 3a 80 7b 0c 3c
       0.003344343 0.009516453 0.0017773411 0.008574367
000270 62 b9 a5 3d 8d e7 17 bd a1 55 b7 3c 9e 24 32 bd
       0.080919996 -0.03708606 0.022379698 -0.043491952
000280 b2 7d 41 bd fc dd 9a 3c 89 a5 c3 bb e2 2a 15 3d
       -0.047239013 0.018904679 -0.005970661 0.03641785
000290 b0 65 f5 bc d3 03 d2 3b ed a8 58 3c 1c 2a cb 3c
       -0.029955715 0.0064091473 0.013223869 0.024800353
0002a0 72 ae 83 bc 93 bd 3d bd 51 a6 9f bb f3 66 4b bd
       -0.016074393 -0.04632337 -0.0048721214 -0.049658727
0002b0 a1 54 68 bd 6c 7d 2b 3d a5 84 4a bd 6f 5c 0e bd
       -0.056721333 0.04186766 -0.049442906 -0.03475612
0002c0 b5 38 fa bb 60 7a 0f bd 48 16 e2 3c e0 25 5e bc
       -0.0076361545 -0.035028815 0.027598515 -0.013558835
0002d0 b5 81 1f 3d a1 10 e5 bc 25 bb f7 3c 69 a6 b3 bb
       0.038942058 -0.02796203 0.030240605 -0.005482484
0002e0 57 85 15 bd 3d 55 0a 3c a9 ed 1b bd 25 fb b2 bb
       -0.036504116 0.008443174 -0.038068447 -0.0054620677
0002f0 ca 79 9a bc ba 0f 06 bd 5d 38 bc 3c 13 28 0a 3d
       -0.018856902 -0.03272984 0.022976095 0.033729624
000300 16 dd 3c 3c 40 47 d2 bb c4 2d e1 bd 48 3c 3c bd
       0.01152732 -0.006417185 -0.10995057 -0.045955926
000310 08 5c 60 3d 12 23 e4 3d 02 03 a2 bb ed 9f a5 bc
       0.054775268 0.11139502 -0.004944206 -0.02021786
000320 2a 51 c3 3c e1 2d af bc 82 1e 5c bb 5a ab 76 bc
       0.023842413 -0.021384181 -0.003358752 -0.015055502
000330 16 36 e2 3b 2b ed 30 3d 34 af 28 3c c9 fe 0a 3d
       0.00690342 0.04319493 0.010295678 0.03393439
000340 dd fc 84 3c 14 9f 40 3c f1 8b e6 bc 28 16 06 bd
       0.016233856 0.011756677 -0.028142901 -0.032735974
000350 64 7a 22 3d ae a1 41 3d 52 d5 78 bd 6a 7e 09 3b
       0.039667502 0.04727333 -0.060750313 0.002097989
000360 7d 4d b5 3d 06 b5 a3 bc 7d c9 d2 bc 61 89 59 3d
       0.0885267 -0.01998378 -0.025730843 0.05310953
000370 8a c8 27 bd 52 74 fd 3c 82 68 02 bd b4 4a 76 3c
       -0.040962733 0.030939255 -0.031837948 0.015032459
000380 64 1f db bb fc 36 0d 3c 12 36 a0 bb 9f a5 80 3c
       -0.0066870917 0.008619066 -0.004889258 0.015703974
000390 56 e5 00 3d 3e 87 8c 3a 96 aa 2d bc ca bf 6b bd
       0.03146871 0.0010721458 -0.010599753 -0.05755595
0003a0 d3 50 28 3d 32 15 a5 bc 8c b4 30 bc 0d be 52 bc
       0.041092705 -0.020151708 -0.010785233 -0.012862694
0003b0 0f 51 ec 3b 2c 1d 53 3c 08 87 b5 3d b0 20 c3 3c
       0.0072118114 0.012885373 0.08863646 0.023819298
0003c0 29 ad 39 bd 0a 59 c3 3c 66 e4 c5 bc 29 e4 db bc
       -0.045331154 0.023846168 -0.02415676 -0.026842194
0003d0 b2 a2 47 ba 92 e3 90 3d f0 a1 20 bd 83 18 6f bc
       -0.0007615491 0.070746556 -0.039216936 -0.014593246
0003e0 64 a6 2b 3d 82 62 0a 3c 66 9f 7a 3d 5f 06 af 3c
       0.04190673 0.008446338 0.06118717 0.021365343
0003f0 eb 20 0c bd a9 2d 28 bd 32 cc 0f bc 62 dc 66 bd
       -0.03421108 -0.04105917 -0.008776711 -0.056362517
