results/qvpo_HalfCheetah-v3/actor_25_04_22_01_25_13_0.pth (torch, 667057 bytes, 24 tensors)

betas f4 [50]
00000000: 4f28 823b e992 013c 6ad0 413c 76e6 803c
00000010: 59c4 a03c fd81 c03c 851f e03c 109d ff3c
00000020: 5f7d 0f3d 581c 1f3d 84ab 2e3d f12a 3e3d
00000030: b09a 4d3d d1fa 5c3d 644b 6c3d 788c 7b3d
00000040: 0e5f 853d 31f0 8c3d ac79 943d 87fb 9b3d
00000050: c975 a33d 7be8 aa3d a353 b23d 4ab7 b93d
00000060: 7713 c13d 3268 c83d 82b5 cf3d 6efb d63d
00000070: ff39 de3d 3b71 e53d 2ba1 ec3d d5c9 f33d
00000080: 41eb fa3d bb02 013e 3d8c 043e 2c12 083e
00000090: 8a94 0b3e 5b13 0f3e a28e 123e 6406 163e
000000a0: a47a 193e 65eb 1c3e ab58 203e 7ac2 233e
000000b0: d428 273e be8b 2a3e 3aeb 2d3e 4d47 313e
000000c0: fa9f 343e 44f5 373e
0.0039720903 0.007908561 0.011829475 0.015734892 0.019624876 0.023499483 0.02735878 0.031202823
0.035031673 0.03884539 0.04264404 0.04642767 0.05019635 0.053950135 0.057689086 0.06141326
0.06512271 0.068817504 0.072497696 0.076163344 0.0798145 0.083451234 0.08707359 0.09068163
0.09427541 0.09785499 0.10142042 0.10497175 0.108509056 0.112032376 0.11554178 0.11903731
0.12251902 0.12598698 0.12944122 0.13288182 0.13630882 0.13972227 0.14312223 0.14650875
0.1498819 0.15324171 0.15658824 0.15992156 0.16324168 0.1665487 0.16984263 0.17312355
0.17639151 0.17964655

alphas_cumprod f4 [50]
00000000: affb 7e3f 72f7 7c3f 60f9 793f 720a 763f
00000010: 5836 713f 3e8b 6b3f 8719 653f 80f3 5d3f
00000020: 042d 563f 29db 4d3f db13 453f 7eed 3b3f
00000030: 937e 323f 58dd 283f 7c1f 1f3f c959 153f
00000040: e59f 0b3f 1704 023f 242e f13e a7cf de3e
00000050: 0f07 cd3e f3ea bb3e 1b8e ab3e 8bff 9b3e
00000060: 9a4a 8d3e 42ee 7e3e 5613 653e 7107 4d3e
00000070: 14c8 363e da4d 223e 1c8d 0f3e 2fed fc3d
00000080: 2ef0 dd3d 14fa c13d 47de a83d c26d 923d
00000090: 3ef0 7c3d e998 593d 4d74 3a3d 1a23 1f3d
000000a0: 0c49 073d a41b e53c 7c3b c13c 9154 a23c
000000b0: ced4 873c e06a 623c 4ff6 3b3c e66b 1b3c
000000c0: a701 003c 6405 d23b
0.9960279 0.9881507 0.9764614 0.9610969 0.94223547 0.9200934 0.89492077 0.86699677
0.8366244 0.80412537 0.7698342 0.7340926 0.69724387 0.65962744 0.62157416 0.58340126
0.54540855 0.5078749 0.47105515 0.435178 0.40044448 0.3670269 0.33506855 0.304684
0.2759598 0.24895576 0.22370657 0.2002237 0.17849761 0.1585001 0.14018673 0.12349927
0.10836826 0.09471527 0.08245521 0.07149841 0.06175255 0.053124342 0.04552107 0.038851835
0.033028647 0.027967282 0.023587935 0.019815715 0.016580965 0.013819426 0.011472299 0.009486174
0.007812894 0.006409334

alphas_cumprod_prev f4 [50]
00000000: 0000 803f affb 7e3f 72f7 7c3f 60f9 793f
00000010: 720a 763f 5836 713f 3e8b 6b3f 8719 653f
00000020: 80f3 5d3f 042d 563f 29db 4d3f db13 453f
00000030: 7eed 3b3f 937e 323f 58dd 283f 7c1f 1f3f
00000040: c959 153f e59f 0b3f 1704 023f 242e f13e
00000050: a7cf de3e 0f07 cd3e f3ea bb3e 1b8e ab3e
00000060: 8bff 9b3e 9a4a 8d3e 42ee 7e3e 5613 653e
00000070: 7107 4d3e 14c8 363e da4d 223e 1c8d 0f3e
00000080: 2fed fc3d 2ef0 dd3d 14fa c13d 47de a83d
00000090: c26d 923d 3ef0 7c3d e998 593d 4d74 3a3d
000000a0: 1a23 1f3d 0c49 073d a41b e53c 7c3b c13c
000000b0: 9154 a23c ced4 873c e06a 623c 4ff6 3b3c
000000c0: e66b 1b3c a701 003c
1.0 0.9960279 0.9881507 0.9764614 0.9610969 0.94223547 0.9200934 0.89492077
0.86699677 0.8366244 0.80412537 0.7698342 0.7340926 0.69724387 0.65962744 0.62157416
0.58340126 0.54540855 0.5078749 0.47105515 0.435178 0.40044448 0.3670269 0.33506855
0.304684 0.2759598 0.24895576 0.22370657 0.2002237 0.17849761 0.1585001 0.14018673
0.12349927 0.10836826 0.09471527 0.08245521 0.07149841 0.06175255 0.053124342 0.04552107
0.038851835 0.033028647 0.027967282 0.023587935 0.019815715 0.016580965 0.013819426 0.011472299
0.009486174 0.007812894

sqrt_alphas_cumprod f4 [50]
00000000: b77d 7f3f 917a 7e3f 18f8 7c3f 94f8 7a3f
00000010: 057f 783f 1d8f 753f 392d 723f 515e 6e3f
00000020: ed27 6a3f 1f90 653f 6b9d 603f b956 5b3f
00000030: 4dc3 553f abea 4f3f 91d4 493f dc88 433f
00000040: 810f 3d3f 7570 363f 9fb3 2f3f cee0 283f
00000050: a1ff 213f 8217 1b3f 952f 143f b04e 0d3f
00000060: 4a7b 063f fd76 ff3e f329 f23e f419 e53e
00000070: 9550 d83e 7bd6 cb3e 59b3 bf3e eeed b33e
00000080: 088c a83e 8492 9d3e 5805 933e 96e7 883e
00000090: f276 7e3e d504 6c3e 2c7a 5a3e dcd6 493e
000000a0: 7d19 3a3e 723f 2b3e 0845 1d3e 9125 103e
000000b0: 86db 033e 3bc1 f03d de5b db3d 1378 c73d
000000c0: 1e06 b53d 9df5 a33d
0.998012 0.9940577 0.9881606 0.9803555 0.97068816 0.959215 0.94600254 0.93112665
0.9146717 0.89673036 0.877402 0.85679203 0.8350113 0.8121745 0.78839976 0.76380706
0.7385178 0.71265346 0.68633455 0.65968025 0.63280684 0.60582745 0.57885104 0.5519819
0.52531874 0.49895468 0.4729763 0.44746363 0.4224898 0.39812073 0.3744152 0.35142463
0.32919335 0.30775845 0.28715014 0.26739186 0.24850062 0.23048718 0.21335667 0.19710869
0.18173786 0.16723421 0.15358365 0.1407683 0.1287671 0.11755606 0.10710882 0.09739699
0.088390574 0.080058314

sqrt_one_minus_alphas_cumprod f4 [50]
00000000: 1813 813d 11ef de3d e51a 1d3e f3f8 493e
00000010: 5a1c 763e 1cbb 903e 34f8 a53e 72b9 ba3e
00000020: faf2 ce3e 7d99 e23e 93a2 f53e 6e02 043f
00000030: 0edc 0c3f a85a 153f 577b 1d3f dc3b 253f
00000040: 999a 2c3f 9296 333f 6a2f 3a3f 5865 403f
00000050: 2939 463f 2fac 4b3f 3cc0 503f 9777 553f
00000060: f2d4 593f 57db 5d3f 248e 613f fcf0 643f
00000070: b607 683f 57d6 6a3f fd60 6d3f ddab 6f3f
00000080: 31bb 713f 2e93 733f fd37 753f b2ad 763f
00000090: 40f8 773f 781b 793f fe1a 7a3f 4afa 7a3f
000000a0: a1bc 7b3f 1265 7c3f 75f6 7c3f 6e73 7d3f
000000b0: 68de 7d3f 9739 7e3f fe86 7e3f 6bc8 7e3f
000000c0: 7cff 7e3f a42d 7f3f
0.0630247 0.10885442 0.1534229 0.19723873 0.24034253 0.28267753 0.32415926 0.3646961
0.4041975 0.44257727 0.47975597 0.5156621 0.55023277 0.58341455 0.61516327 0.64544463
0.674234 0.7015163 0.727286 0.7515464 0.7743097 0.79559606 0.81543326 0.83385605
0.85090554 0.8666281 0.88107514 0.8943021 0.90636766 0.91733307 0.9272612 0.9362162
0.94426256 0.95146453 0.95788556 0.9635879 0.96863174 0.9730754 0.97697437 0.9803816
0.983347 0.9859172 0.98813564 0.99004257 0.9916749 0.99306625 0.9942473 0.99524564
0.9960859 0.9967902

log_one_minus_alphas_cumprod f4 [50]
00000000: 1fe9 b0c0 84ef 8dc0 7cf1 6fc0 9fc9 4fc0
00000010: 047d 36c0 aeb8 21c0 d131 10c0 c91c 01c0
00000020: e5e5 e7bf 08ad d0bf bb06 bcbf ba8c a9bf
00000030: 1df0 98bf 8cf2 89bf a3c3 78bf 6829 60bf
00000040: b6d1 49bf 7d82 35bf fc09 23bf 183d 12bf
00000050: 0af6 02bf d126 eabe bbee d0be 1d0e babe
00000060: 3e54 a5be b194 92be aca6 81be 0dc9 64be
00000070: de56 49be 05b6 30be 3daa 1abe 3bfb 06be
00000080: efe8 eabd a9c9 cbbd 063d b0bd 58ed 97bd
00000090: f08a 82bd 2b97 5fbd ddd4 3ebd a34f 22bd
000000a0: eb91 09bd 685f e8bc 428c c3bc e2f5 a3bc
000000b0: 42f8 88bc 3dff 63bc 640c 3dbc ec29 1cbc
000000c0: 6f82 00bc 8ab2 d2bb
-5.528457 -4.4354877 -3.749114 -3.246681 -2.8513803 -2.526897 -2.2530406 -2.017382
-1.8117033 -1.6302805 -1.4689554 -1.3246071 -1.1948277 -1.0777144 -0.9717352 -0.8756318
-0.7883562 -0.70902234 -0.6368711 -0.5712447 -0.51156676 -0.4573274 -0.40807137 -0.36338893
-0.32290834 -0.28629068 -0.25322473 -0.2234232 -0.19662043 -0.17256935 -0.15104003 -0.13181774
-0.1147021 -0.09950573 -0.08605389 -0.074183166 -0.063741565 -0.054587524 -0.04658972 -0.03962673
-0.033586424 -0.028365806 -0.023870591 -0.020014707 -0.016719941 -0.013915834 -0.011538599 -0.009531479
-0.007843598 -0.006429975

sqrt_recip_alphas_cumprod f4 [50]
00000000: 4641 803f e1c3 803f 9a88 813f 9d90 823f
00000010: 7fdd 833f 4471 853f 634e 873f c777 893f
00000020: dff0 8b3f a4bd 8e3f 9fe2 913f fd64 953f
00000030: 954a 993f 029a 9d3f ac5a a23f e294 a73f
00000040: f451 ad3f 469c b33f 7a7f ba3f 8d08 c23f
00000050: ff45 ca3f 0248 d33f b020 dd3f 44e4 e73f
00000060: 5da9 f33f a744 0040 3750 0740 4407 0f40
00000070: a37b 1740 59c1 2040 e9ee 2a40 a91d 3640
00000080: 246a 4240 8ef4 4f40 42e1 5e40 5e59 6f40
00000090: b7c5 8040 1bd6 8a40 cdfb 9540 d358 a240
000000a0: ea13 b040 3159 bf40 045b d040 eb52 e340
000000b0: bd82 f840 f31a 0841 7b61 1541 b046 2441
000000c0: c803 3541 b4da 4741
1.001992 1.0059777 1.0119812 1.0200382 1.030197 1.0425191 1.0570797 1.0739678
1.0932883 1.1151624 1.1397284 1.1671444 1.1975886 1.2312624 1.2683921 1.309231
1.3540635 1.4032066 1.4570153 1.515886 1.5802611 1.650635 1.72756 1.8116536
1.903606 2.0041902 2.114271 2.2348185 2.3669212 2.511801 2.670832 2.8455603
3.0377283 3.2493014 3.4824986 3.7398295 4.024135 4.338636 4.6869874 5.073343
5.502431 5.9796376 6.5111103 7.103872 7.7659593 8.506579 9.336299 10.267258
11.313423 12.490894

sqrt_recipm1_alphas_cumprod f4 [50]
00000000: ba54 813d 3f44 e03d c8fc 1e3e 0d05 4e3e
00000010: eb8a 7d3e 7be2 963e 6971 af3e 3789 c83e
00000020: 4b41 e23e feb1 fc3e 87fa 0b3f fc12 1a3f
00000030: 1cb1 283f e7e4 373f a9bf 473f 4954 583f
00000040: 76b7 693f d3ff 7b3f 29a3 873f 3ad3 913f
00000050: 4d9f 9c3f 3518 a83f 9c50 b43f 415d c13f
00000060: 3f55 cf3f 5452 de3f 4371 ee3f 39d2 ff3f
00000070: 9c4c 0940 5377 1340 f07f 1e40 f47f 2a40
00000080: 1494 3740 b1dc 4540 537e 5540 46a2 6640
00000090: 4677 7940 2619 8740 b787 9240 7929 9f40
000000a0: 4425 ad40 57a7 bc40 2ee2 cd40 720f e140
000000b0: 1a71 f640 5c29 0741 7e85 1441 be7e 2341
000000c0: 674e 3441 7b36 4741
0.063149884 0.10950517 0.15526116 0.20119114 0.24760024 0.29469666 0.34266213 0.39167187
0.4419044 0.49354547 0.5467915 0.6018522 0.6589525 0.7183365 0.78026825 0.8450361
0.91295564 0.9843723 1.0596668 1.1392586 1.2236115 1.3132387 1.40871 1.5106584
1.619789 1.7368875 1.8628315 1.998603 2.1453009 2.304158 2.4765587 2.6640596
2.868413 3.091595 3.3358352 3.6036544 3.8979049 4.22182 4.5790668 4.9738126
5.410799 5.895427 6.43386 7.0331354 7.7013063 8.4475975 9.282591 10.218443
11.269141 12.450801

posterior_variance f4 [50]
00000000: 0000 0000 2abe 2d3b a221 c33b e0fb 1b3c
00000010: c28b 583c fd29 8b3c b66e aa3c 90f2 c93c
00000020: e4a0 e93c 23b6 043d 98a5 143d 489b 243d
00000030: 7994 343d de8e 443d 9288 543d d37f 643d
00000040: 1073 743d 6930 823d d323 8a3d 1b13 923d
00000050: 92fd 993d 95e2 a13d 80c1 a93d b399 b13d
00000060: 916a b93d 8933 c13d 07f4 c83d 7dab d03d
00000070: 7059 d83d 63fd df3d ec96 e73d a125 ef3d
00000080: 2ea9 f63d 4621 fe3d d8c6 023e 1c77 063e
00000090: 6021 0a3e 99c5 0d3e c463 113e e5fb 143e
000000a0: 078e 183e 381a 1c3e 8fa0 1f3e 2421 233e
000000b0: 119c 263e 7d11 2a3e 8381 2d3e 4eec 303e
000000c0: ff51 343e bdb2 373e
0.0 0.0026511052 0.005954937 0.009520501 0.013216915 0.016987795 0.020804744 0.024651796
0.028519101 0.03240026 0.036290735 0.04018715 0.044086907 0.04798781 0.051888056 0.055785965
0.059680045 0.0635689 0.06745114 0.0713255 0.07519068 0.07904545 0.0828886 0.08671894
0.09053529 0.09433658 0.098121695 0.10188959 0.10563934 0.109370016 0.11308083 0.11677099
0.12043987 0.1240869 0.12771165 0.13131374 0.13489294 0.13844909 0.14198214 0.14549215
0.14897929 0.15244377 0.15588592 0.15930611 0.16270472 0.16608234 0.16943936 0.17277643
0.17609404 0.17939277

posterior_log_variance_clipped f4 [50]
00000000: f134 38c2 53d9 bdc0 fff3 a3c0 17f0 94c0
00000010: b470 8ac0 8868 82c0 42d8 77c0 68fc 6cc0
00000020: dba8 63c0 627e 5bc0 813c 54c0 96b5 4dc0
00000030: 2cc8 47c0 115b 42c0 cb5a 3dc0 0ab8 38c0
00000040: 8666 34c0 425c 30c0 0791 2cc0 f9fd 28c0
00000050: 569d 25c0 346a 22c0 6260 1fc0 3d7c 1cc0
00000060: a0ba 19c0 c318 17c0 3994 14c0 da2a 12c0
00000070: b8da 0fc0 18a2 0dc0 6d7f 0bc0 4e71 09c0
00000080: 7376 07c0 b18d 05c0 f3b5 03c0 3dee 01c0
00000090: a435 00c0 9d16 fdbf e8dc f9bf afbc f6bf
000000a0: 91b4 f3bf 48c3 f0bf 9ee7 edbf 7220 ebbf
000000b0: bc6c e8bf 76cb e5bf ba3b e3bf a4bc e0bf
000000c0: 674d debf 3eed dbbf
-46.0517 -5.932779 -5.1235347 -4.654308 -4.3262577 -4.07526 -3.8725743 -3.7029057
-3.5571811 -3.4295888 -3.3161929 -3.2142081 -3.1215925 -3.0368083 -2.9586666 -2.8862329
-2.8187575 -2.755631 -2.6963518 -2.6405013 -2.587728 -2.5377321 -2.4902577 -2.445083
-2.4020157 -2.3608863 -2.3215468 -2.2838655 -2.2477245 -2.2130184 -2.1796525 -2.1475406
-2.1166046 -2.0867732 -2.0579803 -2.030166 -2.003274 -1.9772526 -1.952054 -1.9276332
-1.903948 -1.8809595 -1.8586309 -1.8369277 -1.8158183 -1.7952716 -1.7752602 -1.7557569
-1.7367371 -1.7181776

posterior_mean_coef1 f4 [50]
00000000: a0ff 7f3f b385 2a3f aec7 ff3e 31a2 cc3e
00000010: 8687 aa3e b128 923e ffbc 7f3e b042 633e
00000020: 9f72 4c3e bfbf 393e 2221 2a3e 31df 1c3e
00000030: b476 113e 4587 073e 1291 fd3d 2006 ee3d
00000040: 5a17 e03d 7f80 d33d dd0a c83d 2b8a bd3d
00000050: 2cda b33d fedc aa3d c979 a23d d39b 9a3d
00000060: b331 933d c62c 8c3d bb80 853d 5546 7e3d
00000070: c216 723d 1d64 663d 4a22 5b3d 4547 503d
00000080: ecca 453d b8a6 3b3d 8dd5 313d 8753 283d
00000090: c61d 1f3d 5432 163d f08f 0d3d f735 053d
000000a0: 7048 fa3c bdb5 ea3c a1b4 db3c 2d46 cd3c
000000b0: 846b bf3c c125 b23c be75 a53c 0b5c 993c
000000c0: c9d8 8d3c 9eeb 823c
0.9999943 0.6661026 0.4995703 0.39967492 0.3330652 0.2854667 0.2497444 0.22193408
0.199656 0.18139552 0.16614202 0.15319516 0.14205438 0.13235195 0.123811856 0.11622262
0.10941954 0.10327243 0.09767697 0.09254869 0.08781847 0.08342932 0.07933385 0.07549252
0.07187214 0.06844477 0.06518694 0.062078793 0.059103735 0.05624782 0.053499497 0.050849218
0.048289225 0.045813292 0.04341655 0.041095283 0.038846754 0.03666909 0.034561098 0.032522168
0.030552119 0.028651113 0.026819529 0.025057876 0.023366697 0.021746518 0.020197745 0.018720647
0.017315285 0.015981492

posterior_mean_coef2 f4 [50]
00000000: 0000 0000 d3f3 aa3e ff1a 003f caab 193f
00000010: cab5 2a3f 0fe0 363f d2fd 3f3f 8a12 473f
00000020: abb9 4c3f 3a56 513f 042a 553f 8e62 583f
00000030: 5120 5b3f fe7a 5d3f 6484 5f3f fd49 613f
00000040: 47d6 623f 8531 643f 3b62 653f b96d 663f
00000050: 4958 673f 7a25 683f 3ad8 683f 0673 693f
00000060: f5f7 693f d768 6a3f 3dc7 6a3f 7c14 6b3f
00000070: d251 6b3f 5480 6b3f 00a1 6b3f bab4 6b3f
00000080: 5fbc 6b3f b5b8 6b3f 7faa 6b3f 7092 6b3f
00000090: 3b71 6b3f 8247 6b3f ea15 6b3f 0ddd 6a3f
000000a0: 839d 6a3f dd57 6a3f a60c 6a3f 60bc 693f
000000b0: 8967 693f 9b0e 693f 04b2 683f 3252 683f
000000c0: 81ef 673f 4f8a 673f
0.0 0.33389148 0.5004119 0.60027754 0.6668364 0.71435636 0.74996674 0.77762663
0.79970807 0.81772196 0.83267236 0.8452538 0.85596186 0.86515796 0.8731139 0.8800352
0.8860821 0.8913806 0.8960301 0.90011173 0.9036909 0.90682185 0.90954936 0.91191137
0.9139398 0.9156622 0.91710263 0.9182813 0.9192172 0.9199269 0.9204254 0.9207264
0.92084306 0.92078716 0.9205703 0.9202032 0.9196965 0.9190599 0.91830313 0.91743547
0.91646594 0.9154032 0.9142555 0.9130306 0.9117361 0.9103791 0.9089663 0.9075042
0.9059983 0.9044542

model.time_mlp.1.weight f4 [256, 32]
00000000: b7a4 6dbd a0c7 273e 01ea f4bb 9570 7abd
00000010: eb0d ea3c bd03 87bd 8c48 93bd 1986 e9bd
00000020: 5621 5b3e 10cc 5b3e 613b 093d 68bd 05bc
00000030: 70e7 2c3d d810 c63d 7ee2 21bd 7869 a6bd
00000040: 9ea6 cfbd d591 803d 7837 23bc ec66 4b3d
00000050: 83cf 3cbe 4525 263d e027 49be 2d03 04be
00000060: 64e5 9d3d 7621 52bc c3db 73be b492 8c3c
00000070: 8753 a1bd f87b 94bd e942 afbc 6639 fa3d
00000080: d0d6 80bd f4df 51bd e2c6 623d f821 0c3e
00000090: 4306 cabd e781 363c 6a8d ae3c 16d6 873d
000000a0: ba68 fe3d a9dc 2abe 5288 6ebd af45 8f3c
000000b0: 6e4f 063e ba31 98bd 52e0 85bd bc80 e4bd
000000c0: 845c a83d ba6d 003e 2bb3 27bc 92f8 24be
000000d0: 96ea 0ebe 933a 22bc 0b08 1dbc 8877 883d
000000e0: 0db2 50bd 3c8e b43d 2926 8c3d 149b 9fbc
000000f0: 3351 c13c 106b f6bc 3f43 41be 421a 4dbd
00000100: f387 103d 874e f13c 1ad3 8c3d 7a73 84be
00000110: c1e4 5abc f65f 41ba fabd 923b 2829 89bc
00000120: 2a6b 7e3b 9258 423d bad2 16be 39b1 35be
00000130: baa5 3cbd 01b7 033e 88d0 c03d 76c8 28bc
00000140: 1d15 a8bc a041 b03c 1829 013e 530d 2cbd
00000150: 124f b5bd 9de0 2b3e 710f 97bb 6e3a 8cbd
00000160: 59da f1bd 6b79 fd3b 1e66 0abe 56ea b6bd
00000170: eef9 6fbe e14c 01be c9b1 2cbe c71c efbc
00000180: d29f 283d 88b8 013e 55ce 0abe a7ee abbc
00000190: 70b1 e4b9 ba68 7fbd 358a 6e3d ce78 203e
000001a0: cedf 37bd 3012 4fbd 1766 9b3d 5d72 34be
000001b0: d9a8 04bd 6012 3ebd ab6d f63c 1f3e a03d
000001c0: cf45 d83c d271 0fbe 90ba e3bb 205f 20be
000001d0: 31f1 d2bd b9ef 7ebc 1e20 983d c1a0 f13d
000001e0: c66e 46be baf5 553d 5ea2 11be 243e 41be
000001f0: 5b68 833d d1f6 86bd c5b1 3e3c 5e74 303d
00000200: 1fad e13d 8631 97bd 5b77 6a3d 2036 04be
00000210: 1946 4f3c 5709 c9bd 28d7 bebd 0bf2 a2bd
00000220: 1d39 68bd 3a68 28bd 265d afbd f8b5 743d
00000230: 7a61 a13d 23d7 b63b d84e 50bd f074 c9bd
00000240: 2c1d 893d b93d 923d 8bfb 00bd c084 153e
00000250: f56c 83bd bdb3 013c 2fc3 f73c 2492 a73d
00000260: e7f0 923d ba59 cfbd 92fc 283e 6a9d 05be
00000270: 1429 343d 1b4e b13d f38e 2abb 806e 493d
00000280: 8ad6 edbc 6c61 65bc 1e8c c6bb 01cd c7bd
00000290: 28e2 95bc 708f 81bd 6768 80bd c13d 3f3e
000002a0: 5b4c 2abd af2a 59bd 0031 9c3d 3653 8bbd
000002b0: 5f48 edbd 9823 9bbb dd5e 163b 5c16 0bba
000002c0: a943 873d 574a 9e3d 0558 57bc d883 0b3c
000002d0: 75ea 0bbd a54f 5b3c bc7a 53bd f27e ab3d
000002e0: 9fa3 503d fb9b 8a3d e5c7 d83d 0eca 1bbd
000002f0: 2ce8 3f3d 097f e63d fa16 c13d 6f53 2f3d
00000300: 66a9 b23d f9b7 563d eb45 3dbe 225e 513c
00000310: bb96 c33d 25a9 883d 6a03 1d3d ff8b 51be
00000320: fe0a ca3c cad8 b8bc 2599 f5bc 940e aa3c
00000330: 7d9e fc3d 2dbb 023e 8262 2cbd 4119 243e
00000340: 6d8f c7bb 505e bfbd 9475 2fbc 1ae7 5dbd
00000350: c31b 5fbb c0e3 d33d 9ce6 8abb e553 b5bd
00000360: 62fd d4bd 5122 bc3d 9e62 bbbd 426e b7bc
00000370: 92b1 29bd 24dc fc3c cfa7 813d 41ec 38be
00000380: 3c86 33bd 27a0 373b d2c8 3cbc b11b 443d
00000390: 807e 38bd 6553 03be d298 8cbd 0a1c 04be
000003a0: afb9 9ebc b48f 07bd ea38 20bd 3b41 24bd
000003b0: a556 79bd 3fb0 af3d c880 c6bd 3db4 213e
000003c0: 1397 75bd 3a34 903b 6e76 163e f19f 713c
000003d0: deba d8bc 1ecd 1abe 5503 c33d 241f 22bd
000003e0: 0a02 45bd c8d0 283d 72fb 48bd f13d e83d
000003f0: 0a0d 013d 8fbc b63d 708f 953d bc0b 9dbd
-0.058018412 0.16384745 -0.0074741845 -0.061142523 0.02857109 -0.0659251 -0.071915716 -0.1140253
0.21399435 0.21464562 0.033503894 -0.008162834 0.042212903 0.096711814 -0.03952264 -0.08125585
-0.101392016 0.06277815 -0.009961955 0.0496587 -0.18438534 0.040562887 -0.19644117 -0.12891836
0.077097684 -0.0128253605 -0.23814301 0.017159797 -0.0787726 -0.07250208 -0.02139421 0.12217979
-0.06290972 -0.05123897 0.05536545 0.13684833 -0.098644756 0.01113937 0.021307666 0.066326305
0.12422319 -0.16685738 -0.058235474 0.017489282 0.13116238 -0.074313596 -0.06536926 -0.11157367
0.08220771 0.12541857 -0.010235588 -0.16110447 -0.13956675 -0.0099016605 -0.009584437 0.06663424
-0.050951052 0.088161916 0.06843216 -0.019483127 0.02359829 -0.030080348 -0.18873309 -0.05007387
0.0352859 0.02945639 0.06876202 -0.25869352 -0.013360203 -0.0007376665 0.0044782134 -0.016743258
0.00388212 0.04744775 -0.14728823 -0.17743386 -0.046056487 0.12862779 0.09414774 -0.0103017
-0.02051788 0.021515667 0.12613332 -0.042004894 -0.08852972 0.16784902 -0.004609995 -0.06847082
-0.11809225 0.0077354214 -0.13515517 -0.08931415 -0.23435184 -0.12626983 -0.16864695 -0.029188527
0.04116804 0.1266805 -0.13555272 -0.020987822 -0.0004361975 -0.062355734 0.058237273 0.15671083
-0.04489117 -0.050554454 0.075878315 -0.17621751 -0.03238759 -0.046404243 0.03008159 0.07824349
0.026400475 -0.14008263 -0.00694973 -0.15661287 -0.1029991 -0.015560084 0.07428001 0.117982395
-0.19378194 0.052236296 -0.14222094 -0.18871361 0.064163886 -0.06590045 0.011639063 0.043079726
0.11019348 -0.07382493 0.057242732 -0.12911272 0.01265099 -0.098162346 -0.093183815 -0.07956322
-0.056695092 -0.041115023 -0.085626885 0.05974385 0.0787992 0.0055798455 -0.05085644 -0.09836757
0.06695017 0.07140679 -0.03148989 0.14601421 -0.06417266 0.007916388 0.030244438 0.08182171
0.07174855 -0.10124536 0.16502598 -0.1304833 0.043984488 0.086574756 -0.0026025146 0.049177647
-0.029032964 -0.014000278 -0.0060591837 -0.09755898 -0.018296316 -0.06326187 -0.06269913 0.18675901
-0.041576724 -0.053019222 0.076265335 -0.068029806 -0.11586069 -0.0047344677 0.0022944727 -0.0005305761
0.06604702 0.07729023 -0.013143544 0.008515321 -0.034159143 0.013385688 -0.05163072 0.08373822
0.05093729 0.06768032 0.10585002 -0.03803449 0.046852276 0.11254699 0.094282106 0.042804178
0.087237164 0.052421544 -0.18483703 0.012778791 0.09550234 0.06672887 0.038333334 -0.2046356
0.024663445 -0.02256431 -0.029980252 0.020758905 0.12334917 0.12766714 -0.042086132 0.16025259
-0.0060900957 -0.093441606 -0.010709185 -0.054175474 -0.0034043647 0.10346174 -0.0042389166 -0.08853892
-0.103998914 0.09186233 -0.09149669 -0.022391442 -0.04142911 0.03086669 0.06330835 -0.18058874
-0.043829188 0.0028019042 -0.011522489 0.04787797 -0.045042515 -0.12824781 -0.06865086 -0.12901321
-0.01937565 -0.03309603 -0.039116777 -0.04010127 -0.060873646 0.08578538 -0.09692532 0.15791412
-0.05995853 0.004400757 0.14693615 0.014747606 -0.026456293 -0.15117308 0.0952212 -0.03958048
-0.048097648 0.041214734 -0.049067922 0.113399394 0.031506576 0.089226834 0.07302749 -0.07668254

model.time_mlp.1.bias f4 [256]
00000000: fc73 1138 f54f 85b8 2ce7 3738 b414 54b8
00000010: 3a83 80b8 13c5 81b8 0fd9 aab7 501f 8e38
00000020: 6568 9e35 a6b9 2d38 bf02 8538 8f82 9838
00000030: c5ef 6f38 d9c9 51b7 f2d3 9938 a6d1 7038
00000040: f1c9 a838 646f 5e38 9c4d 8138 f476 5238
00000050: c1c4 0938 12b1 a737 bcd2 8bb8 31f4 50b8
00000060: dc03 6c38 d1ce 0538 7613 5bb8 4a1b 8138
00000070: cfe5 7db7 4d68 83b7 586c 7c38 b0b7 63b8
00000080: cfc8 dd37 2135 63b8 5abd dbb6 1560 3a38
00000090: 72bb 7b38 a6b6 34b8 dead a138 f2e9 af38
000000a0: 015f 3fb8 c868 8638 1867 7d38 a68d 8238
000000b0: a80a 6738 d434 3438 5b72 61b8 a33c 31b8
000000c0: 82a3 8438 0cc4 8a38 c844 ec37 e99a 8eb8
000000d0: a31a 0538 db51 6838 3e80 a9b7 4be7 4f38
000000e0: 0ac8 d8b7 ee72 5c38 3ff4 f3b7 3ef1 9938
000000f0: 0516 59b8 39ea 76b8 8541 2db8 c9fa ed37
00000100: 58d9 87b8 e0c0 9538 a260 8038 d922 95b8
00000110: dc0b 7db8 e496 7d38 75b0 8638 4034 37b8
00000120: 17e6 a4b8 4f4f 81b8 0c89 97b7 ef09 7638
00000130: dbc0 7a38 ee8a a5b8 2f21 0d38 300b a738
00000140: 4fe1 2fb8 aa06 8cb8 16c7 a0b8 d84f 5838
00000150: e8c9 7938 1547 8c38 52d0 9e38 91d8 8bb8
00000160: a549 5f38 e583 80b8 ce71 4bb8 087c 93b8
00000170: 4b07 5b38 85b6 9738 f08c 6738 18f5 8e38
00000180: 36fe 9538 3912 0db6 bb72 9438 eb38 41b8
00000190: 025b 2835 05b6 07b8 78f2 06b7 b50c 6238
000001a0: 796a 92b8 7107 53b8 0c87 7db6 d694 3eb8
000001b0: 75d3 2cb8 a71f 9ab8 7783 f3b7 1d84 79b8
000001c0: d042 5bb8 5fa0 5db8 24be 8ab8 3055 0e37
000001d0: 0c91 a1b8 9c40 f2b7 1628 4338 3fa5 ff37
000001e0: c4a0 9038 8a7e b1b8 01e3 12b8 ec6b 1138
000001f0: 8982 90b8 c29d 2a38 2222 4eb8 31dc 98b8
00000200: 532a 8037 87ba 65b8 5de0 7738 6d97 0738
00000210: 8e09 3838 e9a4 a638 344e 8eb8 48cc 5838
00000220: 8582 a3b8 680e bc37 44b9 adb8 4489 8ab8
00000230: 8341 7338 11e2 45b8 81d7 5938 8bc5 8938
00000240: e606 9d38 0176 b9b7 ec7d a838 44ac ad38
00000250: 80ba 7d38 26e8 66b8 be1b 58b8 47f2 1b38
00000260: 8069 9538 e6ff 6537 b6ee 9438 eb71 9138
00000270: e810 3eb8 6f6a 9bb8 69b0 4238 61e8 b637
00000280: 0ae8 9ab8 945c 2738 d24c 9638 f7db 8038
00000290: 06ab 86b8 2074 92b8 32a8 8438 b1e0 85b8
000002a0: be52 8d38 e408 f0b7 43ee 4538 9a3e 7237
000002b0: cf18 8bb8 f2f3 ad37 c6ba 8838 95fa 8538
000002c0: 7f47 51b8 51ad 9fb7 2b35 9bb8 cd24 8a38
000002d0: eeec 97b8 d866 cab7 39e6 7238 4655 0938
000002e0: e03d 84b8 1b50 acb8 6f48 1b38 3b8d 1038
000002f0: a23f 0138 f9c2 1d37 2f9f 5a38 3095 0e38
00000300: 4b9c 8238 1836 80b8 0864 1438 ea5a 9538
00000310: ae2c db37 b288 e037 fff7 3138 4922 53b8
00000320: 0dcb 8338 1d6a 0038 f272 0d38 126d 0b38
00000330: 1417 8db8 072d 3d38 ac4e 4db6 a93b a2b8
00000340: 8ee7 8238 04fc 67b8 a052 b737 de12 5a38
00000350: e204 8438 d04c 3c38 a5d5 a3b8 663d 2638
00000360: 80ee f836 c21b b036 f29b 9138 e0f6 90b8
00000370: 82ff 1eb8 9ee1 80b8 66b8 5c38 26f4 9cb8
00000380: 32ec 7038 da5d 2d38 b1a8 9a38 ff14 5fb8
00000390: 538e 68b8 97ef 8d38 010e 9338 f27d a5b8
000003a0: 3df4 4bb8 7d33 9238 6de8 8b38 0ce8 0db8
000003b0: 150c 8038 836b 9738 6718 bb37 e277 a238
000003c0: 57e2 3f38 b15b 3038 e140 9338 7268 9c38
000003d0: 3417 5e38 c497 8cb8 e10e 53b5 9178 f5b7
000003e0: 04a4 7438 5f59 5bb8 8b99 a3b8 2ab9 3e38
000003f0: a4a0 a038 6905 0038 677e 9db8 0b9e a2b8
3.4678713e-05 -6.356827e-05 4.3845896e-05 -5.056402e-05 -6.1279585e-05 -6.187907e-05 -2.0366655e-05 6.77692e-05
1.18023e-06 4.1419313e-05 6.342446e-05 7.272243e-05 5.7205343e-05 -1.2504367e-05 7.3350864e-05 5.741571e-05
8.048479e-05 5.3032665e-05 6.165655e-05 5.0178685e-05 3.2846587e-05 1.9990406e-05 -6.667289e-05 -4.9818485e-05
5.627038e-05 3.1902284e-05 -5.2231793e-05 6.156282e-05 -1.5133482e-05 -1.5664986e-05 6.0182385e-05 -5.429209e-05
2.6438762e-05 -5.4170498e-05 -6.548752e-06 4.443534e-05 6.0017635e-05 -4.308545e-05 7.7094635e-05 8.388226e-05
-4.5626428e-05 6.409135e-05 6.0415914e-05 6.225267e-05 5.5084616e-05 4.2964544e-05 -5.3750682e-05 -4.225656e-05
6.324706e-05 6.616869e-05 2.8165421e-05 -6.799942e-05 3.173448e-05 5.5389344e-05 -2.0206087e-05 4.9568054e-05
-2.5842357e-05 5.2559124e-05 -2.9081593e-05 7.3405434e-05 -5.175734e-05 -5.8869107e-05 -4.1307434e-05 2.8369383e-05
-6.477785e-05 7.1407994e-05 6.121515e-05 -7.1113645e-05 -6.0330945e-05 6.046043e-05 6.4224856e-05 -4.367926e-05
-7.862987e-05 -6.165972e-05 -1.806442e-05 5.8660222e-05 5.9784255e-05 -7.893691e-05 3.3647924e-05 7.9652644e-05
-4.1933086e-05 -6.6769615e-05 -7.666477e-05 5.1572773e-05 5.9554266e-05 6.68896e-05 7.57283e-05 -6.668375e-05
5.323593e-05 -6.128083e-05 -4.850496e-05 -7.032609e-05 5.222046e-05 7.234238e-05 5.520595e-05 6.81674e-05
7.152224e-05 -2.1021244e-06 7.07856e-05 -4.6067795e-05 6.271731e-07 -3.2356027e-05 -8.043477e-06 5.3894433e-05
-6.9816546e-05 -5.031325e-05 -3.7778545e-06 -4.5438144e-05 -4.120493e-05 -7.349188e-05 -2.9029075e-05 -5.9489266e-05
-5.2275893e-05 -5.2839863e-05 -6.615769e-05 8.483694e-06 -7.704095e-05 -2.8878734e-05 4.6528956e-05 3.0475318e-05
6.8964e-05 -8.4635874e-05 -3.5020526e-05 3.4671204e-05 -6.890769e-05 4.0678082e-05 -4.9146016e-05 -7.288939e-05
1.5278498e-05 -5.477157e-05 5.9098344e-05 3.2327534e-05 4.3877917e-05 7.946214e-05 -6.785654e-05 5.1688665e-05
-7.796757e-05 2.2418055e-05 -8.283791e-05 -6.6059205e-05 5.7996727e-05 -4.7179e-05 5.1937535e-05 6.569464e-05
7.487628e-05 -2.2108668e-05 8.034319e-05 8.28137e-05 6.0493592e-05 -5.505248e-05 -5.152425e-05 3.7180518e-05
7.1245246e-05 1.3709045e-05 7.101653e-05 6.935358e-05 -4.5315275e-05 -7.410801e-05 4.64175e-05 2.18043e-05
-7.386513e-05 3.9902123e-05 7.166866e-05 6.144487e-05 -6.4214735e-05 -6.9834525e-05 6.325579e-05 -6.383786e-05
6.738816e-05 -2.861437e-05 4.719036e-05 1.44389e-05 -6.6326575e-05 2.0736803e-05 6.5197746e-05 6.388609e-05
-4.989607e-05 -1.9034984e-05 -7.400879e-05 6.5872075e-05 -7.244373e-05 -2.4128167e-05 5.7911708e-05 3.2742762e-05
-6.3057756e-05 -8.21652e-05 3.702234e-05 3.4463807e-05 3.081526e-05 9.403325e-06 5.21235e-05 3.399438e-05
6.227995e-05 -6.1135914e-05 3.537911e-05 7.121808e-05 2.612764e-05 2.6766535e-05 4.2431053e-05 -5.033825e-05
6.284388e-05 3.0616404e-05 3.372407e-05 3.3241762e-05 -6.7277026e-05 4.5103046e-05 -3.0593174e-06 -7.7358745e-05
6.2420135e-05 -5.53094e-05 2.1853775e-05 5.199282e-05 6.29516e-05 4.489423e-05 -7.81224e-05 3.9634666e-05
7.418741e-06 5.24844e-06 6.943186e-05 -6.912439e-05 -3.7908096e-05 -6.14554e-05 5.2623822e-05 -7.484136e-05
5.7440433e-05 4.133382e-05 7.3747135e-05 -5.3186897e-05 -5.544566e-05 6.768031e-05 7.012115e-05 -7.891272e-05
-4.8626436e-05 6.971413e-05 6.671329e-05 -3.383313e-05 6.105766e-05 7.220267e-05 2.23035e-05 7.747092e-05
4.5748744e-05 4.2047064e-05 7.021591e-05 7.458114e-05 5.2950534e-05 -6.703989e-05 -7.8625277e-07 -2.9262419e-05
5.8326885e-05 -5.2296902e-05 -7.801045e-05 4.5471978e-05 7.659316e-05 3.0522617e-05 -7.509888e-05 -7.7542e-05

model.time_mlp.3.weight f4 [32, 256]
00000000: adf9 ad3a 8f59 da3c ba64 6dbb 99b4 423d
00000010: ed34 cc3b 8f79 55bc ef35 bebc 0a80 e83c
00000020: 319f 913d 3c4c 183d b3b2 b9bc ac6a ef3c
00000030: 4a5b 283b c2da 00bd d134 5e3d a523 953b
00000040: 9bc9 e4bc 5d78 6abc 82cb e1bc 22f1 853c
00000050: d961 dc3c 41b0 8bbd 7c7c 2bbd 312d fcbc
00000060: ca15 64bd 7cc6 1dbd 0157 423d 77ac 9d3c
00000070: 67f6 1bbd fea3 1c39 af3c b8bb 3548 87bd
00000080: 0c76 ecba 5962 9d3c aeb3 1abd f728 1c3d
00000090: 72f0 383a b08a 4c3d 760e 823c 5c26 b33c
000000a0: 8d2d f3bc b1bb 9fbd 64e0 a43c c1e7 2f3c
000000b0: 3af7 12bd 4f6d d83b e03f d5bb 117b 333d
000000c0: 600f 2ebd cceb 6e3c 0a08 b1bc dd80 bd3d
000000d0: 70d0 3a3d f4cc bdbc 8d6f ffbc bed4 8abc
000000e0: d0c2 293d b64e 4e3c 9713 ee3c ada7 31bd
000000f0: 2de6 0f3b c598 173d be4f b23b f6f8 093d
00000100: c932 c33c 562d 2bbc 69ea d2bc 58d5 aabc
00000110: d8ca c2bc cb6a 20bd 83b2 943c 70ec c6bb
00000120: 71e5 b1bc 0ddc 3c3c 356c 4f3c 8d4b d93c
00000130: 95b8 b4bc 09fe f93c 064d 343d 0fe1 a1bc
00000140: 46d0 f03c 518d cbbd eb49 ee3c a1c4 22bd
00000150: b31f 953a ecb9 6bbb cbab b23a 442e b63b
00000160: e760 52bd 50b1 94bc 04f1 323c 67ce 7fb9
00000170: 71db 2abd 9f97 673c fbbc e13c 50fe 3fbd
00000180: f5a1 2c3c f2fc 23bc 4322 26bb c64e b83c
00000190: 415d 47ba daa2 543d dfd6 ce3c 04c0 a4bd
000001a0: 5fbd 073d 4500 523c 517f c53b 7594 e53b
000001b0: 25bc e63c 1b43 96bc bd4c 073d 1030 2cbd
000001c0: 7bab 953c b84e 5ebc 170d 09bd ed8f d4bc
000001d0: 2a0c da3b aff9 12bd ded3 c43c 2378 d3bc
000001e0: 8344 51bb 3b37 9abc 6848 8dbc 82de 23bc
000001f0: e4e8 013d 60f0 013d 66ba 9b3c 2d76 993c
00000200: b222 643d 91f1 f83c 7497 fbbc 7d36 b6bc
00000210: a526 a5bb b2b2 98bc 2410 21bc ecf2 adbc
00000220: 1b9c dc3c dd5e 1abd c390 193d 1fcd 1dbd
00000230: c97a b8bc 11d0 173d 48b7 313d ab83 503d
00000240: a441 33bc 3383 3c3c 8114 62bc c235 04bd
00000250: 5573 a5bb c3c0 e1bb e283 a3ba b390 cc3c
00000260: 59d0 8dbc 0a76 33bc 284c 173d 4abb 2fbd
00000270: 651d f93c 7232 093d e59c 60bc 51d7 22bc
00000280: 6427 483c 9b38 47bc ed91 a2bc a786 01bc
00000290: 27a7 0c3d a1c3 3a3b df8b 5cbc 11ec 13bc
000002a0: f8c9 f5bc ee7b b0bb ed1b 263d d357 153d
000002b0: 3113 11bb b928 e2bb 8b1c b73c 0463 5fbc
000002c0: eb29 71bd a6dc 13bd ded2 cd3c 5032 dabc
000002d0: d01c 07bc dfb1 723c 9a88 983c 4c48 433c
000002e0: 8b27 4bbc 913c 9dbc 8a29 6e3b b72e 533c
000002f0: 6a57 cdbb 0b48 2a3b 9c15 713d e375 1e3d
00000300: 11be 90bd 616f 98bc 0b0e 4fbd 2988 f4bc
00000310: f8dd 5fbc 441c 36bb 2e2f 313d 9858 333d
00000320: 9fe2 e03c 2032 933a 0f29 4abc 4b56 d63b
00000330: 27b2 5f3d 4677 87bc 3baf 273c 51f1 013c
00000340: 19a1 95bd 3e81 63ba 5cfd a0bc 1115 6fbd
00000350: d452 3fbd 39ad 083c 65fd 8b3d 1bb4 51bd
00000360: f762 393b 846f 5b3c 69e6 1f3d 6e8a e2bb
00000370: cfb2 82bc ddab b93c 4282 0b3c b5d4 b73c
00000380: 3b59 15bc 0315 663a db6e bc3c f87a 3d3d
00000390: bcf3 983b a634 febb f6f8 4bbc 37fc 063d
000003a0: 0868 8c3b 1541 10bd e94c ccbb 2cf3 b83c
000003b0: fdb8 c33b c926 d4bc fe15 283d b6af 2ebd
000003c0: 1556 4ebc 85d1 203c b246 13bc 3541 42bd
000003d0: 13b2 7dbb b4b6 2c3c 4645 b83c ce57 0f3d
000003e0: d5b1 913c 5917 183d 235c 82bc 55c5 743c
000003f0: a2a3 a5bb 4e6a bb3c 6c79 66bc a59f ca3c
0.0013273262 0.026654033 -0.0036223368 0.047535513 0.006231895 -0.01302947 -0.023219077 0.028381366
0.071104415 0.037182078 -0.022668218 0.02922567 0.0025689178 -0.031458624 0.05424959 0.0045513683
-0.027928164 -0.014310923 -0.02756286 0.016350333 0.026902126 -0.06820727 -0.041866764 -0.030783268
-0.055684842 -0.038519368 0.047446255 0.019247277 -0.038076784 0.00014938411 -0.0056224684 -0.06605569
-0.0018040552 0.019211935 -0.037769012 0.038125005 0.0007054872 0.04993695 0.015876036 0.021868877
-0.029684806 -0.07799471 0.020126529 0.010736407 -0.035880305 0.0066048275 -0.0065078586 0.043818537
-0.04249513 0.014582586 -0.021610279 0.09253094 0.045608938 -0.023169018 -0.031181121 -0.016947147
0.041445553 0.012592008 0.029062076 -0.0433728 0.0021957264 0.037010927 0.005441635 0.033684693
0.023827927 -0.010447821 -0.025746541 -0.020853683 -0.023778364 -0.039164346 0.018151527 -0.006070666
-0.021715852 0.011527074 0.012660076 0.026525283 -0.022060672 0.030516641 0.044018768 -0.019760637
0.029396188 -0.09939063 0.029087981 -0.0397383 0.0011377245 -0.0035968972 0.001363152 0.0055597145
-0.051361945 -0.018150955 0.01092172 -0.00024395586 -0.041713182 0.01413527 0.027555933 -0.04687339
0.01053666 -0.010009037 -0.0025350011 0.0224985 -0.00076051435 0.05191312 0.025248943 -0.080444366
0.033139583 0.012817447 0.00602714 0.007006223 0.028165886 -0.018342545 0.033032168 -0.042038023
0.018270245 -0.013568573 -0.03345975 -0.025947535 0.006654282 -0.035882648 0.024026807 -0.025814122
-0.0031931705 -0.018825164 -0.01724644 -0.01000178 0.031716242 0.03172338 0.01900978 0.018733108
0.05569715 0.030388625 -0.030711867 -0.022242779 -0.005040007 -0.018639896 -0.009830508 -0.021233998
0.026929906 -0.037688125 0.03749157 -0.038525697 -0.022519486 0.037063662 0.04338768 0.05090682
-0.010940943 0.01150589 -0.013798834 -0.03227783 -0.005049149 -0.006889434 -0.0012475217 0.024971342
-0.017311262 -0.010953436 0.036937863 -0.042903222 0.030409524 0.033495374 -0.013709282 -0.009939031
0.012216423 -0.012159492 -0.019844973 -0.007905639 0.034339096 0.0028497952 -0.013461082 -0.009028451
-0.030003533 -0.0053858673 0.040553976 0.03646071 -0.0022136683 -0.006901827 0.022352478 -0.013634447
-0.058877867 -0.0360991 0.025124963 -0.026635319 -0.0082466155 0.014812916 0.018619824 0.011919092
-0.0123995645 -0.01919392 0.0036340677 0.012889556 -0.006266524 0.0025982882 0.0588585 0.038686644
-0.07067502 -0.018607797 -0.0505505 -0.029850082 -0.013663761 -0.0027787844 0.043257885 0.04378566
0.027451811 0.0011230148 -0.012338891 0.0065410486 0.05461326 -0.016536366 0.010234649 0.0079310695
-0.073061176 -0.00086786214 -0.019652061 -0.0583697 -0.04670985 0.008342081 0.068354405 -0.051197153
0.0028287747 0.013393287 0.039038096 -0.0069134748 -0.015954403 0.022664959 0.008514943 0.022440294
-0.0091155125 0.00087769347 0.023002079 0.04625985 0.0046677273 -0.007757741 -0.012449494 0.032955375
0.0042848624 -0.035218317 -0.0062347543 0.02257689 0.00597298 -0.0258974 0.0410366 -0.04264804
-0.012593766 0.009815578 -0.008989023 -0.047425468 -0.0038710877 0.010541607 0.02249397 0.034995846
0.017784992 0.03713164 -0.015913075 0.014939626 -0.005054907 0.022877838 -0.014067035 0.024734328

model.time_mlp.3.bias f4 [32]
00000000: 0799 c4b8 f24d c1b8 8715 c4b8 b638 aa38
00000010: 86d9 bdb8 12f1 bf38 4524 c138 1b8f c5b8
00000020: dc4e bfb8 5ea7 bf38 6ffb c8b8 89f8 b938
00000030: eedd a438 eeda c138 6c6a 9c38 2855 c9b8
00000040: 3802 77b6 6c2a cab8 dc05 bf38 c0e1 cab8
00000050: 7f38 9f38 4cc0 c8b8 0874 bd38 a8f5 bfb8
00000060: 02a7 b3b8 458d a938 4c8d b838 1adb b538
00000070: 3606 c838 d840 33b8 b540 c638 9beb ccb8
-9.374512e-05 -9.2174756e-05 -9.350018e-05 8.116795e-05 -9.052739e-05 9.1524926e-05 9.209713e-05 -9.4203475e-05
-9.1222784e-05 9.138764e-05 -9.583576e-05 8.867781e-05 7.861467e-05 9.243736e-05 7.458482e-05 -9.6002885e-05
-3.680716e-06 -9.640012e-05 9.108681e-05 -9.67416e-05 7.592234e-05 -9.572561e-05 9.033835e-05 -9.153347e-05
-8.566493e-05 8.0848615e-05 8.800122e-05 8.6715634e-05 9.5379e-05 -4.2737316e-05 9.453428e-05 -9.771363e-05

model.layer.0.weight f4 [256, 55]
00000000: c44c ef3d 418a d0bc d9b6 fc3d c92b e2bd
00000010: a921 3ebd 617b bdbd c636 63bb d466 b2bd
00000020: 1a3c 583d 9ad7 ed3d 2caf a3bd f97e 24bc
00000030: e83d 1b3c bd58 37bd 37f5 a0bd 5467 5d3c
00000040: 6aaf 5ebd 1e31 13bd 9063 713d 4df2 693d
00000050: 26ad 38bc e3d8 30be b222 2b3e ec0c 32bc
00000060: 34d8 68bd 7066 91bc 4797 ffbd 4c06 27bc
00000070: ed81 2fbd 9e76 10bd 002f f33c 7a3c a1bc
00000080: fe86 bf3d 7893 3abd e83f b83d f7ea 5bbd
00000090: 0adb 4cbd 782e 1abd 1d08 84bd 423f abbc
000000a0: 5120 693c dd12 543d 2495 cc3d 4865 85bd
000000b0: 14d2 1b3c 1fd6 663d e290 8e3b b13c 753d
000000c0: e56b 443c 7c33 5abd 0fe5 a8bc c3e1 f73c
000000d0: 59ec 4abd 242f 0f3c 35a4 cd3a 321c 823d
000000e0: 0e3f 2f3d bf4d d93c e8ca 633d c780 a73c
000000f0: 88c8 ee3d 7c4e 9d3c 027c ffbd b1c4 70bb
00000100: 0c23 e13c 6884 faba 7141 e53c ba7e 56bd
00000110: 645f 77bd 1f0f eebd 60d7 8b3c eef2 aa3d
00000120: 0444 11bd 928a 04bc 6e33 133d 44f9 09be
00000130: 29cd 353d de16 2c3a 715e f93c 6218 f2bd
00000140: c837 b4bd 96d3 7e3d f58b e9bb f14e dcbc
00000150: cfb4 5d3d 3ef7 663d 97e2 b7bd 2238 883d
00000160: ec2a 59bc 39c2 29bd f527 95bd 0fbe f13d
00000170: 6cb0 bcbd 77d8 0c3b 5a5a 88bd 1685 e0bd
00000180: 3bc4 0fbd 5874 d9bb f633 88bd d9e0 1cbd
00000190: 4bf2 9cbc 32df d2bd 9837 083d 32d0 43bd
000001a0: 2aaa c7bd 73d6 8fbd 598d 3abd 23b5 babc
000001b0: 20a2 9c3c bd88 603d ac1b 8fbd 2500 06bd
000001c0: 545a 883d 07c3 e5bc 7d91 98bd 5abe 083e
000001d0: 7396 2c3d 4170 8f3d 1245 1f3d 4368 1abd
000001e0: 4213 3d3d b70b 853d 1260 283e 1f0c 55bd
000001f0: 25b0 84bd 29ee 1bbd 2262 d6bd 6571 8f3d
00000200: 4ebb 1dbd 1914 2d3a cae2 babc 3973 0ebd
00000210: 25b7 9fbb feeb fa3c 7314 373d c219 b2bd
00000220: bd48 8d3c 568f a7bd 13cf 273e 8437 a6bd
00000230: c204 d7bd d33c 9e3c 9487 80bd cf41 d5bc
00000240: 58a5 12bc c3cf ee3d 15ca 2d3d 68e0 28bd
00000250: f0ae 173d 3604 3f3d ed94 2ebd dc95 f4bc
00000260: 8aa3 9b3d 2788 7e3b efc8 fabd 50ce 4c3d
00000270: 53b6 6c3d 9de7 80bc 7079 45bd 2016 f0bd
00000280: 6ae6 68bd e4b8 293d fd48 353d e6c6 9b3d
00000290: 0729 0b3e 7727 b4bd 612d ca3c 8dd9 a23d
000002a0: f0ec 833d a104 0cbc 21f1 5ebc 6988 8f3d
000002b0: ca6c 83bd bc24 443d c55f 963d 65f7 65bd
000002c0: 3b5b 933d 1f5d 3d3b 22ac 70bd 0f2e cb3d
000002d0: ac81 8ebd 46b7 c33d ca98 96ba cdab 973d
000002e0: 8f55 af3d bb97 223d cd4a 24bd 01b3 0d3d
000002f0: b3c2 e2bd 47d0 373e f8b8 023e 6403 e13c
00000300: 1d39 5e3e 4273 4dbd a34d 2c3c 1a3d bbbc
00000310: 60d3 6d3b 107b b83d d570 e73d 57c3 d6bd
00000320: 489c 3f3d 0705 b3bd 7b49 433d 953f b63d
00000330: 3129 17bd 8139 053d cd71 2b3b a727 5a3d
00000340: a78e f03c 4898 6d3d 50ba c0bd 6c3d 89bd
00000350: fcfa 0dbc 8378 babc b563 4cbb 2c52 c23d
00000360: ac71 1bbd ae2c eb3b cd49 62bd ff23 7a3b
00000370: dc92 b33d f7e3 9fbd bf7c aa3d 6b25 52bd
00000380: ffd5 cc3d 69c2 ccbd b204 a83d 036b bebc
00000390: 11cd b63d 5feb 4a3d 87eb c43d a6ab 1d3d
000003a0: b6dc d93b b691 92bc 3f30 db3c 87be 863c
000003b0: fc66 fc3d bff8 763d 0604 903d 07db 0a3d
000003c0: 181a c23d b15d adbd ee30 bfbd 66bb 31bd
000003d0: 9e22 35be dd99 03bb a162 a1bc 85d3 853d
000003e0: 7be8 58bd 9c94 013b 1be9 283e 08dc c4bd
000003f0: 5833 c83c f569 9fbd 45e4 aabc 9d78 db3b
0.11684564 -0.02545655 0.12339563 -0.110435076 -0.04641882 -0.09252048 -0.0034670099 -0.08711019
0.052791692 0.11613388 -0.07992396 -0.010040038 0.009475209 -0.04476236 -0.07859271 0.013513405
-0.054366507 -0.035935514 0.05893284 0.05711584 -0.011271751 -0.17270236 0.16712454 -0.010867339
-0.056846812 -0.017749041 -0.12480026 -0.010194372 -0.042848516 -0.035269372 0.029685497 -0.019682158
0.093519196 -0.045550793 0.08996564 -0.053690877 -0.05001358 -0.037641972 -0.0644686 -0.020904187
0.014228896 0.051775802 0.09989384 -0.065134585 0.009510536 0.056356546 0.0043507675 0.059872333
0.011988615 -0.053271756 -0.020617036 0.030259019 -0.049541805 0.008739267 0.0015689196 0.06353034
0.042784743 0.02652633 0.05561343 0.020447148 0.11659342 0.019202463 -0.124748245 -0.003673833
0.027482532 -0.0019112946 0.027985306 -0.05236695 -0.060393706 -0.11623978 0.017070472 0.083471164
-0.035465255 -0.008089678 0.03593772 -0.13473994 0.04438511 0.0006564687 0.030440541 -0.11821057
-0.08799702 0.062213503 -0.00712728 -0.026893111 0.05412751 0.056388132 -0.089787655 0.066513315
-0.013254862 -0.04144499 -0.07283012 0.11803829 -0.09213337 0.0021491328 -0.06657858 -0.10962884
-0.03509925 -0.0066361837 -0.06650536 -0.03830037 -0.019158503 -0.102964774 0.033256143 -0.047805972
-0.09749253 -0.07023325 -0.045544956 -0.02279145 0.019120276 0.054817904 -0.069877 -0.03271498
0.06657854 -0.028047098 -0.07449625 0.13353863 0.042135667 0.070038326 0.03888423 -0.037697088
0.046160944 0.06496375 0.16442898 -0.052013513 -0.064789094 -0.038068924 -0.10467936 0.0700405
-0.038508706 0.0006602421 -0.02281322 -0.034777854 -0.0048741275 0.030630108 0.044697236 -0.08696319
0.017246598 -0.08181636 0.16387586 -0.081160575 -0.10498954 0.019316113 -0.062758595 -0.026032357
-0.008950554 0.11660721 0.04242905 -0.041229635 0.037032068 0.046634875 -0.042622495 -0.029856615
0.07599552 0.0038838477 -0.12245356 0.050001442 0.057791065 -0.015735442 -0.048211515 -0.1172297
-0.056860365 0.04143609 0.04425906 0.07606296 0.1358987 -0.0879659 0.024679841 0.07951651
0.064416766 -0.0085460255 -0.013607294 0.0700844 -0.06417234 0.047886595 0.07342485 -0.056144137
0.07195135 0.0028894616 -0.05875791 0.09920894 -0.06958327 0.09556441 -0.0011489626 0.07405815
0.08561241 0.039695483 -0.040110398 0.03459454 -0.11072292 0.17950545 0.12765872 0.027467437
0.21701474 -0.050158747 0.010516557 -0.022856284 0.003628932 0.09007847 0.11300818 -0.10486477
0.0467799 -0.08741193 0.0476775 0.08898846 -0.036904518 0.032525543 0.002616036 0.05326047
0.029364897 0.058006555 -0.09410536 -0.067011684 -0.008665796 -0.022762543 -0.003118736 0.09488329
-0.037950203 0.007176957 -0.055246163 0.0038168428 0.087682456 -0.07807153 0.08324575 -0.051305216
0.10001754 -0.09998018 0.082040206 -0.023244387 0.08925832 0.049540874 0.09615236 0.038493775
0.0066486252 -0.017891746 0.026756404 0.016448272 0.1232433 0.060295817 0.070320174 0.033900287
0.09477633 -0.08465136 -0.093355045 -0.043391608 -0.17688987 -0.0020080723 -0.01970035 0.06534485
-0.052956086 0.0019772416 0.16495173 -0.0961228 0.024438545 -0.077838816 -0.0208608 0.006697728

model.layer.0.bias f4 [256]
00000000: e805 4738 9e30 a9b8 0012 c3b8 2cfe a5b8
00000010: 2847 ab38 1401 8738 74b7 81b8 039f c5b8
00000020: e686 a238 3d0a c8b8 8975 b938 3681 8fb8
00000030: 47d4 c6b8 96ef 2838 278b 98b8 f7e0 96b8
00000040: abab c338 5e32 a638 22ef b438 dd66 ac38
00000050: 2e88 bf38 46d0 b9b8 ffb3 c838 85f1 a738
00000060: ffc7 c038 3a4c 86b8 6d07 a338 0c51 bf38
00000070: a86c 9238 b0ba c338 143c 5e38 d176 be38
00000080: 7626 b038 ee48 c138 bc6a c0b8 3b40 b4b8
00000090: b709 8a38 141d cbb8 9db1 b638 2399 bfb8
000000a0: 2471 2838 4c4c 9738 d786 b038 c9b5 c7b8
000000b0: 3a9a c738 5af9 b7b8 d4ab b3b8 f11f bbb8
000000c0: 7126 c438 7d47 9438 16e6 c2b8 eea2 0c38
000000d0: 02ea c838 7f93 c538 e5bd bb38 db5a c138
000000e0: 3ae9 b138 cc0e bb38 a000 a038 0789 c438
000000f0: f582 c2b8 806d 1eb8 e8f0 9a38 7e88 c538
00000100: 0a88 bf38 94d2 c738 be3a c0b8 b64b bcb8
00000110: eeb5 9f38 1a2e 2038 aaf5 cbb8 91c1 c638
00000120: 0716 94b8 132a 9238 6746 c5b8 675b bd38
00000130: 940d 9ab8 9c87 a538 e594 c438 c535 b8b8
00000140: 1b95 acb8 344c c9b8 92d5 c2b8 4a12 c7b8
00000150: 6098 beb8 3e61 92b8 b44a bfb8 0192 c0b8
00000160: 954a c538 ab22 9938 298f a938 f04b b2b8
00000170: 855c c638 ffa5 8f38 223e ad38 ad47 b637
00000180: 78ee beb8 9322 cab8 881a b138 94e5 69b8
00000190: 6f88 b9b8 c587 b1b8 2394 b2b8 dc37 b838
000001a0: 54a4 c938 96ab bbb8 ce88 ba38 2f2a 97b8
000001b0: 2ffd a438 3e4a 75b8 f140 bbb8 ccf6 ba38
000001c0: bfea 9b38 f029 b4b8 3266 9fb8 15b7 c2b8
000001d0: 71b1 a6b8 264c 9938 e56c 9538 a608 c338
000001e0: bde6 83b8 4b5a b938 ce5d cbb8 fb9f c4b8
000001f0: 4156 bdb8 5144 1bb8 8831 a2b8 0f0d cf37
00000200: 368d cbb8 0aca c2b8 f007 08b8 13c2 c838
00000210: 1693 c438 efb1 f337 f9ab b938 33be b9b8
00000220: 6570 c838 890d c438 4806 c7b8 d23f c5b8
00000230: 8d87 a0b8 7ecd b7b8 5e62 b138 9c6c c9b8
00000240: a082 bdb8 10e0 9738 65f4 bf38 7655 c538
00000250: 8f2e 90b8 dd4f b9b8 92e7 a8b8 ca15 c738
00000260: 2ce3 c938 c2f6 cb38 0652 c1b8 edc9 a9b8
00000270: 03a4 a9b8 ff85 cbb8 087d c638 8a8a c4b8
00000280: 1541 b638 c920 be38 d565 beb8 266f b8b8
00000290: 0a71 c6b8 4a97 bdb8 656f c2b8 1aa6 b738
000002a0: 6141 c438 0b7b ccb8 b1ee c0b8 528d cab8
000002b0: e648 b3b8 f90a c738 af98 beb8 1f11 bdb8
000002c0: 8b3d c838 2372 bfb8 62f1 46b8 f4f2 ae38
000002d0: 0f19 ab38 5dcc 9eb8 b5c8 beb8 7772 b6b8
000002e0: 9ee7 c438 de8d bdb8 0ab4 bc38 e667 c7b8
000002f0: d95e bfb8 0082 c5b8 3c9e c838 9ee8 a4b8
00000300: c0bd c2b8 aca9 bd38 08cb 0eb8 75b2 b2b8
00000310: eed4 bfb8 dfa6 b838 9fbc 48b8 3e40 c1b8
00000320: dbbf c838 8299 a638 5025 c238 9c2e 3338
00000330: 7926 c3b8 1274 c838 7137 c1b8 6817 9eb8
00000340: 5ca5 7ab8 cddd 0b34 e6fb b9b8 1d87 a7b8
00000350: 932d b638 0c2b c5b8 35dc c4b8 95e3 c3b8
00000360: d4c7 c238 0afb c238 6de7 8e38 adaf a838
00000370: 7aec 5838 0d89 c5b8 5271 90b8 8212 a338
00000380: 7087 bdb8 5802 c238 3a5a 97b8 5c48 c3b8
00000390: e9c9 c038 9708 c6b8 d8c0 b8b8 6349 c3b8
000003a0: 57cb 9eb8 2e9a c0b8 7f49 b2b8 4b6b b4b8
000003b0: 90d9 c138 6e98 b7b8 414d b238 c81e 7a38
000003c0: cd2e c038 9947 c238 f5f8 c2b8 b753 bd38
000003d0: 47c3 ac38 984b a5b8 5dee 71b7 8511 afb8
000003e0: e439 9c38 4a68 8938 b96d 7238 5c71 cdb7
000003f0: 4eab c6b8 ae85 c9b8 be26 cdb8 c012 cab8
4.7450798e-05 -8.0676036e-05 -9.301677e-05 -7.915156e-05 8.167169e-05 6.4375025e-05 -6.18537e-05 -9.42331e-05
7.749889e-05 -9.53865e-05 8.84338e-05 -6.842839e-05 -9.4809155e-05 4.0277453e-05 -7.273844e-05 -7.19446e-05
9.3303e-05 7.9248784e-05 8.627611e-05 8.220759e-05 9.132955e-05 -8.8602814e-05 9.57027e-05 8.008167e-05
9.1925256e-05 -6.403816e-05 7.773829e-05 9.122686e-05 6.982061e-05 9.333098e-05 5.2984877e-05 9.082037e-05
8.399498e-05 9.2165414e-05 -9.175154e-05 -8.595033e-05 6.582162e-05 -9.6852105e-05 8.711519e-05 -9.136114e-05
4.015969e-05 7.2144525e-05 8.41745e-05 -9.5229196e-05 9.5177864e-05 -8.772565e-05 -8.5673906e-05 -8.9228044e-05
9.3531686e-05 7.070506e-05 -9.293498e-05 3.353034e-05 9.5803305e-05 9.421165e-05 8.9522255e-05 9.21988e-05
8.4834595e-05 8.919611e-05 7.629511e-05 9.3715316e-05 -9.2750335e-05 -3.7772115e-05 7.3881645e-05 9.419116e-05
9.132929e-05 9.528283e-05 -9.166215e-05 -8.978641e-05 7.615598e-05 3.8189908e-05 -9.725553e-05 9.47743e-05
-7.061293e-05 6.9696594e-05 -9.4068055e-05 9.029247e-05 -7.345821e-05 7.893072e-05 9.373742e-05 -8.783819e-05
-8.229372e-05 -9.598621e-05 -9.2904214e-05 -9.492466e-05 -9.088288e-05 -6.979935e-05 -9.121504e-05 -9.182469e-05
9.407584e-05 7.302066e-05 8.0852136e-05 -8.501846e-05 9.458609e-05 6.8496905e-05 8.260856e-05 2.1729467e-05
-9.104324e-05 -9.6385505e-05 8.4449595e-05 -5.576534e-05 -8.8469e-05 -8.465307e-05 -8.515294e-05 8.784208e-05
9.6150354e-05 -8.948815e-05 8.894653e-05 -7.2080984e-05 7.8672885e-05 -5.8481695e-05 -8.928951e-05 8.915141e-05
7.434701e-05 -8.59088e-05 -7.600746e-05 -9.2847426e-05 -7.948548e-05 7.309792e-05 7.125157e-05 9.2999355e-05
-6.289545e-05 8.838306e-05 -9.697267e-05 -9.375807e-05 -9.028288e-05 -3.7018504e-05 -7.733988e-05 2.4682404e-05
-9.706097e-05 -9.2882736e-05 -3.243232e-05 9.572892e-05 9.373405e-05 2.9050714e-05 8.85352e-05 -8.856915e-05
9.557678e-05 9.3485294e-05 -9.4902294e-05 -9.4055795e-05 -7.654643e-05 -8.764396e-05 8.45834e-05 -9.604657e-05
-9.036553e-05 7.241976e-05 9.153112e-05 9.40961e-05 -6.875127e-05 -8.836363e-05 -8.0539976e-05 9.493118e-05
9.626741e-05 9.7257565e-05 -9.218235e-05 -8.0961596e-05 -8.0890975e-05 -9.704753e-05 9.4646646e-05 -9.371813e-05
8.690559e-05 9.066013e-05 -9.078874e-05 -8.794507e-05 -9.462431e-05 -9.040402e-05 -9.27139e-05 8.757059e-05
9.358186e-05 -9.7503966e-05 -9.199733e-05 -9.6584336e-05 -8.5489635e-05 9.491103e-05 -9.0883455e-05 -9.015411e-05
9.5482064e-05 -9.128849e-05 -4.7431684e-05 8.34222e-05 8.158583e-05 -7.572093e-05 -9.0972906e-05 -8.699757e-05
9.3891504e-05 -9.038647e-05 8.9980735e-05 -9.508412e-05 -9.1252565e-05 -9.4179064e-05 9.5662166e-05 -7.863458e-05
-9.2859846e-05 9.043826e-05 -3.4044526e-05 -8.5209416e-05 -9.147251e-05 8.804886e-05 -4.7859383e-05 -9.214923e-05
9.572479e-05 7.94409e-05 9.257591e-05 4.2720334e-05 -9.305491e-05 9.558363e-05 -9.213284e-05 -7.538387e-05
-5.9758648e-05 1.3026074e-07 -8.868407e-05 -7.988347e-05 8.686925e-05 -9.40171e-05 -9.387025e-05 -9.340715e-05
9.287862e-05 9.2974005e-05 6.814194e-05 8.0435864e-05 5.171865e-05 -9.41922e-05 -6.8875626e-05 7.775893e-05
-9.0374495e-05 9.2510774e-05 -7.217047e-05 -9.3118026e-05 9.192882e-05 -9.442976e-05 -8.809724e-05 -9.311994e-05
-7.571902e-05 -9.183992e-05 -8.501391e-05 -8.603054e-05 9.243481e-05 -8.754512e-05 8.502091e-05 5.9633312e-05
9.163991e-05 9.263977e-05 -9.297013e-05 9.0278154e-05 8.237972e-05 -7.8818935e-05 -1.4420218e-05 -8.3479135e-05
7.449443e-05 6.5520944e-05 5.7799483e-05 -2.4490691e-05 -9.473284e-05 -9.609327e-05 -9.782378e-05 -9.635603e-05
