results/qvpo_HalfCheetah-v3/actor_25_04_22_16_50_26_0.pth (torch, 667057 bytes, 24 tensors)

betas f4 [50]
0	0x3b82284f	0.0039720903
1	0x3c0192e9	0.007908561
2	0x3c41d06a	0.011829475
3	0x3c80e676	0.015734892
4	0x3ca0c459	0.019624876
5	0x3cc081fd	0.023499483
6	0x3ce01f85	0.02735878
7	0x3cff9d10	0.031202823
8	0x3d0f7d5f	0.035031673
9	0x3d1f1c58	0.03884539
10	0x3d2eab84	0.04264404
11	0x3d3e2af1	0.04642767
12	0x3d4d9ab0	0.05019635
13	0x3d5cfad1	0.053950135
14	0x3d6c4b64	0.057689086
15	0x3d7b8c78	0.06141326
16	0x3d855f0e	0.06512271
17	0x3d8cf031	0.068817504
18	0x3d9479ac	0.072497696
19	0x3d9bfb87	0.076163344
20	0x3da375c9	0.0798145
21	0x3daae87b	0.083451234
22	0x3db253a3	0.08707359
23	0x3db9b74a	0.09068163
24	0x3dc11377	0.09427541
25	0x3dc86832	0.09785499
26	0x3dcfb582	0.10142042
27	0x3dd6fb6e	0.10497175
28	0x3dde39ff	0.108509056
29	0x3de5713b	0.112032376
30	0x3deca12b	0.11554178
31	0x3df3c9d5	0.11903731
32	0x3dfaeb41	0.12251902
33	0x3e0102bb	0.12598698
34	0x3e048c3d	0.12944122
35	0x3e08122c	0.13288182
36	0x3e0b948a	0.13630882
37	0x3e0f135b	0.13972227
38	0x3e128ea2	0.14312223
39	0x3e160664	0.14650875
40	0x3e197aa4	0.1498819
41	0x3e1ceb65	0.15324171
42	0x3e2058ab	0.15658824
43	0x3e23c27a	0.15992156
44	0x3e2728d4	0.16324168
45	0x3e2a8bbe	0.1665487
46	0x3e2deb3a	0.16984263
47	0x3e31474d	0.17312355
48	0x3e349ffa	0.17639151
49	0x3e37f544	0.17964655

alphas_cumprod f4 [50]
0	0x3f7efbaf	0.9960279
1	0x3f7cf772	0.9881507
2	0x3f79f960	0.9764614
3	0x3f760a72	0.9610969
4	0x3f713658	0.94223547
5	0x3f6b8b3e	0.9200934
6	0x3f651987	0.89492077
7	0x3f5df380	0.86699677
8	0x3f562d04	0.8366244
9	0x3f4ddb29	0.80412537
10	0x3f4513db	0.7698342
11	0x3f3bed7e	0.7340926
12	0x3f327e93	0.69724387
13	0x3f28dd58	0.65962744
14	0x3f1f1f7c	0.62157416
15	0x3f1559c9	0.58340126
16	0x3f0b9fe5	0.54540855
17	0x3f020417	0.5078749
18	0x3ef12e24	0.47105515
19	0x3edecfa7	0.435178
20	0x3ecd070f	0.40044448
21	0x3ebbeaf3	0.3670269
22	0x3eab8e1b	0.33506855
23	0x3e9bff8b	0.304684
24	0x3e8d4a9a	0.2759598
25	0x3e7eee42	0.24895576
26	0x3e651356	0.22370657
27	0x3e4d0771	0.2002237
28	0x3e36c814	0.17849761
29	0x3e224dda	0.1585001
30	0x3e0f8d1c	0.14018673
31	0x3dfced2f	0.12349927
32	0x3dddf02e	0.10836826
33	0x3dc1fa14	0.09471527
34	0x3da8de47	0.08245521
35	0x3d926dc2	0.07149841
36	0x3d7cf03e	0.06175255
37	0x3d5998e9	0.053124342
38	0x3d3a744d	0.04552107
39	0x3d1f231a	0.038851835
40	0x3d07490c	0.033028647
41	0x3ce51ba4	0.027967282
42	0x3cc13b7c	0.023587935
43	0x3ca25491	0.019815715
44	0x3c87d4ce	0.016580965
45	0x3c626ae0	0.013819426
46	0x3c3bf64f	0.011472299
47	0x3c1b6be6	0.009486174
48	0x3c0001a7	0.007812894
49	0x3bd20564	0.006409334

alphas_cumprod_prev f4 [50]
0	0x3f800000	1.0
1	0x3f7efbaf	0.9960279
2	0x3f7cf772	0.9881507
3	0x3f79f960	0.9764614
4	0x3f760a72	0.9610969
5	0x3f713658	0.94223547
6	0x3f6b8b3e	0.9200934
7	0x3f651987	0.89492077
8	0x3f5df380	0.86699677
9	0x3f562d04	0.8366244
10	0x3f4ddb29	0.80412537
11	0x3f4513db	0.7698342
12	0x3f3bed7e	0.7340926
13	0x3f327e93	0.69724387
14	0x3f28dd58	0.65962744
15	0x3f1f1f7c	0.62157416
16	0x3f1559c9	0.58340126
17	0x3f0b9fe5	0.54540855
18	0x3f020417	0.5078749
19	0x3ef12e24	0.47105515
20	0x3edecfa7	0.435178
21	0x3ecd070f	0.40044448
22	0x3ebbeaf3	0.3670269
23	0x3eab8e1b	0.33506855
24	0x3e9bff8b	0.304684
25	0x3e8d4a9a	0.2759598
26	0x3e7eee42	0.24895576
27	0x3e651356	0.22370657
28	0x3e4d0771	0.2002237
29	0x3e36c814	0.17849761
30	0x3e224dda	0.1585001
31	0x3e0f8d1c	0.14018673
32	0x3dfced2f	0.12349927
33	0x3dddf02e	0.10836826
34	0x3dc1fa14	0.09471527
35	0x3da8de47	0.08245521
36	0x3d926dc2	0.07149841
37	0x3d7cf03e	0.06175255
38	0x3d5998e9	0.053124342
39	0x3d3a744d	0.04552107
40	0x3d1f231a	0.038851835
41	0x3d07490c	0.033028647
42	0x3ce51ba4	0.027967282
43	0x3cc13b7c	0.023587935
44	0x3ca25491	0.019815715
45	0x3c87d4ce	0.016580965
46	0x3c626ae0	0.013819426
47	0x3c3bf64f	0.011472299
48	0x3c1b6be6	0.009486174
49	0x3c0001a7	0.007812894

sqrt_alphas_cumprod f4 [50]
0	0x3f7f7db7	0.998012
1	0x3f7e7a91	0.9940577
2	0x3f7cf818	0.9881606
3	0x3f7af894	0.9803555
4	0x3f787f05	0.97068816
5	0x3f758f1d	0.959215
6	0x3f722d39	0.94600254
7	0x3f6e5e51	0.93112665
8	0x3f6a27ed	0.9146717
9	0x3f65901f	0.89673036
10	0x3f609d6b	0.877402
11	0x3f5b56b9	0.85679203
12	0x3f55c34d	0.8350113
13	0x3f4feaab	0.8121745
14	0x3f49d491	0.78839976
15	0x3f4388dc	0.76380706
16	0x3f3d0f81	0.7385178
17	0x3f367075	0.71265346
18	0x3f2fb39f	0.68633455
19	0x3f28e0ce	0.65968025
20	0x3f21ffa1	0.63280684
21	0x3f1b1782	0.60582745
22	0x3f142f95	0.57885104
23	0x3f0d4eb0	0.5519819
24	0x3f067b4a	0.52531874
25	0x3eff76fd	0.49895468
26	0x3ef229f3	0.4729763
27	0x3ee519f4	0.44746363
28	0x3ed85095	0.4224898
29	0x3ecbd67b	0.39812073
30	0x3ebfb359	0.3744152
31	0x3eb3edee	0.35142463
32	0x3ea88c08	0.32919335
33	0x3e9d9284	0.30775845
34	0x3e930558	0.28715014
35	0x3e88e796	0.26739186
36	0x3e7e76f2	0.24850062
37	0x3e6c04d5	0.23048718
38	0x3e5a7a2c	0.21335667
39	0x3e49d6dc	0.19710869
40	0x3e3a197d	0.18173786
41	0x3e2b3f72	0.16723421
42	0x3e1d4508	0.15358365
43	0x3e102591	0.1407683
44	0x3e03db86	0.1287671
45	0x3df0c13b	0.11755606
46	0x3ddb5bde	0.10710882
47	0x3dc77813	0.09739699
48	0x3db5061e	0.088390574
49	0x3da3f59d	0.080058314

sqrt_one_minus_alphas_cumprod f4 [50]
0	0x3d811318	0.0630247
1	0x3ddeef11	0.10885442
2	0x3e1d1ae5	0.1534229
3	0x3e49f8f3	0.19723873
4	0x3e761c5a	0.24034253
5	0x3e90bb1c	0.28267753
6	0x3ea5f834	0.32415926
7	0x3ebab972	0.3646961
8	0x3ecef2fa	0.4041975
9	0x3ee2997d	0.44257727
10	0x3ef5a293	0.47975597
11	0x3f04026e	0.5156621
12	0x3f0cdc0e	0.55023277
13	0x3f155aa8	0.58341455
14	0x3f1d7b57	0.61516327
15	0x3f253bdc	0.64544463
16	0x3f2c9a99	0.674234
17	0x3f339692	0.7015163
18	0x3f3a2f6a	0.727286
19	0x3f406558	0.7515464
20	0x3f463929	0.7743097
21	0x3f4bac2f	0.79559606
22	0x3f50c03c	0.81543326
23	0x3f557797	0.83385605
24	0x3f59d4f2	0.85090554
25	0x3f5ddb57	0.8666281
26	0x3f618e24	0.88107514
27	0x3f64f0fc	0.8943021
28	0x3f6807b6	0.90636766
29	0x3f6ad657	0.91733307
30	0x3f6d60fd	0.9272612
31	0x3f6fabdd	0.9362162
32	0x3f71bb31	0.94426256
33	0x3f73932e	0.95146453
34	0x3f7537fd	0.95788556
35	0x3f76adb2	0.9635879
36	0x3f77f840	0.96863174
37	0x3f791b78	0.9730754
38	0x3f7a1afe	0.97697437
39	0x3f7afa4a	0.9803816
40	0x3f7bbca1	0.983347
41	0x3f7c6512	0.9859172
42	0x3f7cf675	0.98813564
43	0x3f7d736e	0.99004257
44	0x3f7dde68	0.9916749
45	0x3f7e3997	0.99306625
46	0x3f7e86fe	0.9942473
47	0x3f7ec86b	0.99524564
48	0x3f7eff7c	0.9960859
49	0x3f7f2da4	0.9967902

log_one_minus_alphas_cumprod f4 [50]
0	0xc0b0e91f	-5.528457
1	0xc08def84	-4.4354877
2	0xc06ff17c	-3.749114
3	0xc04fc99f	-3.246681
4	0xc0367d04	-2.8513803
5	0xc021b8ae	-2.526897
6	0xc01031d1	-2.2530406
7	0xc0011cc9	-2.017382
8	0xbfe7e5e5	-1.8117033
9	0xbfd0ad08	-1.6302805
10	0xbfbc06bb	-1.4689554
11	0xbfa98cba	-1.3246071
12	0xbf98f01d	-1.1948277
13	0xbf89f28c	-1.0777144
14	0xbf78c3a3	-0.9717352
15	0xbf602968	-0.8756318
16	0xbf49d1b6	-0.7883562
17	0xbf35827d	-0.70902234
18	0xbf2309fc	-0.6368711
19	0xbf123d18	-0.5712447
20	0xbf02f60a	-0.51156676
21	0xbeea26d1	-0.4573274
22	0xbed0eebb	-0.40807137
23	0xbeba0e1d	-0.36338893
24	0xbea5543e	-0.32290834
25	0xbe9294b1	-0.28629068
26	0xbe81a6ac	-0.25322473
27	0xbe64c90d	-0.2234232
28	0xbe4956de	-0.19662043
29	0xbe30b605	-0.17256935
30	0xbe1aaa3d	-0.15104003
31	0xbe06fb3b	-0.13181774
32	0xbdeae8ef	-0.1147021
33	0xbdcbc9a9	-0.09950573
34	0xbdb03d06	-0.08605389
35	0xbd97ed58	-0.074183166
36	0xbd828af0	-0.063741565
37	0xbd5f972b	-0.054587524
38	0xbd3ed4dd	-0.04658972
39	0xbd224fa3	-0.03962673
40	0xbd0991eb	-0.033586424
41	0xbce85f68	-0.028365806
42	0xbcc38c42	-0.023870591
43	0xbca3f5e2	-0.020014707
44	0xbc88f842	-0.016719941
45	0xbc63ff3d	-0.013915834
46	0xbc3d0c64	-0.011538599
47	0xbc1c29ec	-0.009531479
48	0xbc00826f	-0.007843598
49	0xbbd2b28a	-0.006429975

sqrt_recip_alphas_cumprod f4 [50]
0	0x3f804146	1.001992
1	0x3f80c3e1	1.0059777
2	0x3f81889a	1.0119812
3	0x3f82909d	1.0200382
4	0x3f83dd7f	1.030197
5	0x3f857144	1.0425191
6	0x3f874e63	1.0570797
7	0x3f8977c7	1.0739678
8	0x3f8bf0df	1.0932883
9	0x3f8ebda4	1.1151624
10	0x3f91e29f	1.1397284
11	0x3f9564fd	1.1671444
12	0x3f994a95	1.1975886
13	0x3f9d9a02	1.2312624
14	0x3fa25aac	1.2683921
15	0x3fa794e2	1.309231
16	0x3fad51f4	1.3540635
17	0x3fb39c46	1.4032066
18	0x3fba7f7a	1.4570153
19	0x3fc2088d	1.515886
20	0x3fca45ff	1.5802611
21	0x3fd34802	1.650635
22	0x3fdd20b0	1.72756
23	0x3fe7e444	1.8116536
24	0x3ff3a95d	1.903606
25	0x400044a7	2.0041902
26	0x40075037	2.114271
27	0x400f0744	2.2348185
28	0x40177ba3	2.3669212
29	0x4020c159	2.511801
30	0x402aeee9	2.670832
31	0x40361da9	2.8455603
32	0x40426a24	3.0377283
33	0x404ff48e	3.2493014
34	0x405ee142	3.4824986
35	0x406f595e	3.7398295
36	0x4080c5b7	4.024135
37	0x408ad61b	4.338636
38	0x4095fbcd	4.6869874
39	0x40a258d3	5.073343
40	0x40b013ea	5.502431
41	0x40bf5931	5.9796376
42	0x40d05b04	6.5111103
43	0x40e352eb	7.103872
44	0x40f882bd	7.7659593
45	0x41081af3	8.506579
46	0x4115617b	9.336299
47	0x412446b0	10.267258
48	0x413503c8	11.313423
49	0x4147dab4	12.490894

sqrt_recipm1_alphas_cumprod f4 [50]
0	0x3d8154ba	0.063149884
1	0x3de0443f	0.10950517
2	0x3e1efcc8	0.15526116
3	0x3e4e050d	0.20119114
4	0x3e7d8aeb	0.24760024
5	0x3e96e27b	0.29469666
6	0x3eaf7169	0.34266213
7	0x3ec88937	0.39167187
8	0x3ee2414b	0.4419044
9	0x3efcb1fe	0.49354547
10	0x3f0bfa87	0.5467915
11	0x3f1a12fc	0.6018522
12	0x3f28b11c	0.6589525
13	0x3f37e4e7	0.7183365
14	0x3f47bfa9	0.78026825
15	0x3f585449	0.8450361
16	0x3f69b776	0.91295564
17	0x3f7bffd3	0.9843723
18	0x3f87a329	1.0596668
19	0x3f91d33a	1.1392586
20	0x3f9c9f4d	1.2236115
21	0x3fa81835	1.3132387
22	0x3fb4509c	1.40871
23	0x3fc15d41	1.5106584
24	0x3fcf553f	1.619789
25	0x3fde5254	1.7368875
26	0x3fee7143	1.8628315
27	0x3fffd239	1.998603
28	0x40094c9c	2.1453009
29	0x40137753	2.304158
30	0x401e7ff0	2.4765587
31	0x402a7ff4	2.6640596
32	0x40379414	2.868413
33	0x4045dcb1	3.091595
34	0x40557e53	3.3358352
35	0x4066a246	3.6036544
36	0x40797746	3.8979049
37	0x40871926	4.22182
38	0x409287b7	4.5790668
39	0x409f2979	4.9738126
40	0x40ad2544	5.410799
41	0x40bca757	5.895427
42	0x40cde22e	6.43386
43	0x40e10f72	7.0331354
44	0x40f6711a	7.7013063
45	0x4107295c	8.4475975
46	0x4114857e	9.282591
47	0x41237ebe	10.218443
48	0x41344e67	11.269141
49	0x4147367b	12.450801

posterior_variance f4 [50]
0	0x00000000	0.0
1	0x3b2dbe2a	0.0026511052
2	0x3bc321a2	0.005954937
3	0x3c1bfbe0	0.009520501
4	0x3c588bc2	0.013216915
5	0x3c8b29fd	0.016987795
6	0x3caa6eb6	0.020804744
7	0x3cc9f290	0.024651796
8	0x3ce9a0e4	0.028519101
9	0x3d04b623	0.03240026
10	0x3d14a598	0.036290735
11	0x3d249b48	0.04018715
12	0x3d349479	0.044086907
13	0x3d448ede	0.04798781
14	0x3d548892	0.051888056
15	0x3d647fd3	0.055785965
16	0x3d747310	0.059680045
17	0x3d823069	0.0635689
18	0x3d8a23d3	0.06745114
19	0x3d92131b	0.0713255
20	0x3d99fd92	0.07519068
21	0x3da1e295	0.07904545
22	0x3da9c180	0.0828886
23	0x3db199b3	0.08671894
24	0x3db96a91	0.09053529
25	0x3dc13389	0.09433658
26	0x3dc8f407	0.098121695
27	0x3dd0ab7d	0.10188959
28	0x3dd85970	0.10563934
29	0x3ddffd63	0.109370016
30	0x3de796ec	0.11308083
31	0x3def25a1	0.11677099
32	0x3df6a92e	0.12043987
33	0x3dfe2146	0.1240869
34	0x3e02c6d8	0.12771165
35	0x3e06771c	0.13131374
36	0x3e0a2160	0.13489294
37	0x3e0dc599	0.13844909
38	0x3e1163c4	0.14198214
39	0x3e14fbe5	0.14549215
40	0x3e188e07	0.14897929
41	0x3e1c1a38	0.15244377
42	0x3e1fa08f	0.15588592
43	0x3e232124	0.15930611
44	0x3e269c11	0.16270472
45	0x3e2a117d	0.16608234
46	0x3e2d8183	0.16943936
47	0x3e30ec4e	0.17277643
48	0x3e3451ff	0.17609404
49	0x3e37b2bd	0.17939277

posterior_log_variance_clipped f4 [50]
0	0xc23834f1	-46.0517
1	0xc0bdd953	-5.932779
2	0xc0a3f3ff	-5.1235347
3	0xc094f017	-4.654308
4	0xc08a70b4	-4.3262577
5	0xc0826888	-4.07526
6	0xc077d842	-3.8725743
7	0xc06cfc68	-3.7029057
8	0xc063a8db	-3.5571811
9	0xc05b7e62	-3.4295888
10	0xc0543c81	-3.3161929
11	0xc04db596	-3.2142081
12	0xc047c82c	-3.1215925
13	0xc0425b11	-3.0368083
14	0xc03d5acb	-2.9586666
15	0xc038b80a	-2.8862329
16	0xc0346686	-2.8187575
17	0xc0305c42	-2.755631
18	0xc02c9107	-2.6963518
19	0xc028fdf9	-2.6405013
20	0xc0259d56	-2.587728
21	0xc0226a34	-2.5377321
22	0xc01f6062	-2.4902577
23	0xc01c7c3d	-2.445083
24	0xc019baa0	-2.4020157
25	0xc01718c3	-2.3608863
26	0xc0149439	-2.3215468
27	0xc0122ada	-2.2838655
28	0xc00fdab8	-2.2477245
29	0xc00da218	-2.2130184
30	0xc00b7f6d	-2.1796525
31	0xc009714e	-2.1475406
32	0xc0077673	-2.1166046
33	0xc0058db1	-2.0867732
34	0xc003b5f3	-2.0579803
35	0xc001ee3d	-2.030166
36	0xc00035a4	-2.003274
37	0xbffd169d	-1.9772526
38	0xbff9dce8	-1.952054
39	0xbff6bcaf	-1.9276332
40	0xbff3b491	-1.903948
41	0xbff0c348	-1.8809595
42	0xbfede79e	-1.8586309
43	0xbfeb2072	-1.8369277
44	0xbfe86cbc	-1.8158183
45	0xbfe5cb76	-1.7952716
46	0xbfe33bba	-1.7752602
47	0xbfe0bca4	-1.7557569
48	0xbfde4d67	-1.7367371
49	0xbfdbed3e	-1.7181776

posterior_mean_coef1 f4 [50]
0	0x3f7fffa0	0.9999943
1	0x3f2a85b3	0.6661026
2	0x3effc7ae	0.4995703
3	0x3ecca231	0.39967492
4	0x3eaa8786	0.3330652
5	0x3e9228b1	0.2854667
6	0x3e7fbcff	0.2497444
7	0x3e6342b0	0.22193408
8	0x3e4c729f	0.199656
9	0x3e39bfbf	0.18139552
10	0x3e2a2122	0.16614202
11	0x3e1cdf31	0.15319516
12	0x3e1176b4	0.14205438
13	0x3e078745	0.13235195
14	0x3dfd9112	0.123811856
15	0x3dee0620	0.11622262
16	0x3de0175a	0.10941954
17	0x3dd3807f	0.10327243
18	0x3dc80add	0.09767697
19	0x3dbd8a2b	0.09254869
20	0x3db3da2c	0.08781847
21	0x3daadcfe	0.08342932
22	0x3da279c9	0.07933385
23	0x3d9a9bd3	0.07549252
24	0x3d9331b3	0.07187214
25	0x3d8c2cc6	0.06844477
26	0x3d8580bb	0.06518694
27	0x3d7e4655	0.062078793
28	0x3d7216c2	0.059103735
29	0x3d66641d	0.05624782
30	0x3d5b224a	0.053499497
31	0x3d504745	0.050849218
32	0x3d45caec	0.048289225
33	0x3d3ba6b8	0.045813292
34	0x3d31d58d	0.04341655
35	0x3d285387	0.041095283
36	0x3d1f1dc6	0.038846754
37	0x3d163254	0.03666909
38	0x3d0d8ff0	0.034561098
39	0x3d0535f7	0.032522168
40	0x3cfa4870	0.030552119
41	0x3ceab5bd	0.028651113
42	0x3cdbb4a1	0.026819529
43	0x3ccd462d	0.025057876
44	0x3cbf6b84	0.023366697
45	0x3cb225c1	0.021746518
46	0x3ca575be	0.020197745
47	0x3c995c0b	0.018720647
48	0x3c8dd8c9	0.017315285
49	0x3c82eb9e	0.015981492

posterior_mean_coef2 f4 [50]
0	0x00000000	0.0
1	0x3eaaf3d3	0.33389148
2	0x3f001aff	0.5004119
3	0x3f19abca	0.60027754
4	0x3f2ab5ca	0.6668364
5	0x3f36e00f	0.71435636
6	0x3f3ffdd2	0.74996674
7	0x3f47128a	0.77762663
8	0x3f4cb9ab	0.79970807
9	0x3f51563a	0.81772196
10	0x3f552a04	0.83267236
11	0x3f58628e	0.8452538
12	0x3f5b2051	0.85596186
13	0x3f5d7afe	0.86515796
14	0x3f5f8464	0.8731139
15	0x3f6149fd	0.8800352
16	0x3f62d647	0.8860821
17	0x3f643185	0.8913806
18	0x3f65623b	0.8960301
19	0x3f666db9	0.90011173
20	0x3f675849	0.9036909
21	0x3f68257a	0.90682185
22	0x3f68d83a	0.90954936
23	0x3f697306	0.91191137
24	0x3f69f7f5	0.9139398
25	0x3f6a68d7	0.9156622
26	0x3f6ac73d	0.91710263
27	0x3f6b147c	0.9182813
28	0x3f6b51d2	0.9192172
29	0x3f6b8054	0.9199269
30	0x3f6ba100	0.9204254
31	0x3f6bb4ba	0.9207264
32	0x3f6bbc5f	0.92084306
33	0x3f6bb8b5	0.92078716
34	0x3f6baa7f	0.9205703
35	0x3f6b9270	0.9202032
36	0x3f6b713b	0.9196965
37	0x3f6b4782	0.9190599
38	0x3f6b15ea	0.91830313
39	0x3f6add0d	0.91743547
40	0x3f6a9d83	0.91646594
41	0x3f6a57dd	0.9154032
42	0x3f6a0ca6	0.9142555
43	0x3f69bc60	0.9130306
44	0x3f696789	0.9117361
45	0x3f690e9b	0.9103791
46	0x3f68b204	0.9089663
47	0x3f685232	0.9075042
48	0x3f67ef81	0.9059983
49	0x3f678a4f	0.9044542

model.time_mlp.1.weight f4 [256, 32]
0	0xbdb8e364	-0.09027746
1	0xbce14da8	-0.02750285
2	0xbe1fbb74	-0.15598851
3	0x3b8c9fc4	0.0042915065
4	0x3d3ab3ac	0.045581505
5	0xbdbe3729	-0.09287865
6	0xbcfb2be3	-0.030660575
7	0xbd627e71	-0.055296365
8	0xbdba614d	-0.0910059
9	0x3dea5c7b	0.114434205
10	0xbdaf3ac8	-0.085561335
11	0xbc64c8c8	-0.013963886
12	0x3e20ecb8	0.15715301
13	0xbaff76da	-0.0019490377
14	0xbe08cec4	-0.13360125
15	0xbcd49cea	-0.025953729
16	0xba890f5e	-0.001045685
17	0xbb216a5a	-0.002463004
18	0xbdae25c4	-0.08503297
19	0x3e3ebe25	0.18627222
20	0xbde91a1d	-0.11381934
21	0xbc85cd13	-0.016333139
22	0x3e5d65cb	0.21620862
23	0x3d85e26e	0.06537329
24	0x3dcbb91d	0.09947417
25	0x3d8e5d81	0.06951428
26	0xba9746f0	-0.0011541527
27	0xbe0ac2f4	-0.13550931
28	0xbdd23efd	-0.1026592
29	0x3c96d03d	0.018409843
30	0x3c305a33	0.010763693
31	0xbd414234	-0.047182277
32	0x3da349ba	0.079730466
33	0xbcf7c6ea	-0.030246217
34	0xbd70d557	-0.058797207
35	0x3ccecd8c	0.025244497
36	0x3bad55c4	0.005289765
37	0x3c8eb5aa	0.017420609
38	0xbc30f721	-0.010801108
39	0x3de9a8f9	0.11409182
40	0xbdb28291	-0.0871631
41	0x3df37544	0.11887601
42	0x3e2f7f4e	0.17138407
43	0x3e4d8901	0.20071794
44	0x3d186787	0.037208106
45	0x3db7129f	0.089390986
46	0x3e4591fe	0.19293973
47	0x3c9775e3	0.01848883
48	0xbde738a4	-0.112901
49	0x3c14ac3d	0.009074268
50	0xbda05b0f	-0.07829868
51	0xbdc2450b	-0.09485825
52	0xbdf0c955	-0.11757151
53	0x3c47ce89	0.012195238
54	0xbce97690	-0.028498918
55	0x3d5d7413	0.054065775
56	0x3e212a0a	0.15738693
57	0xbe5d406d	-0.21606608
58	0xbc0bcb05	-0.00853229
59	0xba959899	-0.0011413275
60	0x3e1daf1a	0.15398827
61	0xbd9525de	-0.07282613
62	0xbd362663	-0.044470202
63	0xbc3fab88	-0.011698611
64	0xbdb6e02f	-0.089294784
65	0xbbebc788	-0.007195417
66	0x3d8480a4	0.06469849
67	0x3c6b1502	0.01434827
68	0xbdca676a	-0.09883006
69	0xbe423e47	-0.1896907
70	0xbd4a9445	-0.049457807
71	0xbd92802e	-0.071533546
72	0xbdc33394	-0.09531322
73	0xbdbaf255	-0.091282524
74	0xbd2332d7	-0.039843407
75	0x3c69b187	0.014263517
76	0x3dcdd0c5	0.10049585
77	0xbbe07de8	-0.0068509467
78	0x3e03a454	0.12855655
79	0xbdd54a07	-0.1041451
80	0xbcdd670c	-0.027026676
81	0x3dd9b64f	0.10630476
82	0x3da282b4	0.07935086
83	0x3dd4e572	0.10395326
84	0xbd3ebf87	-0.046569373
85	0x3cac8a64	0.021062084
86	0xbc5e607f	-0.013572811
87	0x3b8870f9	0.004163858
88	0x3c001af7	0.007818929
89	0xbd7096b8	-0.058737487
90	0x3d65005d	0.05590855
91	0xbde6de9c	-0.11272928
92	0xbdbd8391	-0.0925361
93	0xbe268852	-0.1626294
94	0x3d373d53	0.044736218
95	0xbd4ce9ed	-0.050027777
96	0x3bd552d6	0.006510119
97	0xbcd9ec79	-0.026602017
98	0x3c94d075	0.018165806
99	0x3defb412	0.117042676
100	0xbdd473cf	-0.10373651
101	0xbcea3413	-0.028589284
102	0xbdf0b223	-0.11752727
103	0xbd99fbc5	-0.07518724
104	0xbe03f434	-0.12886125
105	0x3dd6eb74	0.10494128
106	0x3cd26935	0.025684932
107	0x3db514bd	0.08841846
108	0x3da9cef4	0.08291426
109	0x3d4680a1	0.048462514
110	0x3e07ec76	0.13273796
111	0xbddb773e	-0.10716103
112	0x3d712b6f	0.058879312
113	0x3d7ce336	0.061740123
114	0x3cbcd978	0.023052916
115	0xbce50e79	-0.027961003
116	0x3dd95785	0.10612396
117	0x3b17fb02	0.0023190384
118	0x3ce408b7	0.027836187
119	0xbc7fb51b	-0.015607144
120	0xbd0706cb	-0.032965463
121	0xbca2c8a8	-0.019871071
122	0xbd6e2af3	-0.05814643
123	0xbd7632b1	-0.060106937
124	0x398996e6	0.00026243104
125	0xbcafcf82	-0.021461252
126	0xbe6f21fd	-0.23352809
127	0x3d6b7c7f	0.057491776
128	0xbd096dd3	-0.033552002
129	0xbcdecab0	-0.027196258
130	0x3a7fb011	0.0009753714
131	0x3d635369	0.055499468
132	0x3de3548a	0.11100109
133	0xbd649e83	-0.05581523
134	0xbe34763f	-0.17623232
135	0xbd27d46d	-0.04097407
136	0x3c8cbf64	0.017181106
137	0xbce1255c	-0.027483635
138	0xbdbc2fad	-0.09188781
139	0xbe2a08c8	-0.16604912
140	0x3d0074c9	0.031361375
141	0xbe06a6af	-0.13149522
142	0xbc8daa32	-0.01729307
143	0x3d539038	0.05165121
144	0xbd5e80a7	-0.05432191
145	0x3cfbb521	0.030726017
146	0x3db302a5	0.08740739
147	0x3dd46f32	0.10372771
148	0x3d174311	0.036929194
149	0xbd505e5b	-0.050871234
150	0xbb92b2ba	-0.0044768723
151	0xbd1a3c36	-0.037655078
152	0xbc4be610	-0.012444988
153	0xbdd3ea56	-0.103474304
154	0xbdf7e83c	-0.12104842
155	0xbc093f11	-0.008376853
156	0x3d09c929	0.033639107
157	0x3df9f82d	0.12205539
158	0xbcb528b1	-0.02211413
159	0x3dd1fcd7	0.102533035
160	0x3c9d4938	0.019199952
161	0xbc930c48	-0.017950192
162	0xbdde09ea	-0.10841735
163	0x3d975dcf	0.073909394
164	0xbd3ef116	-0.046616636
165	0x3cbe7e9d	0.023253733
166	0x3c8ef80f	0.017452268
167	0xbdc42f01	-0.09579278
168	0x3d3ce86f	0.046120103
169	0xbd03fb2c	-0.032221958
170	0x3d8c9e6f	0.06866156
171	0xbb877cd5	-0.004134754
172	0xbcad6837	-0.021167858
173	0x3e015b6b	0.1263253
174	0x3d2c581b	0.04207621
175	0x3dec786d	0.11546407
176	0xbdb87722	-0.09007098
177	0xbd83300a	-0.06405647
178	0x3e458a25	0.19290979
179	0xbd451cca	-0.04812316
180	0xbbf58223	-0.00749232
181	0xbe3bb8ec	-0.18332261
182	0x3c0be6fd	0.008538959
183	0x3d21172a	0.03932873
184	0x3d593d4e	0.05303698
185	0x3d000b44	0.031260744
186	0xbe543f78	-0.20727336
187	0xbd658104	-0.056031242
188	0x3d849fd3	0.064757966
189	0xbd4953f0	-0.049152315
190	0x3d5c39fc	0.053766236
191	0x3d3c6822	0.045997746
192	0x3e13dab9	0.14438905
193	0xbdb2c4f0	-0.08728969
194	0x3e045e3e	0.12926576
195	0x3d01d011	0.03169257
196	0xbd5f2cd0	-0.054486096
197	0x3d75b23b	0.059984427
198	0x3cd35ec2	0.02580202
199	0x3df26a6a	0.11836703
200	0xbcf2334e	-0.02956548
201	0xbd0af7a3	-0.03392757
202	0xbc29292f	-0.01032476
203	0xbca6b2c3	-0.020348912
204	0x3dbbc633	0.09168663
205	0xbbdc2f35	-0.0067194947
206	0x3dba46f0	0.090955615
207	0x3d9b3b89	0.07579715
208	0xba966d07	-0.0011476584
209	0x3cda1548	0.026621476
210	0x3ce9deac	0.028548561
211	0xbe25bdd4	-0.16185695
212	0xbd1908d4	-0.037361935
213	0x3c81804a	0.015808243
214	0x3de5ae03	0.11214831
215	0x3d6b0358	0.057376236
216	0xbd4675b2	-0.048452087
217	0xbe1d9b04	-0.15391165
218	0xbdc2170c	-0.09477052
219	0x3c3f97bd	0.011693892
220	0x3ce84767	0.02835436
221	0x3d94580d	0.07243357
222	0x3c2114cc	0.0098316185
223	0xbd9f62a4	-0.07782486
224	0xbd6edde3	-0.058317076
225	0xbd59fcdd	-0.053219665
226	0xbd79d83e	-0.06099724
227	0xbd670c04	-0.056407943
228	0x3db8b9d4	0.09019819
229	0x3d413d31	0.047177497
230	0xbcd49ec8	-0.025954619
231	0x3e03863e	0.12844178
232	0x3d944bb4	0.07241002
233	0xbd3ea65d	-0.046545375
234	0xbb8c82be	-0.0042880466
235	0x3da053cf	0.07828485
236	0xbda66b3b	-0.08125921
237	0x3dec288a	0.1153117
238	0xbda21c7c	-0.07915589
239	0xbd070257	-0.032961216
240	0xbdf56099	-0.11981315
241	0x3e0e2756	0.13882193
242	0x3d3a0867	0.04541817
243	0x3d686253	0.056734394
244	0x3ccc0fc3	0.02490986
245	0x3d780924	0.060555592
246	0xbddc1fa8	-0.107482255
247	0x3c54e0e7	0.012993074
248	0x3d8abcfb	0.067743264
249	0xbdbfa634	-0.093578726
250	0xbd48d2ea	-0.04902927
251	0xbe0191a8	-0.1265322
252	0x3df84d67	0.12124138
253	0x3d78b30c	0.060717627
254	0xbd02de0d	-0.031950045
255	0x3e2ceb14	0.1688655

model.time_mlp.1.bias f4 [256]
0	0xb62946a6	-2.5224085e-06
1	0xb5824cac	-9.708069e-07
2	0x327a294f	1.4561308e-08
3	0x35dffeb1	1.668892e-06
4	0x361fff70	2.384153e-06
5	0x35ae7648	1.2998435e-06
6	0xb57ae5b2	-9.346651e-07
7	0x354a11c3	7.527671e-07
8	0xb35970fe	-5.0627015e-08
9	0xb47bf1cb	-2.346416e-07
10	0x36594429	3.2375194e-06
11	0xb3f5d11f	-1.14467404e-07
12	0xb58d96b0	-1.0549174e-06
13	0xb4f076f9	-4.4790048e-07
14	0x35a5f5cd	1.2364995e-06
15	0xb57b90c3	-9.371544e-07
16	0xb4df4fbb	-4.1594998e-07
17	0x360c60b7	2.091792e-06
18	0xb58cda66	-1.0494375e-06
19	0xb55d9011	-8.253856e-07
20	0x36658842	3.4202972e-06
21	0x34bd025a	3.5205704e-07
22	0xb61e3146	-2.3572516e-06
23	0xb50559db	-4.967712e-07
24	0x35443f6f	7.3108e-07
25	0x3420b740	1.4967827e-07
26	0x35db48ac	1.6337922e-06
27	0x35d1e1d0	1.5637434e-06
28	0x34b7b1a9	3.421567e-07
29	0xb5e1eb01	-1.6832201e-06
30	0x34ddcbc0	4.1312705e-07
31	0x345396dd	1.970579e-07
32	0xb6266be8	-2.4798737e-06
33	0x35eac6f0	1.7492257e-06
34	0xb4caee2e	-3.779873e-07
35	0xb32af5ef	-3.9804885e-08
36	0xb3571fa0	-5.008735e-08
37	0xb58f7986	-1.0689698e-06
38	0xb61ebb26	-2.365277e-06
39	0xb48023a8	-2.38678e-07
40	0x32176e1e	8.8143945e-09
41	0xb3659a3c	-5.3458493e-08
42	0x35d043ea	1.5516973e-06
43	0xb543d890	-7.29583e-07
44	0xb5d623c8	-1.5954656e-06
45	0xb5bd7149	-1.4114568e-06
46	0x359df4c8	1.1768652e-06
47	0xb5e1f2da	-1.6834485e-06
48	0xb412b813	-1.3664275e-07
49	0x3646c4ef	2.961893e-06
50	0x34b2b662	3.3287785e-07
51	0x34e60383	4.2843394e-07
52	0xb5c27a05	-1.4489639e-06
53	0xb5f2d11f	-1.8091267e-06
54	0x36202693	2.386431e-06
55	0xb560c002	-8.372591e-07
56	0xb3ca183b	-9.4107655e-08
57	0xb5afbe9f	-1.3093994e-06
58	0xb56ee402	-8.8993704e-07
59	0x349931d4	2.8534726e-07
60	0x35d0b5dd	1.5550137e-06
61	0xb60964e2	-2.0473312e-06
62	0xb5c8dcfe	-1.4965478e-06
63	0xb5351583	-6.745906e-07
64	0x3605e524	1.9951922e-06
65	0xb5ee3c7e	-1.7749987e-06
66	0xb67da0bd	-3.77935e-06
67	0xb4593c1c	-2.0231568e-07
68	0x36354972	2.7013853e-06
69	0x358c8986	1.0470837e-06
70	0x35d40c0d	1.5798738e-06
71	0xb58125d5	-9.62226e-07
72	0xb4b152e2	-3.3029124e-07
73	0xb600baac	-1.9182144e-06
74	0x347ebc90	2.3724192e-07
75	0x342aaa62	1.5894469e-07
76	0xb5ba77c0	-1.3892932e-06
77	0xb5b5a1b1	-1.3532609e-06
78	0x3639ac4f	2.7667445e-06
79	0xb5612ba0	-8.3882514e-07
80	0x35e77162	1.724384e-06
81	0xb5324ad8	-6.641908e-07
82	0xb545dea3	-7.37122e-07
83	0x35a1be95	1.2050901e-06
84	0xb58b6b20	-1.0387485e-06
85	0x35b37c60	1.3372737e-06
86	0x3584b57f	9.887589e-07
87	0x34f8f694	4.637301e-07
88	0xb4c84ef1	-3.731034e-07
89	0xb4fdb2ae	-4.725493e-07
90	0x35aa6689	1.2695829e-06
91	0x358a5f8b	1.0309608e-06
92	0x3627c53f	2.4999752e-06
93	0xb4fa4edf	-4.6623515e-07
94	0x35683704	8.6506793e-07
95	0x36534886	3.1483664e-06
96	0xb4b57c47	-3.38043e-07
97	0xb58238de	-9.702305e-07
98	0x36567c90	3.196099e-06
99	0x3543dd52	7.2965224e-07
100	0xb6b4657b	-5.376232e-06
101	0x35201346	5.963269e-07
102	0xb4c03338	-3.5800053e-07
103	0xb60df659	-2.115403e-06
104	0x34aeb61f	3.2542536e-07
105	0xb5085c22	-5.079802e-07
106	0x3639c4a5	2.768161e-06
107	0x34d0c56c	3.8886662e-07
108	0xb5c31447	-1.4534534e-06
109	0x357b5a82	9.363649e-07
110	0x356e6c30	8.881934e-07
111	0x350b6a6d	5.1936405e-07
112	0xb3018ddb	-3.016417e-08
113	0x349ca140	2.917459e-07
114	0xb61550be	-2.2249728e-06
115	0xb5960eef	-1.1180217e-06
116	0xb5f2d997	-1.8093732e-06
117	0x35094a67	5.1144747e-07
118	0xb6774ade	-3.6849447e-06
119	0xb575c76b	-9.1559804e-07
120	0xb5ab84bc	-1.2779124e-06
121	0xb549c759	-7.5168424e-07
122	0xb6038a8f	-1.9601173e-06
123	0xb41bd067	-1.4511316e-07
124	0xb4213c22	-1.501617e-07
125	0xb4fb2aa4	-4.6783418e-07
126	0xb451b555	-1.953061e-07
127	0xb620bdbf	-2.3952305e-06
128	0xb5424108	-7.2365265e-07
129	0xb54c9c6c	-7.6223546e-07
130	0x34473fda	1.8556548e-07
131	0xb5565314	-7.9842107e-07
132	0xb669d291	-3.4842271e-06
133	0x33f3d969	1.1355116e-07
134	0xb5e50065	-1.7061944e-06
135	0x350560f4	4.9687446e-07
136	0x347ec328	2.3726591e-07
137	0xb644e14d	-2.9337418e-06
138	0x353d796c	7.058468e-07
139	0xb644251c	-2.9227876e-06
140	0x36347d09	2.689487e-06
141	0xb61536be	-2.2234594e-06
142	0xb515a2fb	-5.5743993e-07
143	0x36a78524	4.9924874e-06
144	0x35229316	6.056374e-07
145	0x35f65283	1.8352442e-06
146	0xb62aef71	-2.5471347e-06
147	0x3597922a	1.1292916e-06
148	0x360807b0	2.0270054e-06
149	0x3566d216	8.598739e-07
150	0x339a7f6e	7.194363e-08
151	0x3632460e	2.6564844e-06
152	0x356ffb2a	8.939993e-07
153	0xb5f5f8c9	-1.8326328e-06
154	0xb54045b4	-7.1627005e-07
155	0xb5d56a9d	-1.5900765e-06
156	0xb4c64f81	-3.693822e-07
157	0x34f080cf	4.4797204e-07
158	0x359f53d3	1.1870819e-06
159	0x36097ea7	2.0488312e-06
160	0x356ea420	8.890074e-07
161	0xb5d68675	-1.5983375e-06
162	0xb3b5b615	-8.46159e-08
163	0x3593d663	1.1014748e-06
164	0x3525123d	6.149383e-07
165	0xb4cc0d6f	-3.8007735e-07
166	0x3619f67e	2.2942254e-06
167	0xb493768a	-2.7467132e-07
168	0x3652fe2a	3.1440381e-06
169	0xb490b414	-2.6953114e-07
170	0xb5af6eb4	-1.3070735e-06
171	0xb5c8ab66	-1.4951045e-06
172	0x35d3728a	1.575406e-06
173	0xb603d712	-1.9645709e-06
174	0xb5dd1d89	-1.6474379e-06
175	0xb436d34d	-1.7026942e-07
176	0xb5bc0d42	-1.401095e-06
177	0xb4ab9e7b	-3.1966542e-07
178	0x364fc912	3.0962442e-06
179	0x35dcb8b9	1.6445039e-06
180	0xb5897e7e	-1.024411e-06
181	0x3296bee3	1.7549104e-08
182	0xb5b7e40e	-1.3700935e-06
183	0xb5176438	-5.639772e-07
184	0x35c000f2	1.430539e-06
185	0xb597738b	-1.1284004e-06
186	0xb5c60407	-1.4753322e-06
187	0xb5bdaf28	-1.4132575e-06
188	0x34979cf5	2.8240143e-07
189	0xb5cf3655	-1.5438515e-06
190	0xb65a4d1a	-3.252941e-06
191	0xb59028a2	-1.0740662e-06
192	0x3594680e	1.1057143e-06
193	0xb4354003	-1.6880226e-07
194	0xb6399a30	-2.7656897e-06
195	0xb3661b19	-5.3575693e-08
196	0x354c5dc4	7.613237e-07
197	0xb4c4ec97	-3.6679987e-07
198	0xb5bac802	-1.391629e-06
199	0x35bb7bac	1.3968579e-06
200	0xb58561a4	-9.937689e-07
201	0xb35f7bb5	-5.2033744e-08
202	0xb6329965	-2.6613354e-06
203	0xb55aa831	-8.145608e-07
204	0x35d0dc44	1.5561313e-06
205	0x35413638	7.1977e-07
206	0x36438336	2.913364e-06
207	0xb55ffc7d	-8.344139e-07
208	0xb52bf965	-6.406538e-07
209	0xb41f45c4	-1.483341e-07
210	0x3540f29a	7.1878605e-07
211	0xb5bcdc78	-1.4071256e-06
212	0x3584c1ba	9.891148e-07
213	0x34fac82b	4.671177e-07
214	0xb3528454	-4.9014787e-08
215	0x35a4e5b3	1.2285803e-06
216	0x36716282	3.5969138e-06
217	0x36877d96	4.0379336e-06
218	0xb5a0ed19	-1.1989933e-06
219	0xb57600b9	-9.1643193e-07
220	0xb5169265	-5.6092387e-07
221	0xb6034d73	-1.9565603e-06
222	0x3599744a	1.1433233e-06
223	0x337de5f7	5.9115305e-08
224	0x363048b2	2.6268358e-06
225	0xb5a147af	-1.2016297e-06
226	0x36127446	2.1823375e-06
227	0xb5ed57d3	-1.7683436e-06
228	0x35c71099	1.4831486e-06
229	0x366e31cf	3.5493756e-06
230	0xb5a68263	-1.2405911e-06
231	0xb6087913	-2.0336054e-06
232	0xb59080ef	-1.0766361e-06
233	0x3440d612	1.7959272e-07
234	0x359aae3a	1.1524601e-06
235	0xb5cfb255	-1.5474603e-06
236	0x35c7a779	1.4875396e-06
237	0xb6128fc4	-2.1839378e-06
238	0xb57a550b	-9.325601e-07
239	0xb5e04400	-1.6709091e-06
240	0x36a7c087	4.999401e-06
241	0xb66fe834	-3.5748935e-06
242	0xb627ec44	-2.5022464e-06
243	0x3617387f	2.2533638e-06
244	0xb6a009e1	-4.7695216e-06
245	0xb53f5224	-7.1272575e-07
246	0xb5d69dbd	-1.599015e-06
247	0xb50cb6ec	-5.242025e-07
248	0xb388d792	-6.3722055e-08
249	0xb2ecf1a5	-2.7583903e-08
250	0xb5d07a2a	-1.5532762e-06
251	0xb612c6c1	-2.1871385e-06
252	0xb607bf8c	-2.0228063e-06
253	0x32dc9b08	2.568187e-08
254	0xb553d8ad	-7.891893e-07
255	0xb4a6013c	-3.0920808e-07

model.time_mlp.3.weight f4 [32, 256]
0	0x3d8c96ad	0.068646766
1	0x3b72a851	0.0037026594
2	0xbcd577df	-0.026058136
3	0xbd307436	-0.043079577
4	0xbc1364a5	-0.0089961635
5	0xbc92bfb8	-0.017913684
6	0xbc35ec0d	-0.011103642
7	0xbcb4d48a	-0.022074003
8	0x3b1221b4	0.002229792
9	0xbc6c6ba7	-0.014429963
10	0x3c1f6065	0.009727572
11	0xbc31fdb5	-0.010863711
12	0x3c235ff7	0.00997161
13	0xbc88ab45	-0.01668323
14	0xbd07b3fa	-0.033130623
15	0xbc30e5d8	-0.0107969865
16	0xbb577c90	-0.0032880642
17	0xbd9a2c67	-0.07528
18	0x3d00d4e7	0.03145304
19	0xbbd4a220	-0.0064890534
20	0xbc922857	-0.017841501
21	0x3c89b7a4	0.0168112
22	0xbc2f1927	-0.010687149
23	0x3da3d430	0.07999456
24	0xbb4e5eb9	-0.0031489565
25	0x3c02ad90	0.007975951
26	0xbd0be1e3	-0.03415097
27	0xbd878f22	-0.06619097
28	0x3cc0fcea	0.023558099
29	0x3c3e7e66	0.011626815
30	0x3bc12592	0.0058943713
31	0xbc6c1453	-0.014409143
32	0x3d5ff50f	0.054677065
33	0xbdd68757	-0.10475033
34	0xbcfb9392	-0.030710015
35	0x3b3c0956	0.0028692088
36	0x3b73817a	0.0037156031
37	0x3c15a6f4	0.009134043
38	0xbd0cee4a	-0.034406938
39	0x3b952c1c	0.0045523774
40	0xbca07867	-0.019588662
41	0x3b46b90b	0.0030322697
42	0x3a316f5c	0.0006768608
43	0x3c973fa2	0.01846296
44	0xbadcb7d6	-0.0016839455
45	0x3d35d34c	0.04439096
46	0xbda1cc94	-0.07900348
47	0xbd15aab6	-0.036539756
48	0xbc85c4e2	-0.016329233
49	0xbc0d4981	-0.008623482
50	0xbbb479db	-0.0055076904
51	0xbcf48345	-0.02984775
52	0x3caf74ce	0.021418002
53	0xbb9926b4	-0.004673803
54	0x3bb93615	0.005652199
55	0xbc4c4d42	-0.012469592
56	0x3c12704f	0.008937909
57	0xbccf0231	-0.0252696
58	0xbca0c8c0	-0.019626975
59	0xbbc7cf41	-0.0060977046
60	0xbca39c1e	-0.019971903
61	0xbd14c753	-0.036322903
62	0x3d1052af	0.035235103
63	0x3cbbcf0e	0.02292588
64	0x3c8095b0	0.015696377
65	0x3c9e8323	0.01934964
66	0x3b8cefef	0.0043010633
67	0x3cd812f8	0.026376233
68	0xbcf06e0b	-0.029349348
69	0xbc17f0ae	-0.009273691
70	0xbc61855f	-0.013764708
71	0x3d8111ce	0.06302224
72	0xbcd93ddd	-0.026518757
73	0x3ca5e008	0.020248428
74	0xbdcbe24a	-0.099552706
75	0x3be0bfd8	0.006858807
76	0xbc8cc2b5	-0.017182687
77	0xbc87acda	-0.016561914
78	0xbd341f9a	-0.04397545
79	0x3c9e46fe	0.019320961
80	0xbc21f31e	-0.009884624
81	0xbd7b018a	-0.061280765
82	0xbcfd2a44	-0.030903943
83	0xbd154296	-0.036440454
84	0xbc2eeccb	-0.010676573
85	0xbd3a443a	-0.045475222
86	0xbcadaee5	-0.02120156
87	0xba9c21fc	-0.0011911984
88	0xbcf93770	-0.030421942
89	0xbd38176a	-0.044944204
90	0x3cb2ee17	0.021842046
91	0xbd1e0ad7	-0.038584556
92	0xbd257e9e	-0.040403955
93	0x3c591c9a	0.013251448
94	0xbcb2ca7b	-0.021825066
95	0xbd0330a2	-0.0320288
96	0xbc8d3545	-0.017237315
97	0xbd2d706d	-0.042343546
98	0xbd38c289	-0.0451074
99	0x3cb36fe6	0.021903943
100	0xbc8c5e97	-0.017134948
101	0x3c14434e	0.00904925
102	0xbcc4a7bb	-0.024005761
103	0xbc22d165	-0.009937619
104	0x3c618dad	0.013766688
105	0x3a6a8e5f	0.00089476065
106	0x3bae8502	0.0053259144
107	0xbc44ea10	-0.0120186955
108	0x3d47d05e	0.0487827
109	0x3d02987b	0.031883698
110	0xbc8acd3a	-0.016943563
111	0x3ce8e197	0.028427882
112	0x3b388abf	0.002815887
113	0x3d2a8679	0.04163215
114	0x3c48052a	0.012208262
115	0x3c4e5fde	0.012596099
116	0xbbb073b8	-0.0053848885
117	0xbd2d6a8e	-0.042337947
118	0xba18bdd3	-0.0005826626
119	0x3be83361	0.007086203
120	0x3c9241dd	0.017853672
121	0x3cbe5ddb	0.023238113
122	0x3c94a6db	0.01814597
123	0x3d03d225	0.03218283
124	0xbcc88439	-0.024477111
125	0xbd161558	-0.03664145
126	0xbd2e8bb7	-0.04261371
127	0x3d1c10b6	0.038101874
128	0xbb7dd6ba	-0.0038732723
129	0x3cb45840	0.022014737
130	0xbc56665d	-0.013085929
131	0xbbb0ba4d	-0.0053933025
132	0xbcc0de2f	-0.023543445
133	0x3b856dbb	0.004071919
134	0xbd0d8b6a	-0.034556784
135	0x3c03c2d8	0.00804206
136	0xbd4e8ca5	-0.050427098
137	0xbcb6b8e1	-0.022304954
138	0xbd0e7564	-0.03477992
139	0x3d165d8e	0.036710314
140	0xbaa21281	-0.0012365134
141	0xbc82e360	-0.015977561
142	0xbaea0084	-0.0017852937
143	0xbb4ceb9e	-0.0031268368
144	0xbc6c6d42	-0.014430346
145	0x3a8e4fa8	0.001085748
146	0x3d46cdcb	0.048536103
147	0x3b47ff98	0.0030517336
148	0xbcfabf1e	-0.03060871
149	0xbd6912aa	-0.056902565
150	0x3d067d36	0.032834254
151	0xbd3cea5f	-0.04612195
152	0xbc5b5a9d	-0.013388303
153	0xba89651b	-0.0010482402
154	0x3cc3e146	0.02391113
155	0x3c255629	0.010091343
156	0x3d6c9aa7	0.057764675
157	0xbbe32102	-0.006931425
158	0x3d263947	0.040581968
159	0xbcd4ad08	-0.025961414
160	0xbd221e45	-0.03957965
161	0x3d66d0f1	0.056351606
162	0xbcd674fa	-0.026178826
163	0x3d82ebd4	0.06392637
164	0x3b614d53	0.0034378364
165	0xbbfb5474	-0.0076699797
166	0xbb5abb3d	-0.0033375763
167	0x3d31fd2a	0.043454327
168	0x3c0432a4	0.008068714
169	0xbd641c9f	-0.055691358
170	0xbd941c3a	-0.07231946
171	0x39ede2be	0.000453731
172	0xbb03362e	-0.0020021307
173	0x3cc9f6f2	0.024653886
174	0x3c98e6aa	0.018664677
175	0xbcfb551d	-0.030680234
176	0x3c199915	0.0093748765
177	0x3bf2205b	0.007389111
178	0x3cfa60bd	0.030563707
179	0x3bbef9ee	0.005828134
180	0xba83334f	-0.0010009798
181	0xbb8dda63	-0.0043290122
182	0x3c9d05f4	0.019167878
183	0x3c0880c5	0.008331482
184	0x3bf596aa	0.007494767
185	0x3c723fab	0.014785687
186	0x3d72b55a	0.05925498
187	0x3c396dfe	0.011317728
188	0x3cf3d589	0.029764907
189	0x3db48f57	0.088164024
190	0xbc9bff98	-0.019042775
191	0x3c3dd95f	0.01158747
192	0x3cb8802c	0.022522055
193	0xbc38f211	-0.011288182
194	0xbc5bff2d	-0.013427538
195	0xbc419e50	-0.01181753
196	0xbc2e1587	-0.01062525
197	0xbbf7ee71	-0.007566266
198	0x3c1e29e1	0.009653539
199	0x3c65e924	0.014032636
200	0xbd2e3793	-0.04253347
201	0xbc3f8ba9	-0.011691012
202	0x3c57efac	0.013179701
203	0xbc5324ca	-0.012887189
204	0x3bf5467d	0.0074852095
205	0x3d4836a7	0.048880246
206	0x3bd69cf3	0.0065494715
207	0xbbb0804a	-0.005386387
208	0x3c272ba4	0.010203276
209	0x3c5b3d6b	0.013381342
210	0xbd0fafa9	-0.035079632
211	0xbbc8a50e	-0.0061231917
212	0xbd6b99ff	-0.05751991
213	0xbc3df54f	-0.011594131
214	0x3d320051	0.043457333
215	0xbc5d0836	-0.013490727
216	0x3d027bd3	0.03185637
217	0x3bcdc934	0.006280089
218	0x3d339237	0.043840613
219	0xbc1eaa15	-0.009684105
220	0x3bbb0577	0.0057074386
221	0x3d5908e9	0.052987013
222	0x3c43771c	0.011930253
223	0xbd4fe6f5	-0.050757367
224	0x3ceb77ce	0.02874365
225	0xbcc7b1ff	-0.024376867
226	0x3d18991a	0.037255384
227	0xbbecc482	-0.007225574
228	0xbbdd3e42	-0.0067518065
229	0xbcdd7bea	-0.027036626
230	0xbc5c56e8	-0.013448454
231	0xbd48c834	-0.049019054
232	0xbce0af23	-0.027427262
233	0x3c5db679	0.013532274
234	0x3cf19bee	0.029493298
235	0x3bfcaf23	0.0077113076
236	0xbb7722ae	-0.003770988
237	0xbd21d8e9	-0.039513502
238	0x3ccc5a3c	0.02494537
239	0xbc90ee01	-0.017691614
240	0x3d0ad084	0.033890262
241	0x3d7f5bbe	0.06234335
242	0x3c3d6fb0	0.011562273
243	0x3accc68d	0.0015623138
244	0x3ce6c5bb	0.028170457
245	0x3d40d13c	0.04707454
246	0xbb693b05	-0.0035588157
247	0x3c768111	0.01504542
248	0xbc6146dd	-0.013749805
249	0x3d119a41	0.0355475
250	0x3a8727b4	0.0010311515
251	0x3ca8c512	0.020601783
252	0x3ac055d9	0.0014674022
253	0x3af5a8ca	0.001874232
254	0x3c493a21	0.012281925
255	0xbd3b2325	-0.045687813

model.time_mlp.3.bias f4 [32]
0	0xb78dc11b	-1.6898432e-05
1	0x3666039f	3.4274778e-06
2	0xb796d284	-1.7979422e-05
3	0x3471ff78	2.2537813e-07
4	0xb7505761	-1.2418111e-05
5	0xb636b2d2	-2.72242e-06
6	0x35ed97b3	1.7702026e-06
7	0x35459c59	7.3615735e-07
8	0xb6f9530b	-7.4304457e-06
9	0xb6c491de	-5.8582364e-06
10	0x378d71ee	1.6861562e-05
11	0xb774c402	-1.458917e-05
12	0xb67792a8	-3.6891233e-06
13	0x354a6b10	7.540666e-07
14	0x37833fc9	1.564612e-05
15	0x36898b07	4.099103e-06
16	0x37211bf6	9.602858e-06
17	0x3743133f	1.1627387e-05
18	0xb73148e6	-1.0566995e-05
19	0x34465a87	1.847312e-07
20	0xb7dd123f	-2.635375e-05
21	0xb7df4553	-2.6615953e-05
22	0x370e229a	8.471916e-06
23	0x37386129	1.09898765e-05
24	0xb6c5d0fe	-5.8953874e-06
25	0xb803c07c	-3.14121e-05
26	0xb4fcedba	-4.7111627e-07
27	0xb7856657	-1.5902491e-05
28	0xb7a6bcb7	-1.987662e-05
29	0x35b49426	1.3454162e-06
30	0xb7398f47	-1.1060219e-05
31	0x376d070d	1.4127942e-05

model.layer.0.weight f4 [256, 55]
0	0xbc124b96	-0.008929154
1	0xbdb43c64	-0.08800581
2	0xbe106893	-0.14102392
3	0x3dcea262	0.10089566
4	0xbe05b389	-0.13056768
5	0x3c43d925	0.011953627
6	0x3bf092f6	0.007341738
7	0xbcee7a81	-0.029111149
8	0xbbc42eb0	-0.005987011
9	0xbdd11951	-0.10209907
10	0x3dd68470	0.10474479
11	0xbd85ec67	-0.06539231
12	0xbd936a09	-0.07197959
13	0x3d12af09	0.035811458
14	0x3ca1784b	0.01971068
15	0x3e10ead3	0.14152078
16	0x3d0dc437	0.034610953
17	0xbe13b736	-0.14425358
18	0x3d765edc	0.06014906
19	0xbd846f16	-0.064665005
20	0x3d41fcae	0.047360115
21	0x3dd9c3a2	0.10633017
22	0x3c076821	0.008264572
23	0x3ba602fc	0.0050662737
24	0x3c7d69d3	0.015467125
25	0xbbb06ba9	-0.005383928
26	0xbd1ac833	-0.03778858
27	0x3de62272	0.11237039
28	0x3cf0e754	0.02940718
29	0xbc9872a0	-0.018609345
30	0xba5bd317	-0.0008385642
31	0x3daa0381	0.083014496
32	0xbcd211d7	-0.025643272
33	0xbbe13b07	-0.0068734917
34	0x3d43798e	0.047723345
35	0x3d39026e	0.045168333
36	0x3db7c596	0.089732334
37	0x3dd8ef2b	0.10592493
38	0xbd1571fd	-0.03648566
39	0x3c59a24f	0.013283326
40	0xbd320cc1	-0.043469194
41	0xbbad8d87	-0.0052964124
42	0x3e0f0007	0.13964854
43	0xbdb10e22	-0.08645274
44	0x3d79980f	0.06093603
45	0xbc9f4ef0	-0.01944682
46	0x3d38811d	0.045045007
47	0xbd6c6f60	-0.057723403
48	0xbdb79015	-0.08963028
49	0xbd9a34d8	-0.075296104
50	0x3d8310a1	0.06399656
51	0x3e02182b	0.12704532
52	0x3dcd6635	0.1002926
53	0x3d0dc12d	0.034608055
54	0xbd53a8ca	-0.05167464
55	0x3cdc9631	0.026927086
56	0x3d8465af	0.06464707
57	0xbca9df62	-0.0207364
58	0x3cf71ff0	0.030166596
59	0x3da8722b	0.08224901
60	0x3985acab	0.00025496384
61	0x3af508cf	0.0018694642
62	0xbdc0c817	-0.09413164
63	0xbdb5a8f1	-0.08870114
64	0x3c29d52b	0.010365765
65	0xbc56c49d	-0.0131084
66	0xbddf60e3	-0.109071516
67	0x3adf25ed	0.0017024853
68	0xbd091ff7	-0.03347775
69	0xbdaef728	-0.08543235
70	0xbd14951a	-0.036275007
71	0xbc58977c	-0.01321971
72	0x3d1d9e7e	0.038481228
73	0x3d3620af	0.044464763
74	0x3de6bc9d	0.11266444
75	0x3db5e9b9	0.0888247
76	0xbcd09e48	-0.0254661
77	0x3c887531	0.016657444
78	0x3d60dd0a	0.0548983
79	0xbdcfe9d1	-0.10152019
80	0xbd56d307	-0.052447345
81	0xbd058a18	-0.0326024
82	0x3d95e6cb	0.07319411
83	0xbdb4eb3d	-0.08833931
84	0x3d6aca00	0.05732155
85	0x3d1b81e1	0.03796566
86	0xbda215b0	-0.07914293
87	0x3c80bf61	0.015716257
88	0xbce0b5fe	-0.02743053
89	0x3c8fafbc	0.017539851
90	0x3c830541	0.015993716
91	0xbcc95ef6	-0.024581414
92	0x3b1288d0	0.0022359379
93	0xbcbcc6ae	-0.023043957
94	0x3dc9ad60	0.09847522
95	0x3dc27767	0.094954304
96	0x3d8a563c	0.06754729
97	0x3d77975d	0.060447086
98	0x3df5ff1d	0.120115496
99	0x3d121ede	0.03567397
100	0xbdab535a	-0.083655074
101	0xbb8a95bd	-0.004229276
102	0x3d5eedd9	0.054426048
103	0xbdab8d80	-0.08376598
104	0x3c801cbf	0.015638707
105	0xbd421866	-0.04738655
106	0x3d454e2a	0.048170246
107	0xbc99eb8d	-0.018789077
108	0xbba4e8f6	-0.005032654
109	0xbd9a2577	-0.07526677
110	0xbc8882ab	-0.01666387
111	0x3d5a4b0a	0.05329422
112	0x3d27a148	0.040925294
113	0x3d068e2a	0.032850422
114	0x3c67f5d1	0.014157728
115	0x3cbee386	0.023301851
116	0xbd16f29e	-0.03685247
117	0xbd8f64ce	-0.07001649
118	0xbbe274b4	-0.0069108848
119	0xbdb0f265	-0.08639983
120	0xbc8fc3c6	-0.017549407
121	0xbd1b2d13	-0.037884783
122	0xbaae42b4	-0.0013295026
123	0xbd1f11a8	-0.038835198
124	0x3d0811c9	0.033220086
125	0xbdd1ab29	-0.10237724
126	0xbddb6def	-0.107143275
127	0x3ab2566c	0.0013606078
128	0x3c1774df	0.009244173
129	0xbdebbfe7	-0.11511212
130	0x3dbce747	0.092238
131	0xbd49635d	-0.049167026
132	0xbdd0c4fd	-0.101938225
133	0xbd6039ed	-0.054742742
134	0xbe0c6c0a	-0.13713089
135	0x3e252a97	0.16129528
136	0xbdc79281	-0.0974474
137	0xbd587c60	-0.05285299
138	0xba6d33cb	-0.000904855
139	0xbd2e59a8	-0.04256597
140	0x3dfb5438	0.12271923
141	0xbd0f0be3	-0.034923445
142	0xbc896e54	-0.016776241
143	0x3daa1d69	0.08306391
144	0x3d27f2d6	0.04100307
145	0xbdda5cc8	-0.10662228
146	0xbcb66a17	-0.022267384
147	0xbd521920	-0.051293492
148	0x3d29c230	0.041444957
149	0xbd466097	-0.04843196
150	0x3da54fe8	0.080718815
151	0x3b368643	0.0027851022
152	0xbd2d1fbd	-0.042266596
153	0xbd82896f	-0.0637387
154	0xbc8d28c7	-0.017231358
155	0xbdbe66fa	-0.09296985
156	0x3df38487	0.11890512
157	0xbd5f2355	-0.054477055
158	0xbd0591db	-0.0326098
159	0xb9eee1d8	-0.00045563164
160	0x3d3d0604	0.046148315
161	0xbd2ffc9a	-0.04296551
162	0xbe14f3a1	-0.14546062
163	0xbd17556e	-0.036946706
164	0x3cc57d09	0.024107473
165	0x3d8907e2	0.06690957
166	0xbdb0f0e8	-0.08639699
167	0xbcbdbda2	-0.023161713
168	0xbe15297f	-0.14566611
169	0x3dd156d6	0.10221641
170	0xbc5a49b7	-0.013323239
171	0xbb110ce0	-0.0022132918
172	0xbdb7151e	-0.08939575
173	0xbc9278e2	-0.017879907
174	0x3dcc343b	0.099709
175	0xbd3329ee	-0.04374116
176	0x3c8323cd	0.016008282
177	0x3ae54193	0.0017490856
178	0x3dab996d	0.08378873
179	0xbd99db00	-0.07512474
180	0x3d53c000	0.051696777
181	0x3d9eb4b9	0.07749314
182	0xbb83272c	-0.0040024724
183	0xbc905e6c	-0.017623149
184	0x3df9b4d1	0.12192691
185	0x3d079b27	0.03310695
186	0xbd0b12c8	-0.033953458
187	0xbca95729	-0.020671444
188	0x3ba9ef7b	0.005186019
189	0x3d339357	0.043841686
190	0xbd699d5d	-0.05703484
191	0xbd02f67d	-0.03197335
192	0x3d0325b4	0.03201838
193	0x3cd3260a	0.025774974
194	0x3c7f8025	0.015594517
195	0x3ca338f7	0.019924624
196	0xbc1564e4	-0.0091182925
197	0xbda5da77	-0.080983095
198	0xbceb4949	-0.028721469
199	0x3c998ffb	0.018745413
200	0xbda790d0	-0.08181918
201	0xbcccedde	-0.025015768
202	0xbd41c794	-0.047309473
203	0x3d437b54	0.047725037
204	0x3d4ee5fa	0.05051229
205	0xbd394b66	-0.04523792
206	0xbcb40d4c	-0.021978997
207	0xbd37c03a	-0.044861056
208	0x3dc2c9ef	0.09511172
209	0x3c2e92f3	0.010655153
210	0x3d15aafc	0.036540017
211	0x3de804bf	0.1132903
212	0x3dab61c1	0.083682545
213	0xbdb08cfc	-0.08620641
214	0x3d578fc7	0.05262735
215	0x3df2435c	0.11829254
216	0xbc1fe8cc	-0.009760093
217	0xbd00cf05	-0.03144743
218	0x3c2cd9fc	0.010550018
219	0xbd738753	-0.059455227
220	0xbd9460cb	-0.07245024
221	0xbc896a9c	-0.016774468
222	0xbd06f155	-0.032944996
223	0xbc8df619	-0.017329263
224	0xbbcd08ac	-0.0062571373
225	0x3dd34171	0.10315216
226	0xbe17bb28	-0.14817488
227	0x3cf47d19	0.029844807
228	0x3ce0fe99	0.027465152
229	0x3e13b50d	0.14424534
230	0xbd2976c3	-0.041373026
231	0x3d8d7157	0.069063835
232	0x3ca55d41	0.020186068
233	0xbd9cfc69	-0.07665331
234	0x3d596509	0.05307487
235	0x3c84bb5f	0.016202627
236	0xbd757e16	-0.059934698
237	0x3d442945	0.04789092
238	0x3d8c7735	0.068586744
239	0xbd89b475	-0.067238726
240	0xbc7bb8fb	-0.015363927
241	0xbd056266	-0.032564543
242	0xbd20893e	-0.039193384
243	0x3d11f4f8	0.03563401
244	0xbe0abaf1	-0.13547875
245	0xbc84348f	-0.016138343
246	0xbc53b222	-0.012920888
247	0x3dc15968	0.09440881
248	0xbda1880e	-0.078872785
249	0xbda3067c	-0.07960221
250	0x3cf34b5b	0.029699018
251	0xbdc16d9f	-0.09444737
252	0xbe2830bc	-0.1642484
253	0x3dbd5d62	0.09246327
254	0xba4ddfae	-0.000785346
255	0xbc18ab7d	-0.00931823
