results/qvpo_HalfCheetah-v3/actor_25_04_22_05_08_26_0.pth (torch, 667057 bytes, 24 tensors)

betas f4 [50]
0.0039720903 0.007908561 0.011829475 0.015734892 0.019624876 0.023499483 0.02735878 0.031202823
0.035031673 0.03884539 0.04264404 0.04642767 0.05019635 0.053950135 0.057689086 0.06141326
0.06512271 0.068817504 0.072497696 0.076163344 0.0798145 0.083451234 0.08707359 0.09068163
0.09427541 0.09785499 0.10142042 0.10497175 0.108509056 0.112032376 0.11554178 0.11903731
0.12251902 0.12598698 0.12944122 0.13288182 0.13630882 0.13972227 0.14312223 0.14650875
0.1498819 0.15324171 0.15658824 0.15992156 0.16324168 0.1665487 0.16984263 0.17312355
0.17639151 0.17964655
00000000: 4f28 823b e992 013c 6ad0 413c 76e6 803c
00000010: 59c4 a03c fd81 c03c 851f e03c 109d ff3c
00000020: 5f7d 0f3d 581c 1f3d 84ab 2e3d f12a 3e3d
00000030: b09a 4d3d d1fa 5c3d 644b 6c3d 788c 7b3d
00000040: 0e5f 853d 31f0 8c3d ac79 943d 87fb 9b3d
00000050: c975 a33d 7be8 aa3d a353 b23d 4ab7 b93d
00000060: 7713 c13d 3268 c83d 82b5 cf3d 6efb d63d
00000070: ff39 de3d 3b71 e53d 2ba1 ec3d d5c9 f33d
00000080: 41eb fa3d bb02 013e 3d8c 043e 2c12 083e
00000090: 8a94 0b3e 5b13 0f3e a28e 123e 6406 163e
000000a0: a47a 193e 65eb 1c3e ab58 203e 7ac2 233e
000000b0: d428 273e be8b 2a3e 3aeb 2d3e 4d47 313e
000000c0: fa9f 343e 44f5 373e

alphas_cumprod f4 [50]
0.9960279 0.9881507 0.9764614 0.9610969 0.94223547 0.9200934 0.89492077 0.86699677
0.8366244 0.80412537 0.7698342 0.7340926 0.69724387 0.65962744 0.62157416 0.58340126
0.54540855 0.5078749 0.47105515 0.435178 0.40044448 0.3670269 0.33506855 0.304684
0.2759598 0.24895576 0.22370657 0.2002237 0.17849761 0.1585001 0.14018673 0.12349927
0.10836826 0.09471527 0.08245521 0.07149841 0.06175255 0.053124342 0.04552107 0.038851835
0.033028647 0.027967282 0.023587935 0.019815715 0.016580965 0.013819426 0.011472299 0.009486174
0.007812894 0.006409334
00000000: affb 7e3f 72f7 7c3f 60f9 793f 720a 763f
00000010: 5836 713f 3e8b 6b3f 8719 653f 80f3 5d3f
00000020: 042d 563f 29db 4d3f db13 453f 7eed 3b3f
00000030: 937e 323f 58dd 283f 7c1f 1f3f c959 153f
00000040: e59f 0b3f 1704 023f 242e f13e a7cf de3e
00000050: 0f07 cd3e f3ea bb3e 1b8e ab3e 8bff 9b3e
00000060: 9a4a 8d3e 42ee 7e3e 5613 653e 7107 4d3e
00000070: 14c8 363e da4d 223e 1c8d 0f3e 2fed fc3d
00000080: 2ef0 dd3d 14fa c13d 47de a83d c26d 923d
00000090: 3ef0 7c3d e998 593d 4d74 3a3d 1a23 1f3d
000000a0: 0c49 073d a41b e53c 7c3b c13c 9154 a23c
000000b0: ced4 873c e06a 623c 4ff6 3b3c e66b 1b3c
000000c0: a701 003c 6405 d23b

alphas_cumprod_prev f4 [50]
1.0 0.9960279 0.9881507 0.9764614 0.9610969 0.94223547 0.9200934 0.89492077
0.86699677 0.8366244 0.80412537 0.7698342 0.7340926 0.69724387 0.65962744 0.62157416
0.58340126 0.54540855 0.5078749 0.47105515 0.435178 0.40044448 0.3670269 0.33506855
0.304684 0.2759598 0.24895576 0.22370657 0.2002237 0.17849761 0.1585001 0.14018673
0.12349927 0.10836826 0.09471527 0.08245521 0.07149841 0.06175255 0.053124342 0.04552107
0.038851835 0.033028647 0.027967282 0.023587935 0.019815715 0.016580965 0.013819426 0.011472299
0.009486174 0.007812894
00000000: 0000 803f affb 7e3f 72f7 7c3f 60f9 793f
00000010: 720a 763f 5836 713f 3e8b 6b3f 8719 653f
00000020: 80f3 5d3f 042d 563f 29db 4d3f db13 453f
00000030: 7eed 3b3f 937e 323f 58dd 283f 7c1f 1f3f
00000040: c959 153f e59f 0b3f 1704 023f 242e f13e
00000050: a7cf de3e 0f07 cd3e f3ea bb3e 1b8e ab3e
00000060: 8bff 9b3e 9a4a 8d3e 42ee 7e3e 5613 653e
00000070: 7107 4d3e 14c8 363e da4d 223e 1c8d 0f3e
00000080: 2fed fc3d 2ef0 dd3d 14fa c13d 47de a83d
00000090: c26d 923d 3ef0 7c3d e998 593d 4d74 3a3d
000000a0: 1a23 1f3d 0c49 073d a41b e53c 7c3b c13c
000000b0: 9154 a23c ced4 873c e06a 623c 4ff6 3b3c
000000c0: e66b 1b3c a701 003c

sqrt_alphas_cumprod f4 [50]
0.998012 0.9940577 0.9881606 0.9803555 0.97068816 0.959215 0.94600254 0.93112665
0.9146717 0.89673036 0.877402 0.85679203 0.8350113 0.8121745 0.78839976 0.76380706
0.7385178 0.71265346 0.68633455 0.65968025 0.63280684 0.60582745 0.57885104 0.5519819
0.52531874 0.49895468 0.4729763 0.44746363 0.4224898 0.39812073 0.3744152 0.35142463
0.32919335 0.30775845 0.28715014 0.26739186 0.24850062 0.23048718 0.21335667 0.19710869
0.18173786 0.16723421 0.15358365 0.1407683 0.1287671 0.11755606 0.10710882 0.09739699
0.088390574 0.080058314
00000000: b77d 7f3f 917a 7e3f 18f8 7c3f 94f8 7a3f
00000010: 057f 783f 1d8f 753f 392d 723f 515e 6e3f
00000020: ed27 6a3f 1f90 653f 6b9d 603f b956 5b3f
00000030: 4dc3 553f abea 4f3f 91d4 493f dc88 433f
00000040: 810f 3d3f 7570 363f 9fb3 2f3f cee0 283f
00000050: a1ff 213f 8217 1b3f 952f 143f b04e 0d3f
00000060: 4a7b 063f fd76 ff3e f329 f23e f419 e53e
00000070: 9550 d83e 7bd6 cb3e 59b3 bf3e eeed b33e
00000080: 088c a83e 8492 9d3e 5805 933e 96e7 883e
00000090: f276 7e3e d504 6c3e 2c7a 5a3e dcd6 493e
000000a0: 7d19 3a3e 723f 2b3e 0845 1d3e 9125 103e
000000b0: 86db 033e 3bc1 f03d de5b db3d 1378 c73d
000000c0: 1e06 b53d 9df5 a33d

sqrt_one_minus_alphas_cumprod f4 [50]
0.0630247 0.10885442 0.1534229 0.19723873 0.24034253 0.28267753 0.32415926 0.3646961
0.4041975 0.44257727 0.47975597 0.5156621 0.55023277 0.58341455 0.61516327 0.64544463
0.674234 0.7015163 0.727286 0.7515464 0.7743097 0.79559606 0.81543326 0.83385605
0.85090554 0.8666281 0.88107514 0.8943021 0.90636766 0.91733307 0.9272612 0.9362162
0.94426256 0.95146453 0.95788556 0.9635879 0.96863174 0.9730754 0.97697437 0.9803816
0.983347 0.9859172 0.98813564 0.99004257 0.9916749 0.99306625 0.9942473 0.99524564
0.9960859 0.9967902
00000000: 1813 813d 11ef de3d e51a 1d3e f3f8 493e
00000010: 5a1c 763e 1cbb 903e 34f8 a53e 72b9 ba3e
00000020: faf2 ce3e 7d99 e23e 93a2 f53e 6e02 043f
00000030: 0edc 0c3f a85a 153f 577b 1d3f dc3b 253f
00000040: 999a 2c3f 9296 333f 6a2f 3a3f 5865 403f
00000050: 2939 463f 2fac 4b3f 3cc0 503f 9777 553f
00000060: f2d4 593f 57db 5d3f 248e 613f fcf0 643f
00000070: b607 683f 57d6 6a3f fd60 6d3f ddab 6f3f
00000080: 31bb 713f 2e93 733f fd37 753f b2ad 763f
00000090: 40f8 773f 781b 793f fe1a 7a3f 4afa 7a3f
000000a0: a1bc 7b3f 1265 7c3f 75f6 7c3f 6e73 7d3f
000000b0: 68de 7d3f 9739 7e3f fe86 7e3f 6bc8 7e3f
000000c0: 7cff 7e3f a42d 7f3f

log_one_minus_alphas_cumprod f4 [50]
-5.528457 -4.4354877 -3.749114 -3.246681 -2.8513803 -2.526897 -2.2530406 -2.017382
-1.8117033 -1.6302805 -1.4689554 -1.3246071 -1.1948277 -1.0777144 -0.9717352 -0.8756318
-0.7883562 -0.70902234 -0.6368711 -0.5712447 -0.51156676 -0.4573274 -0.40807137 -0.36338893
-0.32290834 -0.28629068 -0.25322473 -0.2234232 -0.19662043 -0.17256935 -0.15104003 -0.13181774
-0.1147021 -0.09950573 -0.08605389 -0.074183166 -0.063741565 -0.054587524 -0.04658972 -0.03962673
-0.033586424 -0.028365806 -0.023870591 -0.020014707 -0.016719941 -0.013915834 -0.011538599 -0.009531479
-0.007843598 -0.006429975
00000000: 1fe9 b0c0 84ef 8dc0 7cf1 6fc0 9fc9 4fc0
00000010: 047d 36c0 aeb8 21c0 d131 10c0 c91c 01c0
00000020: e5e5 e7bf 08ad d0bf bb06 bcbf ba8c a9bf
00000030: 1df0 98bf 8cf2 89bf a3c3 78bf 6829 60bf
00000040: b6d1 49bf 7d82 35bf fc09 23bf 183d 12bf
00000050: 0af6 02bf d126 eabe bbee d0be 1d0e babe
00000060: 3e54 a5be b194 92be aca6 81be 0dc9 64be
00000070: de56 49be 05b6 30be 3daa 1abe 3bfb 06be
00000080: efe8 eabd a9c9 cbbd 063d b0bd 58ed 97bd
00000090: f08a 82bd 2b97 5fbd ddd4 3ebd a34f 22bd
000000a0: eb91 09bd 685f e8bc 428c c3bc e2f5 a3bc
000000b0: 42f8 88bc 3dff 63bc 640c 3dbc ec29 1cbc
000000c0: 6f82 00bc 8ab2 d2bb

sqrt_recip_alphas_cumprod f4 [50]
1.001992 1.0059777 1.0119812 1.0200382 1.030197 1.0425191 1.0570797 1.0739678
1.0932883 1.1151624 1.1397284 1.1671444 1.1975886 1.2312624 1.2683921 1.309231
1.3540635 1.4032066 1.4570153 1.515886 1.5802611 1.650635 1.72756 1.8116536
1.903606 2.0041902 2.114271 2.2348185 2.3669212 2.511801 2.670832 2.8455603
3.0377283 3.2493014 3.4824986 3.7398295 4.024135 4.338636 4.6869874 5.073343
5.502431 5.9796376 6.5111103 7.103872 7.7659593 8.506579 9.336299 10.267258
11.313423 12.490894
00000000: 4641 803f e1c3 803f 9a88 813f 9d90 823f
00000010: 7fdd 833f 4471 853f 634e 873f c777 893f
00000020: dff0 8b3f a4bd 8e3f 9fe2 913f fd64 953f
00000030: 954a 993f 029a 9d3f ac5a a23f e294 a73f
00000040: f451 ad3f 469c b33f 7a7f ba3f 8d08 c23f
00000050: ff45 ca3f 0248 d33f b020 dd3f 44e4 e73f
00000060: 5da9 f33f a744 0040 3750 0740 4407 0f40
00000070: a37b 1740 59c1 2040 e9ee 2a40 a91d 3640
00000080: 246a 4240 8ef4 4f40 42e1 5e40 5e59 6f40
00000090: b7c5 8040 1bd6 8a40 cdfb 9540 d358 a240
000000a0: ea13 b040 3159 bf40 045b d040 eb52 e340
000000b0: bd82 f840 f31a 0841 7b61 1541 b046 2441
000000c0: c803 3541 b4da 4741

sqrt_recipm1_alphas_cumprod f4 [50]
0.063149884 0.10950517 0.15526116 0.20119114 0.24760024 0.29469666 0.34266213 0.39167187
0.4419044 0.49354547 0.5467915 0.6018522 0.6589525 0.7183365 0.78026825 0.8450361
0.91295564 0.9843723 1.0596668 1.1392586 1.2236115 1.3132387 1.40871 1.5106584
1.619789 1.7368875 1.8628315 1.998603 2.1453009 2.304158 2.4765587 2.6640596
2.868413 3.091595 3.3358352 3.6036544 3.8979049 4.22182 4.5790668 4.9738126
5.410799 5.895427 6.43386 7.0331354 7.7013063 8.4475975 9.282591 10.218443
11.269141 12.450801
00000000: ba54 813d 3f44 e03d c8fc 1e3e 0d05 4e3e
00000010: eb8a 7d3e 7be2 963e 6971 af3e 3789 c83e
00000020: 4b41 e23e feb1 fc3e 87fa 0b3f fc12 1a3f
00000030: 1cb1 283f e7e4 373f a9bf 473f 4954 583f
00000040: 76b7 693f d3ff 7b3f 29a3 873f 3ad3 913f
00000050: 4d9f 9c3f 3518 a83f 9c50 b43f 415d c13f
00000060: 3f55 cf3f 5452 de3f 4371 ee3f 39d2 ff3f
00000070: 9c4c 0940 5377 1340 f07f 1e40 f47f 2a40
00000080: 1494 3740 b1dc 4540 537e 5540 46a2 6640
00000090: 4677 7940 2619 8740 b787 9240 7929 9f40
000000a0: 4425 ad40 57a7 bc40 2ee2 cd40 720f e140
000000b0: 1a71 f640 5c29 0741 7e85 1441 be7e 2341
000000c0: 674e 3441 7b36 4741

posterior_variance f4 [50]
0.0 0.0026511052 0.005954937 0.009520501 0.013216915 0.016987795 0.020804744 0.024651796
0.028519101 0.03240026 0.036290735 0.04018715 0.044086907 0.04798781 0.051888056 0.055785965
0.059680045 0.0635689 0.06745114 0.0713255 0.07519068 0.07904545 0.0828886 0.08671894
0.09053529 0.09433658 0.098121695 0.10188959 0.10563934 0.109370016 0.11308083 0.11677099
0.12043987 0.1240869 0.12771165 0.13131374 0.13489294 0.13844909 0.14198214 0.14549215
0.14897929 0.15244377 0.15588592 0.15930611 0.16270472 0.16608234 0.16943936 0.17277643
0.17609404 0.17939277
00000000: 0000 0000 2abe 2d3b a221 c33b e0fb 1b3c
00000010: c28b 583c fd29 8b3c b66e aa3c 90f2 c93c
00000020: e4a0 e93c 23b6 043d 98a5 143d 489b 243d
00000030: 7994 343d de8e 443d 9288 543d d37f 643d
00000040: 1073 743d 6930 823d d323 8a3d 1b13 923d
00000050: 92fd 993d 95e2 a13d 80c1 a93d b399 b13d
00000060: 916a b93d 8933 c13d 07f4 c83d 7dab d03d
00000070: 7059 d83d 63fd df3d ec96 e73d a125 ef3d
00000080: 2ea9 f63d 4621 fe3d d8c6 023e 1c77 063e
00000090: 6021 0a3e 99c5 0d3e c463 113e e5fb 143e
000000a0: 078e 183e 381a 1c3e 8fa0 1f3e 2421 233e
000000b0: 119c 263e 7d11 2a3e 8381 2d3e 4eec 303e
000000c0: ff51 343e bdb2 373e

posterior_log_variance_clipped f4 [50]
-46.0517 -5.932779 -5.1235347 -4.654308 -4.3262577 -4.07526 -3.8725743 -3.7029057
-3.5571811 -3.4295888 -3.3161929 -3.2142081 -3.1215925 -3.0368083 -2.9586666 -2.8862329
-2.8187575 -2.755631 -2.6963518 -2.6405013 -2.587728 -2.5377321 -2.4902577 -2.445083
-2.4020157 -2.3608863 -2.3215468 -2.2838655 -2.2477245 -2.2130184 -2.1796525 -2.1475406
-2.1166046 -2.0867732 -2.0579803 -2.030166 -2.003274 -1.9772526 -1.952054 -1.9276332
-1.903948 -1.8809595 -1.8586309 -1.8369277 -1.8158183 -1.7952716 -1.7752602 -1.7557569
-1.7367371 -1.7181776
00000000: f134 38c2 53d9 bdc0 fff3 a3c0 17f0 94c0
00000010: b470 8ac0 8868 82c0 42d8 77c0 68fc 6cc0
00000020: dba8 63c0 627e 5bc0 813c 54c0 96b5 4dc0
00000030: 2cc8 47c0 115b 42c0 cb5a 3dc0 0ab8 38c0
00000040: 8666 34c0 425c 30c0 0791 2cc0 f9fd 28c0
00000050: 569d 25c0 346a 22c0 6260 1fc0 3d7c 1cc0
00000060: a0ba 19c0 c318 17c0 3994 14c0 da2a 12c0
00000070: b8da 0fc0 18a2 0dc0 6d7f 0bc0 4e71 09c0
00000080: 7376 07c0 b18d 05c0 f3b5 03c0 3dee 01c0
00000090: a435 00c0 9d16 fdbf e8dc f9bf afbc f6bf
000000a0: 91b4 f3bf 48c3 f0bf 9ee7 edbf 7220 ebbf
000000b0: bc6c e8bf 76cb e5bf ba3b e3bf a4bc e0bf
000000c0: 674d debf 3eed dbbf

posterior_mean_coef1 f4 [50]
0.9999943 0.6661026 0.4995703 0.39967492 0.3330652 0.2854667 0.2497444 0.22193408
0.199656 0.18139552 0.16614202 0.15319516 0.14205438 0.13235195 0.123811856 0.11622262
0.10941954 0.10327243 0.09767697 0.09254869 0.08781847 0.08342932 0.07933385 0.07549252
0.07187214 0.06844477 0.06518694 0.062078793 0.059103735 0.05624782 0.053499497 0.050849218
0.048289225 0.045813292 0.04341655 0.041095283 0.038846754 0.03666909 0.034561098 0.032522168
0.030552119 0.028651113 0.026819529 0.025057876 0.023366697 0.021746518 0.020197745 0.018720647
0.017315285 0.015981492
00000000: a0ff 7f3f b385 2a3f aec7 ff3e 31a2 cc3e
00000010: 8687 aa3e b128 923e ffbc 7f3e b042 633e
00000020: 9f72 4c3e bfbf 393e 2221 2a3e 31df 1c3e
00000030: b476 113e 4587 073e 1291 fd3d 2006 ee3d
00000040: 5a17 e03d 7f80 d33d dd0a c83d 2b8a bd3d
00000050: 2cda b33d fedc aa3d c979 a23d d39b 9a3d
00000060: b331 933d c62c 8c3d bb80 853d 5546 7e3d
00000070: c216 723d 1d64 663d 4a22 5b3d 4547 503d
00000080: ecca 453d b8a6 3b3d 8dd5 313d 8753 283d
00000090: c61d 1f3d 5432 163d f08f 0d3d f735 053d
000000a0: 7048 fa3c bdb5 ea3c a1b4 db3c 2d46 cd3c
000000b0: 846b bf3c c125 b23c be75 a53c 0b5c 993c
000000c0: c9d8 8d3c 9eeb 823c

posterior_mean_coef2 f4 [50]
0.0 0.33389148 0.5004119 0.60027754 0.6668364 0.71435636 0.74996674 0.77762663
0.79970807 0.81772196 0.83267236 0.8452538 0.85596186 0.86515796 0.8731139 0.8800352
0.8860821 0.8913806 0.8960301 0.90011173 0.9036909 0.90682185 0.90954936 0.91191137
0.9139398 0.9156622 0.91710263 0.9182813 0.9192172 0.9199269 0.9204254 0.9207264
0.92084306 0.92078716 0.9205703 0.9202032 0.9196965 0.9190599 0.91830313 0.91743547
0.91646594 0.9154032 0.9142555 0.9130306 0.9117361 0.9103791 0.9089663 0.9075042
0.9059983 0.9044542
00000000: 0000 0000 d3f3 aa3e ff1a 003f caab 193f
00000010: cab5 2a3f 0fe0 363f d2fd 3f3f 8a12 473f
00000020: abb9 4c3f 3a56 513f 042a 553f 8e62 583f
00000030: 5120 5b3f fe7a 5d3f 6484 5f3f fd49 613f
00000040: 47d6 623f 8531 643f 3b62 653f b96d 663f
00000050: 4958 673f 7a25 683f 3ad8 683f 0673 693f
00000060: f5f7 693f d768 6a3f 3dc7 6a3f 7c14 6b3f
00000070: d251 6b3f 5480 6b3f 00a1 6b3f bab4 6b3f
00000080: 5fbc 6b3f b5b8 6b3f 7faa 6b3f 7092 6b3f
00000090: 3b71 6b3f 8247 6b3f ea15 6b3f 0ddd 6a3f
000000a0: 839d 6a3f dd57 6a3f a60c 6a3f 60bc 693f
000000b0: 8967 693f 9b0e 693f 04b2 683f 3252 683f
000000c0: 81ef 673f 4f8a 673f

model.time_mlp.1.weight f4 [256, 32]
-0.090219796 -0.027565584 -0.15604903 0.0042395964 0.045575038 -0.09281333 -0.0306006 -0.055249654
-0.090973385 0.11445491 -0.08554896 -0.013956793 0.15715697 -0.0019468528 -0.13360006 -0.025953079
-0.0010092146 -0.0024044332 -0.08507965 0.18632023 -0.113889776 -0.016373133 0.21624939 0.06542863
0.09953284 0.06957387 -0.0010943034 -0.1354494 -0.102599256 0.018469797 0.010823648 -0.04712232
0.079768546 -0.03027639 -0.058754373 0.02519498 0.005297898 0.017459745 -0.010768737 0.11411384
-0.08714955 0.11888388 0.17138849 0.2007204 0.037209444 0.089391716 0.19294013 0.018489046
-0.11294115 0.009062476 -0.078336366 -0.094825245 -0.11761327 0.01219119 -0.028470049 0.05410181
0.15742488 -0.21602757 -0.008493635 -0.0011026257 0.15402699 -0.07278741 -0.04443148 -0.01165989
-0.08926762 -0.007228993 0.06468491 0.0143284025 -0.098812126 -0.18968432 -0.04945804 -0.07153451
-0.09531389 -0.091282904 -0.03984362 0.014263402 0.100495785 -0.0068509807 0.12855653 -0.10414511
-0.026976781 0.10632449 0.07934181 0.1039444 -0.046572603 0.021074422 -0.013563013 0.004171658
0.007825995 -0.058730647 0.05591532 -0.11272253 -0.09252936 -0.16262266 0.044742957 -0.050021037
0.0064748586 -0.026590105 0.018208139 0.11706468 -0.10374791 -0.028590368 -0.117523916 -0.075184554
-0.12885962 0.104942195 0.025685433 0.08841873 0.08291441 0.048462596 0.13273801 -0.10716101
0.05885088 0.061770804 0.02308541 -0.02793428 0.1061535 0.002340833 0.02786019 -0.015581798
-0.032939665 -0.019845134 -0.058120452 -0.06008095 0.00028842298 -0.021435259 -0.2335021 0.05751777
-0.03351649 -0.027245205 0.0009470772 0.055527214 0.1110418 -0.05578065 -0.17620894 -0.040959697
0.017189479 -0.02747891 -0.091885194 -0.16604769 0.031362157 -0.1314948 -0.017292839 0.051651333
-0.05431235 0.030694382 0.087354615 0.10370846 0.0369234 -0.05084248 -0.0044417246 -0.037618417
-0.012407915 -0.10343712 -0.1210112 -0.008339617 0.033676345 0.12209263 -0.02207689 0.10257027
0.0191778 -0.017979 -0.10840399 0.07393697 -0.046649806 0.023291435 0.0174906 -0.09576431
0.04613859 -0.032210864 0.06866792 -0.004131201 -0.0211659 0.12632637 0.042076793 0.11546438
-0.09005395 -0.064066626 0.19295107 -0.048081245 -0.0075296117 -0.18334912 0.008561527 0.03936446
0.05307598 0.03130066 -0.20723319 -0.055990987 0.06479824 -0.04911203 0.05380652 0.04603803
0.14433661 -0.08732803 0.1293306 0.03174788 -0.054542128 0.059927482 0.025757236 0.118335634
-0.02958559 -0.033939634 -0.010331689 -0.020352792 0.09168449 -0.006720664 0.09095498 0.075796805
-0.0011156547 0.026615141 0.02860113 -0.16183524 -0.037312116 0.015771799 0.112095185 0.0573201
-0.048508987 -0.15396878 -0.0948277 0.011636694 0.028297156 0.07237636 0.009774413 -0.077882074
-0.05836495 -0.053197794 -0.060998384 -0.056358654 0.09015701 0.047168396 -0.025947668 0.12844802
0.07241391 -0.046543166 -0.004286829 0.078285515 -0.08125885 0.11531189 -0.07915579 -0.03296116
-0.11976207 0.138806 0.045470975 0.05677834 0.024919799 0.06053313 -0.10749314 0.012990086
0.06774325 -0.09357783 -0.04902811 -0.12653096 0.12124264 0.060718894 -0.031948775 0.16886677
00000000: 28c5 b8bd 38d1 e1bc 51cb 1fbe 50ec 8a3b
00000010: e4ac 3a3d ea14 bebd 1cae fabc 764d 62bd
00000020: 4150 babd 5667 ea3d 4b34 afbd 08ab 64bc
00000030: c2ed 203e 8a2d ffba 74ce 08be 8d9b d4bc
00000040: 9f47 84ba b293 1dbb 3d3e aebd bbca 3e3e
00000050: 0b3f e9bd f320 86bc 7b70 5d3e 72ff 853d
00000060: e0d7 cb3d bf7c 8e3d bb6e 8fba 3fb3 0abe
00000070: 8f1f d2bd f94d 973c ac55 313c 5503 41bd
00000080: b15d a33d 3106 f8bc 6da8 70bd b465 ce3c
00000090: fd99 ad3b bd07 8f3c 5b6f 30bc 84b4 e93d
000000a0: 777b b2bd 6479 f33d 7780 2f3e a689 4d3e
000000b0: ee68 183d 0113 b73d 1992 453e 5776 973c
000000c0: b14d e7bd c87a 143c d16e a0bd bd33 c2bd
000000d0: 3adf f0bd 8fbd 473c 053a e9bc dc99 5d3d
000000e0: fd33 213e 5536 5dbe e328 0bbc fb85 90ba
000000f0: 40b9 1d3e 9111 95bd c9fd 35bd 2009 3fbc
00000100: f1d1 b6bd 30e1 ecbb 8679 843d adc1 6a3c
00000110: 035e cabd 9b3c 42be 8494 4abd af80 92bd
00000120: ee33 c3bd 88f2 babd 1033 23bd 0bb1 693c
00000130: bcd0 cd3d 317e e0bb 53a4 033e 084a d5bd
00000140: 69fe dcbc a7c0 d93d f57d a23d cde0 d43d
00000150: eac2 3ebd 44a4 ac3c 6637 5ebc 67b2 883b
00000160: 9a38 003c 8c8f 70bd 7607 653d 12db e6bd
00000170: 0880 bdbd 8e86 26be 6444 373d dce2 4cbd
00000180: 0d2b d43b 7ed3 d9bc 3c29 953c 9bbf ef3d
00000190: c979 d4bd 5936 eabc 61b0 f0bd 5cfa 99bd
000001a0: c7f3 03be efeb d63d 426a d23c e114 b53d
000001b0: 08cf a93d b780 463d 79ec 073e 3b77 dbbd
000001c0: 9f0d 713d 6203 7d3d 9d1d bd3c 6ed6 e4bc
000001d0: 0267 d93d a968 193b 0e3b e43c cc4a 7fbc
000001e0: beeb 06bd 4392 a2bc b60f 6ebd 7117 76bd
000001f0: 7a37 9739 ff98 afbc 2d1b 6fbe c197 6b3d
00000200: 9648 09bd 5631 dfbc 4645 783a 8170 633d
00000210: e269 e33d 407a 64bd 1e70 34be 5bc5 27bd
00000220: f3d0 8c3c 731b e1bc 4e2e bcbd 6808 2abe
00000230: 9b75 003d 93a6 06be b6a9 8dbc 5990 533d
00000240: a076 5ebd c972 fb3c fae6 b23d 1a65 d43d
00000250: fe3c 173d 3440 50bd e38b 91bb c515 1abd
00000260: 914a 4bbc d7d6 d3bd b8d4 f7bd e4a2 08bc
00000270: 35f0 093d b30b fa3d 98da b4bc 5d10 d23d
00000280: c31a 9d3c b248 93bc e902 debd 446c 973d
00000290: de13 3fbd aecd be3c 7248 8f3c 1420 c4bd
000002a0: d1fb 3c3d 8aef 03bd c4a1 8c3d 075f 87bb
000002b0: 1c64 adbc b35b 013e b758 2c3d 9778 ec3d
000002c0: 356e b8bd 5d35 83bd f794 453e d7f0 44bd
000002d0: f6ba f6bb dfbf 3bbe a645 0c3c a13c 213d
000002e0: 3366 593d 1f35 003d f034 54be ce56 65bd
000002f0: f1b4 843d b229 49bd 3a64 5c3d 6092 3c3d
00000300: facc 133e 0ad9 b2bd 3e6f 043e 110a 023d
00000310: 9167 5fbd 8576 753d d700 d33c f459 f23d
00000320: 7b5d f2bc 4904 0bbd 3f46 29bc e6ba a6bc
00000330: 14c5 bb3d 0439 dcbb 9b46 ba3d 5b3b 9b3d
00000340: 293b 92ba ff07 da3c eb4c ea3c 23b8 25be
00000350: 97d4 18bd dc33 813c 2992 e53d 7bc8 6a3d
00000360: 5cb1 46bd fea9 1dbe 0635 c2bd d5a7 3e3c
00000370: 70cf e73c 0f3a 943d dc24 203c a380 9fbd
00000380: 1610 6fbd eee5 59bd 71d9 79bd 55d8 66bd
00000390: 3da4 b83d a633 413d 3490 d4bc e187 033e
000003a0: be4d 943d 0ca4 3ebd 8778 8cbb 2854 a03d
000003b0: 0a6b a6bd a428 ec3d 6e1c a2bd 4802 07bd
000003c0: d145 f5bd 2923 0e3e c63f 3a3d 6890 683d
000003d0: 9b24 cc3c 96f1 773d 5d25 dcbd 5fd4 543c
000003e0: f9bc 8a3d bca5 bfbd b3d1 48bd 5591 01be
000003f0: 104e f83d 60b4 783d b8dc 02bd 69eb 2c3e

model.time_mlp.1.bias f4 [256]
5.7434925e-05 3.7750222e-05 6.7553574e-06 2.7662267e-05 3.962402e-05 4.158736e-05 -5.814073e-05 2.022545e-06
-5.318882e-05 -5.0876126e-05 -4.8450827e-05 -6.3902815e-05 2.6781541e-05 3.6140744e-05 4.7228918e-05 4.5151846e-05
-5.026845e-05 3.9402254e-05 5.026938e-05 -5.7272653e-05 5.1882773e-05 2.5684443e-05 -1.579938e-05 -4.28508e-05
-5.6094177e-05 3.436125e-05 -5.1277722e-05 -4.3274656e-05 4.9967286e-05 3.4313874e-05 -5.543945e-05 -2.3809247e-05
-5.4262862e-05 -5.4049775e-05 2.8038542e-06 -4.857034e-05 1.1356007e-05 -6.092752e-05 -1.279424e-05 5.2211297e-05
5.587186e-05 -1.378775e-05 -2.9356755e-05 2.5157882e-05 -2.0921309e-05 -5.8813603e-06 1.3815811e-05 3.154215e-05
2.68516e-05 5.0891264e-05 1.5289746e-05 -3.4597822e-05 1.1046214e-06 6.315499e-05 3.985744e-05 -6.526336e-05
-2.1765456e-05 -5.092864e-05 -6.1559884e-05 4.138205e-05 -5.0493195e-06 -4.113222e-05 6.204318e-05 -2.8424496e-05
-4.1233874e-05 6.4369204e-05 -4.5890043e-05 -2.9904566e-05 -4.160984e-05 -2.6054886e-05 -4.227721e-05 -2.9933888e-05
-5.0404757e-05 -6.6188935e-05 -4.5326324e-05 1.5264284e-05 3.0707393e-05 -1.30812905e-05 4.5378325e-05 -3.739024e-05
4.8900758e-05 -4.4849934e-05 -9.412432e-06 5.1358267e-05 -4.289677e-05 2.5983101e-05 -3.2182546e-05 -5.737039e-05
-3.8580245e-05 -2.230049e-05 -5.1798103e-05 1.0920595e-05 6.2371684e-05 -2.7002005e-05 -3.5494402e-05 -5.21186e-05
1.2970321e-05 5.2303905e-05 1.5955407e-06 -4.234681e-05 -5.891801e-05 6.6590386e-05 4.3949378e-05 -1.2762167e-05
3.4776601e-06 2.4113675e-05 -5.6692832e-05 -5.9741236e-05 -3.205236e-05 -5.3238786e-05 3.7524474e-05 2.6407632e-05
-4.2693726e-05 4.741511e-05 -5.074173e-05 -4.4586228e-05 6.0586048e-05 -3.2942226e-05 -6.187667e-05 2.8466775e-05
-2.2217619e-05 1.4748728e-05 -5.7917223e-06 6.668385e-05 2.8120425e-05 5.3424777e-05 -2.5036206e-05 -5.5406163e-05
5.6444853e-05 -6.5204746e-05 1.8522202e-05 -2.2897808e-05 -3.0439964e-05 1.5053964e-05 3.4768225e-05 1.624289e-05
-4.6841957e-05 2.539932e-05 5.094446e-05 -2.438731e-05 -6.9388894e-05 -3.7400674e-05 -3.7010654e-05 -6.8652735e-05
-1.0426502e-05 -5.127443e-05 -6.9270754e-05 -2.9784107e-05 -2.742537e-05 -6.571671e-05 4.7140293e-05 -6.835733e-05
-3.0933086e-05 2.9783889e-05 -4.7603564e-05 4.1162893e-05 9.584065e-07 2.9650208e-05 6.477663e-05 -4.1093335e-05
4.6684236e-06 6.566088e-05 -1.2761327e-05 -6.384101e-05 2.1076332e-05 -2.0925587e-05 -6.561679e-05 2.353181e-05
-6.510288e-05 -6.288218e-05 -3.7699327e-05 -2.5051571e-05 -6.948329e-05 2.149546e-06 -1.3400659e-05 1.9094947e-05
-5.2541167e-05 8.728929e-06 5.319887e-05 2.2346618e-05 6.4194566e-05 1.4764185e-05 5.3113035e-05 2.4014184e-05
-5.5373595e-05 -6.209696e-05 -3.0911873e-05 4.6865433e-05 9.715728e-06 -5.1986353e-05 -1.7503373e-05 -7.5115844e-05
-1.0806219e-05 -3.7126523e-05 6.49457e-05 -7.18889e-06 5.2285515e-05 -2.8748645e-05 2.8980862e-06 -4.6516234e-05
5.0554536e-05 -7.465508e-05 2.3157812e-05 -3.3266638e-06 4.4970257e-05 2.244385e-05 3.571573e-05 -5.9477927e-05
-1.3412626e-05 -6.082331e-05 -1.03232605e-05 -2.9643626e-05 2.0730207e-05 4.8904883e-05 3.6106325e-05 -5.701931e-05
2.1701064e-05 6.749642e-05 2.3575187e-05 5.3962372e-05 -5.2866417e-05 5.0808063e-05 -4.758448e-05 3.6608303e-06
-5.1365638e-05 3.2093696e-05 3.2158983e-05 1.0635811e-05 2.6491465e-05 -2.4338784e-05 2.8305487e-05 -6.18524e-05
-1.5519825e-05 -6.775585e-05 3.3359815e-05 9.579722e-06 6.7370136e-05 3.202276e-05 -1.6613149e-05 -2.3575292e-05
-7.8800884e-05 4.2787284e-05 -4.4745404e-05 4.7727666e-05 -2.1723747e-05 -4.6392463e-05 -4.5455872e-05 -5.120205e-05
-4.7140657e-05 2.6369957e-05 -2.1674634e-05 -4.2278665e-05 1.8149565e-05 2.1092043e-05 5.572433e-06 1.3558662e-05
00000000: 48e6 7038 fe55 1e38 14ac e236 440c e837
00000010: f831 2638 166e 2e38 22dc 73b8 0fbb 0736
00000020: 1017 5fb8 d363 55b8 ae37 4bb8 9003 86b8
00000030: eca8 e037 d495 1738 aa17 4638 6d61 3d38
00000040: 56d7 52b8 d943 2538 56d8 5238 0b38 70b8
00000050: b49c 5938 ec74 d737 e988 84b7 b2ba 33b8
00000060: aa46 6bb8 1c1f 1038 0913 57b8 cf81 35b8
00000070: f793 5138 3eec 0f38 a887 68b8 f8b9 c7b7
00000080: 4e98 63b8 81b3 62b8 d929 3c36 01b8 4bb8
00000090: ae85 3e37 6d8c 7fb8 d8a6 56b7 74fd 5a38
000000a0: f457 6a38 ef51 67b7 2743 f6b7 240a d337
000000b0: 2b80 afb7 8058 c5b6 75ca 6737 204c 0438
000000c0: 5f3f e137 1474 5538 7b42 8037 211d 11b8
000000d0: 8142 9435 1472 8438 9a2c 2738 00de 88b8
000000e0: f694 b6b7 369c 55b8 b619 81b8 a391 2d38
000000f0: 536d a9b6 6385 2cb8 2e1d 8238 2471 eeb7
00000100: 89f2 2cb8 f4fd 8638 0f7a 40b8 91db fab7
00000110: 3a86 2eb8 7190 dab7 cf52 31b8 891a fbb7
00000120: b269 53b8 eace 8ab8 c51c 3eb8 cd0b 8037
00000130: d0cb 0038 b777 5bb7 9b54 3e38 77d3 1cb8
00000140: ca1a 4d38 401d 3cb8 16ea 1db7 8569 5738
00000150: 0eec 33b8 49f6 d937 bffb 06b8 fda0 70b8
00000160: 39d1 21b8 f011 bbb7 ca41 59b8 9937 3737
00000170: 8bcd 8238 5d82 e2b7 d3df 14b8 ec99 5ab8
00000180: 1b9b 5937 e460 5b38 5c26 d635 8a9d 31b8
00000190: bb1e 77b8 71a6 8b38 4956 3838 171d 56b7
000001a0: bf61 6936 b947 ca37 77c9 6db8 aa92 7ab8
000001b0: f66f 06b8 b64c 5fb8 9963 1d38 f585 dd37
000001c0: 0a12 33b8 96df 4638 85d3 54b8 1902 3bb8
000001d0: c61d 7e38 722b 0ab8 c9c3 81b8 efcb ee37
000001e0: f95f bab7 4e71 7737 8456 c2b6 9fd8 8b38
000001f0: 27e4 eb37 6b14 6038 d804 d2b7 ea63 68b8
00000200: 33bf 6c38 88be 88b8 2060 9b37 ab14 c0b7
00000210: 5359 ffb7 4890 7c37 19d4 1138 5741 8837
00000220: 2b78 44b8 a010 d537 33ad 5538 5993 ccb7
00000230: e184 91b8 abde 1cb8 e33b 1bb8 a8f9 8fb8
00000240: 7ced 2eb7 800f 57b8 7445 91b8 e2d8 f9b7
00000250: 890f e6b7 64d1 89b8 81b8 4538 105b 8fb8
00000260: 26be 01b8 6ad8 f937 f0a9 47b8 52a6 2c38
00000270: 99a2 8035 56b9 f837 b0d8 8738 a25b 2cb8
00000280: 74a5 9c36 6bb3 8938 7b19 56b7 62e2 85b8
00000290: 14cd b037 5b89 afb7 bf9b 89b8 2d66 c537
000002a0: d887 88b8 9ddf 83b8 581f 1eb8 d725 d2b7
000002b0: 8fb7 91b8 eb40 1036 64d3 60b7 162e a037
000002c0: a65f 5cb8 7772 1237 da21 5f38 ff74 bb37
000002d0: 32a0 8638 b1b3 7737 b0c5 5e38 1172 c937
000002e0: f240 68b8 0d3a 82b8 5fa7 01b8 6091 4438
000002f0: bc00 2337 ec0b 5ab8 35d4 92b7 8387 9db8
00000300: 5b4c 35b7 4db8 1bb8 7533 8838 1838 f1b6
00000310: 254d 5b38 3f29 f1b7 be7c 4236 6d1a 43b8
00000320: 850a 5438 2490 9cb8 0643 c237 a63f 5fb6
00000330: 729e 3c38 cd45 bc37 79cd 1538 f077 79b8
00000340: ca06 61b7 881c 7fb8 1132 2db7 34ab f8b7
00000350: c8e5 ad37 381f 4d38 df70 1738 0528 6fb8
00000360: ae0a b637 dd8c 8d38 54c3 c537 a855 6238
00000370: e2bc 5db8 be1a 5538 7295 47b8 96ac 7536
00000380: 6f71 57b8 589c 0638 72e2 0638 7670 3237
00000390: fd39 de37 242b ccb7 9271 ed37 c1b6 81b8
000003a0: 9230 82b7 2518 8eb8 d4eb 0b38 98b8 2037
000003b0: 1149 8d38 2d50 0638 775c 8bb7 8ec3 c5b7
000003c0: e741 a5b8 7f76 3338 03ad 3bb8 312f 4838
000003d0: 643b b6b7 8795 42b8 dfa7 3eb8 c8c1 56b8
000003e0: e5b8 45b8 0d35 dd37 ecd1 b5b7 5f54 31b8
000003f0: e53f 9837 d1ee b037 d6fa ba36 037a 6337

model.time_mlp.3.weight f4 [32, 256]
0.06860291 0.003647743 -0.02600118 -0.043044742 -0.008948913 -0.017917192 -0.011136859 -0.02205125
0.0022781035 -0.014394315 0.009803274 -0.010853525 0.009909345 -0.016675834 -0.033141766 -0.010828587
-0.003327411 -0.07521671 0.031408448 -0.0064424165 -0.0178779 0.0167666 -0.010746737 0.080019295
-0.0031346362 0.00800858 -0.03411143 -0.06615035 0.023508986 0.011581877 0.0058326856 -0.0143522555
0.054711323 -0.10481343 -0.030772818 0.0029275105 0.0037079458 0.009136781 -0.03441908 0.0045442046
-0.019631524 0.0030357428 0.0007192425 0.01852295 -0.0016421997 0.044426925 -0.079030104 -0.036490005
-0.0163633 -0.008565311 -0.0054600635 -0.029856391 0.021457795 -0.004726342 0.005638873 -0.012500702
0.0089754155 -0.025204731 -0.019686433 -0.0060645873 -0.020026961 -0.03625177 0.035275247 0.022906806
0.015742403 0.01937526 0.004271425 0.026363859 -0.029351948 -0.009339215 -0.013712744 0.06300529
-0.026496306 0.020190319 -0.09960072 0.006904276 -0.017223278 -0.016606744 -0.04403039 0.019284692
-0.009943982 -0.061253276 -0.030945322 -0.036490846 -0.010622194 -0.045541346 -0.021259347 -0.0011884636
-0.030351024 -0.044968423 0.021780094 -0.038639624 -0.040438145 0.013221452 -0.021781387 -0.03200828
-0.017264623 -0.04240622 -0.04511639 0.02194114 -0.017185448 0.009012983 -0.024030965 -0.009876499
0.013741325 0.0009029247 0.0053641745 -0.012066506 0.048825085 0.031830177 -0.016995434 0.028362628
0.0028228501 0.04161151 0.012235947 0.012556716 -0.005313807 -0.04229883 -0.0006366594 0.0070506968
0.017917262 0.023283998 0.01818446 0.032254037 -0.024460826 -0.03668898 -0.04258164 0.038046427
-0.0039434154 0.022065628 -0.013088309 -0.0053646294 -0.023511076 0.0040363194 -0.034527116 0.008080032
-0.05036411 -0.022299863 -0.03484809 0.0367575 -0.0013037759 -0.015972294 -0.0018333592 -0.0031701531
-0.014486972 0.0011391507 0.048521467 0.0030847334 -0.030565578 -0.05687112 0.032856874 -0.046159904
-0.013449633 -0.0010979299 0.023941968 0.010149038 0.057789844 -0.0069476957 0.040535577 -0.02594537
-0.039559398 0.056404103 -0.02613298 0.06397979 0.0034679514 -0.0076279114 -0.0033664554 0.043487404
0.008022956 -0.055619795 -0.07225906 0.000518942 -0.0020328376 0.024629561 0.018729776 -0.03068775
0.009394565 0.0074148374 0.03059769 0.005848362 -0.00096471806 -0.004304263 0.019158548 0.008388925
0.007485048 0.014837666 0.059278738 0.01138647 0.02980297 0.08813373 -0.019087413 0.011524994
0.022527877 -0.011277481 -0.013431532 -0.011792323 -0.0105814235 -0.0076120836 0.009641137 0.013969178
-0.042557534 -0.011686911 0.013128118 -0.012858301 0.0074189934 0.048856303 0.006485521 -0.005412129
0.010172144 0.013409189 -0.03514252 -0.006106366 -0.057471827 -0.011621007 0.043483492 -0.013521984
0.03179018 0.006225639 0.043776505 -0.009689356 0.005699531 0.052948676 0.011935045 -0.050813425
0.028786583 -0.02435575 0.037281126 -0.0072946292 -0.0067919665 -0.027081642 -0.01344031 -0.049045444
-0.027364818 0.013512093 0.02945308 0.0077078477 -0.0037815222 -0.03948721 0.024961485 -0.017721009
0.03382284 0.06228983 0.011518434 0.0015589653 0.028144276 0.047007043 -0.003600011 0.015049231
-0.013739875 0.035604715 0.0009763975 0.020665707 0.001416882 0.0018426004 0.012319443 -0.04563344
00000000: af7f 8c3d f90e 6f3b 6d00 d5bc af4f 30bd
00000010: 769e 12bc 13c7 92bc 5f77 36bc d3a4 b4bc
00000020: 3c4c 153b 22d6 6bbc e99d 203c fcd2 31bc
00000030: ce5a 223c c29b 88bc a9bf 07bd 636a 31bc
00000040: b110 5abb 380b 9abd 25a6 003d e81a d3bb
00000050: ac74 92bc 1c5a 893c 1513 30bc 28e1 a33d
00000060: 786e 4dbb 6b36 033c 6db8 0bbd d679 87bd
00000070: eb95 c03c eac1 3d3c 1d20 bf3b b925 6bbc
00000080: fb18 603d 6ca8 d6bd 4717 fcbc 7adb 3f3b
00000090: 0201 733b 70b2 153c 05fb 0cbd 8de7 943b
000000a0: 4ad2 a0bc 50f3 463b 8c8b 3c3a 71bd 973c
000000b0: 143f d7ba 02f9 353d 89da a1bd 8b76 15bd
000000c0: 540c 86bc 8555 0cbc 55ea b2bb 6495 f4bc
000000d0: 42c8 af3c 6edf 9abb 4cc6 b83b bfcf 4cbc
000000e0: 9f0d 133c 277a cebc 7145 a1bc 72b9 c6bb
000000f0: 950f a4bc bc7c 14bd c77c 103d 0ea7 bb3c
00000100: 36f6 803c deb8 9e3c 4ff7 8b3b 05f9 d73c
00000110: 7f73 f0bc 8203 19bc 6bab 60bc eb08 813d
00000120: c80e d9bc 2b66 a53c 76fb cbbd 443d e23b
00000130: d517 8dbc de0a 88bc 3659 34bd eefa 9d3c
00000140: 15ec 22bc b7e4 7abd 0b81 fdbc 6d77 15bd
00000150: b608 2ebc 9089 3abd 1528 aebc 39c6 9bba
00000160: b6a2 f8bc cf30 38bd 2b6c b23c 9544 1ebd
00000170: 78a2 25bd ca9e 583c e16e b2bc 1d1b 03bd
00000180: 8a6e 8dbc 25b2 2dbd f7cb 38bd e8bd b33c
00000190: 7fc8 8cbc 31ab 133c 96dc c4bc 0ad1 21bc
000001a0: 4b23 613c 40b2 6c3a f5c5 af3b 98b2 45bc
000001b0: d0fc 473d 5c60 023d 023a 8bbc be58 e83c
000001c0: 91ff 383b d570 2a3d 4879 483c afba 4d3c
000001d0: 721f aebb 8a41 2dbd 7de5 26ba 8809 e73b
000001e0: 39c7 923c 15be be3c 94f7 943c cf1c 043d
000001f0: 1262 c8bc 2f47 16bd 166a 2ebd 92d6 1b3d
00000200: c437 81bb fac2 b43c 5970 56bc c6c9 afbb
00000210: 4d9a c0bc 1a43 843b 4e6c 0dbd 1c62 043c
00000220: 994a 4ebd 34ae b6bc dfbc 0ebd 088f 163d
00000230: 76e3 aaba 54d8 82bc 544d f0ba 58c2 4fbb
00000240: c45a 6dbc 8e4f 953a 72be 463d 3d29 4a3b
00000250: aa64 fabc b1f1 68bd ee94 063d 2b12 3dbd
00000260: d95b 5cbc 6ae8 8fba f221 c43c 2748 263c
00000270: 0bb5 6c3d 7fa9 e3bb a208 263d 628b d4bc
00000280: 0909 22bd fd07 673d d514 d6bc d607 833d
00000290: 9246 633b 8ff3 f9bb c09f 5cbb d91f 323d
000002a0: b772 033c 95d1 63bd 8ffc 93bd 9c09 083a
000002b0: 5b39 05bb efc3 c93c 306f 993c e064 fbbc
000002c0: a9eb 193c 2af8 f23b 02a8 fa3c 9ea3 bf3b
000002d0: 22e5 7cba c60a 8dbb 63f2 9c3c b471 093c
000002e0: 2245 f53b af19 733c 43ce 723d 518e 3a3c
000002f0: 5c25 f43c 757f b43d 355d 9cbc 54d3 3c3c
00000300: 628c b83c 2fc5 38bc ee0f 5cbc 9634 41bc
00000310: b55d 2dbc c96e f9bb dcf5 1d3c fbde 643c
00000320: cf50 2ebd 757a 3fbc 5117 573c a0ab 52bc
00000330: 071b f33b 8c1d 483d 7e84 d43b 3b58 b1bb
00000340: 10a9 263c 37b2 5b3c 9af1 0fbd e917 c8bb
00000350: 9467 6bbd 0966 3ebc bf1b 323d 508b 5dbc
00000360: 6b36 023d 7200 cc3b fe4e 333d 1bc0 1ebc
00000370: 22c3 ba3b b6e0 583d 358b 433c bd21 50bd
00000380: d7d1 eb3c b685 c7bc 18b4 183d c907 efbb
00000390: 258f debb 52da ddbc bf34 5cbc e0e3 48bd
000003a0: 2f2c e0bc d361 5d3c 9647 f13c 1d92 fc3b
000003b0: 6ad3 77bb 57bd 21bd 077c cc3c a62b 91bc
000003c0: d189 0a3d 9f23 7f3d d0b7 3c3c 3256 cc3a
000003d0: d38e e63c 758a 403d 2aee 6bbb 0d91 763c
000003e0: 361d 61bc 40d6 113d edf4 7f3a 214b a93c
000003f0: acb6 b93a 6983 f13a 7dd7 493c 21ea 3abd

model.time_mlp.3.bias f4 [32]
-6.968483e-05 9.31363e-05 -8.3542254e-05 8.9687375e-05 9.0451074e-05 9.041859e-05 -3.241358e-05 -8.140792e-05
8.46303e-05 8.200734e-05 -4.6900077e-05 -8.192835e-05 9.243967e-05 -8.205706e-05 -9.258921e-05 -9.0962814e-05
8.772303e-05 -8.752472e-05 -8.926296e-05 -5.2336087e-05 -8.302861e-05 -6.968791e-05 8.265663e-05 9.5812604e-05
-9.1883536e-05 -7.91326e-05 -7.555685e-05 -6.701422e-05 9.0761365e-05 9.163718e-05 9.499405e-05 -9.034524e-05
00000000: c223 92b8 2c52 c338 6833 afb8 8b16 bc38
00000010: 8db0 bd38 1c9f bd38 d1f3 07b8 8bb9 aab8
00000020: 8c7b b138 5bfb ab38 93b6 44b8 f3d0 abb8
00000030: 2cdc c138 0c16 acb8 742c c2b8 4ac3 beb8
00000040: f1f7 b738 7a8d b7b8 b032 bbb8 7283 5bb8
00000050: a51f aeb8 6925 92b8 f157 ad38 00ef c838
00000060: 99b1 c0b8 fef3 a5b8 4674 9eb8 fc89 8cb8
00000070: 2357 be38 562d c038 8b37 c738 bb77 bdb8

model.layer.0.weight f4 [256, 55]
-0.0090090055 -0.0880788 -0.14094798 0.10095562 -0.13063866 0.012035511 0.0073107146 -0.029075164
-0.0060474714 -0.10213061 0.104680434 -0.06533181 -0.07199235 0.035847113 0.01967483 0.14158167
0.03456584 -0.14419344 0.060098644 -0.06472267 0.047302734 0.10638271 0.008269119 0.0050702286
0.01541019 -0.0053260704 -0.037841573 0.11234338 0.029367436 -0.018655838 -0.00078290503 0.08305928
-0.025697045 -0.006814119 0.047785606 0.045142263 0.0897893 0.1059811 -0.036512244 0.013176896
-0.04343942 -0.0053226766 0.13959631 -0.08636563 0.060874946 -0.019528061 0.045021497 -0.0577997
-0.08972908 -0.07524122 0.06414407 0.12692562 0.10038212 0.034671567 -0.051716737 0.026844671
0.06469395 -0.020801846 0.030082807 0.082324326 0.00031634534 0.0018648122 -0.09418359 -0.08869227
0.010384315 -0.013126539 -0.10904842 0.0016733302 -0.033461936 -0.085440755 -0.036291957 -0.013244233
0.038464434 0.04447284 0.112648726 0.08879839 -0.025427725 0.016642611 0.054903354 -0.1014939
-0.052438684 -0.032625 0.07317751 -0.08829592 0.05731104 0.03792187 -0.07913126 0.015709188
-0.027422955 0.017566212 0.015972285 -0.024567945 0.0022666298 -0.022994768 0.098364405 0.09493689
0.06751524 0.06045426 0.120027326 0.03562007 -0.08371238 -0.0043061604 0.054508395 -0.08368938
0.015499571 -0.04742107 0.048121832 -0.018844355 -0.004895992 -0.0753976 -0.016555697 0.05335931
0.040975086 0.032803666 0.014080665 0.0233595 -0.036883235 -0.06996099 -0.0069760177 -0.08642005
-0.01761702 -0.037817903 -0.0013517286 -0.03877787 0.03320541 -0.102310404 -0.1071657 0.0014139726
0.009182706 -0.11516798 0.09217654 -0.049123187 -0.10192672 -0.054718625 -0.13718171 0.16135024
-0.09746045 -0.05290119 -0.000937741 -0.04260449 0.12277932 -0.034905493 -0.01684058 0.08310002
0.041071475 -0.10666652 -0.022217836 -0.05123139 0.04151156 -0.048552256 0.08065873 0.002836957
-0.042216137 -0.06381654 -0.01715875 -0.09288636 0.11882799 -0.054510254 -0.032524038 -0.00056173175
0.046196636 -0.043008767 -0.14550348 -0.036889113 0.024075903 0.06685787 -0.08634477 -0.023240907
-0.14570956 0.1021653 -0.01324792 -0.0021815535 -0.08944275 -0.017839873 0.09970961 -0.043696277
0.015971005 0.0017251286 0.08375054 -0.07513023 0.051638257 0.07745573 -0.0040550744 -0.01756906
0.12197766 0.03311768 -0.033988122 -0.020691397 0.005207839 0.04389985 -0.057063334 -0.031932116
0.032047145 0.025803447 0.01563435 0.019866934 -0.009153243 -0.080967315 -0.028746642 0.018699296
-0.08179162 -0.025062663 -0.04731553 0.047798455 0.050393302 -0.045186307 -0.021934455 -0.044795968
0.09502317 0.010700136 0.036508113 0.11335437 0.08364422 -0.08610182 0.052589536 0.11837073
-0.00961289 -0.03129763 0.0106217805 -0.059546247 -0.072367094 -0.016712708 -0.033026293 -0.017416298
-0.006179855 0.103094704 -0.14812344 0.02982168 0.027522465 0.14422064 -0.041312728 0.06900558
0.020173272 -0.07671076 0.053036373 0.016138826 -0.05996464 0.047842838 0.068646625 -0.06718215
-0.015309059 -0.03261688 -0.03922245 0.03564707 -0.13542879 -0.016191194 -0.012867472 0.094440505
-0.07885303 -0.07955181 0.029641615 -0.09446722 -0.16419764 0.092433214 -0.0008428042 -0.009276948
00000000: 829a 13bc a862 b4bd ab54 10be d2c1 ce3d
00000010: 24c6 05be 9830 453c b88e ef3b 0a2f eebc
00000020: de29 c6bb da29 d1bd b262 d63d afcc 85bd
00000030: ba70 93bd 6cd4 123d 1c2d a13c c9fa 103e
00000040: e994 0d3d 72a7 13be ff29 763d 528d 84bd
00000050: 83c0 413d 2edf d93d 337b 073c 2924 a63b
00000060: 067b 7c3c 5186 aebb c4ff 1abd 4914 e63d
00000070: fa93 f03c 21d4 98bc de3b 4dba fc1a aa3d
00000080: 9c82 d2bc f948 dfbb d7ba 433d 18e7 383d
00000090: 74e3 b73d 9e0c d93d dd8d 15bd e8e3 573c
000000a0: 89ed 31bd d969 aebb 56f2 0e3e 77e0 b0bd
000000b0: 0258 793d 50f9 9fbc 7668 383d 61bf 6cbd
000000c0: e1c3 b7bd 1218 9abd f75d 833d caf8 013e
000000d0: 2495 cd3d c603 0e3d eed4 53bd 5be9 db3c
000000e0: 437e 843d a268 aabc 3870 f63c a899 a83d
000000f0: 27db a539 b76c f43a 53e3 c0bd 4ba4 b5bd
00000100: f922 2a3c b210 57bc c754 dfbd a553 db3a
00000110: 620f 09bd 90fb aebd e0a6 14bd 57fe 58bc
00000120: e28c 1d3d 2729 363d 60b4 e63d eedb b53d
00000130: ce4d d0bc 1656 883c 57e2 603d 09dc cfbd
00000140: f2c9 56bd cba1 05bd 17de 953d 7ed4 b4bd
00000150: fbbe 6a3d f653 1b3d 920f a2bd 8eb0 803c
00000160: 1ba6 e0bc 04e7 8f3c 4fd8 823c b742 c9bc
00000170: bd8b 143b 865f bcbc 4773 c93d 466e c23d
00000180: 6e45 8a3d e39e 773d e3d0 f53d 5ae6 113d
00000190: 6571 abbd b11a 8dbb 3244 5f3d 5665 abbd
000001a0: eaf1 7d3c 993c 42bd 661b 453d 7a5f 9abc
000001b0: 8f6e a0bb 0f6a 9abd d09f 87bc 4b8f 5a3d
000001c0: 7ed5 273d 235d 063d 97b2 663c 6c5c bf3c
000001d0: e012 17bd b547 8fbd 1497 e4bb fffc b0bd
000001e0: 9251 90bc f2e6 1abd 7c2c b1ba 8bd5 1ebd
000001f0: 6502 083d 1e88 d1bd b179 dbbd 0c55 b93a
00000200: 0f73 163c 31dd ebbd 0ec7 bc3d 6535 49bd
00000210: f5be d0bd a320 60bd 5d79 0cbe ff38 253e
00000220: 5899 c7bd ebae 58bd bcd2 75ba 0c82 2ebd
00000230: b973 fb3d 10f9 0ebd 42f5 89bc 5830 aa3d
00000240: 903a 283d fa73 dabd 2e02 b6bc 02d8 51bd
00000250: 0708 2a3d bbde 46bd 6730 a53d 3eec 393b
00000260: d4ea 2cbd 3fb2 82bd 8290 8cbc 343b bebd
00000270: 175c f33d 2546 5fbd ed37 05bd 2e41 13ba
00000280: af38 3d3d f629 30bd ddfe 14be 0a19 17bd
00000290: d43a c53c c7ec 883d 87d5 b0bd b763 bebc
000002a0: e334 15be 0a3c d13d ce0d 59bc 65f8 0ebb
000002b0: c32d b7bd ed24 92bc 8d34 cc3d defa 32bd
000002c0: a0d5 823c b61d e23a 6785 ab3d e1dd 99bd
000002d0: a382 533d 1ca1 9e3d 6ee0 84bb fdec 8fbc
000002e0: 6ccf f93d 68a6 073d 2137 0bbd 0181 a9bc
000002f0: 85a6 aa3b 54d0 333d 3ebb 69bd 40cb 02bd
00000300: de43 033d c061 d33c 9c13 803c fbbf a23c
00000310: 7cf7 15bc 31d2 a5bd 147e ebbc 442f 993c
00000320: 5d82 a7bd 3750 cdbc eecd 41bd 50c8 433d
00000330: 3569 4e3d 4715 39bd e3af b3bc fa7b 37bd
00000340: 829b c23d a04f 2f3c 8889 153d 5626 e83d
00000350: a94d ab3d 2756 b0bd 2068 573d 5a6c f23d
00000360: 627f 1dbc f231 00bd fa06 2e3c c4e6 73bd
00000370: 3335 94bd 17e9 88bc 9446 07bd a0ac 8ebc
00000380: 6280 cabb 5123 d33d acad 17be 994c f43c
00000390: cb76 e13c 93ae 133e 8937 29bd cc52 8d3d
000003a0: 6b42 a53c 881a 9dbd ab3c 593d 9235 843c
000003b0: 7b9d 75bd daf6 433d 9a96 8c3d cc96 89bd
000003c0: d9d2 7abc 4799 05bd b8a7 20bd a902 123d
000003d0: d8ad 0abe 65a3 84bc 17d2 52bc 066a c13d
000003e0: b37d a1bd 0fec a2bd f9d2 f23c 0878 c1bd
000003f0: 6d23 28be a04d bd3d a2ef 5cba 57fe 17bc

model.layer.0.bias f4 [256]
9.254157e-05 6.809712e-05 9.426395e-05 -8.6109096e-05 -9.199894e-05 -7.918925e-05 -8.793884e-05 -9.08126e-05
-8.716728e-05 8.057151e-05 -7.003134e-05 8.7649605e-05 -7.4598e-05 9.496894e-05 -9.22074e-05 -9.13253e-05
9.515704e-05 -8.655191e-05 -6.651007e-05 -8.981897e-05 -8.1219965e-05 -8.208818e-05 -8.538675e-05 8.098738e-05
-9.230857e-05 -9.238633e-05 -9.233298e-05 8.720353e-05 -9.282918e-05 -9.216474e-05 -9.2017755e-05 8.404092e-05
-8.3945066e-05 9.1535905e-05 9.4140734e-05 9.172816e-05 -7.849354e-05 -9.0856825e-05 9.7258555e-05 9.303887e-05
8.334537e-05 9.3847746e-05 -4.4107233e-05 8.353118e-05 7.4209616e-05 9.171824e-05 5.012682e-05 -4.1656807e-05
9.530227e-05 -8.157779e-05 7.981036e-05 8.3460254e-05 -9.174819e-05 -8.8701105e-05 9.3189105e-05 -9.3685485e-05
-9.504628e-05 -6.939539e-05 8.865541e-05 -7.698049e-05 8.39668e-05 -8.625011e-05 7.0165435e-05 -8.595469e-05
-8.899484e-05 6.995362e-05 -5.0607134e-05 -9.479158e-05 6.72436e-05 9.483771e-05 9.185163e-05 -5.2845982e-05
-8.453155e-05 -9.524415e-05 8.5689586e-05 9.5441865e-05 9.2922506e-05 -8.817545e-05 9.26347e-05 6.610308e-05
5.7584806e-05 6.972088e-05 -6.298001e-05 -7.274496e-05 4.0302857e-05 -9.403938e-05 -8.525473e-05 -8.8230285e-05
9.645804e-05 -9.4155075e-05 -7.549095e-05 8.428239e-05 -8.1383936e-05 8.42915e-05 -9.386178e-05 -9.115567e-05
-7.4896365e-05 5.9139606e-05 7.204863e-05 -9.0914786e-05 9.5759344e-05 -9.076717e-05 7.373478e-05 -8.035908e-05
-9.707487e-05 -6.773619e-05 6.987568e-05 8.713559e-05 -9.2165945e-05 7.874229e-05 -7.655734e-05 -9.454156e-05
8.611964e-05 -9.192751e-05 7.789936e-05 7.4431744e-05 -4.3863864e-05 9.582092e-05 7.611933e-05 8.794742e-05
8.083138e-05 -8.6386004e-05 -4.530992e-06 9.432026e-05 -7.060563e-05 9.456043e-05 9.3668794e-05 -9.7819495e-05
-8.897231e-05 8.4438514e-05 -9.638523e-05 9.217595e-05 -9.1474125e-05 -8.283119e-05 9.132022e-05 5.2256222e-05
7.9118836e-05 9.185715e-05 4.9599657e-05 -9.2258946e-05 8.547707e-05 -7.0816335e-05 8.91429e-05 -8.8075554e-05
-8.622579e-05 5.126025e-05 9.12453e-05 3.1379906e-05 -1.0516654e-05 -7.6779615e-05 -9.528087e-05 -8.944042e-05
-3.372481e-05 -9.269518e-05 9.531372e-05 -8.853173e-05 -9.1978116e-05 8.804018e-05 8.39721e-05 -9.325176e-05
9.4505216e-05 -3.488406e-05 7.9904785e-05 -7.0935916e-05 5.5115965e-05 -9.4591574e-05 4.2432417e-05 6.6918525e-05
-9.306759e-05 -9.0554175e-05 -2.8289762e-05 8.4430656e-05 -8.880892e-05 9.454166e-05 7.3332994e-05 8.2393264e-05
-8.992274e-05 -9.1852475e-05 -8.7211236e-05 7.3271825e-05 -6.1249004e-05 -8.640777e-05 9.1880764e-05 8.760828e-05
-9.31196e-05 7.6519274e-05 8.4368956e-05 -7.865304e-05 -9.2302405e-05 -8.513064e-05 8.6351756e-05 9.383155e-05
-9.282842e-05 -4.3675464e-05 -8.946979e-05 -8.784759e-05 9.4829455e-05 -9.224086e-05 -5.7380596e-05 9.5800526e-05
8.94186e-05 -2.9533938e-05 -9.251203e-05 9.215652e-05 4.6907087e-05 -9.663033e-05 8.875577e-05 8.6319036e-05
-8.71911e-05 9.470915e-05 3.366115e-05 -9.446885e-05 -2.8033697e-05 -9.463308e-05 -7.11678e-05 -8.553833e-05
8.190997e-05 -8.5637526e-05 -9.353805e-05 -8.735862e-05 -8.845255e-05 -8.1871425e-05 9.155859e-05 9.186857e-05
-5.5445504e-05 -8.835394e-05 -8.9363355e-05 -7.732514e-05 -8.8309294e-05 -7.253825e-05 -8.933868e-05 9.281921e-05
9.646539e-05 -3.7523394e-05 8.381251e-05 -2.3760506e-06 -9.107837e-05 9.512168e-05 -8.358839e-05 -9.623496e-05
9.102204e-05 8.334414e-05 -9.0945025e-05 -8.5536776e-05 -8.7155735e-05 8.242526e-05 -9.6873984e-05 9.059834e-05
3.7800804e-05 5.923935e-05 -9.122782e-05 6.318909e-05 -8.318497e-05 9.326334e-05 -9.1768874e-05 -4.594514e-05
00000000: e112 c238 5dcf 8e38 93af c538 7895 b4b8
00000010: 8eef c0b8 6812 a6b8 ce6b b8b8 a572 beb8
00000020: 94cd b6b8 80f8 a838 cadd 92b8 86d0 b738
00000030: 7f71 9cb8 102a c738 795f c1b8 e685 bfb8
00000040: 0c8f c738 3483 b5b8 527b 8bb8 315d bcb8
00000050: a354 aab8 c226 acb8 aa11 b3b8 c5d7 a938
00000060: c995 c1b8 89bf c1b8 e4a2 c1b8 0ae1 b638
00000070: 49ad c2b8 9148 c1b8 a8f9 c0b8 203f b038
00000080: aa0b b0b8 f7f6 bf38 6c6d c538 2e5e c038
00000090: e69c a4b8 638a beb8 4af7 cb38 dd1d c338
000000a0: b4c9 ae38 20d0 c438 c8ff 38b8 762d af38
000000b0: fca0 9b38 db58 c038 433f 5238 a8b8 2eb8
000000c0: 04dd c738 be14 abb8 dc5f a738 6207 af38
000000d0: ef68 c0b8 0b05 bab8 856e c338 0379 c4b8
000000e0: 9553 c7b8 5e88 91b8 83ec b938 9670 a1b8
000000f0: 5517 b038 2de1 b4b8 c825 9338 9342 b4b8
00000100: bea2 bab8 10b4 9238 ff42 54b8 d8ca c6b8
00000110: 2205 8d38 9ce3 c638 78a0 c038 f1a6 5db8
00000120: 8846 b1b8 d0bd c7b8 3fb4 b338 f627 c838
00000130: 64df c238 d6ea b8b8 e044 c238 d2a0 8a38
00000140: 3787 7138 1d37 9238 2314 84b8 a78e 98b8
00000150: dd0a 2938 0237 c5b8 c9ca b2b8 4608 b9b8
00000160: 8449 ca38 1f75 c5b8 e550 9eb8 c3c0 b038
00000170: abac aab8 a8c5 b038 a9d7 c4b8 d42a bfb8
00000180: ae11 9db8 ab0c 7838 d018 9738 81a9 beb8
00000190: 68d2 c838 415a beb8 0fa2 9a38 7486 a8b8
000001a0: ad94 cbb8 970d 8eb8 388a 9238 90bc b638
000001b0: 3749 c1b8 7222 a538 698d a0b8 9d44 c6b8
000001c0: 219b b438 35c9 c0b8 e75d a338 3d18 9c38
000001d0: 77fa 37b8 77f3 c838 41a2 9f38 6970 b838
000001e0: 0484 a938 222a b5b8 ed08 98b6 cecd c538
000001f0: 1c12 94b8 bf4e c638 0d70 c438 7124 cdb8
00000200: a596 bab8 9514 b138 6d22 cab8 964e c138
00000210: ccd5 bfb8 a8b5 adb8 2b83 bf38 b12d 5b38
00000220: 9aec a538 6fa3 c038 3a09 5038 257b c1b8
00000230: 2742 b338 3b83 94b8 3bf2 ba38 34b5 b8b8
00000240: 1ed4 b4b8 4600 5738 f35a bf38 eb9d 0338
00000250: af70 30b7 be04 a1b8 87d1 c7b8 f691 bbb8
00000260: bd73 0db8 5965 c2b8 2ae3 c738 1caa b9b8
00000270: 60e4 c0b8 36a2 b838 2e1a b038 2890 c3b8
00000280: 1a31 c638 7950 12b8 8e92 a738 6ec3 94b8
00000290: 512c 6738 775f c6b8 76f9 3138 9c56 8c38
000002a0: 482d c3b8 e7e7 bdb8 cd4f edb7 5d10 b138
000002b0: ed3e bab8 ab44 c638 5aca 9938 8cca ac38
000002c0: e794 bcb8 eca0 c0b8 2de5 b6b8 83a9 9938
000002d0: cf72 80b8 d135 b5b8 1cb0 c038 56ba b738
000002e0: 3449 c3b8 f978 a038 3def b038 88f2 a4b8
000002f0: 7a92 c1b8 2a88 b2b8 bf17 b538 6ec7 c438
00000300: e1ac c2b8 2c30 37b8 baa1 bbb8 d13a b8b8
00000310: 2ddf c638 6f71 c1b8 f2ab 70b8 84e8 c838
00000320: 3f86 bb38 a6bf f7b7 0503 c2b8 2844 c138
00000330: 1abe 4438 03a6 cab8 6422 ba38 2e06 b538
00000340: 5eda b6b8 969e c638 622f 0d38 941d c6b8
00000350: e829 ebb7 bf75 c6b8 ec3f 95b8 0b63 b3b8
00000360: 15c7 ab38 4c98 b3b8 dc29 c4b8 4d34 b7b8
00000370: 9a7f b9b8 63b2 abb8 2503 c038 90a9 c038
00000380: 288e 68b8 a94a b9b8 9668 bbb8 9e29 a2b8
00000390: b132 b9b8 ad1f 98b8 575b bbb8 efa7 c238
000003a0: 764d ca38 7062 1db8 80c4 af38 3d74 1fb6
000003b0: 5401 bfb8 107c c738 2d4c afb8 c0d1 c9b8
000003c0: 16e3 be38 0bc9 ae38 bdb9 beb8 3562 b3b8
000003d0: 61c7 b6b8 b9db ac38 d328 cbb8 9dff bd38
000003e0: 4e8c 1e38 c577 7838 9051 bfb8 6284 8438
000003f0: 9773 aeb8 6096 c338 0a74 c0b8 38b5 40b8
