results/qvpo_HalfCheetah-v3/actor_25_04_22_15_40_34_0.pth (torch, 667057 bytes, 24 tensors)

betas f4 [50]
00000000: 4f28 823b e992 013c 6ad0 413c 76e6 803c
00000010: 59c4 a03c fd81 c03c 851f e03c 109d ff3c
00000020: 5f7d 0f3d 581c 1f3d 84ab 2e3d f12a 3e3d
00000030: b09a 4d3d d1fa 5c3d 644b 6c3d 788c 7b3d
00000040: 0e5f 853d 31f0 8c3d ac79 943d 87fb 9b3d
00000050: c975 a33d 7be8 aa3d a353 b23d 4ab7 b93d
00000060: 7713 c13d 3268 c83d 82b5 cf3d 6efb d63d
00000070: ff39 de3d 3b71 e53d 2ba1 ec3d d5c9 f33d
00000080: 41eb fa3d bb02 013e 3d8c 043e 2c12 083e
00000090: 8a94 0b3e 5b13 0f3e a28e 123e 6406 163e
000000a0: a47a 193e 65eb 1c3e ab58 203e 7ac2 233e
000000b0: d428 273e be8b 2a3e 3aeb 2d3e 4d47 313e
000000c0: fa9f 343e 44f5 373e
0.0039720903 0.007908561 0.011829475 0.015734892 0.019624876 0.023499483 0.02735878 0.031202823
0.035031673 0.03884539 0.04264404 0.04642767 0.05019635 0.053950135 0.057689086 0.06141326
0.06512271 0.068817504 0.072497696 0.076163344 0.0798145 0.083451234 0.08707359 0.09068163
0.09427541 0.09785499 0.10142042 0.10497175 0.108509056 0.112032376 0.11554178 0.11903731
0.12251902 0.12598698 0.12944122 0.13288182 0.13630882 0.13972227 0.14312223 0.14650875
0.1498819 0.15324171 0.15658824 0.15992156 0.16324168 0.1665487 0.16984263 0.17312355
0.17639151 0.17964655

alphas_cumprod f4 [50]
00000000: affb 7e3f 72f7 7c3f 60f9 793f 720a 763f
00000010: 5836 713f 3e8b 6b3f 8719 653f 80f3 5d3f
00000020: 042d 563f 29db 4d3f db13 453f 7eed 3b3f
00000030: 937e 323f 58dd 283f 7c1f 1f3f c959 153f
00000040: e59f 0b3f 1704 023f 242e f13e a7cf de3e
00000050: 0f07 cd3e f3ea bb3e 1b8e ab3e 8bff 9b3e
00000060: 9a4a 8d3e 42ee 7e3e 5613 653e 7107 4d3e
00000070: 14c8 363e da4d 223e 1c8d 0f3e 2fed fc3d
00000080: 2ef0 dd3d 14fa c13d 47de a83d c26d 923d
00000090: 3ef0 7c3d e998 593d 4d74 3a3d 1a23 1f3d
000000a0: 0c49 073d a41b e53c 7c3b c13c 9154 a23c
000000b0: ced4 873c e06a 623c 4ff6 3b3c e66b 1b3c
000000c0: a701 003c 6405 d23b
0.9960279 0.9881507 0.9764614 0.9610969 0.94223547 0.9200934 0.89492077 0.86699677
0.8366244 0.80412537 0.7698342 0.7340926 0.69724387 0.65962744 0.62157416 0.58340126
0.54540855 0.5078749 0.47105515 0.435178 0.40044448 0.3670269 0.33506855 0.304684
0.2759598 0.24895576 0.22370657 0.2002237 0.17849761 0.1585001 0.14018673 0.12349927
0.10836826 0.09471527 0.08245521 0.07149841 0.06175255 0.053124342 0.04552107 0.038851835
0.033028647 0.027967282 0.023587935 0.019815715 0.016580965 0.013819426 0.011472299 0.009486174
0.007812894 0.006409334

alphas_cumprod_prev f4 [50]
00000000: 0000 803f affb 7e3f 72f7 7c3f 60f9 793f
00000010: 720a 763f 5836 713f 3e8b 6b3f 8719 653f
00000020: 80f3 5d3f 042d 563f 29db 4d3f db13 453f
00000030: 7eed 3b3f 937e 323f 58dd 283f 7c1f 1f3f
00000040: c959 153f e59f 0b3f 1704 023f 242e f13e
00000050: a7cf de3e 0f07 cd3e f3ea bb3e 1b8e ab3e
00000060: 8bff 9b3e 9a4a 8d3e 42ee 7e3e 5613 653e
00000070: 7107 4d3e 14c8 363e da4d 223e 1c8d 0f3e
00000080: 2fed fc3d 2ef0 dd3d 14fa c13d 47de a83d
00000090: c26d 923d 3ef0 7c3d e998 593d 4d74 3a3d
000000a0: 1a23 1f3d 0c49 073d a41b e53c 7c3b c13c
000000b0: 9154 a23c ced4 873c e06a 623c 4ff6 3b3c
000000c0: e66b 1b3c a701 003c
1.0 0.9960279 0.9881507 0.9764614 0.9610969 0.94223547 0.9200934 0.89492077
0.86699677 0.8366244 0.80412537 0.7698342 0.7340926 0.69724387 0.65962744 0.62157416
0.58340126 0.54540855 0.5078749 0.47105515 0.435178 0.40044448 0.3670269 0.33506855
0.304684 0.2759598 0.24895576 0.22370657 0.2002237 0.17849761 0.1585001 0.14018673
0.12349927 0.10836826 0.09471527 0.08245521 0.07149841 0.06175255 0.053124342 0.04552107
0.038851835 0.033028647 0.027967282 0.023587935 0.019815715 0.016580965 0.013819426 0.011472299
0.009486174 0.007812894

sqrt_alphas_cumprod f4 [50]
00000000: b77d 7f3f 917a 7e3f 18f8 7c3f 94f8 7a3f
00000010: 057f 783f 1d8f 753f 392d 723f 515e 6e3f
00000020: ed27 6a3f 1f90 653f 6b9d 603f b956 5b3f
00000030: 4dc3 553f abea 4f3f 91d4 493f dc88 433f
00000040: 810f 3d3f 7570 363f 9fb3 2f3f cee0 283f
00000050: a1ff 213f 8217 1b3f 952f 143f b04e 0d3f
00000060: 4a7b 063f fd76 ff3e f329 f23e f419 e53e
00000070: 9550 d83e 7bd6 cb3e 59b3 bf3e eeed b33e
00000080: 088c a83e 8492 9d3e 5805 933e 96e7 883e
00000090: f276 7e3e d504 6c3e 2c7a 5a3e dcd6 493e
000000a0: 7d19 3a3e 723f 2b3e 0845 1d3e 9125 103e
000000b0: 86db 033e 3bc1 f03d de5b db3d 1378 c73d
000000c0: 1e06 b53d 9df5 a33d
0.998012 0.9940577 0.9881606 0.9803555 0.97068816 0.959215 0.94600254 0.93112665
0.9146717 0.89673036 0.877402 0.85679203 0.8350113 0.8121745 0.78839976 0.76380706
0.7385178 0.71265346 0.68633455 0.65968025 0.63280684 0.60582745 0.57885104 0.5519819
0.52531874 0.49895468 0.4729763 0.44746363 0.4224898 0.39812073 0.3744152 0.35142463
0.32919335 0.30775845 0.28715014 0.26739186 0.24850062 0.23048718 0.21335667 0.19710869
0.18173786 0.16723421 0.15358365 0.1407683 0.1287671 0.11755606 0.10710882 0.09739699
0.088390574 0.080058314

sqrt_one_minus_alphas_cumprod f4 [50]
00000000: 1813 813d 11ef de3d e51a 1d3e f3f8 493e
00000010: 5a1c 763e 1cbb 903e 34f8 a53e 72b9 ba3e
00000020: faf2 ce3e 7d99 e23e 93a2 f53e 6e02 043f
00000030: 0edc 0c3f a85a 153f 577b 1d3f dc3b 253f
00000040: 999a 2c3f 9296 333f 6a2f 3a3f 5865 403f
00000050: 2939 463f 2fac 4b3f 3cc0 503f 9777 553f
00000060: f2d4 593f 57db 5d3f 248e 613f fcf0 643f
00000070: b607 683f 57d6 6a3f fd60 6d3f ddab 6f3f
00000080: 31bb 713f 2e93 733f fd37 753f b2ad 763f
00000090: 40f8 773f 781b 793f fe1a 7a3f 4afa 7a3f
000000a0: a1bc 7b3f 1265 7c3f 75f6 7c3f 6e73 7d3f
000000b0: 68de 7d3f 9739 7e3f fe86 7e3f 6bc8 7e3f
000000c0: 7cff 7e3f a42d 7f3f
0.0630247 0.10885442 0.1534229 0.19723873 0.24034253 0.28267753 0.32415926 0.3646961
0.4041975 0.44257727 0.47975597 0.5156621 0.55023277 0.58341455 0.61516327 0.64544463
0.674234 0.7015163 0.727286 0.7515464 0.7743097 0.79559606 0.81543326 0.83385605
0.85090554 0.8666281 0.88107514 0.8943021 0.90636766 0.91733307 0.9272612 0.9362162
0.94426256 0.95146453 0.95788556 0.9635879 0.96863174 0.9730754 0.97697437 0.9803816
0.983347 0.9859172 0.98813564 0.99004257 0.9916749 0.99306625 0.9942473 0.99524564
0.9960859 0.9967902

log_one_minus_alphas_cumprod f4 [50]
00000000: 1fe9 b0c0 84ef 8dc0 7cf1 6fc0 9fc9 4fc0
00000010: 047d 36c0 aeb8 21c0 d131 10c0 c91c 01c0
00000020: e5e5 e7bf 08ad d0bf bb06 bcbf ba8c a9bf
00000030: 1df0 98bf 8cf2 89bf a3c3 78bf 6829 60bf
00000040: b6d1 49bf 7d82 35bf fc09 23bf 183d 12bf
00000050: 0af6 02bf d126 eabe bbee d0be 1d0e babe
00000060: 3e54 a5be b194 92be aca6 81be 0dc9 64be
00000070: de56 49be 05b6 30be 3daa 1abe 3bfb 06be
00000080: efe8 eabd a9c9 cbbd 063d b0bd 58ed 97bd
00000090: f08a 82bd 2b97 5fbd ddd4 3ebd a34f 22bd
000000a0: eb91 09bd 685f e8bc 428c c3bc e2f5 a3bc
000000b0: 42f8 88bc 3dff 63bc 640c 3dbc ec29 1cbc
000000c0: 6f82 00bc 8ab2 d2bb
-5.528457 -4.4354877 -3.749114 -3.246681 -2.8513803 -2.526897 -2.2530406 -2.017382
-1.8117033 -1.6302805 -1.4689554 -1.3246071 -1.1948277 -1.0777144 -0.9717352 -0.8756318
-0.7883562 -0.70902234 -0.6368711 -0.5712447 -0.51156676 -0.4573274 -0.40807137 -0.36338893
-0.32290834 -0.28629068 -0.25322473 -0.2234232 -0.19662043 -0.17256935 -0.15104003 -0.13181774
-0.1147021 -0.09950573 -0.08605389 -0.074183166 -0.063741565 -0.054587524 -0.04658972 -0.03962673
-0.033586424 -0.028365806 -0.023870591 -0.020014707 -0.016719941 -0.013915834 -0.011538599 -0.009531479
-0.007843598 -0.006429975

sqrt_recip_alphas_cumprod f4 [50]
00000000: 4641 803f e1c3 803f 9a88 813f 9d90 823f
00000010: 7fdd 833f 4471 853f 634e 873f c777 893f
00000020: dff0 8b3f a4bd 8e3f 9fe2 913f fd64 953f
00000030: 954a 993f 029a 9d3f ac5a a23f e294 a73f
00000040: f451 ad3f 469c b33f 7a7f ba3f 8d08 c23f
00000050: ff45 ca3f 0248 d33f b020 dd3f 44e4 e73f
00000060: 5da9 f33f a744 0040 3750 0740 4407 0f40
00000070: a37b 1740 59c1 2040 e9ee 2a40 a91d 3640
00000080: 246a 4240 8ef4 4f40 42e1 5e40 5e59 6f40
00000090: b7c5 8040 1bd6 8a40 cdfb 9540 d358 a240
000000a0: ea13 b040 3159 bf40 045b d040 eb52 e340
000000b0: bd82 f840 f31a 0841 7b61 1541 b046 2441
000000c0: c803 3541 b4da 4741
1.001992 1.0059777 1.0119812 1.0200382 1.030197 1.0425191 1.0570797 1.0739678
1.0932883 1.1151624 1.1397284 1.1671444 1.1975886 1.2312624 1.2683921 1.309231
1.3540635 1.4032066 1.4570153 1.515886 1.5802611 1.650635 1.72756 1.8116536
1.903606 2.0041902 2.114271 2.2348185 2.3669212 2.511801 2.670832 2.8455603
3.0377283 3.2493014 3.4824986 3.7398295 4.024135 4.338636 4.6869874 5.073343
5.502431 5.9796376 6.5111103 7.103872 7.7659593 8.506579 9.336299 10.267258
11.313423 12.490894

sqrt_recipm1_alphas_cumprod f4 [50]
00000000: ba54 813d 3f44 e03d c8fc 1e3e 0d05 4e3e
00000010: eb8a 7d3e 7be2 963e 6971 af3e 3789 c83e
00000020: 4b41 e23e feb1 fc3e 87fa 0b3f fc12 1a3f
00000030: 1cb1 283f e7e4 373f a9bf 473f 4954 583f
00000040: 76b7 693f d3ff 7b3f 29a3 873f 3ad3 913f
00000050: 4d9f 9c3f 3518 a83f 9c50 b43f 415d c13f
00000060: 3f55 cf3f 5452 de3f 4371 ee3f 39d2 ff3f
00000070: 9c4c 0940 5377 1340 f07f 1e40 f47f 2a40
00000080: 1494 3740 b1dc 4540 537e 5540 46a2 6640
00000090: 4677 7940 2619 8740 b787 9240 7929 9f40
000000a0: 4425 ad40 57a7 bc40 2ee2 cd40 720f e140
000000b0: 1a71 f640 5c29 0741 7e85 1441 be7e 2341
000000c0: 674e 3441 7b36 4741
0.063149884 0.10950517 0.15526116 0.20119114 0.24760024 0.29469666 0.34266213 0.39167187
0.4419044 0.49354547 0.5467915 0.6018522 0.6589525 0.7183365 0.78026825 0.8450361
0.91295564 0.9843723 1.0596668 1.1392586 1.2236115 1.3132387 1.40871 1.5106584
1.619789 1.7368875 1.8628315 1.998603 2.1453009 2.304158 2.4765587 2.6640596
2.868413 3.091595 3.3358352 3.6036544 3.8979049 4.22182 4.5790668 4.9738126
5.410799 5.895427 6.43386 7.0331354 7.7013063 8.4475975 9.282591 10.218443
11.269141 12.450801

posterior_variance f4 [50]
00000000: 0000 0000 2abe 2d3b a221 c33b e0fb 1b3c
00000010: c28b 583c fd29 8b3c b66e aa3c 90f2 c93c
00000020: e4a0 e93c 23b6 043d 98a5 143d 489b 243d
00000030: 7994 343d de8e 443d 9288 543d d37f 643d
00000040: 1073 743d 6930 823d d323 8a3d 1b13 923d
00000050: 92fd 993d 95e2 a13d 80c1 a93d b399 b13d
00000060: 916a b93d 8933 c13d 07f4 c83d 7dab d03d
00000070: 7059 d83d 63fd df3d ec96 e73d a125 ef3d
00000080: 2ea9 f63d 4621 fe3d d8c6 023e 1c77 063e
00000090: 6021 0a3e 99c5 0d3e c463 113e e5fb 143e
000000a0: 078e 183e 381a 1c3e 8fa0 1f3e 2421 233e
000000b0: 119c 263e 7d11 2a3e 8381 2d3e 4eec 303e
000000c0: ff51 343e bdb2 373e
0.0 0.0026511052 0.005954937 0.009520501 0.013216915 0.016987795 0.020804744 0.024651796
0.028519101 0.03240026 0.036290735 0.04018715 0.044086907 0.04798781 0.051888056 0.055785965
0.059680045 0.0635689 0.06745114 0.0713255 0.07519068 0.07904545 0.0828886 0.08671894
0.09053529 0.09433658 0.098121695 0.10188959 0.10563934 0.109370016 0.11308083 0.11677099
0.12043987 0.1240869 0.12771165 0.13131374 0.13489294 0.13844909 0.14198214 0.14549215
0.14897929 0.15244377 0.15588592 0.15930611 0.16270472 0.16608234 0.16943936 0.17277643
0.17609404 0.17939277

posterior_log_variance_clipped f4 [50]
00000000: f134 38c2 53d9 bdc0 fff3 a3c0 17f0 94c0
00000010: b470 8ac0 8868 82c0 42d8 77c0 68fc 6cc0
00000020: dba8 63c0 627e 5bc0 813c 54c0 96b5 4dc0
00000030: 2cc8 47c0 115b 42c0 cb5a 3dc0 0ab8 38c0
00000040: 8666 34c0 425c 30c0 0791 2cc0 f9fd 28c0
00000050: 569d 25c0 346a 22c0 6260 1fc0 3d7c 1cc0
00000060: a0ba 19c0 c318 17c0 3994 14c0 da2a 12c0
00000070: b8da 0fc0 18a2 0dc0 6d7f 0bc0 4e71 09c0
00000080: 7376 07c0 b18d 05c0 f3b5 03c0 3dee 01c0
00000090: a435 00c0 9d16 fdbf e8dc f9bf afbc f6bf
000000a0: 91b4 f3bf 48c3 f0bf 9ee7 edbf 7220 ebbf
000000b0: bc6c e8bf 76cb e5bf ba3b e3bf a4bc e0bf
000000c0: 674d debf 3eed dbbf
-46.0517 -5.932779 -5.1235347 -4.654308 -4.3262577 -4.07526 -3.8725743 -3.7029057
-3.5571811 -3.4295888 -3.3161929 -3.2142081 -3.1215925 -3.0368083 -2.9586666 -2.8862329
-2.8187575 -2.755631 -2.6963518 -2.6405013 -2.587728 -2.5377321 -2.4902577 -2.445083
-2.4020157 -2.3608863 -2.3215468 -2.2838655 -2.2477245 -2.2130184 -2.1796525 -2.1475406
-2.1166046 -2.0867732 -2.0579803 -2.030166 -2.003274 -1.9772526 -1.952054 -1.9276332
-1.903948 -1.8809595 -1.8586309 -1.8369277 -1.8158183 -1.7952716 -1.7752602 -1.7557569
-1.7367371 -1.7181776

posterior_mean_coef1 f4 [50]
00000000: a0ff 7f3f b385 2a3f aec7 ff3e 31a2 cc3e
00000010: 8687 aa3e b128 923e ffbc 7f3e b042 633e
00000020: 9f72 4c3e bfbf 393e 2221 2a3e 31df 1c3e
00000030: b476 113e 4587 073e 1291 fd3d 2006 ee3d
00000040: 5a17 e03d 7f80 d33d dd0a c83d 2b8a bd3d
00000050: 2cda b33d fedc aa3d c979 a23d d39b 9a3d
00000060: b331 933d c62c 8c3d bb80 853d 5546 7e3d
00000070: c216 723d 1d64 663d 4a22 5b3d 4547 503d
00000080: ecca 453d b8a6 3b3d 8dd5 313d 8753 283d
00000090: c61d 1f3d 5432 163d f08f 0d3d f735 053d
000000a0: 7048 fa3c bdb5 ea3c a1b4 db3c 2d46 cd3c
000000b0: 846b bf3c c125 b23c be75 a53c 0b5c 993c
000000c0: c9d8 8d3c 9eeb 823c
0.9999943 0.6661026 0.4995703 0.39967492 0.3330652 0.2854667 0.2497444 0.22193408
0.199656 0.18139552 0.16614202 0.15319516 0.14205438 0.13235195 0.123811856 0.11622262
0.10941954 0.10327243 0.09767697 0.09254869 0.08781847 0.08342932 0.07933385 0.07549252
0.07187214 0.06844477 0.06518694 0.062078793 0.059103735 0.05624782 0.053499497 0.050849218
0.048289225 0.045813292 0.04341655 0.041095283 0.038846754 0.03666909 0.034561098 0.032522168
0.030552119 0.028651113 0.026819529 0.025057876 0.023366697 0.021746518 0.020197745 0.018720647
0.017315285 0.015981492

posterior_mean_coef2 f4 [50]
00000000: 0000 0000 d3f3 aa3e ff1a 003f caab 193f
00000010: cab5 2a3f 0fe0 363f d2fd 3f3f 8a12 473f
00000020: abb9 4c3f 3a56 513f 042a 553f 8e62 583f
00000030: 5120 5b3f fe7a 5d3f 6484 5f3f fd49 613f
00000040: 47d6 623f 8531 643f 3b62 653f b96d 663f
00000050: 4958 673f 7a25 683f 3ad8 683f 0673 693f
00000060: f5f7 693f d768 6a3f 3dc7 6a3f 7c14 6b3f
00000070: d251 6b3f 5480 6b3f 00a1 6b3f bab4 6b3f
00000080: 5fbc 6b3f b5b8 6b3f 7faa 6b3f 7092 6b3f
00000090: 3b71 6b3f 8247 6b3f ea15 6b3f 0ddd 6a3f
000000a0: 839d 6a3f dd57 6a3f a60c 6a3f 60bc 693f
000000b0: 8967 693f 9b0e 693f 04b2 683f 3252 683f
000000c0: 81ef 673f 4f8a 673f
0.0 0.33389148 0.5004119 0.60027754 0.6668364 0.71435636 0.74996674 0.77762663
0.79970807 0.81772196 0.83267236 0.8452538 0.85596186 0.86515796 0.8731139 0.8800352
0.8860821 0.8913806 0.8960301 0.90011173 0.9036909 0.90682185 0.90954936 0.91191137
0.9139398 0.9156622 0.91710263 0.9182813 0.9192172 0.9199269 0.9204254 0.9207264
0.92084306 0.92078716 0.9205703 0.9202032 0.9196965 0.9190599 0.91830313 0.91743547
0.91646594 0.9154032 0.9142555 0.9130306 0.9117361 0.9103791 0.9089663 0.9075042
0.9059983 0.9044542

model.time_mlp.1.weight f4 [256, 32]
00000000: 1f9d 6dbd e4c5 273e b5b0 f3bb f377 7abd
00000010: 87fe e93c 5b04 87bd e847 93bd 7385 e9bd
00000020: 9121 5b3e 34cc 5b3e b43b 093d afbc 05bc
00000030: 89e7 2c3d df10 c63d 76e2 21bd 7669 a6bd
00000040: 4ca3 cfbd 338c 803d 55ea 23bc bb68 4b3d
00000050: 34d2 3cbe 8215 263d 1d2a 49be a304 04be
00000060: dee2 9d3d c734 52bc f4dc 73be 3589 8c3c
00000070: e655 a1bd 567e 94bd 644c afbc 0837 fa3d
00000080: c1d0 80bd 15ce 51bd a6c0 623d 5524 0c3e
00000090: b102 cabd d690 363c 9691 ae3c b0d6 873d
000000a0: 1669 fe3d 8edc 2abe 1488 6ebd f445 8f3c
000000b0: 734f 063e b531 98bd 4fe0 85bd ba80 e4bd
000000c0: 7052 a83d 106e 003e 580b 28bc 72fb 24be
000000d0: a5e4 0ebe 931a 22bc c5ef 1cbc 537a 883d
000000e0: 9aac 50bd f090 b43d dc28 8c3d 4c90 9fbc
000000f0: fb5b c13c 4860 f6bc e641 41be de14 4dbd
00000100: de81 103d b651 f13c 0cd0 8c3d d371 84be
00000110: 1705 5bbc c69d 43ba 8b80 923b 7334 89bc
00000120: 5330 7e3b 5b56 423d 0bd3 16be 67b1 35be
00000130: 1ea6 3cbd f3b6 033e 79d0 c03d b7c8 28bc
00000140: 6007 a8bc d241 b03c ee2a 013e 6e02 2cbd
00000150: 4e48 b5bd 5de0 2b3e 1339 97bb 673d 8cbd
00000160: 69dd f1bd fb47 fd3b ab67 0abe 6fed b6bd
00000170: 7bfb 6fbe 6d4e 01be 55b3 2cbe 2e29 efbc
00000180: c790 283d 29cc 013e 66de 0abe 2ccd abbc
00000190: 75dc d1b9 c662 7fbd 9e88 6e3d 4378 203e
000001a0: 4de1 37bd 1313 4fbd d765 9b3d 6f72 34be
000001b0: ffa8 04bd 7512 3ebd 946d f63c 1c3e a03d
000001c0: 5466 d83c 3588 0fbe feb5 e4bb ea5e 20be
000001d0: 75e7 d2bd a69b 7ebc 6727 983d d9a6 f13d
000001e0: ea6b 46be f600 563d 939f 11be 5b3b 41be
000001f0: ee6d 833d 3ef1 86bd 58de 3e3c 827f 303d
00000200: a0b5 e13d 1440 97bd fd7e 6a3d 9d40 04be
00000210: 41dd 4f3c 0004 c9bd e1d4 bebd c9f0 a2bd
00000220: 9737 68bd 5067 28bd e25c afbd 45b6 743d
00000230: 8f61 a13d ded7 b63b cb4e 50bd ed74 c9bd
00000240: d423 893d eb31 923d 790e 01bd 0d70 153e
00000250: 727d 83bd e6a9 013c b8be f73c e390 a73d
00000260: 98ef 923d 0d5b cfbd e8fb 283e 149e 05be
00000270: 6b26 343d c74c b13d 7cb9 2abb d86b 493d
00000280: eed6 edbc 11c4 64bc a166 c6bb dbcf c7bd
00000290: d8cb 95bc 9699 81bd 2378 80bd 5437 3f3e
000002a0: 405d 2abd ce34 59bd 1b2e 9c3d d454 8bbd
000002b0: 4249 edbd 592b 9bbb 6e56 163b a928 0bba
000002c0: 501f 873d 4541 9e3d 3836 58bc 52f0 0a3c
000002d0: a1e1 0bbd 9c50 5b3c 3d81 53bd 697a ab3d
000002e0: ba99 503d e996 8a3d c9c2 d83d 4ad4 1bbd
000002f0: eedd 3f3d e979 e63d da11 c13d 3149 2f3d
00000300: 75de b23d f8c4 563d b34b 3dbe 0b90 513c
00000310: 30ca c33d 02c2 883d 6716 1d3d 7089 51be
00000320: e816 ca3c ecd1 b8bc 4595 f5bc b910 aa3c
00000330: c89e fc3d 41bb 023e 5662 2cbd 4719 243e
00000340: e69a c8bb 1575 bfbd 585f 2ebc 0555 5ebd
00000350: 0221 5cbb b10e d43d ba5a 88bb ab2d b5bd
00000360: 31d8 d4bd 2c47 bc3d dd3d bbbd 5bdb b6bc
00000370: 2368 29bd 006f fd3c 86cc 813d e5d9 38be
00000380: d689 33bd 0ea8 383b 295d 3cbc 0c09 443d
00000390: 08b2 38bd ed52 03be a296 8cbd e51a 04be
000003a0: 17b2 9ebc 058d 07bd 3737 20bd 3940 24bd
000003b0: 1256 79bd 67b0 af3d b180 c6bd 43b4 213e
000003c0: 826d 75bd 3634 8f3b f280 163e dde5 713c
000003d0: d10f d9bc fad0 1abe 3f02 c33d 7f1f 22bd
000003e0: fb01 45bd f5d0 283d 3efb 48bd 0d3e e83d
000003f0: 410d 013d abbc b63d 8c8f 953d a00b 9dbd
-0.05801117 0.16384083 -0.0074368366 -0.06114955 0.02856375 -0.065926276 -0.071914494 -0.114024065
0.21399523 0.21464616 0.033504203 -0.008162661 0.042212997 0.09671187 -0.03952261 -0.08125584
-0.10138568 0.06276741 -0.0100046 0.049660426 -0.18439561 0.040547855 -0.19644971 -0.12892394
0.07709287 -0.012829966 -0.23814756 0.01715527 -0.07877712 -0.07250659 -0.02139873 0.12217528
-0.06289817 -0.051221926 0.055359505 0.13685735 -0.098637946 0.01114293 0.021309655 0.06632745
0.12422387 -0.16685697 -0.058235243 0.017489411 0.13116245 -0.07431356 -0.06536924 -0.11157365
0.08218849 0.12541986 -0.010256611 -0.16111544 -0.13954408 -0.009894031 -0.00957865 0.066639565
-0.050945856 0.08816707 0.06843731 -0.019477986 0.02360343 -0.030075207 -0.18872795 -0.05006873
0.0352801 0.029457908 0.06875619 -0.2586809 -0.013367913 -0.000746217 0.00447089 -0.016748643
0.0038786128 0.047445636 -0.14728944 -0.17743455 -0.04605686 0.12862758 0.09414763 -0.01030176
-0.02051133 0.02151576 0.12614033 -0.041994505 -0.08851682 0.16784807 -0.004614958 -0.06847649
-0.11809809 0.007729528 -0.13516109 -0.089320056 -0.23435776 -0.12627573 -0.16865285 -0.02919444
0.041153695 0.12675537 -0.13561401 -0.020971857 -0.0004002784 -0.062350057 0.058235757 0.15670876
-0.044892598 -0.0505553 0.07587784 -0.17621778 -0.03238773 -0.04640432 0.030081548 0.078243464
0.026415981 -0.14016803 -0.006979703 -0.15661207 -0.10298053 -0.015540039 0.074293904 0.11799402
-0.19377103 0.05224701 -0.14221029 -0.18870299 0.06417452 -0.06588982 0.011649691 0.04309035
0.1102097 -0.07385269 0.05725001 -0.12915273 0.012687028 -0.09815216 -0.09317947 -0.079560824
-0.05669364 -0.04111415 -0.08562638 0.05974414 0.07879936 0.0055799326 -0.050856393 -0.09836755
0.06696287 0.07138427 -0.031507943 0.14593525 -0.06420411 0.007914042 0.030242309 0.08181932
0.07174605 -0.101247884 0.16502345 -0.13048583 0.04398195 0.08657222 -0.0026050499 0.049175113
-0.02903315 -0.0139627615 -0.006054715 -0.09756442 -0.018285677 -0.06328122 -0.06272914 0.1867345
-0.041592836 -0.053028874 0.076259814 -0.06803289 -0.115862384 -0.004735392 0.00229397 -0.0005308488
0.06597769 0.07727293 -0.0131965205 0.008480148 -0.034150723 0.013385918 -0.051636923 0.08372957
0.050927855 0.06767065 0.10584027 -0.03804425 0.046842508 0.11253721 0.09427233 0.04279441
0.087338366 0.052433938 -0.18485908 0.01279069 0.095600486 0.06677629 0.038351443 -0.20462584
0.024669126 -0.022561036 -0.029978404 0.020759927 0.123349726 0.12766744 -0.042085968 0.16025268
-0.006121981 -0.093485035 -0.010642849 -0.0542803 -0.003358901 0.10354365 -0.004161206 -0.08846601
-0.10392798 0.091932625 -0.09142659 -0.022321394 -0.04135908 0.030936718 0.06337838 -0.1805187
-0.043832622 0.002817634 -0.0114968205 0.04786019 -0.04509166 -0.12824602 -0.068646684 -0.12900884
-0.01937203 -0.03309347 -0.039115157 -0.04010031 -0.0608731 0.08578568 -0.09692515 0.1579142
-0.059918888 0.0043702377 0.14697626 0.014764276 -0.0264968 -0.1511878 0.09521913 -0.03958082
-0.04809759 0.041214902 -0.04906773 0.1133996 0.03150678 0.08922704 0.0730277 -0.07668233

model.time_mlp.1.bias f4 [256]
00000000: 97fd fc37 f310 75b8 131a 1f38 9682 27b8
00000010: 68d4 85b8 ac42 96b8 6648 5038 118f 8e38
00000020: ec4c 3738 1330 fa37 af4b 9438 0fe8 a738
00000030: b2fb 3638 3d7c 6138 21bb 8c38 046b 53b8
00000040: 5e22 9d38 9470 82b8 0465 1438 a247 0cb7
00000050: c91d ea37 d0cc 0638 5cc0 5cb8 741f 6538
00000060: 1f24 5738 efeb 1cb8 b093 8fb7 849f 4a38
00000070: fdca 04b8 4b6b 1838 1b04 7438 e926 b2b8
00000080: 1240 3bb8 2b85 9637 118b 3438 1ce0 7537
00000090: a374 9338 bc83 0fb8 5269 9e38 c28a a538
000000a0: 2693 4138 b843 9638 0863 9c38 c1c5 1338
000000b0: b845 5c37 1c21 a6b7 7755 17b8 9deb 4238
000000c0: b7e3 98b7 a84d 8738 d7ec 1bb8 35a6 93b8
000000d0: 89c6 03b8 10b8 5138 f8e8 d037 b05b 1cb8
000000e0: 5a6c 8237 266c 8cb7 5a00 73b8 e434 39b8
000000f0: 0aae a7b7 f255 8eb8 9df8 5cb8 8106 2fb7
00000100: 6905 50b8 249e 9738 30e4 2f38 ab3f 92b8
00000110: f69f e1b7 538d 2a38 5653 6a38 fdd0 86b8
00000120: 5fb9 97b8 92d8 53b8 2bcb 40b8 c6a0 0c38
00000130: 2be3 5e38 a2ae b1b8 9b27 7c38 d847 a838
00000140: 329e 92b8 d0be 55b8 540b 84b8 9ddf 1d38
00000150: 1b05 7d38 0923 9738 ca77 4438 a259 8fb8
00000160: ce70 0037 84c3 51b8 5524 61b8 d006 8ab8
00000170: 38da 1d38 1ff5 4038 9789 5937 7420 2a38
00000180: 2d4d 2138 7a26 1ab8 f33e 6338 e1ac c1b6
00000190: 7fad 69b7 f2c4 15b8 3b3c 3437 7077 0538
000001a0: 80e5 9bb7 ee56 66b8 07bc f337 d88b 56b6
000001b0: d398 cab7 99dc 9db8 05a3 09b8 414e 8db8
000001c0: 8ba1 1bb7 2466 1db8 2d79 39b7 ada4 4837
000001d0: f132 a5b8 2d40 75b8 05c4 3438 6fd8 9338
000001e0: c7f8 5638 ec07 a3b8 0983 85b8 eab9 8db8
000001f0: f2fb 9ab8 0854 a238 ea37 c537 dbda 5cb8
00000200: a700 7836 8806 46b8 1823 0a38 3285 0cb8
00000210: b78a 2e38 6e29 ac38 4500 85b8 76d4 7837
00000220: 5b79 8cb8 34aa 24b8 8409 97b8 310e 98b8
00000230: 7641 2638 61b1 27b7 b36c 8c38 698e 9538
00000240: 1840 2b38 22c7 0ab8 d109 7238 c89d a338
00000250: 2fb6 6838 c3b5 3a38 d079 abb7 e2e9 5c38
00000260: 82e1 9938 7539 8fb8 bcd7 5d38 e865 ab38
00000270: f5d3 50b8 6072 8ab8 e15d 1438 25c9 4a38
00000280: 3a8f 6eb8 52df 8db8 c109 9638 e513 8938
00000290: b776 98b8 bc19 62b8 3756 4938 bf03 34b8
000002a0: 6cef 4c38 9e1f 0e38 e496 8438 e343 1b38
000002b0: 4944 6bb8 cc7d 1c38 178f 6f38 927b 9d38
000002c0: b19d 2bb8 c4fc fc37 3f34 87b8 2253 5838
000002d0: 5a05 4bb8 2737 a8b6 122e 6db8 3a1d 8438
000002e0: 6df3 50b8 7630 a8b8 1000 4638 9c43 0f38
000002f0: ee02 4938 83b3 60b8 d9ff 8e38 6d5d 64b8
00000300: dad9 8438 c47a 8ab8 9aba 43b8 7a57 8438
00000310: 1817 98b8 5be0 1f38 3ce6 c937 7c1a 9db8
00000320: bc97 5338 e7eb 3b38 ee66 64b7 9714 e7b7
00000330: 2da8 86b8 8cfa 2c38 90ec 3138 c90b 82b8
00000340: a91a 7b38 4d70 4bb8 b5a6 efb7 f844 8338
00000350: 2017 4038 e69c 5038 2071 97b8 cf15 6338
00000360: 7d40 e4b7 5816 97b8 f982 4338 2dc0 85b8
00000370: b441 59b8 25b6 6eb8 b1f2 4238 6679 93b8
00000380: 8521 2438 0426 4738 d6f3 7638 ff71 8fb8
00000390: e8b5 2db7 801c 8038 2bbd d037 5cec 9ab8
000003a0: 1e9b 4cb8 9f1a 6635 8326 4038 3c0e d0b7
000003b0: e6ef aab6 9efa 8438 cd70 1eb8 1c1d 9638
000003c0: b05a d9b7 b9f7 fe36 dc5d 8438 eb03 9238
000003d0: 9010 b137 71f8 2fb8 47f4 12b8 a8fc 26b7
000003e0: 2658 8637 bc7c 0db8 e5df a2b8 6b33 33b8
000003f0: e792 6938 d808 3238 5dc6 9ab8 77c1 a1b8
3.0158828e-05 -5.8428337e-05 3.7932838e-05 -3.993752e-05 -6.381498e-05 -7.164976e-05 4.965849e-05 6.797736e-05
4.370224e-05 2.9824709e-05 7.071287e-05 8.006405e-05 4.362659e-05 5.3759886e-05 6.710576e-05 -5.0405986e-05
7.492745e-05 -6.2198524e-05 3.5380028e-05 -8.361329e-06 2.7908844e-05 3.2138836e-05 -5.2631236e-05 5.4627148e-05
5.1293635e-05 -3.741303e-05 -1.71157e-05 4.8309113e-05 -3.16603e-05 3.633955e-05 5.8177957e-05 -8.494949e-05
-4.4643944e-05 1.7943405e-05 4.304486e-05 1.46553175e-05 7.0312315e-05 -3.4216544e-05 7.5536445e-05 7.893659e-05
4.615183e-05 7.165171e-05 7.457106e-05 3.5231704e-05 1.31292545e-05 -1.980416e-05 -3.60808e-05 4.6472636e-05
-1.822585e-05 6.451766e-05 -3.7175454e-05 -7.040465e-05 -3.1417734e-05 5.0000905e-05 2.4904017e-05 -3.727869e-05
1.5547663e-05 -1.6739661e-05 -5.7936042e-05 -4.4156695e-05 -1.9988995e-05 -6.787096e-05 -5.2683627e-05 -1.0432327e-05
-4.9596103e-05 7.229697e-05 4.1935768e-05 -6.9736816e-05 -2.6896578e-05 4.0662777e-05 5.586756e-05 -6.428545e-05
-7.234769e-05 -5.0508017e-05 -4.5965582e-05 3.3528333e-05 5.314049e-05 -8.4725456e-05 6.0118367e-05 8.024246e-05
-6.991289e-05 -5.0960865e-05 -6.2963605e-05 3.7639973e-05 6.0324655e-05 7.206767e-05 4.6841604e-05 -6.835467e-05
7.655659e-06 -5.001157e-05 -5.3678017e-05 -6.581622e-05 3.763495e-05 4.6004654e-05 1.2966243e-05 4.0561383e-05
3.8457267e-05 -3.6752295e-05 5.4179643e-05 -5.771974e-06 -1.3928277e-05 -3.5707788e-05 1.074286e-05 3.1820906e-05
-1.858431e-05 -5.4917233e-05 2.9055414e-05 -3.1969885e-06 -2.415144e-05 -7.527433e-05 -3.281517e-05 -6.73798e-05
-9.276332e-06 -3.7526843e-05 -1.1055073e-05 1.19592705e-05 -7.877302e-05 -5.847232e-05 4.30979e-05 7.04982e-05
5.1253268e-05 -7.773921e-05 -6.3663414e-05 -6.758033e-05 -7.390221e-05 7.740414e-05 2.3510267e-05 -5.2655912e-05
3.695526e-06 -4.721296e-05 3.2934448e-05 -3.350265e-05 4.161402e-05 8.209316e-05 -6.3419844e-05 1.4831419e-05
-6.6983244e-05 -3.925916e-05 -7.2020135e-05 -7.250568e-05 3.963845e-05 -9.995275e-06 6.695967e-05 7.1313996e-05
4.082927e-05 -3.308722e-05 5.770644e-05 7.801835e-05 5.5482782e-05 4.4515135e-05 -2.0441512e-05 5.2669908e-05
7.3376126e-05 -6.8294736e-05 5.2891424e-05 8.172897e-05 -4.9788465e-05 -6.601657e-05 3.537338e-05 4.8347883e-05
-5.6877012e-05 -6.7650006e-05 7.154374e-05 6.536375e-05 -7.270037e-05 -5.3906566e-05 4.800243e-05 -4.2918833e-05
4.886037e-05 3.3884884e-05 6.322356e-05 3.7018104e-05 -5.609196e-05 3.7310456e-05 5.7115303e-05 7.50936e-05
-4.091644e-05 3.0158444e-05 -6.447033e-05 5.1575837e-05 -4.8403956e-05 -5.0132107e-06 -5.654811e-05 6.299694e-05
-4.9817772e-05 -8.019891e-05 4.7206937e-05 3.4156823e-05 4.7924863e-05 -5.3572945e-05 6.818743e-05 -5.4446446e-05
6.3348285e-05 -6.60322e-05 -4.666541e-05 6.310544e-05 -7.252226e-05 3.81175e-05 2.4068278e-05 -7.4912765e-05
5.0447634e-05 4.4803975e-05 -1.3613824e-05 -2.7546934e-05 -6.420943e-05 4.1241336e-05 4.2420404e-05 -6.201078e-05
5.9867893e-05 -4.850356e-05 -2.856865e-05 6.259413e-05 4.5797904e-05 4.9737188e-05 -7.221312e-05 5.414133e-05
-2.7209748e-05 -7.204403e-05 4.66136e-05 -6.37773e-05 -5.1798022e-05 -5.6913257e-05 4.647923e-05 -7.0321184e-05
3.9131864e-05 4.7480702e-05 5.887806e-05 -6.840005e-05 -1.0353957e-05 6.108824e-05 2.488362e-05 -7.3873176e-05
-4.8781854e-05 8.5720416e-07 4.5812234e-05 -2.480216e-05 -5.0943227e-06 6.3409316e-05 -3.777519e-05 7.1579794e-05
-2.5910645e-05 7.5986286e-06 6.311733e-05 6.962552e-05 2.1107757e-05 -4.195463e-05 -3.5036614e-05 -9.953197e-06
1.6015092e-05 -3.3733188e-05 -7.7664656e-05 -4.2724812e-05 5.5688342e-05 4.2446743e-05 -7.38024e-05 -7.713114e-05

model.time_mlp.3.weight f4 [32, 256]
00000000: 3c8a ab3a 3d47 da3c 4b7b 6ebb 9e66 423d
00000010: 4a48 cd3b b034 55bc 84f1 bebc 7f6f e83c
00000020: 21c3 913d 773f 183d 95b6 b9bc df97 ef3c
00000030: 4c23 273b 4e80 00bd c743 5e3d 4466 953b
00000040: 18c1 e4bc a7d7 69bc a6f3 e1bc bba2 853c
00000050: aa3d dc3c 06b8 8bbd 9e89 2bbd 1d03 fcbc
00000060: 1922 64bd 59c0 1dbd e83e 423d ab22 9d3c
00000070: ac05 1cbd 9231 0839 98ca b7bb 4c45 87bd
00000080: 3cca edba a376 9d3c 0aa5 1abd 8544 1c3d
00000090: 43ee 343a 9854 4c3d 3b4f 823c 0c3d b33c
000000a0: 024a f3bc 92a6 9fbd a5f9 a43c 82fc 2e3c
000000b0: 4f1e 13bd cb5b da3b 4822 d5bb 7182 333d
000000c0: 2ed9 2dbd da59 6e3c 0523 b1bc 9984 bd3d
000000d0: 43b8 3a3d 90f9 bdbc da85 ffbc 9c07 8bbc
000000e0: eb0e 2a3d 5519 4e3c 9d4c ee3c 9f86 31bd
000000f0: 1afd 0a3b 328c 173d 66c2 af3b ffb2 093d
00000100: d344 c33c 728c 2abc ed0a d3bc 0e7e aabc
00000110: 1bdc c2bc b679 20bd 4449 943c a7ba c6bb
00000120: f9f0 b1bc ca84 3c3c 82e2 4e3c db03 d93c
00000130: 71b9 b4bc 961b fa3c 4743 343d 39fd a1bc
00000140: 16d2 f03c f681 cbbd d462 ee3c cbd4 22bd
00000150: a634 943a 5317 6bbb e6e1 b03a 5811 b83b
00000160: 78a5 52bd cadf 94bc 052f 333c f776 7bb9
00000170: 0f11 2bbd e8fb 663c 307f e13c d839 40bd
00000180: 2b91 2d3c 53ab 24bc d6ce 25bb 1c00 b83c
00000190: 4152 3eba f5ab 543d 04a0 ce3c 5ec9 a4bd
000001a0: 41c5 073d 1bfa 513c f216 c63b 2cfc e53b
000001b0: e2a1 e63c a83f 96bc ef44 073d e536 2cbd
000001c0: 0f88 953c f693 5ebc 9a18 09bd 4e8b d4bc
000001d0: 6691 dc3b 7d09 13bd 319b c43c 7221 d3bc
000001e0: bdd4 51bb ec29 9abc 9c3b 8dbc 5e8a 23bc
000001f0: 5be0 013d a4f1 013d 5c1f 9b3c e547 993c
00000200: 2d13 643d a7d2 f83c 2349 fbbc 484e b6bc
00000210: e9eb a6bb f68c 98bc d8e5 20bc aa17 aebc
00000220: adde dc3c 8a75 1abd f797 193d a9be 1dbd
00000230: 23eb b8bc 5ec6 173d c9bf 313d 6ec6 503d
00000240: 41dd 32bc e58b 3c3c fbbe 61bc 3e3e 04bd
00000250: 13d2 a3bb da05 e2bb 3490 a2ba 4d96 cc3c
00000260: 42fa 8dbc 3f43 33bc bf53 173d afa4 2fbd
00000270: 8cfc f83c 722c 093d 7bd5 60bc a373 22bc
00000280: 8a2e 483c e4a8 45bc 1675 a2bc 0401 01bc
00000290: 95ac 0c3d 6ff7 383b 3f53 5cbc e3a1 13bc
000002a0: e3c4 f5bc ca5a b0bb 3e0a 263d 053f 153d
000002b0: 261c 10bb 75b2 e2bb 5c48 b73c 4390 60bc
000002c0: 7243 71bd ea13 14bd 5fb7 cd3c eb02 dabc
000002d0: 6a2b 07bc be58 743c 92a9 983c ead9 423c
000002e0: bc45 4bbc d929 9dbc 1880 6b3b ca10 533c
000002f0: 6766 cdbb 8440 2b3b 6322 713d 5280 1e3d
00000300: b3b7 90bd 4696 98bc 9a02 4fbd 9680 f4bc
00000310: 2e19 5ebc 58cb 30bb 781f 313d de64 333d
00000320: fb07 e13c 54eb 933a 17d6 49bc 04c0 d63b
00000330: eeb8 5f3d 951d 87bc 8383 273c ee31 023c
00000340: 65bf 95bd 2df9 60ba 0ee5 a0bc 3a03 6fbd
00000350: ee66 3fbd 267f 083c cf00 8c3d 87e6 51bd
00000360: 6239 383b 777b 5b3c 18f0 1f3d a072 e2bb
00000370: d7c8 82bc 123b b93c cb66 0a3c 21f8 b73c
00000380: 2a71 15bc 6d93 623a 7765 bc3c d0b1 3d3d
00000390: 052a 9a3b 6610 fdbb a015 4cbc 10ff 063d
000003a0: b38b 8c3b d91b 10bd 0dd8 cbbb 16da b83c
000003b0: 8dd8 c43b 080c d4bc c603 283d d3a6 2ebd
000003c0: 062c 4ebc f1e9 1f3c f0b3 12bc 8c66 42bd
000003d0: 60bc 7fbb 4575 2c3c dfff b73c 2054 0f3d
000003e0: d995 913c a90e 183d fe4e 82bc e39a 753c
000003f0: 5c4f a5bb 29bb bb3c da2e 66bc d0a5 ca3c
0.0013087462 0.026645297 -0.0036389406 0.047461145 0.006264721 -0.01301305 -0.023308523 0.028373478
0.07117296 0.0371699 -0.02267007 0.029247222 0.0025503216 -0.03137236 0.054263856 0.00455931
-0.027924106 -0.014272607 -0.027582001 0.016312947 0.026884872 -0.06822209 -0.04187929 -0.030763203
-0.05569658 -0.038513515 0.047423273 0.01918157 -0.038091347 0.00012988437 -0.005608868 -0.06605014
-0.0018141936 0.01922161 -0.03775505 0.038151283 0.0006901959 0.049885362 0.01590692 0.021879695
-0.029698376 -0.07795443 0.020138571 0.01068032 -0.035917576 0.0066637746 -0.006504331 0.04382557
-0.042443447 0.0145477895 -0.021623144 0.092538066 0.045585882 -0.02319029 -0.031191755 -0.016971402
0.041518133 0.012579282 0.029089266 -0.043341275 0.002120799 0.036998935 0.0053637503 0.03361797
0.023836529 -0.010409461 -0.025762046 -0.02081206 -0.023786595 -0.039178573 0.018101342 -0.006064731
-0.02172135 0.011506269 0.012627246 0.026491096 -0.022061082 0.030530732 0.044009473 -0.019774066
0.029397052 -0.099368975 0.02909986 -0.039753716 0.0011307194 -0.0035872057 0.0013495057 0.005617302
-0.051427335 -0.018173117 0.010936503 -0.00023981543 -0.041764315 0.014098145 0.027526468 -0.046930164
0.010593693 -0.0100506125 -0.0025300286 0.02246099 -0.00072601816 0.051921804 0.025222786 -0.0804622
0.0331471 0.012815977 0.0060452158 0.0070185866 0.028153364 -0.0183409 0.033024725 -0.04204454
0.018253354 -0.013585081 -0.033470728 -0.025945332 0.0067312 -0.03589772 0.023999782 -0.025772784
-0.003201767 -0.018818818 -0.017240338 -0.00998172 0.031708103 0.031724587 0.018935852 0.01871104
0.05568235 0.030373884 -0.030674523 -0.022254124 -0.0050940407 -0.018621903 -0.009820424 -0.021251518
0.026961649 -0.03770975 0.03749844 -0.038511906 -0.02257306 0.037054412 0.04339579 0.050970487
-0.010917009 0.011507963 -0.013778443 -0.03228592 -0.004999408 -0.00689767 -0.0012402595 0.024974013
-0.017331246 -0.010941326 0.0369451 -0.042881664 0.030393861 0.033489652 -0.013722773 -0.009915265
0.012218127 -0.012064192 -0.019831222 -0.007873777 0.034344275 0.0028223654 -0.013447582 -0.009010765
-0.03000111 -0.0053819166 0.04053711 0.036437053 -0.0021989434 -0.0069182464 0.02237337 -0.01370627
-0.05890221 -0.036151804 0.025111852 -0.02661272 -0.008250097 0.014913736 0.018635545 0.011892775
-0.012406763 -0.019184994 0.0035934504 0.012882421 -0.006268311 0.0026130984 0.058870684 0.038696595
-0.07066288 -0.018626343 -0.05053959 -0.02984647 -0.013555808 -0.002697667 0.0432429 0.043797366
0.027469626 0.0011285343 -0.012319109 0.0065536518 0.054619722 -0.016493598 0.010224226 0.0079464745
-0.07311896 -0.0008582052 -0.019640472 -0.058352686 -0.04672902 0.008331096 0.06836092 -0.05124524
0.0028110375 0.0133961355 0.03904733 -0.006910637 -0.015964909 0.022611175 0.008447359 0.022457184
-0.009121219 0.0008643184 0.022997601 0.046312153 0.004704716 -0.007722902 -0.012456328 0.03295809
0.0042891144 -0.035182808 -0.0062208236 0.022564929 0.00600726 -0.025884643 0.041019224 -0.042639565
-0.012583738 0.009760366 -0.008954033 -0.047461078 -0.0039022192 0.010526006 0.022460876 0.034992337
0.017771648 0.037123356 -0.015906807 0.014990541 -0.0050448608 0.022916393 -0.014049256 0.024737269

model.time_mlp.3.bias f4 [32]
00000000: 3a5a b6b8 6b1e bfb8 1b90 b838 90df aa38
00000010: c6c8 c0b8 e90f bf38 99a3 c338 df46 c7b8
00000020: ef74 c538 2690 1db7 54b8 c7b8 c2f2 22b8
00000030: 8fbc b9b8 3437 6ab6 5744 b7b8 999c c8b8
00000040: 5afc c3b8 4a77 c3b8 95cf c538 f2d5 cbb8
00000050: 6c2e 93b8 8bf5 c8b8 aced a3b8 e419 bdb8
00000060: 83a3 49b8 6b17 68b7 d3ff 9538 7092 b238
00000070: 7394 b0b8 4673 ae38 a571 c438 813b ccb8
-8.695242e-05 -9.1132555e-05 8.8006454e-05 8.1478735e-05 -9.1926704e-05 9.110553e-05 9.328797e-05 -9.50226e-05
9.4154726e-05 -9.391491e-06 -9.523393e-05 -3.8849896e-05 -8.856609e-05 -3.490085e-06 -8.738849e-05 -9.565912e-05
-9.345329e-05 -9.320544e-05 9.432357e-05 -9.719645e-05 -7.018153e-05 -9.582479e-05 -7.8167155e-05 -9.017045e-05
-4.8074417e-05 -1.383373e-05 7.1525246e-05 8.5149775e-05 -8.419985e-05 8.318438e-05 9.367176e-05 -9.7385615e-05

model.layer.0.weight f4 [256, 55]
00000000: d649 ef3d 208a d0bc 7cb7 fc3d b62b e2bd
00000010: e020 3ebd 5b7b bdbd 9b6c 62bb 6b6c b2bd
00000020: ff3d 583d 98d7 ed3d 91b2 a3bd 86c2 24bc
00000030: e15f 1b3c 4a5e 37bd eeed a0bd c31c 5d3c
00000040: ecb8 5ebd 7523 13bd 724f 713d 3204 6a3d
00000050: ac42 38bc f7db 30be 2920 2b3e 2711 32bc
00000060: c7bd 68bd 2685 91bc ea9a ffbd 3784 27bc
00000070: da7a 2fbd 6a73 10bd 7246 f33c e34f a1bc
00000080: 2e89 bf3d e87f 3abd 1a4d b83d c0f4 5bbd
00000090: 60bd 4cbd d108 1abd ecef 83bd 57bc acbc
000000a0: d6e7 683c 9119 543d 7a6e cc3d 185c 85bd
000000b0: 0fb8 1b3c bfe6 663d 480a 893b a12b 753d
000000c0: e3ec 443c 846f 59bd a981 aabc a8e1 f73c
000000d0: 4aea 4abd c91e 0c3c 60a1 cd3a e61b 823d
000000e0: f242 2f3d 0c4d d93c 2fcb 633d 5281 a73c
000000f0: b3c8 ee3d 045e 9d3c e27d ffbd 6f65 6fbb
00000100: d3bd e03c 1238 faba 700e e53c bb85 56bd
00000110: a423 77bd 0038 eebd a279 8c3c a105 ab3d
00000120: a547 11bd 5169 04bc 5f43 133d 4cf1 09be
00000130: 65d5 353d 248f 343a 4c47 f93c 9f17 f2bd
00000140: 1b21 b4bd f8cf 7e3d a1ca e9bb 3ba6 dbbc
00000150: f314 5e3d 62f4 663d 62df b7bd 5746 883d
00000160: b183 58bc 78ba 29bd 6afd 94bd f9b7 f13d
00000170: 42a5 bcbd 3c6d 063b 7e0e 88bd 1ad2 e0bd
00000180: d948 0fbd d2e0 d8bb ee28 88bd 83d4 1cbd
00000190: c82c 9dbc 5234 d3bd e5ed 073d 7dd0 43bd
000001a0: daac c7bd 3cd6 8fbd 818c 3abd 2650 bcbc
000001b0: 51b1 9c3c 328a 603d b51b 8fbd 54ff 05bd
000001c0: 7358 883d d3c3 e5bc 7b91 98bd 4ac0 083e
000001d0: e6d3 2c3d 9a5f 8f3d 6d9a 1f3d fed7 1abd
000001e0: 38f3 3c3d 53db 843d 5161 283e 13e7 54bd
000001f0: ced0 84bd 8978 1bbd eb3f d6bd 485f 8f3d
00000200: 1ca5 1dbd 01db 2e3a eb6d babc d390 0ebd
00000210: 30bb 9ebb ffdf fa3c 45f5 363d 860a b2bd
00000220: c840 8d3c da8f a7bd 9ee5 273e c4f5 a5bd
00000230: f7e7 d6bd 0f25 9e3c d34d 80bd 317d d4bc
00000240: d89c 12bc ce03 ef3d df8e 2d3d f799 28bd
00000250: ec91 173d bb08 3f3d f607 2fbd 3d7c f3bc
00000260: df91 9b3d c07c 7f3b 7ca3 fabd a9b0 4c3d
00000270: 8efe 6b3d 64e3 81bc b179 45bd 6417 f0bd
00000280: 05e6 68bd b6b4 293d 459a 343d 2cc7 9b3d
00000290: fb29 0b3e ac27 b4bd 4c2d ca3c cad7 a23d
000002a0: d2ec 833d b705 0cbc fa25 61bc 3384 8f3d
000002b0: b084 83bd 845b 443d 8661 963d d62e 66bd
000002c0: 3556 933d 0d10 3d3b ce5f 70bd 8810 cb3d
000002d0: cc52 8ebd 9cd9 c33d 1a03 9dba 199d 973d
000002e0: a768 af3d 40a3 223d 6627 24bd d5cd 0d3d
000002f0: a1ad e2bd 20ce 373e 7ebf 023e d610 e13c
00000300: 8238 5e3e d607 4dbd 3d84 2d3c ff51 bbbc
00000310: 5fc0 6b3b 087e b83d c77b e73d 82a4 d6bd
00000320: 96b4 3f3d 980c b3bd 1862 433d b86f b63d
00000330: f8c0 17bd d1cc 053d 6736 313b 0bb7 593d
00000340: 1ba3 f13c 87d2 6d3d 19b8 c0bd f8e7 88bd
00000350: 7e17 0ebc 3f75 b9bc de78 4cbb 8c52 c23d
00000360: c46c 1bbd 6e9c f03b 6a15 63bd 023d 7a3b
00000370: 9492 b33d ebe3 9fbd a67b aa3d a619 52bd
00000380: b6d5 cc3d 7a79 ccbd effa a73d 8248 bebc
00000390: 8abe b63d d10c 4b3d 0af8 c43d 4aeb 1d3d
000003a0: 9394 d93b 4fe1 92bc 1999 db3c ea23 863c
000003b0: a953 fc3d 1b28 773d 7efd 8f3d f0d9 0a3d
000003c0: 7c00 c23d 005c adbd e82d bfbd 8ae3 31bd
000003d0: 331f 35be 91d0 06bb 2969 a1bc 53c7 853d
000003e0: 9042 59bd a5a6 fa3a 40e5 283e edd9 c4bd
000003f0: 03db c73c da87 9fbd c2e5 aabc f36a da3b
0.11684005 -0.025456488 0.12339684 -0.110434934 -0.04641807 -0.09252044 -0.0034549597 -0.08712085
0.0527935 0.11613387 -0.07993043 -0.010056144 0.0094833085 -0.044767655 -0.078578815 0.013495627
-0.054375574 -0.035922486 0.058913656 0.057132907 -0.011246365 -0.1727141 0.16711487 -0.010868347
-0.05682161 -0.017763685 -0.124807194 -0.010224394 -0.04284177 -0.035266317 0.029696677 -0.019691413
0.09352337 -0.045532137 0.08999081 -0.05370021 -0.04998529 -0.037606064 -0.06442246 -0.021085901
0.01421543 0.051782195 0.09982009 -0.06511706 0.009504332 0.0563724 0.004182134 0.05985606
0.012019369 -0.053084865 -0.02081378 0.030258968 -0.04953984 0.008552262 0.0015688352 0.063529775
0.042788453 0.026525997 0.055613693 0.020447407 0.11659374 0.01920987 -0.12475182 -0.0036528965
0.027434265 -0.0019090197 0.027960986 -0.05237363 -0.060336724 -0.11631775 0.017147843 0.08350683
-0.035468716 -0.00808175 0.035952922 -0.13470954 0.044392962 0.00068877847 0.030429505 -0.118209116
-0.08795377 0.062210053 -0.007134751 -0.026812663 0.054219197 0.056385405 -0.08978154 0.06654041
-0.013214991 -0.041437596 -0.072748974 0.11802668 -0.09211208 0.0020511886 -0.06643389 -0.10977574
-0.034981582 -0.0066185975 -0.06648432 -0.038288604 -0.019186392 -0.10312714 0.03318586 -0.04780625
-0.09749766 -0.07023284 -0.04554415 -0.022987437 0.01912752 0.054819293 -0.069877066 -0.032714203
0.06657495 -0.028047478 -0.07449623 0.13354602 0.04219427 0.070006564 0.03896563 -0.037803642
0.04613039 0.06487145 0.16443373 -0.051978182 -0.06485139 -0.03795675 -0.1046141 0.07000595
-0.03848754 0.00066702074 -0.022757491 -0.034806084 -0.004844092 0.030624388 0.0446675 -0.086934134
0.017242804 -0.081817344 0.16396186 -0.08103517 -0.104934625 0.01930478 -0.06264844 -0.025938602
-0.008948527 0.116706476 0.04237258 -0.041162457 0.037004396 0.046639185 -0.0427322 -0.029722327
0.07596182 0.003898427 -0.122382134 0.049973164 0.05761581 -0.015855499 -0.048211757 -0.117232114
-0.05685999 0.041432105 0.044092435 0.076063484 0.13590233 -0.08796629 0.024679802 0.07951315
0.06441654 -0.008546284 -0.0137419645 0.07007637 -0.064217925 0.04793884 0.0734282 -0.05619701
0.07194177 0.0028848678 -0.058685116 0.099152625 -0.06949386 0.0956299 -0.0011979074 0.07403011
0.08564883 0.03970647 -0.040076636 0.034620125 -0.11068273 0.17949724 0.12768361 0.027473848
0.21701244 -0.0500563 0.01059061 -0.022866247 0.0035972816 0.090084136 0.113029055 -0.10480596
0.04680308 -0.087426364 0.04770097 0.089080274 -0.037049264 0.03266603 0.0027040483 0.05315308
0.02949672 0.058062103 -0.09410114 -0.066848695 -0.008672593 -0.022638915 -0.0031199972 0.09488401
-0.037945524 0.0073428666 -0.055440344 0.0038183336 0.08768192 -0.07807144 0.08324365 -0.05129399
0.100016996 -0.09984107 0.08202159 -0.023227934 0.08923061 0.04957277 0.09617622 0.038554467
0.006640026 -0.017929701 0.026806401 0.016374547 0.123206444 0.060340982 0.07030772 0.033899248
0.09472749 -0.08464813 -0.09334928 -0.04342989 -0.17687683 -0.0020571093 -0.019703465 0.06532159
-0.053041995 0.001912315 0.16493702 -0.096118785 0.024396425 -0.077895835 -0.02086151 0.0066655814

model.layer.0.bias f4 [256]
00000000: 113f 5db8 8f5e 9338 6a41 9838 ada7 ac38
00000010: 5ee2 97b8 bf52 99b8 929c 89b8 3241 c2b8
00000020: 308e bd38 79c5 9eb8 8fbc bd38 a35f a338
00000030: 055d 87b8 9b8a b1b8 b556 c5b8 7775 b8b8
00000040: eea0 c538 74c2 c538 c61e 8a38 a572 c538
00000050: 2fab a0b8 b826 aab8 e920 c438 4eed bf38
00000060: cf7c a4b8 4948 bbb8 ee23 78b8 5e8d c138
00000070: c098 bb38 c25b c738 1473 5eb8 2e00 c538
00000080: c610 afb8 e6d2 c038 4bee 8a38 922e c0b8
00000090: c10c b3b8 6486 ccb8 663c ad38 b820 c6b8
000000a0: 221a aab8 f600 b8b8 0ee6 e637 1b1b c8b8
000000b0: f1de c338 6aae b538 6217 bc38 efd0 84b8
000000c0: 1f51 c638 b6f7 82b8 e7d4 c4b8 1180 adb8
000000d0: 3539 ca38 6b29 8638 b4ef b738 2115 bf38
000000e0: 37ff 7f38 6b8e be38 f601 b838 08f1 c638
000000f0: c361 cab8 2a0a bab8 5f79 4b38 6831 bb38
00000100: 112e b438 2b3c c938 a0a9 c6b8 afea b5b8
00000110: f847 87b8 f21c c8b8 1e3b c6b8 0dc8 bc38
00000120: 7fd8 b0b8 13f6 0638 48eb c5b8 f3a6 a738
00000130: 06b9 aeb8 a8a9 be38 2039 c438 8795 bcb8
00000140: d223 c3b8 556a c5b8 eaaf beb8 9dbe b6b8
00000150: a832 c738 a1f5 a6b8 2f9d b3b8 a6f0 5d38
00000160: 8c1b c838 1cbd aeb8 c919 a838 319e f9b7
00000170: 5946 c338 8709 9838 f979 7538 7dc9 c438
00000180: ced0 c4b8 b740 c5b8 4591 ac38 741c bc38
00000190: 56e7 bab8 0a5c beb8 d57c 7538 780e ae38
000001a0: cf95 c538 7150 c3b8 2b98 8f38 f09a ae38
000001b0: 472d bab8 1ff8 adb8 3f9a 1e38 86ba c638
000001c0: f697 c238 f825 c3b8 641a afb8 adcb c2b8
000001d0: 34ad a4b8 faf2 97b8 a0d5 5637 ac3f c938
000001e0: 94fd 9ab8 4cc4 9f38 92d1 c3b8 8f37 b7b8
000001f0: 2f6f b9b8 c992 9e38 f5ac afb8 b7c7 b738
00000200: 82e2 c7b8 4618 88b8 a6d2 40b8 b9f9 b538
00000210: 2067 c238 31da b2b8 cabf c738 6c8d a2b8
00000220: aa56 c338 a579 bf38 d401 9837 0212 bcb8
00000230: a572 b538 ebd3 bfb8 9b97 0f38 b1c0 bbb8
00000240: 0dbe b1b8 7d01 b238 48cb b6b8 582d ba38
00000250: 89bd b9b8 8a22 c2b8 f9da 4638 5671 c438
00000260: 9ed2 c538 d92d c738 5113 bdb8 3952 c638
00000270: f68f 9538 b7d5 c9b8 a58d c838 8e29 b2b8
00000280: 8809 c338 559c b538 180e c3b8 7b6a 38b8
00000290: 503c c5b8 717c c8b8 d74c c2b8 e6a4 8e38
000002a0: 3629 c638 3876 c8b8 4b41 c8b8 5827 c8b8
000002b0: 404f c0b8 b37b c338 f2ef 9d38 7baa bdb8
000002c0: 3ec1 ac38 c1b7 a6b8 cb06 b538 5bc3 a3b8
000002d0: b1c8 9d38 54ca a638 2e5f c2b8 f0b0 b3b8
000002e0: d49c c638 4a0c bab8 2ee1 9d38 0654 c8b8
000002f0: e214 c8b8 9888 bcb8 f144 c038 fb06 c0b8
00000300: 61d2 bcb8 2ba4 ba38 97ce bcb8 8d30 bbb8
00000310: a03a c6b8 fa63 bc38 2ec3 f737 937b b0b8
00000320: d095 c738 f804 0bb7 b163 9c38 422f 4638
00000330: 1846 c4b8 d14e be38 c009 8f38 2712 b6b8
00000340: 1b28 b037 57c1 b2b8 a0d2 c0b8 96dc 9fb8
00000350: b5a3 2238 f20e cbb8 9139 cab8 c9f6 c6b8
00000360: 0656 8138 c3cd c238 77e3 bdb8 4107 67b8
00000370: 674b ea37 8fdd 9fb8 8b56 bd38 771e 97b8
00000380: 86c5 c1b8 d0e3 c338 d413 a1b8 5c77 c5b8
00000390: 83d0 bf38 016a c5b8 1a74 c3b8 0e38 bcb8
000003a0: 8682 bbb8 af1e bdb8 5e85 8038 5ce1 48b8
000003b0: 3771 c138 2aca c3b8 186b c038 5e1f 7ab8
000003c0: 68dd c638 166f b938 692f c7b8 d5e8 9a38
000003d0: 026e ba38 c056 8038 6416 c1b8 140a 8bb7
000003e0: 1d9c 8db8 1816 96b8 0bed b538 b5d3 be38
000003f0: 2d28 8cb8 71f1 c7b8 ec35 cdb8 a56e c9b8
-5.274924e-05 7.027119e-05 7.260109e-05 8.232831e-05 -7.242405e-05 -7.311021e-05 -6.5618326e-05 -9.2627844e-05
9.038707e-05 -7.570809e-05 9.047344e-05 7.7902594e-05 -6.454628e-05 -8.465835e-05 -9.4098425e-05 -8.795683e-05
9.4236675e-05 9.429912e-05 6.586085e-05 9.415046e-05 -7.66128e-05 -8.1134436e-05 9.352138e-05 9.151791e-05
-7.843377e-05 -8.930319e-05 -5.916127e-05 9.229289e-05 8.945307e-05 9.506151e-05 -5.30361e-05 9.3937255e-05
-8.3477746e-05 9.194556e-05 6.624738e-05 -9.163948e-05 -8.537761e-05 -9.75251e-05 8.260533e-05 -9.44747e-05
-8.111099e-05 -8.773983e-05 2.7525264e-05 -9.541792e-05 9.339851e-05 8.66324e-05 8.968894e-05 -6.3331674e-05
9.456486e-05 -6.245023e-05 -9.3856645e-05 -8.273137e-05 9.642766e-05 6.3973326e-05 8.770768e-05 9.111525e-05
6.1034425e-05 9.0864334e-05 8.774169e-05 9.486271e-05 -9.65032e-05 -8.871064e-05 4.8512007e-05 8.9260575e-05
8.5916494e-05 9.595634e-05 -9.472971e-05 -8.674466e-05 -6.450707e-05 -9.542135e-05 -9.452387e-05 9.001801e-05
-8.4326595e-05 3.2177264e-05 -9.4375166e-05 7.994277e-05 -8.33143e-05 9.091507e-05 9.356649e-05 -8.99239e-05
-9.304997e-05 -9.413498e-05 -9.0926726e-05 -8.713941e-05 9.498495e-05 -7.961249e-05 -8.564663e-05 5.2914627e-05
9.541874e-05 -8.332191e-05 8.015667e-05 -2.9756777e-05 9.311428e-05 7.2496994e-05 5.8526148e-05 9.3835384e-05
-9.384901e-05 -9.405746e-05 8.228658e-05 8.9698384e-05 -8.912261e-05 -9.0770496e-05 5.852881e-05 8.2996616e-05
9.421596e-05 -9.313308e-05 6.847115e-05 8.325826e-05 -8.877605e-05 -8.295499e-05 3.781379e-05 9.4761184e-05
9.278946e-05 -9.305397e-05 -8.349566e-05 -9.2885784e-05 -7.852391e-05 -7.245499e-05 1.2805132e-05 9.596287e-05
-7.390525e-05 7.618274e-05 -9.33736e-05 -8.7364686e-05 -8.842197e-05 7.561368e-05 -8.376866e-05 8.76332e-05
-9.53125e-05 -6.4895066e-05 -4.597255e-05 8.677267e-05 9.2698494e-05 -8.528343e-05 9.524783e-05 -7.751104e-05
9.314467e-05 9.130248e-05 1.8120663e-05 -8.967893e-05 8.652107e-05 -9.1470625e-05 3.423505e-05 -8.9527464e-05
-8.4754174e-05 8.4879786e-05 -8.7163e-05 8.877617e-05 -8.856791e-05 -9.257074e-05 4.7410813e-05 9.367119e-05
9.4329225e-05 9.497599e-05 -9.01582e-05 9.456691e-05 7.1316885e-05 -9.6242344e-05 9.5631265e-05 -8.4954416e-05
9.3001e-05 8.659872e-05 -9.30095e-05 -4.3968186e-05 -9.404926e-05 -9.559922e-05 -9.2649534e-05 6.8018024e-05
9.449052e-05 -9.558763e-05 -9.548905e-05 -9.5440715e-05 -9.170035e-05 9.321365e-05 7.531037e-05 -9.043977e-05
8.237593e-05 -7.949724e-05 8.632018e-05 -7.8088335e-05 7.523725e-05 7.9531834e-05 -9.2683695e-05 -8.568342e-05
9.470587e-05 -8.87146e-05 7.5282864e-05 -9.552394e-05 -9.540633e-05 -8.989981e-05 9.168115e-05 -9.156574e-05
-9.003725e-05 8.89975e-05 -9.003019e-05 -8.925898e-05 -9.4522955e-05 8.983161e-05 2.9535582e-05 -8.4153515e-05
9.516964e-05 -8.2862025e-06 7.457229e-05 4.725089e-05 -9.359064e-05 9.074587e-05 6.8205874e-05 -8.6818174e-05
2.099951e-05 -8.523714e-05 -9.1945054e-05 -7.622798e-05 3.8776274e-05 -9.682578e-05 -9.642833e-05 -9.487343e-05
6.1672225e-05 9.288967e-05 -9.054591e-05 -5.5081447e-05 2.7930086e-05 -7.622979e-05 9.028342e-05 -7.2059156e-05
-9.239749e-05 9.340758e-05 -7.6807715e-05 -9.4159244e-05 9.146428e-05 -9.413437e-05 -9.31995e-05 -8.9749796e-05
-8.941167e-05 -9.0179376e-05 6.128357e-05 -4.7893598e-05 9.224045e-05 -9.3359806e-05 9.175221e-05 -5.9633858e-05
9.482616e-05 8.842179e-05 -9.49789e-05 7.3866606e-05 8.889662e-05 6.119674e-05 -9.207128e-05 -1.6574784e-05
-6.752482e-05 -7.156673e-05 8.674905e-05 9.0993395e-05 -6.6832035e-05 -9.5340314e-05 -9.7852055e-05 -9.605036e-05
