results/qvpo_HalfCheetah-v3/actor_25_04_21_04_20_28_0.pth (torch, 665521 bytes, 24 tensors)

betas f4 [20]
0.007992721 0.020074995 0.032253854 0.044680916 0.05752022 0.07095724 0.085210435 0.10054672
0.11730362 0.13592206 0.15699708 0.18135923 0.21021153 0.24537154 0.289725 0.34813723
0.42943394 0.5510237 0.7484761 0.999
00000000: e7f3 023c 5174 a43c 9e1c 043d 5603 373d
00000010: 529a 6b3d 0852 913d cf82 ae3d 70eb cd3d
00000020: e13c f03d 272f 0b3e d8c3 203e 3cb6 393e
00000030: b141 573e ad42 7b3e d656 943e 0b3f b23e
00000040: c4de db3e e40f 0d3f 219c 3f3f 77be 7f3f

alphas_cumprod f4 [20]
0.99200726 0.9720927 0.9407389 0.8987059 0.84701216 0.7869105 0.7198575 0.64747816
0.57152665 0.4938436 0.41631156 0.3408096 0.2691675 0.20312147 0.1442721 0.09404561
0.05365923 0.024091722 0.0060596443 6.059566e-06
00000000: 30f4 7d3f 11db 783f 44d4 703f 9711 663f
00000010: cad5 583f f772 493f 9548 383f 21c1 253f
00000020: 924f 123f 11d9 fc3e ca26 d53e 997e ae3e
00000030: 53d0 893e 13ff 4f3e 11bc 133e fc9a c03d
00000040: c8c9 5b3d 015c c53c fb8f c63b 4753 cb36

alphas_cumprod_prev f4 [20]
1.0 0.99200726 0.9720927 0.9407389 0.8987059 0.84701216 0.7869105 0.7198575
0.64747816 0.57152665 0.4938436 0.41631156 0.3408096 0.2691675 0.20312147 0.1442721
0.09404561 0.05365923 0.024091722 0.0060596443
00000000: 0000 803f 30f4 7d3f 11db 783f 44d4 703f
00000010: 9711 663f cad5 583f f772 493f 9548 383f
00000020: 21c1 253f 924f 123f 11d9 fc3e ca26 d53e
00000030: 997e ae3e 53d0 893e 13ff 4f3e 11bc 133e
00000040: fc9a c03d c8c9 5b3d 015c c53c fb8f c63b

sqrt_alphas_cumprod f4 [20]
0.99599564 0.9859476 0.969917 0.948001 0.9203327 0.8870797 0.84844416 0.80466026
0.75599384 0.7027401 0.6452221 0.58378905 0.51881355 0.45068997 0.37983167 0.30666855
0.23164463 0.15521508 0.07784372 0.0024616185
00000000: 92f9 7e3f 1067 7c3f 7b4c 783f 32b0 723f
00000010: ec9a 6b3f a817 633f a333 593f 37fe 4d3f
00000020: d088 413f c6e6 333f 472d 253f 3373 153f
00000030: f7d0 043f d6c0 e63e 4c79 c23e a903 9d3e
00000040: 4034 6d3e b4f0 1e3e 876c 9f3d 1b53 213b

sqrt_one_minus_alphas_cumprod f4 [20]
0.089402154 0.16705482 0.243436 0.31826735 0.39113662 0.46161622 0.5292849 0.59373546
0.65457875 0.71144676 0.76399505 0.8119054 0.8548874 0.8926805 0.9250556 0.9518164
0.9728005 0.9878807 0.9969656 0.99999696
00000000: 7a18 b73d 6b10 2b3e 4947 793e f0f3 a23e
00000010: 0f43 c83e f658 ec3e 377f 073f 0cff 173f
00000020: 7992 273f 6021 363f 2e95 433f 08d9 4f3f
00000030: e7d9 5a3f b686 643f 72d0 6c3f 3daa 733f
00000040: 7409 793f c0e5 7c3f 2339 7f3f cdff 7f3f

log_one_minus_alphas_cumprod f4 [20]
-4.8292212 -3.5788665 -2.8258026 -2.2897272 -1.8773968 -1.5460429 -1.2724569 -1.0426427
-0.8475267 -0.68090945 -0.53838795 -0.41674283 -0.31357104 -0.22705303 -0.15580282 -0.09876635
-0.05515252 -0.024386672 -0.0060780807 -6.0796924e-06
00000000: fb88 9ac0 260c 65c0 f3d9 34c0 e48a 12c0
00000010: 8a4e f0bf bce4 c5bf dedf a2bf 5175 85bf
00000020: 83f7 58bf 1550 2ebf cbd3 09bf 515f d5be
00000030: 628c a0be 9780 68be c68a 1fbe 0346 cabd
00000040: 9ce7 61bd 8fc6 c7bc a32a c7bb 2900 ccb6

sqrt_recip_alphas_cumprod f4 [20]
1.0040205 1.0142527 1.0310161 1.0548512 1.0865636 1.1272943 1.178628 1.2427605
1.3227621 1.4230013 1.5498539 1.7129476 1.9274746 2.21882 2.632745 3.2608495
4.3169575 6.4426727 12.8462515 406.2368
00000000: be83 803f 08d3 813f 56f8 833f 5d05 873f
00000010: 8414 8b3f 2e4b 903f 48dd 963f c712 9f3f
00000020: 4550 a93f e824 b63f 9d61 c63f de41 db3f
00000030: 7db7 f63f 2601 0e40 e57e 2840 c2b1 5040
00000040: 8424 8a40 602a ce40 3f8a 4d41 4f1e cb43

sqrt_recipm1_alphas_cumprod f4 [20]
0.08976144 0.16943571 0.25098655 0.33572468 0.42499477 0.5203774 0.62382996 0.737871
0.865852 1.0123895 1.1840807 1.3907515 1.6477739 1.9806975 2.4354358 3.1037297
4.199538 6.364592 12.807271 406.23553
00000000: d9d4 b73d 8e80 2d3e 4f81 803e 1be4 ab3e
00000010: ea98 d93e 7437 053f 52b3 1f3f 1de5 3c3f
00000020: 7aa8 5d3f fb95 813f f58f 973f 2504 b23f
00000030: 41ea d23f 7f87 fd3f 2ede 1b40 82a3 4640
00000040: 9e62 8640 bdaa cb40 95ea 4c41 261e cb43

posterior_variance f4 [20]
0.0 0.0057495437 0.01518903 0.026140116 0.03808446 0.050943825 0.06481505 0.07990259
0.09651028 0.11506122 0.13614298 0.1605868 0.18960492 0.2250349 0.26980028 0.32883638
0.41110724 0.5343292 0.73489726 0.99295247
00000000: 0000 0000 ab66 bc3b 69db 783c cc23 d63c
00000010: 73fe 1b3d 79aa 503d c1bd 843d f8a3 a33d
00000020: 2fa7 c53d 38a5 eb3d 1169 0b3e de70 243e
00000030: cb27 423e 8c6f 663e 4323 8a3e 3e5d a83e
00000040: a67c d23e ccc9 083f 3a22 3c3f 2232 7e3f

posterior_log_variance_clipped f4 [20]
-46.0517 -5.1586347 -4.187182 -3.644284 -3.267949 -2.9770317 -2.7362175 -2.526947
-2.3381057 -2.1622908 -1.9940495 -1.8289206 -1.6628127 -1.4914998 -1.3100733 -1.112195
-0.8889012 -0.6267432 -0.3080246 -0.007072485
00000000: f134 38c2 8913 a5c0 65fd 85c0 f33b 69c0
00000010: 1426 51c0 b087 3ec0 301e 2fc0 80b9 21c0
00000020: 86a3 15c0 f962 0ac0 043d ffbf 121a eabf
00000030: 0cd7 d4bf 77e9 bebf 7bb0 a7bf 685c 8ebf
00000040: 078f 63bf 3e72 20bf 66b5 9dbe 4ec0 e7bb

posterior_mean_coef1 f4 [20]
0.9999971 0.7164648 0.53661877 0.42783123 0.3564285 0.306464 0.26982144 0.2419943
0.22029272 0.20301281 0.1890189 0.1775162 0.16791697 0.15975092 0.15259075 0.1459605
0.13916118 0.13079269 0.11688305 0.077766344
00000000: cfff 7f3f 3d6a 373f d95f 093f b20c db3e
00000010: cc7d b63e d9e8 9c3e 0926 8a3e 5bcd 773e
00000020: 6a94 613e 97e2 4f3e 2c8e 413e cfc6 353e
00000030: 6df2 2b3e bf95 233e c040 1c3e ab76 153e
00000040: 4580 0e3e 85ee 053e 6160 ef3d f643 9f3d

posterior_mean_coef2 f4 [20]
0.0 0.2835139 0.46326464 0.57182044 0.6427814 0.69201046 0.7275179 0.7536718
0.7729793 0.7868927 0.79619277 0.8011557 0.80158293 0.7966954 0.78481936 0.7626187
0.72312224 0.64975595 0.49242297 0.031431142
00000000: 0000 0000 bc28 913e 0631 ed3e d362 123f
00000010: 528d 243f 9927 313f 9d3e 3a3f a3f0 403f
00000020: f9e1 453f cd71 493f 4ad3 4b3f 8a18 4d3f
00000030: 8a34 4d3f 3bf4 4b3f ece9 483f fb3a 433f
00000040: 8a1e 393f 6856 263f dd1e fc3e f1bd 003d

model.time_mlp.1.weight f4 [256, 32]
-0.09027535 -0.027503425 -0.15598756 0.0042900327 0.045580857 -0.09287718 -0.030659253 -0.055295546
-0.09100544 0.11443446 -0.08556119 -0.013963811 0.15715304 -0.0019490158 -0.13360123 -0.025953723
-0.0010462028 -0.0024624858 -0.08503089 0.18627402 -0.11382112 -0.016333671 0.21620943 0.065374605
0.099475645 0.06951581 -0.0011526172 -0.13550778 -0.10265767 0.018411383 0.010765234 -0.047180735
0.07973231 -0.030247064 -0.058799837 0.02524442 0.0052919597 0.017421357 -0.010800931 0.114091866
-0.08716308 0.11887602 0.17138407 0.20071794 0.037208106 0.089390986 0.19293973 0.01848883
-0.11290237 0.0090737175 -0.07829894 -0.09486105 -0.117571585 0.012196175 -0.028498173 0.054066386
0.1573875 -0.21606553 -0.008531742 -0.001140781 0.15398881 -0.07282559 -0.044469655 -0.011698065
-0.08929511 -0.0071951672 0.064698584 0.014348188 -0.09883041 -0.18969074 -0.04945778 -0.07153352
-0.09531321 -0.09128252 -0.039843403 0.01426352 0.10049585 -0.006850946 0.12855655 -0.1041451
-0.027028024 0.106304966 0.079350606 0.10395341 -0.046569753 0.02106161 -0.013573204 0.004163505
0.007818589 -0.058737822 0.055908214 -0.11272962 -0.092536435 -0.16262972 0.044735882 -0.05002811
0.0065111504 -0.026601607 0.018163083 0.11704197 -0.103734955 -0.02858982 -0.117528096 -0.0751878
-0.12886156 0.1049411 0.025684835 0.08841841 0.08291423 0.0484625 0.13273795 -0.10716104
0.058880184 0.06174124 0.02305224 -0.027962362 0.10612497 0.0023203003 0.027836453 -0.015607323
-0.032965787 -0.019871438 -0.05814681 -0.060107324 0.00026204492 -0.02146164 -0.23352848 0.05749139
-0.033550795 -0.02719621 0.0009760728 0.05549944 0.11099958 -0.055816498 -0.17623305 -0.040974468
0.017180888 -0.027483752 -0.09188788 -0.16604917 0.031361356 -0.13149524 -0.017293075 0.051651206
-0.054322526 0.030727342 0.08740598 0.10372807 0.03692913 -0.050872564 -0.0044786003 -0.037656914
-0.012446852 -0.10347618 -0.1210503 -0.008378729 0.03363723 0.12205351 -0.022116007 0.10253116
0.01920032 -0.017949767 -0.10841893 0.073909074 -0.046615448 0.023253275 0.017451594 -0.095793225
0.046119846 -0.0322221 0.06866148 -0.0041347966 -0.02116788 0.12632528 0.042076204 0.11546406
-0.090071775 -0.06405717 0.19291015 -0.048124544 -0.0074918624 -0.18332203 0.008538735 0.03932815
0.05303628 0.03126001 -0.20727411 -0.05603199 0.06475722 -0.049153063 0.053765487 0.045996998
0.14438818 -0.08728946 0.12926704 0.031691346 -0.054487173 0.059985112 0.025802838 0.11836757
-0.029565174 -0.033927403 -0.010324668 -0.020348864 0.09168665 -0.0067194803 0.09095563 0.075797155
-0.0011489786 0.026621886 0.028548231 -0.16185689 -0.037363768 0.015806744 0.11214776 0.057376105
-0.048452083 -0.15391162 -0.09477047 0.011693948 0.028354418 0.07243362 0.009831676 -0.07782481
-0.058317695 -0.05322015 -0.06099527 -0.056407217 0.09019673 0.047177136 -0.025954569 0.12844186
0.07241007 -0.046545345 -0.0042880303 0.07828486 -0.081259206 0.1153117 -0.07915589 -0.032961216
-0.11981278 0.13882361 0.045418773 0.056736507 0.024910636 0.060555536 -0.10748205 0.01299344
0.06774368 -0.09357829 -0.049028825 -0.12653176 0.12124183 0.060718074 -0.0319496 0.16886593
00000000: 48e2 b8bd dd4e e1bc 34bb 1fbe 6793 8c3b
00000010: feb2 3a3d 6436 bebd 1d29 fbbc 957d 62bd
00000020: 0f61 babd 9d5c ea3d b53a afbd 78c8 64bc
00000030: baec 203e 1e76 ffba c3ce 08be e79c d4bc
00000040: be20 89ba a861 21bb ad24 aebd 9ebe 3e3e
00000050: 0c1b e9bd 31ce 85bc 0166 5d3e 1fe3 853d
00000060: e3b9 cb3d 4e5e 8e3d 6a13 97ba 8dc2 0abe
00000070: 2f3e d2bd 78d3 963c aa60 303c 9640 41bd
00000080: b14a a33d b1c8 f7bc 19d8 70bd 63cd ce3c
00000090: 2d68 ad3b 3cb7 8e3c 63f6 30bc ffa8 e93d
000000a0: 8f82 b2bd 4575 f33d 4e7f 2f3e 0189 4d3e
000000b0: 8767 183d 9f12 b73d fe91 453e e375 973c
000000c0: 5c39 e7bd eea9 143c 325b a0bd 8346 c2bd
000000d0: 5fc9 f0bd 77d2 473c 0075 e9bc b774 5d3d
000000e0: 302a 213e 4840 5dbe b8c8 0bbc 4286 95ba
000000f0: 3eaf 1d3e 9525 95bd d025 36bd 3ea9 3fbc
00000100: 5be0 b6bd 70c5 ebbb b180 843d aa14 6b3c
00000110: 9967 cabd 4a3e 42be 3e94 4abd 2b80 92bd
00000120: 9233 c3bd 54f2 babd d632 23bd 8ab1 693c
00000130: c5d0 cd3d e77d e0bb 54a4 033e 074a d5bd
00000140: e069 ddbc 6bb6 d93d 9282 a23d 87e5 d43d
00000150: edbf 3ebd 6689 ac3c 2562 5ebc 036e 883b
00000160: 8a19 003c 1297 70bd 0300 653d c9de e6bd
00000170: be83 bdbd 6888 26be f93c 373d 47ea 4cbd
00000180: 7d5b d53b 9deb d9bc bfca 943c b3b3 ef3d
00000190: fe72 d4bd 3335 eabc 92b2 f0bd 10fc 99bd
000001a0: 49f4 03be 5ceb d63d 0169 d23c b614 b53d
000001b0: f0ce a93d 9d80 463d 75ec 073e 3f77 dbbd
000001c0: 592c 713d 62e4 7c3d 0dd8 bc3c 5311 e5bc
000001d0: 0c58 d93d 2e10 183b 4609 e43c dbb5 7fbc
000001e0: 2207 07bd 6dc9 a2bc 592b 6ebd 1933 76bd
000001f0: 1363 8939 52d0 afbc 1722 6fbe 177c 6b3d
00000200: 8f6c 09bd 96ca debc 23df 7f3a 6153 633d
00000210: bf53 e33d d79f 64bd 7076 34be d8d4 27bd
00000220: efbe 8c3c 9b25 e1bc b62f bcbd cb08 2abe
00000230: c474 003d b0a6 06be 35aa 8dbc 3790 533d
00000240: 4c81 5ebd e8b7 fb3c e801 b33d 626f d43d
00000250: 0043 173d c05f 50bd 39c1 92bb 233e 1abd
00000260: e2ed 4bbc 52eb d3bd 38e9 f7bd f046 09bc
00000270: 31c7 093d 31f7 f93d a12c b5bc dbfb d13d
00000280: fd49 9d3c 640b 93bc be0a debd a45d 973d
00000290: d7ef 3ebd a77d be3c a5f6 8e3c 3d2f c4bd
000002a0: 2ae8 3c3d 52fb 03bd 649e 8c3d 307d 87bb
000002b0: 4368 adbc 6a5b 013e 1958 2c3d 6c78 ec3d
000002c0: 8d77 b8bd 6830 83bd 3d8a 453e 3e1e 45bd
000002d0: 4c7e f5bb c5b8 3bbe 0de6 0b3c 8e16 213d
000002e0: 923c 593d 7f0a 003d aa3f 54be cd81 65bd
000002f0: 6f9f 843d b954 49bd 3339 5c3d 5967 3c3d
00000300: 7fda 133e d1c4 b2bd 945e 043e c9ce 013d
00000310: f12d 5fbd f3b2 753d 7960 d33c b26a f23d
00000320: aa32 f2bc 76f7 0abd cc28 29bc a9b2 a6bc
00000330: 36c6 bb3d 162f dcbb f246 ba3d 8a3b 9b3d
00000340: 5399 96ba 2416 da3c fbdd e93c d0bd 25be
00000350: c00a 19bd 257d 813c baad e53d 3503 6b3d
00000360: b175 46bd 029b 1dbe 0517 c2bd f997 3f3c
00000370: 8647 e83c 1458 943d 0a15 213c 9d62 9fbd
00000380: 89de 6ebd 5ffd 59bd 2dd6 79bd 410b 67bd
00000390: 10b9 b83d d03c 413d ad9e d4bc 4386 033e
000003a0: bb4b 943d 55a6 3ebd 9b82 8cbb d053 a03d
000003b0: 3a6b a6bd 8a28 ec3d 7c1c a2bd 5702 07bd
000003c0: 6760 f5bd c727 0e3e 0909 3a3d 8a64 683d
000003d0: 6411 cc3c 1509 783d 8d1f dcbd 70e2 543c
000003e0: 33bd 8a3d f9a5 bfbd 73d2 48bd 8b91 01be
000003f0: a34d f83d 84b3 783d 95dd 02bd 31eb 2c3e

model.time_mlp.1.bias f4 [256]
-9.811383e-07 -4.246973e-07 -3.198874e-07 1.2823161e-06 5.072761e-07 5.4980444e-07 -8.776854e-07 1.1988335e-06
2.1809166e-07 -4.763887e-07 2.3406606e-06 -1.0721527e-06 1.5408037e-06 5.0417884e-07 -3.2906407e-06 -8.1243974e-07
-1.1795845e-06 6.9475925e-07 1.6248426e-06 -1.2259896e-06 2.5499876e-06 2.011719e-06 -1.6067524e-06 -1.4969543e-06
-1.67987e-06 1.6883723e-06 8.213057e-07 6.975941e-07 -2.450069e-06 -3.3241345e-06 -3.9974043e-07 1.3468122e-06
-7.5167065e-07 1.1313576e-06 1.1557698e-06 2.4162776e-07 -4.0097748e-07 -1.715237e-06 3.7726174e-08 6.998444e-08
1.5083283e-06 -7.1851287e-07 -7.294329e-07 -2.354586e-06 -2.2748144e-07 7.764094e-08 -1.9404787e-07 -2.0556417e-06
-1.0338188e-06 4.878033e-07 1.0930994e-06 -5.9715694e-07 -1.9753753e-07 2.509676e-06 1.1735594e-06 -4.7519927e-07
-1.2752763e-06 8.608449e-07 2.6314575e-07 5.717113e-07 2.0813854e-06 -1.6394594e-06 3.179108e-07 7.2311695e-07
4.1653752e-07 1.1545959e-06 1.3134022e-07 1.7618534e-07 -2.9969433e-06 2.9552937e-06 -5.6814355e-07 1.9357399e-06
-3.7393994e-07 3.3102594e-06 2.4234245e-07 -3.9876667e-08 2.1676274e-07 -1.0306692e-06 1.5913669e-06 -8.647334e-07
-2.9662203e-07 -1.4193786e-06 3.568942e-06 3.4602335e-06 -1.2015728e-06 1.5470191e-07 -1.1526492e-06 -3.3176167e-07
1.0888493e-06 -1.390297e-06 -1.3505214e-06 -2.7532787e-06 -1.8268717e-06 -1.5623125e-06 1.5856375e-06 9.3331187e-07
2.908741e-07 1.6780473e-06 9.031203e-07 1.7769872e-07 -2.8269238e-07 -9.6040914e-08 -6.417755e-07 3.1425625e-07
-1.3148418e-06 -2.448929e-07 2.1690123e-06 -1.17589e-06 -2.162705e-06 -6.29372e-07 -6.9545644e-07 2.4907545e-06
-1.8351004e-07 1.5154532e-06 6.1557813e-07 -9.358176e-07 3.2080998e-06 -1.5735267e-06 1.4054805e-06 2.4249975e-06
2.00337e-06 8.040691e-07 -6.5576506e-07 2.7453596e-06 -2.0252255e-06 1.2445917e-06 -4.2987395e-07 3.3380895e-06
5.1257035e-07 -1.2595202e-06 5.6714736e-08 7.172696e-07 4.408634e-06 4.0662135e-07 5.965712e-07 -2.6993595e-07
-6.876342e-08 7.0126504e-07 1.6709122e-06 -4.7122705e-07 -3.218934e-07 2.1534495e-06 -3.6115352e-07 5.6678177e-06
3.0317817e-06 6.528167e-07 1.9312204e-06 4.532703e-08 4.376407e-06 -4.6762696e-07 5.906093e-07 1.5031366e-06
2.1037283e-06 2.5350332e-06 -1.1709534e-06 1.2191068e-06 2.5325019e-06 -5.788138e-07 3.4501754e-06 1.4644901e-06
7.470895e-07 1.5326791e-06 2.4946763e-07 2.5045085e-07 -3.082233e-07 1.25368e-07 3.7490586e-06 -5.483784e-07
6.8401334e-07 2.2416505e-06 -1.4187523e-06 1.2715973e-06 -1.5084601e-06 -1.936906e-06 -9.88892e-07 -1.4888124e-06
-2.3941939e-06 1.7828205e-06 -2.3886876e-06 -7.61619e-09 6.9804094e-07 -1.2894546e-06 -1.9318652e-06 2.5699944e-07
3.2983766e-07 -3.776472e-07 7.231679e-07 -3.5784105e-06 8.782795e-07 -1.270268e-06 -6.131855e-07 2.0830107e-06
-1.9250324e-07 -4.845805e-07 -2.3069613e-06 -1.5114629e-06 4.764106e-06 1.2592572e-08 6.827382e-08 -3.1817433e-07
2.9764522e-07 5.684486e-07 -2.199839e-06 -1.2951152e-07 4.536178e-08 1.0966813e-06 7.856466e-07 -1.3636836e-06
1.5976528e-06 1.2804583e-06 -4.1629337e-06 5.6883522e-08 4.600583e-07 1.195972e-06 -1.350616e-06 2.018002e-06
-3.2052822e-07 7.457348e-07 -1.8623203e-06 8.520434e-07 9.0980656e-08 1.1728816e-06 -3.2172792e-07 6.041781e-07
-2.610561e-06 1.2950901e-06 -8.7446915e-07 -9.733706e-08 3.2281941e-06 -4.2626894e-08 -2.185653e-06 -3.6507602e-06
4.35838e-06 1.6342015e-06 1.1506039e-06 -7.5572035e-07 2.2710863e-06 9.657268e-07 -7.4209584e-07 2.0496114e-07
-8.0075097e-07 1.2116151e-06 2.6308996e-06 -3.4001795e-07 -3.081527e-06 -1.9023984e-06 -9.719312e-07 1.0195774e-07
2.0756456e-06 -1.0057438e-06 6.4822194e-07 3.8660392e-07 -2.2479546e-06 -1.7746402e-06 2.6594e-07 5.8393505e-07
00000000: a8af 83b5 f401 e4b4 fdbc abb4 0c1c ac35
00000010: c02b 0835 4696 1335 159a 6bb5 9be7 a035
00000020: 942c 6a34 5dc2 ffb4 3e14 1d36 e3e6 8fb5
00000030: 9dcd ce35 e856 0735 c7d4 5cb6 6f16 5ab5
00000040: 3752 9eb5 7e7f 3a35 2b15 da35 af8c a4b5
00000050: 7420 2b36 1201 0736 98a7 d7b5 f5ea c8b5
00000060: e577 e1b5 089c e235 b377 5c35 4d42 3b35
00000070: dd6b 24b6 3214 5fb6 e89b d6b4 1dc4 b435
00000080: 6ac6 49b5 27d9 9735 f31f 9b35 11b9 8134
00000090: ed45 d7b4 1837 e6b5 5e08 2233 5a4a 9633
000000a0: c471 ca35 d4df 40b5 3fce 43b5 7b03 1eb6
000000b0: 9f41 74b4 8fbb a633 795b 50b4 a8f3 09b6
000000c0: bec1 8ab5 96f1 0235 9cb6 9235 504c 20b5
000000d0: b41a 54b4 e86b 2836 3283 9d35 e41e ffb4
000000e0: 292a abb5 d014 6735 7a46 8d34 b477 1935
000000f0: eead 0b36 650b dcb5 54ad aa34 381c 4235
00000100: 7ba0 df34 9df7 9a35 8606 0d34 752d 3d34
00000110: 181f 49b6 8f53 4636 8782 18b5 c2e7 0136
00000120: eac1 c8b4 d325 5e36 4b1b 8234 dc44 2bb3
00000130: 4abf 6834 8655 8ab5 f396 d535 0720 68b5
00000140: 6c3f 9fb4 7a81 beb5 f581 6f36 5c36 6836
00000150: ba45 a1b5 231c 2634 bab4 9ab5 fa1c b2b4
00000160: 9424 9235 3e9a bab5 9043 b5b5 f8c4 38b6
00000170: d532 f5b5 a6b0 d1b5 17d2 d435 b488 7a35
00000180: 6f29 9c34 4439 e135 f46d 7235 74cd 3e34
00000190: f2c4 97b4 0d3f ceb3 7a46 2cb5 0db7 a834
000001a0: 9f79 b0b5 d379 83b4 598f 1136 46d3 9db5
000001b0: fd22 11b6 1df2 28b5 67af 3ab5 d626 2736
000001c0: db0a 45b4 9366 cb35 353e 2535 e534 7bb5
000001d0: bc4a 5736 f731 d3b5 f1a3 bc35 24bd 2236
000001e0: a271 0636 35d7 5735 d507 30b5 eb3c 3836
000001f0: 1ce9 07b6 d80b a735 6dc9 e6b4 f103 6036
00000200: 9197 0935 c90c a9b5 8396 7333 648a 4035
00000210: e1ed 9336 9d4d da34 1024 2035 b7eb 90b4
00000220: 17ab 93b3 913e 3c35 1b44 e035 f4fc fcb4
00000230: b1d0 acb4 fb83 1036 90e4 c1b4 2f2e be36
00000240: 9d75 4b36 393d 2f35 1d9a 0136 99ad 4233
00000250: 0dd9 9236 290e fbb4 5d8a 1e35 61bf c935
00000260: c72d 0d36 8a1f 2a36 a729 9db5 31a0 a335
00000270: 0df4 2936 c85f 1bb5 9089 6736 7f8f c435
00000280: 998b 4835 74b6 cd35 92ee 8534 b475 8634
00000290: e379 a5b4 e59c 0634 5698 7b36 4734 13b5
000002a0: 0a9d 3735 436f 1636 f56b beb5 c0ab aa35
000002b0: 4b76 cab5 cbfb 01b6 12ba 84b5 34d3 c7b5
000002c0: f0ab 20b6 3f49 ef35 574d 20b6 5cd8 02b2
000002d0: 0261 3b35 5311 adb5 31a5 01b6 bcf9 8934
000002e0: 8b14 b134 70bf cab4 b81f 4235 a024 70b6
000002f0: e8c2 6b35 137e aab5 c999 24b5 dac9 0b36
00000300: e3b2 4eb4 1e14 02b5 4bd1 1ab6 78dd cab5
00000310: 5cdb 9f36 b856 5832 ee9d 9233 8cd1 aab4
00000320: 0ccc 9f34 7e97 1835 f2a0 13b6 db0f 0bb4
00000330: ced3 4233 af31 9335 39e5 5235 d007 b7b5
00000340: ef6e d635 36dc ab35 54af 8bb6 1850 7433
00000350: eefd f634 4985 a035 d046 b5b5 036d 0736
00000360: 1015 acb4 812e 4835 d7f4 f9b5 fab7 6435
00000370: 2561 c333 e86b 9d35 f3b9 acb4 ce2e 2235
00000380: 1931 2fb6 f5d2 ad35 10bd 6ab5 9d07 d1b3
00000390: f4a3 5836 c414 37b3 3cad 12b6 95ff 74b6
000003a0: 333e 9236 bc56 db35 736e 9a35 b5dc 4ab5
000003b0: f768 1836 1f9e 8135 7034 47b5 4a13 5c34
000003c0: 30f3 56b5 c79e a235 838e 3036 b68b b6b4
000003d0: 3bcc 4eb6 e955 ffb5 4d73 82b5 dcf3 da33
000003e0: 524b 0b36 18fd 86b5 7901 2e35 708e cf34
000003f0: 91db 16b6 2c30 eeb5 84c6 8e34 b6bf 1c35

model.time_mlp.3.weight f4 [32, 256]
0.06864643 0.0037016943 -0.02606477 -0.04308391 -0.008998083 -0.017915187 -0.011101621 -0.02207632
0.0022257126 -0.0144313965 0.009736202 -0.010864356 0.009973252 -0.016686516 -0.033129293 -0.010797785
-0.0032849903 -0.07527541 0.031450946 -0.0064897807 -0.017830385 0.016808212 -0.010685858 0.07999796
-0.0031525886 0.0079788845 -0.03415583 -0.06619481 0.023568304 0.011632096 0.005904124 -0.014409741
0.054679904 -0.10474103 -0.030707339 0.0028686381 0.0037119812 0.009132251 -0.0343976 0.004551416
-0.019582896 0.0030291493 0.000672202 0.01846282 -0.0016856801 0.044386778 -0.079002686 -0.036540225
-0.016333101 -0.008621206 -0.005513574 -0.02985045 0.021414336 -0.004669968 0.005646145 -0.012471801
0.008932337 -0.02525314 -0.01962864 -0.0061032707 -0.019970007 -0.0363246 0.035233084 0.022929203
0.015702551 0.019345189 0.004307848 0.026376888 -0.029345632 -0.009271997 -0.013768605 0.063023545
-0.026513914 0.020260897 -0.099547334 0.0068521206 -0.017184485 -0.01655812 -0.04397365 0.019320771
-0.009885198 -0.061283182 -0.030889755 -0.036438223 -0.010680721 -0.04547076 -0.021197183 -0.0011930224
-0.030417865 -0.04494549 0.02184436 -0.038582664 -0.040404733 0.013250272 -0.021827579 -0.032031998
-0.017240359 -0.042333078 -0.04510623 0.02189851 -0.017133819 0.009045525 -0.024009574 -0.00994153
0.013760969 0.000893083 0.0053246426 -0.01202265 0.04877599 0.031883698 -0.016940963 0.028438302
0.0028092978 0.04162932 0.012213657 0.012598988 -0.005384646 -0.042341825 -0.00057526346 0.0070975334
0.017850429 0.02323129 0.018144846 0.032179914 -0.024481729 -0.036633726 -0.042611722 0.038104594
-0.0038664632 0.022011908 -0.013089903 -0.0053981678 -0.023534069 0.004071701 -0.03455343 0.008037721
-0.050429553 -0.022302317 -0.0347752 0.036716934 -0.0012369541 -0.01597943 -0.0017830225 -0.0031163308
-0.014429388 0.001079595 0.04853968 0.003044215 -0.030602658 -0.05689759 0.032830223 -0.04611303
-0.0133827375 -0.0010462527 0.023908151 0.0100925425 0.057764426 -0.006932213 0.040589303 -0.025961168
-0.039577484 0.056354247 -0.026184509 0.06392528 0.0034403272 -0.0076759006 -0.0033357216 0.043449894
0.008076178 -0.055691518 -0.07232027 0.00044936873 -0.001990006 0.024652086 0.018665634 -0.030686285
0.009371482 0.0073859887 0.030562675 0.0058233505 -0.000994447 -0.004332847 0.019166674 0.008328491
0.007493868 0.014781103 0.059252918 0.011316917 0.029759211 0.08816199 -0.019034836 0.011584661
0.022518005 -0.011294165 -0.01342168 -0.011820592 -0.01062005 -0.0075661032 0.0096535785 0.014035417
-0.042535882 -0.011687591 0.013182537 -0.012891719 0.0074862745 0.048878305 0.0065550054 -0.005386559
0.0101977 0.013380738 -0.035071142 -0.0061273794 -0.057525896 -0.011591427 0.043454744 -0.013492182
0.03185768 0.0062842905 0.04384903 -0.009688129 0.0057041035 0.05299479 0.01193376 -0.050761078
0.028742762 -0.02437504 0.037258442 -0.0072123026 -0.006751749 -0.027027048 -0.013452443 -0.049009103
-0.027428906 0.013528755 0.02949733 0.0077146413 -0.0037570486 -0.03952063 0.02493864 -0.017689038
0.03389483 0.06235386 0.0115602985 0.0015614332 0.028174926 0.04707811 -0.0035506152 0.015040357
-0.01374438 0.03554359 0.0010274593 0.020602826 0.0014657867 0.0018714466 0.012279884 -0.04568787
00000000: 8096 8c3d 2098 723b c985 d5bc c178 30bd
00000010: b26c 13bc dfc2 92bc 93e3 35bc 66d9 b4bc
00000020: 43dd 113b aa71 6cbc 9784 1f3c 6900 32bc
00000030: da66 233c 29b2 88bc 95b2 07bd 31e9 30bc
00000040: fe48 57bb ff29 9abd b5d2 003d 3aa8 d4bb
00000050: 0711 92bc 60b1 893c bd13 2fbc f8d5 a33d
00000060: a99b 4ebb deb9 023c fce6 0bbd 2591 87bd
00000070: 5112 c13c 8c94 3e3c 6277 c13b d616 6cbc
00000080: 09f8 5f3d 7782 d6bd f58d fbbc c3ff 3b3b
00000090: b644 733b 709f 153c 7fe4 0cbd 0b24 953b
000000a0: 4f6c a0bc b184 463b b636 303a 573f 973c
000000b0: 0af2 dcba e9ce 353d 29cc a1bd 34ab 15bd
000000c0: ffcc 85bc f53f 0dbc 36ab b4bb ee88 f4bc
000000d0: 1e6d af3c 8806 99bb 4c03 b93b 8656 4cbc
000000e0: f058 123c acdf cebc 3ecc a0bc f2fd c7bb
000000f0: 2498 a3bc 1bc9 14bd 9150 103d 06d6 bb3c
00000100: a3a2 803c cd79 9e3c d928 8d3b 5814 d83c
00000110: 4066 f0bc 93e9 17bc b795 61bc 7d12 813d
00000120: b533 d9bc 2efa a53c 79df cbbd c187 e03b
00000130: 7ac6 8cbc e5a4 87bc b71d 34bd 9846 9e3c
00000140: 87f5 21bc 1304 7bbd 830c fdbc 3f40 15bd
00000150: 31fe 2ebc 8c3f 3abd b7a5 adbc 305f 9cba
00000160: e32e f9bc c318 38bd f1f2 b23c db08 1ebd
00000170: 6f7f 25bd ab17 593c c0cf b2bc fc33 03bd
00000180: a73b 8dbc 7365 2dbd 4fc1 38bd 8164 b33c
00000190: 395c 8cbc af33 143c baaf c4bc cde1 22bc
000001a0: b075 613c c91d 6a3a 577a ae3b a6fa 44bc
000001b0: 55c9 473d 7b98 023d c6c7 8abc 71f7 e83c
000001c0: 321c 383b 8183 2a3d ca1b 483c fc6b 4e3c
000001d0: af71 b0bb 9f6e 2dbd 47cd 16ba 6d92 e83b
000001e0: 103b 923c 8c4f be3c 80a4 943c 16cf 033d
000001f0: e88d c8bc 3f0d 16bd a189 2ebd 9013 1c3d
00000200: 7d64 7dbb 5152 b43c 0877 56bc 1de3 b0bb
00000210: 85ca c0bc e76b 853b e687 0dbd a5b0 033c
00000220: 388f 4ebd 59b3 b6bc 7170 0ebd 7f64 163d
00000230: 4b21 a2ba 4be7 82bc 4fb4 e9ba 5b3b 4cbb
00000240: 3d69 6cbc 3281 8d3a 8bd1 463d 7481 473b
00000250: 6db2 fabc 730d 69bd fc78 063d 04e1 3cbd
00000260: 4543 5bbc 6a22 89ba 07db c33c 315b 253c
00000270: 649a 6c3d 9e27 e3bb f840 263d 84ac d4bc
00000280: 001c 22bd b6d3 663d e580 d6bc 42eb 823d
00000290: 1d77 613b 1f86 fbbb 1f9c 5abb 84f8 313d
000002a0: f251 043c ca1c 64bd a61c 94bd 4099 eb39
000002b0: c36a 02bb 2cf3 c93c ace8 983c ce61 fbbc
000002c0: d88a 193c 2a06 f23b 935e fa3c ced1 be3b
000002d0: 1b58 82ba 8efa 8dbb 6e03 9d3c 3974 083c
000002e0: 1f8f f53b 702c 723c 30b3 723d 976a 393c
000002f0: 97c9 f33c 468e b43d f2ee 9bbc 97cd 3d3c
00000300: ae77 b83c 290b 39bc 9be6 5bbc 28ab 41bc
00000310: b8ff 2dbc 13ed f7bb 0b2a 1e3c cef4 653c
00000320: 1b3a 2ebd 4f7d 3fbc 91fb 573c ca37 53bc
00000330: 6c4f f53b 9e34 483d 5fcb d63b bb81 b0bb
00000340: 4114 273c e23a 5b3c c2a6 0fbd 2fc8 c8bb
00000350: 46a0 6bbd f8e9 3dbc 9afd 313d 500e 5dbc
00000360: 337d 023d 73ec cd3b 0a9b 333d f5ba 1ebc
00000370: 7de9 ba3b 1111 593d d185 433c d9ea 4fbd
00000380: f175 eb3c 2aae c7bc 4f9c 183d 2e55 ecbb
00000390: c73d ddbb d467 ddbc a367 5cbc c5bd 48bd
000003a0: 96b2 e0bc b6a7 5d3c 62a4 f13c 1acb fc3b
000003b0: d138 76bb 62e0 21bd 1e4c cc3c 9ae8 90bc
000003c0: 4ed5 0a3d c366 7f3d 6867 3d3c 01a9 cc3a
000003d0: 1acf e63c fad4 403d 70b1 68bb d46b 763c
000003e0: 1c30 61bc 2896 113d d0ab 863a 42c7 a83c
000003f0: a41f c03a 544b f53a 9131 493c 3423 3bbd

model.time_mlp.3.bias f4 [32]
5.420311e-06 -1.22214e-05 -2.8419887e-05 -1.2092486e-05 -1.0061038e-05 1.0305824e-05 -1.3402471e-06 1.0366888e-05
1.5000285e-05 2.2559028e-05 2.7009269e-06 -1.2122043e-05 -5.056205e-06 -2.2537945e-06 -8.276501e-06 -7.0093397e-06
-7.19148e-06 2.2324111e-06 -5.757972e-06 -1.471372e-05 -1.2979535e-05 -9.019038e-06 1.3589908e-05 1.0399793e-05
1.61749e-05 5.4523653e-06 -5.3451677e-06 2.0891068e-05 1.4184571e-05 -1.3573473e-05 1.7623832e-05 6.7415585e-06
00000000: 1ee0 b536 830a 4db7 3e67 eeb7 d5e0 4ab7
00000010: d4cb 28b7 2de7 2c37 8ae2 b3b5 72ed 2d37
00000020: bca9 7b37 253d bd37 9241 3536 c75f 4bb7
00000030: 78a8 a9b6 e53f 17b6 4ddb 0ab7 c531 ebb6
00000040: 584e f1b6 88d0 1536 9a34 c1b6 f2da 76b7
00000050: aec2 59b7 7950 17b7 3600 6437 c57a 2e37
00000060: 55af 8737 76f3 b636 a45a b3b6 3a3f af37
00000070: 45fa 6d37 9fb9 63b7 e4d6 9337 8c35 e236

model.layer.0.weight f4 [256, 55]
-0.00893628 -0.08800674 -0.14102103 0.10089798 -0.13057865 0.011944607 0.00734001 -0.029110953
-0.0059857173 -0.10209718 0.10474576 -0.06539333 -0.07197944 0.03581323 0.019713927 0.14152256
0.034615476 -0.1442535 0.060147524 -0.06466511 0.047363073 0.10632988 0.008266397 0.0050635953
0.015465638 -0.0053862827 -0.037788957 0.11236863 0.029408628 -0.018610366 -0.0008365524 0.0830148
-0.02564218 -0.0068758884 0.047722798 0.04516741 0.0897338 0.10592426 -0.03648726 0.013292258
-0.043474235 -0.0052974736 0.1396437 -0.0864586 0.06093642 -0.019443778 0.045066394 -0.057741906
-0.08964834 -0.07538988 0.06409877 0.12698516 0.10032814 0.034552325 -0.051595557 0.026918463
0.064630374 -0.020724079 0.030159825 0.08224641 0.00022904723 0.0018718069 -0.09413241 -0.08869805
0.010365319 -0.013104813 -0.10907407 0.0017028082 -0.033481274 -0.085432835 -0.036279146 -0.013220778
0.038479112 0.04446767 0.11266632 0.08882731 -0.025468383 0.01665663 0.054899607 -0.10151742
-0.052449144 -0.0326004 0.0731957 -0.08833827 0.05732327 0.037961777 -0.07914418 0.015719173
-0.027431255 0.01753624 0.015995482 -0.024584077 0.0022325953 -0.023043742 0.09846369 0.09495184
0.067549 0.060449168 0.120108254 0.035674896 -0.08366027 -0.004217734 0.0544146 -0.08376729
0.015534075 -0.04736649 0.048277862 -0.018709239 -0.0050212992 -0.07525501 -0.016652998 0.053287987
0.0409241 0.032871883 0.014150408 0.023286803 -0.03685305 -0.070017345 -0.0069098324 -0.08639782
-0.017547844 -0.037885398 -0.0013297445 -0.03883456 0.03322148 -0.10237799 -0.10714141 0.0013593662
0.009244629 -0.11511012 0.09224028 -0.049168963 -0.10193773 -0.054744367 -0.13712946 0.16129418
-0.09744439 -0.05285374 -0.0009022117 -0.042565517 0.12271986 -0.034922875 -0.016775412 0.08306129
0.041002087 -0.10662168 -0.022266889 -0.051293798 0.04145031 -0.048453424 0.08071141 0.0027802924
-0.04226582 -0.0637404 -0.017241333 -0.09296857 0.11890384 -0.054474045 -0.032619685 -0.00052577874
0.046150167 -0.042891227 -0.145453 -0.03693035 0.024214419 0.06692181 -0.086408265 -0.023140883
-0.1456463 0.10222672 -0.01331933 -0.0022095402 -0.089394554 -0.017878488 0.09970749 -0.043738548
0.016007293 0.001749006 0.08378433 -0.07512596 0.051692516 0.07749047 -0.0040044026 -0.01762096
0.12192838 0.033108443 -0.03395661 -0.020673033 0.0051897173 0.04384567 -0.057035115 -0.03196865
0.03201975 0.025775986 0.015596874 0.019919906 -0.009121229 -0.08098196 -0.028722376 0.018742533
-0.08181688 -0.025019825 -0.047312696 0.047730412 0.050488908 -0.045230493 -0.021981942 -0.044861563
0.09511154 0.010653493 0.03653776 0.11329706 0.083700776 -0.08617308 0.052630223 0.11827101
-0.009666848 -0.031439994 0.010570012 -0.05940627 -0.0724393 -0.016782088 -0.032947917 -0.017342892
-0.006262996 0.10316053 -0.14817457 0.029846393 0.027462905 0.14424449 -0.04137491 0.06906476
0.020185977 -0.07665372 0.05307466 0.016203392 -0.059934575 0.04789126 0.06858612 -0.06723955
-0.015365551 -0.032564864 -0.039193988 0.03563613 -0.13547905 -0.016137453 -0.01292129 0.09440928
-0.07887507 -0.07960289 0.029699435 -0.09444833 -0.1642494 0.09246445 -0.0007838878 -0.009318061
00000000: 7a69 12bc e13c b4bd d167 10be 9aa3 ce3d
00000010: 69b6 05be 50b3 433c 7784 f03b 187a eebc
00000020: d623 c4bb 5418 d1bd f284 d63d f0ec 85bd
00000030: f569 93bd e5b0 123d 1a7f a13c 4aeb 103e
00000040: f5c8 0d3d 31b7 13be 405d 763d 246f 84bd
00000050: c8ff 413d 7bc3 d93d c86f 073c 84ec a53b
00000060: 9663 7d3c 6a7f b0bb 98c8 1abd 8621 e63d
00000070: 5dea f03c c474 98bc 154c 5bba aa03 aa3d
00000080: 8d0f d2bc 224f e1bb fb78 433d 7601 393d
00000090: 5bc6 b73d d2ee d83d aa73 15bd c5c7 593c
000000a0: 0a12 32bd 6e96 adbb c2fe 0e3e 3511 b1bd
000000b0: 7898 793d 8f48 9fbc 8a97 383d c782 6cbd
000000c0: 8d99 b7bd 0266 9abd 3746 833d 6608 023e
000000d0: d778 cd3d bd86 0d3d dd55 53bd 1c84 dc3c
000000e0: ee5c 843d 8bc5 a9bc bd11 f73c ce70 a83d
000000f0: 662c 7039 6b57 f53a 7ec8 c0bd 53a7 b5bd
00000100: 4dd3 293c 92b5 56bc 3a62 dfbd c330 df3a
00000110: a923 09bd 69f7 aebd 7199 14bd f69b 58bc
00000120: 469c 1d3d bb23 363d 99bd e63d 18eb b53d
00000130: 12a3 d0bc 7c73 883c 69de 603d 5de8 cfbd
00000140: ead4 56bd ff87 05bd a1e7 953d b2ea b4bd
00000150: cecb 6a3d cf7d 1b3d 5816 a2bd 7fc5 803c
00000160: 83b7 e0bc 29a8 8f3c f508 833c 8c64 c9bc
00000170: bc50 123b 3bc6 bcbc 55a7 c93d 1c76 c23d
00000180: 2157 8a3d 8c99 773d 51fb f53d d71f 123d
00000190: 1356 abbd eb34 8abb d8e1 5e3d 2f8e abbd
000001a0: a282 7e3c 5d03 42bd 02bf 453d 1e44 99bc
000001b0: b689 a4bb 4c1f 9abd de6b 88bc 8144 5a3d
000001c0: 07a0 273d aba4 063d 1dd7 673c f7c3 be3c
000001d0: 39f3 16bd 4165 8fbd e06b e2bb 57f1 b0bd
000001e0: 7fc0 8fbc b82d 1bbd d24a aeba fd10 1fbd
000001f0: 3f13 083d 8dab d1bd f56c dbbd c32c b23a
00000200: c976 173c dbbe ebbd 79e8 bc3d 6565 49bd
00000210: bbc4 d0bd a13b 60bd aa6b 0cbe 4d2a 253e
00000220: ed90 c7bd 2a7d 58bd 6782 6cba 2e59 2ebd
00000230: 8d54 fb3d 4a0b 0fbd 976c 89bc 0a1c aa3d
00000240: cef1 273d 785c dabd 0d69 b6bc 7219 52bd
00000250: cdc7 293d 1977 46bd 064c a53d 9135 363b
00000260: ed1e 2dbd 548a 82bd b23d 8dbc 4e66 bebd
00000270: db83 f33d 2d20 5fbd 389c 05bd 6ad4 09ba
00000280: f507 3d3d b6ae 2fbd a2f1 14be 4744 17bd
00000290: 515d c63c 4d0e 893d d1f6 b0bd f391 bdbc
000002a0: 4e24 15be 3e5c d13d 5239 5abc efcd 10bb
000002b0: 7e14 b7bd e875 92bc 7133 cc3d 3127 33bd
000002c0: ba21 833c e73e e53a 1e97 ab3d a4db 99bd
000002d0: 88bb 533d 53b3 9e3d 5d37 83bb d559 90bc
000002e0: 96b5 f93d b89c 073d 1616 0bbd 7e5a a9bc
000002f0: 810e aa3b 8497 333d a79d 69bd 8ff1 02bd
00000300: 2427 033d 2928 d33c 088a 7f3c 122f a33c
00000310: 3571 15bc dfd9 a5bd 304b ebbc f189 993c
00000320: 9c8f a7bd 60f6 ccbc f5ca 41bd f780 433d
00000330: 75cd 4e3d 9c43 39bd 7913 b4bc c2c0 37bd
00000340: d7c9 c23d fd8b 2e3c 9ea8 153d 4a08 e83d
00000350: 506b ab3d 837b b0bd ca92 573d 1238 f23d
00000360: b361 1ebc 39c7 00bd d82d 2d3c fd53 73bd
00000370: 0e5b 94bd 977a 89bc 65f4 06bd ae12 8ebc
00000380: d139 cdbb d445 d33d 13bb 17be 6c80 f43c
00000390: e3f9 e03c d4b4 133e bd78 29bd d371 8d3d
000003a0: 105d a53c a0fc 9cbd d164 593d fabc 843c
000003b0: f57d 75bd a029 443d e176 8c3d e4b4 89bd
000003c0: cbbf 7bbc bc62 05bd e089 20bd 31f7 113d
000003d0: 05bb 0abe b132 84bc d1b3 53bc a759 c13d
000003e0: 4189 a1bd d706 a3bd 3b4c f33c 206e c1bd
000003f0: ff30 28be 005e bd3d d27d 4dba c8aa 18bc

model.layer.0.bias f4 [256]
1.7299977e-05 -5.171069e-06 1.3641767e-05 -1.4426797e-05 4.904242e-06 -5.2416494e-06 -1.626605e-05 -7.1564154e-06
-1.2978704e-05 2.4160565e-05 8.852745e-06 -4.2867882e-07 8.258727e-06 1.1270167e-05 -1.1947092e-06 -1.8507282e-06
1.1324652e-05 -1.537492e-05 -9.557673e-06 -1.2459793e-05 -4.7164003e-06 5.2066725e-06 -9.606383e-06 4.4270173e-06
2.2465456e-06 -2.1109463e-05 3.4400448e-06 -9.09009e-06 -1.7579187e-05 -1.1163618e-05 -1.5398424e-06 -1.1465477e-05
-1.1590451e-05 1.5961667e-05 1.9032468e-05 1.0088994e-05 -1.7825574e-05 -6.6676403e-06 2.286609e-06 1.4980116e-05
6.528306e-06 1.0070577e-05 -5.8979335e-06 6.5538065e-06 1.7212591e-05 2.1791026e-05 -2.5887186e-06 6.283474e-06
-8.37751e-06 -4.2457464e-06 8.983416e-06 -3.01766e-06 -1.77654e-05 -4.293972e-06 3.488249e-06 -1.8101066e-05
-2.4457404e-05 1.6666327e-05 1.3782328e-05 -6.855601e-06 -1.661561e-05 7.0514693e-06 -3.4321981e-06 -1.4773209e-05
-9.402208e-06 -1.0966852e-06 -2.7198382e-06 -2.230199e-05 1.0936019e-05 -6.5933937e-06 1.2814877e-05 -1.1233144e-06
1.5004024e-05 -1.0348203e-05 1.721074e-05 2.0261736e-05 -8.193384e-06 -1.9122503e-05 8.592934e-06 -1.35971595e-05
-1.0980161e-06 2.5918793e-05 -6.1373817e-07 -9.007508e-06 -1.13096075e-05 5.809612e-06 5.607471e-06 -7.787302e-06
2.2544273e-05 -7.836012e-06 3.7056047e-06 1.9980695e-05 -1.6500673e-05 5.1570037e-06 -1.3315578e-05 -2.0866039e-05
-5.6534273e-06 -2.0251822e-05 1.8550645e-05 -7.743458e-06 -1.282217e-05 2.0130707e-05 -1.7829612e-05 3.654114e-06
-1.8376422e-05 -1.0221488e-05 2.3960217e-06 -6.817135e-06 -1.1591696e-05 -9.687028e-06 -1.0709185e-05 -8.810145e-06
5.309071e-06 1.832193e-05 7.3769006e-06 -2.9882838e-06 -2.406117e-05 -1.0533815e-05 -2.3221175e-05 -1.1904506e-06
1.217126e-05 -1.7941593e-06 1.3327895e-06 5.5953137e-06 6.923422e-06 2.1061544e-05 7.1928403e-06 -1.26667155e-05
3.734361e-06 -8.881907e-07 -1.1162175e-05 1.9989739e-06 -5.6675412e-06 -1.1353681e-05 -6.81806e-06 1.1208694e-05
-7.814437e-06 6.7573683e-06 -1.197052e-05 -1.2608512e-05 2.9688232e-05 2.2607184e-05 -5.839178e-06 -1.8355586e-05
-1.3256303e-05 -1.9492833e-05 5.3816454e-09 8.997019e-06 -2.9905336e-06 9.714468e-06 -5.7335687e-06 -1.2304764e-05
2.1913968e-06 -1.05543e-05 2.0851721e-05 9.288636e-07 -1.33777885e-05 1.762105e-05 -4.3828554e-06 -1.6388738e-05
1.2373412e-05 -1.1757171e-05 7.717709e-06 -1.5188944e-05 -6.3964503e-06 1.9346805e-06 7.646836e-06 1.0522763e-05
-7.226256e-06 -8.135862e-06 8.10891e-06 -2.1953365e-05 -9.633758e-06 1.3797054e-05 9.611334e-06 4.314644e-06
-1.4204811e-05 3.191148e-06 -9.590137e-06 1.0651014e-05 -2.0192998e-05 -6.8734707e-06 -9.934247e-06 4.622603e-06
-3.94902e-06 -1.9310062e-06 -1.0051573e-05 -6.1576866e-06 -2.108038e-05 6.979562e-06 2.5740774e-06 1.4277248e-05
2.3523748e-06 -1.1678744e-05 -8.534875e-06 -8.199507e-06 5.5882697e-06 -1.2697762e-05 3.898768e-06 -1.7264498e-05
1.7290824e-05 6.097382e-06 -2.0761372e-05 -1.3539333e-06 -8.31883e-06 -8.064872e-07 2.389031e-05 9.930665e-07
-9.481178e-06 1.5066716e-05 -1.9716932e-05 -1.8259725e-05 -5.846479e-07 1.4977348e-06 1.1964928e-06 -1.9378236e-05
1.1552821e-05 1.9746822e-05 5.6872477e-06 -6.762133e-06 -3.8177113e-06 -8.086322e-06 -9.998256e-06 -8.051042e-06
1.1975148e-05 7.000803e-06 -1.1446007e-05 1.6794791e-05 -2.3768578e-05 1.8630892e-05 1.3607613e-05 5.6575286e-06
-3.3884305e-06 9.103635e-06 3.784232e-06 1.0165455e-05 -1.1956092e-05 1.0599991e-05 -5.940919e-06 -2.6013704e-05
-9.109527e-06 7.758168e-06 7.52734e-07 -3.2944557e-05 -4.7617723e-06 -8.084175e-06 -2.5680964e-05 -2.2544882e-06
-7.0765964e-06 -2.0920872e-05 -1.7192653e-05 7.1935124e-06 4.8360534e-06 -5.259156e-07 2.1883194e-05 1.2064593e-05
00000000: 6b1f 9137 2583 adb6 f1de 6437 9f0a 72b7
00000010: 1e8f a436 6de1 afb6 1473 88b7 2421 f0b6
00000020: 1cbf 59b7 6bac ca37 4086 1437 2b25 e6b4
00000030: f68e 0a37 0015 3d37 e559 a0b5 8966 f8b5
00000040: 03ff 3d37 64f9 80b7 e559 20b7 670a 51b7
00000050: 9241 9eb6 fab4 ae36 1a2b 21b7 ca8b 9436
00000060: 5cc3 1636 3a14 b1b7 85db 6636 a481 18b7
00000070: 0477 93b7 604b 3bb7 95ac ceb5 d95b 40b7
00000080: 9c74 42b7 6be5 8537 eaa7 9f37 e643 2937
00000090: 2188 95b7 98ba dfb6 a573 1936 1c53 7b37
000000a0: b90d db36 cdf4 2837 dde6 c5b6 c5e8 db36
000000b0: c263 9037 dfcb b637 d9b9 2db6 a1d6 d236
000000c0: 228d 0cb7 af76 8eb6 7ab7 1637 0183 4ab6
000000d0: e806 95b7 f014 90b6 a917 6a36 bed7 97b7
000000e0: e029 cdb7 aace 8b37 a63a 6737 2a09 e6b6
000000f0: c061 8bb7 a99b ec36 b754 66b6 73da 77b7
00000100: 2dbe 1db7 d131 93b5 7786 36b6 2915 bbb7
00000110: d879 3737 d23c ddb6 7aff 5637 cac4 96b5
00000120: cbb9 7b37 329d 2db7 c85f 9037 bff7 a937
00000130: 5176 09b7 4369 a0b7 5f2a 1037 5b1f 64b7
00000140: 8c5f 93b5 2f6c d937 c4bf 24b5 f41e 17b7
00000150: 65be 3db7 30f0 c236 cf27 bc36 35a6 02b7
00000160: 751d bd37 6a77 03b7 cead 7836 379c a737
00000170: ed6a 8ab7 530a ad36 f965 5fb7 7a09 afb7
00000180: 92b2 bdb6 75e2 a9b7 359d 9b37 e6e9 01b7
00000190: cd1e 57b7 5dde a837 cd90 95b7 3339 7536
000001a0: 1127 9ab7 f57c 2bb7 57cb 2036 bebe e4b6
000001b0: f579 42b7 7885 22b7 99ab 33b7 49cf 13b7
000001c0: 9324 b236 0cb2 9937 1887 f736 538a 48b6
000001d0: f8d6 c9b7 64ba 30b7 18cb c2b7 92c7 9fb5
000001e0: 2a33 4c37 d8ce f0b5 4ce2 b235 61bf bb36
000001f0: be4f e836 52ad b037 075a f136 2183 54b7
00000200: d59b 7a36 006c 6eb5 2d45 3bb7 1c26 0636
00000210: cf2b beb6 b07b 3eb7 b0c6 e4b6 f90c 3c37
00000220: c01a 03b7 5abd e236 fed4 48b7 2689 53b7
00000230: fe0a f937 8fa4 bd37 28ee c3b6 52fa 99b7
00000240: 6367 5eb7 8a84 a3b7 74e9 b831 e7f1 1637
00000250: fab0 48b6 53fb 2237 fb62 c0b6 8f70 4eb7
00000260: e90f 1336 6012 31b7 bbea ae37 0557 7935
00000270: 2a71 60b7 ebd0 9337 7110 93b6 8c7a 89b7
00000280: 6697 4f37 aa40 45b7 4f7b 0137 05d4 7eb7
00000290: 17a1 d6b6 8fd5 0136 e94a 0037 ec8a 3037
000002a0: 1179 f2b6 437f 08b7 810b 0837 7e28 b8b7
000002b0: ada0 21b7 e579 6737 5d40 2137 82c6 9036
000002c0: 3351 6eb7 8127 5636 53e5 20b7 c2b1 3237
000002d0: 2264 a9b7 aaa2 e6b6 44ab 26b7 db1b 9b36
000002e0: d381 84b6 6f96 01b6 2da3 28b7 209e ceb6
000002f0: c5d5 b0b7 fb31 ea36 50be 2c36 5088 6f37
00000300: 7edd 1d36 d3ef 43b7 0231 0fb7 9d90 09b7
00000310: df82 bb36 7908 55b7 2ad2 8236 3ad3 90b7
00000320: c30b 9137 1d98 cc36 b528 aeb7 cbb8 b5b5
00000330: 1a91 0bb7 617d 58b5 0d68 c837 8149 8535
00000340: 5911 1fb7 0dc7 7c37 ca65 a5b7 762c 99b7
00000350: b3f0 1cb5 c705 c935 2e97 a035 728e a2b7
00000360: fdd2 4137 faa5 a537 16d5 be36 48e6 e2b6
00000370: e419 80b6 7daa 07b7 2fbe 27b7 f612 07b7
00000380: dee8 4837 71e8 ea36 3a08 40b7 8ae2 8c37
00000390: a262 c7b7 8949 9c37 414c 6437 cdd5 bd36
000003a0: cb64 63b6 d1bb 1837 9cf4 7d36 4c8c 2a37
000003b0: 0697 48b7 9dd6 3137 1b58 c7b6 0138 dab7
000003c0: 1fd5 18b7 1429 0237 7d0f 4a35 f32d 0ab8
000003d0: 50c7 9fb6 44a1 07b7 736d d7b7 d04b 17b6
000003e0: 8073 edb6 3b7f afb7 f138 90b7 cd5f f136
000003f0: 6245 a236 a52c 0db5 cd91 b737 0869 4a37

model.layer.2.weight f4 [256, 256]
0.034547925 0.019397393 0.028138274 -4.5842466e-05 -0.012870619 -0.019642752 0.045545664 0.06930846
-0.018511873 -0.055659022 -0.010578334 0.0109334085 -0.059036396 -0.02412099 0.026397437 0.005957338
-0.015686762 -0.05445129 -0.06948954 0.003583437 0.01770949 -0.04241163 0.0075127673 -0.033221927
0.0025161456 -0.0011570273 0.015861358 -0.059778173 0.046366956 -0.052287884 0.0048900424 0.00422002
0.0010163096 0.018771524 0.02639482 -0.014667757 0.063656926 -0.015636878 -0.027276257 0.042609926
-0.04530633 0.0045200866 0.0339234 -0.005974378 0.00517588 0.015120893 -0.035117652 -0.0038174125
0.00059823936 -0.043959826 -0.083832085 0.01784477 -0.0061828955 -0.01332924 -0.010883475 -0.0018997174
-0.047457866 0.018066552 0.023555836 -0.023209583 0.016734773 0.053136405 -0.003843227 0.019289257
0.029774552 -0.067753814 -0.008637556 0.039465696 -0.024266485 -0.00794636 0.0040537636 0.012121865
0.03329412 0.013186966 -0.0015833944 -0.034294806 -0.034015447 -0.03563237 -0.019810067 0.0034419233
0.008873515 -0.06334224 0.016433576 -0.007622019 0.02341343 0.016277114 0.031294473 -0.065751836
0.03963396 0.0033029502 -0.017552072 0.0048005464 0.037277505 -0.019800175 0.033466198 0.014735574
0.015692124 -0.0010463386 0.029194854 0.038657703 -0.03388109 0.022294546 -0.020272557 0.04322902
-0.018165382 0.038535696 0.038122773 -0.04119112 0.053351946 -0.034161136 0.0023893034 -0.0641241
0.010149392 -0.037705075 0.038859945 -0.021715097 -0.056321867 0.019039856 0.045811366 -0.044347513
-0.0015728308 -0.008794157 -0.01358647 -0.044783723 -0.0007551687 -0.0052444814 0.06881618 -0.004141268
-0.01630778 -0.03039877 -0.017410202 0.018278856 -0.017787425 0.0098818075 0.05766929 -0.03253287
-0.05002153 -0.027733296 0.015384013 -0.0095817335 0.022709493 0.04500857 0.009408686 0.028824776
0.011011585 -0.025890611 0.013092028 -0.0063502896 -0.019660447 -0.014925932 -0.016446648 -0.007088056
0.0066264104 0.0065847556 -0.0037806034 0.006249399 0.016098931 -0.034571216 0.0131190475 -0.043684516
-0.040764622 0.009312285 -0.0062610367 0.035974864 -0.020312902 0.0053429063 0.014109919 0.014251064
-0.010037423 -0.04496129 -0.0075398395 -0.0439687 -0.05335567 0.02549856 -0.027076127 -0.025714371
0.0111750895 -0.046396967 0.011161127 -0.0022059884 0.023698892 -0.027787074 0.0406273 -0.012511628
-0.034199577 0.010163929 -0.0067644063 -0.014720675 -0.03687551 -0.019890578 0.007715087 0.04190874
-0.00013277658 -0.011946429 -0.10055669 -0.050408807 0.043405484 0.08447626 -0.009272208 -0.032416463
0.00873929 -0.041001685 -0.006221108 -0.015973559 -0.0026074764 0.03591288 0.007972129 0.025283374
-0.006856001 0.02033436 -0.033072922 -0.030533435 0.014559151 0.02776512 -0.0489988 0.042417146
0.099261515 -0.01648838 -0.029575026 0.050207622 -0.03822938 0.027531546 -0.029428592 0.002800572
-0.01941096 0.01137658 0.005060109 -0.005108863 0.017214417 -0.0048570246 0.0005025314 -0.050194994
0.060687806 -0.010077027 -0.008159145 -0.024601195 -0.006881256 0.0020110668 0.0937041 -0.004054237
-0.023205888 0.013749342 -0.0032940367 -0.049908105 -0.0031119136 0.053973023 -0.022972135 -0.020249564
0.031235026 -0.0069330405 0.014910014 0.02455383 -0.03719836 -0.027287282 -0.01689207 -0.04242715
00000000: 2082 0d3d 48e7 9e3c 3d82 e63c f946 40b8
00000010: 4adf 52bc d6e9 a0bc 178e 3a3d 98f1 8d3d
00000020: 36a6 97bc b7fa 63bd c050 2dbc 0a22 333c
00000030: 26d0 71bd 6299 c5bc 703f d83c c635 c33b
00000040: 8681 80bc 5108 5fbd 8850 8ebd 19d8 6a3b
00000050: 7e13 913c d1b7 2dbd a92d f63b b713 08bd
00000060: ebe5 243b 65a7 97ba aeef 813c f5d9 74bd
00000070: 47eb 3d3d d22b 56bd a63c a03b 1848 8a3b
00000080: b135 853a bdc6 993c f339 d83c 0851 70bc
00000090: 905e 823d e918 80bc 7572 dfbc bf87 2e3d
000000a0: 2193 39bd 3c1d 943b 43f3 0a3d b7c4 c3bb
000000b0: 6e9a a93b 9fbd 773c 87d7 0fbd 8e2d 7abb
000000c0: 2ad3 1c3a 380f 34bd 28b0 abbd 322f 923c
000000d0: e399 cabb e262 5abc 9a50 32bc f0ff f8ba
000000e0: 2e63 42bd 4e00 943c 2bf8 c03c 0622 bebc
000000f0: 5d17 893c 8fa5 593d a6de 7bbb 8104 9e3c
00000100: c3e9 f33c 83c2 8abd 8984 0dbc c8a6 213d
00000110: 82ca c6bc 7331 02bc 6fd5 843b c99a 463c
00000120: 6a5f 083d 250e 583c e689 cfba b678 0cbd
00000130: c853 0bbd 3ff3 11bd b948 a2bc e491 613b
00000140: 3862 113c 94b9 81bd b59f 863c 21c2 f9bb
00000150: 86cd bf3c 9557 853c a22e 003d e6a8 86bd
00000160: 3857 223d 4f76 583b 5dc9 8fbc e74d 9d3b
00000170: 4cb0 183d fa33 a2bc da13 093d 7a6d 713c
00000180: c58c 803c 4c25 89ba 0c2a ef3c 8a57 1e3d
00000190: e6c6 0abd 0da3 b63c a212 a6bc ea10 313d
000001a0: 91cf 94bc 9bd7 1d3d a026 1c3d 05b8 28bd
000001b0: 9287 5a3d 8cec 0bbd dc95 1c3b 7f53 83bd
000001c0: a349 263c a370 1abd 9b2b 1f3d dce3 b1bc
000001d0: c2b1 66bd 79f9 9b3c b3a4 3b3d bda5 35bd
000001e0: 7227 ceba 5e15 10bc c999 5ebc 236f 37bd
000001f0: 83f6 45ba e6d9 abbb 7fef 8c3d 79b3 87bb
00000200: e597 85bc d706 f9bc d79f 8ebc 8abd 953c
00000210: efb6 91bc 4ee7 213c a236 6c3d 3041 05bd
00000220: 60e3 4cbd f030 e3bc 3a0d 7c3c b4fc 1cbc
00000230: 4209 ba3c e85a 383d e426 1a3c f021 ec3c
00000240: ef69 343c 8c18 d4bc f27f 563c 1716 d0bb
00000250: f20e a1bc e58b 74bc 1fbb 86bc ec42 e8bb
00000260: 5c22 d93b efc4 d73b 00c4 77bb c2c7 cc3b
00000270: e8e1 833c 8c9a 0dbd 46f1 563c 89ee 32bd
00000280: cef8 26bd 8e92 183c 6229 cdbb 615a 133d
00000290: 3e67 a6bc 8c13 af3b 4a2d 673c 4b7d 693c
000002a0: 0174 24bc 5429 38bd c210 f7bb 8618 34bd
000002b0: 7a8b 5abd 5be2 d03c c1ce ddbc f2a6 d2bc
000002c0: b917 373c bf0a 3ebd 29dd 363c 5892 10bb
000002d0: 2e24 c23c b8a1 e3bc d068 263d 92fd 4cbc
000002e0: db14 0cbd 9c86 263c f4a7 ddbb fc2e 71bc
000002f0: c60a 17bd 91f1 a2bc d7ce fc3b 80a8 2b3d
00000300: f139 0bb9 f4ba 43bc aaf0 cdbd 7779 4ebd
00000310: f3c9 313d e401 ad3d 76ea 17bc 20c7 04bd
00000320: 3d2f 0f3c 62f1 27bd 70da cbbb fbda 82bc
00000330: 32e2 2abb 6219 133d 889d 023c 141f cf3c
00000340: 4ea8 e0bb 3e94 a63c 7977 07bd 4121 fabc
00000350: 8189 6e3c ad73 e33c f7b2 48bd 9abd 2d3d
00000360: 9f49 cb3d a412 87bc 5347 f2bc 82a6 4d3d
00000370: 6996 1cbd d689 e13c 3b14 f1bc cd89 373b
00000380: bc03 9fbc d664 3a3c 45cf a53b 4068 a7bb
00000390: 4005 8d3c ad27 9fbb 50bc 033a 4499 4dbd
000003a0: c793 783d 1d1a 25bc efad 05bc 7288 c9bc
000003b0: 297c e1bb 1acc 033b efe7 bf3d 68d9 84bb
000003c0: 461a bebc ec44 613c c4e0 57bb 716c 4cbd
000003d0: 3ff1 4bbb d112 5d3d 0f30 bcbc 6ae2 a5bc
000003e0: 99e0 ff3c 8f2e e3bb 2249 743c 1d25 c93c
000003f0: 4f5d 18bd 9489 dfbc 3d61 8abc 17c8 2dbd
