results/qvpo_HalfCheetah-v3/actor_25_04_20_04_58_18_0.pth (torch, 665521 bytes, 24 tensors)

betas f4 [20]
0.007992721 0.020074995 0.032253854 0.044680916 0.05752022 0.07095724 0.085210435 0.10054672
0.11730362 0.13592206 0.15699708 0.18135923 0.21021153 0.24537154 0.289725 0.34813723
0.42943394 0.5510237 0.7484761 0.999
00000000: e7f3 023c 5174 a43c 9e1c 043d 5603 373d
00000010: 529a 6b3d 0852 913d cf82 ae3d 70eb cd3d
00000020: e13c f03d 272f 0b3e d8c3 203e 3cb6 393e
00000030: b141 573e ad42 7b3e d656 943e 0b3f b23e
00000040: c4de db3e e40f 0d3f 219c 3f3f 77be 7f3f

alphas_cumprod f4 [20]
0.99200726 0.9720927 0.9407389 0.8987059 0.84701216 0.7869105 0.7198575 0.64747816
0.57152665 0.4938436 0.41631156 0.3408096 0.2691675 0.20312147 0.1442721 0.09404561
0.05365923 0.024091722 0.0060596443 6.059566e-06
00000000: 30f4 7d3f 11db 783f 44d4 703f 9711 663f
00000010: cad5 583f f772 493f 9548 383f 21c1 253f
00000020: 924f 123f 11d9 fc3e ca26 d53e 997e ae3e
00000030: 53d0 893e 13ff 4f3e 11bc 133e fc9a c03d
00000040: c8c9 5b3d 015c c53c fb8f c63b 4753 cb36

alphas_cumprod_prev f4 [20]
1.0 0.99200726 0.9720927 0.9407389 0.8987059 0.84701216 0.7869105 0.7198575
0.64747816 0.57152665 0.4938436 0.41631156 0.3408096 0.2691675 0.20312147 0.1442721
0.09404561 0.05365923 0.024091722 0.0060596443
00000000: 0000 803f 30f4 7d3f 11db 783f 44d4 703f
00000010: 9711 663f cad5 583f f772 493f 9548 383f
00000020: 21c1 253f 924f 123f 11d9 fc3e ca26 d53e
00000030: 997e ae3e 53d0 893e 13ff 4f3e 11bc 133e
00000040: fc9a c03d c8c9 5b3d 015c c53c fb8f c63b

sqrt_alphas_cumprod f4 [20]
0.99599564 0.9859476 0.969917 0.948001 0.9203327 0.8870797 0.84844416 0.80466026
0.75599384 0.7027401 0.6452221 0.58378905 0.51881355 0.45068997 0.37983167 0.30666855
0.23164463 0.15521508 0.07784372 0.0024616185
00000000: 92f9 7e3f 1067 7c3f 7b4c 783f 32b0 723f
00000010: ec9a 6b3f a817 633f a333 593f 37fe 4d3f
00000020: d088 413f c6e6 333f 472d 253f 3373 153f
00000030: f7d0 043f d6c0 e63e 4c79 c23e a903 9d3e
00000040: 4034 6d3e b4f0 1e3e 876c 9f3d 1b53 213b

sqrt_one_minus_alphas_cumprod f4 [20]
0.089402154 0.16705482 0.243436 0.31826735 0.39113662 0.46161622 0.5292849 0.59373546
0.65457875 0.71144676 0.76399505 0.8119054 0.8548874 0.8926805 0.9250556 0.9518164
0.9728005 0.9878807 0.9969656 0.99999696
00000000: 7a18 b73d 6b10 2b3e 4947 793e f0f3 a23e
00000010: 0f43 c83e f658 ec3e 377f 073f 0cff 173f
00000020: 7992 273f 6021 363f 2e95 433f 08d9 4f3f
00000030: e7d9 5a3f b686 643f 72d0 6c3f 3daa 733f
00000040: 7409 793f c0e5 7c3f 2339 7f3f cdff 7f3f

log_one_minus_alphas_cumprod f4 [20]
-4.8292212 -3.5788665 -2.8258026 -2.2897272 -1.8773968 -1.5460429 -1.2724569 -1.0426427
-0.8475267 -0.68090945 -0.53838795 -0.41674283 -0.31357104 -0.22705303 -0.15580282 -0.09876635
-0.05515252 -0.024386672 -0.0060780807 -6.0796924e-06
00000000: fb88 9ac0 260c 65c0 f3d9 34c0 e48a 12c0
00000010: 8a4e f0bf bce4 c5bf dedf a2bf 5175 85bf
00000020: 83f7 58bf 1550 2ebf cbd3 09bf 515f d5be
00000030: 628c a0be 9780 68be c68a 1fbe 0346 cabd
00000040: 9ce7 61bd 8fc6 c7bc a32a c7bb 2900 ccb6

sqrt_recip_alphas_cumprod f4 [20]
1.0040205 1.0142527 1.0310161 1.0548512 1.0865636 1.1272943 1.178628 1.2427605
1.3227621 1.4230013 1.5498539 1.7129476 1.9274746 2.21882 2.632745 3.2608495
4.3169575 6.4426727 12.8462515 406.2368
00000000: be83 803f 08d3 813f 56f8 833f 5d05 873f
00000010: 8414 8b3f 2e4b 903f 48dd 963f c712 9f3f
00000020: 4550 a93f e824 b63f 9d61 c63f de41 db3f
00000030: 7db7 f63f 2601 0e40 e57e 2840 c2b1 5040
00000040: 8424 8a40 602a ce40 3f8a 4d41 4f1e cb43

sqrt_recipm1_alphas_cumprod f4 [20]
0.08976144 0.16943571 0.25098655 0.33572468 0.42499477 0.5203774 0.62382996 0.737871
0.865852 1.0123895 1.1840807 1.3907515 1.6477739 1.9806975 2.4354358 3.1037297
4.199538 6.364592 12.807271 406.23553
00000000: d9d4 b73d 8e80 2d3e 4f81 803e 1be4 ab3e
00000010: ea98 d93e 7437 053f 52b3 1f3f 1de5 3c3f
00000020: 7aa8 5d3f fb95 813f f58f 973f 2504 b23f
00000030: 41ea d23f 7f87 fd3f 2ede 1b40 82a3 4640
00000040: 9e62 8640 bdaa cb40 95ea 4c41 261e cb43

posterior_variance f4 [20]
0.0 0.0057495437 0.01518903 0.026140116 0.03808446 0.050943825 0.06481505 0.07990259
0.09651028 0.11506122 0.13614298 0.1605868 0.18960492 0.2250349 0.26980028 0.32883638
0.41110724 0.5343292 0.73489726 0.99295247
00000000: 0000 0000 ab66 bc3b 69db 783c cc23 d63c
00000010: 73fe 1b3d 79aa 503d c1bd 843d f8a3 a33d
00000020: 2fa7 c53d 38a5 eb3d 1169 0b3e de70 243e
00000030: cb27 423e 8c6f 663e 4323 8a3e 3e5d a83e
00000040: a67c d23e ccc9 083f 3a22 3c3f 2232 7e3f

posterior_log_variance_clipped f4 [20]
-46.0517 -5.1586347 -4.187182 -3.644284 -3.267949 -2.9770317 -2.7362175 -2.526947
-2.3381057 -2.1622908 -1.9940495 -1.8289206 -1.6628127 -1.4914998 -1.3100733 -1.112195
-0.8889012 -0.6267432 -0.3080246 -0.007072485
00000000: f134 38c2 8913 a5c0 65fd 85c0 f33b 69c0
00000010: 1426 51c0 b087 3ec0 301e 2fc0 80b9 21c0
00000020: 86a3 15c0 f962 0ac0 043d ffbf 121a eabf
00000030: 0cd7 d4bf 77e9 bebf 7bb0 a7bf 685c 8ebf
00000040: 078f 63bf 3e72 20bf 66b5 9dbe 4ec0 e7bb

posterior_mean_coef1 f4 [20]
0.9999971 0.7164648 0.53661877 0.42783123 0.3564285 0.306464 0.26982144 0.2419943
0.22029272 0.20301281 0.1890189 0.1775162 0.16791697 0.15975092 0.15259075 0.1459605
0.13916118 0.13079269 0.11688305 0.077766344
00000000: cfff 7f3f 3d6a 373f d95f 093f b20c db3e
00000010: cc7d b63e d9e8 9c3e 0926 8a3e 5bcd 773e
00000020: 6a94 613e 97e2 4f3e 2c8e 413e cfc6 353e
00000030: 6df2 2b3e bf95 233e c040 1c3e ab76 153e
00000040: 4580 0e3e 85ee 053e 6160 ef3d f643 9f3d

posterior_mean_coef2 f4 [20]
0.0 0.2835139 0.46326464 0.57182044 0.6427814 0.69201046 0.7275179 0.7536718
0.7729793 0.7868927 0.79619277 0.8011557 0.80158293 0.7966954 0.78481936 0.7626187
0.72312224 0.64975595 0.49242297 0.031431142
00000000: 0000 0000 bc28 913e 0631 ed3e d362 123f
00000010: 528d 243f 9927 313f 9d3e 3a3f a3f0 403f
00000020: f9e1 453f cd71 493f 4ad3 4b3f 8a18 4d3f
00000030: 8a34 4d3f 3bf4 4b3f ece9 483f fb3a 433f
00000040: 8a1e 393f 6856 263f dd1e fc3e f1bd 003d

model.time_mlp.1.weight f4 [256, 32]
-0.090277 -0.027504118 -0.15598851 0.0042899824 0.045581363 -0.09287678 -0.030659012 -0.05529541
-0.09100536 0.114434496 -0.08556118 -0.0139638 0.15715306 -0.0019490124 -0.13360123 -0.025953721
-0.0010445957 -0.0024615787 -0.08503055 0.18627337 -0.1138212 -0.016333358 0.21620987 0.0653751
0.09947616 0.06951632 -0.0011521026 -0.13550726 -0.102657154 0.018411899 0.010765749 -0.04718022
0.07973163 -0.030247262 -0.05879858 0.02524461 0.0052915504 0.017421018 -0.0108011365 0.114091754
-0.08716314 0.11887599 0.17138405 0.20071794 0.037208103 0.089390986 0.19293973 0.01848883
-0.11290196 0.009074625 -0.07829881 -0.094859675 -0.11757074 0.012196647 -0.028497832 0.054066688
0.1573878 -0.21606523 -0.008531459 -0.0011404979 0.15398909 -0.072825305 -0.04446937 -0.011697782
-0.08929484 -0.0071955468 0.06469871 0.014348381 -0.09883027 -0.18969066 -0.049457736 -0.0715335
-0.09531319 -0.09128251 -0.0398434 0.014263522 0.10049585 -0.0068509453 0.12855655 -0.1041451
-0.027027411 0.106304795 0.07935062 0.10395363 -0.04656942 0.021061989 -0.013572812 0.004163901
0.007818986 -0.058737423 0.055908613 -0.11272922 -0.09253604 -0.16262934 0.04473628 -0.050027713
0.006510339 -0.026601614 0.018164013 0.11704141 -0.103735715 -0.028590325 -0.11752839 -0.07518796
-0.12886165 0.104941055 0.02568481 0.088418394 0.082914226 0.048462495 0.13273795 -0.10716104
0.05887978 0.061739553 0.023052245 -0.027962254 0.10612425 0.0023192 0.027835226 -0.015608588
-0.032967065 -0.019872718 -0.05814809 -0.060108606 0.00026076357 -0.02146292 -0.23352976 0.057490107
-0.033552714 -0.027195718 0.0009756455 0.055498485 0.11099911 -0.055816725 -0.17623317 -0.04097453
0.017180854 -0.02748377 -0.091887884 -0.16604917 0.031361353 -0.13149524 -0.017293075 0.051651206
-0.05432269 0.030726857 0.08740724 0.10372792 0.036928587 -0.05087315 -0.004479186 -0.0376575
-0.012447438 -0.10347676 -0.12105088 -0.008379315 0.033636644 0.12205293 -0.022116592 0.10253058
0.01920085 -0.017949697 -0.10841792 0.0739089 -0.046616275 0.023252655 0.017451225 -0.09579343
0.046119735 -0.032222163 0.06866145 -0.0041348143 -0.02116789 0.12632528 0.0420762 0.11546406
-0.09007153 -0.06405636 0.19291008 -0.048123296 -0.0074914675 -0.18332219 0.008538375 0.03932773
0.05303584 0.031259563 -0.20727456 -0.056032438 0.06475677 -0.04915351 0.05376504 0.04599655
0.14439008 -0.08728825 0.1292655 0.031691846 -0.05448597 0.059985973 0.025803342 0.11836785
-0.029565021 -0.03392732 -0.010324623 -0.02034884 0.091686666 -0.0067194733 0.09095563 0.075797155
-0.0011499109 0.026621547 0.028548274 -0.16185828 -0.03736388 0.015807362 0.112148635 0.057377055
-0.048451114 -0.15391064 -0.094769485 0.011694928 0.028355397 0.072434604 0.009832656 -0.077823825
-0.058316883 -0.053219225 -0.06099695 -0.05640731 0.09019715 0.047177467 -0.025954371 0.12844197
0.07241013 -0.04654531 -0.0042880126 0.07828487 -0.0812592 0.1153117 -0.07915589 -0.032961216
-0.11981333 0.13882305 0.04541797 0.05673469 0.02490946 0.06055471 -0.10748275 0.012992771
0.067743026 -0.09357894 -0.04902948 -0.1265324 0.121241175 0.06071742 -0.031950254 0.1688653
00000000: 26e3 b8bd 5150 e1bc 74bb 1fbe fb92 8c3b
00000010: 86b3 3a3d 2e36 bebd 9c28 fbbc 717d 62bd
00000020: 0561 babd a25c ea3d b33a afbd 6cc8 64bc
00000030: bbec 203e 0176 ffba c3ce 08be e69c d4bc
00000040: d1ea 88ba 7052 21bb 7f24 aebd 72be 3e3e
00000050: 171b e9bd 89cd 85bc 1f66 5d3e 61e3 853d
00000060: 28ba cb3d 935e 8e3d 2602 97ba 6ac2 0abe
00000070: ea3d d2bd 8dd4 963c d362 303c 0c40 41bd
00000080: 564a a33d 1bc9 f7bc c8d6 70bd c9cd ce3c
00000090: be64 ad3b 86b6 8e3c 40f7 30bc f0a8 e93d
000000a0: 9782 b2bd 4175 f33d 4d7f 2f3e 0189 4d3e
000000b0: 8667 183d 9f12 b73d fe91 453e e375 973c
000000c0: 2539 e7bd bcad 143c 205b a0bd ca45 c2bd
000000d0: eec8 f0bd 72d4 473c 4974 e9bc 0875 5d3d
000000e0: 442a 213e 3440 5dbe 88c7 0bbc c27c 95ba
000000f0: 51af 1d3e 6f25 95bd 8425 36bd 0ea8 3fbc
00000100: 37e0 b6bd 9fc8 ebbb c280 843d 7915 6b3c
00000110: 8667 cabd 453e 42be 3294 4abd 2880 92bd
00000120: 9033 c3bd 53f2 babd d532 23bd 8cb1 693c
00000130: c5d0 cd3d e57d e0bb 54a4 033e 074a d5bd
00000140: 9768 ddbc 54b6 d93d 9482 a23d a4e5 d43d
00000150: 93bf 3ebd 318a ac3c 8060 5ebc 5571 883b
00000160: 341b 003c a796 70bd 6e00 653d 94de e6bd
00000170: 8983 bdbd 4e88 26be 643d 373d dce9 4cbd
00000180: af54 d53b a1eb d9bc b2cc 943c 68b3 ef3d
00000190: 6473 d4bd 4236 eabc b9b2 f0bd 25fc 99bd
000001a0: 4ff4 03be 56eb d63d f368 d23c b414 b53d
000001b0: efce a93d 9c80 463d 75ec 073e 3f77 dbbd
000001c0: ed2b 713d 9de2 7c3d 10d8 bc3c 1911 e5bc
000001d0: ac57 d93d b8fd 173b b306 e43c 2abb 7fbc
000001e0: 7908 07bd 1ccc a2bc b12c 6ebd 7134 76bd
000001f0: 18b7 8839 01d3 afbc 6d22 6fbe bf7a 6b3d
00000200: 926e 09bd 8ec9 debc 76c2 7f3a 6152 633d
00000210: 8053 e33d 14a0 64bd 7876 34be e9d4 27bd
00000220: ddbe 8c3c a525 e1bc b72f bcbd cb08 2abe
00000230: c374 003d b0a6 06be 35aa 8dbc 3790 533d
00000240: 7881 5ebd e4b6 fb3c 9102 b33d 4e6f d43d
00000250: 6e42 173d 5d60 50bd 23c6 92bb c03e 1abd
00000260: 57f0 4bbc a0eb d3bd 86e9 f7bd 6549 09bc
00000270: 94c6 093d e3f6 f93d db2d b5bc 8dfb d13d
00000280: 1a4b 9d3c 3e0b 93bc 370a debd 8d5d 973d
00000290: b5f0 3ebd 5a7c be3c dff5 8e3c 592f c4bd
000002a0: 0ce8 3c3d 63fb 03bd 609e 8c3d 567d 87bb
000002b0: 4868 adbc 6a5b 013e 1858 2c3d 6c78 ec3d
000002c0: 6c77 b8bd fb2f 83bd 388a 453e ef1c 45bd
000002d0: fc7a f5bb d0b8 3bbe 8ae4 0b3c 1d16 213d
000002e0: 1c3c 593d 070a 003d c83f 54be 4582 65bd
000002f0: 339f 843d 3155 49bd bb38 5c3d e166 3c3d
00000300: feda 133e 2fc4 b2bd 2d5e 043e 4fcf 013d
00000310: ae2c 5fbd dab3 753d 8861 d33c d86a f23d
00000320: 5832 f2bc 60f7 0abd 9c28 29bc 9cb2 a6bc
00000330: 38c6 bb3d 072f dcbb f246 ba3d 8a3b 9b3d
00000340: 9bb8 96ba 6e15 da3c 12de e93c 2dbe 25be
00000350: de0a 19bd 717e 813c 2fae e53d 3404 6b3d
00000360: ad74 46bd c09a 1dbe 8116 c2bd 159c 3f3c
00000370: 9449 e83c 9858 943d 2619 213c 1962 9fbd
00000380: afdd 6ebd 67fc 59bd f0d7 79bd 5a0b 67bd
00000390: 49b9 b83d 293d 413d 439e d4bc 4b86 033e
000003a0: c34b 943d 4ca6 3ebd 7582 8cbb d153 a03d
000003b0: 396b a6bd 8a28 ec3d 7c1c a2bd 5702 07bd
000003c0: b160 f5bd a127 0e3e 3108 3a3d a262 683d
000003d0: ed0e cc3c 3708 783d eb1f dcbd a2df 543c
000003e0: dbbc 8a3d 51a6 bfbd 23d3 48bd b691 01be
000003f0: 4b4d f83d d4b2 783d 45de 02bd 06eb 2c3e

model.time_mlp.1.bias f4 [256]
-4.6604643e-07 -1.4173128e-07 7.769042e-08 9.356651e-10 -7.780692e-08 1.025972e-07 1.0272581e-07 5.455991e-07
2.9513014e-08 1.2389035e-07 -5.2805365e-08 2.8843573e-07 -3.197931e-07 3.11077e-08 2.6287466e-07 -8.773388e-08
8.068249e-08 -6.378195e-08 1.5815663e-08 5.5134848e-08 1.849986e-07 5.639994e-07 2.4593502e-08 3.849828e-07
-3.695306e-07 8.934686e-09 -2.3437444e-08 -2.2381633e-07 -2.6775862e-07 -2.0783187e-07 3.96417e-07 -7.658327e-09
-1.0146417e-07 4.152382e-07 2.626623e-07 -1.2868473e-07 1.1704618e-08 -7.3956194e-08 3.1915116e-07 2.3082097e-07
-6.8387074e-08 5.338476e-08 -8.168896e-08 -2.3984546e-07 -1.8812877e-08 -9.3014016e-08 2.75567e-07 -2.792941e-07
9.046357e-08 -9.4589595e-08 1.0425163e-08 1.4496008e-07 4.814338e-07 3.8298842e-07 6.0853885e-08 8.403114e-08
-2.1671424e-07 4.7733215e-07 -2.778687e-07 6.98706e-08 3.936798e-07 -9.4843955e-08 -1.483673e-07 -2.4666846e-07
-2.2879543e-07 -3.975024e-08 1.8659462e-07 -2.9945036e-07 -1.9609104e-07 3.0487826e-07 -1.2570975e-07 4.926353e-07
-5.3551563e-08 7.711182e-08 3.9225125e-07 -4.64661e-08 -7.3211204e-08 -1.7905509e-07 1.2431448e-07 3.264845e-07
7.058643e-08 1.09823944e-07 -1.4581452e-07 -1.1164491e-07 -4.9983765e-07 4.2744247e-07 -1.9451184e-07 -2.355737e-08
1.8059289e-07 -3.3647848e-07 -2.9272582e-07 1.3911281e-07 -2.8094013e-07 1.3192317e-07 -7.6295725e-09 1.562295e-07
1.955237e-08 -3.5243477e-08 4.204144e-07 7.004308e-08 -1.8267069e-07 -2.3352852e-07 -1.3648256e-07 3.6506655e-08
-3.2595173e-07 3.0358724e-08 1.488283e-08 1.4577083e-07 -2.2568263e-07 -9.27584e-08 -7.883459e-08 7.474172e-07
-1.1569624e-08 -1.1954977e-07 9.237758e-08 -7.0212785e-08 3.1576465e-07 -1.0874687e-08 2.0268051e-07 -1.010391e-07
8.723532e-08 4.0755033e-08 -1.0942921e-07 5.3467706e-09 1.3714734e-07 4.191974e-07 3.319916e-08 3.8566188e-07
-5.547842e-07 -1.634937e-07 3.4741127e-08 2.2610861e-07 2.1868831e-07 7.075234e-08 5.2023594e-08 9.652608e-08
-2.4849044e-07 8.1972914e-08 -2.1841548e-07 3.0489335e-07 1.0140728e-07 1.9153623e-07 3.7676946e-07 4.769374e-07
-2.0853989e-07 -5.8496474e-09 -8.33447e-09 -8.6545924e-08 6.3811734e-07 5.265449e-07 5.5795116e-08 7.064757e-07
-5.6053075e-08 3.19641e-07 -5.064475e-08 6.428772e-10 3.1086742e-07 -2.631949e-07 1.0585907e-07 1.0076251e-07
1.2147707e-07 6.2936046e-08 -6.023146e-10 1.04582874e-07 1.8387752e-07 4.4395566e-08 6.690349e-07 -3.014527e-07
-4.3514197e-07 1.7476552e-07 3.3397185e-07 1.7186638e-07 4.3742452e-07 2.9254556e-07 -1.2043235e-07 3.1285747e-08
-1.659214e-07 2.2502381e-07 8.91464e-08 -4.7771092e-08 -1.56795e-07 2.554396e-07 -2.5593567e-07 6.5772223e-09
1.2482364e-07 3.156585e-07 1.2602413e-07 -2.2208707e-07 -2.6339142e-08 8.4276515e-08 2.6767722e-07 3.0421713e-08
-1.052795e-07 1.9203569e-07 -2.691935e-07 -2.404449e-07 4.1844277e-07 -1.356032e-07 2.0154562e-07 -1.6545032e-07
2.4921366e-08 1.215808e-08 1.4036796e-07 -5.1022486e-08 -2.0634926e-07 3.1466925e-07 3.935402e-07 -2.56223e-07
-1.7812013e-09 -1.0408459e-07 -1.582488e-07 -4.5413554e-08 4.557288e-08 -2.4741618e-07 -1.5094346e-07 5.9678115e-07
-5.914136e-07 -8.231051e-07 -7.119721e-07 1.139412e-08 9.69661e-08 2.1347064e-07 -4.2362754e-07 -3.4238795e-08
-1.337328e-07 1.6351106e-07 -1.7202235e-07 -1.3427127e-07 2.3413504e-07 -5.0839833e-07 -2.0441796e-07 -2.3455162e-07
8.2196925e-07 2.2554855e-07 1.2106274e-07 -3.404363e-07 7.281395e-08 -4.0082213e-09 3.1669682e-08 -4.5988435e-07
2.6271292e-07 -6.031205e-08 5.1632054e-07 -4.574651e-08 -7.910925e-07 -4.2743827e-07 -2.2932774e-07 3.4260722e-08
-2.41862e-07 -2.6869807e-07 1.3246114e-07 -3.374113e-07 -8.618795e-09 -8.663253e-08 2.0985165e-07 1.184047e-07
00000000: ef34 fab4 cc2e 18b4 c3d6 a633 ca98 8030
00000010: ce16 a7b3 6853 dc33 1c9a dc33 4975 1235
00000020: ce83 fd32 b806 0534 1dcc 62b3 4eda 9a34
00000030: 07b0 abb4 479b 0533 3821 8d34 3668 bcb3
00000040: ab43 ad33 7ff8 88b3 03db 8732 68cd 6c33
00000050: 07a4 4634 be65 1735 af41 d332 a2af ce34
00000060: e663 c6b4 2a7f 1932 7c53 c9b2 2a52 70b4
00000070: 77c0 8fb4 6428 5fb4 23d3 d434 ae91 03b2
00000080: 84e4 d9b3 e7ed de34 0804 8d34 972c 0ab4
00000090: 7415 4932 d9d1 9eb3 cd57 ab34 96d7 7734
000000a0: 31dc 92b3 2a49 6533 fb6c afb3 1cc4 80b4
000000b0: f499 a1b2 ffbe c7b3 a4f1 9334 e4f1 95b4
000000c0: e044 c233 2e21 cbb3 5a1a 3332 53a6 1b34
000000d0: e13b 0135 879d cd34 c7ae 8233 9c74 b433
000000e0: f5b1 68b4 0422 0035 fc2d 95b4 c50b 9633
000000f0: f15a d334 04ad cbb3 e54e 1fb4 db6d 84b4
00000100: cfaa 75b4 dab9 2ab3 bd5a 4834 25c4 a0b4
00000110: 188d 52b4 26ae a334 d5fa 06b4 a43d 0435
00000120: 9100 66b3 ac98 a533 9a96 d234 0492 47b3
00000130: 4938 9db3 4a42 40b4 4e7b 0534 b047 af34
00000140: 4d95 9733 5ad8 eb33 3191 1cb4 70c1 efb3
00000150: 952c 06b5 3f7b e534 02db 50b4 345b cab2
00000160: ffe8 4134 40a5 b4b4 ee27 9db4 0a5f 1534
00000170: 1ed4 96b4 c4a6 0d34 3713 03b2 0ac0 2734
00000180: 1ef4 a732 9d5e 17b3 51b5 e134 976a 9633
00000190: 2324 44b4 d5bf 7ab4 0a8c 12b4 7ecb 1c33
000001a0: 77fe aeb4 c563 0233 61af 7f32 2e85 1c34
000001b0: 2b53 72b4 7832 c7b3 c64b a9b3 1ea2 4835
000001c0: bfc3 46b2 975d 00b4 1d61 c633 e3c7 96b3
000001d0: 5d86 a934 61d3 3ab2 65a0 5934 d5fa d8b3
000001e0: 2056 bb33 a20a 2f33 58ff eab3 b1b6 b731
000001f0: c642 1334 0d0e e134 dd96 0e33 f70c cf34
00000200: 7bec 14b5 ce8c 2fb4 4636 1533 43c8 7234
00000210: 96d0 6a34 83f0 9733 8c70 5f33 c649 cf33
00000220: 4468 85b4 1609 b033 9785 6ab4 39b0 a334
00000230: 3ec5 d933 14a9 4d34 cd46 ca34 e306 0035
00000240: 02eb 5fb4 0bfe c8b1 632f 0fb2 20db b9b3
00000250: 174b 2b35 e457 0d35 61a3 6f33 a4a4 3d35
00000260: 02bf 70b3 209b ab34 7e84 59b3 76b6 3030
00000270: 4be5 a634 3b4d 8db4 a454 e333 c762 d833
00000280: 5d6f 0234 7527 8733 1f90 25b0 0b97 e033
00000290: de6f 4534 71ad 3e33 ba97 3335 58d7 a1b4
000002a0: 759d e9b4 2ea7 3b34 be4c b334 458a 3834
000002b0: 2bd7 ea34 280f 9d34 3150 01b4 0b5f 0633
000002c0: 2128 32b4 139e 7134 c070 bf33 df2c 4db3
000002d0: 7b5b 28b4 5a23 8934 8867 89b4 dcfd e131
000002e0: 4307 0634 c677 a934 4051 0734 d476 6eb4
000002f0: 6340 e2b2 81fb b433 47b5 8f34 07a9 0233
00000300: 0416 e2b3 5e32 4e34 ac85 90b4 7f16 81b4
00000310: 56a6 e034 539a 11b4 7068 5834 a3a6 31b4
00000320: aa12 d632 cddf 5032 0db8 1634 d123 5bb3
00000330: da90 5db4 d0ef a834 c147 d334 058f 89b4
00000340: 73ce f4b0 1c85 dfb3 19eb 29b4 bb0c 43b3
00000350: e9bb 4333 9fd4 84b4 0613 22b4 7d32 2035
00000360: a2c1 1eb5 5af3 5cb5 5a1e 3fb5 dfbf 4332
00000370: ad3b d033 5d36 6534 ed6e e3b4 f40d 13b3
00000380: 3198 0fb4 9491 2f34 25b5 38b4 352c 10b4
00000390: 8d66 7b34 de78 08b5 fb7d 5bb4 0fd9 7bb4
000003a0: 4ca5 5c35 502e 7234 79fd 0134 35c5 b6b4
000003b0: e45d 9c33 b0b8 89b1 2f05 0833 06e6 f6b4
000003c0: fd0a 8d34 e684 81b3 4799 0a35 d27a 44b3
000003d0: 765b 54b5 ab7a e5b4 213d 76b4 1026 1333
000003e0: 43d9 81b4 9541 90b4 a43a 0e34 7525 b5b4
000003f0: dc11 14b2 bd0a bab3 9553 6134 ac45 fe33

model.time_mlp.3.weight f4 [32, 256]
0.06864637 0.00370313 -0.026063703 -0.043083433 -0.008998754 -0.017912949 -0.011102266 -0.022075264
0.0022270912 -0.014429435 0.009729658 -0.010862532 0.009976107 -0.01668349 -0.03312983 -0.010797063
-0.003282886 -0.07527956 0.031452224 -0.0064922427 -0.017834695 0.016809324 -0.010685221 0.07999661
-0.0031480778 0.007977522 -0.03415341 -0.06619447 0.023567172 0.01163201 0.005903083 -0.014408815
0.054678936 -0.10474393 -0.03070536 0.0028678884 0.0037136131 0.009132393 -0.034400903 0.00454929
-0.019585816 0.0030310533 0.0006726823 0.018463394 -0.0016884945 0.04438816 -0.07900041 -0.03654228
-0.016329978 -0.008622911 -0.0055127917 -0.029850205 0.02141644 -0.0046713585 0.005648316 -0.012471429
0.008933788 -0.025261449 -0.019626606 -0.006100773 -0.019968493 -0.03632438 0.035232868 0.022927094
0.01569784 0.019349111 0.0043044616 0.026377033 -0.029347833 -0.0092688445 -0.013767429 0.06302279
-0.026517099 0.020257667 -0.09954661 0.0068544704 -0.017182698 -0.016557593 -0.043972537 0.019319145
-0.009882166 -0.061284196 -0.030895928 -0.036435783 -0.010680446 -0.045468885 -0.021195615 -0.0011915475
-0.03042038 -0.044946432 0.021845013 -0.038580976 -0.040402144 0.013251253 -0.021827256 -0.032030374
-0.017238654 -0.04233497 -0.04510691 0.02189969 -0.01713427 0.009046232 -0.024007844 -0.009940488
0.0137625 0.000893684 0.0053235637 -0.0120198885 0.04877891 0.03188483 -0.016941186 0.02843577
0.0028119306 0.04163083 0.012209998 0.012600229 -0.0053868573 -0.042342607 -0.0005752081 0.0070943036
0.017849207 0.023233306 0.018143786 0.032181047 -0.024480531 -0.036636975 -0.04261395 0.03810419
-0.0038655635 0.022012189 -0.013088389 -0.005396608 -0.023537938 0.0040696966 -0.034558594 0.008039935
-0.050427202 -0.022302924 -0.034777634 0.036715377 -0.0012327706 -0.015978955 -0.0017816265 -0.0031180151
-0.0144279795 0.0010811735 0.04853936 0.0030475033 -0.030605545 -0.0569013 0.032832205 -0.046117827
-0.01338052 -0.0010460096 0.023909168 0.010091691 0.057763554 -0.006932221 0.040586583 -0.025962653
-0.03957835 0.05635307 -0.02618359 0.063926004 0.0034400462 -0.0076752626 -0.0033339355 0.043451916
0.008077062 -0.055692088 -0.072321884 0.0004496399 -0.0019943372 0.024653617 0.018664293 -0.03068337
0.009373314 0.007386364 0.030563183 0.0058243945 -0.0009958915 -0.004332806 0.019165637 0.008328318
0.0074954163 0.014782462 0.059253022 0.011314347 0.029761149 0.08816415 -0.019036306 0.0115860095
0.022518838 -0.011292015 -0.013424047 -0.011819259 -0.010622889 -0.007566357 0.0096541615 0.014032557
-0.042534187 -0.011690929 0.0131851435 -0.012891009 0.0074887085 0.048878875 0.0065568597 -0.0053864145
0.010201098 0.013380951 -0.035074193 -0.0061248443 -0.05752356 -0.011593083 0.043456305 -0.013491548
0.031859644 0.006285579 0.043848176 -0.00968531 0.0057049287 0.052991003 0.011933568 -0.050758604
0.028743649 -0.024374412 0.037258167 -0.007215671 -0.006751143 -0.027030317 -0.013451484 -0.04901466
-0.027427588 0.013532151 0.02949441 0.0077127023 -0.003763483 -0.039516743 0.024940893 -0.01768895
0.03389507 0.062348653 0.011561785 0.001561337 0.028176088 0.04707982 -0.0035567116 0.01504297
-0.013746575 0.03554449 0.001028295 0.020600745 0.0014666892 0.0018722126 0.012279997 -0.045688465
00000000: 7896 8c3d 36b0 723b 8c83 d5bc 4178 30bd
00000010: 836f 13bc 2dbe 92bc 47e6 35bc 2fd7 b4bc
00000020: 64f4 113b 7069 6cbc 2569 1f3c c3f8 31bc
00000030: d372 233c d0ab 88bc 25b3 07bd 2ae6 30bc
00000040: b025 57bb 2c2c 9abd 0cd4 003d e1bc d4bb
00000050: 111a 92bc b5b3 893c 1111 2fbc 43d5 a33d
00000060: fb4f 4ebb 27b4 023c 72e4 0bbd f790 87bd
00000070: f10f c13c 3094 3e3c a66e c13b f312 6cbc
00000080: 05f7 5f3d fc83 d6bd cf89 fbbc 2ff3 3b3b
00000090: 1760 733b 08a0 153c f6e7 0cbd 3612 953b
000000a0: 6f72 a0bc a3a4 463b f256 303a 8b40 973c
000000b0: 7950 ddba 5cd0 353d f8ca a1bd 5cad 15bd
000000c0: 72c6 85bc 1c47 0dbc a6a4 b4bb 6b88 f4bc
000000d0: 8871 af3c 3212 99bb 8215 b93b f754 4cbc
000000e0: 065f 123c 19f1 cebc fac7 a0bc fee8 c7bb
000000f0: f794 a3bc e0c8 14bd 5750 103d 9ad1 bb3c
00000100: c298 803c 0782 9e3c 710c 8d3b a614 d83c
00000110: de6a f0bc 5adc 17bc c890 61bc 1812 813d
00000120: 633a d9bc 68f3 a53c 18df cbbd 779b e03b
00000130: bbc2 8cbc caa3 87bc 8c1c 34bd 2f43 9e3c
00000140: cfe8 21bc 2305 7bbd 7519 fdbc b03d 15bd
00000150: 0afd 2ebc 953d 3abd 6da2 adbc b32d 9cba
00000160: 2934 f9bc c019 38bd 50f4 b23c 1607 1ebd
00000170: b87c 25bd c91b 593c 13cf b2bc 4832 03bd
00000180: 1438 8dbc 6f67 2dbd 06c2 38bd fb66 b33c
00000190: 2b5d 8cbc a636 143c 19ac c4bc 6edd 22bc
000001a0: 1c7c 613c 1e46 6a3a 4a71 ae3b 11ef 44bc
000001b0: 65cc 473d ab99 023d 3ec8 8abc 22f2 e83c
000001c0: 5e48 383b 1785 2a3d 720c 483c 3171 4e3c
000001d0: 3c84 b0bb 716f 2dbd 90c9 16ba 5577 e83b
000001e0: 8038 923c c653 be3c 47a2 943c 46d0 033d
000001f0: 658b c8bc a710 16bd f78b 2ebd 2413 1c3d
00000200: 6555 7dbb e852 b43c af70 56bc 07d6 b0bb
00000210: a2d2 c0bc 175b 853b 508d 0dbd eeb9 033c
00000220: c18c 4ebd 9fb4 b6bc fe72 0ebd dd62 163d
00000230: eb94 a1ba 4ce6 82bc 7785 e9ba 9d57 4cbb
00000240: 5563 6cbc 2ab6 8d3a 35d1 463d 9fb8 473b
00000250: 7bb8 fabc 5611 69bd 107b 063d 0ce6 3cbd
00000260: f839 5bbc 421a 89ba 29dd c33c 9f57 253c
00000270: 7a99 6c3d af27 e3bb 1e3e 263d a1af d4bc
00000280: e81c 22bd 7ad2 663d f87e d6bc a3eb 823d
00000290: 6672 613b c580 fbbb 287e 5abb a3fa 313d
000002a0: a755 043c 631d 64bd 7f1d 94bd a5bd eb39
000002b0: 6db3 02bb 62f6 c93c dce5 983c b15b fbbc
000002c0: 8792 193c 5009 f23b a45f fa3c 90da be3b
000002d0: 9388 82ba 36fa 8dbb 4101 9d3c 7f73 083c
000002e0: 1c9c f53b 2432 723c 4cb3 723d d05f 393c
000002f0: a7cd f33c 688f b43d 07f2 9bbc 3fd3 3d3c
00000300: 6d79 b83c 2502 39bc 89f0 5bbc 91a5 41bc
00000310: a00b 2ebc 34ef f7bb 7d2c 1e3c cfe8 653c
00000320: 5438 2ebd 4f8b 3fbc 8006 583c d034 53bc
00000330: d763 f53b 3735 483d edda d63b 8580 b0bb
00000340: 8222 273c c73b 5b3c f5a9 0fbd ebb2 c8bb
00000350: d39d 6bbd eaf0 3dbc 3dff 313d a70b 5dbc
00000360: 427f 023d 42f7 cd3b 259a 333d 22af 1ebc
00000370: 69f0 ba3b 180d 593d 0385 433c 41e8 4fbd
00000380: cd77 eb3c d9ac c7bc 059c 183d 6f71 ecbb
00000390: b138 ddbb af6e ddbc 9d63 5cbc 99c3 48bd
000003a0: d2af e0bc f4b5 5d3c 439e f13c d6ba fc3b
000003b0: c4a4 76bb 4fdc 21bd d850 cc3c 6be8 90bc
000003c0: 8fd5 0a3d 4d61 7f3d a46d 3d3c c7a5 cc3a
000003d0: 8ad1 e63c c5d6 403d b817 69bb ca76 763c
000003e0: 5139 61bc 1997 113d dbc7 863a e5c2 a83c
000003f0: ec3d c03a 0865 f53a 0a32 493c d423 3bbd

model.time_mlp.3.bias f4 [32]
-7.8974716e-07 -2.8375164e-06 -1.7073969e-06 -2.620492e-06 -1.8845637e-06 2.9970652e-06 3.6015208e-06 -3.8706808e-06
1.473148e-06 1.9638796e-06 1.7509411e-06 -5.2078275e-07 7.871916e-07 9.0858316e-07 -1.9401666e-06 6.3529274e-07
-3.3395518e-06 1.2344035e-06 -2.3658947e-06 1.1507254e-06 2.8192932e-07 1.8330827e-06 3.897982e-06 -1.9612817e-06
1.7301126e-06 -2.4020524e-06 9.92746e-07 2.1663143e-06 -1.3885323e-06 -3.5989733e-06 3.3551473e-06 4.3054823e-07
00000000: 03ff 53b5 296c 3eb6 b629 e5b5 b6db 2fb6
00000010: 1ef1 fcb5 3021 4936 a8b1 7136 e5e0 81b6
00000020: fbb8 c535 32cb 0336 e101 eb35 ebcb 0bb5
00000030: 654f 5335 5ce5 7335 cf33 02b6 fc88 2a35
00000040: 101d 60b6 c8ad a535 c3c5 1eb6 a072 9a35
00000050: 125c 9734 3e08 f635 69cb 8236 909e 03b6
00000060: 3736 e835 f232 21b6 7e3e 8535 ff60 1136
00000070: 9b5d bab5 e485 71b6 fe28 6136 1926 e734

model.layer.0.weight f4 [256, 55]
-0.008915828 -0.087990455 -0.14103848 0.100862645 -0.13054666 0.011943299 0.007342597 -0.02911012
-0.005983432 -0.10209949 0.10474793 -0.065395884 -0.071979694 0.035810083 0.019713074 0.14151974
0.03461364 -0.14425528 0.060150612 -0.06466332 0.047364414 0.10632768 0.008265902 0.005064903
0.015467485 -0.0053881193 -0.037787538 0.11236966 0.029407134 -0.01860788 -0.00083935866 0.08301215
-0.025641087 -0.0068758447 0.047720216 0.045168437 0.08973035 0.105921805 -0.036482602 0.013270444
-0.043469355 -0.00529845 0.1396461 -0.086452745 0.06094005 -0.019446578 0.045058653 -0.05772106
-0.08963157 -0.07533775 0.064035214 0.12702152 0.10027798 0.034572825 -0.05162236 0.026939843
0.064605184 -0.020709213 0.030173976 0.08224204 0.0002223448 0.0018708948 -0.09413158 -0.08869852
0.010365664 -0.013104957 -0.10907305 0.0017036531 -0.03348034 -0.0854327 -0.036277514 -0.013220616
0.03848043 0.04446642 0.11266589 0.0888272 -0.025467688 0.016657565 0.054897826 -0.10151888
-0.05244881 -0.032601025 0.073195405 -0.088338204 0.057322804 0.037964094 -0.07914274 0.015718611
-0.027430976 0.017536234 0.01599524 -0.024582237 0.0022320468 -0.023040202 0.09845179 0.094948635
0.06754987 0.06044651 0.120107405 0.035673715 -0.08365982 -0.00421868 0.054417633 -0.08378793
0.015575001 -0.047322962 0.04820111 -0.018754898 -0.0049966536 -0.0752877 -0.01665249 0.053272024
0.040885624 0.032896068 0.014170659 0.023266261 -0.03685062 -0.07001643 -0.0069079367 -0.08639972
-0.017545925 -0.03788746 -0.0013299343 -0.038837783 0.033221368 -0.10238033 -0.107142456 0.0013579341
0.009246988 -0.115108766 0.092241734 -0.0491711 -0.10193794 -0.054743238 -0.13712788 0.16129258
-0.09744326 -0.052852955 -0.00090338895 -0.042563602 0.12271719 -0.034925178 -0.016774308 0.08306118
0.040999424 -0.106620595 -0.02226973 -0.051296204 0.04145188 -0.048461374 0.08071113 0.0027823753
-0.04226089 -0.06373744 -0.017238673 -0.09296531 0.11891502 -0.05448534 -0.032608412 -0.0004646665
0.046109743 -0.04288303 -0.1454006 -0.03697114 0.02415356 0.06694957 -0.08643343 -0.02315212
-0.14561644 0.10224044 -0.013319308 -0.0022112753 -0.08939538 -0.017879972 0.09970803 -0.043740608
0.016009063 0.0017487864 0.08378669 -0.07512641 0.051695094 0.07749046 -0.004002613 -0.017622368
0.12192742 0.033106748 -0.033954438 -0.020672338 0.0051873755 0.04384342 -0.05703369 -0.031970605
0.032018714 0.025776148 0.015595833 0.019922676 -0.009118577 -0.08098338 -0.028721407 0.018744705
-0.08181806 -0.025016753 -0.047310755 0.047730584 0.050479595 -0.045235567 -0.021978194 -0.044862337
0.09511112 0.010651412 0.03654049 0.113293074 0.08368809 -0.086200155 0.052675635 0.118282534
-0.009713149 -0.031399284 0.010525798 -0.059445474 -0.072462305 -0.01680344 -0.03293169 -0.017328693
-0.0062716175 0.10318616 -0.14817442 0.0298457 0.027463041 0.14424439 -0.04137488 0.06906461
0.020185903 -0.076653615 0.05307405 0.016202861 -0.05993523 0.047890704 0.06858678 -0.06723933
-0.0153661305 -0.032564696 -0.039194208 0.03563622 -0.13547863 -0.01613768 -0.0129216835 0.09440963
-0.078875184 -0.0796026 0.029698895 -0.094448164 -0.1642493 0.092465006 -0.00078370667 -0.009318024
00000000: b113 12bc 5734 b4bd 646c 10be 1391 ce3d
00000010: 06ae 05be d4ad 433c 2b9a f03b 5978 eebc
00000020: aa10 c4bb 8a19 d1bd 1586 d63d 47ee 85bd
00000030: 176a 93bd 98ad 123d 507d a13c 8dea 103e
00000040: 08c7 0d3d a8b7 13be 7d60 763d 346e 84bd
00000050: 3001 423d 54c2 d93d b56d 073c 7cf7 a53b
00000060: 566b 7d3c d28e b0bb 1bc7 1abd 1022 e63d
00000070: 3be7 f03c 8e6f 98bc 6808 5cba 4602 aa3d
00000080: 420d d2bc c44e e1bb 4676 433d 8a02 393d
00000090: 8cc4 b73d 88ed d83d c86e 15bd 476c 593c
000000a0: ec0c 32bd 9f9e adbb 63ff 0e3e 230e b1bd
000000b0: 469c 793d 6e4e 9fbc 6c8f 383d eb6c 6cbd
000000c0: c290 b7bd ae4a 9abd e524 833d ee11 023e
000000d0: 8b5e cd3d 3c9c 0d3d f871 53bd f2b0 dc3c
000000e0: b94f 843d 5ea6 a9bc 6a2f f73c 846e a83d
000000f0: 3a25 6939 d038 f53a 0fc8 c0bd 92a7 b5bd
00000100: bfd4 293c 2cb6 56bc b161 dfbd 1d4d df3a
00000110: ae22 09bd 57f7 aebd bb97 14bd 489b 58bc
00000120: a89d 1d3d 6c22 363d 60bd e63d 09eb b53d
00000130: 9da1 d0bc 7275 883c 8bdc 603d 21e9 cfbd
00000140: 90d4 56bd a788 05bd 79e7 953d a9ea b4bd
00000150: 51cb 6a3d 3d80 1b3d 9715 a2bd 51c4 803c
00000160: edb6 e0bc 26a8 8f3c 7308 833c b060 c9bc
00000170: 8847 123b cebe bcbc 18a1 c93d 6e74 c23d
00000180: 9657 8a3d c296 773d dffa f53d 9a1e 123d
00000190: d755 abbd da3c 8abb 06e5 5e3d 0299 abbd
000001a0: 4a2e 7f3c b9d5 41bd 876e 453d dfa3 99bc
000001b0: f8ba a3bb 7030 9abd cd6a 88bc c433 5a3d
000001c0: af77 273d 07be 063d 0d2c 683c e398 be3c
000001d0: adf0 16bd c664 8fbd f95b e2bb 56f2 b0bd
000001e0: 79bc 8fbc e22f 1bbd 3151 aeba 5e14 1fbd
000001f0: 2113 083d c7ac d1bd 816d dbbd b5fc b13a
00000200: ae80 173c 25be ebbd 3ce9 bc3d a367 49bd
00000210: d7c4 d0bd 723a 60bd 406b 0cbe e229 253e
00000220: 5590 c7bd 577c 58bd 68d1 6cba 2c57 2ebd
00000230: 2653 fb3d b40d 0fbd 466a 89bc fb1b aa3d
00000240: 03ef 273d e65b dabd 026f b6bc f81b 52bd
00000250: 72c9 293d 6f7f 46bd e04b a53d 8358 363b
00000260: c119 2dbd c688 82bd 1e38 8dbc 9964 bebd
00000270: b889 f33d 052c 5fbd 6690 05bd 7b9e f3b9
00000280: 92dd 3c3d 1ea6 2fbd e5e3 14be 0d6f 17bd
00000290: b0dd c53c db1c 893d 0304 b1bd 84a9 bdbc
000002a0: 7a1c 15be 7063 d13d 3a39 5abc 0beb 10bb
000002b0: ed14 b7bd 0579 92bc b933 cc3d 5a29 33bd
000002c0: 7025 833c 8937 e53a 5b98 ab3d e0db 99bd
000002d0: 3cbe 533d 51b3 9e3d 5a28 83bb c95c 90bc
000002e0: 15b5 f93d f19a 073d cf13 0bbd 0959 a9bc
000002f0: dcfa a93b 2895 333d 299c 69bd 9cf3 02bd
00000300: 0e26 033d 8028 d33c aa85 7f3c e134 a33c
00000310: 1666 15bc 9dda a5bd 2849 ebbc 7f8e 993c
00000320: 3a90 a7bd efef ccbc ecc8 41bd 2581 433d
00000330: b1c3 4e3d ee48 39bd 9d0b b4bc 92c1 37bd
00000340: 9ec9 c23d 4383 2e3c 7bab 153d 3306 e83d
00000350: a964 ab3d b589 b0bd 68c2 573d 1d3e f23d
00000360: e623 1fbc 899c 00bd 6674 2c3c 197d 73bd
00000370: 1e67 94bd 5ea7 89bc 61e3 06bd e7f4 8dbc
00000380: 2482 cdbb 4453 d33d 09bb 17be f87e f43c
00000390: 2cfa e03c cdb4 133e b578 29bd bf71 8d3d
000003a0: e85c a53c 92fc 9cbd 2d64 593d ddbb 843c
000003b0: a57e 75bd 0b29 443d 3a77 8c3d c6b4 89bd
000003c0: 39c2 7bbc 8f62 05bd 1b8a 20bd 49f7 113d
000003d0: e9ba 0abe 2b33 84bc 78b5 53bc d659 c13d
000003e0: 5089 a1bd b006 a3bd 194b f33c 0a6e c1bd
000003f0: f830 28be 4b5e bd3d aa71 4dba a0aa 18bc

model.layer.0.bias f4 [256]
-5.488032e-07 -7.9599835e-07 -2.031025e-06 -1.46186e-06 3.81069e-06 2.647747e-07 -8.913515e-07 1.6233421e-06
-2.8709478e-06 7.1941613e-06 -9.184658e-07 -1.1556757e-06 3.3472274e-06 -1.364377e-06 3.604975e-06 2.4227713e-06
-6.743042e-07 2.2574015e-07 -3.052131e-06 1.5668495e-06 1.1853691e-06 1.9553884e-06 -2.7043973e-06 -1.2474147e-06
-1.7236995e-06 1.2837211e-06 2.8380134e-06 2.5260445e-07 -5.026342e-07 -1.1634223e-06 -1.3095814e-06 -1.2925664e-06
-4.737156e-07 -4.1925497e-07 -9.604954e-07 -2.2428292e-06 -5.4632412e-08 -7.551321e-07 -5.4034142e-08 -2.33838e-06
-2.6575153e-06 -3.0927247e-06 -2.0959699e-06 -1.892233e-06 4.9320124e-07 -4.9834483e-07 1.7896541e-06 1.9434672e-06
-4.8454103e-06 -4.2796682e-07 8.6299997e-07 6.862839e-07 -3.4914976e-06 2.1455325e-07 5.2203327e-06 8.786657e-07
-1.0564928e-06 -2.6387609e-06 1.2278945e-06 -1.4948987e-06 -2.5065171e-06 2.3326675e-06 7.380878e-07 2.1544133e-07
-6.595283e-07 -2.2619236e-06 -2.4486917e-06 5.2431056e-07 -2.7987514e-06 -1.986277e-06 3.1498514e-06 3.6566628e-06
3.533732e-06 -2.7033807e-06 -2.8752905e-07 -3.013344e-07 2.0427742e-06 -1.3699041e-06 2.595737e-06 9.957183e-07
1.3960241e-06 -8.2288506e-07 3.4593683e-07 -1.2318995e-06 -3.3576646e-07 4.004248e-06 1.6521053e-06 -9.277418e-07
-2.481636e-06 -3.323916e-06 1.0519224e-06 1.9291161e-07 -1.2816265e-07 -5.2183975e-07 -3.4681889e-06 6.0652076e-07
2.2940885e-06 -2.4533148e-07 -5.0377785e-06 9.4395693e-07 -2.8067873e-07 3.9792553e-06 1.8112935e-06 1.441931e-06
-4.4240232e-07 -1.9401825e-06 -1.2430165e-06 -1.6672257e-06 1.3043472e-06 1.6329795e-06 -7.662744e-07 -6.987547e-07
2.3208254e-06 3.3767647e-06 -2.7159242e-06 -2.94505e-06 -2.931207e-07 -1.5628448e-06 -3.8259986e-07 1.770581e-08
-4.848976e-07 5.5855463e-07 1.2614661e-06 4.1078522e-07 -2.1435803e-06 1.4354097e-06 1.0118348e-06 -2.4637968e-08
-1.753963e-06 -3.2469113e-06 1.3716254e-06 -7.704878e-07 -1.8210188e-06 -9.887648e-07 -2.5586653e-06 -3.2859913e-07
-2.3450878e-06 -1.4373029e-06 -1.9031057e-06 -3.2787702e-07 -6.313198e-07 2.182569e-06 -4.99864e-06 -2.0695998e-06
-5.612559e-07 2.902957e-07 1.7034154e-06 -6.8207015e-07 2.0647661e-07 -3.5320393e-06 1.095512e-06 1.622137e-08
-5.3446155e-07 -7.273335e-07 -3.9516652e-07 1.7902111e-06 -3.6989813e-06 -6.278955e-07 -1.7867666e-06 -2.1648555e-06
1.3695801e-06 -7.9853487e-07 -6.8660273e-07 -1.2219662e-06 -6.3528864e-07 1.4120031e-06 2.9971482e-06 -2.6829719e-07
-2.2618974e-06 -9.154362e-07 2.03961e-06 -2.851647e-06 -1.2232464e-06 -6.6608703e-07 1.1124293e-07 -1.8564489e-06
-2.6037808e-06 1.1077667e-06 -3.425648e-06 2.2947184e-08 2.5573822e-06 -2.0130763e-06 -9.714975e-07 -6.189153e-06
1.5079221e-06 -1.6740305e-06 2.3609127e-07 -2.0173582e-06 1.4615871e-06 5.447205e-07 -4.931473e-07 3.0698566e-06
1.8804245e-06 -3.385975e-06 -1.5242503e-06 4.739581e-08 -1.8819432e-07 2.8929157e-06 -1.2456844e-06 3.189187e-06
-2.8264503e-07 -1.3885991e-06 -3.8613803e-06 -2.0248852e-07 -4.3877967e-06 5.457313e-07 5.615435e-07 -9.653219e-08
-4.837779e-07 2.7015462e-06 -4.1058823e-07 -3.3475652e-07 9.82027e-07 6.263934e-07 -3.5416343e-07 -4.8475175e-07
1.6286583e-06 -1.2962141e-06 -9.974043e-07 3.5744318e-07 1.5253903e-06 1.3523936e-06 -2.615902e-06 -1.1890241e-06
-1.5535942e-06 -1.6136768e-06 -8.39207e-07 -9.1503034e-07 1.2245689e-06 -8.38425e-07 1.6480493e-06 -3.4891145e-06
1.5741513e-06 1.1115413e-06 1.8360228e-06 7.6628055e-07 -5.783431e-06 1.1859598e-06 3.2375542e-06 -5.4804315e-07
-1.4566627e-06 2.2380325e-06 -2.0423477e-06 -3.6502815e-06 -1.0978742e-08 -3.8107664e-06 1.5752916e-07 -1.539002e-06
8.868202e-07 -3.4856153e-06 -2.0956832e-06 2.2952265e-06 2.6212479e-06 -8.4667613e-07 -1.868987e-06 3.03053e-07
00000000: 7851 13b5 97ac 55b5 be4c 08b6 2135 c4b5
00000010: 28bb 7f36 5c26 8e34 3545 6fb5 9ce1 d935
00000020: 82aa 40b6 6065 f136 7d8c 76b5 b71c 9bb5
00000030: eea0 6036 a31f b7b5 00ed 7136 e596 2236
00000040: d501 35b5 fb62 7234 36d3 4cb6 8a4c d235
00000050: f918 9f35 5139 0336 317d 35b6 d86c a7b5
00000060: dd59 e7b5 524c ac35 b374 3e36 b19d 8734
00000070: c2ec 06b5 e326 9cb5 e0c4 afb5 3e7c adb5
00000080: fa52 feb4 f715 e1b4 5fea 80b5 8383 16b6
00000090: f9a4 6ab3 48b4 4ab5 2b13 68b3 10ed 1cb6
000000a0: c457 32b6 9b8c 4fb6 7da8 0cb6 a1f8 fdb5
000000b0: 8864 0435 ffc5 05b5 0c34 f035 836c 0236
000000c0: c295 a2b6 50c3 e5b4 e8a8 6735 1239 3835
000000d0: 794f 6ab6 f35f 6634 512a af36 72dd 6b35
000000e0: d1cc 8db5 9115 31b6 22ce a435 54a4 c8b5
000000f0: a335 28b6 ec8a 1c36 0221 4635 1054 6734
00000100: 710a 31b5 8dcb 17b6 3454 24b6 59be 0c35
00000110: 2fd2 3bb6 fb4b 05b6 0962 5336 fd64 7536
00000120: 0e25 6d36 ba6b 35b6 b15d 9ab4 16c7 a1b4
00000130: 9816 0936 8cdd b7b5 6c32 2e36 9fa4 8535
00000140: 065f bb35 3be4 5cb5 32b9 b934 bf57 a5b5
00000150: 6443 b4b4 3a5c 8636 e8bd dd35 ee09 79b5
00000160: 2f8a 26b6 7110 5fb6 c72f 8d35 2423 4f34
00000170: 159d 09b4 8e14 0cb5 08bf 68b6 cacf 2235
00000180: 24f4 1936 1ab6 83b4 300a a9b6 3a64 7d35
00000190: 31b0 96b4 8b85 8536 921b f335 5f88 c135
000001a0: 5083 edb4 1534 02b6 b9d5 a6b5 70c5 dfb5
000001b0: 0711 af35 c02c db35 fab1 4db5 0f92 3bb5
000001c0: 7abf 1b36 609c 6236 3943 36b6 93a3 45b6
000001d0: 345e 9db4 f0c2 d1b5 2068 cdb4 7d17 9832
000001e0: e929 02b5 95ef 1535 a54f a935 e489 dc34
000001f0: 6eda 0fb6 4da8 c035 61ce 8735 77a3 d3b2
00000200: b669 ebb5 83e5 59b6 b118 b835 85d3 4eb5
00000210: bb69 f4b5 b3b5 84b5 89b5 2bb6 526a b0b4
00000220: 4d60 1db6 5ae9 c0b5 376e ffb5 1307 b0b4
00000230: f777 29b5 4078 1236 feb9 a7b6 74e3 0ab6
00000240: 36a9 16b5 f0d9 9b34 e8a0 e435 8117 37b5
00000250: dcb3 5d34 f907 6db6 8109 9335 2b57 8b32
00000260: eb77 0fb5 fa3d 43b5 4627 d4b4 2f47 f035
00000270: 043c 78b6 a68c 28b5 d5d0 efb5 ef47 11b6
00000280: 6ad2 b735 e65a 56b5 fb4e 38b5 7002 a4b5
00000290: b488 2ab5 0f84 bd35 9d22 4936 7c0a 90b4
000002a0: 1acb 17b6 4cbc 75b5 3ce0 0836 ec5e 3fb6
000002b0: 6d2e a4b5 27cd 32b5 73e4 ee33 192b f9b5
000002c0: 9dbc 2eb6 93ae 9435 2fe4 65b6 641d c532
000002d0: 7e9f 2b36 6318 07b6 6664 82b5 6bac cfb6
000002e0: cf63 ca35 40af e0b5 4680 7d34 f361 07b6
000002f0: c02b c435 e838 1235 d360 04b5 bc03 4e36
00000300: e562 fc35 9c3a 63b6 d794 ccb5 3f90 4b33
00000310: 7612 4ab4 ea23 4236 6431 a7b5 d105 5636
00000320: 70be 97b4 e75f bab5 0191 81b6 9f6b 59b4
00000330: e33a 93b6 5f7e 1235 fabc 1635 224d cfb3
00000340: f7dc 01b5 364c 3536 d16e dcb4 96b8 b3b4
00000350: 31ce 8335 6d25 2835 da23 beb4 e31f 02b5
00000360: 4698 da35 94f9 adb5 8dde 85b5 9ee6 bf34
00000370: 03bc cc35 e483 b535 db8c 2fb6 8f96 9fb5
00000380: 1785 d0b5 8395 d8b5 de45 61b5 68a0 75b5
00000390: de5b a435 2110 61b5 8b32 dd35 8826 6ab6
000003a0: 6d47 d335 4530 9535 436d f635 66b2 4d35
000003b0: 4b0f c2b6 452d 9f35 c244 5936 3d1d 13b5
000003c0: 8d82 c3b5 1b31 1636 440f 09b6 5cf7 74b6
000003d0: 059d 3cb2 78bc 7fb6 4925 2934 b58f ceb5
000003e0: d20d 6e35 6aea 69b6 90a3 0cb6 b107 1a36
000003f0: b2e8 2f36 2447 63b5 e8d9 fab5 4ab3 a234

model.layer.2.weight f4 [256, 256]
0.03452085 0.019409293 0.028114147 -2.5143778e-05 -0.012904103 -0.019668542 0.0455359 0.069319665
-0.01853881 -0.055686686 -0.010594904 0.01096714 -0.059051145 -0.024145344 0.026440466 0.0059251264
-0.015707942 -0.05447311 -0.06948882 0.0035664134 0.017680522 -0.042429913 0.007519605 -0.033241685
0.0025114361 -0.0011826528 0.015858838 -0.05977245 0.04639105 -0.052299377 0.004884378 0.0042021396
0.0010085871 0.018763648 0.026379244 -0.014676156 0.06364198 -0.01564407 -0.027268514 0.042634506
-0.045338407 0.004504868 0.03396277 -0.0059782257 0.005175038 0.015109405 -0.035103228 -0.0037826304
0.0006094576 -0.04396675 -0.0838552 0.017813573 -0.00616587 -0.013369816 -0.010885979 -0.0018964687
-0.047476377 0.01803138 0.023523629 -0.023225322 0.016755069 0.053117495 -0.0038576082 0.019294407
0.029794997 -0.06775251 -0.008668713 0.03944538 -0.024290245 -0.007934071 0.004025585 0.012093292
0.033294 0.01319106 -0.0015526208 -0.0343166 -0.03398498 -0.03564211 -0.019796832 0.0034239013
0.008888053 -0.0633437 0.016404996 -0.007637567 0.023427308 0.016246818 0.031306658 -0.06575908
0.039664634 0.0032823335 -0.017568478 0.0048032952 0.037267998 -0.019813664 0.033461075 0.014728951
0.015667323 -0.0010507866 0.029172147 0.038651038 -0.03390128 0.022276388 -0.020273438 0.04324481
-0.018168118 0.03854307 0.03811373 -0.041160773 0.053381957 -0.03419459 0.0023441038 -0.064154014
0.010126263 -0.037692565 0.038848367 -0.021708662 -0.05631805 0.019065812 0.045822736 -0.04433412
-0.0015586127 -0.008787458 -0.013608977 -0.044765696 -0.00072440086 -0.005263653 0.06883863 -0.0041685454
-0.016325576 -0.030378377 -0.017442474 0.018271454 -0.017816616 0.009894617 0.05765847 -0.032538973
-0.05002327 -0.02770604 0.015375721 -0.0096056545 0.022676678 0.044996668 0.009380733 0.028842313
0.010989141 -0.02589799 0.013092464 -0.0063680112 -0.0196384 -0.014891724 -0.01647007 -0.0070751314
0.006644167 0.006609012 -0.003800869 0.00625419 0.016107678 -0.03460675 0.013135266 -0.043680634
-0.04073578 0.009323548 -0.0062805726 0.035962358 -0.02027448 0.005360685 0.014131711 0.01425162
-0.010031325 -0.044969182 -0.0075431447 -0.043988835 -0.053381618 0.025505977 -0.027086645 -0.025702715
0.011146842 -0.046368998 0.011154252 -0.0021965466 0.023689093 -0.02776154 0.04062214 -0.012536186
-0.034210972 0.010182444 -0.006761766 -0.014736106 -0.036894713 -0.019883523 0.007701756 0.04188504
-0.00016711347 -0.011952989 -0.100552805 -0.050404456 0.043409906 0.084470026 -0.009275468 -0.03245408
0.008720406 -0.041015234 -0.006211074 -0.01595561 -0.0025931627 0.035906296 0.007930655 0.025295326
-0.006848694 0.020321725 -0.033042006 -0.030509947 0.014531971 0.027748618 -0.04896908 0.042436615
0.09924665 -0.016511252 -0.029616587 0.050212026 -0.038239136 0.02756747 -0.029405018 0.0027629354
-0.019433064 0.011390807 0.005055949 -0.005140946 0.017189128 -0.0048744264 0.00052034867 -0.0502085
0.06068175 -0.010114896 -0.008124008 -0.024614658 -0.0069088577 0.001998058 0.09367586 -0.004088489
-0.023193402 0.013766318 -0.0032886236 -0.049934737 -0.0031498307 0.053963125 -0.022958288 -0.020214494
0.031220242 -0.0069614877 0.014895103 0.024519691 -0.03721514 -0.027256534 -0.016908372 -0.042396825
00000000: bc65 0d3d 3d00 9f3c a44f e63c daeb d2b7
00000010: bb6b 53bc ec1f a1bc da83 3a3d 78f7 8d3d
00000020: b4de 97bc b917 64bd 4096 2dbc 85af 333c
00000030: 9ddf 71bd 75cc c5bc ad99 d83c 9027 c23b
00000040: f1ad 80bc 321f 5fbd 2850 8ebd 7dba 693b
00000050: bed6 903c fdca 2dbd 0567 f63b 6f28 08bd
00000060: e896 243b 3e03 9bba 65ea 813c f5d3 74bd
00000070: 8b04 3e3d df37 56bd 220d a03b 1ab2 893b
00000080: 9132 843a 39b6 993c 4919 d83c 4374 70bc
00000090: ba56 823d fe27 80bc 3862 dfbc 85a1 2e3d
000000a0: c4b4 39bd 929d 933b 8c1c 0b3d fee4 c3bb
000000b0: 5d93 a93b 708d 773c 67c8 0fbd 02e6 77bb
000000c0: 02c4 1f3a 7b16 34bd 46bc abbd c5ed 913c
000000d0: 110b cabb 130d 5bbc 1b5b 32bc ee92 f8ba
000000e0: 9776 42bd 8bb6 933c a0b4 c03c 0843 bebc
000000f0: ed41 893c bb91 593d edcf 7cbb 4e0f 9e3c
00000100: a314 f43c d4c1 8abd 3807 0ebc 7b91 213d
00000110: 56fc c6bc e8fd 01bc 0ee9 833b f122 463c
00000120: 4a5f 083d 511f 583c 4f81 cbba 908f 0cbd
00000130: d633 0bbd 76fd 11bd f72c a2bc 8863 603b
00000140: 329f 113c 57ba 81bd c563 863c 8e44 fabb
00000150: a0ea bf3c 0c18 853c 693b 003d b2ac 86bd
00000160: 6277 223d 6b1c 573b c5eb 8fbc f664 9d3b
00000170: 54a6 183d 4450 a2bc 7b0e 093d b351 713c
00000180: c258 803c 8cba 89ba 6dfa ee3c 8d50 1e3d
00000190: 12dc 0abd f97c b63c 7b14 a6bc 7821 313d
000001a0: 4ed5 94bc 57df 1d3d 241d 1c3d 3398 28bd
000001b0: 0aa7 5a3d a00f 0cbd 899f 193b 2e63 83bd
000001c0: a0e8 253c 8563 1abd 771f 1f3d 5dd6 b1bc
000001d0: c1ad 66bd e82f 9c3c 9fb0 3b3d b297 35bd
000001e0: 5d4a ccba 45f9 0fbc 30f8 5ebc 3c5c 37bd
000001f0: b8e5 3dba b97a acbb 45fb 8c3d 4b98 88bb
00000200: 37bd 85bc 13dc f8bc 85e3 8ebc 04ae 953c
00000210: 27f4 91bc 081d 223c 4a2b 6c3d 9647 05bd
00000220: 33e5 4cbd c7f7 e2bc 73ea 7b3c 0961 1dbc
00000230: 71c4 b93c 6d4e 383d a5b1 193c b746 ec3c
00000240: cc0b 343c 0628 d4bc c681 563c c0aa d0bb
00000250: b6e0 a0bc 6bfc 73bc 3eec 86bc 81d6 e7bb
00000260: 50b7 d93b 6990 d83b 0018 79bb f3ef cc3b
00000270: 40f4 833c cfbf 0dbd 4c35 573c 77ea 32bd
00000280: 90da 26bd cbc1 183c 43cd cdbb 444d 133d
00000290: ab16 a6bc afa8 af3b b188 673c a07f 693c
000002a0: 6d5a 24bc 9b31 38bd 7c2c f7bb a32d 34bd
000002b0: afa6 5abd e9f1 d03c d0e4 ddbc 808e d2bc
000002c0: 3ea1 363c 6bed 3dbd 53c0 363c f0f3 0fbb
000002d0: a10f c23c 2b6c e3bc 6763 263d 9364 4dbc
000002e0: ce20 0cbd 44d4 263c ce91 ddbb b56f 71bc
000002f0: e91e 17bd c5e2 a2bc 035f fc3b a68f 2b3d
00000300: 2e3b 2fb9 78d6 43bc a1ee cdbd e774 4ebd
00000310: 96ce 313d 9ffe ac3d 22f8 17bc 92ee 04bd
00000320: 09e0 0e3c 97ff 27bd 4486 cbbb 57b5 82bc
00000330: 0df2 29bb 7b12 133d 94ef 013c 2538 cf3c
00000340: 026b e0bb bf79 a63c 0e57 07bd ffef f9bc
00000350: 8117 6e3c 1251 e33c cd93 48bd 04d2 2d3d
00000360: d441 cb3d 9b42 87bc 7c9e f2bc 20ab 4d3d
00000370: a4a0 1cbd 2dd5 e13c cbe2 f0bc 5d12 353b
00000380: 1732 9fbc 82a0 3a3c 60ac a53b 6175 a8bb
00000390: 37d0 8c3c a7b9 9fbb 0268 083a 6ea7 4dbd
000003a0: 6d8d 783d f3b8 25bc 8f1a 05bc aea4 c9bc
000003b0: b363 e2bb daf1 023b 21d9 bf3d bbf8 85bb
000003c0: 1700 bebc 1f8c 613c f385 57bb 5e88 4cbd
000003d0: 646d 4ebb 7008 5d3d 0513 bcbc de98 a5bc
000003e0: 98c1 ff3c 311d e4bb 970a 743c 85dd c83c
000003f0: e76e 18bd 1849 dfbc 6d83 8abc 4ba8 2dbd
